checkpoint/pretrain_cnn_features_1d_spinel5v_1114/best_model.pth (torch, 111202 bytes, 10 tensors)

model_cnn.conv1.weight f4 [32, 22, 3]
000000 cc 7e 80 bd e7 cf d2 bd 0e 28 54 3a 95 58 96 3d
       -0.062741846 -0.102935605 0.0008093127 0.073411144
000010 e2 b8 31 bd af bc 45 3d 49 3a 9d ba 78 44 4e b8
       -0.04338921 0.048275646 -0.001199552 -4.9177994e-05
000020 9a 7d 52 3d 6f 9e c9 3d 30 41 26 3d e6 cf ea 3c
       0.051389314 0.09844672 0.04058951 0.028663587
000030 37 5c ee 3c 78 e2 17 3d d3 9c 9b bc 0d dd 9b bb
       0.029096706 0.03708121 -0.018995678 -0.004756576
000040 51 ce 24 3d 01 7c af bd d9 80 6b 3c 7a 68 c4 bd
       0.04023582 -0.08568574 0.014373981 -0.0959024
000050 ad 95 c5 bd 1d e7 03 bb 9b 95 4e 3c f9 96 96 3c
       -0.09647689 -0.0020126768 0.012608911 0.018382536
000060 1c 3e 38 bd 9c b3 9f bc 69 c9 b2 bb fa 49 68 bb
       -0.044981107 -0.019494824 -0.005456139 -0.0035444484
000070 e0 c6 ad bd 9b 4f 0f 3d af d3 22 3d 0a 2c 4c 3b
       -0.08485198 0.034988027 0.03975266 0.003115418
000080 b2 02 21 3c a1 b6 7a 3d 33 e9 a9 3d f7 85 95 3c
       0.009827303 0.061209325 0.08296432 0.018252356
000090 f6 ae cb bd 72 be be bd 20 d6 00 3c f8 30 d2 bd
       -0.099454805 -0.09313668 0.007863551 -0.10263246
0000a0 53 e6 ab bd 05 c9 2d bc 17 29 2f bd 6a 63 2f bc
       -0.0839354 -0.010607009 -0.042763796 -0.0107048545
0000b0 04 e1 e5 3c c3 cc bc 3d c8 55 06 3e 78 b7 01 bd
       0.028061397 0.09218743 0.1311866 -0.03166911
0000c0 d9 68 e9 bd 81 71 b1 3d ac 0b d8 3d c9 6e 07 3e
       -0.11396951 0.08664227 0.10549101 0.13225855
0000d0 82 bb 30 3d 29 f5 bf 3d 5a b0 91 ba 97 ae bc bd
       0.04314757 0.093729325 -0.0011115179 -0.09212988
0000e0 9a 59 db bd 9b 83 99 bd 8d e4 02 3d b4 2f 10 bd
       -0.107104495 -0.07495805 0.031956244 -0.035201743
0000f0 77 6b f8 3c 35 6c 67 3d d8 d0 a7 bd ff eb c6 3c
       0.03032468 0.05649968 -0.08194131 0.024282454
000100 7c 26 09 3e 47 2d c3 3d 28 1b 2f ba 02 e1 49 bc
       0.13393587 0.0953012 -0.0006679767 -0.012321712
000110 01 a1 08 bd 3c c5 ac 3c 99 75 c2 bd 46 ae d4 3d
       -0.03335667 0.021090142 -0.09495086 0.103848025
000120 6b ed 98 bc ca c4 cf bd 64 78 a1 bd 9a ce 80 bd
       -0.018667897 -0.101449564 -0.07884291 -0.06289406
000130 7f b0 ea bd 79 da 57 bd d0 fb 0d be 7a 7d a0 3c
       -0.11459445 -0.052698586 -0.1386559 0.019591082
000140 85 eb 71 bd d7 79 b3 3c 15 1e 8c bd 81 11 83 bd
       -0.0590625 0.021908684 -0.06841675 -0.06399823
000150 46 d6 83 bd d0 f8 2f bc 07 40 d1 bd 5e 74 ca bd
       -0.06437354 -0.010740474 -0.1021729 -0.098854765
000160 1b a5 14 3d 4e 7a c2 bd 91 2c e4 3d 39 dd d4 3d
       0.03629027 -0.09495984 0.11141313 0.103937574
000170 ce 03 a9 3d 64 7a c2 3d 17 bb 78 bd 49 d1 fb 3c
       0.08252679 0.094960004 -0.060725298 0.030739443
000180 27 90 ef 3c 48 13 d0 3d 4b 67 d9 bd 5e 94 05 bd
       0.029243542 0.101599276 -0.10615405 -0.032612197
000190 d2 4f 66 3d 21 29 90 3d e0 e4 e0 bd 36 4d d1 3d
       0.056228466 0.07039095 -0.109811544 0.10219805
0001a0 ff 52 c6 3d 45 bc a9 3d 20 8a 88 bd c2 35 ab bd
       0.09683799 0.08287863 -0.0666697 -0.08359863
0001b0 73 f1 92 3c ef 82 9a 3d c4 f7 bf 3d 86 ac c9 bd
       0.017937398 0.07544505 0.093734294 -0.09847359
0001c0 34 60 7b 3d b2 d0 14 bd 12 ed 97 bd 36 ba 69 3d
       0.061371043 -0.03633184 -0.074182644 0.05706235
0001d0 30 6a 33 3d 98 67 8b 3c f4 2a b3 bd a6 2a d9 3d
       0.04380244 0.01701717 -0.08748427 0.10603838
0001e0 81 ed 25 bc cb 0c 73 3c 12 7a c8 bc 85 81 ec bd
       -0.010127426 0.014834593 -0.02447227 -0.115481414
0001f0 b3 5b 04 bd 30 88 54 3c 75 6c cd ba 6b 24 1f bd
       -0.032314014 0.012971923 -0.0015672582 -0.03885309
000200 dd 13 9a 3d f0 98 b6 bc c0 38 d1 bd bf 71 6a bd
       0.0752332 -0.022289723 -0.10215902 -0.057237383
000210 7d 24 42 bd 0b 12 80 3d 5b b7 9f 3d 4a 7d 9f 3d
       -0.04739808 0.062534414 0.07798644 0.07787569
000220 67 c1 14 3e 3d aa 12 3e d6 05 87 3d c7 95 e7 3d
       0.14526902 0.14322753 0.0659291 0.11307865
000230 9e e7 a5 3d 80 ef 46 3d a0 2c 0b 3e be 89 11 bc
       0.08100818 0.04856825 0.13591242 -0.008882938
000240 38 c7 7c bd ff 71 a6 bd c7 d7 d1 3d c8 9e ae bd
       -0.061713427 -0.08127212 0.102462344 -0.08526379
000250 02 78 5e 3d 56 d1 9f bb 9c ef d2 bd 65 19 e2 bc
       0.054313667 -0.0048772497 -0.10299608 -0.0276
000260 94 aa 54 3d 7b 62 75 bc 2a dc 01 3d 04 ab 83 bd
       0.05192049 -0.014977093 0.031704105 -0.06429103
000270 b4 cb 5d bd 67 9f e4 bb b7 81 da bd 9b aa c1 bc
       -0.054149345 -0.00697701 -0.106692724 -0.023640921
000280 46 2d 0a 3c 33 31 52 3d 8b 03 1b bd 76 fe af 3d
       0.008433646 0.05131645 -0.037845176 0.085934564
000290 7a 7b 63 bb 34 55 00 bd e6 d0 d7 bc 06 27 ac 3d
       -0.003471105 -0.031331256 -0.026344728 0.08405881
0002a0 9a 43 56 bc bf 90 9a bd e5 05 ac bd 35 96 c7 3c
       -0.013077641 -0.075471394 -0.08399562 0.024363616
0002b0 34 f1 60 3d 5d d0 51 bd 4e 46 bd bd 05 03 87 3d
       0.05491753 -0.0512241 -0.09241925 0.06592373
0002c0 56 34 46 3d d5 a6 43 bd 08 da 36 bd 33 ea ee 3d
       0.048389755 -0.047766525 -0.044641525 0.11665764
0002d0 05 8d 7c bd d7 91 d0 3d c1 4d 88 bd ca 67 77 3d
       -0.061657924 0.10184067 -0.066554554 0.060401715
0002e0 ba 8b d0 3b 9b 98 6e 3d 17 36 23 3d a0 b1 80 bd
       0.006364313 0.058251005 0.039846506 -0.06283879
0002f0 ea 8d 00 be e7 a5 fc 3b 91 04 92 3c a8 a7 71 bc
       -0.12554136 0.007710207 0.017824443 -0.014749445
000300 ce 70 5d 3d 72 de f2 3d d6 0b 52 bd 7a 4b 53 3d
       0.054062657 0.11858834 -0.05128082 0.051585652
000310 2c ee 44 3d 9f 55 9b 3d 38 bf 51 bd 01 c4 f1 bd
       0.0480787 0.0758469 -0.05120775 -0.11804963
000320 a2 7c 90 bd 6e a7 93 3b b6 1c fe bd 59 3a be 3d
       -0.07055022 0.004506043 -0.1240782 0.09288473
000330 ab 82 c4 3d e6 42 dc 3c 19 ab cc bd 3d b5 f4 bd
       0.095952354 0.026887368 -0.09993572 -0.11948631
000340 fa 67 94 3d d3 f9 c3 bd a9 ff 25 3d 24 ba ee 3d
       0.072463945 -0.095691346 0.04052702 0.11656597
000350 6c ea ac bd e3 cc 5c 3d ae 4e d4 3a 2a 59 68 3d
       -0.0844315 0.053906333 0.0016197765 0.05672566
000360 86 5b 98 3d e3 28 5e 3c 81 b8 d0 3c 9c 03 f7 bc
       0.07439332 0.013559553 0.025478603 -0.030153088
000370 23 d6 ef 3c e9 95 ca 3c cc ae ab 3d e3 09 e8 3d
       0.029276913 0.024729686 0.08382949 0.11330011
000380 a8 27 14 3d e2 f7 d0 3d 2e e7 eb bd b6 69 55 bd
       0.03617063 0.1020353 -0.115187034 -0.052102767
000390 09 8b d8 bd f1 e5 56 bd 2f f4 b7 3d 90 1d d6 bd
       -0.10573394 -0.052465383 0.08982121 -0.10454857
0003a0 3d cf 8b 3d 8b 33 30 bd 27 67 8d bb e2 e3 ba bd
       0.06826637 -0.043017905 -0.0043152752 -0.091254964
0003b0 41 53 a1 bd 61 c2 c8 3c fb 1b 9f 3c 3d 48 e4 bd
       -0.078772075 0.02450675 0.019422522 -0.11146591
0003c0 5f 55 0f bc ef b3 4a bd e5 c8 aa bd a1 8f b6 bd
       -0.008748381 -0.049488004 -0.08339099 -0.08914114
0003d0 a9 bf 1e 3d e6 1d df 3b bb 2c 88 3d b3 eb bd 3d
       0.038757 0.006808984 0.06649157 0.09273472
0003e0 19 19 39 3d 2a a0 c7 bc 7e d8 bd 3d e9 01 60 3d
       0.04518995 -0.024368364 0.09269808 0.05468932
0003f0 32 d5 bf 3d d6 b5 56 3d be 21 93 3c d0 4b a1 3d
       0.09366836 0.052419506 0.017960425 0.07875788

model_cnn.conv1.bias f4 [32]
000000 37 7c f5 3c a9 a7 94 3c eb 7e 6c 3d 47 91 b6 3b
       0.029966457 0.018146353 0.057738226 0.0055715176
000010 c1 2a c2 bd 76 b6 f0 3d cd 84 cb bd 42 f5 8e bd
       -0.09480811 0.11753552 -0.09937439 -0.06980373
000020 7a c4 0f bd e0 59 ab bc e7 fd c2 bd 28 5b fe bc
       -0.035099484 -0.02091688 -0.09521084 -0.031049326
000030 7f e0 eb bd 0d 66 8c 3d b8 38 9b 3d d0 f3 8f 3d
       -0.115174286 0.06855402 0.075791776 0.070289254
000040 a2 25 7e bd 19 02 9d 3c 9e 0c d0 bb 67 4c 7b bd
       -0.06204761 0.01916604 -0.0063491603 -0.06135216
000050 f4 78 6a 3d b9 35 06 3d c9 7b 95 bc fc 75 d7 3d
       0.057244256 0.032766078 -0.018247502 0.105205506
000060 c5 86 1e 3c ae 55 ce 3d dc 37 83 bd 75 e3 cc 3c
       0.009675686 0.10074936 -0.06407139 0.025010804
000070 a3 26 5d bc f4 89 db 3d c0 a0 6c bd 6a f2 b4 bd
       -0.013497981 0.10719672 -0.05777049 -0.08835299

model_cnn.conv2.weight f4 [64, 32, 3]
000000 c4 11 7e 3d 5b 1e bc 3d e2 d0 a5 bd df 42 af 3d
       0.06202866 0.09185477 -0.08096482 0.085576765
000010 5e a0 69 3d 94 ba b1 bd 02 07 0b bd 9f 8c db 3c
       0.057037704 -0.08678165 -0.03394223 0.026800452
000020 69 48 d5 3d a8 a3 7a 3d 38 c0 89 bd be 1a de bc
       0.10414202 0.06119123 -0.06726116 -0.027112361
000030 e5 95 ce 3c 52 b6 20 3d 4c df 02 3d 56 e2 dc bd
       0.02521796 0.039236374 0.031951234 -0.10785358
000040 5a 8e b0 3d 60 b0 94 bc 16 24 57 bd a3 02 ae bd
       0.086209014 -0.018150508 -0.05252465 -0.08496597
000050 81 58 a2 bd 5a 88 09 bd 62 99 78 3d c6 e2 11 bc
       -0.07927037 -0.0335773 0.060693152 -0.008904165
000060 5c ef cc 3d 54 33 34 3d 71 c5 d7 bb 90 28 89 bd
       0.10006592 0.043994263 -0.006584816 -0.0669719
000070 f5 b3 aa 3d 7d 4e 80 3d 4f 8e 4c bd f7 2c b4 3c
       0.08335105 0.062649705 -0.049940404 0.021994097
000080 9b 39 b8 bd 14 7a bb bd 7a 9d 81 bd a8 08 15 3b
       -0.08995362 -0.09154144 -0.063288644 0.0022740755
000090 74 46 5e 3c cd a1 ca 3d 9b 12 8a bc 65 31 b0 3b
       0.013566602 0.09894142 -0.016854575 0.005376982
0000a0 c9 40 cc 3c 5f 00 7d 3d d5 df 84 bd da bd 3c 3d
       0.024933236 0.061767932 -0.06488005 0.046079494
0000b0 cf eb 33 3c 7e 46 d1 3c 7b 3b 99 bc 7d 2d ce 3d
       0.010981514 0.025546309 -0.01870512 0.1006727
0000c0 18 81 c1 bd 24 5e 87 3d b4 aa 67 bd 17 4a 2d bd
       -0.09448451 0.06609753 -0.05655928 -0.042306986
0000d0 ea b2 3e bd e9 b1 b6 bd 88 af d3 bd b5 28 97 bc
       -0.046557344 -0.089206524 -0.10336214 -0.018452028
0000e0 27 78 21 3c 51 9f ac bd 00 2e d4 bc e3 02 8b bd
       0.009855307 -0.08428825 -0.02590084 -0.0678766
0000f0 83 7b c6 bd 7e 89 41 bd 0c 94 20 3c 2b bc 23 3b
       -0.09691527 -0.047250263 0.009800922 0.0024983983
000100 1b 29 9c bb 86 07 a0 bd 74 80 72 bd da e7 7f bd
       -0.0047656423 -0.07813935 -0.059204534 -0.06247697
000110 5e 25 a1 3d 0a 0b a3 3b fd 86 c7 3d dc ad 9e 3d
       0.07868455 0.004975681 0.09742544 0.07748005
000120 ac ba 60 bd b4 96 b0 3d 99 bb b8 bc 70 f8 d0 bd
       -0.054865524 0.08622494 -0.022550391 -0.10203636
000130 4e 91 0c bd 47 01 b4 3c c5 6f 68 bd 48 17 c9 bd
       -0.03431826 0.021973265 -0.056747217 -0.09818894
000140 6b 27 e3 3b d1 b2 8d bd ed 06 9d bd d7 dd aa bd
       0.006932189 -0.06918872 -0.076673366 -0.08343094
000150 f2 e9 50 bd db 48 b2 bd 1b 49 01 be 28 b6 90 3d
       -0.051004358 -0.08705302 -0.12625544 0.070659935
000160 33 40 5b bc aa a9 24 3c c6 69 85 bd 90 f6 34 3c
       -0.0133820055 0.010050217 -0.06514315 0.011045113
000170 65 a2 97 bd 5c 28 99 3d 03 92 0a 3d 5b 16 b5 bd
       -0.07404021 0.07478401 0.033830654 -0.088421546
000180 19 ef 99 bd 02 91 a8 bd bf 7e 65 3d ec 05 1e 3b
       -0.075163074 -0.08230783 0.056029078 0.0024112416
000190 3f 07 c3 3c 9a 30 42 3c 99 ae 7d bd 35 5c 75 bd
       0.023807166 0.011852408 -0.061934087 -0.05990239
0001a0 42 94 e3 bd ae de 20 bd c8 84 b8 3d 8a 3a 35 bc
       -0.11112262 -0.039274864 0.09009701 -0.01106132
0001b0 0e 5f b4 bd fb 69 b3 3d dc 16 9e bc cc d5 3c 3d
       -0.08807193 0.087604485 -0.01929801 0.04610233
0001c0 29 de 6c 3d ea 7e 7f 3c a6 e6 22 3d 47 13 a8 3d
       0.057829056 0.0155942235 0.039770745 0.08206802
0001d0 2d 2b cb bb 94 0a 1e 3b c0 2d 82 bc b0 7b ba 3d
       -0.0062002153 0.0024115192 -0.015890956 0.09105623
0001e0 ee c1 a9 bd da d7 a6 3d 73 57 d7 3c 63 6f 9f bc
       -0.08288942 0.08146639 0.026286816 -0.019462293
0001f0 10 ad b6 3d e4 16 86 bd d9 dd 5e bd c3 81 08 bd
       0.08919728 -0.06547335 -0.05441079 -0.033326875
000200 7a 27 10 bd e0 3a 57 bb d8 09 a6 bd dd a4 aa bd
       -0.035193898 -0.0032841489 -0.08107346 -0.083322264
000210 e0 e9 c2 bd 48 2d c1 bd 14 a2 30 bc c0 5a 64 bd
       -0.09517264 -0.09432465 -0.01078083 -0.05575061
000220 3d bd c0 bd c7 99 8a bd da 2b 26 bd 6f 06 aa 3d
       -0.09411094 -0.06767612 -0.040569164 0.08302008
000230 f1 2c 9a bd 93 85 b6 3d 66 c8 54 bd 7d 76 2d 3d
       -0.07528103 0.08912196 -0.051948927 0.042349327
000240 92 8d 2b bc 6d 3b b0 3c b2 98 ea bc ca 22 eb bb
       -0.010470765 0.021512711 -0.028637264 -0.007175778
000250 78 c8 db bc eb 63 1a 3d 23 97 a6 3d 9c 21 cb bc
       -0.02682899 0.037692945 0.08134296 -0.0247963
000260 0f 3c e4 bc 57 56 05 bd 82 82 a8 bd 63 fb c6 3a
       -0.02786067 -0.032553043 -0.082280174 0.001518112
000270 e7 08 2b bd 1a 19 8d bd 5d 70 64 bd 4b 34 9e 3d
       -0.041756537 -0.06889553 -0.05577122 0.07724818
000280 2a 98 bb bd 91 9f a3 3d f3 47 e0 bd c9 40 fa bd
       -0.09159882 0.07989419 -0.10951223 -0.12219388
000290 93 0b c2 bd 3a 57 ca bd f3 d9 bd 3d 87 19 b2 bd
       -0.09474864 -0.098799184 0.09270086 -0.08696275
0002a0 cf a1 02 3b 8c 3b ab bd 89 3d 57 bd 04 ba 85 bd
       0.0019932871 -0.08360967 -0.05254892 -0.0652962
0002b0 00 f8 61 3c 1d 10 04 3d 26 84 ee 3c f4 ac 03 bd
       0.013792038 0.03224193 0.029115748 -0.032147363
0002c0 b1 a1 1a bd d6 c3 df 3d 1d 98 d1 3d fd fe 30 3d
       -0.037751857 0.109260246 0.102340914 0.043211926
0002d0 89 2c b3 3d 2d 1e ae 3d b4 72 c9 bd 8d 3c 90 bd
       0.08748729 0.08501849 -0.09836331 -0.07042799
0002e0 f9 6c a1 3c 68 55 b8 bd 8a 72 03 3c 65 6c 3d bd
       0.019705283 -0.09000665 0.008022914 -0.04624595
0002f0 e8 06 3b bc 99 a4 76 bd d2 9e a3 3c 7f 5f 2b 3d
       -0.011415221 -0.060215566 0.019973192 0.04183912
000300 29 ec 67 bd 53 29 85 3d ae e0 d2 3d 86 85 ec bc
       -0.056621704 0.065020226 0.102967605 -0.028872263
000310 b7 d1 1f bd 53 f8 a1 3c 8b c7 59 3d 85 0a 4f bd
       -0.03901836 0.01977173 0.053168815 -0.05054714
000320 75 dd 81 3d 70 2c 0e 3d 4e 1d 9e 3d d6 8f 31 bd
       0.06341068 0.034710348 0.07720433 -0.043350063
000330 01 54 e6 3d b2 a1 25 bc 2c 53 f1 3d 16 7b a0 3d
       0.11246491 -0.010109352 0.11783442 0.07835977
000340 00 91 9b 3d 55 de 72 3c f4 7d 02 bc d1 7a 9d bd
       0.07596016 0.014823516 -0.0079646 -0.07689441
000350 d1 39 bd bc bc 77 3e 3d c7 00 c8 bc 2c 95 6c bd
       -0.023098858 0.046500906 -0.024414433 -0.05775945
000360 1e a1 54 3d 9f 1c 4d 3d 37 78 61 bd 23 33 50 3d
       0.051911466 0.050076123 -0.055046286 0.050830018
000370 77 aa 97 3d 68 78 94 3c d0 57 ba bd b5 9d 85 bd
       0.074055605 0.01812382 -0.0909878 -0.06524221
000380 34 98 7b bd 62 21 70 bd a2 bf 72 bd e5 2e 97 bc
       -0.06142445 -0.058625586 -0.059264787 -0.018454978
000390 a3 d1 b0 bc 0d 2c 18 bd 05 b8 b7 3d 68 e9 c5 3c
       -0.021584338 -0.037151385 0.08970646 0.024159148
0003a0 34 78 b4 3d e0 49 e0 bc bc 08 d6 bd 60 89 f4 bd
       0.088119894 -0.027378976 -0.10450885 -0.11940265
0003b0 f7 a9 8b 3c 02 74 8b bd 5d 30 ef 3c 5f 25 ce bd
       0.017048819 -0.06809236 0.029197866 -0.10065722
0003c0 96 be c4 3d 06 3c 21 3c af 85 ac bd 61 31 83 3d
       0.09606664 0.009840971 -0.084239356 0.06405903
0003d0 3d 63 09 bd 98 dd a2 bd 3e 62 a4 3d 21 11 8a 3d
       -0.033541907 -0.07952422 0.08026551 0.06741548
0003e0 39 e3 bd bc dc 80 a5 bc f8 5c 20 bd 32 e8 1f bc
       -0.023179637 -0.020203047 -0.039151162 -0.0097599495
0003f0 85 a5 84 3d e7 36 9b bd 10 06 bd bd 21 5d 91 bd
       0.06476883 -0.07578831 -0.09229672 -0.07097841

model_cnn.conv2.bias f4 [64]
000000 3d d7 96 bd 67 f7 aa 3d 78 68 76 3d d9 c4 2a 3d
       -0.07365272 0.083479695 0.060158223 0.041691635
000010 d5 9c 8a 3d 3f 52 20 bd 22 2b 5a 3c 72 86 95 bd
       0.067681946 -0.039140936 0.013315948 -0.07301034
000020 44 f6 83 bd fb b1 06 bd 03 74 74 3d d0 c4 a9 3d
       -0.06443456 -0.03288458 0.05968095 0.08289492
000030 15 d7 f8 bb 16 8d 4a 3c 95 04 54 bd 14 67 21 bd
       -0.007593999 0.012362739 -0.051762182 -0.039404944
000040 c9 28 10 3d ec c4 7c 3d 77 c7 70 3d d9 50 f6 3b
       0.035195146 0.061711237 0.058783974 0.007516962
000050 c4 6c d7 ba a7 2e 21 bd c9 2a a8 bd 26 a8 51 3d
       -0.0016435613 -0.03935113 -0.082112856 0.05118575
000060 20 5a 7c bd 72 93 b1 bd c9 34 95 bd a5 13 b8 3d
       -0.061609387 -0.08670701 -0.072854586 0.08988122
000070 ae 10 5e 3d 4f 57 fa bc 96 d1 bd 3d 2a 84 3d 3c
       0.054215126 -0.03055921 0.09268491 0.011567155
000080 cd 63 3a 3d a8 fb 9a bb e6 47 90 3d 7b 3c 92 3d
       0.045505334 -0.004729707 0.070449635 0.07140442
000090 28 a9 eb bc 08 98 6a bd f6 7f 06 3d fb 6f 37 3d
       -0.028767183 -0.057273895 0.032836877 0.044784527
0000a0 71 51 33 3d 30 25 c7 ba 09 2f 35 3d a8 19 c6 3d
       0.04377884 -0.0015193578 0.04423431 0.09672862
0000b0 5d 64 16 bb 35 af 47 bd ac e8 b3 bd 33 d7 47 bb
       -0.0022948005 -0.048751075 -0.08784613 -0.003049326
0000c0 34 92 ba bd f5 5f 6f 3c e2 84 b4 3d 35 7d f4 bb
       -0.09109917 0.01461028 0.08814408 -0.007461215
0000d0 49 df b3 bd 68 86 e2 3c ce 82 49 3d 82 b0 49 3d
       -0.08782823 0.02765198 0.04919701 0.049240597
0000e0 c9 99 fb bc fc 7d a9 3d ab 22 6c 3d eb 47 4e 3d
       -0.030712979 0.08275983 0.05765025 0.050361555
0000f0 d7 6c 61 bd 20 9a 50 bc 72 b6 01 3d dd ec 71 bd
       -0.05503544 -0.012732059 0.031668134 -0.05906378

model_cnn.fc1.weight f4 [256, 64]
000000 6f c4 ee bd 4f cf 59 3d e2 ac e0 3d a6 28 dc bb
       -0.116585605 0.05317622 0.10970475 -0.006718713
000010 1d bb 77 3d 06 4b 9d bd 49 eb e3 3d 22 ef 50 bd
       0.06048118 -0.07680325 0.111288615 -0.051009305
000020 2f 9d 82 3d f0 a0 b5 3b 3e 3e 94 3d 0b c3 83 3c
       0.06377637 0.005542867 0.07238434 0.016084215
000030 d2 cf 74 bd 3a 82 bb bd 29 5d d9 bd dc 93 7e bd
       -0.059768505 -0.09155698 -0.10613472 -0.06215273
000040 4d 4e ef bd e4 57 f1 3d 17 02 d5 bd bf 31 17 bd
       -0.116848566 0.11784342 -0.10400789 -0.036912676
000050 e9 0e e9 bd bc a2 6b bb 2b c9 2a 3d fd e0 f6 bd
       -0.11379797 -0.0035955152 0.041695755 -0.12054632
000060 fd 5e 30 bd 56 2f ca bc 12 60 34 bd 75 74 22 bd
       -0.043059338 -0.024680775 -0.044036932 -0.039661843
000070 39 59 96 3d a2 94 b5 bd 3c 0d cf 3d 7e f5 ff bd
       0.073412366 -0.0886624 0.10109946 -0.12497996
000080 97 e5 c1 3d 5c 4a 95 bd 43 6d 18 bd 79 3b 43 bb
       0.09467619 -0.072895736 -0.037213575 -0.0029790087
000090 71 ca 8e 3d 9e 2a 26 bc f4 18 bc bd c9 f5 d7 bd
       0.069722064 -0.010141997 -0.09184447 -0.10544927
0000a0 3f d2 b3 3d 96 80 99 3d 8a 1b 4a bd 57 50 fd bd
       0.08780336 0.07495229 -0.04934267 -0.12368839
0000b0 63 65 82 bd eb ba 66 ba 60 a5 c1 bd cb 3f a0 3d
       -0.06366994 -0.00088016567 -0.09455371 0.078246675
0000c0 8e 3b bd bd 79 da b7 bd 21 48 b4 bd fa 09 e4 3d
       -0.09239875 -0.08977217 -0.0880282 0.111347154
0000d0 bf 6d 9d bd 4e 1f 80 bd 8a 3f d2 bd 11 a8 02 3c
       -0.07686948 -0.06255971 -0.10266025 0.0079746405
0000e0 c7 85 da 3c 23 0c b4 3d ec 6f 0a 3e ad 5c 82 bd
       0.026675118 0.087913774 0.13519257 -0.06365333
0000f0 3c 21 f3 bd 61 14 71 3d c5 d0 c1 3d bf b6 cf 3d
       -0.11871573 0.058857325 0.09463648 0.10142278
000100 d6 7e ee 3d 45 5d 7c bd 1c 03 e0 bc d8 d2 12 be
       0.11645286 -0.061612386 -0.027345233 -0.14338243
000110 d9 b3 a6 3c 6d da cc bc 1c ac ab bd 21 83 82 bd
       0.02034943 -0.025006497 -0.08382437 -0.06372667
000120 4b 80 00 bd 08 1b 4c 3d be 81 40 bd d2 c9 18 3c
       -0.03137235 0.049830467 -0.04699873 0.009325461
000130 8f c4 92 3d 2b 7e d2 3d e3 cb a7 bc a8 21 c6 3c
       0.07166397 0.10277971 -0.020482963 0.02418597
000140 8d a5 2a bb 6a fb 59 3d 34 06 2b 3c db e9 20 bd
       -0.0026038617 0.053218283 0.010438491 -0.039285522
000150 d3 e1 2e bd 50 24 71 3d 12 41 59 bd 87 c5 2a 3d
       -0.04269583 0.05887252 -0.05304057 0.041692283
000160 9d cc 3a 3d 65 9a be 3d 01 f4 5c 3d 36 eb c3 bc
       0.04560529 0.09306792 0.053943638 -0.023915868
000170 24 80 90 bc 2f d5 cf 3d e1 9e 39 3d ae f1 02 3c
       -0.017639227 0.101480834 0.045317534 0.007992191
000180 2f b7 6d bd 12 29 a9 3d 36 51 e1 bd 41 3d fa bd
       -0.058036026 0.08259787 -0.11001818 -0.122187145
000190 90 39 1e 3d 51 0c c7 3d 6c 03 08 be c4 ff 6a 3d
       0.038629115 0.09719146 -0.13282555 0.057372823
0001a0 b7 35 83 bd 9d 0e 86 3d 4a 24 05 bd 07 0b f5 3d
       -0.0640673 0.06545756 -0.03250531 0.11964994
0001b0 ba 53 1e bd 0c 8f d2 3b 36 03 9f 3d 13 60 ee bc
       -0.038654067 0.006425744 0.07764284 -0.029098546
0001c0 44 5f a3 3c b9 8c cc 3d 96 90 3a bd 5d 66 c5 bd
       0.019942887 0.09987778 -0.045548044 -0.09638665
0001d0 4d 45 ea 3c d4 a5 e3 bd b5 91 c5 3d 8f 92 f0 bb
       0.028597498 -0.111156136 0.09646932 -0.00734169
0001e0 b3 f9 54 bd 62 7a 9b bc 91 78 bc 3d c4 dd 27 bd
       -0.051995944 -0.018979255 0.09202684 -0.040982977
0001f0 be 03 f5 bc a1 28 c9 3b d4 be 1b 3c fc a0 7a bd
       -0.029909011 0.0061388765 0.009505946 -0.061188683
000200 c3 6b 5e bc f5 5f 80 bc ed b0 39 bc f6 8b da bd
       -0.013575497 -0.015670756 -0.011333686 -0.10671227
000210 ab 95 3b 3d b5 af 6f bd e0 ec 3c 3c 33 1a f7 3d
       0.04579703 -0.058517177 0.011531085 0.12065544
000220 61 01 3f 3d ac 2a da bd 3e ad cc bd ef 9c a6 bd
       0.046632174 -0.1065267 -0.09993981 -0.081354015
000230 be 9f be 3d 3f 6a d9 3d 8d d2 31 3d 7b 45 dd bd
       0.09307812 0.10615968 0.043413687 -0.10804268
000240 42 d9 52 3d 9d 39 2a 3d 2d 5b a9 bc 99 f2 69 3d
       0.051476724 0.04155885 -0.020673359 0.057116125
000250 b4 62 d6 3d fe 82 c6 bc 39 d3 9b 3d 1c 4e 0a 3d
       0.10468045 -0.024232384 0.07608647 0.033765897
000260 e0 ea 86 bd 2a 30 95 bb d2 66 a1 bc 13 3d 67 3c
       -0.065877676 -0.0045528607 -0.019702349 0.014113682
000270 b2 bf b4 bb 42 4c b2 bd 2c 8f 3b 3d 40 90 96 bd
       -0.005516016 -0.08705951 0.045790836 -0.07351732
000280 b3 48 3e bd bf 5a d7 3d 1f 9f ad 3c 14 3b e8 bc
       -0.04645605 0.10515355 0.021194039 -0.028348483
000290 4b 69 b1 3d 7c 13 13 3e 54 9d 82 bd 0e 27 0f be
       0.08662661 0.14362901 -0.06377664 -0.13979742
0002a0 f2 4d c3 bc 0e d0 a2 bd 6f 7f f9 bd 6c 6b c2 bc
       -0.023840878 -0.079498395 -0.12182509 -0.023732863
0002b0 75 c1 eb bc 72 8a a4 3b a7 91 61 3d 24 8a b7 3d
       -0.028778771 0.005021387 0.055070546 0.08961895
0002c0 aa 9a 56 bc 0f 5a 22 bd 05 96 86 bd bf 65 a3 3d
       -0.013098398 -0.039636668 -0.06571583 0.07978391
0002d0 03 6d 51 3d 33 76 88 bc f8 56 a2 3d a1 b8 c5 3d
       0.051129352 -0.016657924 0.07926744 0.09654356
0002e0 de c1 0c bd 09 c2 af 3d 8b cd 7e bd 39 42 6d bc
       -0.034364574 0.08581931 -0.06220774 -0.014481121
0002f0 c4 65 47 bd ec 45 d5 3d e0 44 11 be 4e 42 c0 3d
       -0.048681036 0.10413727 -0.1418643 0.093876466
000300 57 83 c6 bd e8 c4 35 3d 0b cc f8 3c 07 92 e0 bb
       -0.0969302 0.044377238 0.030370733 -0.0068533453
000310 ce 1b 94 3d ca 98 b9 bd 8a e3 7b bc 70 3e 5a bc
       0.07231866 -0.09062345 -0.015374074 -0.01332055
000320 18 67 5f 3d cc 35 0e bd 31 9f 01 be 51 11 8e 3c
       0.054541677 -0.034719273 -0.12658383 0.017342241
000330 fd 4d db bd 44 fd 01 3d 63 49 11 3d ff cc 38 3c
       -0.107082345 0.031735674 0.035470378 0.011279344
000340 ef ec df 3d 0a 9f 8a bd df 7e af bd 39 65 00 bd
       0.10933863 -0.067686155 -0.085691206 -0.031346533
000350 c6 8b d6 bd ed fb 51 3d d1 a3 9f 3c 07 f5 4d bd
       -0.104758784 0.051265646 0.019487293 -0.050282504
000360 95 0c 3b bd cf 21 36 3d 6b 4f c6 3d a8 de 92 bd
       -0.045666296 0.044465836 0.096831165 -0.071713746
000370 d9 ed 3e bb 1d 35 b4 bc ae 53 f9 bc 07 80 c4 3d
       -0.0029133467 -0.021997983 -0.03043541 0.09594732
000380 78 ad 64 bd 44 97 e4 3d 6f d9 82 bd 8b 5a c7 3d
       -0.055829495 0.11161664 -0.063891284 0.097340666
000390 0d e3 9b 3c 09 89 de 3d 4f 13 c6 bd 1d 17 60 bd
       0.019029165 0.10865981 -0.096716516 -0.054709543
0003a0 ce fb 7f bc 76 94 76 bd 4e de 1e 3b 5f b1 12 bd
       -0.015624 -0.060200177 0.002424139 -0.035813686
0003b0 42 13 aa 3d 11 c7 d5 3d 25 b6 d3 bd b2 84 6e bd
       0.083044544 0.104383595 -0.10337476 -0.058232017
0003c0 c2 39 ea bd 01 5b 31 bd b7 61 67 bc 89 75 e2 bd
       -0.11436798 -0.04329968 -0.014122418 -0.11057574
0003d0 1a 0a 02 be 5f 5b 4c 3d b5 c7 47 3c 9b ae 99 3c
       -0.12699166 0.049891826 0.01219361 0.018760016
0003e0 5e ed c7 3c db ff c9 bd 3d 83 ce bd b6 82 c2 bd
       0.024405178 -0.09863254 -0.100836255 -0.094975874
0003f0 04 33 c5 3d ce 66 58 3b 77 08 c5 bd 31 88 8c 3d
       0.09628871 0.003302026 -0.09620755 0.06861914

model_cnn.fc1.bias f4 [256]
000000 ce 31 85 bd a6 f1 89 3d f4 c0 3a 3d df f9 36 bd
       -0.0650364 0.06735544 0.04559417 -0.04467189
000010 fe f7 93 bd a0 9d 3a bd 35 43 b6 3d 30 ac b0 bc
       -0.07225035 -0.04556048 0.088995375 -0.02156648
000020 09 88 b8 3d 19 ed a7 bd 30 ce c8 bd 8c 4d e9 3c
       0.09010322 -0.0819952 -0.09804952 0.02847936
000030 fb 7f 60 3d a6 d9 a5 3c b1 39 b8 3d 40 04 14 3d
       0.05480955 0.020245384 0.08995379 0.036136866
000040 ca 15 d1 3d b3 01 07 be 6e c2 12 bd 19 12 ed 3d
       0.10209234 -0.13184242 -0.035829954 0.115757175
000050 a0 6c 1d 3d 7f 31 9c bd 01 ec 75 bd 4f 93 29 bd
       0.03843367 -0.07626628 -0.060039524 -0.04140025
000060 45 2c 1c 3c 9e d1 50 39 ff 0d 04 bc 16 d0 ea bd
       0.009532039 0.00019914514 -0.008059978 -0.114654705
000070 bb 45 e7 3c 03 17 29 bd 7a 85 95 3d 2c 4c 89 3d
       0.028231492 -0.04128171 0.07300849 0.06703982
000080 6e ef 93 3d 80 b0 c2 bd 08 6b 9c bd 34 8b fc 3c
       0.07223402 -0.09506321 -0.07637602 0.030828096
000090 b9 ea 84 3d ae 84 01 ba 1c 9c 63 3d 60 a8 c4 bd
       0.06490082 -0.000494073 0.0555688 -0.096024275
0000a0 2d 83 85 3c 70 86 d8 3d cd 2e d8 3d 7d 6c ed bd
       0.016297901 0.10572517 0.105558015 -0.11592958
0000b0 24 8f 01 bb b7 07 27 3d 60 d7 5b bd ab 74 d3 3c
       -0.0019769156 0.04077884 -0.053672194 0.025812468
0000c0 07 43 cd bd ff 8d ae bd 8c b2 d0 bc 39 4b 97 bd
       -0.1002255 -0.08523177 -0.025475763 -0.073873945
0000d0 62 83 be bb 41 6c b8 3d 26 53 ee 3d b3 97 69 bb
       -0.005814002 0.09005023 0.11636953 -0.0035643398
0000e0 3e 71 ed 3c c2 ec 6c 3c 8c 9c a7 3d e1 74 af 3d
       0.028984662 0.014460744 0.08184156 0.08567215
0000f0 4a 97 bf 3d 4e 2e d7 3d fa 3c 5c 3c ba cd 46 3d
       0.09355028 0.10506879 0.013442272 0.04853604
000100 b6 83 f8 bd 01 ac 86 3d ce 70 52 3d 77 03 cc bd
       -0.12134497 0.06575776 0.05137711 -0.09961598
000110 a6 71 28 bd 4e 28 e4 bb 32 cf a3 b8 1a 53 e1 3d
       -0.04112401 -0.0069628125 -7.811039e-05 0.110021785
000120 c5 ad 0b bd 47 ca 2f 3d 3b 8e 19 bd 67 d1 72 bc
       -0.034101266 0.042917516 -0.037489157 -0.014820433
000130 1e 91 55 3b 27 ad f5 bd 73 6c a6 3b 0e 31 9d 3c
       0.0032587717 -0.11995917 0.005078846 0.01918843
000140 a5 55 e0 bd 57 12 09 b9 37 eb b8 bd 50 10 68 bc
       -0.109538354 -0.0001307217 -0.09029239 -0.014164045
000150 6a 2f 71 bd 91 ba ab 3d 55 62 3e bd fe 5b db bd
       -0.05888311 0.08385194 -0.046480495 -0.107109055
000160 c4 43 83 3d a8 3a 5a bb 58 9e ca 3d 48 ef a3 bd
       0.0640941 -0.0033299122 0.09893483 -0.08004624
000170 0f 82 b3 bd 7b ad c9 bd 55 0e 40 3d 86 e2 d4 3d
       -0.08765041 -0.09847542 0.046888668 0.103947684
000180 d7 aa 85 bd 6c e1 56 3c 12 97 bb bd 86 9a 05 3c
       -0.06526726 0.013115268 -0.09159674 0.008154517
000190 65 8f 8a 3d 87 a7 0c 3c ff bb a0 3d 60 e8 2c 3d
       0.067656316 0.0085848635 0.078483574 0.042213798
0001a0 81 03 07 bc 36 7e 90 bb 6f 17 c5 bd 51 f7 8b bd
       -0.0082405815 -0.0044095768 -0.0962361 -0.06834281
0001b0 c3 18 2a bd a5 8e 8f 3d 2a 01 87 3d ee 2d 42 bd
       -0.04152752 0.07009629 0.06592019 -0.047407083
0001c0 9b 66 0c 3b 5a 12 cb 3d 38 dd a7 bd 29 85 f4 3d
       0.0021423462 0.0991561 -0.08196491 0.11939461
0001d0 81 56 5b bc 56 4d ca 3d 1f 9e 5c 3d 1c 56 c3 bd
       -0.013387323 0.09878032 0.053861734 -0.095379084
0001e0 6f 01 84 3d f6 ec 1c bc 8b 13 cf 3d 53 c6 e0 3c
       0.06445586 -0.00957798 0.101111494 0.027438318
0001f0 e4 ee 67 bd 78 7c 78 3d e2 0e ff 3d c3 55 89 bd
       -0.05662431 0.060665578 0.124540105 -0.06705811
000200 db 72 d5 bd e0 0d e1 bc dd 4c 25 3d 00 cc fe 3c
       -0.104222976 -0.027472436 0.040356506 0.031103134
000210 f8 14 db 3d 62 88 a8 3d 52 a7 e5 3d fb 65 b4 bd
       0.10697359 0.08229138 0.112135544 -0.08808514
000220 6e fb 37 bd 5b 2a 3a bd 00 ee 82 3c 7e ce c9 3d
       -0.044917516 -0.04545055 0.015982628 0.098538384
000230 b3 6f 2b 3d d0 23 2c 3d 20 13 23 bd 85 11 bd 3c
       0.04185457 0.04202634 -0.03981316 0.023079643
000240 6b c1 e8 3d 32 6e c0 3b 60 3c ee ba df da 38 3c
       0.113650165 0.0058725113 -0.0018175952 0.011282652
000250 40 b0 89 3d 54 82 36 3d c1 70 6a bd 15 b2 a3 bc
       0.0672307 0.044557884 -0.057236437 -0.019982377
000260 1d 2c cd 3c 06 e8 6e bd aa ef 3c 3c ca 22 2b 3c
       0.025045449 -0.058326744 0.01153175 0.010445306
000270 cf 56 95 bc 1d b1 9b bd 3b 3e cc bc 21 19 ba 3d
       -0.01822987 -0.07602141 -0.024932018 0.09086824
000280 ff d4 ce 3d 9b b7 e7 3c f5 16 9f bd c4 26 80 bb
       0.100992195 0.028285792 -0.077680506 -0.003910871
000290 c6 19 6b 3d 68 8f 9d 3d c5 de 11 bd ad 55 3a bd
       0.057397626 0.07693368 -0.03561284 -0.045491863
0002a0 3a e8 14 3a 17 83 6c 3d 03 ae b9 3a 57 37 8f bd
       0.00056803564 0.057742205 0.0014166239 -0.06992977
0002b0 d9 eb e8 3d 1e c9 ab 3d cb dc bd 3d bf e0 21 bd
       0.11373109 0.083879694 0.092706285 -0.039520975
0002c0 13 5c 9a bb e9 4c e6 3d e9 68 40 bc 5c 64 b8 3d
       -0.004710683 0.11245138 -0.0117437625 0.09003517
0002d0 23 ee d3 3d e5 19 86 3d 7f 82 a5 bc 48 36 d1 bd
       0.10348155 0.06547908 -0.020203827 -0.102154315
0002e0 94 ca 47 3d bf 57 b4 bd 93 c0 e1 bd 64 ac de bc
       0.048777178 -0.08805799 -0.11023059 -0.027181812
0002f0 04 a6 0e 3c 4d 82 73 3d 54 66 a3 3d cc c1 b2 3d
       0.008706573 0.059450436 0.07978502 0.0872837
000300 76 9a a3 3d 73 74 1f 3c 32 aa 34 bd 9c 36 5d bd
       0.079884455 0.0097323535 -0.044107623 -0.054007158
000310 97 64 bd 3d cf ee 69 3b d0 39 d6 bc 1b f5 b2 bd
       0.092477016 0.003569532 -0.026150614 -0.087381564
000320 96 0d 3a bd d1 4b ec 3d 00 f6 b5 bc e1 78 28 bd
       -0.045423113 0.11537898 -0.022212029 -0.041130904
000330 02 a2 a7 3d 3e c2 42 3d a5 24 3e 3d d0 cd f5 bc
       0.081851974 0.047548525 0.046421666 -0.030005366
000340 53 f5 40 bd 98 fb df 3d 4b 05 de bd 89 23 b2 bd
       -0.04710896 0.109366596 -0.10840853 -0.08698184
000350 e7 b7 6f bd 24 2b 39 bc 06 4c e0 3d 21 31 ea bd
       -0.058524992 -0.011301789 0.10952 -0.11435152
000360 ff b3 6e 3d 34 6e de 3d c7 3f 2f 3c 08 3b 43 bd
       0.058277126 0.10860863 0.010696358 -0.04766372
000370 bb 27 ac bd ac b1 46 bd 67 43 99 3d f5 58 90 3d
       -0.084060155 -0.048509285 0.07483559 0.07048217
000380 38 a1 63 bd d6 01 fd bd 9e 48 b2 bd b0 b9 ac 3b
       -0.055573672 -0.12353866 -0.08705257 0.005271159
000390 eb 62 fd 3d 4d 66 96 bd c6 d9 c6 bc b4 1b 14 bd
       0.12372383 -0.07343731 -0.024273764 -0.036159232
0003a0 0f 2e dc 3d 24 d5 8f 3d 98 50 d0 3d 48 a8 d0 3d
       0.107509725 0.07023075 0.10171622 0.10188347
0003b0 0b 92 54 bd f5 99 35 bd 69 4c a1 bd 0a a4 21 3c
       -0.05189709 -0.044336278 -0.07875902 0.00986577
0003c0 63 2f 7a bd 9d 1b 17 bd e7 1d b1 bc 32 2e 85 bc
       -0.061080348 -0.03689157 -0.021620704 -0.01625738
0003d0 a0 f1 8a bd 71 85 c0 bc 39 88 4a 3d 3c 7c 1a 3d
       -0.067843676 -0.02350113 0.04944632 0.037716135
0003e0 ca 9e f0 bd 04 ef ce bd c8 23 9c bd 94 b5 74 bd
       -0.117490366 -0.10104182 -0.07624012 -0.05974348
0003f0 63 26 85 3d c5 21 f7 3b f3 ea b5 3c 51 db f2 3d
       0.06501462 0.0075418674 0.02220676 0.118582375

model_cnn.classifier.weight f4 [5, 256]
000000 2c 02 0f 3d 8e 0b 72 3d 38 42 0f 3c c0 eb 25 bb
       0.03491418 0.05909305 0.008743815 -0.002531752
000010 90 1b 51 3c 4e 98 4c bd f6 b9 58 3d 7c 6c 3c 3d
       0.012762919 -0.049949937 0.05291172 0.046001896
000020 70 0d 32 bd 50 2e 19 bd 98 77 7d 3d 1c 2c 1d 3d
       -0.043469846 -0.037397683 0.06188163 0.038372144
000030 d8 02 63 3c 88 88 f6 bc 74 80 82 3c d4 ae f1 bc
       0.0138556585 -0.0300944 0.015930392 -0.02950231
000040 c4 17 5f bd 36 49 32 bd 4c b8 09 3d 2c 6c 1e bd
       -0.054466024 -0.04352685 0.033623025 -0.03867738
000050 fc d9 30 bd 24 fd 8d 3c 0c 9e 5e bd 10 16 b2 bc
       -0.043176636 0.01733262 -0.054349944 -0.021739036
000060 22 fb 73 3d 0c aa 57 3d a4 1f 3f bd a0 dc 8f bb
       0.05956567 0.052652404 -0.046661034 -0.004390314
000070 70 16 83 3b 90 b5 90 bb 88 67 0b 3c e8 83 71 3c
       0.0040004775 -0.004416175 0.0085085705 0.014740922
000080 64 5a 40 3d 90 62 08 bc b0 2e eb bc 94 74 ce bc
       0.046961203 -0.00832428 -0.028708786 -0.025202073
000090 f2 d2 64 bd ee d8 47 bd 4c 24 58 3d c8 ad 06 bd
       -0.055865236 -0.048790865 0.05276899 -0.032880574
0000a0 c0 73 b9 3a c2 70 48 3d 24 e1 57 bd a4 33 ed 3c
       0.0014148876 0.04893566 -0.052704945 0.028955288
0000b0 50 01 61 3c 30 f9 28 3c 48 2f ef 3c 48 70 12 bc
       0.013733223 0.010313317 0.02919735 -0.008937903
0000c0 aa 94 2e 3d 62 18 12 bd 96 91 03 3d 7c 38 60 3d
       0.042622246 -0.035667785 0.032121263 0.054741368
0000d0 4c 8c 41 3d c2 14 2f bd 38 0b 4e 3c 12 7c 28 bd
       0.04725294 -0.042744406 0.012575917 -0.041133948
0000e0 20 0e 5b 3b 20 40 c7 3b a4 79 19 bd c4 51 2f 3d
       0.0033425167 0.0060806423 -0.03746952 0.042802587
0000f0 02 73 5c 3d b2 8f 51 3d f4 b9 60 bd 06 00 1b 3d
       0.053820617 0.05116243 -0.05486484 0.03784182
000100 68 bd 1b bd fc 5e 0e 3d d2 68 35 3d 9c 8f 84 3c
       -0.03802243 0.034758553 0.044289418 0.01618176
000110 0c 3f 13 3d f0 6c 21 3c 08 5b c2 3c 6a 99 6d 3d
       0.035948798 0.009852633 0.023725048 0.058007635
000120 74 73 6f bd 1c 9f 92 3c f8 40 35 3c a0 d5 9e 3b
       -0.058459714 0.017898135 0.011062853 0.0048472434
000130 0a 15 68 bd b0 ab 2d bd cc 7e c9 bc 40 5b 99 bb
       -0.05666069 -0.042400062 -0.024596594 -0.0046800673
000140 2c f0 da 3c 2c 74 d2 3c e0 85 f1 3b 46 f5 11 bd
       0.026725851 0.02569016 0.0073706955 -0.0356343
000150 00 0d ab 3a 74 7b c4 bc 48 83 f9 3c 60 4a 8b bb
       0.0013050139 -0.023984648 0.030458108 -0.0042508096
000160 b4 dc 70 3d 72 f4 47 bd 36 5c 4d bd f2 e0 10 bd
       0.05880423 -0.048817106 -0.050136767 -0.035370775
000170 2e 4a 09 bd d0 84 74 3c c8 4d 1e 3c f2 0f 2d 3d
       -0.03351801 0.014924243 0.009662099 0.042251535
000180 5c 2f 5f bd 10 7f 51 bc c4 ca 4b 3d b8 9d 04 bd
       -0.054488525 -0.012786642 0.04975392 -0.032376975
000190 40 71 90 bb ae 17 18 3d f8 ba f4 3c 62 dd 18 3d
       -0.0044080317 0.037131958 0.02987431 0.037320502
0001a0 b0 b4 38 bd 60 0d b0 3b 40 9c b8 3b d4 68 9f bc
       -0.045094192 0.005372688 0.005633861 -0.019459166
0001b0 00 c0 9b 37 48 0c 9a 3c ac 34 c5 3c 54 0f bd 3c
       1.8566847e-05 0.018804684 0.024072967 0.023078598
0001c0 8c db 27 bd ae 14 08 bd 9e 50 2d 3d 4a 10 64 bd
       -0.04098086 -0.033222847 0.04231321 -0.055679597
0001d0 c0 d8 e0 ba 44 19 a8 bc 72 bb 1f 3d 18 39 a2 3c
       -0.001715444 -0.02051986 0.03899712 0.019802615
0001e0 00 07 ee 3b d0 07 a6 3b 04 b6 13 3d 80 3d 8f 3c
       0.007264018 0.0050668493 0.036062256 0.01748538
0001f0 78 38 77 bc 5e 1d 7f bd 20 4a bb bb 50 f0 1a bd
       -0.015089147 -0.062283866 -0.0057156235 -0.037826836
000200 d0 20 b9 bb 78 1b cf 3c 40 ff 25 bd 14 20 93 3c
       -0.0056496635 0.025281653 -0.04052663 0.017959632
000210 ec 7c 5a bd e0 64 e3 bb f6 04 33 bd 40 63 6d bc
       -0.05334179 -0.0069395155 -0.043705903 -0.014488995
000220 be 5c 5c bd a4 94 36 bd 40 86 f9 3c d4 f8 09 bd
       -0.053799383 -0.04457535 0.030459523 -0.033684567
000230 40 b9 4e 3b 62 a7 63 bd d0 30 ea bb 26 f6 67 bd
       0.0031543523 -0.05557955 -0.007146932 -0.05663123
000240 80 63 69 3b e4 d7 be 3c f4 19 75 3d e0 3b e7 bc
       0.0035612285 0.023296304 0.059839204 -0.028226793
000250 00 8a f4 bc 8c b3 66 3d 98 18 2e bc 20 07 ee 3b
       -0.02985096 0.056323573 -0.010625981 0.007264033
000260 20 ed 8c bc 60 6c 42 bb 90 88 ad 3b 28 f6 49 3d
       -0.017202914 -0.0029666647 0.0052958205 0.04930702
000270 f8 bc 5b bc 16 fc 02 bd 74 f6 98 3c 70 db cc bc
       -0.013411753 -0.03197869 0.018672206 -0.02500698
000280 c0 ea 83 bc 4c 43 70 bd 38 64 6c 3d 40 f6 77 bd
       -0.016103148 -0.05865793 0.057712764 -0.060537577
000290 ca 1f 23 3d c2 26 35 3d 60 e0 b7 bc 50 93 9b 3c
       0.03982524 0.044226415 -0.022445858 0.018991143
0002a0 70 92 9a bc 40 e8 eb bb b8 6e 73 3c e4 ad 6e bd
       -0.018868655 -0.007199317 0.01485794 -0.058271304
0002b0 b2 f5 65 3d c0 81 75 bb 40 0a 4f 3c d0 b5 6d 3c
       0.056142516 -0.003746137 0.012636721 0.0145086795
0002c0 e0 55 65 bb 34 c6 3d bd 18 22 85 3c 98 8c 54 3c
       -0.0034993812 -0.0463316 0.016251609 0.012972973
0002d0 0c b2 6c 3d 34 44 97 bc c8 9d 96 bc 08 0b 3e 3c
       0.057786986 -0.018465139 -0.018385783 0.01159931
0002e0 44 16 da 3c ca a9 6d bd 0e c5 7b 3d 0a 1c 50 bd
       0.026621945 -0.05802325 0.061467223 -0.05080799
0002f0 30 bc 74 3c d0 a7 cf 3b 74 20 77 3d 4c ba 0e 3d
       0.0149374455 0.0063371435 0.060333684 0.034845635
000300 90 61 b5 3c 00 d7 c7 3c 00 23 48 bd bc e8 42 3d
       0.022141248 0.024394512 -0.048861504 0.047585234
000310 e4 8a ad bc 64 5a ca 3c 00 04 af 3a 60 98 09 bc
       -0.021184392 0.024701305 0.0013352633 -0.008398145
000320 ca 83 7b 3d d8 db 24 bc fa 45 66 bd 50 23 9a 3b
       0.06140498 -0.01006218 -0.05621908 0.0047039166
000330 d0 cc 63 3d 10 6e 58 bc 20 d7 78 bd 10 a4 a7 3b
       0.055615246 -0.013209835 -0.060752034 0.0051159933
000340 5c 37 db 3c d2 b8 19 bd 40 14 01 bc 8c 4a 9e 3c
       0.026759796 -0.037529774 -0.007878363 0.019322656
000350 70 ab 56 bc 00 e8 b9 3a 04 8c 01 3d c0 96 a4 bc
       -0.013102397 0.0014183521 0.03162767 -0.020091414
000360 6c 90 0b 3d 0c e8 8a 3c 58 3b 33 bd a0 63 bd 3b
       0.03407328 0.016956352 -0.043757766 0.0057796985
000370 a2 8a 36 bd 1e 52 5f bd 14 45 71 3d e2 c4 2f bd
       -0.044565804 -0.054521672 0.05890377 -0.04291237
000380 b2 f9 5e bd 00 3b 7d 3c 1e 13 47 bd e0 9f d4 bc
       -0.054437347 0.015455961 -0.048602216 -0.02595514
000390 08 8a 22 bd 5e 2e 0a 3d a0 41 fc bc e8 b3 5c 3c
       -0.039682418 0.033735625 -0.030793011 0.013470627
0003a0 5e 14 35 3d be c8 62 bd 6a 12 65 3d 64 c7 da bc
       0.044208877 -0.055367224 0.055925764 -0.026706405
0003b0 b8 b4 76 bd e0 70 8b bb 42 a7 5d bd 6e d4 0d 3d
       -0.06023094 -0.004255399 -0.054114588 0.034626417
0003c0 00 e9 bf bb e0 56 c1 3b da 3b 59 bd c0 99 0e 3b
       -0.005856633 0.005900249 -0.053035595 0.0021759123
0003d0 62 3f 46 bd 00 88 e4 38 ac 7d fe 3c 8e f5 5e bd
       -0.04840029 0.00010897219 0.031065784 -0.054433398
0003e0 44 21 8e bc 54 72 77 3d 20 aa 55 bb f0 d5 8c 3c
       -0.017349847 0.060411766 -0.0032602623 0.017191857
0003f0 94 1b 0b 3d 34 6f fe bc e0 d2 1d bb 9a 4f 5d 3d
       0.033961847 -0.031058885 -0.002408199 0.054030992

model_cnn.classifier.bias f4 [5]
000000 20 eb 7e bc 02 ea 13 3d ac 99 67 bd 3e 5e 11 3d
       -0.015558988 0.03611184 -0.056543037 0.035490267
000010 6c 4d 32 3d
       0.043530867

model_cnn.domain_classifier.weight f4 [2, 256]
000000 4e 6f 6f bd fe a3 0e bd c4 f6 b5 bc b4 7a df 3c
       -0.058455758 -0.034824364 -0.022212394 0.02728019
000010 7c e5 5e 3d a2 57 04 3d 14 67 bb 3c 32 c8 14 3d
       0.054418072 0.032310136 0.0228763 0.036323734
000020 0c 3a 1c bd 38 01 36 3d 12 a4 03 bd 28 cf ed bc
       -0.038141295 0.044434756 -0.03213889 -0.029029444
000030 84 ff c0 3c 9c f3 ee 3c f6 db 29 bd ae fd 04 3d
       0.02355934 0.029168896 -0.041469537 0.03246849
000040 fe 13 49 3d 60 89 82 bc 76 ae 75 bd 3c 77 3a 3d
       0.04909133 -0.015934646 -0.059980832 0.045523867
000050 90 e3 bc bb b4 84 27 3d c8 98 6c 3c 6c 03 7b 3d
       -0.0057644323 0.04089804 0.014440723 0.06128256
000060 d6 cb 5f bd d0 51 e6 3b 5e 1b 0a 3d a0 32 0d bc
       -0.054637752 0.007028796 0.033717506 -0.008618027
000070 10 3f e6 bc f0 fd b0 3b 06 ed 27 3d d2 d6 62 bd
       -0.028106242 0.0054013655 0.040997528 -0.05538065
000080 80 d2 7c bd 68 72 9e 3c ec 83 a6 3c ce 54 15 bd
       -0.061724186 0.019341663 0.020326577 -0.03645783
000090 4e e2 62 bd 42 92 73 3d b8 e6 1f 3c 5c 38 56 3d
       -0.055391602 0.059465654 0.0097595975 0.052299842
0000a0 2a fa 2b bd 2a 0a 76 3d 9a 07 7d 3d da c5 14 3d
       -0.041986622 0.060068287 0.061774828 0.0363215
0000b0 4c 57 a9 bc 08 fb 53 bc 36 26 4b 3d b0 4d f7 bb
       -0.02067151 -0.0129382685 0.049596988 -0.007547103
0000c0 ec 33 32 3d f4 0c e8 3c 50 e7 17 3d e4 42 05 bd
       0.043506548 0.028326489 0.03708583 -0.032534495
0000d0 04 f1 14 3d d0 b6 5a 3c f0 41 59 3c 44 79 64 3d
       0.036362663 0.01334925 0.01326035 0.05577971
0000e0 b8 fc 4c 3c c0 87 26 3c 14 df ef bc 72 10 03 3d
       0.012511425 0.010164201 -0.029281177 0.031998105
0000f0 b4 89 a1 bc ee d6 49 3d be 34 3b 3d e8 9c 73 3c
       -0.019718982 0.04927724 0.045704596 0.014868952
000100 9a f0 1d 3d be 5e 58 3d f2 07 24 bd 04 cb b3 3c
       0.038559534 0.05282473 -0.04004664 0.021947391
000110 f8 e1 39 bd bc 3e 91 bc 72 97 34 bd 8e 6e 61 3d
       -0.045381516 -0.01773011 -0.044089742 0.055037074
000120 60 1d 69 3b da f6 63 bd 28 b5 c2 bc b6 3a 6d 3d
       0.0035570487 -0.055655338 -0.023768023 0.05791732
000130 78 66 02 bc 00 61 9d bb ae 2f 3d 3d 2a 94 09 3d
       -0.007959001 -0.004802823 0.04618805 0.033588566
000140 90 af 46 bc f8 c2 0f bc b4 42 ed bc fe a4 63 bd
       -0.012126818 -0.0087745115 -0.02896247 -0.05557727
000150 42 e6 41 bd 46 72 4f bd 72 22 56 bd 70 64 68 3c
       -0.04733873 -0.05064609 -0.052278943 0.014184102
000160 cc 71 bb bc 60 85 89 3c 66 90 7e 3d 20 68 ea 3b
       -0.022881411 0.016787231 0.062149428 0.007153526
000170 90 5e 6a bc e4 e5 7f 3d 90 e8 4f 3d e0 7b 9a bc
       -0.014304772 0.0624751 0.0507589 -0.018857896
000180 a4 2f a4 bc 68 5a bb bc c0 ab bc ba f6 77 60 bd
       -0.020042248 -0.022870257 -0.0014394447 -0.054801904
000190 e0 a3 1d bc f6 d1 70 3d e8 89 73 bc 90 af f1 3b
       -0.00962159 0.058793984 -0.014864422 0.007375665
0001a0 4c 75 f0 3c 70 dc 29 bd bc f6 8c bc 6c 54 18 3d
       0.029352807 -0.04146999 -0.017207496 0.037189886
0001b0 2c 2d 55 bd 00 6c ed 38 10 ca 8b 3c 04 94 34 bd
       -0.052045032 0.00011321157 0.017064124 -0.04408647
0001c0 28 a1 c8 3c 2c 40 fd 3c e8 25 c9 3c 1c 98 c7 3c
       0.024490908 0.030914389 0.024554208 0.024364524
0001d0 70 9d da bb 80 a6 94 3c f0 40 ec 3b 74 83 af bc
       -0.0066716 0.0181458 0.0072098896 -0.021424986
0001e0 0c 05 79 3d d0 63 61 3d 70 6c 6f bc 6e 6c 78 3d
       0.06079583 0.05502683 -0.014613256 0.06065028
0001f0 70 26 1c bd c8 5c fd bc fe a3 25 3d 20 69 73 bb
       -0.038122594 -0.03092803 0.0404396 -0.0037141517
000200 30 64 36 3d 40 5d 6c 3c a8 ca 4a 3d 2e ee 51 3d
       0.04452914 0.014426529 0.049509674 0.051252536
000210 56 4d 36 bd c2 d8 0b 3d e2 23 37 3d 76 54 2d 3d
       -0.044507347 0.034142263 0.044711955 0.042316876
000220 4c ad 10 bd d0 20 11 3c cc 12 2b 3d 2c 6f 98 3c
       -0.03532152 0.008857921 0.041765973 0.018607698
000230 08 18 13 3d 70 2c 30 bd e0 da 17 3b 8c 3c 0e bd
       0.03591159 -0.04301113 0.002317123 -0.03472571
000240 24 21 a1 bc a6 15 1a 3d fa 19 40 bd f0 53 0e 3c
       -0.019669123 0.0376183 -0.046899773 0.008687004
000250 7c a2 bb 3c e4 2a ae bc 2e 1a 20 3d e4 6d b3 3c
       0.022904627 -0.021260686 0.039087467 0.021902986
000260 a2 8d 58 bd 84 56 bc bc 40 68 1f bc 00 d8 ca bb
       -0.052869447 -0.022990473 -0.009729445 -0.0061903
000270 78 df 16 bc 2c 59 8f bc 88 9d 19 3d b0 ae 8f bb
       -0.009208553 -0.017498575 0.03750375 -0.004384838
000280 d8 b5 ee 3c 6c e5 55 bd 5c f9 90 bc e0 16 e2 3b
       0.029139444 -0.052220747 -0.017697029 0.0068996996
000290 7a ad 2d 3d b0 0a 23 bd 0a 33 22 3d 58 a8 87 3c
       0.04240177 -0.039805114 0.039599456 0.016559765
0002a0 94 ce c7 bc 0c b6 13 bd 60 8c ec bc 38 47 51 bd
       -0.024390496 -0.036062285 -0.02887553 -0.05109331
0002b0 de 31 7d bd 40 fe 1a bb 38 82 ce bc 60 08 2e 3c
       -0.061815135 -0.002365008 -0.025208578 0.010622114
0002c0 70 72 2a bc ac 87 ba bc ec 52 c7 bc 00 cb 31 3d
       -0.010403261 -0.022769772 -0.024331532 0.043406487
0002d0 b8 c8 58 3c 78 b3 37 bc 80 fd 5e bc 2e 88 53 3d
       0.013231449 -0.011212222 -0.013610244 0.051643543
0002e0 e0 3a e4 3c 48 31 7e bd 16 e4 4e bd 78 a7 7c bd
       0.027860105 -0.062058717 -0.05051049 -0.06168315
0002f0 80 7f 4e 3d 74 1c e7 3c 00 4d 69 3d 60 fe 60 3c
       0.050414562 0.02821181 0.0569582 0.013732523
000300 0c a6 40 3d 80 8c fc 3c 0c 22 95 3c d4 98 09 bd
       0.047033355 0.030828714 0.018204711 -0.033593014
000310 c4 48 18 3d e8 b8 6d 3d 04 92 27 bd 70 df 3a 3d
       0.03717877 0.05803767 -0.040910736 0.045623243
000320 40 e6 ab ba dc dc 94 3c c0 a5 31 bd c0 a0 92 bb
       -0.0013114884 0.01817172 -0.043370962 -0.0044747293
000330 7c 58 d6 bc 5e eb 0b bd 24 fb 0e 3d 46 e0 76 bd
       -0.02616524 -0.03416001 0.034907475 -0.060272478
000340 56 4a 30 3d 60 ee 35 bd 58 38 e0 bc 90 c1 9d bb
       0.043039642 -0.044416785 -0.027370617 -0.004814334
000350 1e 23 49 3d c4 42 7d 3d e0 0f 6e bc ce ab 6d bd
       0.049105756 0.06183125 -0.014530152 -0.058025174
000360 98 35 23 bc 80 82 19 3d 5c eb f5 bc 5e 66 14 bd
       -0.009961508 0.03747797 -0.030019455 -0.036230437
000370 60 51 44 3b c8 9e cb 3c 84 21 a1 3c 18 eb 5b 3d
       0.002995573 0.024855986 0.019669302 0.053691
000380 d8 54 6f bc 44 75 22 3d 40 15 46 bc 1c b9 cc bc
       -0.014607631 0.039662614 -0.012090027 -0.02499061
000390 20 f9 77 3b 78 4b 28 3d 88 fd 48 3c 98 3e 09 bd
       0.00378377 0.041087598 0.012267478 -0.03350696
0003a0 24 44 ac bc 7e 73 02 3d 1c cd 1a 3d 6c 8e 06 bd
       -0.021028586 0.031848423 0.037793264 -0.032850668
0003b0 50 c9 7b bd 40 50 43 3d 0c 42 9e 3c 66 e3 4a 3d
       -0.061471283 0.047683954 0.019318603 0.04953327
0003c0 78 e3 67 bc c0 b5 21 3c 66 4e 27 3d fc f2 df bc
       -0.014153354 0.009869993 0.04084625 -0.027337544
0003d0 6c 34 e8 bc a0 0b 47 3d 6e 91 66 bd c0 49 86 ba
       -0.02834531 0.04859507 -0.056291036 -0.0010245368
0003e0 08 36 1c 3c 58 f0 21 bc 04 d7 88 bc e2 ac 20 bd
       0.009534366 -0.009883963 -0.01670409 -0.039227374
0003f0 80 18 14 3c 86 53 67 bd d6 9c 62 bd 3e de 1d 3d
       0.009039044 -0.05647614 -0.05532535 0.038542025

model_cnn.domain_classifier.bias f4 [2]
000000 20 58 45 3d 36 d5 22 bd
       0.048179746 -0.039754115
