checkpoint/transfer_cnn_features_1d_2_to_0_1210/retry_target_focus/best_model.pth (torch, 103138 bytes, 10 tensors)

model_cnn.conv1.weight f4 [32, 1, 3]
-0.68864864 0.51157004 -0.68677276 -0.5525358 -0.42208678 0.37572244 -0.56895536 0.27098942
-0.5720096 -0.46677113 -0.30996513 -0.4200775 -0.5417468 0.45313016 -0.49240464 0.42656016
0.45379016 0.3956355 0.011486676 0.60334617 -0.3766351 0.06648894 -0.289219 0.38220626
0.7085208 -0.60826975 0.70847 0.5234675 0.29365763 0.51313716 0.43954495 -0.08015387
-0.46705258 -0.31389198 -0.47818136 -0.14559619 -0.08870105 -0.289112 -0.07704638 0.57705265
-0.27936533 0.14246438 -0.06875497 0.22452489 0.5631575 0.44534293 0.28828663 0.41875637
0.23153643 0.24346387 -0.142835 -0.5852487 -0.3856681 0.58127695 -0.20023486 -0.5207888
-0.027588641 0.44091323 -0.48146737 -0.3565235 -0.41171712 0.17997019 -0.41107997 0.11205669
-0.627162 0.40687987 0.46037346 0.24558455 -0.35746065 -0.52769595 0.3719372 -0.1824686
0.2615665 -0.52886313 0.059220653 0.49033698 0.3944307 0.21465003 0.109848 -0.110709235
-0.28455484 -0.22635701 -0.4291965 0.55223405 0.33334014 0.21168216 -0.45035535 0.5602604
0.3418912 0.56190664 -0.28500488 0.27541026 0.63272905 0.44981524 0.51191074 -0.03831155
00000000: 474b 30bf 41f6 023f 57d0 2fbf fc72 0dbf
00000010: c21b d8be b15e c03e 0fa7 11bf 20bf 8a3e
00000020: 396f 12bf a0fc eebe c0b3 9ebe 6614 d7be
00000030: ebaf 0abf ad00 e83e 761c fcbe 1866 da3e
00000040: 2f57 e83e bc90 ca3e 9c32 3c3c e574 1a3f
00000050: 51d6 c0be 5a2b 883d 8314 94be 8ab0 c33e
00000060: 9f61 353f 91b7 1bbf 4a5e 353f f701 063f
00000070: 4b5a 963e f55c 033f 090c e13e b627 a4bd
00000080: 8421 efbe 73b6 a0be 30d4 f4be 2b17 15be
00000090: e5a8 b5bd 7d06 94be 7eca 9dbd b9b9 133f
000000a0: f908 8fbe 2fe2 113e 68cf 8cbd dae9 653e
000000b0: 172b 103f fd03 e43e 4e9a 933e 3c67 d63e
000000c0: e317 6d3e 984e 793e 5743 12be dcd2 15bf
000000d0: 4a76 c5be 91ce 143f 5e0a 4dbe 6a52 05bf
000000e0: 9301 e2bc 61bf e13e e482 f6be 408a b6be
000000f0: 96cc d2be 1b4a 383e 1379 d2be fa7d e53d
00000100: b08d 20bf 8f52 d03e 12b6 eb3e 847a 7b3e
00000110: 1505 b7be 1517 07bf 8d6e be3e 0cd9 3abe
00000120: 0bec 853e 9363 07bf 5b91 723d 730d fb3e
00000130: d2f2 c93e 38cd 5b3e fdf7 e03d 86bb e2bd
00000140: 2cb1 91be 22ca 67be a5bf dbbe 365f 0d3f
00000150: 8fab aa3e 35c3 583e fa94 e6be 3a6d 0f3f
00000160: 5d0c af3e 1dd9 0f3f 29ec 91be 9302 8d3e
00000170: 88fa 213f 2f4e e63e 950c 033f 92ec 1cbd

model_cnn.conv1.bias f4 [32]
0.4082917 -0.3400476 0.0014135301 -0.17244662 -0.11566907 -0.085026026 -0.007914664 0.5503095
0.22413568 -0.013250042 0.43198127 -0.1689388 0.34594804 -0.065316886 -0.080363326 0.027527247
-0.48339978 -0.015342137 0.09745172 0.49796465 -0.06253656 0.1046053 0.6346877 -0.19432975
0.5864278 -0.17124712 0.30223086 0.08606351 0.08431436 0.44333047 -0.16873792 0.055363778
00000000: 9c0b d13e b81a aebe 3346 b93a d995 30be
00000010: e8e3 ecbd 2022 aebd 82ac 01bc 15e1 0c3f
00000020: d383 653e b416 59bc a62c dd3e 4bfe 2cbe
00000030: 1a20 b13e dcc4 85bd 8795 a4bd d280 e13c
00000040: 2d80 f7be 965d 7bbc c494 c73d 39f5 fe3e
00000050: 2b13 80bd 4e3b d63d e57a 223f 61fe 46be
00000060: 2220 163f 685b 2fbe 01be 9a3e 1142 b03d
00000070: 02ad ac3d 36fc e23e a2c9 2cbe 21c5 623d

model_cnn.conv2.weight f4 [64, 32, 3]
0.03145998 -0.045923807 0.005956294 -0.11255622 0.0005576555 -0.035390113 -0.009689099 -0.050703313
-0.019350832 0.043404408 0.10409641 0.17383833 -0.057704408 -0.118363656 -0.13559134 0.053223632
-0.030355714 -0.03131848 -0.10713155 -0.07549207 -0.03345508 0.12516968 0.09449248 0.13317013
-0.07260849 0.00022644301 -0.09899028 0.12487217 0.08751067 0.16495243 -0.043285865 0.11114232
0.11545441 0.08300185 0.015229643 0.09339766 0.13023485 0.13825786 0.055569537 -0.122583315
-0.045468442 -0.025092607 -0.09413347 -0.08320877 -0.12241656 0.021840261 0.14621937 0.07494388
0.09198872 0.10220559 0.16124412 -0.12587638 -0.11451896 -0.06969629 -0.03760936 0.07370127
0.09319253 -0.06525216 -0.05274257 -0.065490805 -0.010450677 0.03289611 -0.12789834 -0.06670313
0.013103478 -0.08591315 0.13360888 0.070738815 0.018504672 -0.0636254 -0.038573377 -0.10648048
-0.027147643 0.052682403 0.053883873 0.038204096 0.021075454 0.101329185 0.0214535 0.040092826
0.09191067 -0.08411052 0.007432019 -0.042386897 0.033258718 -0.070976526 -0.011926422 0.080697425
-0.011388115 -0.0034567132 -0.0017444162 -0.07053513 0.019727102 -0.099369474 -0.04911966 -0.082778
0.050888 0.0071998797 -0.00882909 -0.044216 -0.10682363 0.0015603835 0.004623852 -0.06820945
0.04054982 -0.040983755 -0.13725922 0.01592356 0.059437223 -0.014259857 -0.06529438 -0.046277706
0.026468115 0.04271999 -0.10560019 -0.07469911 0.050765056 0.05368837 0.06699791 -0.04695116
0.09198822 -0.07963975 -0.0007503334 -0.03736141 -0.022396041 -0.1165231 0.08370204 0.09038191
-0.08027331 -0.036438093 -0.094246455 0.05760122 0.057697296 0.060926344 0.033814024 -0.030836498
0.03678729 -0.018857446 -0.08042468 0.009355679 -0.0114468485 -0.066058025 -0.06761789 -0.12991667
-0.009450398 -0.022666886 -0.036805276 -0.13311127 0.038906835 -0.13217197 0.06970169 -0.084877625
-0.03921262 0.07614945 0.026646825 -0.036079768 -0.047470424 -0.0071884217 0.116434686 -0.058555923
0.065017365 -0.037527 -0.013716001 0.039993446 -0.01569588 -0.0027482456 0.06862286 0.032154314
8.8268775e-05 0.043054137 0.093074754 -0.016889945 -0.072439216 -0.009283657 -0.010619456 -0.08140021
-0.04100776 0.016832631 -0.026155023 0.008058467 -0.091383025 0.064666115 -0.07424313 0.015913954
-0.05569883 -0.05515349 0.0010632176 -0.073017344 -0.10936183 -0.07894935 0.037027635 0.024044715
0.07906055 -0.07007121 0.06502369 -0.021597635 -0.115546234 -0.04400621 -0.052897982 -0.12829576
-0.11625992 -0.04212108 -0.13331737 -0.12639837 -0.1511837 -0.14760458 0.007232153 -0.07650253
-0.1306242 -0.052516688 -0.113029055 -0.15346865 -0.1656855 0.07952067 -0.0016902887 0.10070496
0.065276176 0.011813799 0.065816246 -0.13952616 -0.027295724 -0.1648073 -0.0020736367 0.079143174
-0.04153242 -0.010835403 -0.06357741 -0.09065675 0.12263241 0.11186841 -0.0065976167 -0.070884325
-0.06878479 0.002816609 -0.0287367 -0.00346909 -0.023963 -0.17254576 -0.016219571 -0.11108716
0.22908136 0.2116213 0.08849447 -0.07275524 -0.04682671 -0.0329339 -0.119263254 -0.020261498
0.028265497 0.07115514 0.06378371 0.02971778 -0.24540856 -0.0807783 -0.22784282 -0.09046505
00000000: 2edc 003d 9a1a 3cbd 042d c33b e083 e6bd
00000010: a12f 123a 39f5 10bd 07bf 1ebc 47ae 4fbd
00000020: a385 9ebc d2c8 313d 8030 d53d ad02 323e
00000030: 755b 6cbd a568 f2bd 75d8 0abe 0601 5a3d
00000040: 8cac f8bc ce47 00bd c967 dbbd 969b 9abd
00000050: 3208 09bd 7b2c 003e 4685 c13d c05d 083e
00000060: c3b3 94bd 5571 6d39 6abb cabd fbbc ff3d
00000070: cb38 b33d 4ae9 283e 854c 31bd 969e e33d
00000080: 5d73 ec3d e0fc a93d c185 793c 4647 bf3d
00000090: 495c 053e 7893 0d3e e29c 633d f60c fbbd
000000a0: 1e3d 3abd 038f cdbc 0cc9 c0bd 5c69 aabd
000000b0: 89b5 fabd 59ea b23c 88ba 153e 2d7c 993d
000000c0: 9564 bc3d 2a51 d13d 2e1d 253e bde5 00be
000000d0: eb88 eabd eebc 8ebd 460c 1abd b1f0 963d
000000e0: badb be3d eda2 85bd 9808 58bd 0b20 86bd
000000f0: 5139 2bbc 12be 063d c8f7 02be a79b 88bd
00000100: f8af 563c 3cf3 afbd c4d0 083e 83df 903d
00000110: 1c97 973c 094e 82bd 1eff 1dbd 7012 dabd
00000120: bc64 debc 81c9 573d 56b5 5c3d e67b 1c3d
00000130: 6ea6 ac3c ad85 cf3d 40bf af3c 6038 243d
00000140: a93b bc3d 2342 acbd 4b88 f33b e29d 2dbd
00000150: 4b3a 083d 245c 91bd 0a67 43bc b144 a53d
00000160: 3795 3abc 068a 62bb e5a4 e4ba b974 90bd
00000170: bb9a a13c 3982 cbbd b231 49bd 8387 a9bd
00000180: ef6f 503d f8ec eb3b e3a7 10bc d61b 35bd
00000190: 59c6 dabd c885 cc3a af83 973b 65b1 8bbd
000001a0: 9117 263d 95de 27bd ae8d 0cbe 2072 823c
000001b0: 7274 733d 2da2 69bc 0fb9 85bd b18d 3dbd
000001c0: a9d3 d83c 28fb 2e3d ea44 d8bd d9fb 98bd
000001d0: 05ef 4f3d 56e8 5b3d 3336 893d dc4f 40bd
000001e0: 5264 bc3d 2a1a a3bd 06b2 44ba 4708 19bd
000001f0: e777 b7bc aaa3 eebd fa6b ab3d 271a b93d
00000200: 5566 a4bd 1c40 15bd 4904 c1bd 42ef 6b3d
00000210: 0054 6c3d e78d 793d 9380 0a3d d39c fcbc
00000220: 45ae 163d ee7a 9abc b2b5 a4bd 9048 193c
00000230: 908b 3bbc 6e49 87bd 407b 8abd e008 05be
00000240: d8d5 1abc e8af b9bc 21c1 16bd 524e 08be
00000250: c65c 1f3d 1758 07be c2bf 8e3d 52d4 adbd
00000260: 6a9d 20bd 3ef4 9b3d 714a da3c 61c8 13bd
00000270: 5970 42bd da8c ebbb 4f75 ee3d 56d8 6fbd
00000280: d327 853d e9b5 19bd 14b9 60bc 2bd0 233d
00000290: a594 80bc e91b 34bb 248a 8c3d 3eb4 033d
000002a0: f01c b938 8959 303d fa9d be3d c85c 8abc
000002b0: 035b 94bd 7b1a 18bc 3afd 2dbc 27b5 a6bd
000002c0: c1f7 27bd 96e4 893c 0f43 d6bc a907 043c
000002d0: 0627 bbbd ab6f 843d c80c 98bd fb5d 823c
000002e0: 7524 64bd a0e8 61bd aa5b 8b3a 1e8a 95bd
000002f0: 18f9 dfbd 32b0 a1bd 4aaa 173d 6cf9 c43c
00000300: 7fea a13d 7f81 8fbd 242b 853d 86ed b0bc
00000310: 81a3 ecbd db3f 34bd 8eab 58bd f75f 03be
00000320: ae19 eebd 2787 2cbd 5984 08be 936e 01be
00000330: e6cf 1abe a825 17be b2fb ec3b 5cad 9cbd
00000340: 5ac2 05be bd1b 57bd c77b e7bd e326 1dbe
00000350: 76a9 29be bcdb a23d ad8c ddba 673e ce3d
00000360: 84af 853d aa8e 413c abca 863d f2df 0ebe
00000370: 489b dfbc 3fc3 28be dae5 07bb d115 a23d
00000380: e61d 2abd f986 31bc e034 82bd 3faa b9bd
00000390: b326 fb3d 441b e53d d230 d8bb cd2b 91bd
000003a0: 0adf 8cbd dc96 383b 3a69 ebbc ac59 63bb
000003b0: 0e4e c4bc d6af 30be e8de 84bc aa81 e3bd
000003c0: 4e94 6a3e 41b3 583e 973c b53d b300 95bd
000003d0: 5dcd 3fbd b2e5 06bd 4b40 f4bd 71fb a5bc
000003e0: 0b8d e73c c9b9 913d 09a1 823d b472 f33c
000003f0: 624c 7bbe 186f a5bd a14f 69be bd45 b9bd

model_cnn.conv2.bias f4 [64]
0.12704712 -0.098023124 0.061184723 0.13277565 -0.08965648 -0.04169888 0.13390058 -0.06455589
0.0883675 0.0050466936 -0.11611353 0.109870985 0.027735317 0.0356923 -0.023304507 0.05691663
0.017525414 -0.016418023 -0.055229258 0.05512697 -0.04446847 -0.022962358 -0.10855475 0.023828091
-0.026451215 -0.081499524 0.005574347 -0.017696299 -0.091063626 0.07028516 0.007290938 -0.073925935
0.05780015 -0.06971857 -0.11754151 0.06880116 -0.10681015 0.01788597 0.044562865 0.10292277
0.011668877 -0.0723223 -0.10360444 -0.08196781 -0.015136461 -0.07872619 0.074384265 0.06667996
-0.026098853 -0.13633063 0.11145822 0.0054951347 0.0004622178 -0.060270447 -0.055186268 -0.025333684
0.025674306 0.03830472 -0.076119766 0.09816096 -0.054545376 -0.046043757 0.08985364 -0.013977944
00000000: a418 023e 59c0 c8bd d59c 7a3d 57f6 073e
00000010: d19d b7bd 72cc 2abd 3c1d 093e e135 84bd
00000020: 05fa b43d bc5e a53b eecc edbd 0a04 e13d
00000030: 2d35 e33c 1732 123d 18e9 bebc 6a21 693d
00000040: 7591 8f3c 177f 86bc 1338 62bd d1cc 613d
00000050: 9224 36bd 8e1b bcbc f451 debd 2133 c33c
00000060: 38b0 d8bc 39e9 a6bd 03a9 b63b d4f7 90bc
00000070: 917f babd aaf1 8f3d d2e8 ee3b 7b66 97bd
00000080: dabf 6c3d 9cc8 8ebd 9ab9 f0bd 9fe7 8c3d
00000090: 48bf dabd 9985 923c 8d87 363d 2cc9 d23d
000000a0: d12e 3f3c b71d 94bd 912e d4bd bdde a7bd
000000b0: ebfe 77bc 323b a1bd c756 983d 818f 883d
000000c0: 43cd d5bc 429a 0bbe 3544 e43d 8810 b43b
000000d0: d355 f239 25de 76bd ff0a 62bd 9688 cfbc
000000e0: ec52 d23c 69e5 1c3d aee4 9bbd 9d08 c93d
000000f0: f96a 5fbd 6198 3cbd 2f05 b83d bf03 65bc

model_cnn.fc1.weight f4 [256, 64]
-9.097769e-05 -0.0304404 7.6774904e-07 0.014530983 -2.345049e-05 0.01769441 -8.649677e-05 -9.0815156e-05
-0.010121154 -8.570664e-06 9.110564e-05 -0.00025605425 0.00026787186 0.033290457 0.010455648 -0.00026552606
1.9355874e-05 -0.00038897237 -0.00033255378 0.0022323069 -0.00014379983 -5.4195803e-05 0.00022004603 8.483153e-05
-0.007517609 -0.031664997 -0.020254431 -0.038760606 -0.035729904 -1.1015585e-05 0.004529416 0.014433508
-0.0003577631 -3.1236168e-06 -0.0003787409 -0.00026208395 -0.009095126 0.00031219216 0.04003949 0.00030048616
0.0071625197 -0.03077863 -0.029040027 0.00026756362 -0.007534782 2.8258903e-05 -0.00016178068 -0.030638263
0.02450593 -3.3270677e-05 8.5773316e-08 0.0009599249 -0.0003583849 -9.127382e-06 0.013343098 -7.419665e-05
0.014827349 -0.0024881028 0.00015664847 0.00020820349 0.00084511715 -0.00031121224 -0.018271254 -0.027206132
0.040050264 0.031802807 -0.08378345 -0.03559364 0.097516164 -0.11292818 -0.093908116 0.08675286
-0.124930285 -0.06992856 -0.05444614 0.0802374 0.09430971 0.08144884 -0.079751775 -0.017854137
0.06665918 0.019610714 -0.034634426 -0.015861437 -0.0057477606 -0.09066109 -0.11063721 -0.003050202
0.044019874 0.11742563 -0.03375444 -0.057335448 0.118055955 -0.08622139 -0.014734373 0.051912606
-0.047077853 0.0023229423 -0.007752629 0.00206573 0.0747599 -0.08694031 0.06454688 0.116015
-0.0755627 -0.059694458 -0.031846974 -0.1126857 -0.06666124 -0.021462027 0.025686529 0.08003674
-0.0669791 0.070614204 -0.065242454 0.021254776 -0.031572185 -0.0507113 0.11371079 -0.089981265
0.10708936 -0.08562611 -0.054557636 -0.013058759 -0.07895115 0.052368924 0.0019958674 -0.022179555
0.031553637 -0.030876813 -0.010097802 0.17029984 0.23339322 0.0778352 -0.16500765 0.024734234
-0.0143052265 0.04690198 0.08634527 0.056164175 -0.21220732 -0.0005770752 0.032153506 -0.2362251
0.11509269 0.06740411 0.0702874 0.1089298 0.06327275 0.091224805 0.04556387 -0.048332933
0.07012674 0.027119912 -0.0060068895 -0.05479732 0.013960194 -0.041867703 0.2127813 0.03639433
0.037552956 0.0047259587 0.21194176 -0.16997233 0.2804324 0.042456046 -0.056476723 -0.034642614
-0.007206726 -0.008430641 -0.025078421 0.11113742 -0.13310432 0.0077341595 -0.06321211 -0.01064032
-0.12695037 0.09061614 -0.29075092 -0.069900766 0.042806182 0.030959176 0.10174601 0.08481994
0.11929685 0.07996421 -0.04738462 0.039822813 0.08893044 0.16487654 -0.08934209 0.07736757
0.12815754 0.112099916 0.2435414 0.12664063 -0.17664035 -0.25171715 0.20050299 -0.1782076
-0.01561972 0.11588344 -0.031639725 0.099168286 0.31545052 0.025270095 0.0047485824 0.16218475
0.025679018 0.030598795 0.008210787 -0.17854309 -0.036991134 0.02419043 -0.011637626 0.11317634
0.064244494 -0.29760954 0.0020226552 0.079761654 -0.16795139 0.22697784 -0.105953954 -0.00019519607
0.016014274 0.15923086 -0.055123817 -0.014913866 -0.25258443 -0.03375709 0.08151862 0.097591266
-0.075380966 0.07531675 -0.23395745 -0.23305322 -0.22235602 0.042508777 0.044824276 0.08729967
-0.1000536 -0.055512343 0.14571504 -0.06862682 0.025498422 -0.17972155 -0.117903724 -0.13908288
-0.21196972 0.075660154 -0.20667005 0.08233047 -0.27291274 -0.16551866 0.020286044 0.24125168
00000000: 47cb beb8 255e f9bc 5017 4e35 5c13 6e3c
00000010: 8bb7 c4b7 def3 903c 9a65 b5b8 0474 beb8
00000020: 32d3 25bc b9ca 0fb7 f80f bf38 053f 86b9
00000030: 2771 8c39 935b 083d 2b4e 2b3c 4e36 8bb9
00000040: 6c5e a237 fdee cbb9 9d5a aeb9 e54b 123b
00000050: f9c8 16b9 4d50 63b8 28bc 6639 95e7 b138
00000060: 4656 f6bb 28b3 01bd 9fec a5bc 71c3 1ebd
00000070: 8559 12bd 94cf 38b7 7f6b 943b 857a 6c3c
00000080: 2792 bbb9 549f 51b6 be91 c6b9 5068 89b9
00000090: b903 15bc b9ad a339 7300 243d 928a 9d39
000000a0: 92b3 ea3b 7723 fcbc 5ae5 edbc c847 8c39
000000b0: 55e6 f6bb 880d ed37 aca3 29b9 18fd fabc
000000c0: a9c0 c83c 1e8c 0bb8 6132 b833 78a3 7b3a
000000d0: 9be5 bbb9 cf21 19b7 029d 5a3c 069a 9bb8
000000e0: 69ee 723c 700f 23bb 0142 2439 3351 5a39
000000f0: da8a 5d3a 332a a3b9 99ad 95bc 65df debc
00000100: bf0b 243d a943 023d a896 abbd a3ca 11bd
00000110: 8eb6 c73d e446 e7bd e652 c0bd 7cab b13d
00000120: 73db ffbd b436 8fbd ea02 5fbd 8253 a43d
00000130: 7325 c13d a6ce a63d e654 a3bd d742 92bc
00000140: 9c84 883d a6a6 a03c d4dc 0dbd d8ef 81bc
00000150: b657 bcbb 86ac b9bd c395 e2bd e6e5 47bb
00000160: 2f4e 343d d97c f03d 1842 0abd 93d8 6abd
00000170: 52c7 f13d d794 b0bd 7168 71bc 50a2 543d
00000180: b5d4 40bd 813c 183b c409 febb 3361 073b
00000190: b81b 993d c30d b2bd 2831 843d 4699 ed3d
000001a0: 9ec0 9abd 2d82 74bd f971 02bd c3c7 e6bd
000001b0: b085 88bd 22d1 afbc 8e6c d23c 4dea a33d
000001c0: 572c 89bd 2e9e 903d d69d 85bd 7f1e ae3c
000001d0: d651 01bd a7b6 4fbd 34e1 e83d 1948 b8bd
000001e0: ab51 db3d be5c afbd d477 5fbd 68f4 55bc
000001f0: 24b1 a1bd cc80 563d 19cd 023b e6b1 b5bc
00000200: 633e 013d 5ff1 fcbc 4071 25bc 1563 2e3e
00000210: a2fe 6e3e 1068 9f3d c4f7 28be 739f ca3c
00000220: 7860 6abc 4a1c 403d cad5 b03d 680c 663d
00000230: e04c 59be dc46 17ba 65b3 033d fee4 71be
00000240: b7b5 eb3d 2b0b 8a3d d7f2 8f3d 9616 df3d
00000250: 2595 813d 12d4 ba3d 2ea1 3a3d c1f8 45bd
00000260: 9c9e 8f3d 942a de3c 71d5 c4bb 2873 60bd
00000270: 4cb9 643c 787d 2bbd 57e3 593e 3912 153d
00000280: 21d1 193d 37dc 9a3b 4307 593e 3a0d 2ebe
00000290: d694 8f3e 64e6 2d3d 2354 67bd 6ae5 0dbd
000002a0: 6626 ecbb ac20 0abc 4371 cdbc 049c e33d
000002b0: 804c 08be d56e fd3b 5a75 81bd bd54 2ebc
000002c0: 47ff 01be f494 b93d 4edd 94be 2228 8fbd
000002d0: 8955 2f3d 199e fd3c 3660 d03d 14b6 ad3d
000002e0: e851 f43d 47c4 a33d 6016 42bd 3f1d 233d
000002f0: 2a21 b63d 65d5 283e fcf8 b6bd e372 9e3d
00000300: bb3b 033e a494 e53d eb62 793e 15ae 013e
00000310: 35e1 34be 12e1 80be a850 4d3e 0e7c 36be
00000320: dbe9 7fbc 4c54 ed3d a898 01bd be18 cb3d
00000330: bb82 a13e 3b03 cf3c ff99 9b3b c213 263e
00000340: ce5c d23c 53aa fa3c 8986 063c 00d4 36be
00000350: 0484 17bd 022b c63c beab 3ebc ffc8 e73d
00000360: 9e92 833d 4760 98be 868e 043b 145a a33d
00000370: 73fb 2bbe e16c 683e 63fe d8bd 8cad 4cb9
00000380: 5e30 833c 6a0d 233e 83c9 61bd 4a59 74bc
00000390: bf52 81be e044 0abd 3cf3 a63d eedd c73d
000003a0: 5661 9abd ab3f 9a3d 8b92 6fbe 81a5 6ebe
000003b0: 4cb1 63be af1d 2e3d a999 373d 2bca b23d
000003c0: e7e8 ccbd e960 63bd 5336 153e 388c 8cbd
000003d0: 11e2 d03c ed08 38be 8277 f1bd be6b 0ebe
000003e0: 970e 59be b6f3 9a3d 50a1 53be e19c a83d
000003f0: 38bb 8bbe b97d 29be eb2e a63c ae0a 773e

model_cnn.fc1.bias f4 [256]
-0.00010097153 -0.042607903 -0.022782492 -0.014789939 -0.054060124 -0.04898209 -0.008334109 -0.016966557
-0.082552984 -0.025401734 0.016119834 0.030856455 -0.0055519845 0.01834911 -0.021918315 -0.025579313
0.10760821 0.0060949237 -0.008360332 -0.009599388 -0.03880537 0.10061434 -0.014823778 -0.0051650396
-0.0021926677 -0.043741103 0.10668299 0.058061007 -0.025209744 -0.06985077 -0.05362887 0.039404996
0.0017426098 -0.010449219 -0.06275012 -0.013940254 0.013337852 -0.011456175 0.056543052 0.10588065
0.0914615 0.027292578 0.045664 -0.09301614 0.08543368 -0.031520627 0.018638395 0.05991282
-0.037403665 -0.036829323 -0.006361064 0.059835505 0.03430485 0.047149282 0.07720289 0.00019022785
0.011859042 0.051097456 -0.008796124 -0.008759426 -0.001950368 0.06005557 -0.082277134 -0.012281027
0.0071638096 -0.0074092997 0.05754296 -0.079700075 0.051430624 -0.025496757 0.024990749 3.970198e-05
0.035384823 0.028639218 0.090786606 0.033324026 -0.0051898183 0.012830002 0.035867523 0.12154156
0.040939406 -3.0098114e-05 0.026879804 -0.008410767 0.037531614 -0.02618587 -0.034339286 0.09138447
0.039521717 0.037935574 -0.12863764 0.118529625 -0.008829831 -0.008360414 -0.016598787 -0.005354319
-0.03318989 -0.013397691 0.058070935 -0.0026297981 0.040834513 -0.013164809 0.049612343 -0.08472051
0.08865156 0.058021534 0.015901601 -0.00014638345 -0.016109737 -0.011031593 0.09417819 -0.028851569
-0.057634123 -0.022725077 -0.0396813 -0.08653531 -0.08372557 -0.081396 0.012458789 1.5669139e-05
-0.032450832 -0.037273243 -0.0030359146 0.050607327 -0.058362633 0.1446649 0.005199251 -0.0005140522
-0.03135543 -0.035723325 -0.07749216 0.027065663 -0.0053030034 -0.04296852 0.046155944 0.018492848
-0.0057984977 -0.010655035 -0.0038179532 0.07012108 0.007091998 -0.12700982 -0.010805451 -0.023755815
-0.06519246 -0.10458937 0.044783074 -0.08880582 -0.07581069 0.018114677 -0.0026042638 -0.11554702
-0.023696069 -0.067254126 -0.105077535 -0.032733474 -0.1175285 0.080045186 -0.026334591 0.023674186
-0.008059713 -0.027335659 -0.031942822 -0.002807884 0.08665113 -0.022821061 0.11135969 0.0075929067
0.0366994 -0.012113724 -0.0013382551 -0.026137432 -0.05156948 0.043864075 0.083055355 0.045684244
-0.007836447 -0.007307897 0.104264244 0.06910892 -0.009265671 0.07315846 -0.09528816 -0.058800664
-0.011670809 0.009273494 -0.0001781349 0.08811553 -0.009438348 0.030644158 -0.0069168857 0.03966658
0.0317884 0.001292721 0.0034417047 0.10833837 0.08910694 0.01491303 0.015999386 -0.062290817
0.09961157 0.055090364 -0.029506976 -0.064169444 -0.047184993 -0.007887611 -0.065113276 -0.054008264
-0.037977166 -0.021643076 -0.11952514 0.046873305 -0.007891127 -0.033743054 -0.009407356 0.05187518
-0.07040149 -0.036236364 0.0962715 0.01147859 0.049885225 -0.020097379 -0.03276631 -0.0369593
-0.03015612 -0.038594216 -0.09354341 0.014383152 -0.039245464 -0.034388468 -0.06064172 -0.048664004
0.02988638 -0.07845311 0.06180863 -0.038603127 -0.075548515 -0.012611963 0.001505066 0.098299555
0.03187517 -0.0039345697 0.0034302801 -0.009289141 -0.01988216 0.10115567 0.0711971 0.07334529
-0.11453705 -0.03520112 -0.13465305 -0.07146301 -0.00012572587 -0.0027956318 0.09522339 3.002867e-05
00000000: adc0 d3b8 a085 2ebd 59a2 babc 8051 72bc
00000010: 266e 5dbd 72a1 48bd c98b 08bc 73fd 8abc
00000020: 8a11 a9bd 4c17 d0bc be0d 843c adc6 fc3c
00000030: 6ced b5bb df50 963c 0a8e b3bc b58b d1bc
00000040: b161 dc3d edb7 c73b c6f9 08bc c046 1dbc
00000050: 61f2 1ebd e40e ce3d 6edf 72bc 7e3f a9bb
00000060: dcb2 0fbb df29 33bd 9d7c da3d 61d1 6d3d
00000070: aa84 cebc ec0d 8fbd f2a9 5bbd 2267 213d
00000080: 4868 e43a 3333 2bbc 2383 80bd aa65 64bc
00000090: 0287 5a3c aeb2 3bbc b099 673d f4d7 d83d
000000a0: 2b50 bb3d af94 df3c 2d0a 3b3d 3f7f bebd
000000b0: daf7 ae3d c61b 01bd 8caf 983c 2567 753d
000000c0: 9634 19bd 58da 16bd 7970 d0bb 1316 753d
000000d0: 3e83 0c3d 9b1f 413d 8c1c 9e3d e677 4739
000000e0: 6d4c 423c 914b 513d 9e1d 10bc b283 0fbc
000000f0: 7ea3 ffba d4fc 753d ea80 a8bd 5c36 49bc
00000100: 64be ea3b b6c9 f2bb 2bb2 6b3d cb39 a3bd
00000110: eba8 523d 93de d0bc 66b9 cc3c ad85 2638
00000120: adef 103d cb9c ea3c 54ee b93d c67e 083d
00000130: 5a0f aabb ee34 523c d3e9 123d c8ea f83d
00000140: 14b0 273d 357b fcb7 0933 dc3c 50cd 09bc
00000150: c0ba 193d c083 d6bc 5aa7 0cbd c827 bb3d
00000160: 86e1 213d 5562 1b3d 96b9 03be a9bf f23d
00000170: ffaa 10bc 1efa 08bc 2efa 87bc 4873 afbb
00000180: 1ff2 07bd fd81 5bbc cadb 6d3d b158 2cbb
00000190: 1742 273d 36b1 57bc 5036 4b3d f281 adbd
000001a0: f38e b53d fda7 6d3d 1344 823c 827e 19b9
000001b0: 91f8 83bc dbbd 34bc 7fe0 c03d 205a ecbc
000001c0: c211 6cbd f129 babc dc88 22bd 6d39 b1bd
000001d0: 5078 abbd f2b2 a6bd f31f 4c3c 3871 8337
000001e0: 2aeb 04bd d4ab 18bd 32f6 46bb a149 4f3d
000001f0: a80d 6fbd 0923 143e 7b5e aa3b 76c1 06ba
00000200: 8d6e 00bd 9f52 12bd 36b4 9ebd cfb8 dd3c
00000210: d1c4 adbb c2ff 2fbd 040e 3d3d 507e 973c
00000220: 5301 bebb 7592 2ebc a036 7abb a49b 8f3d
00000230: fe63 e83b dd0e 02be 5909 31bc 8e9b c2bc
00000240: a083 85bd f432 d6bd 756e 373d d3df b5bd
00000250: a342 9bbd 3b65 943c 4cac 2abb eba3 ecbd
00000260: 421e c2bc 88bc 89bd e432 d7bd 8913 06bd
00000270: c8b2 f0bd bbee a33d a4bb d7bc 5ef0 c13c
00000280: e30c 04bc 08ef dfbc 7ad6 02bd 7a04 38bb
00000290: 2676 b13d 3cf3 babc 8d10 e43d ebcd f83b
000002a0: 1c52 163d a478 46bc 6468 afba 2b1e d6bc
000002b0: 853a 53bd d1aa 333d ed18 aa3d 671f 3b3d
000002c0: 7164 00bc 1577 efbb 7e88 d53d fa88 8d3d
000002d0: 0acf 17bc 1ad4 953d 7026 c3bd f7d8 70bd
000002e0: ec36 3fbc daef 173c b9c9 3ab9 ea75 b43d
000002f0: 4da3 1abc 7509 fb3c 0ba7 e2bb 6c79 223d
00000300: 8e34 023d 8570 a93a 398e 613b 82e0 dd3d
00000310: b37d b63d c855 743c 2511 833c a824 7fbd
00000320: 2701 cc3d 6fa6 613d 9db8 f1bc 456b 83bd
00000330: 0d45 41bd 0a3b 01bc 1c5a 85bd c537 5dbd
00000340: f28d 1bbd d24c b1bc 99c9 f4bd 39fe 3f3d
00000350: c949 01bc 2836 0abd 5021 1abc 127b 543d
00000360: a82e 90bd 956c 14bd fe29 c53d b210 3c3c
00000370: 7354 4c3d 42a3 a4bc f735 06bd a362 17bd
00000380: f809 f7bc f814 1ebd b093 bfbd 50a7 6b3c
00000390: dabf 20bd ecda 0cbd 7463 78bd e853 47bd
000003a0: 48d4 f43c 06ac a0bd 0c2b 7d3d 501e 1ebd
000003b0: 2eb9 9abd 68a2 4ebc a245 c53a 4751 c93d
000003c0: 8a8f 023d 90ed 80bb 8dce 603b 7b31 18bc
000003d0: e9df a2bc b42a cf3d c9cf 913d 0e36 963d
000003e0: 6792 eabd 0d2f 10bd 7de2 09be 335b 92bd
000003f0: 48d5 03b9 eb36 37bb 7b04 c33d 14e6 fb37

model_cnn.classifier.weight f4 [5, 256]
-0.007349666 -0.012196459 -0.09168783 -0.2209358 0.033330236 0.20544907 0.0152197005 0.029041285
-0.028639637 0.005021505 0.28708208 -0.25642914 -0.005377748 0.04909022 0.016611632 -0.059371915
0.029154947 -0.078758776 0.018056316 0.02877885 -0.05262437 0.15435697 -0.0570256 0.054229718
-0.03563762 -0.04519872 -0.20404416 -0.056306224 -0.015645301 -0.044704348 0.011526081 0.030557962
-0.044535197 -0.04801835 0.16854487 -0.009270512 -0.22799622 -0.24589537 0.17280757 0.050420832
0.28476405 0.018205939 -0.026967721 0.120415285 -0.29079917 0.041843243 0.13386868 -0.07189169
0.047823578 -0.00048151897 -0.021177456 0.0029656524 0.30691022 -0.044942364 -0.14990766 -0.032576334
0.040405713 0.065796316 0.09222872 0.04581431 -0.03199197 0.28628457 -0.024610432 0.18068768
-0.19754343 0.20712544 -0.051477157 -0.053150937 0.10385471 0.042884108 0.21425703 0.0033891518
-0.082680754 -0.1933295 -0.04660076 0.020319192 -0.010088464 0.0024387015 0.056984227 0.17131712
0.020673666 -0.049663495 -0.049942117 -0.034946874 0.009305069 -0.040156744 -0.036706183 0.100380644
0.01390603 0.24729581 0.032110106 0.23046377 0.007838869 0.035392188 -0.0074455445 0.03421315
0.07726766 0.15348387 0.039059885 0.13177928 -0.049026385 0.26402277 0.04619638 0.019726383
0.09593157 -0.06628359 -0.0032205284 0.058141217 -0.20496158 0.008896634 0.24561606 -0.20572847
-0.21049863 -0.016013097 0.20346017 -0.19959521 -0.019887568 0.042206645 -0.016440561 0.060921207
-0.006986056 0.05379464 0.009441016 0.04161003 -0.30361533 -0.2803434 0.05484671 0.013402619
-0.049756467 -0.02235459 -0.029880945 -0.013494216 -0.025023168 0.031579487 0.026306707 0.19890152
0.029490909 -0.2313864 0.06172734 -0.04778162 0.2176257 -0.05580177 0.0069494224 -0.030410089
-0.045439713 0.033265118 -0.27029955 0.25337154 -0.040051203 0.04834465 0.033582073 -0.014244854
-0.061543882 -0.033040788 -0.02807503 -0.03405168 0.04647868 0.29384804 0.026414447 -0.02440993
0.018563455 -0.0543761 0.017047493 0.2652025 0.06166218 0.003409568 0.017381534 -0.020870902
0.059951063 0.055992153 0.021564817 -0.210764 0.015170771 0.22551623 -0.26831257 -0.24999245
0.056819227 -0.0072542783 -0.19904514 -0.18100786 0.100381345 -0.055876732 0.05652975 0.06441593
0.00013310892 0.049795564 0.009454751 -0.24794026 -0.024306076 -0.19895065 -0.026378317 0.026090574
-0.029766036 0.031791337 0.056145694 -0.0006632241 -0.078786254 0.2697323 -0.041590374 -0.054569528
0.26797283 -0.13718358 -0.0021635368 0.0048790434 -0.030290056 -0.017058998 -0.25143647 0.0042606657
0.032873686 -0.05653243 -0.026108295 -0.29535356 -0.02951819 0.0009595378 -0.02908621 0.052918382
0.018657262 -0.26934695 0.03897517 -0.31467828 -0.28744626 -0.05063018 0.03414591 0.022709448
0.15311484 -0.17163245 -0.22045 -0.035428975 0.008661736 -0.15010041 0.24456236 0.038853955
0.053541902 0.15319163 -0.15455985 0.015464612 0.0062136604 0.0058897794 0.19881748 0.23505133
-0.037711147 0.296177 0.18116754 -0.052933417 -0.10404339 -0.28054905 0.07351893 -0.021474034
0.049678188 -0.0074015516 -0.022813225 -0.020082848 0.05910838 0.050680105 -0.0228018 0.025493853
00000000: 78d5 f0bb a8d3 47bc d4c6 bbbd ff3c 62be
00000010: 4985 083d 3e61 523e 0d5c 793c fde7 ed3c
00000020: ac9d eabc 708b a43b 6cfc 923e ae4a 83be
00000030: d237 b0bb d412 493d 1e15 883c f72f 73bd
00000040: 5bd6 ee3c 484c a1bd d7ea 933c 9fc1 eb3c
00000050: a78c 57bd c10f 1e3e ad93 69bd fb1f 5e3d
00000060: c1f8 11bd 4b22 39bd f4f0 50be 5ba1 66bd
00000070: 932a 80bc e81b 37bd e3d7 3c3c b154 fa3c
00000080: 8a6a 36bd e4ae 44bd 0797 2c3e 58e3 17bc
00000090: d777 69be ffcb 7bbe 78f4 303e 1386 4e3d
000000a0: 98cc 913e 9f24 953c 69eb dcbc 4a9c f63d
000000b0: a1e3 94be d263 2b3d df14 093e f33b 93bd
000000c0: a8e2 433d 6274 fcb9 587c adbc 645b 423b
000000d0: 5623 9d3e 7c15 38bd 6581 19be c36e 05bd
000000e0: 7680 253d 38c0 863d 69e2 bc3d c9a7 3b3d
000000f0: 030a 03bd e493 923e d19b c9bc 3106 393e
00000100: d348 4abe b118 543e b6d9 52bd ccb4 59bd
00000110: c7b1 d43d 3fa7 2f3d 3266 5b3e 881c 5e3b
00000120: 8754 a9bd 2bf8 45be 70e0 3ebd 6f74 a63c
00000130: 164a 25bc 9fd2 1f3b 4b68 693d c16d 2f3e
00000140: d25b a93c f36b 4bbd 1b90 4cbd 7424 0fbd
00000150: 4a74 183c 667b 24bd 3959 16bd 5e94 cd3d
00000160: 1ed6 633c 1d3b 7d3e e385 033d b2fe 6b3e
00000170: 996e 003c 66f7 103d c1f9 f3bb 1723 0c3d
00000180: 823e 9e3d e02a 1d3e 42fd 1f3d 26f1 063e
00000190: e4cf 48bd fe2d 873e 6a38 3d3d 3999 a13c
000001a0: c577 c43d b1bf 87bd 800f 53bb 7c25 6e3d
000001b0: 73e1 51be 30c3 113c c782 7b3e 7caa 52be
000001c0: f48c 57be e62d 83bc dd57 503e b062 4cbe
000001d0: 41eb a2bc e0e0 2c3d 5bae 86bc 8488 793d
000001e0: 49eb e4bb c557 5c3d 7eae 1a3c 476f 2a3d
000001f0: 7873 9bbe 2c89 8fbe f2a6 603d a996 5b3c
00000200: 70cd 4bbd f920 b7bc e2c8 f4bc d816 5dbc
00000210: 63fd ccbc 7e59 013d 2a81 d73c d7ac 4b3e
00000220: eb96 f13c 8ef0 6cbe cfd5 7c3d a9b6 43bd
00000230: 46d9 5e3e 6690 64bd fbb7 e33b 941e f9bc
00000240: fe1e 3abd 0141 083d b464 8abe eab9 813e
00000250: bb0c 24bd 0a05 463d 5b8d 093d 4063 69bc
00000260: 7015 7cbd c755 07bd 9bfd e5bc c679 0bbd
00000270: 6e60 3e3d 4073 963e 1c63 d83c 55f7 c7bc
00000280: 6312 983c 79b9 5ebd 2fa7 8b3c 9fc8 873e
00000290: 7b91 7c3d 0f73 5f3b b863 8e3c 74f9 aabc
000002a0: 3f8f 753d 0758 653d b3a8 b03c 85d2 57be
000002b0: d38e 783c baed 663e 4460 89be 05fe 7fbe
000002c0: 47bb 683d 4cb5 edbb 7dd2 4bbe 205a 39be
000002d0: bc94 cd3d 00df 64bd bd8b 673d 80ec 833d
000002e0: 2793 0b39 6ff6 4b3d 1ae8 1a3c 0de4 7dbe
000002f0: 891d c7bc b8b9 4bbe 5717 d8bc e6bb d53c
00000300: e7d7 f3bc a237 023d 07f9 653d 37dc 2dba
00000310: b05a a1bd 5a1a 8a3e ab5a 2abd 4c84 5fbd
00000320: bc33 893e da79 0cbe 20ca 0dbb 62e0 9f3b
00000330: da22 f8bc 50bf 8bbc 48bc 80be 0e9d 8b3b
00000340: 8fa6 063d 8d8e 67bd 10e1 d5bc 9538 97be
00000350: 22d0 f1bc 7e89 7b3a 3446 eebc f2c0 583d
00000360: 1dd7 983c d8e7 89be 6ea4 1f3d 831d a1be
00000370: 282c 93be 9761 4fbd 95dc 0b3d 2a09 ba3c
00000380: 23ca 1c3e 6bc0 2fbe a5bd 61be f91d 11bd
00000390: f4e9 0d3c ecb3 19be 8e6e 7a3e 5325 1f3d
000003a0: c14e 5b3d 44de 1c3e f044 1ebe 495f 7d3c
000003b0: f69b cb3b 0dff c03b cf96 4b3e 4cb1 703e
000003c0: 0177 1abd 83a4 973e fc83 393e b6d0 58bd
000003d0: b314 d5bd 20a4 8fbe 1891 963d 50ea afbc
000003e0: 5b7b 4b3d b788 f2bb cde2 babc c984 a4bc
000003f0: a11b 723d f195 4f3d d7ca babc 7cd8 d03c

model_cnn.classifier.bias f4 [5]
-0.04597328 0.008639056 0.22112148 -0.13041015 -0.02061916
00000000: 7a4e 3cbd d48a 0d3c ab6d 623e 3d8a 05be
00000010: 83e9 a8bc

model_cnn.domain_classifier.weight f4 [2, 256]
0.000516251 -0.032702852 -0.012930251 0.060559027 -0.03309905 0.035225634 0.031539425 -0.031606633
0.038755577 0.013349278 -0.028482104 -0.03539559 0.025923723 -0.048899196 0.036530353 -0.005018033
0.024833279 0.036437545 0.017223846 0.04380397 0.015912779 0.058331985 0.058799583 0.0538016
-0.060908515 -0.039104093 0.012878231 -0.05027913 -0.049785487 0.059464563 -0.06144573 0.059804514
-0.037709158 -0.040939268 -0.031515375 0.031538174 0.018922374 -0.043824624 0.058766466 -0.008850561
0.048074804 0.011948847 -0.030943144 0.056910515 -0.0127464235 0.04018219 -0.0042242734 -6.821736e-05
0.039960988 0.059344303 -0.051936045 0.009464705 -0.010919757 0.036953293 0.035716943 0.0071693533
-0.017475147 -0.024457617 0.044020176 0.030262057 -0.05999499 0.00026588907 0.0026455028 -0.03668601
-0.0028219612 -0.01538917 -0.025616314 -0.05251305 0.013607786 0.020528141 -0.057200644 -0.04665477
0.045408722 -0.0037221578 -0.05898155 0.020972619 0.016892616 -0.046813194 0.035699237 0.036043752
0.018492287 -0.03029192 0.058638193 0.05047624 -0.014282541 -0.036668103 0.008324447 -0.0575958
0.0593456 -0.048416756 0.028253375 -0.010237683 0.02704464 0.008058908 0.0040827636 -0.012382623
0.036056202 -0.026652956 -0.010930268 0.04578625 -0.05870228 -0.04099549 -0.052112117 0.033581063
-0.060109034 -0.018228512 0.05208103 -0.041995157 0.028442778 0.05675418 -0.051342577 0.024272615
-0.019508341 -0.006207908 -0.011318382 0.027692674 -0.0015410947 -0.05628481 0.03394303 0.0075878166
0.04999066 0.0025745747 0.049048238 0.06074827 -0.053512722 0.030388838 -0.02207458 -0.059685104
0.0016331032 -0.03794419 0.022213623 0.052677564 0.04060284 0.005742468 0.0029181116 -0.029119024
0.0448151 0.010996503 -0.016195053 -0.015554938 -0.032159287 0.009839502 -0.0033795044 0.046541587
0.059727874 -0.06039773 0.049809292 -0.056952428 -0.060252406 -0.05238041 0.051752765 -0.02268661
-0.03528263 0.045999356 0.04566294 0.027313096 0.04190361 0.01909357 -0.060225308 -0.025589747
0.0032815773 0.015357737 0.04473462 0.009547388 0.044910807 -0.047072202 -0.035855316 -0.0520742
-0.044921286 0.018484004 0.033757787 -0.0022316833 0.037879273 -0.05237417 0.047440603 0.03929798
-0.06090255 0.009608273 -0.009719159 -0.0024503027 -0.05923268 -0.05012291 -0.050909333 -0.04026363
0.010506541 0.015998213 0.054542806 -0.013951002 0.02770376 0.036754385 0.024817659 -0.048911043
-0.010022861 0.007923208 0.032167967 -0.00026013167 -0.05362183 -0.022789048 -0.0090738665 0.008621053
-0.049482234 -0.05949426 -0.023536496 0.057824496 -0.051540937 -0.0478953 0.05630742 0.0117540965
-0.054542765 -0.009832473 -0.057134736 -0.0015449977 0.012990849 0.005313263 0.042668395 -0.019447682
-0.0111395065 -0.04930318 0.056764342 0.036828563 0.01672521 -0.00618622 0.056080747 0.012989462
0.017485186 -0.05686011 -0.058346014 0.047491916 0.009569057 0.01666565 0.058302272 -0.05143244
0.0104222465 -0.05272116 -0.0064156344 -0.06088735 0.05261821 0.039327204 -0.0038971913 -0.0020769534
-0.039202567 0.018286698 -0.0058043436 0.012686112 0.01809864 0.03618109 0.017253201 -0.06019238
-0.044196952 0.059344865 0.05316053 0.05764955 -0.018427571 -0.028584683 0.028160209 -0.061361767
00000000: 0555 073a 6df3 05bd 67d9 53bc be0c 783d
00000010: df92 07bd c148 103d 7c2f 013d f575 01bd
00000020: 2bbe 1e3d eeb6 5a3c 4d53 e9bc f7fa 10bd
00000030: fd5d d43c 864a 48bd daa0 153d 506e a4bb
00000040: 296f cb3c 893f 153d 0619 8d3c cb6b 333d
00000050: 845b 823c 85ed 6e3d d5d7 703d 115f 5c3d
00000060: 357b 79bd 9d2b 20bd 37ff 523c 7df1 4dbd
00000070: deeb 4bbd 1d91 733d 85ae 7bbd 94f5 743d
00000080: eb74 1abd efaf 27bd 4416 01bd 2c2e 013d
00000090: 1803 9b3c 7381 33bd 1bb5 703d f201 11bc
000000a0: 16ea 443d 19c5 433c 7a7c fdbc 001b 693d
000000b0: 60d6 50bc 1496 243d c66b 8abb eb0f 8fb8
000000c0: 22ae 233d 0313 733d e4ba 54bd da11 1b3c
000000d0: c8e8 32bc 565c 173d ee4b 123d e5ec ea3b
000000e0: 0a28 8fbc 575b c8bc 804e 343d 22e8 f73c
000000f0: 4ebd 75bd 0767 8b39 2c60 2d3b 1244 16bd
00000100: a7f0 38bb db22 7cbc 4ed9 d1bc ed17 57bd
00000110: 31f3 5e3c a22a a83c 394b 6abd 1219 3fbd
00000120: 7ffe 393d 72ef 73bb a396 71bd c5ce ab3c
00000130: 6262 8a3c 31bf 3fbd 5d39 123d 9da2 133d
00000140: 237d 973c c326 f8bc 9a2e 703d 2dc0 4e3d
00000150: 5201 6abc 4b31 16bd 4363 083c 93e9 6bbd
00000160: 5f14 733d a650 46bd 9f73 e73c f4bb 27bc
00000170: b98c dd3c 8309 043c b4c8 853b 7ce0 4abc
00000180: abaf 133d 4d57 dabc de14 33bc 5d8a 3b3d
00000190: cd71 70bd e3ea 27bd 8473 55bd 4c8c 093d
000001a0: e434 76bd f653 95bc eb52 553d 1d03 2cbd
000001b0: d400 e93c 1277 683d 984c 52bd 5dd7 c63c
000001c0: f5cf 9fbc b56b cbbb bc70 39bc bfdb e23c
000001d0: 8ffe c9ba e78a 66bd d907 0b3d 38a3 f83b
000001e0: 02c3 4c3d 32ba 283b cee6 483d 2ed3 783d
000001f0: 2830 5bbd 03f2 f83c c0d5 b4bc 5e78 74bd
00000200: da0d d63a 5e6b 1bbd 58f9 b53c 6ec4 573d
00000210: 2a4f 263d 502b bc3b ca3d 3f3b 058b eebc
00000220: 0a90 373d ad2a 343c 7dab 84bc 24da 7ebc
00000230: 75b9 03bd dd35 213c ad7a 5dbb 64a2 3e3d
00000240: 37a5 743d 9c63 77bd d404 4c3d f346 69bd
00000250: 3acb 76bd d78c 56bd b5fa 533d 45d9 b9bc
00000260: 8584 10bd d269 3c3d 1009 3b3d b7bf df3c
00000270: 1fa3 2b3d 1e6a 9c3c d0ae 76bd 97a1 d1bc
00000280: bb0f 573b 059f 7b3c a63b 373d a66c 1c3c
00000290: 65f4 373d c8ce 40bd 06dd 12bd c24b 55bd
000002a0: 62ff 37bd c46b 973c 9b45 0a3d 6f41 12bb
000002b0: 4c27 1b3d 4c86 56bd 1451 423d ebf6 203d
000002c0: f474 79bd 056c 1d3c 1c3d 1fbc 4295 20bb
000002d0: f79d 72bd ae4d 4dbd 4e86 50bd 7aeb 24bd
000002e0: a023 2c3c af0e 833c 4768 5f3d be92 64bc
000002f0: fff2 e23c c48b 163d 674e cb3c f256 48bd
00000300: ed36 24bc 58d0 013c 8fc2 033d 4862 88b9
00000310: 90a2 5bbd 19b0 babc 8eaa 14bc 513f 0d3c
00000320: e2ad 4abd 41b0 73bd 9ccf c0bc 61d9 6c3d
00000330: 971c 53bd dd2d 44bd 9ca2 663d 4194 403c
00000340: 3c68 5fbd 6118 21bc 1d06 6abd 8581 caba
00000350: 92d7 543c e11a ae3b 0ec5 2e3d bf50 9fbc
00000360: 7a82 36bc 22f2 49bd ba81 683d 8cd9 163d
00000370: 4f03 893c c6b5 cabb edb4 653d c1d1 543c
00000380: 183d 8f3c 26e6 68bd 3bfc 6ebd e286 423d
00000390: 89c7 1c3c 6786 883c 5dce 6e3d d2aa 52bd
000003a0: 12c2 2a3c 25f2 57bd 3e3a d2bb 0465 79bd
000003b0: 3186 573d 9015 213d 0568 7fbb 7f1d 08bb
000003c0: df92 20bd fccd 953c 5d32 bebb 69d9 4f3c
000003d0: 9943 943c 9f32 143d 9656 8d3c 498c 76bd
000003e0: dd07 35bd 9a13 733d dbbe 593d ef21 6c3d
000003f0: 6bf5 96bc 6d2a eabc 3db0 e63c 7a56 7bbd

model_cnn.domain_classifier.bias f4 [2]
-0.0092653325 0.0028861205
00000000: 9fcd 17bc 1125 3d3b
