checkpoint/transfer_cnn_features_1d_sa_fcg_to_nmc_1114/best_model.pth (torch, 907682 bytes, 37 tensors)

model_cnn.conv_layers.0.0.weight f4 [16, 22, 15]
00000000: f555 c3bd caa0 05bc 7639 b5bd 23e9 bcbd
00000010: 1d86 aabd 8a19 c1bc 17f4 8cbd 2d91 e4bc
00000020: fcf5 c2bd 26b0 a7bd 45b1 8cbd b6eb 72bd
00000030: c448 b9bd 6c2d 4cbc e3c7 7bbd 0243 633d
00000040: 7d84 9a3d 3137 543d 2432 eb3c 2db4 af3d
00000050: 78a6 803b 6d78 373d d0f0 14ba 89e9 823d
00000060: 654c 933d d5b7 f5bc 3cea ab3d 9662 553d
00000070: 8c52 433d 0711 e13c 577c 873d fc64 793c
00000080: db30 bbbc a9b3 9cbc baea a5bc ee24 9d3c
00000090: 31a3 a33b b2d3 88bc f326 113c 33ea 8f3d
000000a0: 98fe 003c 6381 e03c 35ee 783b 4794 9b3c
000000b0: 30d6 2a3d cba5 113d 686a d73c 2d35 6a3c
000000c0: 17fc 4eba 3d1b b43c 28b5 2bbc 8017 62bd
000000d0: e940 18bd 1bb2 253d ca77 013c 48ed 41bd
000000e0: cc0f 493c 9da1 1a3d b367 7dbd 1ced 84bd
000000f0: d23c a1bb ac6d ba3c 189c d43b 5e3f efb9
00000100: 0d01 1cbd 7336 223d 9945 7a3d d1cd 3d3d
00000110: 2a27 fcbc 0d7a dabc 6ab4 073d 4bc1 9e3c
00000120: c684 ff3c 7b13 41bd 3289 73bc 770f 1d3d
00000130: 5931 cf3c efdb 963b 0f7c 233c b45e 34bc
00000140: 1d27 09bd 0654 bdbc d553 0ebd 3a94 313d
00000150: 3eb0 d93c aeb4 a03c 406a 29bd 8fa2 393d
00000160: 83c5 a53c 4704 1f3d b495 67bd 74a8 2a3d
00000170: edfa 2c3d 647a df3b 4798 4a3d 85d7 43bc
00000180: c00a c73d e90f 1ebd ad61 5b3b e136 84bb
00000190: 1633 533c 313b b2bb 5e05 99bc 97fb c6bc
000001a0: c795 84bb 542d 163d be8e a33d a554 853c
000001b0: 4b51 9c3d 6919 3d3d 0fa7 373d 1ac4 823d
000001c0: 1548 943c 3308 8e3d 5740 ac3d 04d6 eb3d
000001d0: 0d94 5a3d e0ac bd3d 1324 053e 8c3e 5b3d
000001e0: 0954 233d ba3a dcbc 271c a73c 222d f93c
000001f0: a915 7fbb c520 2c3d 98a4 c7bc 1e07 f2bb
00000200: 1e3b 88bc a63c 69bd f6a8 56bd 3477 3dbd
00000210: c55a ba3b 22b6 81bd 42fc 06bd 6b80 48bd
00000220: 2104 87bc aa0f 31bd aaf5 49bb d1ff 883c
00000230: 415b 83bc 5c2f 46bd 66ae 9ebd 4ab3 e2bc
00000240: 4093 90bd 6f62 c4bd bae9 8ebd b045 78bd
00000250: 6bbd c9bd 6c29 e0bc 9807 89ba b3e9 393d
00000260: 1986 0cbd eaf3 cfbc f843 3abd 4fa9 f33c
00000270: 4474 803c d1b5 853d 93ee 4abd e1a7 4c3d
00000280: 80ac 433d ff72 483d d91b 8dbc 4bf5 303d
00000290: 7e41 9a3c 557e 933c 8b07 09ba 3dc7 2fbd
000002a0: 914e 0ebd aefa 923c 8d1e 28bd 0454 d8bc
000002b0: 7b1d 20bd faf2 f6bc aeaf 5f3d 49c5 333c
000002c0: 71ef 963a 3730 d0bc 2181 c93c 4f0c 8cbd
000002d0: c38c ecbd 1568 273d f865 a1bd 7f53 d03c
000002e0: cf39 ae3d 23e1 65bd cab4 843c 29ae b7bd
000002f0: d2c1 dd3c 1148 953d 64b1 f1bc 7770 32bd
00000300: 7a86 99bb 859d 33bd 492d 753d c105 733c
00000310: 5268 ea3b 73d4 173c 1c06 273d 7f19 763a
00000320: 8bab c3bc 51be 823c 6bf4 843c 9acd 873c
00000330: 92b0 e33b 854d 4d3d 41ad 2ebb 0de7 443b
00000340: f539 003d 5d72 02bd e378 483d c660 a7bc
00000350: 21e5 573d d251 49bd 8896 cdbb 429a dbbb
00000360: d403 38bd 02e5 b1bc 47a7 343d 4867 8d3b
00000370: 2702 363d cbc7 2abd a32b 0abc d1ef f8bc
00000380: 25ea 073d 4a14 6abc fdd0 41bb 4a8c 9ebc
00000390: 7277 1abd b47d 8a3c aa0a ab3a 5cc8 25bd
000003a0: 0766 8e3c 5b4d 3ebb 3b65 65bd 66f9 e13c
000003b0: 5de9 d63c 0251 93bc 582e 3abd 042e 38bc
000003c0: 4e80 953d 8bcb 263d 039d 8abc 75df 39bd
000003d0: 7580 053d 156f 533c 591c fc3c ee11 42bc
000003e0: 1df6 8a3d 98a9 e2bc a119 ea3b dc9f 393c
000003f0: baac df3c c066 debc 7373 793d 51fa 0b3d
-0.095378794 -0.008156011 -0.088488504 -0.09224155 -0.08326361 -0.023571748 -0.06882494 -0.027901256
-0.09519574 -0.081878945 -0.06869749 -0.059306823 -0.09047082 -0.012462001 -0.061469924 0.055483826
0.075448014 0.051810447 0.028710432 0.08579288 0.0039260946 0.04479258 -0.0005681636 0.063921995
0.071923055 -0.029994885 0.08394286 0.052095972 0.047686145 0.02747394 0.06615513 0.01522183
-0.022850445 -0.019128637 -0.020253528 0.019182649 0.004993819 -0.016702507 0.008859384 0.07027092
0.0078732 0.027405446 0.003798378 0.018991603 0.04170817 0.035558503 0.026295856 0.014294905
-0.00078958407 0.021985644 -0.010480203 -0.055198193 -0.03717128 0.040453058 0.007902095 -0.04734543
0.012271833 0.037751783 -0.061866473 -0.064905375 -0.0049205804 0.022757374 0.0064883344 -0.00045632845
-0.03808694 0.039602708 0.06110153 0.04633886 -0.030780394 -0.026669526 0.03313104 0.019379279
0.031191241 -0.04713772 -0.014864253 0.038344827 0.025292085 0.004603855 0.009978308 -0.011008907
-0.033484567 -0.023111355 -0.034747917 0.04335425 0.026573297 0.019617405 -0.041361094 0.045321044
0.020235782 0.03882244 -0.056539252 0.041664556 0.04223149 0.00682001 0.04946163 -0.011953239
0.09718847 -0.03858939 0.0033474967 -0.0040348624 0.012890598 -0.005439185 -0.018679317 -0.02428989
-0.004046175 0.036664322 0.0798621 0.016275713 0.07632693 0.04616681 0.044837054 0.0638506
0.018100778 0.069351576 0.08410709 0.115154296 0.05336385 0.09261489 0.13002042 0.053526446
0.039875064 -0.026883472 0.020399166 0.030417029 -0.0038922823 0.04202344 -0.024370477 -0.0073861023
-0.016629752 -0.056942604 -0.052407227 -0.04625626 0.00568709 -0.06333567 -0.032955416 -0.048950594
-0.016481461 -0.04322783 -0.0030816593 0.016723545 -0.016034724 -0.04838501 -0.077481076 -0.027673382
-0.07059336 -0.09589087 -0.069781736 -0.060613334 -0.09850582 -0.027363501 -0.0010454534 0.04538889
-0.034307573 -0.025384862 -0.045474976 0.029743819 0.01568044 0.06528819 -0.04954393 0.04996479
0.04777193 0.048937794 -0.017225193 0.04320268 0.018830057 0.018004576 -0.0005227259 -0.042914618
-0.034742896 0.017941799 -0.04104476 -0.02640725 -0.039090615 -0.030145157 0.0546109 0.010972329
0.0011515451 -0.025413616 0.024597706 -0.06838285 -0.11550286 0.040870745 -0.07880777 0.025430439
0.0850712 -0.05612291 0.016199488 -0.08968765 0.02706996 0.07289136 -0.029503532 -0.043564286
-0.0046852203 -0.043851394 0.05985764 0.014832915 0.007153549 0.00926696 0.04077731 0.00093879545
-0.023885509 0.01595989 0.016229829 0.01657753 0.006948539 0.050122757 -0.002665356 0.0030044944
0.031305272 -0.031847347 0.04894341 -0.020431887 0.05270875 -0.049150296 -0.0062740482 -0.0067017386
-0.044925526 -0.021715645 0.04410484 0.0043152906 0.044435646 -0.041694444 -0.008433255 -0.03038779
0.033182282 -0.014287064 -0.002957403 -0.019354004 -0.03771157 0.016905643 0.0013049443 -0.04047428
0.017382635 -0.0029037807 -0.056004744 0.027584743 0.026234323 -0.017982963 -0.045454353 -0.01124144
0.07299863 0.040721457 -0.016920572 -0.04537912 0.03259321 0.012904902 0.030775236 -0.011845095
0.06785224 -0.02766876 0.0071441685 0.011329617 0.027304042 -0.027148604 0.060901117 0.034174267

model_cnn.conv_layers.0.0.bias f4 [16]
00000000: 101a 16bc 0bdb e83c 3c5d 143c 60c9 a73c
00000010: 01eb 72bc 1195 4e39 b481 dabc 85ff 0c3c
00000020: ae7e ebba f127 31bd 7640 d93c c053 903c
00000030: 8822 e53c 165d 9b3c 6261 0b3b 48c6 0f3d
-0.009161487 0.02842476 0.009055432 0.020481765 -0.014826537 0.00019701222 -0.026673175 0.0086058425
-0.0017966831 -0.04325098 0.026519995 0.01761806 0.027970567 0.018965285 0.0021267761 0.035101205

model_cnn.conv_layers.0.1.weight f4 [16]
00000000: e709 863f 54f2 7d3f 3aac 7f3f 21ef 7c3f
00000010: bc27 703f 7081 7d3f 8ec9 763f ef2c 7e3f
00000020: f213 773f 34f1 8b3f c41a 7b3f a2e7 873f
00000030: fa3c 883f 0426 813f a014 683f adf1 7c3f
1.0471772 0.9919789 0.9987217 0.9880238 0.9381063 0.9902563 0.964013 0.99287313
0.9651481 1.0932984 0.98087716 1.0617564 1.0643609 1.0089726 0.9065647 0.9880627

model_cnn.conv_layers.0.1.bias f4 [16]
00000000: 193c 593d d2d5 9f3c d1ad b1bc fbca 323c
00000010: 2e47 e3bc fcc4 53bd dd09 40bd baaf a4bb
00000020: 633e 923b f0df f3bd 69de 7fbd 2589 b13c
00000030: ea92 76bd 35ff 4bbd 3372 ffbc df40 313c
0.05303583 0.019511137 -0.021689327 0.010912652 -0.027743902 -0.05170153 -0.046884406 -0.005025831
0.0044630035 -0.11907947 -0.062467966 0.02167184 -0.060198702 -0.04980393 -0.031182384 0.010818689

model_cnn.conv_layers.0.1.running_mean f4 [16]
00000000: 1a99 483e a21d 85be d656 843d 9498 333d
00000010: 0475 663e 824d 38be ee7f 8ebd c2ea 8ebe
00000020: f818 cbbe 4682 2ebf 0a38 3e3d ec7b 253e
00000030: dae4 2cbf fa01 efbe dc7e 323d e87c 883e
0.19589654 -0.2599917 0.06461875 0.04384668 0.22505575 -0.17998317 -0.069579944 -0.2791348
-0.39667487 -0.6816753 0.04644016 0.16160554 -0.675367 -0.46681195 0.043578014 0.26657796

model_cnn.conv_layers.0.1.running_var f4 [16]
00000000: fabf f33f 6146 a140 596b f940 a15b 6540
00000010: cdbc 2240 bec8 3040 06d8 1b40 c37a a940
00000020: 83ed 8c40 4ffc e140 bd9a db40 1b38 7340
00000030: 129d 2841 c94b c940 5bcb 0c40 1cb9 1f40
1.9042962 5.039841 7.794354 3.5837176 2.5427735 2.7622523 2.43506 5.2962356
4.403993 7.0620494 6.862639 3.8002994 10.538347 6.290501 2.1999118 2.4956732

model_cnn.conv_layers.1.0.weight f4 [32, 16, 3]
00000000: ffd6 0ebe 0935 e13c 287f f43d 47a2 23bc
00000010: 2b85 103e 4628 d83d 8f42 c03d 6353 b03d
00000020: 6864 c03d 1dd6 593c fe8c f7bd a548 88bd
00000030: 03cc eabd 743e aabc cda5 e63d 2425 9e3d
00000040: 0adc cb3c 036e d6bd a222 6e3d ba3f 693d
00000050: dd48 a1bc 5191 3fbe 828e debd 8d14 563d
00000060: 18d8 01be d447 a4bd c848 98bd 2179 a8bd
00000070: 9f6f 793d fe5d 133e 9c59 e5bd b116 f7bd
00000080: ea8b c43d 53fb b03d aaf7 b1bb e9f5 e2bd
00000090: dce5 d73d a1ef 0e3e 5261 c43d ca33 183e
000000a0: 33bb 9c3d d459 0f3e b377 93bd 8c73 ac3d
000000b0: e48e 82bd cbac 333c b33b c2bd c04e e7bd
000000c0: f9c5 12be adc6 07be 4734 ac3d 1245 0b3e
000000d0: cda3 863d 8e1f 4a3c b1e4 193d 986b b23c
000000e0: 8364 1c3e b081 c73d fc3c a7bd ce4b b2bd
000000f0: c278 1a3e 934c 483d 5862 fdbd 7801 c0bd
00000100: 4636 da3d 6bdd b5bd 6af5 223e 8a2a eb3d
00000110: c549 e4bd ca87 18bd af4d b1bd 987f 52be
00000120: 36b5 1b3c ccfa ac3b 32a6 3b3c 9829 e0bd
00000130: 5bca 83bc dbc4 3ebd 6ff3 51be 2ee9 8c3d
00000140: a3d8 dfbd cc2b 943c b470 d7bd 808e 2ebe
00000150: dff7 95bd 8897 0c3d fa76 f13d 30a1 a83b
00000160: d875 dc3d ff92 ad3d 314b 6bbd eb68 38bb
00000170: f37d 0b3e 4f63 a3bc fd6a 483d 1ab9 043e
00000180: 55d4 e8bc 741e bebc 7dc2 a5bd 4f99 843a
00000190: 914e d4bd dabb 2e3e a504 84bd fea6 cf3d
000001a0: 4d36 183e 6bfe f7bd f2e9 f2bd e0bd 033e
000001b0: b00b f03c 8be7 cfbd cb4e 593d b4c9 55bd
000001c0: b3fd c03c c730 e43d 595c e9bd 19a2 e0bd
000001d0: e0e0 2abd 1bda fe3d a880 69bd e8cf fabc
000001e0: fd07 f23d afc7 223e fd86 fe3c 632a 993c
000001f0: 578b b93d 2e7e bfbc 27c4 ed3d 5bbe 5b3e
00000200: b28a 193e 44b3 0bbe 899d 943d a66d 013e
00000210: 334a a13d d626 5fbd bb4a 83bb 6a0b 3cbd
00000220: 71ff 17ba f528 193e 227d f7ba 0123 5fbc
00000230: 2b53 abbc 21b5 6cbb 7d17 473c 5369 43bd
00000240: 3f33 0dbe 6ddb 42bd 77b8 0abe 02e5 a9bd
00000250: 0522 adbd 83dd f0bd 2dc9 04be 58e2 60bd
00000260: d40b 063d 8e03 f63d bc06 b63c e2d8 823c
00000270: e949 dc3c 1fe4 123b 197d 3bbe 19bd 27be
00000280: 2579 a8bd 42e3 00bd fcb1 11be 695c 223d
00000290: 9083 abbd 96a1 a0bd e298 e8bd eef8 9abd
000002a0: 2356 99bd 5fdd 1b3e ca2c 1a3d 9b64 f7bd
000002b0: 9b79 b33d 5044 323d 0d46 8f3d 14f5 0dbd
000002c0: 1402 ccbc 48fd 463d 479e 213e 045e 8b3d
000002d0: dc42 163e 4f17 293e 0004 a8bb 0f2e 70bd
000002e0: 5dcf bfbc ada7 e2bc 6671 17bd c901 eabd
000002f0: 46b2 03be 6aac d0bd e4ba 8bbd 27b0 22be
00000300: 7e78 1ebd 21d1 a63d 9ca6 45bd c988 613c
00000310: 8082 513d 91b7 183e 8cc8 82bd f66f 28bd
00000320: 7a10 8ebb b78b c0bc a50f d53d 2b6e 2abe
00000330: 5008 0abc dde1 943d 5899 e93b 3e64 bd3d
00000340: 3a87 903d 2ff0 2b3e 4413 153e 9275 b7bd
00000350: b113 12bc 18e9 1d3e 569f 99bd 7f54 623c
00000360: 0ba1 993d 9ab3 333e 4858 833d 7386 233e
00000370: c93e 0abd b56e f53d da8d 023d f130 2e3d
00000380: 974f d63d 93e3 973d bb91 a23d f19c 02be
00000390: d2cd 2abd 0445 e23d f9a8 48bd a69b cc3d
000003a0: 257e 1a3d 61cf 383e ebe1 073d 4937 cd3c
000003b0: 72cb 9ebb 589c b6bd 1036 e2bd 8a45 fcbd
000003c0: 4878 13be 667f 853d 881c fcbd 8489 073e
000003d0: 7cc5 7c3d 1edf d9bd 56e8 d9bd f562 613c
000003e0: d875 4f3d bfcd afbd dc7e 3abc e37a cdbd
000003f0: 9a29 94bd 1bc2 0a3e 2c17 66bd d421 db3d
-0.13949202 0.02749111 0.11938316 -0.00998742 0.141133 0.105545565 0.09387695 0.08609655
0.09394151 0.0132956775 -0.12087439 -0.06654481 -0.114646934 -0.020781733 0.11262093 0.07721928
0.024885196 -0.10470202 0.058138497 0.05694554 -0.019688064 -0.18707778 -0.10867025 0.052265693
-0.1268009 -0.08021513 -0.07435757 -0.082262285 0.060897466 0.14391324 -0.11198732 -0.12064875
0.09596999 0.08641686 -0.005431135 -0.1108206 0.10541889 0.13958599 0.09588875 0.14863506
0.07652893 0.1399911 -0.07200565 0.08420476 -0.063749105 0.01096649 -0.09484043 -0.11294317
-0.14333333 -0.13259383 0.084084086 0.13600567 0.06574211 0.012336625 0.037571613 0.02177982
0.15272717 0.09741533 -0.08165929 -0.08705865 0.15085128 0.048901152 -0.12372273 -0.0937528
0.10654883 -0.08880123 0.1591393 0.11482723 -0.11146883 -0.037238874 -0.08657395 -0.20556486
0.009503653 0.0052789208 0.011453198 -0.109454334 -0.016087702 -0.046574455 -0.20503019 0.06880413
-0.10929992 0.01808729 -0.10519543 -0.17046547 -0.07322668 0.0343242 0.11790271 0.005146168
0.107646644 0.08475303 -0.057444755 -0.0028138708 0.13622265 -0.019944815 0.048930157 0.12961236
-0.02842156 -0.02320788 -0.08093736 0.001011649 -0.10366548 0.17063847 -0.064461984 0.10139273
0.14864464 -0.12109073 -0.11861028 0.128654 0.029302448 -0.10151585 0.05305366 -0.052194312
0.023558473 0.11142116 -0.11394567 -0.10968418 -0.041718364 0.12443944 -0.05700746 -0.030616716
0.1181793 0.15896486 0.031070227 0.01869697 0.0905978 -0.023375597 0.11609679 0.21459334
0.14994314 -0.13642603 0.0725661 0.12639484 0.078754805 -0.054480396 -0.0040067113 -0.045909323
-0.00057982566 0.1495703 -0.0018881897 -0.013619185 -0.020913681 -0.0036118703 0.012151596 -0.047707867
-0.1378908 -0.047572542 -0.1354693 -0.08295633 -0.08453754 -0.11761 -0.12967367 -0.05490336
0.032726124 0.12012397 0.022220008 0.015972558 0.026890712 0.0022413803 -0.1830944 -0.16380729
-0.082262315 -0.03146673 -0.14228052 0.03963891 -0.08374703 -0.0784332 -0.11357285 -0.07567011
-0.074871324 0.15221165 0.03764037 -0.12079736 0.08763429 0.04352218 0.06995783 -0.034657553
-0.024903335 0.04858139 0.15783034 0.068050414 0.14673942 0.16512798 -0.00512743 -0.058637675
-0.023414308 -0.027667845 -0.03697338 -0.11426122 -0.12860975 -0.101891354 -0.06822756 -0.1588751
-0.03868913 0.08145357 -0.048254594 0.013765522 0.051149845 0.14913775 -0.063859075 -0.0411224
-0.0043354603 -0.023504121 0.104033746 -0.16643588 -0.008424833 0.072696425 0.0071288757 0.09247635
0.070570424 0.16790842 0.1455813 -0.08957972 -0.008915828 0.1542095 -0.07501094 0.013814091
0.0750142 0.17548981 0.06413323 0.15969257 -0.033751283 0.11984006 0.03187356 0.042527143
0.10464399 0.07416453 0.07937952 -0.12755181 -0.04170019 0.1104832 -0.04898927 0.09990625
0.037717957 0.18047859 0.033174437 0.025050776 -0.00484603 -0.08916539 -0.11045468 -0.12317951
-0.14401352 0.0651844 -0.123101294 0.13236052 0.061711773 -0.10638259 -0.10640018 0.013756503
0.050649494 -0.08584165 -0.011382785 -0.100332044 -0.07234497 0.13550608 -0.056174442 0.106998116

model_cnn.conv_layers.1.0.bias f4 [32]
00000000: 719c 8dbd 47c8 303d 9e49 db3d 0fed 06be
00000010: 3a16 0dbd bfef f53d 3cda e73c 7176 a2bb
00000020: 24c1 f2bd 2f4f ea3d 55b3 533d d9ec 873c
00000030: 0734 f13d 9e91 ccbc da10 603a 5a4b 47bd
00000040: 6db5 e4bd f5cb 013e a83a 0bbe d525 c43d
00000050: 4889 4ebd 3c35 fc3d 84c9 4e3d e1a2 b2bd
00000060: e7a4 c7bb 561b c63d 9873 a8bd bdbb a5bd
00000070: d5e4 073e 11d2 b0bd 60f6 c53b 827e a63c
-0.069146045 0.04315975 0.10707401 -0.13176368 -0.034445025 0.120086186 0.028302304 -0.004957967
-0.11853245 0.11440884 0.051684696 0.01659243 0.117775016 -0.02497178 0.0008547433 -0.048655845
-0.11167417 0.1267546 -0.13596594 0.095775284 -0.05042389 0.12314841 0.05048515 -0.08722473
-0.006092656 0.09673183 -0.08225173 -0.08092449 0.13270886 -0.08633817 0.006041333 0.020323996

model_cnn.conv_layers.1.1.weight f4 [32]
00000000: 281a 863f 3e0d 6e3f 8e51 803f cc73 7b3f
00000010: 8d41 813f a6f1 7b3f a1ed 863f b503 7d3f
00000020: 74a3 843f cc7c 843f e3ba 7f3f 6575 783f
00000030: 416a 7c3f 8d48 753f 917f 793f b480 853f
00000040: f804 7d3f 2dc5 7e3f f705 733f 9fb8 7e3f
00000050: 84f6 793f 460e 853f 1883 6f3f 815e 793f
00000060: 603b 863f 42d8 723f 327a 823f 5bb1 803f
00000070: 5faf 743f 8d84 823f 0826 7b3f c664 843f
1.0476732 0.92988956 1.0024889 0.98223567 1.009813 0.984156 1.0541269 0.9883378
1.0362382 1.0350585 0.9989454 0.9705413 0.9859963 0.9581383 0.97460276 1.0429902
0.98835707 0.99519616 0.94930977 0.9950046 0.9764178 1.0394981 0.9355941 0.97409827
1.048687 0.94861233 1.0193541 1.0054125 0.95580095 1.0196701 0.98104906 1.0343254

model_cnn.conv_layers.1.1.bias f4 [32]
00000000: 24d1 c5ba cdbd 73bd 8b71 3cbd 6573 9ebd
00000010: b545 bfbc 7bcd 7dbd 8194 aa3b 07ca 29bd
00000020: 4308 7f3c 25f3 0fbd c888 c6bc f727 3f3d
00000030: 22f9 a5bd cb6b 613c 10f9 83bd b0c3 f3bd
00000040: e98b 813a fefb 7abc d3ed aebc 1c24 1d3d
00000050: be6a d4bb fa5b f9bd aace 0ebd 1fef 05bd
00000060: 2067 e8bc d951 3bbd 2d06 eebb 6aff b13c
00000070: 2544 aebd 567b d0bc d876 d43a 4ce6 4e3a
-0.0015092236 -0.05950718 -0.04600672 -0.077368535 -0.023348669 -0.06196354 0.0052056913 -0.041452434
0.015565935 -0.03514399 -0.024235144 0.046668973 -0.08104159 0.01375861 -0.06443989 -0.11902559
0.0009883615 -0.015318869 -0.021353638 0.038364515 -0.006482451 -0.12175746 -0.03486506 -0.032698747
-0.028369486 -0.045732353 -0.00726392 0.021728236 -0.08509091 -0.025449436 0.0016209735 0.0007892593

model_cnn.conv_layers.1.1.running_mean f4 [32]
00000000: 0bf4 503d 3e4e 9cbc d1f5 be3e 8e6b 27bf
00000010: 0686 ef3e 17a0 193b cbbe ba3e bbf7 1dbe
00000020: 55db 43bf d8a6 b33e c636 f5bd d2e4 11be
00000030: fe0b 903e 0da7 66be ad41 11bf 0e3e a93e
00000040: 4438 ed3b ae24 873e 44fd 56be cee1 5abe
00000050: b28e adbe fee7 f63d 9e9c d13e 06fa 96be
00000060: 9160 693e 3074 7fbd 2157 4e3e 3e63 0dbe
00000070: 9de8 553f 9f92 9e3d 380a a6be 044f 553e
0.051013988 -0.019080278 0.37296918 -0.6539849 0.4678194 0.0023441368 0.36473688 -0.15426533
-0.7650655 0.3508823 -0.11973338 -0.14247444 0.2813415 -0.22524662 -0.5674084 0.33055156
0.0072393734 0.26395172 -0.2099505 -0.213752 -0.3389793 0.12055968 0.40939802 -0.29487628
0.22790743 -0.062366664 0.20150425 -0.13807389 0.83558065 0.077428095 -0.3242967 0.20830923

model_cnn.conv_layers.1.1.running_var f4 [32]
00000000: bc07 0f3e e478 3d3e 8159 7d3e 83b8 113e
00000010: 2b10 a43e 3de7 813e 1c27 813e 21f5 863e
00000020: 7b12 263e 0eb1 143e d0c9 c23d 8652 c43d
00000030: e9dc c53d 733b 213e cedf b73e ba36 473e
00000040: 522a 503e aa50 2b3e 97ed 903e b6bd 353e
00000050: b704 f43d ed8a 043e a899 663e ccb1 7c3d
00000060: de67 593e 3b84 193e 348d 3a3e e493 243e
00000070: 81a8 9d3e c893 553e ece8 d23d 002f 803e
0.13967794 0.18503147 0.24741174 0.14230542 0.32043585 0.25371733 0.2522515 0.26358894
0.16217987 0.14520666 0.09511149 0.095860526 0.09661276 0.15745334 0.35912937 0.1945447
0.20328644 0.1672999 0.28306267 0.1774815 0.11914962 0.12943621 0.22519553 0.061692998
0.21231028 0.14991848 0.18217927 0.16072041 0.3079262 0.20857155 0.102983326 0.25035858

model_cnn.conv_layers.3.0.weight f4 [64, 32, 3]
00000000: 60a2 a2bd 0e93 d1bd f487 9e3b 1010 07be
00000010: ac4e aebd 254a a63d d8be 80bb 1f9d 44bd
00000020: fc1d 21be 2df2 413d 7beb 213d 2902 febc
00000030: ee56 96ba 361a adbd 500f bebd beee b73d
00000040: a358 d53c a203 383c 718d c6bc f144 92bd
00000050: a828 efbc 8abe 9a3d 8042 693d d63b eebc
00000060: 920f 6abd dee8 9bbd 7d1e 62bd 3146 e7bd
00000070: a23d 9ebd 3a2c 93bd f20a e13c 55c2 b7bd
00000080: 9b06 8b3d 05aa e93c 63c0 a0bd 0d7a 6a3d
00000090: f1ae 22bb aea8 82bc 1342 113b 00eb 903d
000000a0: 0c4e ab3d e1c3 7c3d 892d 31bd eca5 d5bd
000000b0: a887 1fbd fe6d 913d adbd 6cbd 0b19 96bc
000000c0: 7f20 c1bd 8570 c03b 84c0 863d 99a4 e5bc
000000d0: 7eab 393d 4318 83bd 93b8 fb3b 6cb3 ad3b
000000e0: 9030 9a3d 3790 803d 0291 8ebd 12d8 303c
000000f0: ba30 6b3d d758 4e3d 167a d23d cb23 89bd
00000100: 3047 52bd bbce 1d3d 525f 5e3d d285 68bd
00000110: 2797 6d3b 0dcf ba3d dc5b 313d bf22 b4bd
00000120: b2e1 87bd e254 8a3d 5776 f1bd 79f8 873d
00000130: ae61 103e 83ec 9c3c 8931 7bbd 1eb3 34bd
00000140: 3236 0dbe 4a7e 5c3d 6f41 ff3d 02ae 303d
00000150: 3f49 ecbd e1bb a4bd 57ed cebd fdbd 4dbd
00000160: f596 2dbd 96a2 8cbb 38f6 c53d 2fbf 153d
00000170: 28e9 e33d be21 143d deaa 8b3a efe7 063e
00000180: ebc2 f3bd 50c2 423c 71c7 d6bb e8bd f1bd
00000190: f419 9abd e894 a6bb fc4a 68bc 8a86 9e3d
000001a0: 285f 45bc a932 85bd 46c0 afbd a054 bb3d
000001b0: 6bc0 6c3a 3772 cabc e639 bd3d 4131 5abd
000001c0: 8c16 0e3d 8dbe d3bd d4c5 d83c fa46 a63b
000001d0: 27d4 b23a 9cc3 be3d 68c9 d93b 4666 513d
000001e0: 1502 e0bc 5929 6b3d 5f0b 6bbd 0bf5 193e
000001f0: 24b7 3c3d 5e6f f73d ece4 b0bb 39c2 c2bd
00000200: 8c4c 85bd 7cf1 7c3b fcbb adbd 6cbc f4bd
00000210: 95b4 ee3c c385 973d 1204 6b3c f60b 3cbc
00000220: ae96 bb3c 7dd3 94bc 5f64 7dbd 650e 5ebd
00000230: 8372 b93c 7c2d 543c 6576 89bc 7016 f23c
00000240: e369 023e 72e6 06bd d89a 9c3d 0057 9cbd
00000250: d277 a63d 35a3 72bd 1ae5 02bd 30a1 b43d
00000260: c551 b5bd 0024 ae3d 4698 2cbd 5ce8 653d
00000270: ccb8 023e ed73 d73a 1737 9dbb 7f86 883d
00000280: 83bd 043e 304a 773d 1aac 83bd 9946 f73d
00000290: 7b2e b0bd 6bfe a53d d818 e03c e240 ea3c
000002a0: 5c0c 153e 04f5 2e3d bc50 f53c f82c bb3d
000002b0: 0516 85bb 09df fc3d 1020 b83d ba2e 8c3d
000002c0: 3230 2bbd d698 32bd f195 523d aa81 72bc
000002d0: dca0 9abd 76ba 853d ea5c d5bd 9ca0 27bb
000002e0: a3ae 84bd 3fdb 593d ad63 52bd 05cd 62ba
000002f0: d4b1 22bb 2ba7 d53d 5904 63bd cc01 3b3d
00000300: 184d eabd 05ad d03c f538 a4bd 7b01 9bbd
00000310: cda6 8bbd feff de3d c648 adbd c810 103d
00000320: 955d a0bc 2d6c 9e3d fca3 3e3d 9643 44bd
00000330: 5ae9 173c d158 673d 292d 58bd 0cd3 a0bd
00000340: 4cca 0c3d d31d 4f3d a7fb dabc dec2 513c
00000350: ac61 98bd 7e86 373d 760d 0639 e6ba 87bd
00000360: a4ec 90bd 7cb0 fa3c ad4e 853a d22f c23d
00000370: 9ca4 933d 3947 f8bd 060c a93c a227 c4bd
00000380: 7c09 ddbd 4bca e73b aa47 b5bc 2877 a53d
00000390: 722b d5bd 0f59 cd3c a46b 17be 376a e5bc
000003a0: fb1e 46bd c47d 87bc aa51 febc 21b1 663d
000003b0: c1bf 38bc d8bc 1cb9 2d79 c13a 8899 cd3a
000003c0: c323 41bd 3ad0 c93d 1565 b9bd 9d0d 363d
000003d0: 2b4a ec3d 8ee3 d73b a8d8 96bd 9934 00bd
000003e0: 5816 bdbd 2dad 33bd 884c a93d 86a1 733c
000003f0: f251 cabd 7926 f8bd a1f9 633c edda 57bd
-0.07941127 -0.102331266 0.004837984 -0.13189721 -0.08511099 0.08119611 -0.0039290003 -0.048001405
-0.15734094 0.047350097 0.039531212 -0.03100689 -0.0011469999 -0.08452265 -0.092802644 0.08981083
0.026043242 0.011231335 -0.024237366 -0.07142056 -0.029194191 0.07555874 0.056948185 -0.029081266
-0.057143755 -0.07612775 -0.055204857 -0.11292685 -0.07726599 -0.0718617 0.02747104 -0.08972613
0.06788369 0.028523454 -0.07849195 0.057245303 -0.0024823511 -0.015949573 0.0022164627 0.07076073
0.08364496 0.061710242 -0.043256316 -0.10432038 -0.03894773 0.071010575 -0.057798076 -0.018322488
-0.09430026 0.0058727884 0.06579688 -0.028032588 0.045329563 -0.06401112 0.007681915 0.00530093
0.07528794 0.06277507 -0.06961252 0.010793703 0.057419516 0.050377693 0.10277192 -0.0669628
-0.05133742 0.03852723 0.054290123 -0.056768246 0.0036253424 0.09121523 0.043300495 -0.0879569
-0.06634845 0.06754471 -0.1179015 0.06639189 0.14099762 0.019155746 -0.061326537 -0.044116132
-0.13790205 0.053831376 0.12463652 0.043134697 -0.11537408 -0.080436476 -0.10103863 -0.050230015
-0.042380292 -0.0042918427 0.09666103 0.03655928 0.111284554 0.03616499 0.0010655781 0.13174413
-0.11902412 0.011887148 -0.006554537 -0.118038 -0.075244814 -0.005083669 -0.014178034 0.07740505
-0.012046613 -0.06503803 -0.08581595 0.09147 0.0009031358 -0.024712665 0.09239559 -0.05326963
0.03468947 -0.10339079 0.02646152 0.005074379 0.0013643549 0.09314653 0.006646324 0.051122926
-0.027344743 0.05741248 -0.05738389 0.15034883 0.046073094 0.120817885 -0.0053983834 -0.09509701
-0.06508741 0.0038596084 -0.08483121 -0.11950001 0.029138843 0.0739856 0.014344232 -0.011477461
0.022898998 -0.018167252 -0.0618633 -0.054212946 0.022637611 0.012950297 -0.016780088 0.029551715
0.12735705 -0.032934614 0.076467216 -0.076337814 0.08128323 -0.059237678 -0.03195677 0.088198066
-0.08853487 0.0850296 -0.042137407 0.0561298 0.12765807 0.0016437747 -0.004797827 0.06666278
0.12962918 0.060373485 -0.0642931 0.12074012 -0.086026154 0.08105167 0.027355596 0.028595392
0.14555496 0.042714134 0.029945724 0.091394365 -0.004061463 0.12347228 0.089904904 0.0684485
-0.04179401 -0.043602787 0.051412527 -0.014801422 -0.07550213 0.06529705 -0.104181126 -0.0025577908
-0.06478622 0.053187605 -0.05136459 -0.0008651766 -0.0024825232 0.104322754 -0.055424068 0.04565601
-0.11440486 0.025473127 -0.08018676 -0.07568642 -0.06818924 0.108886704 -0.08461146 0.035172254
-0.019575873 0.07735477 0.046543106 -0.047916017 0.009271944 0.056481186 -0.052777443 -0.07852754
0.034372613 0.050565552 -0.026731325 0.012802808 -0.074405044 0.044805996 0.0001278425 -0.06627445
-0.070763856 0.030601732 0.0010170542 0.09481777 0.07209131 -0.1212296 0.020635616 -0.09577872
-0.107928246 0.0070736757 -0.022128899 0.08079368 -0.10408677 0.02506688 -0.14787155 -0.028004749
-0.04836939 -0.016539462 -0.0310448 0.056321267 -0.011276186 -0.00014947669 0.0014760845 0.0015686015
-0.047153246 0.09854169 -0.09052483 0.044446576 0.11537584 0.006588406 -0.07365543 -0.03130016
-0.09232777 -0.043866325 0.0826655 0.014870053 -0.09878911 -0.12116713 0.013914497 -0.05269902

model_cnn.conv_layers.3.0.bias f4 [64]
00000000: 5804 4b3d e980 cb3a c9b6 ae3d 2050 be3d
00000010: 48b4 6ebd 19fe 33bd 956c 5c3c 5c8a 833d
00000020: afe6 6ebd fd96 993d 5c5c 033d 837b c1bd
00000030: 3ceb 8ebd 4d9e b03d 4f71 6db9 d0ac 403d
00000040: 0651 70bd 145a b0bd e897 a23d f378 503c
00000050: f0ac ca3c 1817 95b9 2fe0 76bd 3499 b63c
00000060: de96 f1bc 7f17 f63b 1ef1 5fbd 817e b13d
00000070: 5bd6 333c 2118 2d3d e5a1 6fbc d447 5ebc
00000080: a565 b93d 5bf5 153b c17c 89bc 5ddc 983d
00000090: bd2b 003d 74ff c6bd 6377 3e3d bbf7 cd3c
000000a0: d9f2 d139 0f9b a13d 8813 163d d757 5bbd
000000b0: 6043 c3bd 3b7e 913d 8ddd fb39 7e2b 03bd
000000c0: 7c2a 033c 8997 843d fee2 18bd 95f1 fa3c
000000d0: 1593 a03c db5d 8cbd a4bf 9dbd 9b09 493d
000000e0: c3f4 7bbc 0110 713c b58f 86bd 9049 e73b
000000f0: edcf f0bc fa83 913c a8d7 253d 1a2a 94bd
0.04956469 0.0015526089 0.08530957 0.092926264 -0.0582774 -0.0439435 0.013453622 0.06422874
-0.058325466 0.07499502 0.032070503 -0.09447386 -0.06978461 0.086239435 -0.00022644292 0.047039807
-0.05867102 -0.08610931 0.0793913 0.012724149 0.024740666 -0.000284367 -0.060272392 0.02228985
-0.029490884 0.007510125 -0.054673307 0.08666707 0.010976399 0.04225934 -0.014626001 -0.01356693
0.0905259 0.002288184 -0.01678312 0.07463906 0.031291712 -0.097166926 0.046500575 0.025142541
0.00040044522 0.07890903 0.03663972 -0.053550567 -0.09534335 0.07104155 0.0004803952 -0.0320239
0.0080057345 0.064742155 -0.03732585 0.030632773 0.019601384 -0.06853839 -0.07702568 0.049081426
-0.01537818 0.014713288 -0.06570379 0.00705833 -0.029396022 0.017763127 0.04048887 -0.07234593

model_cnn.conv_layers.3.1.weight f4 [64]
00000000: 4ed2 843f 1c8e 813f 0669 833f e258 843f
00000010: 5da7 813f 5864 7d3f fbe4 7a3f 8952 7d3f
00000020: 22d3 643f 3ed9 7f3f e7c5 7c3f eab1 803f
00000030: 13f3 8e3f 1668 7f3f cc9c 743f 0afa 7f3f
00000040: 357e 7b3f 5c07 6e3f 8657 7a3f ea9f 733f
00000050: f1d6 843f 0068 843f 812b 843f 1918 803f
00000060: 4a80 823f 9374 813f 5835 883f 47e9 803f
00000070: 0650 7a3f ce9b 7a3f 018b 743f 3f0d 7c3f
00000080: e0cc 643f 758f 7e3f 9662 853f 5e01 643f
00000090: 2b8b 843f 08d9 7c3f 0c45 6e3f dae0 793f
000000a0: 6c69 813f 92ab 783f 4ce8 843f b36e 833f
000000b0: 804a 7c3f 5699 7e3f a796 7b3f 906a 7b3f
000000c0: 9860 843f 0524 763f 8576 753f 6ba6 7c3f
000000d0: 0ac4 863f 1eaa 793f e07b 843f 998e 793f
000000e0: 8d54 653f 0f19 8a3f 2238 743f 995a 803f
000000f0: ce98 823f aee9 863f 3c22 773f f2cd 7f3f
1.037668 1.0121493 1.0266426 1.0339625 1.01292 0.9898124 0.98005646 0.98954064
0.89384663 0.9994086 0.98739475 1.0054295 1.116793 0.997682 0.95551753 0.99990904
0.9823945 0.9297998 0.977898 0.95165884 1.0378095 1.0344238 1.0325776 1.0007354
1.0195401 1.0113701 1.0641279 1.007119 0.97778356 0.9789399 0.95524603 0.9845771
0.89375114 0.9943765 1.0420711 0.89064586 1.0354971 0.98768663 0.9307411 0.9760872
1.0110297 0.97136796 1.0383391 1.0268158 0.9855118 0.9945272 0.9827675 0.98209476
1.0341978 0.9614871 0.9588397 0.98691434 1.0528576 0.97525203 1.0350304 0.9748321
0.8958214 1.0788897 0.9539815 1.0027648 1.0202882 1.0540063 0.9653661 0.9992362

model_cnn.conv_layers.3.1.bias f4 [64]
00000000: 55a7 303d b400 adbd f72f b3bc 4995 283b
00000010: f545 dbbc 363d 333c 92b6 4ebd 208a 01bd
00000020: 1952 53bd fe69 08bd 7e31 d03b 3b33 9abc
00000030: dd70 28bd 6fc1 0abd 58a2 2ebd 0708 0dbc
00000040: 6cbf 59bc 32d8 dcbc 8bdf 45bc a900 9fbd
00000050: de5c 873d e201 9b3c 891e 6fbc 702c 7bbc
00000060: 2083 84bc e63e 5bbd 0567 bebd 89da 3ebd
00000070: 1c6a a93a 92ba 68bc 32ad 42bd 7f82 97bd
00000080: 70ea 7fbd e82e 8c3b b852 023d 88b7 cebd
00000090: ea93 8bbd 5c18 0cbc 1aea 1fbd 8680 913b
000000a0: 2c9d ddbc 0c86 593d 60cf 58bd 7cdf d23b
000000b0: 6d14 84bd 2b28 81bc 2386 d0bc 2a99 2dbc
000000c0: e0a7 35bd 713b 64bd 6412 0cbc 2863 b13c
000000d0: a51e a83d 56dd 6bbd 0d2c c13b 4e74 773c
000000e0: 9248 edbd 828b c3bb 1eab eb3c 4f20 183d
000000f0: f2e2 4bbc a8b9 783b ca11 7bba fb99 00bd
0.04312833 -0.084474 -0.021873457 0.0025723747 -0.026766757 0.010939887 -0.05046708 -0.031625867
-0.051591966 -0.033304207 0.006353556 -0.018823257 -0.04112326 -0.03387588 -0.04263529 -0.008607871
-0.013290267 -0.026958559 -0.012077223 -0.07763798 0.0660951 0.018921796 -0.0145946825 -0.015330419
-0.016175807 -0.05352678 -0.09296993 -0.04659513 0.00129253 -0.014204638 -0.047528453 -0.07397937
-0.062479436 0.0042780526 0.031817168 -0.100935996 -0.06815322 -0.00855073 -0.039041616 0.00444037
-0.027052484 0.053106353 -0.052932143 0.006435333 -0.064492084 -0.015766224 -0.025454586 -0.010595599
-0.04434955 -0.05572075 -0.008549307 0.021653727 0.0820897 -0.05758413 0.005895144 0.015103413
-0.11586107 -0.0059675584 0.028768118 0.037140187 -0.012444245 0.0037952457 -0.0009577541 -0.031396847

model_cnn.conv_layers.3.1.running_mean f4 [64]
00000000: bc30 70be 8a1f d13e d034 54bf 8735 e3be
00000010: 7f2d ae3d d981 bbbe 245b b6bd fcec 1c3f
00000020: 3c55 5b3e ad1f 243e 79ad e6bd 3ac4 0c3e
00000030: 6474 7fbd e687 1e3e 0f77 9d3e 4dc6 603e
00000040: 03c4 ea3d 1dda 05bf 95d3 f73d 3d6b 743f
00000050: a4ed 48bf fb49 b6be 6755 7f3e 1d19 633e
00000060: 20b8 1dbf 141a 013e 9129 083e 1da3 9c3e
00000070: 41e5 7dbd 082f a4bd 7f92 37be a109 e83c
00000080: fedd 3ebc 1e52 6abd bfd2 03bf 991d be3e
00000090: a067 073d 697b 4bbf 836c d43e d2bf 933e
000000a0: e8bc 8bbd e770 efbe 0cb0 603f caa0 42be
000000b0: b3d3 043f dd4a e2be 0b6f 20be 26ee 01bf
000000c0: a8ee ea3d bee3 1ebe 84ea 43bd f85d a53c
000000d0: ce75 1ebf f5e6 0d3f ccb0 1a3f 0b25 50be
000000e0: 1aef 4e3f 8d52 cf3e 3a47 dfbe fc86 83be
000000f0: c7ba 223e 4098 1a3a af7b ccbe 6dab e5be
-0.2345609 0.40844375 -0.82893085 -0.44376776 0.085047714 -0.36622503 -0.089041024 0.6129911
0.21419233 0.16027708 -0.11263556 0.1374673 -0.062366858 0.15481529 0.30754897 0.21950646
0.114631675 -0.5228594 0.12100903 0.9547613 -0.7848761 -0.35603318 0.24934922 0.22177549
-0.6160908 0.12607604 0.13297106 0.30593196 -0.06198621 -0.08016783 -0.17926978 0.028324904
-0.011649607 -0.05720722 -0.5149345 0.37131956 0.03305781 -0.79485184 0.41489038 0.28857285
-0.068231404 -0.46765825 0.87768626 -0.19006649 0.5188553 -0.4419774 -0.1566736 -0.5075401
0.11471301 -0.15516564 -0.047831073 0.02018641 -0.61898506 0.5543054 0.6042602 -0.20326631
0.8083359 0.4049267 -0.4360903 -0.25688922 0.15891562 0.0005897321 -0.39938113 -0.4485735

model_cnn.conv_layers.3.1.running_var f4 [64]
00000000: 21ef bc3e 1e48 aa3e 67fa a33e 740f 233f
00000010: ba93 c13e 9a20 b63e 7f02 b23e 7058 a23e
00000020: 58b2 b03e 7d73 5d3e 2d1a d03e aa5e e83e
00000030: 7260 1a3f d72f 1f3f 54f5 cc3e 2a74 103f
00000040: 6630 683e 5330 2c3f 5088 353e 5e69 4e3f
00000050: 34b7 203f 8b65 233f 4145 403f d87b 233f
00000060: f278 a33f 3e00 0c3f 7b3b d73e 7fe3 c33e
00000070: 32b9 033f 5442 2b3e ffbc 943e 5f11 953e
00000080: 615b a63d 30d0 6c3e fb23 273f 7af0 3e3e
00000090: 1215 d63e 0b93 413e 2f09 383e a638 8b3e
000000a0: e280 2a3f 5ee4 203f d759 1d3f 80f0 0c3f
000000b0: 8f4a 463e 9ba9 9b3e ce07 093f fe28 083f
000000c0: 63f4 b93e 9003 e53e bffd 043f fe5a b53e
000000d0: bed3 e33e 9f49 173f 1c74 1a3f 8da2 7b3e
000000e0: 78e3 723e 0b09 683e f159 743e 7387 a53e
000000f0: f2a2 ec3e dcd4 003f 54ea 463e 9d94 753e
0.3690119 0.33258146 0.3202698 0.63695455 0.3780802 0.35571748 0.3476753 0.31708097
0.34511065 0.21626087 0.4064497 0.45384723 0.60303414 0.6218237 0.4003092 0.5642725
0.22674713 0.67261237 0.1772778 0.8062953 0.62779546 0.6382682 0.75105673 0.63860846
1.2771285 0.5468787 0.42037567 0.38259503 0.5145446 0.16724521 0.29050443 0.29114816
0.08122898 0.23126292 0.65289277 0.18646422 0.4181295 0.18903749 0.17972253 0.27191657
0.6660291 0.6284846 0.6146521 0.55054474 0.1936438 0.30402836 0.53527534 0.5318755
0.36319265 0.4472928 0.51949686 0.35420984 0.44497484 0.5909671 0.6033342 0.24573727
0.23719585 0.226597 0.23862435 0.32329902 0.46218067 0.503248 0.19425327 0.23982473

model_cnn.conv_layers.4.0.weight f4 [128, 64, 3]
00000000: 1a5b 81bd 3a39 633d 04f0 57bc f10e d6bd
00000010: 80c3 5e3c bb57 5e3d 6d4c 693d 8d56 623d
00000020: 7d73 173d fc05 8dbc 5f4e 87bd ccdd c53d
00000030: 71c6 3d3d 839c 003c f295 be3c 042b 33bc
00000040: 96e7 073d 62a1 81bb 73b3 1bbc b8ca 313d
00000050: 7fe2 973d d739 a8bd 6624 6e3a 1cd7 ebbc
00000060: e17f 23bd e571 643c 46ef ba3c ad23 73bd
00000070: 5212 c73b 6a84 f03b 3e3c b6bd 7394 87bd
00000080: 4edb a1bd a7cc 95bc d4ed bd3c 1421 773d
00000090: 3ef5 86ba 7682 9dbd 8610 a2bd 64c6 f8bb
000000a0: c43d 99bd 5dfd 25bd 88ee 6abd 8bc3 843d
000000b0: 4f3b 363d c2f5 dcbd 90a2 f93c 54a9 f839
000000c0: e847 f8bd 8782 96bc b194 bebc 63ee 41bd
000000d0: dd4e 8d39 2089 6b3d 164f 2ebd 8235 0fbd
000000e0: d7e6 fcbc 5722 e63c cc51 69bd f321 9cbd
000000f0: 26c4 f93d d200 ddbc f8a9 0b3d 89db 51bd
00000100: 5563 a33d f971 c3bc 7808 993b ca10 dfbc
00000110: e1c4 afbd f98d b03c 3467 a73d 6915 153c
00000120: c895 da3d 6c1c 7b3d 26ff b73d ccc8 533b
00000130: 0bf2 01bd d5fb b5bd 0f90 303d 954d ccbc
00000140: 627c 57bd 62c5 97bc a81a 09bd c61f 68bd
00000150: a535 9a3d 4ec5 d1bc f1e9 a53c 1426 4d3d
00000160: 7cc6 1b3c 0126 cd3d d14e 23bc 6a53 8dbc
00000170: cce0 c43c c032 b7bd 8982 8cbd f45b 9cbd
00000180: 1b2e 8bbd 277d 883c cef5 00bd e5de 26bd
00000190: c53e 8bbd 9e8f 103c d728 f83d a40f 9d3d
000001a0: 0ef7 e3bb 12c3 32bd a364 83bd 3f6e bdbc
000001b0: 363d 98bd d7d3 9fbd 09b2 babd 628c 813d
000001c0: fc6b 78bd 36a6 e0bc dc70 ee3a 1f6d 373d
000001d0: 75b2 fdbc cbf4 4dbd 2986 9dbb 9305 51bd
000001e0: ffaf 5a3d 1f98 863d a6a6 8bbb 3e1a 91bc
000001f0: 0983 35bc 2402 b73d d014 d33a dca4 223a
00000200: 04b2 053d 2bd6 1a3d 290c 81bc cb70 c1bd
00000210: 19cb 3fbc 97c1 a0bc 2006 7bbc 51c2 833d
00000220: 566b 173d 638d c43c 1542 4dbd 3de7 ccbc
00000230: f016 37bd 96b5 353d 1ab3 ea3c 2b21 b83d
00000240: 256f 883c dcbc 3d3c 4453 fa3c e02a a0bd
00000250: 8d49 b43b 629b d53c 6c4d 6a3c 3cb0 203d
00000260: f3d5 0ebd 5124 b6ba ca2f 14bd 6e7b 8bbc
00000270: 0d7f e5bb e3de a43c 2674 133d b1ec abba
00000280: 78b0 973d fc94 223b 263d 6cbd a05d 30bd
00000290: 6b6a 8abd 5533 8d3c e271 87bd 5d5e e3bc
000002a0: e1dc a7bc 15ef f23c b478 49bc f69a 4ebd
000002b0: cee6 023d d19d 92bb 921a 563c 5ebb 323d
000002c0: 1aa6 0e3d ec98 27bd 9f82 0bbd 3565 653d
000002d0: fdc6 19bd bcee 3ebd 6c1a 9cbc f390 233c
000002e0: 0779 9cbd b86e 1f3d 92f7 7ebd 5bd0 fc3b
000002f0: 48f0 59bd e964 68bd ff03 833c b9df a03c
00000300: 7756 7bbd 214c ebbc 8338 a43d be9e 42bd
00000310: b60e 8ebd fc29 c539 7823 6fbc 9214 18bc
00000320: 4f9f c8bc c365 2fba dfaa 103d 450f 9f3c
00000330: 6749 5dbd a8ae 68bd 1502 5ebd 0536 30bd
00000340: bb2a 483d 904c 343d e00c 29bc aaaf 9fbc
00000350: ee81 1ebd 9766 bdbd 942b f3bb d27b 70bd
00000360: 5668 903c 07cf 173d 92be 00bd 1130 87bd
00000370: 2ff4 e9bc e629 613d 6569 d33c 4996 1cbd
00000380: 0aa3 a13c 1adb 753c eb85 9ebc 1161 a2bc
00000390: 6485 203d 2a12 0b3d b411 56bd 555e a4bd
000003a0: 3411 a4bc 31ac a03d 9251 0fbd 1a76 a33d
000003b0: cbba 90bc 019a 103c 8f9c 353d 62fa 5dbd
000003c0: cb35 30bd 35ff 56bd 5075 92bc 1476 843d
000003d0: 6fbe cbbd 0dec ca3d 248f 753d b5ad 083d
000003e0: 9883 313c eb4a 203b 0a77 2bbd d5a8 9fbd
000003f0: 8517 593d a8f4 1d3c 8cbc 3ebd 6676 413d
-0.06316204 0.055474497 -0.013179783 -0.104520686 0.0135964155 0.054282885 0.05695765 0.055258323
0.036975373 -0.017214768 -0.06606745 0.09661445 0.046331827 0.007849815 0.023264859 -0.010935549
0.033179842 -0.003956006 -0.009503233 0.04340622 0.074162476 -0.08214157 0.0009084403 -0.028789096
-0.039916877 0.01394317 0.022819173 -0.059360195 0.006075182 0.0073400037 -0.08898209 -0.06620111
-0.07903157 -0.018286062 0.023184694 0.06033428 -0.0010296477 -0.07690899 -0.07913308 -0.0075920094
-0.07482484 -0.04052483 -0.057356387 0.06482609 0.044490155 -0.10789062 0.030473024 0.00047428405
-0.1212309 -0.018372787 -0.023264261 -0.047346484 0.00026952373 0.05750382 -0.04255589 -0.03496314
-0.030871792 0.028092546 -0.056962773 -0.07623663 0.121956155 -0.02697793 0.03409764 -0.051234756
0.079779305 -0.023858057 0.004670199 -0.027229685 -0.085824735 0.021552073 0.08173981 0.009099343
0.106731 0.061306402 0.089842126 0.003231573 -0.03172497 -0.08885924 0.043106135 -0.024939338
-0.052608855 -0.018526737 -0.033472687 -0.056670927 0.07529763 -0.025606778 0.020253154 0.050085142
0.009507772 0.10017014 -0.009967522 -0.017251689 0.024032973 -0.08945227 -0.06860835 -0.07634726
-0.06795903 0.01666124 -0.031484418 -0.040739913 -0.06799082 0.0088233035 0.121171646 0.07668999
-0.0069569414 -0.043643065 -0.06415679 -0.023123858 -0.0743355 -0.07804077 -0.09115989 0.06325604
-0.060649857 -0.027423006 0.0018191594 0.0447818 -0.030968884 -0.05028228 -0.004807253 -0.051030707
0.0533905 0.065719835 -0.0042618094 -0.017712709 -0.0110786045 0.08935955 0.0016104225 0.00062043755
0.032640472 0.037801903 -0.015752869 -0.09445342 -0.011706137 -0.01962356 -0.0153212845 0.06433547
0.036967598 0.0239932 -0.05011185 -0.025012607 -0.04469961 0.044362627 0.028649855 0.08990701
0.01665456 0.011580672 0.030557282 -0.07820678 0.005501932 0.026075069 0.014300685 0.03923057
-0.034872007 -0.0013896321 -0.036178388 -0.01702663 -0.007003671 0.020125812 0.03599944 -0.0013116804
0.074067056 0.002480804 -0.057675503 -0.043058038 -0.06758579 0.017236391 -0.06613518 -0.027754957
-0.020491065 0.029655019 -0.012296844 -0.05044075 0.031958394 -0.0044743796 0.013067858 0.04363572
0.034826376 -0.040917322 -0.034060117 0.05600472 -0.037543286 -0.046614394 -0.019055568 0.009983289
-0.07640272 0.03892395 -0.06224782 0.0077152676 -0.053207666 -0.05673686 0.015993116 0.01963793
-0.061361756 -0.028722825 0.08018591 -0.04751467 -0.069364 0.0003760605 -0.014595859 -0.009282248
-0.024490027 -0.0006690884 0.035319205 0.01941646 -0.05402508 -0.05680719 -0.054201204 -0.043020267
0.048868876 0.04401833 -0.010318011 -0.019492943 -0.03869813 -0.09248083 -0.0074209664 -0.058711834
0.017627876 0.03706267 -0.031431742 -0.06600965 -0.028558819 0.054971598 0.025807092 -0.03822926
0.019731063 0.015005851 -0.019350966 -0.019821675 0.03918971 0.03395287 -0.052262977 -0.08025805
-0.020027734 0.07845343 -0.0349899 0.079815105 -0.017667195 0.00882578 0.04433876 -0.05419386
-0.04302005 -0.05248948 -0.017878205 0.06467834 -0.09948432 0.09908304 0.059950963 0.033368785
0.010834597 0.0024458717 -0.04186157 -0.07795874 0.053000946 0.00964085 -0.04656653 0.047232054

model_cnn.conv_layers.4.0.bias f4 [128]
00000000: e225 e4bc 9372 563d a219 163d edc3 73bd
00000010: 999c 5e3d 1cf5 40bd 5f1a 4cbd 4886 66bd
00000020: 4976 2b3d 9e4a 25bd bc3e f43c d304 453d
00000030: c38a 753d 6620 143d 46ce 26bd b199 fa3c
00000040: 64aa eabb ac71 5d3d 2ee1 3cbd b6a5 29bd
00000050: 2ee9 343d 39b0 c839 bffc 90bc efa0 1fbd
00000060: 7186 6dbc 46de 553d e496 41bd 6664 84bd
00000070: 4ce6 11bd 0f28 373d cd88 593d 850e 1a3d
00000080: b033 a83c 69f8 cfbb 9099 733d 019c 273d
00000090: 4c44 883d 261c d6bc df87 3dba bd58 173d
000000a0: bafb 05bd e634 853d 7fea cf3b 32f3 5b3d
000000b0: 56de 4fbd 89fc 7a3d f882 b23c 0521 77bd
000000c0: 89be f53c 2f3a 35bd 9792 4bbd 18d5 7e3d
000000d0: 454b 73bd 4107 01bd ae59 f63c 13e8 12bb
000000e0: 165c b73c 1479 4c3d f26b 3cbd c5f8 1dbd
000000f0: 57a4 d1bc b666 bcbc 509a 48bd ea4d 68bc
00000100: 899d d43b c978 83bd 4f19 5f3d c441 513d
00000110: d7b4 9e39 4aef 303d bc00 07bd c989 0e3d
00000120: 8b17 c53b b90e 823c 2b15 84bd d730 f6bc
00000130: 1051 82bd c8ec 80bd 5a38 7fbd 4bbb a03c
00000140: 6387 1abd 666c f3bc 3235 4b3d 4d49 03bd
00000150: 5869 70bd 85dd bdba 8dba 19bc 1d74 c8bc
00000160: b17e be3c afd3 46ba d653 9639 ac21 1ebd
00000170: 8f29 86bd 7e68 86bd 39c7 16bd 24f1 253c
00000180: c6bc 603d 2556 df3b 34f3 c63b f061 7fbc
00000190: 871b 7d3c 1c8c fd3a 0747 4d3d 4187 01bc
000001a0: 815e 283d 86b3 203d 8a49 933b 8c42 903c
000001b0: be4c 64bd 1c86 62bd 4516 c13b 9f5d 9f3a
000001c0: 3c23 78b8 8502 0f3d 1b99 873c d4e3 a8bb
000001d0: d407 a43c 722b bdbc fc7b e6bb bf88 e8ba
000001e0: d384 2abd 8f27 f6bc c317 013c 7a00 9a3b
000001f0: 570a e1bc 81c3 813d 61ef b8b9 66b7 573d
-0.027850095 0.05235536 0.03664554 -0.05951302 0.054348562 -0.047108755 -0.049829837 -0.056280404
0.041860852 -0.040354364 0.02981507 0.048100304 0.059946787 0.03616371 -0.04072406 0.030590864
-0.0071614254 0.054063484 -0.046113186 -0.0414178 0.04416769 0.0003827827 -0.017698644 -0.038971838
-0.014497385 0.05221393 -0.04726304 -0.06464462 -0.03562002 0.044715937 0.05310898 0.037611503
0.020532459 -0.0063467515 0.05947262 0.04092026 0.066536516 -0.02613647 -0.0007230024 0.03694986
-0.03271077 0.0650423 0.006345093 0.053698726 -0.050749145 0.061275993 0.021790966 -0.060334224
0.02999808 -0.04424494 -0.049700346 0.06221494 -0.059397954 -0.03150106 0.03007206 -0.002241616
0.022382777 0.049920157 -0.046001382 -0.038567323 -0.025591059 -0.022998195 -0.04897529 -0.014178732
0.006488506 -0.06419522 0.054467496 0.05108811 0.00030270845 0.043196954 -0.032959685 0.03479937
0.0060147694 0.015876161 -0.0644935 -0.030052586 -0.06363118 -0.062951624 -0.0623096 0.019620558
-0.03772677 -0.029714774 0.049611278 -0.032052327 -0.058694214 -0.0014485574 -0.009382856 -0.02446943
0.02325377 -0.0007584644 0.00028672692 -0.03860633 -0.065508954 -0.06562899 -0.036811087 0.010128293
0.05486753 0.006815689 0.0060714725 -0.015587315 0.015448458 0.0019344124 0.050116565 -0.007905782
0.04110575 0.039233707 0.0044948505 0.017609857 -0.05573725 -0.055303678 0.0058925473 0.0012158639
-5.9160622e-05 0.034914512 0.016552499 -0.0051541124 0.020023264 -0.023092005 -0.007033823 -0.0017740949
-0.041630577 -0.03004816 0.0078792 0.004699764 -0.02747075 0.063361175 -0.00035273566 0.052665137

model_cnn.conv_layers.4.1.weight f4 [128]
00000000: c7b0 863f 256d 813f 88ce 8c3f 4ecd 813f
00000010: 2e66 8c3f 6dd7 873f 8a70 833f 6ebc 853f
00000020: dfe1 883f fdab 893f a329 883f 8c83 8b3f
00000030: 403a 8a3f 4bfa 893f 6415 843f 9870 8d3f
00000040: 0dc9 813f 1d29 8e3f c1c6 853f 98c2 833f
00000050: afd5 863f 49f2 823f 245a 8a3f 1d79 853f
00000060: 0a88 853f a02f 893f 1f36 873f b213 883f
00000070: 3af2 863f d51d 893f 05e1 863f fb39 8b3f
00000080: f05f 833f 4baf 833f 0771 883f 50f9 893f
00000090: 005d 843f cdbf 883f e9f3 8d3f 8600 893f
000000a0: 25f6 863f 5fe4 853f c2ea 853f 8cbb 853f
000000b0: 8d6b 863f 6261 823f 9370 873f a9b1 923f
000000c0: 85b8 843f f8ae 893f 5cc1 843f fdd4 893f
000000d0: 1751 893f 03c9 863f 2c11 893f 927b 923f
000000e0: 892b 853f cda1 813f b496 823f 54f5 8b3f
000000f0: f725 8b3f 18c4 8b3f 9b2a 863f d6c6 883f
00000100: 2b62 883f 8efd 873f c21e 873f 0af3 863f
00000110: b68c 853f 414a 833f 3f39 8a3f d50d 873f
00000120: 328c 8b3f e6e4 853f cc5e 863f f92b 823f
00000130: f422 873f 6a7a 873f 2cce 863f b2ec 843f
00000140: 73f6 873f 40af 7f3f e80b 8c3f c9b3 853f
00000150: a466 8e3f 7e39 883f d2ce 823f a66e 8c3f
00000160: d94b 8b3f 12ce 863f e641 873f 328a 833f
00000170: fbba 863f 0e99 8b3f ef16 833f 1635 843f
00000180: a999 8c3f 2896 8a3f 7cdc 843f ad51 863f
00000190: 7eaf 813f 806f 863f f6d1 873f 12dd 833f
000001a0: 8a1b 843f d95a 863f c56c 8b3f 4ea0 863f
000001b0: c5e7 873f 85a0 873f 8132 883f 4d2f 873f
000001c0: 56ae 873f 0b24 8a3f ad34 843f 7a57 873f
000001d0: 3560 7f3f 237e 8e3f 944e 863f 4d82 863f
000001e0: 2463 853f bcb4 813f fb7b 833f 891d 893f
000001f0: ce39 8c3f 2d87 873f dc05 883f 122c 873f
1.0522698 1.0111433 1.1000528 1.0140779 1.0968683 1.0612618 1.0268719 1.0448129
1.069393 1.0755612 1.0637707 1.089952 1.0799026 1.0779508 1.0319028 1.1049986
1.0139481 1.1106297 1.045128 1.029376 1.0533961 1.023019 1.0808759 1.0427586
1.0432141 1.0717659 1.0563391 1.063101 1.0542672 1.0712229 1.053742 1.0877069
1.0263653 1.028787 1.0659493 1.0779209 1.0340881 1.0683533 1.109006 1.0703285
1.0543867 1.0460318 1.0462267 1.044786 1.0501572 1.0185969 1.058123 1.1460468
1.0368811 1.0756521 1.0371509 1.0768124 1.0727872 1.0530094 1.0708365 1.1443961
1.0403911 1.0127503 1.0202241 1.0934243 1.0870961 1.0919218 1.0481752 1.068568
1.0654958 1.0624254 1.0556262 1.054292 1.0433567 1.0257035 1.079872 1.0551096
1.0902159 1.0460479 1.049768 1.0169669 1.0557542 1.0584233 1.0531669 1.0384734
1.0622085 0.99876785 1.0941133 1.0445491 1.1125073 1.0642545 1.0219367 1.0971267
1.0882522 1.0531638 1.0566986 1.0276549 1.0525812 1.0906084 1.0241374 1.03287
1.0984393 1.0827074 1.0379786 1.0493675 1.0131681 1.0502777 1.061095 1.030184
1.0320904 1.0496475 1.0892569 1.0517671 1.0617605 1.0595862 1.0640413 1.056131
1.0600078 1.079225 1.0328575 1.0573571 0.99756175 1.1132244 1.049273 1.0508515
1.042088 1.0133281 1.0272211 1.0712138 1.095514 1.0588127 1.0626788 1.0560324

model_cnn.conv_layers.4.1.bias f4 [128]
00000000: 6856 573d c9a1 9b3c bc18 4e3d 8c86 c43c
00000010: a7e6 153d e1a2 493c 1a80 323d fde0 c4bb
00000020: 944e 593d 9c7c 3f3d a25b 963c d19d 8b3d
00000030: 7928 883d 19af 1f3d 2e37 9fbb 01b7 a13d
00000040: 8dcf aa3c e1c2 b13d a8a2 f53c e4fa e73c
00000050: a29d 2b3c b669 923c 02c2 7f3d 1712 423c
00000060: 95a0 453c e6da 223d d71c 6e3d aeef 1e3d
00000070: 79c6 ce3c 914f 163d c472 12bc 8932 1a3d
00000080: 5f9c 933c 12e7 1f3d 768d 30bc d660 163d
00000090: f050 123d 4643 093d 4c26 483d 2f39 5d3d
000000a0: 6aad ba3c 756a 8abb 47b2 703d edaa 5f3c
000000b0: 0302 213d 1e9f 103c f8a7 013d 6f15 8d3d
000000c0: 4172 0f3d 44e5 473d f1dc d43c d054 943d
000000d0: ad59 c53c 173c 0c3d 0902 183d 60bf b73d
000000e0: 0d0f 3e3d 7b1e 123d 1011 403d c654 753d
000000f0: 12dd b93c dfdf 043d 0338 0c3d 2b61 603d
00000100: 8a3f bb3c cf77 883c 8317 933d 45da f03c
00000110: 1e59 3c3d ef60 2a3d c8ea a03d eaba 053d
00000120: 1cf2 653d ad1b ac3c ca03 743d 7902 663c
00000130: a97e e5bb 7d67 533d 2f65 bc3b ff6a 0c3d
00000140: 910d 303d 5f73 ecba d2bd 423d 5917 083d
00000150: db18 5a3d 6842 3d3d 0e3d f13b a8c8 2d3d
00000160: 7e70 6c3c b8f6 9a3c aab6 1c3d cc76 49bc
00000170: 52d8 fd3c 8397 613d cc9a 1b3d f813 163d
00000180: 959a 213d 1d6e fe3c fbb2 f03c 8338 b0bb
00000190: 70ea 023c 3c08 1f3c 7a9f 813c a49e 233d
000001a0: 3e1a ad3c e592 773d 0759 713d 87c0 1ebc
000001b0: 0660 233d 84a9 283d f18a a43c e931 1f3d
000001c0: fdc0 0c3d 6646 a33c ddbf ec3c 33e1 513d
000001d0: d6d6 82bb 0609 923d 8834 833b cbee 253d
000001e0: c19d 853d c146 9c3c fe81 113c 7485 ac3c
000001f0: c0c1 263d ea65 213d 13b2 473d a370 4b3c
0.052572638 0.018998044 0.050316557 0.023989938 0.03659692 0.0123069 0.0435792 -0.006008266
0.053053454 0.046749696 0.01835424 0.068172105 0.066483445 0.038985346 -0.004858873 0.07896233
0.020850921 0.08679748 0.029984787 0.028317876 0.010474594 0.017872673 0.06244088 0.011845133
0.0120622115 0.03975954 0.058132973 0.038802795 0.025241124 0.036696974 -0.008938495 0.03764585
0.0180189 0.039038725 -0.010775914 0.036713444 0.03572172 0.033511423 0.048864648 0.054009613
0.022787768 -0.0042241164 0.05876377 0.013651592 0.03930856 0.008826999 0.031654328 0.06888854
0.03502107 0.04880263 0.02598426 0.07242739 0.024090612 0.034236994 0.037111316 0.08972049
0.046401072 0.0356736 0.046891272 0.0598953 0.022688422 0.032440063 0.034233104 0.054780167
0.022857446 0.016658692 0.07182219 0.029400954 0.045983426 0.04159635 0.07857281 0.03264896
0.056139097 0.02100929 0.059573926 0.014038675 -0.0070036245 0.051612366 0.0057493667 0.034281727
0.042981688 -0.0018039754 0.047544308 0.03322539 0.05324636 0.046205908 0.0073620146 0.04242769
0.014431117 0.018916473 0.03826014 -0.01229639 0.030986939 0.055076133 0.037989423 0.036640137
0.03945406 0.031058365 0.02938222 -0.0053778305 0.007990465 0.009706553 0.015823115 0.039946213
0.021130677 0.060442824 0.058922794 -0.009689457 0.039886497 0.041177288 0.020085784 0.038865957
0.034363735 0.01993103 0.028900081 0.051240157 -0.0039928956 0.07130627 0.004004065 0.040510934
0.0652423 0.019076707 0.00888109 0.02105973 0.04071212 0.039403833 0.04875381 0.012416991
