checkpoint/transfer_cnn_features_1d_sa_lirich_to_spinel5v_1122/retry_target_focus/best_model.pth (torch, 906722 bytes, 37 tensors)

model_cnn.conv_layers.0.0.weight f4 [16, 21, 15]
00000000: e28e 4bbd 3fb8 233d 8d70 27bd e7a2 39bd
00000010: 8bd4 04bd 87f7 c73c 26e0 99bc 3491 9c3c
00000020: 5a1d 3dbd f682 01bd edb6 8bbc a391 0dbc
00000030: 6a19 25bd 2fc8 123d 79fd 2bbc 6205 983c
00000040: d5f8 1f3d 5548 1c3c 7943 713c c891 5d3d
00000050: a8b1 dfbc 71ad 8d3c 499e d6bc 504b 1f3d
00000060: 2895 323d ff12 57bd c0a6 413d 9bcd dc3c
00000070: d138 c33c 330e b43c 84da 3a3d e727 06bc
00000080: 0cf1 49bd 7d83 8dbc 7f57 26bd 53fd 0d3b
00000090: bb70 46bc 7df4 00bd bdc8 ecbb f395 523d
000000a0: c658 c0bb faea 143a 60da 18bc 6fce 073c
000000b0: 6c9e 473d 5a85 113d 8e74 b73c b327 603c
000000c0: 97f0 6f3c 4cc3 bc3c fad0 cfbb 8a97 4ebd
000000d0: 7a2b 08bd ccea 4b3d 9d78 a63b bb76 36bd
000000e0: 4f99 273c aa79 433d e2ea 54bd 63f4 17bd
000000f0: 6500 b8bc 2788 853b ea02 4bbc 5baf aebb
00000100: dec7 59bd 053f e43c 56c6 4f3d 09d4 113d
00000110: 945b 20bd 837f 33bd e346 cc3c 465c 343b
00000120: 0927 ca3c 81f5 5bbd b17b baba 671a 1b3d
00000130: 8d6a c63c 052e 1d3b a00e 3e3c 749b 8bbb
00000140: c330 f2bc 572f a7bc 0ad1 09bd 33f7 423d
00000150: 3246 043d 1e0b aa3c b561 2dbd 689c 363d
00000160: 1089 9a3c 6e16 243d caa9 9fbc 05b9 723c
00000170: cdbd 5e3d b5ca 1d3d 3729 3e3d dfbe 3ebc
00000180: e030 333d 6045 30bd a897 af3b efb5 01bd
00000190: 7f16 48bc 7b55 5cbc d1f5 a03b 8030 563d
000001a0: f6ba e83c 5b22 c8ba 8299 2a3d b325 e2bc
000001b0: 8f55 f73c 08d2 8dbb 1a02 f2bb 8780 fa3b
000001c0: 6268 2bbd ea2c 0e3c 7f18 a53c c980 493d
000001d0: 169a 88bc 2bf8 b13c 03d0 6b3d 96e7 bdbc
000001e0: 2cd8 593d e143 d2bc ca9a e43c fa96 cf3c
000001f0: 4f19 983c bf4f 3d3d 9e07 aabc b303 8d3c
00000200: cebc 453b 7c3d 22bd 03e6 2dbc ea5b 11bd
00000210: c2e6 db3c 8d14 f33b 0a14 fe3b dd4d 8dbc
00000220: 14ef 063b 6bf2 82bc a4a2 913c 4f33 693d
00000230: cea4 2b3c 90cb babc d6b9 04bd b2df c83b
00000240: 94b7 25bd 7168 28bd aeff 0fbd d724 8ebc
00000250: c32b ec3b 72df 243d 832e af3c 8d59 333d
00000260: 81ba 0bbd 3bfb bc3b 3835 4abd d320 053d
00000270: 01b3 523c ef7c 653d 0268 22bd e827 3d3d
00000280: cdad 463d d1e3 3e3d ff29 113c ec8a 543d
00000290: ad6a 1d3d 4de0 2e3d 7899 bbba 4016 39bd
000002a0: 8152 72b8 c637 133c 5a45 1dbd bbd4 03bd
000002b0: 5873 5fbd 8edb a5bc 8fc2 463d 80b1 0d3c
000002c0: b3d0 87bb c5b4 cb3a be93 0b3d 18ef 4abd
000002d0: 0ef2 3abd 2cda 93bc 2add 03bd ed7d f83c
000002e0: 3252 263d 1a36 5dbd ae60 40bd f722 5cbd
000002f0: a8f8 b43c 354f 3d3d a800 2fbd 59fd c9bc
00000300: 47f8 9f3c 2b05 15bd 9a19 483d 2516 6c3c
00000310: 0860 5abc ecf5 033b d1e8 913c e613 9bbc
00000320: d303 2fbd 4a5d c23a c61e 8e3a c13c 053b
00000330: c10e 04bc 9a39 173d 27b4 6fbc aa2f 9abb
00000340: c2b5 c13c 6454 0ebd 11ba 523c d51a 4bbc
00000350: 30d3 e03c d964 f4bc e3b4 343b b970 c13b
00000360: 3bb3 36bd fef6 24bd bc48 b43c 993a 7dbc
00000370: 63d4 083d c9aa 62bd 844a e0bc 8981 3bbd
00000380: 1b4b bf3c 9ae4 acba 6f14 e6bb 639b 27bc
00000390: 410f 2fbd 351f 8e3c 4f22 193b f59d 1ebd
000003a0: ac6c b23c 4e95 c239 c8f0 59bd 41e9 ff3c
000003b0: a41c f53c 0731 2bbc 4bc5 19bd b4f4 173b
000003c0: 446b 2e3d 59c9 583d f0bd 31bd 716c c6bc
000003d0: 2f9a 3a3d cdc4 eb3c ac74 123d 4ce5 dbbc
000003e0: 7949 4a3d 0780 39bd f20c d3ba 6652 1c3b
000003f0: 1a38 373c 5ffe 26bd e532 583d fd42 6e3d
-0.04969681 0.039970633 -0.04087882 -0.04532137 -0.03242926 0.024410022 -0.01878364 0.019112207
-0.04617057 -0.031619035 -0.017055 -0.0086406795 -0.04030744 0.03583544 -0.010497444 0.018557254
0.039055664 0.00953873 0.014725559 0.054094106 -0.027306393 0.017294617 -0.026198523 0.038890183
0.043599278 -0.05250835 0.047278166 0.02695351 0.023830803 0.021979427 0.04561855 -0.008188224
-0.049302146 -0.017274613 -0.040610787 0.0021665886 -0.012111838 -0.031483162 -0.0072260783 0.051412534
-0.0058699576 0.0005680766 -0.009329408 0.008288964 0.048735067 0.035527565 0.022394445 0.01368134
0.014644763 0.023042344 -0.0063420506 -0.050437488 -0.033244587 0.049784467 0.005080296 -0.044546824
0.010229423 0.04772345 -0.051981814 -0.0370983 -0.022461126 0.0040750685 -0.0123908315 -0.0053309626
-0.053169124 0.027862081 0.050726257 0.035602603 -0.039149836 -0.043822777 0.024936145 0.002752082
0.024676817 -0.053700928 -0.0014227537 0.037866976 0.02422073 0.0023983729 0.011600167 -0.004260475
-0.029564267 -0.020408316 -0.03364662 0.04759903 0.032293506 0.020757254 -0.04232951 0.044582754
0.018864185 0.040060453 -0.019490141 0.01481462 0.054380227 0.038523395 0.046426024 -0.011642187
0.043747783 -0.04303491 0.005358655 -0.031667646 -0.012212395 -0.0134481145 0.004912116 0.052292347
0.028409462 -0.0015269028 0.041650303 -0.027605867 0.030192165 -0.004328016 -0.0073855044 0.007644716
-0.041847594 0.008677701 0.020153282 0.049195085 -0.016675036 0.021724781 0.057571422 -0.023181718
0.053184673 -0.025667133 0.02790584 0.025340546 0.018566756 0.04621863 -0.020755585 0.017213678
0.003017235 -0.039609417 -0.010613921 -0.035488047 0.026843432 0.0074182213 0.0077538537 -0.017249042
0.002058928 -0.015984735 0.017777748 0.056933697 0.010476304 -0.022802144 -0.03240379 0.006130182
-0.040458277 -0.041115228 -0.035155945 -0.017351551 0.0072073652 0.040252157 0.021384483 0.043786574
-0.03411341 0.0057672537 -0.04936716 0.032502007 0.012860061 0.05602735 -0.03964997 0.046180636
0.048505593 0.04660398 0.00886011 0.0518903 0.038431812 0.04269438 -0.0014312705 -0.045187235
-5.7774134e-05 0.008985465 -0.038396217 -0.032185297 -0.05455336 -0.020246293 0.04852539 0.008648276
-0.004144752 0.0015541544 0.034076445 -0.049544424 -0.045640998 -0.018048368 -0.03219334 0.030333484
0.04060573 -0.054006673 -0.0469672 -0.053744283 0.022091225 0.046218116 -0.042725235 -0.024656938
0.019527568 -0.03638188 0.04885254 0.014409577 -0.01332856 0.0020135595 0.01781121 -0.018930387
-0.042728256 0.0014828828 0.0010842911 0.0020330402 -0.008060158 0.036920168 -0.014630354 -0.004705389
0.02364624 -0.03474845 0.0128617445 -0.012396534 0.027444452 -0.029833244 0.0027573637 0.00590333
-0.04460452 -0.040274613 0.022007339 -0.015455865 0.033405673 -0.055338655 -0.027379282 -0.04577783
0.023351243 -0.0013190687 -0.007021479 -0.010229918 -0.042739157 0.017348865 0.0023366397 -0.03872486
0.021780334 0.00037113804 -0.053208143 0.031239154 0.029920883 -0.010448701 -0.03754167 0.0023186626
0.042582765 0.052926395 -0.04339403 -0.02422163 0.045557197 0.028780365 0.0357558 -0.026842736
0.049386475 -0.045288112 -0.001610188 0.0023852824 0.011182809 -0.04076993 0.05278291 0.058169354

model_cnn.conv_layers.0.0.bias f4 [16]
00000000: 3d46 c4bb 38b6 16bd dfe3 18bd 1dcb 6e3c
00000010: 0b7b 38bd f39a 5abd 6894 39bd 2459 753c
00000020: 3e1b 29bc 20f1 c83c 25b3 24bc c622 453d
00000030: cb09 3dbd 3383 3cbd d2c7 363d c5a5 8f3a
-0.0059898184 -0.03679487 -0.03732669 0.014574793 -0.045039218 -0.053370427 -0.045307547 0.014974866
-0.010321436 0.02452904 -0.010052477 0.048128866 -0.046151917 -0.04602356 0.044624157 0.0010959437

model_cnn.conv_layers.0.1.weight f4 [16]
00000000: d819 803f e9c1 7f3f da6e 7f3f 9bf7 7f3f
00000010: 3f64 803f e259 803f 2743 803f f715 803f
00000020: affa 7f3f faed 7f3f 81e8 7e3f 59e7 7f3f
00000030: b283 7f3f 95ea 7f3f a241 803f bc52 7f3f
1.0007887 0.9990526 0.9977852 0.9998719 1.0030593 1.002743 1.0020493 1.0006703
0.9999189 0.999725 0.9957352 0.99962384 0.99810326 0.9996732 1.002003 0.9973562

model_cnn.conv_layers.0.1.bias f4 [16]
00000000: ea09 8639 b9be 18bb 1e26 b7ba 9cba eaba
00000010: 7304 0d3a 5808 273b f89c 713b e246 5b3b
00000020: 57c6 a6ba da69 d8ba 3c71 bdba 6b02 ef3a
00000030: 9193 8e3a b026 0eb9 d136 903a 2643 1bbb
0.00025565858 -0.002330704 -0.0013973152 -0.0017908397 0.0005379386 0.002548715 0.0036867242 0.0033458997
-0.0012723905 -0.0016511038 -0.0014453302 0.0018234974 0.0010877718 -0.00013556588 0.0011002665 -0.0023691147

model_cnn.conv_layers.0.1.running_mean f4 [16]
00000000: fc15 16be 41e1 dc3d faa6 2abd efcb 933e
00000010: a7db e33d 76e4 02be f492 493d cbb9 393e
00000020: 350b 033e 83b2 8b3e b8c3 68bd 1481 7e3e
00000030: 3792 8abe 4867 96be 23c9 6e3e 9bb4 183e
-0.14656824 0.10785151 -0.041663148 0.28866526 0.1112588 -0.12782463 0.04921241 0.1813728
0.12797244 0.2728463 -0.056827277 0.24853927 -0.27064678 -0.29375672 0.23318915 0.14912646

model_cnn.conv_layers.0.1.running_var f4 [16]
00000000: 525f 223e 5fb6 0e3e 7a6b 4e3e 054f bf3d
00000010: 056d 083e 46e0 cd3d 3a77 893d 81c8 563e
00000020: cdb0 243e 9266 d13d ef54 f33d 19a3 ec3d
00000030: bd94 203e 137d 0b3e e738 153e 7bd8 ca3d
0.15856674 0.13936757 0.20158187 0.09341244 0.13322838 0.100525424 0.06712194 0.20974924
0.16083069 0.10224642 0.11881434 0.11554546 0.15681739 0.13621931 0.14572488 0.099045716

model_cnn.conv_layers.1.0.weight f4 [32, 16, 3]
00000000: 831f 123e ddff 473d 1c3e 73bd 7913 0cbd
00000010: e350 083e 9c2e d13b 05f1 0f3c c9e7 8e3d
00000020: 2382 973c 83a9 963c 2b20 05be 4965 a1bc
00000030: a127 e5bc 20e3 cf3d 8dde 653d cfb0 11be
00000040: f128 fabd c525 553d bffe e8bd bfa8 a13d
00000050: dbcc a1bd d3b9 6dbc b9fd c33d eecf 49bd
00000060: 1b86 ebbd f939 04be 0a55 b53c 7cf4 d13c
00000070: 0461 bfbc e640 493c 3add edbd 5451 0b3e
00000080: b8f4 b83d 5120 0ebc edae 143e 2dcc 063e
00000090: f7f7 fabd a9e2 5d3d e6aa 103e 6f98 0b3e
000000a0: 2ae0 263d a840 613c d0f6 3a3d 807c 4b3d
000000b0: 2698 e93d 4397 afbd af21 0f3e d169 c4bd
000000c0: 81ab 6f3d cfc2 e53d a3db 3c3d 4f92 c03d
000000d0: 2345 3f3d 56fa 543d 6fc8 003e c113 e6bb
000000e0: 5285 f0bb 7d83 9c3d 0378 92bd bbc0 ff3d
000000f0: b429 b13d e9c2 f73d 6562 b1bd f328 733d
00000100: 5419 db3d 94bc 29bd 7b38 8dbd 3395 f63c
00000110: 6782 a9bd cad0 93bd 93bf e9bc 02d2 033e
00000120: 6262 4ebd 21e8 493d 75bd 31bc 611f 8abd
00000130: bcd9 e73d d0fe ecbd f0ea 173c a6bd 393d
00000140: ff16 08bc 1f9b c83d 2f41 8bbd 0033 06bd
00000150: fb90 d6bd bcf1 9a3d 9b94 753d 233c 53bd
00000160: a03b b0bd 7792 43bc 6039 0c3c 7efc d73c
00000170: 5bb7 e3bd 800f b83d c0ef 083e b803 b03d
00000180: dc06 ffba 872f ac3c 3346 15bc b65a 393d
00000190: 46bc 093e 4e36 b9bd a7a7 a7bc ea41 b53d
000001a0: 936a 153d cd8a 0c3e b034 0fbe 4226 3a3d
000001b0: 9ce3 943c dab9 c8bc 1796 05be 1c94 b63c
000001c0: de72 0b3e 99e4 b73d e469 05be a5fb 873d
000001d0: d571 ddbd b81d ea3d 927e 653c 7620 6c3c
000001e0: 9ebf 0f3e e864 e4bd d842 01be 4c89 7bbd
000001f0: d678 29bd 3e0b b8bd 30bd 2cbc fe3f babd
00000200: 1d5c 593d cb44 21bd e3a0 a93d be2a 8c3d
00000210: 6d40 0a3e 5ce6 c3bd 1bb6 64bc 5229 43bc
00000220: df29 00be 79b2 e73d fe23 c03d 0629 cd3d
00000230: 005c 43bd 22b6 9dbd 0711 953d 4277 de3c
00000240: db0a 903c cad9 f4bc f2cf 08be 10f4 bc3d
00000250: de5a a6bd f226 c93d d117 10bd 0427 13bd
00000260: 1d6c 343d 7880 2a3d c1b8 fa3d 9fd4 5bbd
00000270: fa26 753d e8de 7a3d f680 39bc 0caa 06be
00000280: 3b40 acbc a685 ed3d e1c6 febd 83fc 923c
00000290: a839 96bd 752e 96bd 6bb7 e33d 34c7 38bc
000002a0: 04b3 4d3d 2362 f53c 2ca9 d3bd 1b8a 16be
000002b0: 48cb bfbd fe4c 05bd c06b 81bd 3769 06bd
000002c0: 8b2a 773d e641 4fbc c1e4 7f3c 5061 8dbd
000002d0: 02f8 c33d 3afe 88bd 88b6 f0bb 1536 ac3d
000002e0: 3e19 063e 3915 9cbd e69f 07be 9abe f3bd
000002f0: 4180 df3c dabe 7b3d 7943 8bbd 4e88 ebbd
00000300: 409e cebc a734 17bd 8368 b5bd 4f62 0cbe
00000310: 96d6 ccbd a679 c0bb c908 9b3d ceba e1bd
00000320: 1185 61bd f8a2 e3bd 62af 853d 4fd3 5fbc
00000330: 7518 b43d 2f91 863c 05ef 04bd e50d 043e
00000340: d56a c53d c6f1 0c3e 8fb3 d0bd 4fcb 823d
00000350: d86d bdbd fd87 b7bd a141 d53d 9331 7a3d
00000360: 4078 b2bd dea8 c6bd df68 9ebd 3c2e e83d
00000370: 1110 563d 4917 193c 0a09 cebd e189 343d
00000380: cd0f 0abd 592e b53d e690 043d a3d9 873d
00000390: 93af 4bbd 09ea 97bb c2b7 a7bd 93a8 fb3c
000003a0: 86e8 57bc 5c29 febd 4f74 983d 8d15 5c3d
000003b0: 0287 a33d 83d5 653d 0f00 153c 6e41 c83d
000003c0: e170 fabd 2f83 2f3d 8030 ee3d 7d58 c0bc
000003d0: d573 e53d 1daf 7b3d 8f10 f83d 9165 013e
000003e0: 18dc 8b3d f174 613c a5d8 f6bd cbad 52bd
000003f0: f2fd 00be 025f b3bc 85a9 b53d acdc a23d
0.14269833 0.048827995 -0.059385404 -0.034198258 0.13312106 0.00638373 0.008785491 0.06977803
0.018494671 0.018391376 -0.13000552 -0.019701617 -0.027972998 0.101507425 0.056120444 -0.14227603
-0.1221484 0.052037973 -0.11376714 0.07893514 -0.07900401 -0.014509636 0.09569878 -0.049270563
-0.11500188 -0.1291274 0.022135276 0.025629275 -0.02336169 0.012283539 -0.11614461 0.13605243
0.090310514 -0.008674697 0.14519854 0.13163824 -0.12254327 0.054171238 0.14127693 0.13632368
0.040741123 0.013748325 0.045645535 0.04967928 0.11405973 -0.08573773 0.13977693 -0.095904954
0.05851317 0.112187974 0.0461079 0.09402906 0.046696793 0.05199655 0.1257646 -0.007021398
-0.007340112 0.07642267 -0.07151797 0.12487932 0.08650532 0.12097723 -0.086613454 0.059365224
0.1069819 -0.041439608 -0.068955384 0.03010044 -0.082768254 -0.07217558 -0.028533733 0.1287308
-0.050386794 0.04929364 -0.010848393 -0.06744266 0.113208264 -0.11572039 0.009272322 0.04534688
-0.008306264 0.09795212 -0.06799542 -0.03276348 -0.104768716 0.075656384 0.059956174 -0.051571023
-0.086051226 -0.011936775 0.008558601 0.026365515 -0.11118957 0.089873314 0.13372707 0.08594459
-0.0019457 0.021018757 -0.009110975 0.045252524 0.13450727 -0.09043561 -0.020465685 0.08850463
0.03647859 0.13724823 -0.13984942 0.04544664 0.018174939 -0.024502683 -0.13045536 0.02228742
0.13618037 0.089791484 -0.13028675 0.06639794 -0.10812727 0.1143145 0.0140072275 0.014412036
0.1403794 -0.11152059 -0.12623155 -0.061410233 -0.041375004 -0.08986519 -0.010543153 -0.09094237
0.05306636 -0.039372247 0.0828264 0.0684409 0.13501139 -0.09565422 -0.013959433 -0.011911707
-0.12515973 0.11313338 0.09381865 0.1001759 -0.04769516 -0.07700755 0.07278638 0.027156476
0.017583301 -0.029889006 -0.13360575 0.09226239 -0.081228 0.09821881 -0.035178963 -0.03592588
0.044048417 0.041626424 0.1224227 -0.05366957 0.059851624 0.061247736 -0.011322251 -0.13150805
-0.021026721 0.11597757 -0.12440277 0.017942673 -0.07335216 -0.0733308 0.111189686 -0.0112779625
0.05021955 0.029954022 -0.10335001 -0.1470112 -0.09364945 -0.03254413 -0.0631938 -0.032815184
0.060343307 -0.012649989 0.015618504 -0.069033265 0.09568788 -0.06689115 -0.007345978 0.08408753
0.13095567 -0.076212354 -0.1324459 -0.11901589 0.027282836 0.061461307 -0.06799979 -0.115006074
-0.025221944 -0.036915448 -0.08857825 -0.13709377 -0.100018665 -0.0058738766 0.07570035 -0.11021958
-0.055058543 -0.11115068 0.06527592 -0.01366122 0.08793727 0.01642665 -0.03245451 0.12895925
0.09639517 0.13764104 -0.10190498 0.06386434 -0.09249467 -0.089614846 0.10412908 0.061082434
-0.08714342 -0.097001776 -0.07734846 0.113369435 0.052261416 0.0093439305 -0.10060318 0.044076804
-0.033706475 0.08846731 0.03236475 0.06633308 -0.049727987 -0.0046360535 -0.08189346 0.03072003
-0.0131779965 -0.124102324 0.07444059 0.05373149 0.07984735 0.056111824 0.009094252 0.09778105
-0.12228561 0.042849716 0.116303444 -0.023479695 0.11203734 0.061446298 0.12112533 0.12636401
0.06829089 0.013760791 -0.120530404 -0.051435273 -0.12596872 -0.02189589 0.08870224 0.07952246

model_cnn.conv_layers.1.0.bias f4 [32]
00000000: 22c2 1fbd 33ba 56bc 8fa7 99bb 64eb 9d3d
00000010: 54b2 773d c83a 04be 57e7 7d3d b1be 073e
00000020: 7500 d7bd 652f b73d 6588 dfbd 67b1 1abc
00000030: 6d06 923d cbb0 f43d 3810 bcbd 5354 03be
00000040: c9a1 92bd 8e55 0a3e 65b4 273d 7409 94bd
00000050: fba1 97bd 370c 86bd 2caa cdbd 89cb b9bd
00000060: 5d5f 7fbd 138c e63d daa9 89bc fbb1 043d
00000070: eb45 8e3d c6e2 093d b9bb 95bd b379 afbd
-0.0390035 -0.013105917 -0.004689164 0.07710913 0.0604728 -0.12913048 0.0619882 0.13256337
-0.10498134 0.08944587 -0.10914687 -0.00944171 0.07130132 0.11947783 -0.09182781 -0.12825136
-0.07159764 0.13509199 0.040943522 -0.072283655 -0.07403942 -0.065452985 -0.10042223 -0.090720244
-0.062346805 0.11257186 -0.016804624 0.032396298 0.069469295 0.033663534 -0.07311196 -0.08568134

model_cnn.conv_layers.1.1.weight f4 [32]
00000000: b835 803f 13e2 7e3f 9dcd 7f3f 7cf5 7f3f
00000010: e0e7 7f3f fa62 803f ba16 803f f0f0 7e3f
00000020: d30d 7f3f d7a7 7f3f 8168 7f3f 6156 803f
00000030: 2a10 803f dd69 7f3f a118 803f 2ddc 7f3f
00000040: 649e 803f fd68 7f3f 3559 803f bf09 803f
00000050: f066 803f 07f9 7f3f e51d 803f f2f7 7f3f
00000060: 7aa4 7f3f f931 7f3f de13 803f 308b 7f3f
00000070: f161 803f 2f20 803f 1749 803f 592e 803f
1.0016394 0.9956371 0.99923116 0.99983954 0.9996319 1.0030205 1.0006936 0.9958639
0.9963047 0.9986548 0.99768835 1.0026361 1.0004933 0.9977091 1.0007516 0.99945337
1.0048337 0.99769574 1.0027224 1.0002974 1.0031414 0.9998936 1.0009123 0.9998771
0.99860346 0.9968563 1.0006063 0.9982176 1.0029889 1.0009822 1.0022305 1.0014144

model_cnn.conv_layers.1.1.bias f4 [32]
00000000: 2d19 c1ba 2dea 6fbb 7463 6239 2e5c b6ba
00000010: 7e31 e3ba 426a 4b3b 0c2f c53a b896 abba
00000020: ac22 70bb c7ea f6ba 9ab1 d1ba 421d 0d3b
00000030: ce0b 48bb f914 4e3b 4aab fdba a3a0 a93a
00000040: 9574 053b e4bf 95ba 08c6 c238 6281 d738
00000050: 5e00 ad3b 1d20 473a bbd5 bb3a f368 38b9
00000060: f246 00bb 549f a6ba 852a ee39 c198 82ba
00000070: ed21 4b3b 079f d33a c516 153b 7008 beba
-0.0014732234 -0.0036608086 0.00021590089 -0.001391297 -0.0017333475 0.0031038676 0.0015043928 -0.0013091182
-0.003664176 -0.001883828 -0.0015998364 0.0021532332 -0.0030524614 0.0031445606 -0.0019353416 0.001294155
0.0020363678 -0.0011424986 9.287527e-05 0.00010276098 0.005279585 0.0007596033 0.0014330664 -0.00017586704
-0.0019573537 -0.0012712278 0.00045426577 -0.0009963737 0.0030995563 0.0016145416 0.0022749167 -0.0014498364

model_cnn.conv_layers.1.1.running_mean f4 [32]
00000000: 53bf 423e 5db4 a53e 6fd8 083e 0484 2dbe
00000010: e34b 393d bc20 0ebe 5067 573e 7a41 1d3e
00000020: f14e 0dbf 3a5a 9a3e b79f 5fbd e9ed 773e
00000030: 9309 c53d af17 87bd ea6d 4abe 0e95 4cbb
00000040: 76be 703d 0e35 623e e064 b63d f4be 00bf
00000050: 4563 8c3d 873e 91be 6e37 123d 6fce 02bd
00000060: c017 133d 3388 793e aa4b f2bc f512 a6bd
00000070: d515 bcbd b47c 833e 5239 a1bc 61fd d5bd
0.19018297 0.3236417 0.13363813 -0.16944891 0.045238387 -0.13879675 0.21035504 0.15357009
-0.5519858 0.30146962 -0.054595675 0.2421185 0.09620967 -0.06596314 -0.19768491 -0.0031216773
0.058775388 0.22090551 0.08905959 -0.5029137 0.06854872 -0.28368017 0.035697393 -0.03193515
0.03591132 0.24368362 -0.029577095 -0.081090845 -0.09183852 0.25681078 -0.019680653 -0.10448719

model_cnn.conv_layers.1.1.running_var f4 [32]
00000000: f194 d33d 1c72 8a3d f610 923d c6e8 ab3d
00000010: c9ab 213e 108b 4b3e c251 103e ada2 b13d
00000020: 118b 4a3e 1638 b43d bda7 bf3d 7815 c73d
00000030: f06f 893d 3f7d 5c3e 028d 8d3d daa7 d93d
00000040: 71d5 763e 9a53 db3d 3f6c 073e c226 273e
00000050: 79b4 c13d 2d61 0c3e 07e4 643e 8567 093e
00000060: 9d50 7e3d ccaa a63d 8057 f03d 0879 0a3e
00000070: e98b 773d f849 bd3d b1db f43d 50dd ff3d
0.10331143 0.06760046 0.07132141 0.083940074 0.15788187 0.19877267 0.14093688 0.08673606
0.19779612 0.0879976 0.093581654 0.09720892 0.067108035 0.21532153 0.06911661 0.10627718
0.24104859 0.10709305 0.13224886 0.16323379 0.094582506 0.13708945 0.2235261 0.13418396
0.062088598 0.08138046 0.11735439 0.13522732 0.060436163 0.09242624 0.11955965 0.12493384

model_cnn.conv_layers.3.0.weight f4 [64, 32, 3]
00000000: 8f04 75bd 3c62 d2bc 57d4 95bc d3bd 373d
00000010: e3bb 0b3d 4abb 5b3d 2426 61bd cf09 c5bd
00000020: af4d e03c d4a5 c5bd 7893 ac3d 5b1f 08bd
00000030: 8225 a43c ec05 093d a421 56bd 013a 88bd
00000040: 65eb 8f3d 0759 a73d 038e 633c e035 ad3d
00000050: f833 4c3d 497d edbb cae0 23bd e11f 81bd
00000060: 8cc4 013d d4f8 583d ee6c 973d 8c37 13bc
00000070: 717c 9b3d fdba 6b3d 5aa2 633d 495e 4d3d
00000080: 5bdf 553d 304f f23c b2de 803d df4b b13d
00000090: d10e 923d 4952 a13d a866 61bd e4d2 9dbc
000000a0: adc2 c83d e3d0 593d 2992 9c3d 2877 1e3d
000000b0: 69ad 77bd bf6b 303d ee42 7fbd 9fd1 4e3d
000000c0: f380 d9bc 5f3c 9a3d 0c7d 83bd 10c3 56bd
000000d0: fee4 993c 9e1a a23d babd 84bd 68c8 c63b
000000e0: 96d8 88bb 0fe8 5f3d 14ea 83bd 509c c2bd
000000f0: 2820 913c 1e83 61bd e24a 24bd 48b6 6b3d
00000100: fdec 7cbb d95e c5bc bf7a 933d 634c acbd
00000110: 090a 94bd 2fa3 993d cfc0 86bc a924 c63d
00000120: 463f 293d 2106 fbbc 5f7e 8abd 2b11 9c3d
00000130: 0d99 8fbd c11d a63d 616e b23c fbe3 4abd
00000140: 162e 9a3d f4c9 1e3d d243 57bd 738e 9b3d
00000150: 3e76 bbbd 37dd cd3c 4f95 833d 0b89 0a3c
00000160: 0229 92bd b566 373d 3bd4 bdbd 9369 bc3c
00000170: 3b8e b23d b03c c03d a830 4eba fe80 9a3d
00000180: e1ba c73d 9ef3 2fbd 2e18 e3b9 4090 39bd
00000190: dfd2 8abd 2b65 a73d 0d47 3fbd d07d 053b
000001a0: 0c2b 313d a3d9 a2bd 19f8 a2bd a7bb 623d
000001b0: b8c1 c93b 59a1 29bd 01c8 81bc 3fbd 37bd
000001c0: 2843 8cbc ad1c 89bd d7dd 3fbc 5cc3 6f3d
000001d0: 3954 c0bd 9073 82bd 60fb babd 6459 3c3c
000001e0: 94f0 0dbd b836 943b 235a 043d 3dba 303d
000001f0: 2077 4bbd 1ff8 b8bb 70f6 d3bd 053f 9cbd
00000200: 25ed 32bd 1f1d 36bd 2835 72bd d2e3 333d
00000210: a258 243c c68e 323d 9206 51bc fc54 8d3d
00000220: 1e7e 6bbd 55a2 213d 6771 81bd e84e 15bd
00000230: abdd bd3d 75a2 c7bc ad47 d43b 37a7 f63c
00000240: 0827 9a3d f55e 233d 50b8 95bd 321a 9fbd
00000250: fa32 11bb 910e 0cbc 8a8e 833d b0e1 c8bc
00000260: 01e9 ca3d c298 a43d 3a89 c83d 4ceb 183a
00000270: 21b7 b1bb a87d 783d 22fa aabc 41b5 8abd
00000280: 3296 c1bd fdbd a4bc 733f 713c b8c9 c73d
00000290: 779f a13d b6df 93bd fe9a b9bd 594b d8bb
000002a0: 1815 2cbd 95c9 2fbc 158f c3bd 6e18 cbbd
000002b0: 6adb 85ba aef7 08bd 316a 5dbd 4d9f d13c
000002c0: 665e ddbc 7c20 63bd 8075 903d dd04 a8bd
000002d0: e740 d0bd 2734 debb 3aa8 c53c fd16 83bb
000002e0: dfbf 6ebd 7090 8abc 214a 73bc 0d53 023d
000002f0: 1508 91bd d42b 113d 7e28 f33c 27da a83d
00000300: 0c48 383d a21c e03c 4ff3 1e3d 0544 aebd
00000310: 1482 713d e14d ce3d ae46 6abc e2a3 8cbd
00000320: 307c fc3c 707a a83d 4ba0 a53d 81a4 3abc
00000330: c6d6 9c3d e157 583c 4225 e13b 2fcd d1bd
00000340: c59c 61bd a5de eb3c 3687 973d f3a1 ccbd
00000350: 7a6f 00bd f2ba b03d 7cbf a23c bed4 efbb
00000360: 7381 b5bd 5136 aa3d ca7d 1e3d 9048 903c
00000370: e6e4 b53d 445e 97bc 7d3e 0d3b 15fa 20bd
00000380: 3a23 b0bd b672 c13d 3439 c7bd 5e2e 963d
00000390: 43d0 1cbd c5c3 bb3d 2085 1e3d 8d8e 81bd
000003a0: cb8c b3bb 052b 913d 4bfc 79bd 1331 6bbd
000003b0: ec19 cc3d ddd1 8abd 1bab 933b 636c 543c
000003c0: 6b61 92bd c1d5 cabd 3cb8 643c 1bc2 8fbd
000003d0: 5b97 67bc 2502 b03d e51e 863c dd34 01bd
000003e0: ce65 8fbd edb7 6e3c a544 8a3d c0f2 1cbd
000003f0: 8cc4 8d3d 3f72 04bd 2eba c8bc d888 a63d
-0.0598188 -0.025681607 -0.018289728 0.044858765 0.03411473 0.05364541 -0.054968014 -0.096210115
0.027380792 -0.0965077 0.08426565 -0.033233028 0.020037416 0.033452913 -0.052278176 -0.06651688
0.0702732 0.081712775 0.013888839 0.084575415 0.04985425 -0.007247601 -0.040009297 -0.063049085
0.031681582 0.052971676 0.073938236 -0.008985411 0.07592095 0.057551373 0.055574752 0.050138745
0.05221496 0.029578775 0.06292476 0.086570494 0.07131732 0.07877023 -0.05502954 -0.0192656
0.098027565 0.053177726 0.07645065 0.038687855 -0.06046811 0.043071505 -0.06231969 0.05049288
-0.026550746 0.07531046 -0.06420335 -0.05243212 0.01878595 0.07915233 -0.064815 0.0060663708
-0.0041762097 0.054664668 -0.06441131 -0.095024705 0.017715529 -0.055056684 -0.040110476 0.057546884
-0.0038593404 -0.024093078 0.07201146 -0.08413007 -0.072284766 0.07501828 -0.01644936 0.09674961
0.041320108 -0.03064257 -0.067623846 0.07620462 -0.07011614 0.08111144 0.021781148 -0.049533825
0.075283214 0.038766816 -0.052554913 0.075955294 -0.09153412 0.025129898 0.06424963 0.008455525
-0.07136728 0.044775683 -0.092689954 0.02299956 0.087185346 0.09386575 -0.0007865527 0.075441346
0.09752441 -0.04295694 -0.0004331483 -0.045303583 -0.06778502 0.08173593 -0.04669862 0.002036918
0.043253943 -0.07951667 -0.07957477 0.05535474 0.0061571263 -0.04141364 -0.01584244 -0.044858214
-0.017121866 -0.066949226 -0.011710606 0.05853592 -0.09391064 -0.06369698 -0.09129977 0.011495922
-0.03465326 0.0045231245 0.032312524 0.04314636 -0.049674153 -0.0056448127 -0.103497386 -0.076292075
-0.04368319 -0.044461366 -0.059132725 0.04391844 0.010030897 0.04359319 -0.012757914 0.06900975
-0.05749332 0.039461453 -0.06320458 -0.036452204 0.092707954 -0.024369458 0.006478271 0.030109031
0.07526976 0.03988548 -0.073105454 -0.07768668 -0.0022155629 -0.008548395 0.064236715 -0.024521679
0.09907723 0.08036949 0.09791799 0.0005833402 -0.005423442 0.06066671 -0.020871226 -0.06772853
-0.094524756 -0.020110125 0.0147246 0.09755272 0.07891744 -0.07220404 -0.090627655 -0.006600779
-0.042012304 -0.010729213 -0.09548775 -0.09916769 -0.0010212485 -0.03343933 -0.05405635 0.025588656
-0.027022552 -0.0554509 0.07053661 -0.082040526 -0.10168629 -0.0067811194 0.024128068 -0.004000543
-0.05828845 -0.016914576 -0.014849217 0.031817485 -0.0708162 0.03544219 0.029682394 0.08244734
0.044990584 0.027357403 0.038806256 -0.085090674 0.058961943 0.10073448 -0.014299078 -0.06867196
0.030820936 0.08226478 0.08087214 -0.01139176 0.07658152 0.013204546 0.0068708966 -0.10244214
-0.055081148 0.028792689 0.07398836 -0.09991827 -0.031356312 0.08629407 0.019866697 -0.007319062
-0.08862581 0.08311141 0.03869418 0.017612725 0.088815495 -0.018477567 0.0021552138 -0.039300997
-0.08600469 0.094457075 -0.097277075 0.073330626 -0.03828455 0.091681994 0.038701177 -0.063260175
-0.0054794303 0.070882834 -0.06103162 -0.057419848 0.09965882 -0.067783095 0.0045064813 0.0129652945
-0.07147487 -0.099040516 0.0139599405 -0.070194446 -0.014135207 0.08594159 0.016372154 -0.031544555
-0.070018396 0.0145702185 0.06751374 -0.038317442 0.06922254 -0.032335516 -0.02450284 0.081315696

model_cnn.conv_layers.3.0.bias f4 [64]
00000000: 8bad b0bc 38de 88bd bf6a 8b3c 7809 b83d
00000010: fe3b b63c 8537 bebd dbcf 203d 8550 87bb
00000020: fea6 b53c 90a3 b4b8 d769 a43c 07ab 94bd
00000030: 0e79 8cbd 306a cabd 9d5f 6e3d b543 2bbd
00000040: a67b 5cbc bcb4 2c3d aa78 0d3d 9dc0 943d
00000050: a4f8 173d 7044 34bd 455d 5dbc dfb0 563d
00000060: ddca 14bd 9f54 c73d e23f 54bd 1bf0 fd3c
00000070: ba49 4fbd d48a 9ebd cf83 313c 570d 1abd
00000080: 0e6f 3d3d 59ed bebc 65b4 c13d b95e b33c
00000090: 19a4 c63d d9a7 b9bc a19c 87bd 4bd7 b4bc
000000a0: 178a 34bd ca59 723d 52c7 50bd a882 8bbd
000000b0: ba6c 7fbd a7c0 9f3d d2af 8dbd cc1a 513c
000000c0: e2ee 833d c2c3 81bd eec2 4ebc 682d 45bd
000000d0: f470 bd3d 7271 febc 6619 ab3c 8fa2 883c
000000e0: 1dd8 bcbd 5548 313d 1f86 3dbd c044 aa3d
000000f0: d653 943d fc1c 013d 64bf abbc 222b 62bd
-0.021567127 -0.0668301 0.017018674 0.08986181 0.022245403 -0.09287933 0.039260726 -0.0041294717
0.022174355 -8.613535e-05 0.02007 -0.072591834 -0.06859027 -0.09883535 0.058196653 -0.041812617
-0.013457214 0.04216455 0.034538902 0.072633006 0.037102357 -0.04401058 -0.013511007 0.05241477
-0.036326278 0.09732937 -0.051818736 0.03099828 -0.05060742 -0.07741323 0.010834648 -0.037610378
0.046248488 -0.023306536 0.09458236 0.021895753 0.09699268 -0.022663044 -0.066216715 -0.022075316
-0.044077005 0.05916766 -0.050971337 -0.0681203 -0.06235955 0.078004174 -0.06918301 0.0127627365
0.06442048 -0.06336166 -0.012619717 -0.048139006 0.0925006 -0.031059954 0.020886134 0.016679076
-0.09220908 0.04328187 -0.046270486 0.08313894 0.07242553 0.031521782 -0.020965286 -0.055216916

model_cnn.conv_layers.3.1.weight f4 [64]
00000000: 6768 7f3f 8875 803f 7c9b 7f3f 8635 803f
00000010: ecf1 7f3f 1500 803f b02e 803f 1e79 803f
00000020: c507 803f e8b8 803f 8cdf 7e3f 6296 7e3f
00000030: 2bd2 7e3f bc8f 7f3f bccc 7e3f d1b4 7f3f
00000040: 9c56 803f 79e6 7f3f 3b17 803f 256a 803f
00000050: eb0e 803f c62a 803f 3e36 803f 6def 7f3f
00000060: 2118 7f3f 0b12 803f 8e10 803f 3077 7f3f
00000070: eb9e 7f3f 5d28 803f 95da 7f3f fb05 803f
00000080: 677e 803f a432 803f ce6e 803f 0463 803f
00000090: 20e6 7f3f a73b 803f 1936 803f 1f1a 803f
000000a0: b7b8 7e3f c6e6 7f3f 69f9 7f3f 1196 7f3f
000000b0: 593b 7f3f 8557 803f d069 7f3f 9b41 803f
000000c0: ccaa 7e3f 7c07 803f 0e28 803f aa65 803f
000000d0: f556 803f 8120 7f3f 1904 803f 69f1 7f3f
000000e0: d594 7f3f 5a3e 7f3f a529 803f 8807 803f
000000f0: 6cdf 7f3f d927 803f d351 803f 07bd 803f
0.9976868 1.0035868 0.99846625 1.0016334 0.9997852 1.0000025 1.0014248 1.0036962
1.0002371 1.0056429 0.99559855 0.99448216 0.9953944 0.99828696 0.9953115 0.9988528
1.0026431 0.9996105 1.0007089 1.0032393 1.0004553 1.0013053 1.0016553 0.9997471
0.9964619 1.0005506 1.0005052 0.9979124 0.99851865 1.0012318 0.99942905 1.0001825
1.0038575 1.0015454 1.0033815 1.0030217 0.9996052 1.0018204 1.0016509 1.0007972
0.995006 0.9996151 0.99989945 0.9983836 0.9969993 1.0026709 0.9977083 1.0020021
0.99479365 1.0002284 1.0012224 1.0031025 1.0026537 0.9965897 1.000125 0.9997774
0.99836475 0.99704516 1.0012709 1.0002298 0.9995029 1.001216 1.0024971 1.0057687

model_cnn.conv_layers.3.1.bias f4 [64]
00000000: 16de 0bbb f851 843b 95b5 f2ba 0661 373a
00000010: d420 7cba bea1 57bb e9b2 cc3a 43c8 c93a
00000020: 5d79 87ba e033 573b 09fd 1bbb 77f4 45bb
00000030: 31c8 96bb 52fe e23a baea 81bb d257 5a3b
00000040: 03bd 003b bfcf a23a 35f2 ac3a 9740 613b
00000050: 502c 0d39 dfd1 0a3b 870d b6ba b8d4 903a
00000060: a5bc 71bb d185 d2ba 3187 8f3a ceef ebba
00000070: 5d35 1cba e8fa c43a 6c88 cbba caf2 09bb
00000080: 93c0 913b 0ec1 f73a b692 383b c312 813b
00000090: 7e33 0fbb 468c c739 96c1 4db9 5a5d 13bb
000000a0: 5633 2abb 5b98 53b8 bcdf 0c39 af00 ac3a
000000b0: c769 29bb 3ed6 3a3b d6cc b9ba 374d 6f3a
000000c0: 2843 c5ba 9d25 2d39 25b1 853a 58fe 9d3b
000000d0: 0876 553b b037 863a 6d2e c83a f177 4c3a
000000e0: 0a85 1bbb b3de 83ba 8940 8cba a5f5 3cba
000000f0: 9a6c 68b8 0482 1bbb 700c 833b 5412 a63b
-0.002134209 0.0040380917 -0.001851725 0.00069953536 -0.0009617929 -0.0032902802 0.0015617284 0.0015394766
-0.0010335852 0.0032837316 -0.0023801944 -0.0030205527 -0.0046015014 0.0017318225 -0.003964749 0.0033316505
0.001964391 0.0012421532 0.0013194742 0.0034370774 0.00013463316 0.0021182222 -0.001388953 0.0011049723
-0.0036886123 -0.0016061609 0.0010950324 -0.0018000545 -0.00059588795 0.0015028389 -0.0015528328 -0.0021049255
0.0044480055 0.0018902139 0.0028163618 0.003939004 -0.002185076 0.0003806075 -0.0001962244 -0.0022486062
-0.002597054 -5.0448212e-05 0.00013434788 0.0013122762 -0.0025850402 0.0028509046 -0.0014175426 0.00091286324
-0.0015049921 0.00016512578 0.0010199888 0.00482158 0.0032571573 0.0010239985 0.0015272625 0.0007799855
-0.002373042 -0.0010060876 -0.0010700385 -0.0007208235 -5.5414253e-05 -0.0023728618 0.0039992854 0.005068103

model_cnn.conv_layers.3.1.running_mean f4 [64]
00000000: 49ef 043f 4e8f 1fbf 1453 e23b 39e4 103e
00000010: 5688 edbb 03e5 34bf cd10 983c b75e 9fbe
00000020: 2864 653e a974 8abe 304d dc3e 01f0 1e3e
00000030: dc36 96bd f945 f53b e0bc 913e b755 723e
00000040: 0e02 b93e 5c6f 02bd 0a12 0a3f 29cd c33e
00000050: 9752 fb3d fe0f d83e 478d 22bd 9f39 06bf
00000060: acde 11be c295 a63e 5a72 03bf d85a d9bd
00000070: 7710 25bd cc01 a1bd 7788 d83e d8bf 63be
00000080: f1bd a5bd e42b 1f3e 6e7c abbe 2e25 4b3d
00000090: bfed 36bd eb25 ca3d 15ae 8abe ab49 ecbd
000000a0: ec18 933d 802d 493e 684a 0fbd 5d6e f8be
000000b0: b64e 0f3f 7138 f13e 4773 d43e f335 bd3e
000000c0: 2221 5ebe aa45 ba3e 97ac debe 179a a3bd
000000d0: 99e7 9e3d 724f 06bd 39b0 11be 11bb c33e
000000e0: adf4 963d e14c 683e 7d45 32be 1d01 6d3d
000000f0: f644 203f ddd2 dc3c 0d72 6a3e 2242 acbe
0.5192762 -0.6232804 0.0069068763 0.1414956 -0.0072489185 -0.70661944 0.018562699 -0.3112695
0.22401488 -0.2704213 0.4302764 0.15521242 -0.07334682 0.007485148 0.28464413 0.2366551
0.3613438 -0.03184448 0.53933775 0.38242462 0.12271612 0.421997 -0.039685514 -0.5243167
-0.14245099 0.3253613 -0.5134636 -0.1061303 -0.040298905 -0.07861671 0.42291614 -0.22241151
-0.08092869 0.15544087 -0.3349337 0.049596004 -0.044660326 0.098705135 -0.2708594 -0.115374885
0.07182488 0.19646263 -0.03498307 -0.485217 0.5597948 0.47113374 0.414942 0.36955222
-0.21692327 0.36381274 -0.4349105 -0.07988375 0.077590175 -0.03279061 -0.1422738 0.38228658
0.07370887 0.22685577 -0.1740932 0.05786239 0.62605226 0.026956016 0.2289507 -0.33644205

model_cnn.conv_layers.3.1.running_var f4 [64]
00000000: b639 013e b137 723e 3f48 c83d aa96 1d3e
00000010: f669 df3d 8d51 f73d b7e1 4e3e 748b ac3d
00000020: d4d9 123e 2348 373e 666d c53d f98c 203e
00000030: 05de 983d 1f1c 633e 93af 963d 4150 023e
00000040: 38c4 203e ef21 143e ee28 ad3d 9bc4 cb3d
00000050: b099 113e f038 283e df68 ef3d 21e1 ca3d
00000060: d886 a33d 340e 0b3e 8d07 033e 2aef e53d
00000070: f73e ea3d 0f64 f43d 88fb 093e 3428 6b3d
00000080: bdad 343e c3b3 083e 403c f03d e897 c43d
00000090: 30a5 003e 649f 9e3d 6667 e53d 9d30 963d
000000a0: c136 a43d 71f2 fa3d 0ec0 943d 9e42 f53d
000000b0: 126b 223e 70b8 053e 7605 033e d25b 823e
000000c0: b378 203e c73a 473e 7572 ef3d dcc4 123e
000000d0: 770d 033e 5ffa 103e 3db5 0a3e 280a e03d
000000e0: 7c6d 063e f66f fd3d 7bc5 083e 966b 263e
000000f0: 41be da3d 968b e63d f812 b93d 2cde 5e3e
0.12619671 0.23654057 0.09779405 0.15389505 0.10908882 0.120761015 0.20203291 0.08425036
0.14340907 0.17898612 0.09640007 0.15678777 0.07464222 0.22178696 0.07357707 0.12725927
0.15699852 0.1446607 0.08455072 0.09949609 0.14218783 0.1642797 0.116899244 0.09906221
0.07984704 0.13579637 0.12795849 0.112272575 0.11437791 0.11933147 0.13474858 0.057411388
0.17644401 0.13349824 0.11730242 0.09599286 0.12563014 0.07745245 0.11201362 0.07333491
0.08018256 0.12253273 0.07263194 0.11975597 0.15861157 0.13058639 0.12795052 0.25460678
0.15671043 0.19456016 0.11691753 0.14332908 0.12798105 0.14158009 0.135457 0.10939437
0.13127702 0.123748705 0.13356583 0.16251978 0.10680819 0.11257093 0.09036821 0.2176444

model_cnn.conv_layers.4.0.weight f4 [128, 64, 3]
00000000: b270 763d 205f 203c 0050 923d f763 60bc
00000010: 20a7 6dbd 77ad 813d 0232 f03c bf92 7b3d
00000020: bbf9 6ebd cc7e 933c 48b4 68bd 8e56 ea3c
00000030: 0fc2 633d d869 ce3c 320f d1bc 4453 62bd
00000040: 18c5 8a3c 032f 263d 35ad a4bc 3509 6ebd
00000050: 8efa e73c 609a d83c 8511 bdbc a8a6 90bd
00000060: 590f 8bbd e151 8e3d acfb ac3b dfb3 423d
00000070: 5387 dd3c 8d3f 22bc 9aa0 2ebd adf2 84bd
00000080: 1327 db3c a4b7 16bc da37 e83c 5b26 6dbc
00000090: 5d96 47bd ace4 5ebd 55ae 293d 0267 ddbc
000000a0: 139b 373d 5f4b 92bc 073e bbbc c427 54bc
000000b0: 1a85 353d a16f cdbc f8bc 71bd 2d06 8abd
000000c0: 2930 fb3c 5fa8 94bd 85be 89bc c4fa 72bd
000000d0: ae28 10bd c4b5 8bbd ba71 f7bc 2c3c 6bbd
000000e0: 4601 2abd 0da6 8dbd a431 593c 17fd 53bd
000000f0: cd16 9cbc 233e 8abd 77c0 2d3d d1a1 53bd
00000100: c084 27bd d744 aabc c168 443c 3ce4 f1bc
00000110: a22e 85bd 9af2 e6bc e916 743d 1e24 9abd
00000120: c3dc 5f3c 4e93 f3bb b476 403a 94d0 85bd
00000130: 582f 383c bf94 773d 1abe 0c3d 3532 f239
00000140: 8c67 63bd 71ff 433c f82c 613d b144 8b3c
00000150: 9980 913c 1b2b c13a b908 81bd e7bb a0bc
00000160: 78c7 723d ae93 5fbd 8ab0 4cbb 0f03 073d
00000170: ad54 873d 0900 6fbc 5164 38bd a0c1 93bc
00000180: ea9c 40bd 3d28 33bd 5113 f63c 253d 89bc
00000190: c2b5 d93c c756 9dbc 8890 97bd 42c8 05bd
000001a0: cfa8 133d c43c 8abc 7a7d 0fbd d086 6d3d
000001b0: 1671 f6bc a2b1 1b3d b886 36bd 3704 f83c
000001c0: cf1f 7f3d 1b37 c7bc 6faf 9a3c fc38 563d
000001d0: b7dd 70bc 8453 cb3a 46c1 bdbc 35c6 403d
000001e0: 602a 703b 1919 2fbd 13e0 ef3c 80bb a83b
000001f0: d7a2 ed3c 9efe a03c dfb4 21bd b200 7dbc
00000200: a805 92bb 4add 67bd d357 93bd 8471 5b3d
00000210: 2fcd 1b3d 1f7f 353d c558 903d 296d 4f3d
00000220: 518c 283d ef95 8dbc 9b95 7fbd 766a f1bc
00000230: f690 ce3c aff0 91bd 2751 eb3c 0c07 c93c
00000240: c65f 89bd d649 07bd eddb dfbb dacb dcbc
00000250: fb3a fb3c 8876 173c 9856 8ebd c663 41bd
00000260: f29d 3d3d 3143 bd3c 59dd 92bd dea1 fbbc
00000270: f3e2 8ebc f1be 73bd 3f65 91bd b823 89bd
00000280: 5ea5 35bd e464 a43b 3822 44bd 6e84 2bbd
00000290: 4e2a 94bd 42a9 30bd 9650 63bd 15ba 873d
000002a0: 8cc5 b13b 803d bd3c f79b 77bd b542 8ebd
000002b0: 46b8 203d 31d4 4cbd 58fc 43ba 528e 63bd
000002c0: 4a15 263d 6e58 bb3b e76f 813d 09d8 8d3d
000002d0: 69d3 31bd a144 01bd fa13 743c 2c7e 523d
000002e0: a26f 30bd e887 643d db95 de3c 4ab7 94bd
000002f0: 4df7 5fbd f2ce 883d 880c 7dba f977 1a3d
00000300: 959c 35bd b5d1 81bd 504a 6d3d c37d 383c
00000310: ed01 af3c d5ff 04bb b936 3ebd 2ea4 a03c
00000320: 826c c3bc a106 363c b4a4 22bd f30d 833d
00000330: d6a4 263c 4753 023d 3193 45bc 2413 09bc
00000340: 5ce7 8e3d c0ab 363b c589 5dbc b698 643d
00000350: 135b cd3c 29dc 94bd e0a4 193d 986c a33c
00000360: 9a7f aab9 c3b7 6f3d ce97 ec3c 588d 26bd
00000370: 7365 8dbd a7ce 5f3d 4964 8a3a 1800 dabc
00000380: cc14 cb3b 64de 503d 0279 e9bc ccc3 c23c
00000390: 5008 9e3c d3bf 4dbd da94 64bd 4497 1b3d
000003a0: ebc0 57bc 0b21 623c 8ca3 41bd 6b11 b43b
000003b0: 3845 dbbc 2370 8c3c 56d7 0c3d 0802 62bd
000003c0: 9dbb 2fbd c822 8d3d 7e74 efb9 45dd 43bd
000003d0: 6b7c aa3c 30e8 683d 3a96 153d a2ce 8f3d
000003e0: 9d92 2f3c c18f 82bd ac4f 94bd 2317 8c3d
000003f0: 188a 5a3d 74f7 a43c 965d 653d 308b d5ba
0.06016607 0.009788305 0.07144165 -0.0136957085 -0.05802071 0.06331914 0.02932072 0.061419245
-0.05834363 0.018004797 -0.056812555 0.028605726 0.05560499 0.025196955 -0.025519941 -0.05525519
0.016939685 0.040572178 -0.020102123 -0.05811425 0.028317716 0.0264408 -0.023079643 -0.07063037
-0.06790037 0.06949211 0.005279025 0.04753482 0.027042067 -0.009902847 -0.04263363 -0.06491599
0.02675203 -0.009199057 0.028346945 -0.014474477 -0.048727382 -0.054417297 0.04142602 -0.027026657
0.044825625 -0.017858205 -0.022856725 -0.012948934 0.04431639 -0.025077643 -0.059018105 -0.06739459
0.030662613 -0.07258677 -0.01681448 -0.05932118 -0.035195045 -0.068217784 -0.030205596 -0.05743043
-0.04150512 -0.06916437 0.013256464 -0.051755037 -0.019053841 -0.06750133 0.042419877 -0.051667992
-0.040898085 -0.020784779 0.011987866 -0.029527776 -0.06503035 -0.028191853 0.05959216 -0.0752642
0.013663474 -0.0074333316 0.0007341907 -0.06533924 0.011241756 0.06044459 0.034360982 0.00046195244
-0.055518672 0.011962757 0.054974526 0.017000528 0.017761515 0.0014737578 -0.06300492 -0.019620849
0.05927226 -0.054584198 -0.0031233155 0.0329619 0.066079475 -0.014587411 -0.045017544 -0.018036664
-0.047024645 -0.043739546 0.030038508 -0.016752789 0.026575927 -0.019206418 -0.07400614 -0.032661684
0.03604966 -0.016874678 -0.035031773 0.057989895 -0.03008322 0.0380112 -0.04456207 0.030275447
0.062286194 -0.024318269 0.018882481 0.05230044 -0.014701298 0.001551256 -0.023163449 0.047064025
0.0036646351 -0.042748544 0.029281652 0.005149305 0.029008312 0.019652661 -0.039479133 -0.01544206
-0.0044562407 -0.056607522 -0.071944855 0.053575054 0.038037475 0.044310685 0.070481814 0.050641213
0.04114944 -0.017283408 -0.062398534 -0.02946971 0.025215607 -0.07125985 0.02872522 0.024539493
-0.067077205 -0.0330294 -0.006831637 -0.026952673 0.030667773 0.009244569 -0.0695011 -0.047214292
0.046293207 0.023103328 -0.07171125 -0.030716833 -0.017442202 -0.059508268 -0.07099389 -0.06696266
-0.04434716 0.00501691 -0.047884196 -0.04187434 -0.072346315 -0.043130167 -0.055496775 0.06627289
0.0054251608 0.023100615 -0.060451474 -0.06946317 0.039238237 -0.05000705 -0.0007476262 -0.05555565
0.040547647 0.0057173287 0.06320172 0.06925971 -0.043414507 -0.03155959 0.014897341 0.051389858
-0.04307521 0.055793673 0.027171066 -0.07261522 -0.054679204 0.06680097 -0.00096530514 0.03771207
-0.04433878 -0.063388266 0.057932198 0.011260453 0.021363223 -0.002029409 -0.046438906 0.019609537
-0.023855451 0.011109979 -0.039707854 0.06399145 0.010171136 0.0318177 -0.012059019 -0.00836638
0.06977722 0.0027873367 -0.013521616 0.0558097 0.025067842 -0.07268555 0.037510753 0.019949242
-0.00032519997 0.05852486 0.02888098 -0.04066214 -0.069041155 0.05464044 0.0010558452 -0.026611373
0.0061975475 0.05099334 -0.028500084 0.023775004 0.019291073 -0.050231766 -0.05580602 0.037986055
-0.013168554 0.013801823 -0.04727511 0.0054952404 -0.026766405 0.017143315 0.034385048 -0.05517772
-0.04290353 0.068913996 -0.00045672426 -0.04781844 0.02081128 0.056862056 0.03652022 0.07021834
0.010716108 -0.06375075 -0.07241759 0.068403505 0.053354353 0.020137526 0.055997454 -0.0016292091

model_cnn.conv_layers.4.0.bias f4 [128]
00000000: 3dd6 563d 83f6 39bd a28a 3d3d bfee 243c
00000010: 8e48 7d3c 58b7 d5bc 3360 0a3d 60c2 5bbd
00000020: 93e1 7d3d b2d4 29bd 5d20 5b3d e8a6 a9bc
00000030: 52c1 47b9 407b a2bc 7f4e 343c ca44 62bd
00000040: 2490 033d b8c7 15bd c72c ff3c cc48 2fb7
00000050: b8c8 6abd dcae 25bb 041c 813d 111c a9bc
00000060: 1240 66bc b4ee 1ebd 11d4 21bb 52f1 23bd
00000070: ee00 2dbd c718 6fbd 78af 383d 6005 093d
00000080: 87de 423c 6183 ad3c efd1 7f3d 40ba a83c
00000090: 5618 783d 90be 32bd 1ef4 94ba 6eb4 5e3d
000000a0: 3485 c33c bc87 0e3d f962 1a3d c21d 013d
000000b0: cfc7 d03c 0941 4bbc 502a cbbc 1f93 8e3d
000000c0: 72e1 78bd fece 703d 7f11 043d 3576 8abd
000000d0: 3586 ce3a cbb2 e03b cbc5 39bd b408 85bc
000000e0: 00f3 603d 5472 713d 0c10 4b3c d155 8d3c
000000f0: 5e01 f1bc 0907 24bd 75fd cdbc 43f5 773c
00000100: af1d bf3b c3fb f73c 809b 393c adb6 8bbd
00000110: 41d7 2dbd 6961 673c e614 56bd d0fc 6c3d
00000120: 8fb5 3bbd 1c48 143c 9108 48bd 1719 283c
00000130: 1b69 8dbd 9468 473d 3f2c 703d 2a2d 723d
00000140: 247e 03bb 34d4 263d 84c3 87bd 07a3 3cbd
00000150: 6d9e d539 4f7d 14bd 8f9e 853d 59eb 9bbb
00000160: 8eeb 8b3c cdae 3a3d 13b4 823d 65b6 91bb
00000170: c66f 4dba b5c6 5bbd 6f73 8c3d 03fd 593d
00000180: 0643 673d 176a 893d d476 31bd da10 5cbb
00000190: b514 6bbd 782f 4f3d dd36 8a3d b6f3 723d
000001a0: 3a17 b53c 4c89 c4bc 4f83 183d 7e21 223d
000001b0: edf9 d23c 0a08 f33b 96f3 c2bb 2e2c a4bc
000001c0: 78a1 e4bb ca27 69bd 26de 4bbc a902 7c3c
000001d0: 776a 1d3b 56f9 59bc 539c 483d 459b 303c
000001e0: dfaf 593c be9e 543d dc5e 503d 7914 f03c
000001f0: d6b7 463c a00e 84bd 92f9 0cbd 2ddc 0e3d
0.052450407 -0.045401108 0.04627479 0.010066687 0.015459193 -0.026088402 0.03378315 -0.053652167
0.061982702 -0.041462608 0.05349766 -0.02070947 -0.00019050136 -0.01983416 0.011005043 -0.055241384
0.032119885 -0.03656742 0.031149281 -1.0447762e-05 -0.057320327 -0.0025281226 0.06304172 -0.020643266
-0.0140533615 -0.038801864 -0.0024693052 -0.040025063 -0.042237215 -0.05837324 0.045089215 0.03345239
0.011893875 0.02118081 0.062456068 0.020596623 0.060570084 -0.043638766 -0.0011364256 0.05437129
0.023867227 0.034797415 0.037692044 0.03152252 0.025485901 -0.012405642 -0.02480045 0.06961655
-0.060761876 0.058791153 0.032243248 -0.067608275 0.001575655 0.0068572513 -0.045354646 -0.016239502
0.054919243 0.058946922 0.012393963 0.017252835 -0.029419597 -0.04004577 -0.025145272 0.015134159
0.005832396 0.030271417 0.011328578 -0.06821952 -0.04244161 0.0141223455 -0.052266024 0.05785829
-0.045827445 0.009050395 -0.048836295 0.010259888 -0.06904813 0.048683718 0.058635946 0.059125103
-0.00200642 0.040729716 -0.066290885 -0.046053912 0.00040744562 -0.036252316 0.06524383 -0.0047582802
0.017080095 0.04557686 0.06382003 -0.004446792 -0.0007836785 -0.0536563 0.06857955 0.053219806
0.056460403 0.06709688 -0.043326214 -0.003357938 -0.057392795 0.05058238 0.067487456 0.059314452
0.022105802 -0.02399125 0.0372346 0.039582722 0.02575394 0.00741673 -0.005949448 -0.020040598
-0.0069772564 -0.05692271 -0.012443101 0.015381494 0.0024019757 -0.013304075 0.048977207 0.010779207
0.01328656 0.0519092 0.050871715 0.029306637 0.012128791 -0.06448102 -0.034417696 0.034877945

model_cnn.conv_layers.4.1.weight f4 [128]
00000000: bf92 7f3f de39 803f 3204 803f e287 7f3f
00000010: cd6e 803f fd6d 803f 9ea7 803f 7e5e 803f
00000020: 64c7 803f 3fd3 803f 5217 803f 1606 803f
00000030: a0bb 803f 6c4a 803f 981e 803f 6ea0 803f
00000040: 4f0c 803f 2724 7f3f 0046 803f 0957 803f
00000050: 594e 803f 144f 803f 0924 803f b8b6 7f3f
00000060: afd9 7f3f 7033 803f 933e 803f 9836 803f
00000070: b1fe 7f3f 92cb 803f cd59 7f3f 9a45 803f
00000080: 8472 803f d38b 803f 44a8 803f c97b 803f
00000090: 3c8a 7f3f 6965 803f cb30 803f 5e19 7f3f
000000a0: fc04 803f 3f68 803f 731e 803f 1516 803f
000000b0: 9b68 7f3f d21e 803f bca7 803f df75 803f
000000c0: 9f2b 803f 83ae 803f 82a4 7f3f c74f 803f
000000d0: d5c7 803f 369c 803f 14ba 803f 86b9 803f
000000e0: b28d 803f 9dd0 803f 2006 803f 3576 803f
000000f0: 1c3b 803f 4b90 7f3f 4fbe 803f 9414 803f
00000100: d72d 803f da0d 803f 7b39 7f3f 41d6 803f
00000110: 5658 7f3f aa5b 7f3f bf6e 803f 322f 803f
00000120: 8274 803f dca2 7f3f 54c7 803f 5d0f 803f
00000130: bc0f 803f 6d18 803f 0e3c 803f 3456 803f
00000140: 8997 803f 2320 803f 769b 803f f851 803f
00000150: c284 803f 66f0 7f3f af26 803f 20a4 803f
00000160: c995 803f 8373 803f b749 803f 2848 803f
00000170: 1552 803f 4a27 803f a7ae 803f 37a3 7f3f
00000180: ba30 803f 414c 803f 0607 803f a773 803f
00000190: d40a 803f 3060 803f 1d2f 803f bd11 803f
000001a0: 34a0 803f e921 803f 6099 803f 6734 803f
000001b0: 1891 803f 5913 803f 275c 803f 3d0b 803f
000001c0: 9085 803f 6936 803f da21 803f 3d4d 803f
000001d0: cd2a 803f 4e6b 803f a2cc 803f 6d43 803f
000001e0: 5628 7f3f ad3d 803f 0e87 803f 3a31 803f
000001f0: 5576 803f 4d74 803f 5bd1 7f3f ba69 803f
0.9983329 1.001766 1.000128 0.99816716 1.0033814 1.0033566 1.0051153 1.0028837
1.0060849 1.0064467 1.0007117 1.0001857 1.0057259 1.0022712 1.0009336 1.0048959
1.0003756 0.9966454 1.0021362 1.0026561 1.002391 1.0024133 1.0010997 0.9988818
0.99941534 1.0015697 1.0019096 1.0016661 0.99998003 1.0062125 0.997464 1.0021241
1.0034947 1.0042671 1.005135 1.0037776 0.99820304 1.0030948 1.001489 0.9964808
1.0001521 1.0031813 1.0009292 1.0006739 0.9976899 1.0009406 1.0051188 1.0035971
1.0013312 1.0053257 0.99860394 1.0024346 1.0060984 1.0047672 1.0056787 1.0056617
1.0043242 1.0063664 1.0001869 1.0036074 1.0018039 0.9982955 1.0058078 1.000628
1.0013989 1.0004227 0.99697083 1.0065385 0.99744165 0.99749243 1.0033797 1.0014403
1.0035555 0.9985788 1.006083 1.0004689 1.0004802 1.0007454 1.0018327 1.0026307
1.0046245 1.0009807 1.0047443 1.0025015 1.0040514 0.99976194 1.0011805 1.0050087
1.0045711 1.0035251 1.0022496 1.002202 1.002505 1.001199 1.00533 0.9985842
1.001487 1.0023271 1.0002143 1.0035294 1.0003304 1.0029354 1.0014378 1.0005413
1.004889 1.0010349 1.0046806 1.0015992 1.0044279 1.0005904 1.0028123 1.000343
1.004076 1.0016605 1.0010331 1.0023571 1.0013062 1.0032747 1.0062449 1.0020577
0.9967092 1.0018822 1.0041215 1.0015023 1.0036112 1.0035492 0.99928826 1.0032265

model_cnn.conv_layers.4.1.bias f4 [128]
00000000: b8ab 9aba e791 1c3b 1580 873a 57e5 95ba
00000010: fed2 753b b75f 5a3b 79ad ba3b a6a6 5b3b
00000020: da17 c53b 717e 273b 21dd 383b f8fc fab6
00000030: 8949 c63b b130 113b 7166 09ba ed0b 723b
00000040: 6cd7 dd39 cf52 83bb 42f6 163b d4e9 ca3a
00000050: f60a 073b a8d7 523b 690e 4c3a 4c10 1bba
00000060: 5bd0 9aba 1aec 1b3b f02c 103b c350 213b
00000070: a84e 38ba 96c4 cc3b c8cb 0fbb a2b6 113b
00000080: c064 ea3a abbe 0f3b 1668 b33b a66e 8d3b
00000090: 3f7b deba 063f 7c3b da89 db3a 812f 95bb
000000a0: 5440 c8b9 6649 693b 0def 453a 8c25 f039
000000b0: 76a3 85bb 13f6 9d3a e05e ad3b b373 c53b
000000c0: 5f83 263b a2a1 ae3b ee9c e9b9 39b9 4f3b
000000d0: aa90 ce3b 2c59 b93b f216 d63b 730d c73b
000000e0: c137 9a3b 3cbe cb3b c225 cb3a c71f f33a
000000f0: fdcc 9b3b 6b83 40ba 23f4 c63b 85ab 4b39
00000100: 3e3b 203b ab36 1f3b 5568 51bb 5cb1 b63b
00000110: a37f cbba 561d 07bb ed5a 143b 3625 2e3b
00000120: 43d5 213b 2c49 8138 4eba ce3b 1497 3f39
00000130: 742c 5e3a 4522 f03a 6b80 2c3b cbb3 2d3b
00000140: 785d ab3b 18a6 ea3a e719 a63b cd00 573b
00000150: a3af 863b 072e 4eb9 685d b23a 06b2 c43b
00000160: 6eaf 9b3b 9a7d 863b 8b19 533b c9a0 2e3b
00000170: ecf8 483b a819 763a 6600 bf3b 2683 13ba
00000180: 4e24 023b c44b 253b 00fc a73a 4bf9 c23b
00000190: f8b6 0d3b 0bcc 6f3b 1a6d 563b 0fbe 4d3a
000001a0: 8b90 a13b 0584 763a 1941 1e3b a600 d93a
000001b0: 2d43 a53b 0c5b e63a 355b 4b3b acdc 5cba
000001c0: 1db9 683b c961 913b bc0f 9f3a b40b 0c3b
000001d0: 9d2b 8738 faa5 8b3b c703 b63b 610f 853b
000001e0: 4679 54bb 29c1 153b 8a9c bd3b d702 f93a
000001f0: 9bff 403b 147a 753b 0039 213b ea07 883b
-0.0011800444 0.0023890676 0.0010337854 -0.0011436146 0.0037509794 0.003332121 0.005696949 0.0033516078
0.006014806 0.0025557543 0.0028207975 -7.48003e-06 0.0060512465 0.0022154266 -0.00052414 0.0036933378
0.00042312907 -0.0040076743 0.0023034965 0.0015481063 0.0020605898 0.0032171998 0.00077841297 -0.0005915209
-0.0011811362 0.002379185 0.002199944 0.0024614788 -0.00070307637 0.006249021 -0.0021941531 0.0022234102
0.0017882809 0.0021933715 0.0054750545 0.004316169 -0.0016973986 0.0038489713 0.0016749457 -0.004552782
-0.000381949 0.0035596727 0.0007550575 0.00045804342 -0.004078324 0.0012051485 0.005290851 0.0060257553
0.0025407893 0.0053293267 -0.00044558145 0.0031696095 0.0063038664 0.005656382 0.006533497 0.0060746013
0.0047063534 0.006217746 0.0015498924 0.0018548899 0.004754661 -0.00073438016 0.006071584 0.00019423485
0.0024449374 0.002429406 -0.0031953056 0.005575342 -0.001552571 -0.002061685 0.0022637204 0.0026572472
0.0024693764 6.164829e-05 0.0063088303 0.0001827146 0.0008475252 0.001832076 0.002632166 0.002650487
0.005229648 0.0017902283 0.005069006 0.0032806874 0.004110293 -0.00019662837 0.001360816 0.0060026674
0.0047511375 0.0041043283 0.003221127 0.0026646128 0.0030665947 0.00093879784 0.005828905 -0.00056271476
0.0019858065 0.0025222162 0.0012816191 0.005950128 0.002162395 0.0036590125 0.0032718838 0.00078484503
0.004930561 0.0009403828 0.0024147688 0.0016555979 0.0050434084 0.0017574742 0.0031029705 -0.00084252167
0.0035510727 0.0044367057 0.0012135427 0.002136928 6.445425e-05 0.0042617293 0.0055546495 0.004060671
-0.0032420917 0.0022850728 0.005786483 0.0018998039 0.0029449228 0.0037456797 0.0024600625 0.004151334
