checkpoint/transfer_cnn_features_1d_lirich_to_spinel5v_1114/retry_target_focus/best_model.pth (torch, 111202 bytes, 10 tensors)

model_cnn.conv1.weight f4 [32, 22, 3]
0	0xbde1f871	-0.110337146
1	0x3db441d5	0.08801619
2	0xbdab98b6	-0.08378737
3	0xbd9e0c50	-0.07717192
4	0xbd50a8f7	-0.050942387
5	0x3dbb9c36	0.09160654
6	0xbbb249c6	-0.0054409234
7	0x3d8e524e	0.06949292
8	0xbd77f5fb	-0.06053732
9	0xbd64b019	-0.055832002
10	0xbc7cbd59	-0.015426003
11	0x3c143909	0.009046801
12	0xbd6d32b9	-0.0579097
13	0x3ddac82a	0.106827095
14	0x3c8ab09e	0.01692992
15	0x3d7d0ef0	0.061781824
16	0x3de00d76	0.109400675
17	0x3d3e5f74	0.04647775
18	0x3c94667d	0.018115276
19	0x3df7556b	0.12076839
20	0xbd882ac9	-0.066487856
21	0x3d7ae0d1	0.061249558
22	0xbd001638	-0.03127119
23	0x3dde43ac	0.10852751
24	0x3de5630d	0.11200533
25	0xbdc76d03	-0.09737589
26	0x3df8cfe8	0.1214903
27	0x3d94f6e1	0.07273651
28	0x3d8f941b	0.07010671
29	0x3d8a8a75	0.0676469
30	0x3daa0fef	0.0830382
31	0xbc20dcfb	-0.009818311
32	0xbdf3f6b6	-0.11912291
33	0xbd5b07fe	-0.05347442
34	0xbda2f720	-0.079572916
35	0xbbce807a	-0.0063019367
36	0xbd1cbada	-0.038264133
37	0xbd452824	-0.048133984
38	0xbcbc8dad	-0.023016775
39	0x3e205b90	0.15659928
40	0x3d001895	0.031273443
41	0x3d49aff2	0.04924006
42	0xbcec8acb	-0.028874775
43	0x3b2a2590	0.002596233
44	0x3dacf26a	0.08444674
45	0x3dc8e283	0.09808829
46	0x3d937be6	0.07201366
47	0x3d7d66e8	0.061865717
48	0x3c97a561	0.018511476
49	0x3cf35edf	0.029708324
50	0xbd2ecaca	-0.042673863
51	0xbdeafdb1	-0.11474169
52	0xbda51dae	-0.080623016
53	0x3dc2303c	0.09481856
54	0xbc7797dd	-0.015111891
55	0xbdb3aa65	-0.087727346
56	0x3cd26b69	0.025685983
57	0x3dd955fe	0.10612105
58	0xbe08651d	-0.13319822
59	0xbdbb0d78	-0.09133428
60	0xbd370c26	-0.04468932
61	0xbc3fd106	-0.01170755
62	0xbd186e78	-0.037214726
63	0xbc98798a	-0.018612642
64	0xbdffe0cd	-0.12494049
65	0x3d5f1a22	0.05446828
66	0x3de8e45a	0.113716796
67	0x3dadb154	0.08481088
68	0xbd9b2e1c	-0.07577154
69	0xbe238526	-0.15968761
70	0xbcd9d6f8	-0.026591763
71	0xbd7e6871	-0.06211132
72	0xbd621d71	-0.05520386
73	0xbe43f2ae	-0.19135544
74	0xbdd9d113	-0.10635581
75	0x3d8595de	0.065227255
76	0x3cef7d95	0.029234687
77	0xbca86521	-0.020556035
78	0xbda4e460	-0.080513716
79	0xbdc25d38	-0.09490436
80	0xbe298f99	-0.16558684
81	0xbd91b8aa	-0.071153
82	0xbdcc6517	-0.09980219
83	0x3da22cf3	0.0791873
84	0x3d356646	0.04428699
85	0x3ca3d2f2	0.019998048
86	0xbdf62720	-0.12019181
87	0x3dc95e13	0.09832396
88	0x3d381761	0.04494417
89	0x3dbce36b	0.09223064
90	0xbca01e74	-0.019545771
91	0x3d679af3	0.056544255
92	0x3e18a35d	0.14906068
93	0x3de57795	0.11204449
94	0x3e049f98	0.12951505
95	0x3b5edbf3	0.0034005612
96	0x3d86256b	0.06550106
97	0xbdf5bb66	-0.11998634
98	0xbd090d1b	-0.033459764
99	0xbdc4dd99	-0.09612579
100	0xbd56f39c	-0.052478418
101	0xbd9b7e76	-0.0759248
102	0xbbacb2e8	-0.0052703507
103	0x3defb4ac	0.11704382
104	0x3d32d5ad	0.04366081
105	0xbd9bdc97	-0.076104335
106	0x3b13aac6	0.0022532209
107	0xbe210f52	-0.157285
108	0x3cca70ae	0.024711933
109	0xbd52f8a5	-0.051506657
110	0xbd739d05	-0.059475917
111	0xbb22102d	-0.002472888
112	0xbde26924	-0.1105521
113	0xbae56e60	-0.0017504208
114	0x3aaee016	0.0013341929
115	0x3d80e7e7	0.06294232
116	0xbd9fb632	-0.07798423
117	0x3cbe959d	0.0232647
118	0x3dcc0af9	0.0996303
119	0xbd9dd475	-0.077065386
120	0x3ddb6f2f	0.10714566
121	0xbd1a7e8c	-0.03771834
122	0x3d6baead	0.05753963
123	0x3ce7cdab	0.028296312
124	0x3bf62d6f	0.0075127403
125	0x3da1d48f	0.079018705
126	0xbd8ebeed	-0.0697001
127	0x3bb7f3b3	0.005613768
128	0xbc8fe4d1	-0.017565163
129	0xbdeb670b	-0.11494263
130	0xbd5778fe	-0.05260562
131	0xbdd75d65	-0.105158605
132	0x3d38174b	0.04494409
133	0x3abb8fc9	0.0014309819
134	0x3b787b4d	0.003791529
135	0xbd9b4412	-0.07581343
136	0xbd35440d	-0.04425435
137	0xbdb4d4a9	-0.08829624
138	0xbc92042d	-0.017824257
139	0x3d13af35	0.036055762
140	0xbce9e491	-0.028551372
141	0xbd9d8907	-0.076921515
142	0xbdce37a7	-0.100692086
143	0xbc7d2966	-0.015451765
144	0xbe159ae5	-0.14609869
145	0xbe2daeda	-0.16961232
146	0xbe0d656e	-0.13808224
147	0xbd2efacc	-0.042719647
148	0x3c038ee9	0.008029678
149	0x3dab1dc0	0.08355284
150	0x3d3c596a	0.04598371
151	0x3db9fdb8	0.09081596
152	0xbdabc0d8	-0.083863914
153	0x3c34b4a2	0.011029394
154	0xbddef0bf	-0.108857624
155	0x3d90b64c	0.0706602
156	0x3d0914e3	0.033467185
157	0x3e001032	0.12506178
158	0xbd9fdd5c	-0.07805893
159	0x3dda55ec	0.106609195
160	0x3de18504	0.11011699
161	0x3ddf308a	0.1089793
162	0x3b8ad69c	0.004237009
163	0x3dbdf1af	0.09274613
164	0x3db37fb7	0.08764594
165	0x3d9fd4a4	0.0780423
166	0xbce24ef2	-0.027625535
167	0xbdb67193	-0.08908381
168	0x3b4baa6e	0.0031076926
169	0xbc28c304	-0.010300402
170	0xbdc708e1	-0.097184904
171	0xbe0076de	-0.12545344
172	0xbe3b3f2d	-0.18285818
173	0xbdd3b385	-0.10336975
174	0x3dc4bf8a	0.09606846
175	0x3c3dd507	0.011586434
176	0xbcaa5c6e	-0.020796027
177	0xbc5a71de	-0.013332812
178	0x3d610615	0.05493744
179	0xbe042c28	-0.1290747
180	0xbddab087	-0.10678201
181	0xbd500e18	-0.05079469
182	0xbdad7bf1	-0.084709056
183	0x3d804456	0.06263034
184	0x3daebf6e	0.08532606
185	0xbdfa6654	-0.12226549
186	0xbde09cc2	-0.10967399
187	0xbdf86e5d	-0.12130425
188	0x3cad0cb7	0.021124227
189	0x3dbdea0d	0.09273157
190	0xbdd2092e	-0.10255657
191	0xbd838536	-0.06421892
192	0x3d04a899	0.03238735
193	0xbdb32fe7	-0.08749371
194	0x3dc67ba1	0.09691549
195	0x3cdb5fe0	0.026779115
196	0xbd290fe0	-0.041274905
197	0x3b1f1892	0.002427612
198	0x3d91897f	0.071063034
199	0xbbb5b01a	-0.0055446746
200	0xbd6186b1	-0.055060092
201	0x3d40baf5	0.047053296
202	0x3d8a1188	0.06741625
203	0x3d89f7ad	0.067366935
204	0x3c47c196	0.012192151
205	0x3e02877d	0.12746997
206	0x3d9138f7	0.07090943
207	0x3cbf5bef	0.023359267
208	0x3dd252f8	0.10269731
209	0xbcffb850	-0.031215817
210	0x3d8a77d7	0.06761139
211	0x3cdd301e	0.027000483
212	0x3e22af4e	0.15887186
213	0xbd7df8c3	-0.062004816
214	0x3c25af63	0.010112616
215	0x3c83c128	0.016083315
216	0xbdd784fb	-0.10523411
217	0xbdbf41c6	-0.09338717
218	0x3d231e6e	0.039823942
219	0xbd58ce01	-0.052930836
220	0x3d63f8cc	0.055657193
221	0xbe0f269a	-0.13979569
222	0xbd4bcae8	-0.049754053
223	0xbda7ba1e	-0.08189796
224	0x3d88ba90	0.06676209
225	0x3bef86cc	0.00730977
226	0xbb6e3c65	-0.0036351916
227	0xbb4ae519	-0.0030959307
228	0xbdd3ba08	-0.10338217
229	0x3d1c038e	0.038089328
230	0x3cc3d859	0.023906874
231	0xbdbc3306	-0.091894194
232	0x3d4ee905	0.050515193
233	0x3c97b086	0.01851679
234	0xbde9a87d	-0.1140909
235	0x3da3654b	0.079783045
236	0x3d80a6b8	0.06281799
237	0x3cd4e9d6	0.025990408
238	0xbc74c7fe	-0.01494026
239	0x3db22c80	0.08699894
240	0x3dcd9285	0.10037712
241	0x3df470ef	0.11935603
242	0xbdc33ae2	-0.095327154
243	0xbc5d3490	-0.013501301
244	0x3e181c8e	0.14854643
245	0x3decf37e	0.1156988
246	0x3dacc86d	0.08436666
247	0xbd581e29	-0.052763138
248	0x3dd8f835	0.10594217
249	0xbddcba4f	-0.10777723
250	0xbc841e8a	-0.016127843
251	0xbc15d066	-0.009143924
252	0x3d2a20e6	0.04153528
253	0xbd31a2ac	-0.043368027
254	0x3e1b5915	0.15170701
255	0x3defaa7f	0.117024414

model_cnn.conv1.bias f4 [32]
0	0xbde0a615	-0.10969178
1	0xbd890053	-0.06689515
2	0xbc6d1771	-0.014470921
3	0xbdd6a500	-0.1048069
4	0x3dace6fa	0.08442493
5	0xbcd1d7a0	-0.025615513
6	0xbb170e1e	-0.0023049186
7	0x3d58c32d	0.05292051
8	0x3c7e24dd	0.015511719
9	0x3de71c92	0.11284746
10	0x3da90768	0.08253366
11	0x3d3e7ed1	0.04650766
12	0xbdcbc62c	-0.09949908
13	0x3d1f68d0	0.038918316
14	0xbc63f682	-0.0139137525
15	0x3c64ef03	0.013973
16	0x3db31858	0.087448776
17	0xbcdcf845	-0.026973853
18	0xbcb25a00	-0.021771431
19	0xbdf09ef8	-0.11749071
20	0x3d5bcdaa	0.053662933
21	0xbc7aed77	-0.015315405
22	0xbd2d6e3e	-0.042341463
23	0x3d8e4969	0.069475956
24	0x3d8277bc	0.06370494
25	0x3d99e93d	0.0751519
26	0x3dfed120	0.12442231
27	0x3dd0098b	0.1015807
28	0x3e012c9f	0.12614678
29	0xbd8eb0d0	-0.06967318
30	0xbde200ea	-0.110353306
31	0x3da9f58e	0.08298789

model_cnn.conv2.weight f4 [64, 32, 3]
0	0x3d12bac4	0.035822645
1	0x3c18e5e7	0.009332157
2	0xbe0401ef	-0.12891363
3	0xbdc38740	-0.09547281
4	0x3d1c8821	0.03821576
5	0xbddd5f3e	-0.10809182
6	0xbdd36dd0	-0.103236794
7	0xbc733a72	-0.014845477
8	0x3d49c639	0.049261305
9	0xbc05fd76	-0.008178106
10	0xba130f7d	-0.0005609913
11	0xbb3a8a59	-0.002846381
12	0xbd8627bb	-0.06550547
13	0xbc33f9be	-0.010984836
14	0xbcdf22d8	-0.027238294
15	0xbc1dbf76	-0.009628167
16	0xbe03678a	-0.12832466
17	0xbda8112f	-0.082064025
18	0xbd9f2284	-0.07770255
19	0xbdae0dbf	-0.084987156
20	0x3d3f1030	0.046646297
21	0xbcf20f97	-0.02954845
22	0xbdde8df3	-0.108669184
23	0xbcc6b06f	-0.024254052
24	0x3cfb7313	0.03069452
25	0x3d97fb5e	0.07420991
26	0x3d791470	0.060810506
27	0xbd9c330b	-0.07626923
28	0x3d435940	0.047692537
29	0xbd9a8058	-0.07544011
30	0x3de1d280	0.11026478
31	0x3dcfb2b6	0.10141508
32	0xbd70f49c	-0.058827028
33	0x3bc30223	0.0059511825
34	0x3d193401	0.03740311
35	0x3c4a2a17	0.012339137
36	0xbdc44f7e	-0.095854744
37	0x3dbec93d	0.09315727
38	0xbd693fc3	-0.056945574
39	0x3d6a6069	0.05722085
40	0x3db700c6	0.089356944
41	0xbd8b6d21	-0.06807924
42	0xbd38c66a	-0.045111097
43	0xbd7ab7c1	-0.061210398
44	0x3db01b9d	0.08599017
45	0xbd105af2	-0.035242982
46	0xbda406ab	-0.08009084
47	0xbdaf63cf	-0.08563959
48	0xbcb6946d	-0.022287572
49	0x3d9ef608	0.077617705
50	0xbdbbe8db	-0.09175273
51	0xbd915ae8	-0.07097417
52	0xbdcfcaad	-0.10146079
53	0x3daebaa5	0.08531693
54	0x3d84f7f9	0.064926095
55	0x3d5714c4	0.052510038
56	0x3db76a78	0.08955854
57	0x3cf6b9e8	0.030117944
58	0x3d88c9fa	0.06679149
59	0xbce179b6	-0.027523857
60	0x3c459cd7	0.012061319
61	0xbd74f447	-0.059803274
62	0xbcf19561	-0.029490175
63	0xbbc8ea7b	-0.006131468
64	0xbd7b4884	-0.061348453
65	0xbd8b2b9a	-0.06795426
66	0xbcb2c983	-0.021824604
67	0x3da1d38f	0.0790168
68	0x3d887a75	0.06663982
69	0xbd5727f7	-0.052528348
70	0xbc41aea1	-0.01182142
71	0xbd83291d	-0.06404326
72	0x3d478fc1	0.04872108
73	0xbda01ae0	-0.07817626
74	0xbda84551	-0.08216346
75	0xbd0ace02	-0.03388787
76	0xbe372ac6	-0.1788741
77	0xbe08b851	-0.13351561
78	0x3d520c9a	0.05128155
79	0xbcc13ec1	-0.023589494
80	0xbd25080b	-0.040290873
81	0x3d9a6155	0.07538096
82	0xbcaab43c	-0.020837896
83	0x3db7875c	0.089613646
84	0xbd72a8a4	-0.05924286
85	0xbdb01b1f	-0.08598923
86	0x3d3c516c	0.045976087
87	0xbdd3a047	-0.10333305
88	0xbdd25ee2	-0.10272004
89	0x3cbd4f6e	0.023109164
90	0xbdcb45ef	-0.09925448
91	0x3b49fb76	0.0030820048
92	0xbdcea91d	-0.100908495
93	0x3dde6145	0.108583964
94	0x3ceb2c10	0.028707534
95	0x3dbd705f	0.09249949
96	0xbd87d236	-0.066318914
97	0x3d73300b	0.05937199
98	0x3cdc788f	0.026912956
99	0x3ddfc4be	0.109261975
100	0x3ce97ca8	0.028501824
101	0x3e24ae28	0.1608206
102	0x3e06179d	0.13094945
103	0x3da632bc	0.081151456
104	0xbcdf215a	-0.027237583
105	0x3d26b0c0	0.040695906
106	0xbe0a2153	-0.13489275
107	0x3c9656c7	0.018351926
108	0x3d4ab92a	0.049492992
109	0x3d557b2b	0.052119415
110	0x3d0322a0	0.032015443
111	0x3dde66df	0.10859465
112	0xbd00a05f	-0.03140294
113	0x3dce2967	0.100664906
114	0x3c53bc73	0.012923348
115	0xbcc978e0	-0.02459377
116	0x3c41e9bc	0.011835512
117	0x3ce27b4b	0.027646681
118	0x3df74289	0.120732374
119	0x3d392b2f	0.0452072
120	0x3d2b71cc	0.041856572
121	0x3d9adb04	0.07561305
122	0x3c8f69aa	0.01750644
123	0xbcdf79f9	-0.02727984
124	0xbd18466f	-0.037176546
125	0xbde8c386	-0.11365418
126	0xbdeda89f	-0.116044275
127	0xbb2426dd	-0.0025047578
128	0xbcdcbd9f	-0.026945887
129	0x3c71afec	0.014751416
130	0xbdd51294	-0.10403934
131	0x3d2f689b	0.04282437
132	0xbcb6b912	-0.022305045
133	0x3ce455c5	0.02787293
134	0xbd7e6e22	-0.06211675
135	0xba9a6c75	-0.001178159
136	0x3cf68749	0.030093806
137	0xbdc9205a	-0.09820624
138	0x3c02a2d8	0.007973395
139	0xbd174af6	-0.036936723
140	0x3da901c3	0.08252289
141	0xbcfd57fc	-0.030925743
142	0xbd8ecff6	-0.06973259
143	0xbd9ab9e1	-0.07554985
144	0xbc1f61b6	-0.009727886
145	0x3d3c0949	0.045907293
146	0x3d0267ec	0.03183739
147	0x3d9af584	0.0756636
148	0x3d7d9c65	0.061916728
149	0x3a982ab5	0.0011609407
150	0x3bd9c304	0.006645562
151	0xbd8671cd	-0.065646745
152	0x3c75e55b	0.015008296
153	0x3d7afc8c	0.061276004
154	0xbc9bf963	-0.019039815
155	0x3b959a76	0.0045655323
156	0xbd9fe4ec	-0.07807335
157	0x3d81b97e	0.06334208
158	0x3dbf8d23	0.093530916
159	0x3d977c20	0.07396722
160	0x3cb801ff	0.02246189
161	0xbd748335	-0.05969544
162	0xbcb2cd08	-0.021826282
163	0xbd8f4dbc	-0.069972485
164	0xbd9a2d0c	-0.07528123
165	0x3dd814da	0.10550852
166	0x3c8ed32f	0.017434685
167	0xbd6cfc3d	-0.05785774
168	0x3b7b0d6c	0.003830756
169	0x3d89dcd3	0.06731572
170	0x3baaa038	0.005207088
171	0x3e04743f	0.1293497
172	0x3deb83c0	0.11499739
173	0xbd08534f	-0.033282574
174	0xbd4e0dc7	-0.050306108
175	0x3b8f9701	0.0043820147
176	0xbd1190e9	-0.035538588
177	0x3d984bd1	0.07436336
178	0x3d53636e	0.051608495
179	0xbd798671	-0.06091923
180	0x3c9579f7	0.018246634
181	0xbd6e38d3	-0.05815966
182	0xbda8a84d	-0.08235226
183	0xbdb8d6c0	-0.09025335
184	0x3b857680	0.004072964
185	0x3d1664f3	0.036717366
186	0xbcbc74da	-0.023004938
187	0xbc3fa438	-0.011696868
188	0x3dc3245f	0.095284216
189	0x3daa22af	0.083073966
190	0xbcff8692	-0.031192098
191	0xbd39ab23	-0.045329224
192	0x3df18e46	0.11794715
193	0x3c280833	0.010255861
194	0x3df3bf0c	0.11901674
195	0x3df635d8	0.12021989
196	0x3dd44d41	0.103662975
197	0x3d653c1f	0.05596554
198	0x3d830ca0	0.063988924
199	0x3c902b99	0.017598914
200	0x3dd3c86d	0.103409626
201	0xbc715adb	-0.014731134
202	0x3d340bd0	0.043956578
203	0xbdd9fd92	-0.10644068
204	0x3d9e4410	0.07727826
205	0x3d676786	0.056495212
206	0xbd765c9b	-0.06014691
207	0x3d841f10	0.06451237
208	0x3d2b4059	0.041809414
209	0xbced63d7	-0.028978271
210	0xbdba8ae7	-0.09108525
211	0x3bdb5a7a	0.0066941353
212	0x3b8c0959	0.0042735753
213	0xbba7ce6d	-0.0051210434
214	0xbcee6c76	-0.029104453
215	0x3c6dff56	0.014526209
216	0x3d0cb20e	0.034349494
217	0x3db5a54c	0.088694185
218	0x3daf7a9c	0.08568308
219	0xbd9c6313	-0.076360844
220	0x3d884a1f	0.066547625
221	0xbdb806f2	-0.089857
222	0xbdf02b18	-0.117269695
223	0xbde0cd9f	-0.10976719
224	0x3c46d3f7	0.012135497
225	0xbd8c33fc	-0.06845853
226	0x3d3757d5	0.044761498
227	0xbda7f529	-0.082010575
228	0xbd1e2fde	-0.03861987
229	0xbdf1979f	-0.117964976
230	0x3cef3ef5	0.029204825
231	0xbb97d347	-0.0046333405
232	0x3d835b4c	0.06413898
233	0xbd9763aa	-0.07392056
234	0x3be3cc16	0.006951819
235	0x3dabfe50	0.08398116
236	0x3bb34657	0.0054710316
237	0xbd266466	-0.04062309
238	0xbd1ea7f3	-0.038734388
239	0xbd940323	-0.07227161
240	0x3c09854b	0.008393596
241	0x3d6f24b6	0.05838462
242	0x3ccbf928	0.02489908
243	0xb8f95d96	-0.00011890677
244	0xbde086e0	-0.10963225
245	0xbd151209	-0.036394153
246	0xbd6d92af	-0.058001217
247	0xbdd7fe97	-0.10546606
248	0x3d04de76	0.032438718
249	0x3da25a97	0.07927435
250	0xbcc371e1	-0.023858013
251	0x3d8ec92e	0.06971966
252	0x3db0f76b	0.08640941
253	0xbbe2f2e9	-0.00692593
254	0x3c4588ac	0.012056511
255	0xbdde07f2	-0.10841359

model_cnn.conv2.bias f4 [64]
0	0x3dd0fdad	0.10204635
1	0xbc5a5412	-0.013325708
2	0xbbebe7dc	-0.0071992707
3	0x3d14a5fe	0.036291115
4	0x3c028183	0.007965448
5	0x3d9cbe38	0.07653469
6	0xbda2da5c	-0.07951805
7	0x3c2a9409	0.010411271
8	0x3db5be8b	0.08874234
9	0xbac3a750	-0.0014927182
10	0x3d866898	0.065629184
11	0xbae41c19	-0.0017403393
12	0xbdbf0668	-0.09327394
13	0xbdad67b3	-0.08467045
14	0xbd46b359	-0.048510883
15	0xbd1e1ae1	-0.038599852
16	0x3d7818a0	0.06057036
17	0xbd4c859f	-0.04993212
18	0xbdb66fbf	-0.089080326
19	0xbd19a6b9	-0.037512515
20	0x3d8ed88d	0.069748975
21	0xbdaca027	-0.08428984
22	0x3c48792a	0.012235919
23	0xbab897b5	-0.0014083298
24	0x3d4aaf67	0.049483683
25	0xbd7945ba	-0.060857512
26	0xbdaf4dd4	-0.085597664
27	0xbdc140e6	-0.094362065
28	0x3cba91a6	0.022774529
29	0xbcdbb6ad	-0.026820505
30	0xbc17b283	-0.009258869
31	0x3d634076	0.055481397
32	0x3b531c37	0.0032212862
33	0xbd2c9090	-0.042130053
34	0x3d4c4a22	0.049875386
35	0x3d94c71f	0.07264542
36	0xbcd52166	-0.026016902
37	0x3caf70a8	0.021416023
38	0xbc7d8bc6	-0.015475219
39	0x3dc41849	0.095749445
40	0x3bda3681	0.0066593294
41	0x3dc16175	0.094424166
42	0xbd940b29	-0.07228691
43	0x3d4b4703	0.04962827
44	0xbdc0ba57	-0.094105415
45	0x3d36289a	0.044472314
46	0x3c505bc4	0.012717191
47	0xbdbc680d	-0.091995336
48	0x3d813e37	0.06310695
49	0x3da53402	0.0806656
50	0xbc684c0f	-0.01417829
51	0x3b460fe9	0.0030221886
52	0xbcc3e7d1	-0.02391425
53	0xb9f061ca	-0.00045849226
54	0xbdcc5102	-0.099763885
55	0x3abe7b83	0.0014532659
56	0xbc2e4c6c	-0.010638338
57	0x3d34f6b2	0.04418058
58	0x3d97fb6a	0.07421
59	0x3da3d9f8	0.080005586
60	0x3b011dcb	0.0019701596
61	0x3dc89100	0.097932816
62	0x3db35f13	0.08758368
63	0x3da52741	0.08064128

model_cnn.fc1.weight f4 [256, 64]
0	0xbc1e891f	-0.009676247
1	0x3dab0226	0.08350019
2	0x3d877cf2	0.06615628
3	0xbd3f05b8	-0.046636313
4	0x3d809ff0	0.06280506
5	0x3cbd1ecc	0.023085974
6	0x3d988cec	0.07448754
7	0x3e0a61a0	0.13513803
8	0x3aeca063	0.001805317
9	0xbe02d947	-0.12778197
10	0x3dea8bf0	0.11452472
11	0xbd70cf8b	-0.05879168
12	0xbdc2ab8c	-0.09505376
13	0xbdf254ac	-0.11832556
14	0x3de0005f	0.10937571
15	0x3c4c1eeb	0.012458543
16	0xbd8673b2	-0.06565036
17	0x3d3b1f9a	0.045684434
18	0xbda70f42	-0.08157207
19	0xbda23b4b	-0.079214655
20	0xb985534b	-0.00025429795
21	0x3cee81f4	0.0291147
22	0xbd268f7a	-0.040664174
23	0xbda69ea9	-0.08135731
24	0x3db0ae81	0.08627034
25	0xbcdb4f3f	-0.026771186
26	0xbdceed22	-0.10103823
27	0x3e03b4a7	0.12861882
28	0x3cd4c49f	0.025972662
29	0xbde8af25	-0.11361531
30	0x3d0e1fa0	0.03469813
31	0x3d6bef1c	0.05760108
32	0x3dc6c17c	0.09704873
33	0x3cec29c1	0.028828504
34	0x3de318de	0.110887274
35	0x3dbe421c	0.09289953
36	0xbd78ac77	-0.06071135
37	0x3d60da8a	0.054895915
38	0xbe11a4d0	-0.14223027
39	0x3cfde900	0.030994892
40	0x3da8f4fe	0.082498536
41	0x3dd634c9	0.10459287
42	0x3d7a3afd	0.06109141
43	0x3dc8ecc3	0.09810784
44	0x3dfc7393	0.123267315
45	0xbd98e5b6	-0.07465689
46	0x3deca1a9	0.11554272
47	0xbc443360	-0.011975139
48	0xbdd869c9	-0.10567052
49	0x3b67c8de	0.003536753
50	0x3d13811e	0.036011808
51	0xbd0b96b1	-0.034079257
52	0x3cd47879	0.025936352
53	0x3d95b123	0.07309177
54	0x3d4fddec	0.05074875
55	0xbd10f18b	-0.035386603
56	0xbdf43ac0	-0.11925268
57	0xbd4ed5f1	-0.050497
58	0x3d049724	0.0323707
59	0x3d42021c	0.047365293
60	0xbd613975	-0.054986436
61	0x3db5d0db	0.08877727
62	0x3d5f525a	0.054521896
63	0x3cfa8351	0.030580195
64	0xbd4562db	-0.04818998
65	0x3e0b0632	0.13576582
66	0x3d260245	0.04052951
67	0x3e16f394	0.14741355
68	0x3cd16ec0	0.025565505
69	0xbcd6aed7	-0.026206417
70	0xbdb9a2b8	-0.09064239
71	0x3d9f2163	0.0777004
72	0x3d247231	0.040147964
73	0xbdf2b44c	-0.11850795
74	0x3d31109f	0.04322874
75	0x3d037a04	0.032098785
76	0x3dbd98c9	0.09257657
77	0xbde2953a	-0.11063619
78	0x3d8aadc6	0.06771426
79	0xbdb4a85e	-0.08821176
80	0xb98e321e	-0.0002712169
81	0x3dab5c41	0.083672054
82	0xbcb011e1	-0.0214929
83	0xbb90f74b	-0.004424011
84	0x3bbf94d1	0.0058465977
85	0xbdb8d0ea	-0.09024222
86	0xbd962599	-0.0733139
87	0x3db26b31	0.087118514
88	0xbcae64ec	-0.021288358
89	0x3de34be9	0.11098463
90	0x3cea1aaf	0.028577177
91	0xbd8bc387	-0.06824403
92	0x3df7221c	0.12067053
93	0xbd362a71	-0.04447407
94	0xbd9a6d0b	-0.075403295
95	0x3df8311e	0.12118743
96	0x3db717d1	0.089400895
97	0xbdd7ab9a	-0.10530777
98	0xbc154841	-0.009111465
99	0xbcac58da	-0.021038461
100	0x3cc2f82a	0.023799974
101	0x3c96472b	0.018344482
102	0x3d93b5c3	0.07212403
103	0x3d4b69d3	0.04966147
104	0xbe0bd5a0	-0.1365571
105	0x3db53cba	0.08849473
106	0xbb98ebf3	-0.004666799
107	0x3d5d96a1	0.05409873
108	0xbc894e49	-0.016760962
109	0x3d44c1d2	0.048036404
110	0x3d1ff7e0	0.03905475
111	0x3dcc7a07	0.09984212
112	0xbda43f73	-0.080199145
113	0xbc826a61	-0.015919866
114	0xbbc55f4e	-0.006023324
115	0x3da9e67d	0.08295915
116	0xbd5fa58d	-0.05460124
117	0x3bd2dabe	0.0064347675
118	0xbda6ab4e	-0.081381425
119	0xbe152063	-0.14563136
120	0x3a8d5bf5	0.0010784852
121	0x3e0e1765	0.13876112
122	0x3c8c71d5	0.017144123
123	0x3dd2aaf2	0.102865115
124	0xbd7a2444	-0.06106974
125	0x3d5b3088	0.05351308
126	0xbd9a20e7	-0.07525807
127	0x3dfd5a07	0.12370687
128	0x3dce7c32	0.10082282
129	0xbd8c7ff6	-0.06860344
130	0xbdf12187	-0.11773973
131	0xbda21e84	-0.07915977
132	0xbdcae56f	-0.09907042
133	0x3e0f3483	0.13984875
134	0xbc60eb53	-0.013727981
135	0x3d0c38e4	0.034233943
136	0x3d6cd2b8	0.057818145
137	0x3dc7113d	0.09720085
138	0x3d8df4eb	0.0693148
139	0x3e1d419d	0.1535706
140	0xbd2b0aa5	-0.0417582
141	0x3e098e3a	0.13433161
142	0x3cdcf1f8	0.026970848
143	0x3d9bfbc3	0.07616379
144	0x3c12519e	0.008930592
145	0xbad0fe2e	-0.0015944892
146	0xbe19cbcd	-0.1501915
147	0xbe02679a	-0.12734833
148	0xbdc9ac6d	-0.09847341
149	0x3d2b8fa3	0.04188503
150	0x3ccbef3b	0.024894347
151	0x3d8faf47	0.070158534
152	0x3db7d0e2	0.08975388
153	0x3d4b6f9f	0.049666997
154	0x3d6e4dd8	0.058179706
155	0xbd88fd5a	-0.06688948
156	0xbdd27b4d	-0.10277424
157	0x3e0bed61	0.13664772
158	0x3d0ab0ae	0.0338599
159	0xbd9cde69	-0.07659609
160	0xbc82cf44	-0.015967973
161	0x3cd7ac68	0.026327327
162	0xbc6f44a9	-0.014603772
163	0x3d567ee6	0.052367114
164	0x3d8f4b48	0.06996781
165	0x3df6482e	0.12025486
166	0x3dd66f75	0.104704775
167	0x3dbca2a5	0.092107095
168	0xbc44fd06	-0.012023216
169	0x3dc6a872	0.09700097
170	0x3db02615	0.086010136
171	0xbdfd0b0b	-0.12355622
172	0x3b19a61b	0.0023444954
173	0xbdf9031c	-0.12158796
174	0xbd9b5617	-0.0758478
175	0x3c4a7be5	0.01235864
176	0xbe09b003	-0.1344605
177	0xbde0f42d	-0.10984073
178	0x3d558a89	0.05213407
179	0xbd06e7ab	-0.03293578
180	0xbda0167e	-0.0781679
181	0x3d893d3e	0.06701134
182	0xbdcbd26f	-0.099522464
183	0x3dfab5dc	0.12241718
184	0x3de5b682	0.11216451
185	0xbdb42348	-0.08795792
186	0xbd82922d	-0.06375537
187	0xbd512da0	-0.051068902
188	0x3de02704	0.10944942
189	0xbda3e3fd	-0.0800247
190	0xbd2a74d7	-0.041615333
191	0x3d7e817d	0.06213521
192	0x3ded27ec	0.1157988
193	0xbdaef7bf	-0.085433476
194	0xbddf4936	-0.10902636
195	0xbdd5c95d	-0.104387976
196	0x3ddf8217	0.109134845
197	0xbd9fcdd0	-0.078029275
198	0xbd7d48da	-0.061837055
199	0x3d5ab5e0	0.053396106
200	0xbd47e95c	-0.048806533
201	0x3dc40b5e	0.095724806
202	0xbdde5e99	-0.10857887
203	0xbdaebee7	-0.085325055
204	0x3de34dee	0.11098848
205	0xbd2bf4bf	-0.041981455
206	0x3de3ba05	0.11119465
207	0x3d618e5e	0.055067413
208	0x3bf4d19b	0.007471276
209	0xbd938e45	-0.0720487
210	0x3de4cd17	0.1117193
211	0xbcde9a79	-0.027173268
212	0xbdabe355	-0.083929695
213	0x3c9f7bde	0.019468244
214	0xbdb48f0e	-0.08816348
215	0xbcdf3004	-0.027244575
216	0xbd5d5242	-0.054033525
217	0xbd189fa1	-0.03726161
218	0xbd2a5e56	-0.041593872
219	0x3db05606	0.08610158
220	0x3d96c19b	0.07361146
221	0xbd2954ec	-0.041340753
222	0x3d568722	0.052374966
223	0x3dd39a87	0.10332208
224	0xbdd30f78	-0.10305685
225	0x3d04fa25	0.03246512
226	0xbd978305	-0.07398037
227	0x3ccc0294	0.024903573
228	0x3d93fc00	0.072257996
229	0x3cdf90fa	0.02729081
230	0x3dc4af6e	0.09603773
231	0xbc822101	-0.015884878
232	0xbd096ba2	-0.033549912
233	0x3dc051bf	0.09390592
234	0xbd3e28e7	-0.046425726
235	0x3db91747	0.09037643
236	0x3da6dfff	0.081481926
237	0xbde266fa	-0.110547975
238	0x3dd34ccf	0.103173845
239	0x3c016f06	0.007900005
240	0xbd2d8de6	-0.042371653
241	0xbdabe5ca	-0.08393438
242	0x3d605ac5	0.054774065
243	0x3b648478	0.0034868997
244	0x3dc65fc7	0.09686237
245	0xbd3eb643	-0.046560537
246	0x3daad240	0.08340883
247	0x3c154cce	0.00911255
248	0xbdba03dd	-0.09082768
249	0xbdfb1601	-0.12260056
250	0xbd9509e1	-0.07277275
251	0xbdb6911c	-0.08914396
252	0x3d99aa0c	0.07503137
253	0xbd8ef74f	-0.06980764
254	0xbc276b6e	-0.010218484
255	0xbd0f8966	-0.035043143

model_cnn.fc1.bias f4 [256]
0	0x3d8835c6	0.066508815
1	0xbdb9790b	-0.0905629
2	0x3dd525a8	0.10407573
3	0x3d3bf876	0.045891248
4	0x3b842069	0.004032184
5	0xbd5fa6bd	-0.054602373
6	0xbd451859	-0.048118923
7	0x3d3de794	0.04636343
8	0xbcb3607f	-0.021896599
9	0x3d67037d	0.05639981
10	0xbd0cc805	-0.03437044
11	0x3dd03cff	0.10167884
12	0x3dcf2a0e	0.10115443
13	0xbdc31048	-0.0952459
14	0xbcae8f98	-0.021308705
15	0xbd1be84b	-0.03806333
16	0xbce151a0	-0.027504742
17	0xbba90014	-0.00515748
18	0x3daf7637	0.085674696
19	0x3c05b985	0.008161907
20	0x3de42cfa	0.11141391
21	0x3dee6de9	0.116420574
22	0xbe02223d	-0.12708373
23	0x3d8fb1ac	0.0701631
24	0x3dbb4c3f	0.09145402
25	0x3d532375	0.051547486
26	0x3c9d4994	0.019200124
27	0x3cbe7285	0.023247967
28	0x3da0d560	0.07853198
29	0xbdc8f6da	-0.09812708
30	0xbcc8ca31	-0.024510475
31	0x3d631fc7	0.055450227
32	0xbdd85098	-0.10562247
33	0x3cac1db6	0.021010261
34	0xbda3043f	-0.07959794
35	0x3cb21036	0.021736246
36	0xbd4e0633	-0.05029888
37	0xbd194534	-0.037419513
38	0x3bf25742	0.007395656
39	0x3d9b9c6e	0.07598196
40	0x3bbdbb18	0.0057901256
41	0x3cb7df58	0.022445366
42	0xbd7dcd88	-0.061963588
43	0x3b5b462a	0.003345857
44	0xbbaa40d4	-0.0051957164
45	0x3c9c4aef	0.0190787
46	0xbca5bf4b	-0.020232817
47	0xbe07a8b2	-0.13247946
48	0xbd1939aa	-0.03740851
49	0xbd10749a	-0.03526745
50	0x3d07ffae	0.03320282
51	0x3ce484d7	0.027895374
52	0xbdd3e2fe	-0.1034603
53	0x3d74de65	0.059782404
54	0xbd13d115	-0.036088068
55	0xbe061310	-0.1309321
56	0xbbad9221	-0.005296961
57	0x3d93afef	0.07211291
58	0x3be34a62	0.0069363574
59	0x3dfb9805	0.12284855
60	0x3c4560da	0.012047017
61	0xbd34c06d	-0.044128824
62	0xbe004e2f	-0.12529825
63	0xbc78bed9	-0.01518222
64	0x3e057548	0.1303302
65	0x3d95f5f5	0.07322303
66	0x3d2ff9e9	0.042962942
67	0xbd665e04	-0.056242004
68	0x3d3dcde9	0.04633895
69	0x3d656895	0.05600794
70	0x3d18f9a9	0.03734747
71	0x3db56b66	0.08858375
72	0xbdbf27b4	-0.09333745
73	0x3dd11f57	0.10211056
74	0x3d5942f8	0.053042382
75	0xbd2a5619	-0.041586015
76	0xbceb46d1	-0.028720291
77	0x3de15f0f	0.11004459
78	0x3dcd1cc8	0.10015255
79	0x3cfa2f95	0.030540267
80	0xbd7fcc57	-0.062450733
81	0x3da7f40c	0.08200845
82	0xbd096b87	-0.03354981
83	0x3c3d3f06	0.0115506705
84	0xbd8bdd33	-0.068293
85	0xbc33338e	-0.010937585
86	0xbdacd96b	-0.08439907
87	0x3cac687e	0.02104592
88	0x3de93ee0	0.113889456
89	0x3db6a36b	0.08917888
90	0x3d909822	0.07060267
91	0x3d684a8a	0.05671171
92	0x3c63d4ca	0.013905713
93	0xbdb1f33b	-0.08688971
94	0xbc00be90	-0.007857934
95	0x3d97bc8b	0.074090086
96	0xbd9dc381	-0.07703305
97	0x3d961998	0.073291
98	0x3d110870	0.035408437
99	0xbe026074	-0.12732106
100	0xbd05b13a	-0.03263972
101	0x3db0e4f8	0.08637422
102	0xbb7ca596	-0.0038550845
103	0xbd26f86a	-0.04076425
104	0x3e18dc77	0.1492785
105	0xbdbf4a2d	-0.0934032
106	0x3ce66dcf	0.028128533
107	0xbd7cf145	-0.06175353
108	0xbd317dc0	-0.043332815
109	0x3cd8a0db	0.02644389
110	0x3d3b15da	0.045675136
111	0xbdb94338	-0.09046024
112	0xbdc10875	-0.09425441
113	0xbc9febfa	-0.019521702
114	0xbd558906	-0.05213263
115	0x3dd7d323	0.10538318
116	0xbda5da71	-0.08098305
117	0xbd1fe2d8	-0.039034694
118	0xbdade7f7	-0.084915094
119	0x3ddd0b01	0.107931145
120	0xbdd5a3fd	-0.10431669
121	0x3df102d0	0.117681146
122	0xbc918d1e	-0.017767485
123	0x3d8fef38	0.07028049
124	0xbdac1995	-0.08403317
125	0x3dc6ace1	0.09700943
126	0xbd849fbf	-0.06475782
127	0xbd8f917d	-0.070101716
128	0xbc85f2c2	-0.016351108
129	0x3dbffc73	0.09374323
130	0xbd842e44	-0.06454137
131	0x3ddea8a0	0.108720064
132	0x3df0c365	0.117560185
133	0x3e00b712	0.12569836
134	0xbd1b593f	-0.03792691
135	0xbd75d273	-0.060015153
136	0x3cce7dcd	0.02520647
137	0xbd68a232	-0.056795307
138	0xbbdcc613	-0.0067374795
139	0xbd848424	-0.06470516
140	0xbceefa5c	-0.029172115
141	0xbd21924a	-0.039446153
142	0x3d80b434	0.06284371
143	0xbd58ea7b	-0.052957993
144	0xbd8f0848	-0.069840014
145	0x3d9c1608	0.076213896
146	0xbcf354d1	-0.02970353
147	0x3e03f05a	0.12884656
148	0x3db63853	0.08897462
149	0xbdbc0f60	-0.0918262
150	0xbd94fe73	-0.07275095
151	0x3d3a6289	0.045504127
152	0x3cc15453	0.02359978
153	0x3deb2fba	0.114837125
154	0xbd08382a	-0.033256687
155	0xbd47d1b3	-0.04878397
156	0xbd8f6ba4	-0.07002953
157	0xbca72402	-0.020402912
158	0xbd9d669d	-0.076855876
159	0xbd37c5b8	-0.044866294
160	0x3e0387a7	0.12844716
161	0x3c12d28a	0.008961329
162	0x3caa59a5	0.020794699
163	0xbd6cfe49	-0.057859693
164	0x3d848489	0.064705916
165	0xbd99fea9	-0.07519276
166	0xbdef09dc	-0.116718024
167	0xbb1d2c0d	-0.0023982555
168	0x3d25c7af	0.040473636
169	0x3d9b6b27	0.07588797
170	0x3db6e2c2	0.08929969
171	0x3a32626d	0.0006804828
172	0xbcf76289	-0.030198352
173	0x3d6c21cd	0.057649422
174	0xbd5274ff	-0.051381107
175	0xbdcda914	-0.10042015
176	0xbd83a50e	-0.06427966
177	0x3d8e7fc6	0.069579646
178	0x3e0bfd26	0.13670787
179	0xbd8ff822	-0.070297495
180	0x3a6c0b33	0.00090043544
181	0xbdd5a6eb	-0.10432228
182	0x3cffe916	0.031239074
183	0x3e062122	0.13098577
184	0xbd0cc4f8	-0.03436753
185	0x3db18d48	0.086695254
186	0xbd877c3a	-0.06615491
187	0x3ddc5acf	0.10759508
188	0xbdd37a34	-0.10326043
189	0x3dcf719d	0.10129092
190	0xbd49d00f	-0.049270686
191	0xbdb08ad0	-0.086202264
192	0x3d73f5f0	0.059560716
193	0x3cf0d957	0.02940051
194	0xbdc9d7ef	-0.09855639
195	0xbd81c7f2	-0.06336965
196	0xbcb5f9b9	-0.022213804
197	0x3d6cfc16	0.057857595
198	0x3db4251c	0.087961406
199	0x3c84b9f3	0.016201949
200	0x3e1019de	0.14072368
201	0xbc9f3d20	-0.019438326
202	0x3de812d8	0.11331719
203	0x3d80e494	0.06293598
204	0x3bd13db0	0.0063855276
205	0xbdce63fe	-0.10077666
206	0x3d02c019	0.03192148
207	0xbd32425e	-0.043520324
208	0xbdc2b023	-0.09506252
209	0x3d945b78	0.07244009
210	0x3d774260	0.060366035
211	0xbc84cb42	-0.016210202
212	0xbd9ad9f9	-0.07561106
213	0x3ddfc48e	0.10926162
214	0x3d4b8abb	0.04969285
215	0xbb0a21f6	-0.0021077371
216	0xbdd2e652	-0.10297836
217	0x3d4c15fd	0.049825657
218	0xbd8fe8de	-0.07026838
219	0x3dcdc5f6	0.10047524
220	0xbcf068bf	-0.029346822
221	0x3dace400	0.08441925
222	0xbd0732a9	-0.033007298
223	0x3dc0c6cc	0.094129175
224	0xbcabf935	-0.020992855
225	0xbd52e7f0	-0.051490724
226	0x3d3379e0	0.0438174
227	0x3cf9e79c	0.030505948
228	0xbdfdc28d	-0.12390623
229	0xbd084711	-0.0332709
230	0x3d6cd633	0.057821464
231	0x3dcd5e3c	0.100277394
232	0x3a5bfe72	0.00083921023
233	0xbcb83176	-0.022484522
234	0x3d600582	0.054692753
235	0xbdaff23a	-0.08591123
236	0xbda8028d	-0.082036115
237	0x3d51b71b	0.051200014
238	0x3d2cf389	0.04222444
239	0x3d7589d7	0.059945907
240	0x3b1d3c5c	0.0023992276
241	0x3db35189	0.08755786
242	0xbc00e7ff	-0.007867812
243	0x3d741917	0.05959424
244	0x3a99b53a	0.0011726983
245	0x3d7841e9	0.06060973
246	0xbdea32c4	-0.11435464
247	0xbd34c3aa	-0.044131912
248	0x3d9095b6	0.07059805
249	0x3c80ced5	0.015723625
250	0xbcdeec6b	-0.027212342
251	0xbcded9a7	-0.027203394
252	0x3df9afb8	0.12191719
253	0x3d8d5e2b	0.06902727
254	0xbc9d778e	-0.019222047
255	0xbe05a938	-0.13052833

model_cnn.classifier.weight f4 [5, 256]
0	0x3d653f2a	0.05596844
1	0x3b86f24d	0.00411824
2	0xbd307085	-0.043076057
3	0xbbfc9748	-0.007708464
4	0x3d4ba989	0.04972223
5	0xbc8b4b95	-0.017003814
6	0xbcfc6e05	-0.03081418
7	0xbcb29833	-0.02180109
8	0x3c8c006c	0.017090045
9	0x3d06a78f	0.03287464
10	0xbd60be4a	-0.054868974
11	0x3cc8eb8b	0.024526378
12	0xbc923b7f	-0.017850636
13	0x3c39ae80	0.011333108
14	0xbd409f03	-0.047026645
15	0x3d2dca4f	0.042429265
16	0xbc046383	-0.008080366
17	0x3d359bce	0.04433804
18	0x3cbb33d2	0.022851858
19	0x3c9ceb72	0.019155238
20	0x3ce62e8e	0.02809837
21	0x3d473d02	0.048642166
22	0x3c4f195b	0.012640323
23	0x3d747c06	0.05968859
24	0xbd5449e8	-0.051828295
25	0x3d618853	0.05506165
26	0x3d193221	0.037401322
27	0xbc8be951	-0.017079027
28	0x3cd7ff7f	0.026366947
29	0xbd03db03	-0.032191288
30	0xbcc4f37b	-0.024041882
31	0xbd396693	-0.045263838
32	0xbb834795	-0.004006336
33	0x3c93270f	0.01796296
34	0x3d5ecd23	0.054394852
35	0xbcc53da7	-0.02407725
36	0xbd611421	-0.054950837
37	0x3ba9b7b8	0.0051793717
38	0x3d170458	0.036869377
39	0x3cbd071d	0.023074681
40	0xbd355b2a	-0.044276394
41	0xbc97a610	-0.018511802
42	0xbcc7c8a0	-0.024387658
43	0xbd07b192	-0.03312833
44	0x3b0c3b9c	0.0021397835
45	0x3d74815e	0.059693687
46	0xbd3983cf	-0.045291718
47	0xbc355cff	-0.011069535
48	0xbb0b6d0d	-0.0021274716
49	0x3d49a8f5	0.049233396
50	0xbcc01967	-0.023449613
51	0x3c926509	0.017870443
52	0xbc839762	-0.016063396
53	0x3d2af876	0.041740857
54	0xbd5f844b	-0.054569524
55	0x3cfcd927	0.030865265
56	0xbd6c6776	-0.057715856
57	0xbd4cb557	-0.049977627
58	0x3d29d8c8	0.041466504
59	0x3be7e388	0.0070766844
60	0xbd17a949	-0.037026677
61	0xbb7fcf67	-0.0039033534
62	0xbd2d02ce	-0.042239003
63	0xbb277d61	-0.002555691
64	0x3d0c7044	0.034286752
65	0xbc93ec82	-0.018057112
66	0x3d13a006	0.036041282
67	0xbb444148	-0.0029946137
68	0x3d7010f5	0.05860992
69	0x3d1ea1e2	0.038728602
70	0xbcca295c	-0.024677925
71	0xbd1ffb92	-0.039058276
72	0xbd480ac7	-0.048838403
73	0xbc8d2bbb	-0.017232766
74	0xbd3abc4b	-0.045589726
75	0xbd77b9a1	-0.060479764
76	0x3d112302	0.035433777
77	0x3d5a922b	0.053362053
78	0x3d4c47cf	0.04987317
79	0xbd750597	-0.059819784
80	0xbd5578f2	-0.052117296
81	0x3c934deb	0.01798149
82	0xbd066acd	-0.032816697
83	0xbc88810b	-0.016663095
84	0x3ca6aad5	0.020345131
85	0xbbf844ae	-0.0075765466
86	0xbcf59612	-0.029978786
87	0xbbe3919f	-0.0069448496
88	0xbb66db10	-0.0035225786
89	0xbca1cf14	-0.019752063
90	0x3d496f4d	0.04917841
91	0xba79ac4d	-0.0009524271
92	0xbd20edb3	-0.039289188
93	0xbcbcb832	-0.02303705
94	0x3b3054e5	0.002690607
95	0x3d2a3ffa	0.04156492
96	0xbd666737	-0.056250777
97	0x3cbf497b	0.023350468
98	0xbd718e75	-0.05897375
99	0xbd13aee4	-0.03605546
100	0xbd1954c9	-0.037434373
101	0xbb7ba1e5	-0.0038396057
102	0x3c29996e	0.010351522
103	0x3d61f67f	0.055166718
104	0x3d0b4ef5	0.034010846
105	0xbc77a61f	-0.01511529
106	0xbc8f28d0	-0.017475516
107	0x3b8b81e4	0.0042574275
108	0x3d259123	0.040421616
109	0x3d3d00fc	0.046143517
110	0x3ce17cfc	0.027525418
111	0xbaf4b474	-0.0018669502
112	0x3d275ba6	0.040858887
113	0x3cc861d3	0.024460709
114	0x3cf2a8a2	0.029621426
115	0x3d77f817	0.06053933
116	0x3bbd9a97	0.005786251
117	0xbd798abd	-0.060923327
118	0x3d124bed	0.03571694
119	0x3d594931	0.053048316
120	0x3d0cbc08	0.034359008
121	0x3d1126b8	0.035437316
122	0x3c1f0523	0.0097058145
123	0x3d3fe053	0.04684479
124	0xbd4ba541	-0.049718145
125	0xbbe627bb	-0.007023779
126	0x3c40ac77	0.011759869
127	0xbd11c94c	-0.035592362
128	0x3d183236	0.03715726
129	0xbd26808e	-0.040649943
130	0xbba65a8d	-0.0050767125
131	0xbc89f9d2	-0.016842756
132	0xbd7d3e22	-0.061826833
133	0x3d69eeb8	0.057112426
134	0x3d4fa6f2	0.05069632
135	0x3bdb5c5c	0.0066943597
136	0xbceba137	-0.028763397
137	0xbc8d37dd	-0.017238552
138	0x3cbf117c	0.023323767
139	0xbd630241	-0.05542207
140	0x3d58a49b	0.052891355
141	0xbd013647	-0.031545904
142	0xbcc0c52c	-0.023531519
143	0xbd6c5752	-0.057700463
144	0x3c2c8096	0.010528704
145	0xbd35c5f9	-0.044378255
146	0xbd4bee3b	-0.04978774
147	0x3ccfdde5	0.025374362
148	0x3bda3888	0.006659571
149	0xbc264c55	-0.010150035
150	0x3d739183	0.059464943
151	0xbd43292a	-0.04764668
152	0x3d368a52	0.044565506
153	0x3ca7cbe0	0.020482957
154	0xbc1c6b6d	-0.009547097
155	0x3c83bfab	0.016082605
156	0x3cb8f004	0.022575386
157	0xbc2cfcad	-0.0105582895
158	0x3d7b6e91	0.06138474
159	0xbc278d38	-0.01022654
160	0x3aa5c779	0.0012647948
161	0xbcac42f9	-0.021028029
162	0x3d173bbc	0.0369222
163	0x3d433a8c	0.047663257
164	0xbd1f4ded	-0.038892675
165	0xbd009c68	-0.03139916
166	0x3ce40c05	0.027837763
167	0xbd30cd19	-0.043164346
168	0x3d0e3432	0.034717746
169	0x3b87ef53	0.0041484027
170	0x3c8bb636	0.017054658
171	0x3d7b9f64	0.061431304
172	0x3d576d58	0.052594513
173	0xbc505e0e	-0.012717737
174	0xbcbf5317	-0.02335505
175	0xbab1a30f	-0.0013552624
176	0x3bffedee	0.007810346
177	0xbd35d26f	-0.04439014
178	0x3c880795	0.016605178
179	0x3d264d62	0.04060114
180	0x3c9fa3b9	0.019487249
181	0xbd373e34	-0.044737056
182	0xbbe77637	-0.007063653
183	0x3c0544b6	0.008134058
184	0xbc0dc0f1	-0.008651958
185	0x3d194744	0.03742148
186	0x3c09b2fc	0.00840449
187	0xbd6bfd3f	-0.05761456
188	0x3caf1512	0.021372352
189	0xbca78bfe	-0.020452496
190	0xbd62c41e	-0.055362813
191	0x3d424bc1	0.047435526
192	0xbca8a7fb	-0.020587912
193	0xbd454baf	-0.04816788
194	0x3d287a9f	0.041132566
195	0x3d78d20e	0.0607472
196	0xbc780321	-0.015137465
197	0x3d4c4482	0.04987002
198	0x3cae38dd	0.021267349
199	0xbcd60212	-0.026124034
200	0x3c775dab	0.015098016
201	0x3b174a05	0.002308489
202	0xbc65f0ed	-0.014034492
203	0x3c61bba7	0.01377765
204	0xbc1cf985	-0.0095809745
205	0xbd73fc2c	-0.05956666
206	0xbc3e4ab2	-0.011614488
207	0x3cb8a2ca	0.022538561
208	0xbd6039d1	-0.054742638
209	0x3d60c279	0.054872964
210	0xbd467401	-0.048450474
211	0x3bae8014	0.0053253267
212	0xbcf887cf	-0.030338196
213	0x3d28352e	0.04106634
214	0x3d7a6ea4	0.06114067
215	0x3c903f1e	0.017608222
216	0xbc367244	-0.0111356415
217	0xbc61670d	-0.013757479
218	0x3cda3162	0.026634876
219	0xbb85405c	-0.00406651
220	0x3cb701a7	0.022339655
221	0xbd015e05	-0.031583805
222	0xbb3fb6a3	-0.0029253147
223	0xbc885364	-0.016641326
224	0xbd5fecfc	-0.054669365
225	0xbd5b824c	-0.053591058
226	0x3bd8cf32	0.0066164965
227	0xbd2fcb28	-0.042918354
228	0xbd704a67	-0.058664706
229	0x3cb38f52	0.021918926
230	0xbc46edd0	-0.01214166
231	0x3cea9104	0.028633602
232	0xbb862095	-0.0040932395
233	0xbb7ff799	-0.0039057492
234	0xbbb9e06d	-0.0056725056
235	0xbcc41e81	-0.023940327
236	0xbbb49ab3	-0.0055116056
237	0xbd47e216	-0.048799597
238	0xbd498397	-0.04919776
239	0x3d1032a7	0.035204556
240	0x3cfe10f7	0.031013949
241	0x3cb0d49d	0.021585757
242	0xbd044e5d	-0.032301296
243	0xbcb51783	-0.022105938
244	0xbccff424	-0.02538497
245	0x3d635f61	0.055510882
246	0x3d1cd963	0.038293254
247	0x3ba054b6	0.004892911
248	0x3ae13c6a	0.0017184142
249	0x3bfad3a7	0.0076546255
250	0x3b6fde3e	0.0036600973
251	0xbbed22da	-0.0072368206
252	0xba064ba8	-0.0005122968
253	0xbd6a911a	-0.057267286
254	0xbab0f446	-0.0013500534
255	0xbc8e3c7f	-0.017362831

model_cnn.classifier.bias f4 [5]
0	0x3c9ad1e1	0.018898906
1	0x3c04bed5	0.0081021385
2	0xbcb02c7c	-0.021505587
3	0xbb6cd1d7	-0.0036135816
4	0xbd71b4c6	-0.05901029

model_cnn.domain_classifier.weight f4 [2, 256]
0	0x3d316135	0.043305594
1	0xbd021da2	-0.03176654
2	0x3d663b76	0.05620905
3	0x3d657a6c	0.056024954
4	0x3d78edc0	0.06077361
5	0xbd4c4d68	-0.049878508
6	0x3d375a69	0.044763956
7	0xbd0994a8	-0.033589035
8	0xbd67a830	-0.05655688
9	0xbc51bb54	-0.01280101
10	0xbd22a553	-0.039708447
11	0xbd442507	-0.047886875
12	0x3d338a90	0.043833315
13	0x3d7a7275	0.06114431
14	0xbc9d3387	-0.01918961
15	0xbd11842c	-0.03552644
16	0x3d114ff0	0.035476625
17	0x3cd0a74e	0.025470402
18	0xbc9e05de	-0.019289907
19	0xbce248a0	-0.02762252
20	0xbcb15376	-0.021646243
21	0x3d4a5f93	0.049407553
22	0xbcb71e1b	-0.022353223
23	0x3d39e355	0.045382816
24	0xbd427189	-0.047471557
25	0xbd493cda	-0.0491303
26	0x3c93e9d4	0.018055834
27	0x3cdefc39	0.027219879
28	0x3c1d25e7	0.009591556
29	0x3d3f32d3	0.04667933
30	0x3c91bf91	0.017791541
31	0x3d610b63	0.0549425
32	0xbd73bc59	-0.059505794
33	0xbc8bd8de	-0.017071184
34	0x3d7265e4	0.0591792
35	0x3cba9866	0.022777747
36	0xbd654c8f	-0.055981215
37	0xbcde62d3	-0.027146732
38	0xbd330a75	-0.043711144
39	0x3ba526c2	0.0050400207
40	0x39f3a1ec	0.00046469213
41	0xbcafc6b2	-0.02145705
42	0xbd7a49f9	-0.061105702
43	0x3c4095a2	0.011754425
44	0xbc87d6bf	-0.016581891
45	0x3d2582be	0.04040789
46	0x3d0b1d18	0.033963293
47	0x3d325969	0.0435423
48	0xbd4feb34	-0.050761417
49	0xbd7d2bd1	-0.061809365
50	0x3c6acc40	0.014330924
51	0x3cef64b2	0.02922282
52	0x38d4bf46	0.00010144575
53	0x3d000672	0.031256147
54	0xbd500bad	-0.050792385
55	0x3c2f986f	0.010717495
56	0x3d5412d5	0.051775772
57	0x3d5fa123	0.05459703
58	0xbd601e80	-0.054716587
59	0xbc58476b	-0.013200621
60	0x3cae0e73	0.021247124
61	0xbd009416	-0.031391226
62	0x3c02b37c	0.007977363
63	0xbd6b501a	-0.057449438
64	0xbd586996	-0.05283507
65	0xbc83a807	-0.016071333
66	0xbd27f3bd	-0.04100393
67	0xbb2adfd4	-0.0026073353
68	0x3d495afc	0.049159035
69	0x3d7d62ca	0.06186179
70	0xbb8016d3	-0.003908971
71	0x3c90dc57	0.017683191
72	0x3b1d8a24	0.0024038637
73	0x3d321211	0.04347426
74	0x3d41cccf	0.04731446
75	0x3d4d1004	0.0500641
76	0x3d5fe813	0.054664683
77	0x3c1acbc6	0.009447997
78	0x3cc9355f	0.024561582
79	0xbd654987	-0.055978324
80	0x3d018859	0.031624172
81	0x3cca4a98	0.024693772
82	0xbd44019a	-0.04785309
83	0xbd32701a	-0.04356394
84	0x3a8d42f6	0.0010777402
85	0x39d0575a	0.00039737934
86	0x3d6dce4e	0.058058076
87	0xbcb8d3b5	-0.022561887
88	0x3c935ea1	0.017989459
89	0xbc8316ce	-0.016002085
90	0xbc8f0c47	-0.017461909
91	0x3b83ed6c	0.0040261056
92	0xbd7afe92	-0.061277933
93	0x39a0d17c	0.00030673656
94	0x3c411e96	0.011787077
95	0xbd795382	-0.060870655
96	0xbb9ad33e	-0.004724889
97	0xbd3290d4	-0.04359515
98	0xbbb869a4	-0.0056278277
99	0xbce86f1a	-0.02837329
100	0x3d22392f	0.039605316
101	0xbce4bf71	-0.027923318
102	0xbd767142	-0.060166605
103	0x3d041d47	0.032254484
104	0xbb4624fb	-0.0030234444
105	0x3d59a9e2	0.05314053
106	0xbd6752e6	-0.056475542
107	0xbd4dc5d6	-0.0502375
108	0xbd6c6abf	-0.05771899
109	0x3cdf02da	0.02722304
110	0x3d4f57d7	0.05062088
111	0xbd15eb45	-0.036601324
112	0x3c3dcd3f	0.011584579
113	0xbd584b08	-0.05280593
114	0xbc4e1f6b	-0.012580733
115	0x3d0b1cb3	0.033962917
116	0x3b4f54b1	0.0031636173
117	0x3d20140a	0.03908161
118	0x3ccd4b0f	0.025060205
119	0xbbcecd46	-0.0063110916
120	0x3a129108	0.00055910693
121	0xbd674c85	-0.05646946
122	0xbd00b9dc	-0.03142725
123	0xbcb41dfc	-0.021986954
124	0x3d19553a	0.037434794
125	0x3cfb8da3	0.030707186
126	0xbc856012	-0.016281161
127	0x3a861f95	0.0010232801
128	0x3d47d739	0.048789237
129	0xbd3dd618	-0.046346754
130	0x3d73581c	0.0594102
131	0xbc35c90d	-0.0110952975
132	0x3d507646	0.050894044
133	0x3cf2f42b	0.029657444
134	0xbd632f26	-0.055464886
135	0x3cf47b9e	0.029844102
136	0xbc3da654	-0.0115753
137	0x3d41a1f5	0.047273595
138	0x3c1b4a4f	0.009478166
139	0xbcbaa245	-0.022782454
140	0x3cec88c6	0.028873812
141	0x3d7c3d8e	0.06158214
142	0xbd69bfdd	-0.05706774
143	0xbd4b26de	-0.049597614
144	0xbcdcc606	-0.026949894
145	0x3c8454af	0.016153662
146	0x3c986666	0.018603515
147	0x3d6c2cd2	0.05765993
148	0x3d2a5ec8	0.041594297
149	0x3d738d64	0.059461012
150	0xbd75b2b2	-0.05998487
151	0xbc960b08	-0.018315807
152	0xbce0c65f	-0.02743834
153	0x3c036408	0.008019455
154	0x3d4c2dc2	0.049848326
155	0x3cbd46c3	0.02310503
156	0x3ca003a7	0.019532992
157	0xbca24040	-0.019806027
158	0x3b98f300	0.0046676397
159	0x3d5c38f2	0.053765245
160	0x3bcd543f	0.0062661464
161	0xbc37b8ab	-0.011213462
162	0x3bb68164	0.005569624
163	0x3d1d869b	0.038458448
164	0x3cec95ef	0.028880088
165	0xbd1b20ee	-0.0378732
166	0xbbb8a064	-0.0056343544
167	0x3ca03caa	0.019560177
168	0xbcd67f19	-0.026183652
169	0x3b866801	0.0041017537
170	0xbb7c22e6	-0.003847295
171	0xbce3bb72	-0.027799342
172	0xbd249761	-0.04018343
173	0xbc5ba3eb	-0.01340578
174	0x3d3fbccb	0.046810906
175	0x3d424c6d	0.047436167
176	0x3c686f66	0.014186716
177	0xbd34275d	-0.043982852
178	0xbb299245	-0.0025874537
179	0x3cc7a95d	0.02437275
180	0x3d25c7b8	0.04047367
181	0xbcd1e1b1	-0.025620313
182	0xbcbaedb6	-0.022818428
183	0x3c0526b4	0.008126903
184	0x3d07eb6b	0.033183496
185	0xbc384fc5	-0.011249487
186	0xbd2cd5e0	-0.042196155
187	0x3d4c85aa	0.04993216
188	0x3d48639a	0.048923112
189	0x3d54f0b3	0.05198736
190	0xbce4cc9e	-0.0279296
191	0xb88cc519	-6.7124325e-05
192	0x3d66becb	0.056334298
193	0xbae03470	-0.0017105471
194	0x3d40fd7e	0.04711675
195	0x3d680e7b	0.056654435
196	0x3d04ccfe	0.03242206
197	0xbc0d5b8e	-0.008627785
198	0xbd6d5844	-0.057945505
199	0x3cecf5bf	0.028925775
200	0xbd73b91b	-0.059502702
201	0xbd5f41cd	-0.054506112
202	0xbc78dad9	-0.015188896
203	0x3aead7fe	0.0017917154
204	0x3cdfcd7d	0.027319664
205	0x3d31394d	0.043267537
206	0x3d39e808	0.045387298
207	0x3d1df96c	0.038567945
208	0x3b663b7d	0.0035130673
209	0xbd275eda	-0.040861942
210	0xbd070e69	-0.032972727
211	0x3d28a7a1	0.04117549
212	0x3ba36db7	0.0049874443
213	0xbd08f284	-0.033434406
214	0xbd4dae67	-0.05021515
215	0xbd3bc798	-0.045844644
216	0x3d590163	0.052979838
217	0xbbf9c814	-0.007622728
218	0xbcf0d867	-0.029400064
219	0x3d27df38	0.040984362
220	0x3c81f0db	0.01586192
221	0x3ceaf454	0.028680958
222	0xbc5da191	-0.01352729
223	0xbd02b287	-0.03190854
224	0x3d581590	0.05275494
225	0xbd563442	-0.05229593
226	0xbd3d2fc9	-0.04618815
227	0xbcdd383d	-0.027004356
228	0xbc834d98	-0.01602821
229	0x3d6633f4	0.05620189
230	0xbd64b629	-0.055837784
231	0x3cf25a23	0.029583996
232	0x3d68492a	0.0567104
233	0x3bbb0144	0.005706938
234	0xbcea9a48	-0.02863802
235	0xbd2c9669	-0.04213563
236	0xbd426f6b	-0.047469538
237	0x3d228729	0.03967968
238	0x3d149d3d	0.036282767
239	0xbcf1af19	-0.029502438
240	0xbd7923cb	-0.06082515
241	0xbd695a79	-0.056971047
242	0x3b6776ae	0.0035318541
243	0x3d77a2e3	0.060458075
244	0xbd3f14d3	-0.04665072
245	0xbbf2c7f3	-0.0074090897
246	0xbca275f4	-0.019831635
247	0x3d554ce0	0.052075267
248	0x3cd20602	0.02563763
249	0x3d44d7b0	0.048057258
250	0x3d65b71d	0.056082834
251	0xbd0233c5	-0.031787653
252	0xbd0c993b	-0.03432582
253	0xbd126fb5	-0.035751063
254	0x3c0095de	0.007848231
255	0xbcdbd88e	-0.02683666

model_cnn.domain_classifier.bias f4 [2]
0	0x3bc48989	0.005997841
1	0xbd576cd6	-0.05259403
