checkpoint/transfer_cnn_features_1d_1_to_2_1207/retry_target_focus/best_model.pth (torch, 103138 bytes, 10 tensors)

model_cnn.conv1.weight f4 [32, 1, 3]
0	0xbf13c581	-0.5772324
1	0x3ec0d0a0	0.37659168
2	0xbf11d51e	-0.56965816
3	0xbefc4503	-0.49271402
4	0xbeca245a	-0.3948086
5	0x3ea1831a	0.31545335
6	0xbeedb009	-0.46423367
7	0x3e602eb9	0.21892823
8	0xbefc11b6	-0.49232262
9	0xbeccd3f0	-0.40005445
10	0xbe870a60	-0.26375103
11	0xbe73c11c	-0.23804134
12	0xbef56b85	-0.47933593
13	0x3ede30b2	0.43396527
14	0xbdfbe5a7	-0.12299662
15	0x3e5ffc5e	0.21873614
16	0x3ed70791	0.4199796
17	0x3e4ed49b	0.2019829
18	0x3e14a875	0.14517386
19	0x3f137fd8	0.5761695
20	0xbea0e9c7	-0.31428358
21	0x3e4eb710	0.2018702
22	0xbe7bf430	-0.24604869
23	0x3ecc610d	0.39917794
24	0x3f2c9596	0.6741575
25	0xbf0efde9	-0.55856186
26	0x3f299fc9	0.6625944
27	0x3ec33261	0.38124374
28	0x3e845c6a	0.25851756
29	0x3ec4beee	0.38426918
30	0x3ee4138f	0.44546172
31	0xbdbdd7d0	-0.092696786
32	0xbeec8231	-0.46193078
33	0xbe3f7440	-0.1869669
34	0xbecc34a4	-0.39883912
35	0xbde0ad64	-0.10970572
36	0xbe474daa	-0.1946322
37	0xbe949aa3	-0.29024228
38	0xbe441e00	-0.19152069
39	0x3f0fa73f	0.5611457
40	0xbe3fb129	-0.18719925
41	0xbcb0fd1a	-0.021605063
42	0xbe00dc70	-0.1258409
43	0x3d598a48	0.05311039
44	0x3f0661a8	0.5249276
45	0x3ebc0a8e	0.36726803
46	0x3e53dd0f	0.20689796
47	0x3eaec284	0.3413278
48	0x3e27866c	0.16359872
49	0x3e79a1e8	0.24378169
50	0xbdd54076	-0.104126856
51	0xbf10e63e	-0.5660132
52	0xbebe1071	-0.3712192
53	0x3f09e391	0.53862864
54	0x3e292da6	0.1652132
55	0xbefe96f4	-0.49724543
56	0x3e62c56a	0.2214562
57	0x3ed3c2a4	0.41359437
58	0xbef666d6	-0.48125333
59	0xbea4013d	-0.32032195
60	0xbea7f5c1	-0.32804683
61	0x3db5c1eb	0.088748775
62	0xbea58a27	-0.32331964
63	0xbd256577	-0.040379968
64	0xbf154202	-0.58303845
65	0x3ea8038d	0.3281521
66	0x3ee5586f	0.44794032
67	0x3e8f8816	0.28033513
68	0xbeb4897e	-0.35261148
69	0xbef8cc06	-0.48593158
70	0x3e8fba9a	0.28072053
71	0x3cb573ea	0.022149999
72	0x3e2fa36b	0.17152183
73	0xbf0288e8	-0.5099015
74	0x3c03796f	0.0080245575
75	0x3ecd7dff	0.4013519
76	0x3e898b1c	0.26863945
77	0x3df50893	0.11964526
78	0x3d685d8c	0.05672984
79	0xbd960d72	-0.07326783
80	0xbe87f1b1	-0.26551583
81	0xbe7d1345	-0.24714382
82	0xbebe2048	-0.37134004
83	0x3f015cd2	0.5053226
84	0x3eb00043	0.343752
85	0x3e682081	0.2266865
86	0xbef41db7	-0.4767892
87	0x3ef5982a	0.47967654
88	0x3e8994d9	0.26871374
89	0x3ede3e7a	0.4340704
90	0xbe7734bd	-0.24141212
91	0x3d81b2f8	0.06332964
92	0x3f0d9039	0.5529819
93	0x3ec7eaf5	0.39046445
94	0x3ef04faf	0.46935794
95	0xbe34568a	-0.17611137

model_cnn.conv1.bias f4 [32]
0	0x3edbbd53	0.4291788
1	0xbecd05af	-0.400434
2	0x3c59e4a5	0.013299142
3	0xbe832fa8	-0.25622296
4	0xbdc35ca4	-0.09539154
5	0xbe0ddf62	-0.13854745
6	0x3c3f8ef2	0.011691796
7	0x3f0a1022	0.53930867
8	0x3e646465	0.22303922
9	0xbbf63249	-0.0075133187
10	0x3ec6bee1	0.38817504
11	0xbe9c48a0	-0.30524158
12	0x3ea0e168	0.3142197
13	0xbd751a6c	-0.05983965
14	0xbdc5aa13	-0.0965158
15	0x3d6c8084	0.05773975
16	0xbeeeb9c8	-0.46626115
17	0x3d03b394	0.03215368
18	0x3e07095c	0.13187164
19	0x3ecb35cb	0.39689478
20	0xbd9c725f	-0.07639002
21	0x3e0af22a	0.13568941
22	0x3f17874f	0.5919084
23	0xbe5772d9	-0.21039905
24	0x3f0b528d	0.5442284
25	0xbe921e5f	-0.28538796
26	0x3e88772a	0.26653415
27	0x3e29b27f	0.16571997
28	0x3dd0c308	0.10193449
29	0x3ee65452	0.44986206
30	0xbe760a61	-0.24027397
31	0x3daf51a3	0.08560493

model_cnn.conv2.weight f4 [64, 32, 3]
0	0x3cd5125c	0.026009731
1	0xbd52198b	-0.05129389
2	0x3a1f04f9	0.00060661096
3	0xbd9b7b8b	-0.07591923
4	0x3d18baec	0.037287638
5	0x3ad496fd	0.0016219314
6	0x3cfd3f34	0.030913927
7	0xbc242a5a	-0.010019863
8	0x3cae9006	0.02130891
9	0x3cb17750	0.021663338
10	0x3da8f3ec	0.082496494
11	0x3e1c35c1	0.1525488
12	0xb9dfa050	-0.00042653317
13	0xbd79fd5c	-0.061032638
14	0xbda044d0	-0.07825625
15	0x3cca6aeb	0.024709186
16	0xbd7154db	-0.058918815
17	0xbd75f19a	-0.060044862
18	0xbd96a663	-0.073559545
19	0xbd2b5fb7	-0.041839328
20	0x3993bd82	0.0002817922
21	0x3dc48af4	0.09596816
22	0x3d8581aa	0.06518872
23	0x3dd4e142	0.10394527
24	0xbd3ac9d6	-0.045602642
25	0x3cdd0461	0.026979627
26	0xbd93b1c5	-0.07211641
27	0x3dcbd1a4	0.09952095
28	0x3d7e311f	0.062058564
29	0x3e0ed2a0	0.13947535
30	0xbd77ff2b	-0.06054608
31	0x3dc03164	0.093844205
32	0x3dc8ee80	0.09811115
33	0x3dd0eb76	0.102011606
34	0x3d0ac6dd	0.033881057
35	0x3de6c48b	0.11267956
36	0x3dbfbd50	0.0936228
37	0x3dd00dd2	0.10158886
38	0x3c9aabc5	0.018880734
39	0xbdb2bf60	-0.08727908
40	0xbc2a1a37	-0.010382227
41	0x3c255cf2	0.010092961
42	0xbda424b7	-0.08014815
43	0xbd8daa1c	-0.069172114
44	0xbdde1471	-0.10843743
45	0xba30d7b1	-0.0006746008
46	0x3dfd95d8	0.12382096
47	0x3d568085	0.05236866
48	0x3d82aaa3	0.063802026
49	0x3d978b72	0.07399644
50	0x3e086208	0.13318646
51	0xbdcd4ccb	-0.10024413
52	0xbdb6055b	-0.0888774
53	0xbd33e0b1	-0.043915454
54	0xbd48cbe7	-0.04902258
55	0x3d7f13cb	0.062274735
56	0x3da7e3a6	0.08197717
57	0xbdad911d	-0.08474944
58	0xbd9444b1	-0.07239664
59	0xbdae56cc	-0.08512649
60	0x3e09ab71	0.13444306
61	0x3e363889	0.17795004
62	0x3c892214	0.016739883
63	0xbd2d6d50	-0.042340577
64	0x3d18e7a3	0.03733028
65	0xbd7c179b	-0.06154595
66	0x3dd851ec	0.105625
67	0x3d2ee292	0.042696543
68	0xbc1cca57	-0.009569726
69	0xbbd06c45	-0.006360563
70	0x3c9a876c	0.018863402
71	0xbd492754	-0.04910977
72	0xbd65691d	-0.056008447
73	0x3cc24004	0.023712166
74	0x3ccca76c	0.024982177
75	0x3cb8b2c4	0.02254618
76	0x3baf8b49	0.0053571803
77	0x3daf6377	0.08563893
78	0xbc0e549f	-0.008687167
79	0x3c22282d	0.009897274
80	0x3d7cb1a7	0.06169286
81	0xbd7b9817	-0.06142434
82	0x3cf6d1d4	0.03012935
83	0xbca09811	-0.01960376
84	0x3d3dcdae	0.04633873
85	0xbd6dad02	-0.05802632
86	0x3a85c1b7	0.0010204826
87	0x3d1cabe5	0.03824987
88	0xbd5cc791	-0.05390126
89	0xbd3c676f	-0.04599708
90	0x3cc60891	0.024174007
91	0xbd36e4da	-0.044651844
92	0x3d3b03cc	0.045657918
93	0xbdc26fe5	-0.094939984
94	0xbd36e3dc	-0.044650897
95	0xbda069ad	-0.07832656
96	0x3c996766	0.018726062
97	0xbcccbdbe	-0.02499282
98	0xbd27fc29	-0.041011963
99	0xbca8b525	-0.020594189
100	0xbdaaa582	-0.08332349
101	0x3ccdc22f	0.025117008
102	0xbbbd4c7d	-0.0057769404
103	0xbda136de	-0.07871793
104	0x3cf743a0	0.030183613
105	0xbd874103	-0.06604197
106	0xbe26566b	-0.16243903
107	0xbc170658	-0.009217821
108	0x3da1f100	0.07907295
109	0x3baed76c	0.005335739
110	0xbd3b9d8a	-0.045804538
111	0xbccf3572	-0.02529404
112	0x3d43d005	0.047805805
113	0x3d83942e	0.064247474
114	0xbd987ea9	-0.074460335
115	0xbd31db8c	-0.043422267
116	0x3da851b7	0.08218711
117	0x3cc8e2c6	0.024522197
118	0x3d1ae811	0.037818972
119	0xbd9c1ae9	-0.0762232
120	0x3d9d4be5	0.07680491
121	0xbdc279d9	-0.09495897
122	0xbc845fa8	-0.016158894
123	0xbd3ae1a1	-0.045625333
124	0xbcf91f67	-0.030410482
125	0xbdff2603	-0.12458422
126	0x3d9eb374	0.07749072
127	0x3dac6274	0.08417216
128	0xbdb14a9a	-0.08656807
129	0xbccfd8e7	-0.025371982
130	0xbdaaabfa	-0.08333583
131	0x3d8bd85f	0.06828379
132	0x3ce946fc	0.02847623
133	0x3d01ac71	0.031658594
134	0x3b9157df	0.004435524
135	0xbba4472e	-0.005013368
136	0x3d8060b5	0.062684454
137	0x3be274ca	0.006910895
138	0xbd0d4906	-0.03449347
139	0x3d62f7e0	0.055412173
140	0x3d0e22c7	0.034701135
141	0xbd86d9ac	-0.06584486
142	0xbd89a511	-0.06720937
143	0xbe049d14	-0.12950546
144	0xbdc66b8c	-0.09688482
145	0xbde15b38	-0.11003727
146	0xbdfe2253	-0.124088906
147	0xbdb6973d	-0.08915565
148	0x3da9e4a9	0.082955666
149	0xbdb4d977	-0.088305406
150	0x3db641cf	0.08899271
151	0xbd86c615	-0.0658075
152	0xbca64459	-0.020296263
153	0x3d860f54	0.06545892
154	0x3c823810	0.015895873
155	0xbd404b2c	-0.04694669
156	0xbe102ab5	-0.14078791
157	0xbdcd8469	-0.10035021
158	0x3cbf7c42	0.02337468
159	0xbd3d0eda	-0.04615674
160	0x3d9e9ac7	0.07744365
161	0xbccfbe42	-0.025359277
162	0xbd0eab52	-0.034831353
163	0x3c9b3fdd	0.01895135
164	0xbd167b7f	-0.03673887
165	0x3c4d7761	0.012540669
166	0x3dac4279	0.08411116
167	0x3d42ffe4	0.047607318
168	0xbce7f106	-0.028313171
169	0x3c6fa66b	0.0146270795
170	0x3d844093	0.06457629
171	0xbc171097	-0.009220264
172	0xbd845b74	-0.06462756
173	0xbaa026ab	-0.0012218555
174	0xbd016a1a	-0.031595327
175	0xbdd1cfb0	-0.10244691
176	0xbd7e18be	-0.062035315
177	0x3d21c64e	0.03949576
178	0xbb6aa0ff	-0.0035801528
179	0x3cfaa135	0.030594448
180	0xbd8067be	-0.06269787
181	0x3dbf9b95	0.09355847
182	0xbd3a21d0	-0.045442402
183	0xbc06c730	-0.008226201
184	0xbda36f58	-0.079802215
185	0xbda22050	-0.07916319
186	0x3d50f127	0.05101123
187	0xbcbdd149	-0.023171084
188	0xbd73716b	-0.059434336
189	0xbd5ffd17	-0.054684725
190	0x3d7c1912	0.061547346
191	0x3d470e62	0.0485977
192	0x3d20d7ad	0.039268184
193	0xbde1333b	-0.109960996
194	0x3ccebdc2	0.025236968
195	0x3c84b67c	0.016200297
196	0xbd9f5c7d	-0.077813126
197	0xbbc39be3	-0.005969511
198	0xbd5386a2	-0.051642068
199	0xbe022f36	-0.12713322
200	0xbdeb9cf0	-0.11504543
201	0x3da1621e	0.078800425
202	0xbc4c1566	-0.012456274
203	0xbbad449f	-0.0052877213
204	0xbdf3f567	-0.11912041
205	0xbdecaf8a	-0.11556919
206	0x3d215315	0.039385874
207	0x3ce8ce6d	0.028418744
208	0xbcd33e8f	-0.025786666
209	0x3d577b2b	0.052607697
210	0xbd92c2ff	-0.07166099
211	0xbde5c6aa	-0.11219533
212	0xbdfed458	-0.12442845
213	0x3cf06d74	0.029349066
214	0xbd548024	-0.051880017
215	0x3d4f0168	0.05053845
216	0x3d2cb887	0.042168166
217	0xbc396cf7	-0.011317483
218	0x3d2ec29d	0.042666066
219	0xbd3d7d63	-0.046262156
220	0x3d8736cc	0.066022485
221	0xbd926832	-0.0714878
222	0xbcaed230	-0.02134046
223	0x3d752e40	0.05985856
224	0xbd791f09	-0.060820613
225	0x3d93e882	0.07222082
226	0x3ca00a32	0.019536112
227	0xbbf34575	-0.0074240514
228	0x3da9898f	0.0827819
229	0x3d93937c	0.07205865
230	0xbd3e50b7	-0.046463694
231	0xbca27bb3	-0.019834375
232	0xbc924da6	-0.017859291
233	0x3d5c7a0b	0.053827327
234	0x3d26a605	0.040685672
235	0x3d87189e	0.06596492
236	0x3d3a9676	0.045553647
237	0xbddf9556	-0.109171554
238	0x3d41b185	0.047288436
239	0xbd42d140	-0.047562838
240	0x3e19140e	0.14949057
241	0x3e072382	0.13197139
242	0x3c0d6bd6	0.008631667
243	0xbcd8ac6f	-0.02644941
244	0xb9e4da87	-0.00043650364
245	0x3c5cf048	0.013485022
246	0xbdeb1acd	-0.11479721
247	0xbc7ff99d	-0.015623477
248	0x3d06db9e	0.032924287
249	0x3d48d2cb	0.049029153
250	0x3d2a945a	0.041645385
251	0x3bf8a025	0.00758745
252	0xbe692f45	-0.22771938
253	0xbd80d1b0	-0.06289995
254	0xbe57282e	-0.21011421
255	0xbda380a0	-0.07983518

model_cnn.conv2.bias f4 [64]
0	0x3dc57f5d	0.09643433
1	0xbdf607f5	-0.120132364
2	0x3ca0355d	0.019556696
3	0x3df9bba2	0.12193991
4	0xbd8d9be0	-0.069144964
5	0xbca0354d	-0.019556666
6	0x3de50a89	0.1118365
7	0xbcd88697	-0.026431365
8	0x3dc0bb53	0.09410729
9	0x3c501d71	0.012702332
10	0xbdc656e0	-0.09684539
11	0x3daa9c3a	0.08330579
12	0xbbca895b	-0.006180925
13	0x3ca47fb4	0.020080425
14	0xbd4c6266	-0.049898528
15	0x3caf62ed	0.021409476
16	0x3c17358c	0.009229075
17	0xbbc14fff	-0.005899429
18	0xbd740332	-0.05957336
19	0x3dc8a8df	0.097978346
20	0xbd71b89f	-0.05901396
21	0xbc5fd4b9	-0.013661557
22	0xbdcf619c	-0.101260394
23	0x3c6e2823	0.0145359365
24	0xbc0bdee2	-0.008537026
25	0xbd9b576d	-0.075850345
26	0x3b8ea6f1	0.004353397
27	0xbcb517b2	-0.022106025
28	0xbdcf8073	-0.101319216
29	0x3d908659	0.07056875
30	0x3c47ef3c	0.012203034
31	0xbd722deb	-0.059125822
32	0x3d50b580	0.050954342
33	0xbd9e7e87	-0.07738977
34	0xbdbe69fd	-0.092975594
35	0x3d2fafe6	0.04289236
36	0xbdc252d5	-0.09488455
37	0x3d08f1b1	0.03343362
38	0x3d61c692	0.055121012
39	0x3dbc74ea	0.09201987
40	0x3c6ff2dc	0.0146453045
41	0xbd86cf7c	-0.06582543
42	0xbdc6b2de	-0.09702085
43	0xbd598c14	-0.053112105
44	0xbc61435c	-0.01374897
45	0xbd7fce9e	-0.062452905
46	0x3d96e284	0.07367423
47	0x3d7319cc	0.059350774
48	0xbcaa4c2e	-0.020788278
49	0xbdea1142	-0.11429073
50	0x3de593fd	0.11209867
51	0x3b873b36	0.0041269315
52	0xbc0446b1	-0.008073495
53	0xbd7b3aae	-0.06133526
54	0xbc9acc4d	-0.018896246
55	0xbba3d601	-0.0049998765
56	0x3d4c0de7	0.049817946
57	0x3d322944	0.043496385
58	0xbd914af5	-0.07094375
59	0x3de5ce66	0.11221008
60	0xbd692379	-0.056918595
61	0xbd42fe4a	-0.04760579
62	0x3d85079f	0.06495594
63	0xbcdc34cc	-0.026880644

model_cnn.fc1.weight f4 [256, 64]
0	0xbc6d6063	-0.014488312
1	0x3c042f44	0.00806791
2	0xbb8c5a4b	-0.0042832247
3	0xbd02d6aa	-0.031943
4	0x3c9eeff1	0.019401522
5	0x3ce14efc	0.027503483
6	0xbc02db48	-0.007986851
7	0xbad22815	-0.0016033674
8	0x3ba5a587	0.005055133
9	0x3c15614e	0.0091174375
10	0x3a8a4055	0.0010547737
11	0x3ba877a2	0.0051412145
12	0xbc26e4f2	-0.010186421
13	0xbc0dd043	-0.0086556105
14	0x3b100232	0.0021973965
15	0xba364581	-0.0006953106
16	0x3b86f528	0.0041185804
17	0x3cd32ffc	0.025779717
18	0xbbe57e72	-0.007003599
19	0xbbf81fe0	-0.007572159
20	0x3b84bfe0	0.0040511936
21	0x3b8a1beb	0.004214754
22	0x3ce5cf16	0.028052848
23	0xbb081759	-0.002076587
24	0x3a767de3	0.0009402914
25	0x3cc497db	0.023998192
26	0xbab2f77e	-0.0013654081
27	0x3b9bb47c	0.00475174
28	0x3c56c44d	0.013108325
29	0x3b0108e2	0.0019689132
30	0x3ce4e37c	0.027940504
31	0x3cab4d2d	0.020910824
32	0x3a82a7f4	0.0009968267
33	0x3c3cfec4	0.01153535
34	0x3b31ad03	0.002711118
35	0x3d088077	0.03332564
36	0x3c915d1d	0.017744595
37	0xbc55b44f	-0.013043477
38	0xbb8a3bba	-0.0042185457
39	0xbc6a45f9	-0.014298909
40	0x3c216eca	0.009853074
41	0x3b9dc383	0.0048145666
42	0x39e7e0de	0.00044227293
43	0x3b198fa3	0.0023431561
44	0xbca87ea9	-0.020568209
45	0xbc3f587a	-0.011678809
46	0xbb306076	-0.0026912964
47	0xbbb44787	-0.005501691
48	0xbbd4e590	-0.0064970925
49	0x3c975aa5	0.01847584
50	0xbba9959d	-0.005175306
51	0xb9a0c68c	-0.00030665507
52	0xbc5cbf86	-0.013473397
53	0x3a87a858	0.0010349853
54	0xbac38d99	-0.0014919519
55	0x3caf73ec	0.02141758
56	0x3bcf7d0d	0.006332046
57	0xbc3aa38e	-0.011391534
58	0xbc07c1fb	-0.008285995
59	0xbc9591bf	-0.018257974
60	0x3bcf6df5	0.0063302466
61	0x3cab4f05	0.020911703
62	0xbbb5fac1	-0.005553574
63	0x3c960863	0.018314546
64	0x3d24d0d8	0.04023823
65	0x3d025d1b	0.031827074
66	0xbdac0b5a	-0.08400603
67	0xbcc0743c	-0.023492925
68	0x3daf5809	0.08561713
69	0xbde6bccd	-0.1126648
70	0xbdbfeb8e	-0.093711
71	0x3db1e8af	0.08686959
72	0xbdfe1590	-0.124064565
73	0xbd8f9917	-0.070116214
74	0xbd590b18	-0.052989095
75	0x3da4d348	0.08048111
76	0x3dc0ee03	0.09420397
77	0x3da72a7c	0.081624
78	0xbda39ae8	-0.079885304
79	0xbbbd67b9	-0.005780187
80	0x3d88ad77	0.06673711
81	0x3ca0aa49	0.019612448
82	0xbd0ba39c	-0.034091577
83	0xbc818b40	-0.01581347
84	0xbbb8bc22	-0.0056376616
85	0xbdba7835	-0.09104959
86	0xbdfb7045	-0.12277273
87	0xbb49dc8a	-0.0030801618
88	0x3d3413e2	0.043964274
89	0x3df12e4c	0.117764086
90	0xbd09f225	-0.033678193
91	0xbd6af163	-0.05735911
92	0x3df162fa	0.117864564
93	0xbdb0d185	-0.08633713
94	0xbc716ddc	-0.014735665
95	0x3d24af15	0.040206034
96	0xbd414726	-0.047186993
97	0x3b1a8d42	0.0023582731
98	0xbbfd63ee	-0.00773286
99	0x3b08d7c9	0.002088057
100	0x3d430f82	0.04762221
101	0xbdb2370f	-0.08701908
102	0x3d84a50f	0.06476795
103	0x3ded1499	0.11576194
104	0xbd9a788f	-0.07542526
105	0xbd755da4	-0.059903756
106	0xbd044da3	-0.032300603
107	0xbde75df0	-0.11297214
108	0xbd88e19b	-0.06683656
109	0xbcb02f7a	-0.021507014
110	0x3cd20776	0.025638323
111	0x3da42e95	0.08016697
112	0xbd88ec73	-0.06685724
113	0x3d90f1f5	0.070774
114	0xbd7d1edb	-0.061797004
115	0x3cae77c4	0.021297343
116	0xbd014469	-0.03155938
117	0xbd55196f	-0.05202621
118	0x3de92ff5	0.113861
119	0xbdb74989	-0.089495726
120	0x3ddbd9c7	0.10734897
121	0xbda74d2a	-0.08169015
122	0xbd601257	-0.05470499
123	0xbc55ea1a	-0.013056302
124	0xbda22970	-0.0791806
125	0x3d56d72d	0.0524513
126	0x3b023fee	0.001987453
127	0xbcb5fa46	-0.022214066
128	0xbad51d27	-0.0016259298
129	0xb7271ef5	-9.961183e-06
130	0xb81c68f8	-3.7291058e-05
131	0x389d3c4a	7.497573e-05
132	0x3bf9dd5e	0.007625266
133	0x3ba8af00	0.0051478148
134	0xbc0c5e70	-0.0085674375
135	0x3b8561dc	0.0040705036
136	0xbbd83288	-0.0065978207
137	0x3c6ae1c9	0.014336058
138	0xbbbdf520	-0.0057970434
139	0x3c0e0bff	0.008669852
140	0xb8bae854	-8.9124456e-05
141	0xbbf5abe8	-0.0074972995
142	0x3c1caf7c	0.009563323
143	0xbba21a47	-0.00494698
144	0x3c51612d	0.012779516
145	0x3bcf146d	0.0063195736
146	0x3792b642	1.7489427e-05
147	0x3b53ce26	0.003231892
148	0xbb61f6c8	-0.0034479368
149	0x3bd6ceb7	0.006555404
150	0xb92a42e8	-0.00016237388
151	0xbc54bc03	-0.012984279
152	0xbbcfbf80	-0.0063399673
153	0x3b0fe1c9	0.0021954647
154	0xb92f8d88	-0.00016742025
155	0xbc0491dd	-0.008091417
156	0x3b436a89	0.0029818139
157	0xbbf1401f	-0.00736238
158	0x3c73cd56	0.014880499
159	0xbbcc83a9	-0.006241281
160	0x3a8562ac	0.0010176501
161	0xb7a2310d	-1.9334746e-05
162	0x3c0bc7f8	0.008531563
163	0xba8426c8	-0.0010082358
164	0x3b5093df	0.003182642
165	0xba633ec1	-0.0008668714
166	0x3bc8a3f0	0.0061230585
167	0x3a8a94a5	0.0010572864
168	0xba79dcb0	-0.0009531481
169	0x3b4d8c8e	0.0031364295
170	0xbbaac11e	-0.0052110096
171	0xba6840e8	-0.00088597694
172	0xb9b26dcd	-0.00034032614
173	0xb706fc11	-8.045711e-06
174	0x3b056b88	0.0020358283
175	0xb63afab0	-2.786208e-06
176	0xbb9b47fc	-0.004738806
177	0x3ac96a1b	0.0015366705
178	0xbbeec8b6	-0.00728711
179	0xbb43be10	-0.0029867925
180	0x3cbef47d	0.02330994
181	0x3bae5a4c	0.005320823
182	0x39afeeef	0.0003355662
183	0xbbc80906	-0.0061045913
184	0x3bd7cc64	0.0065856446
185	0x3b756080	0.0037441552
186	0x3b6c8104	0.0036087641
187	0xb997759c	-0.0002888859
188	0x3bd6d946	0.0065566627
189	0xb87e1b86	-6.0583952e-05
190	0xbc2a1317	-0.010380528
191	0xbbe4a17e	-0.006977259
192	0x3e0c8d52	0.13725784
193	0x3db179e7	0.08665829
194	0x3dccfd46	0.100092456
195	0x3cb77d43	0.022398597
196	0xbd1409cc	-0.036142156
197	0xbdf518e8	-0.11967641
198	0x3db33f68	0.08752328
199	0xbddc42e7	-0.10754948
200	0xbb84312a	-0.004034181
201	0x3c439ac2	0.011938753
202	0x3c12670a	0.008935699
203	0x3df3de20	0.11907601
204	0x3ddb3f67	0.107054524
205	0xbca7226a	-0.020402152
206	0x3d45af1a	0.048262693
207	0xbbe61145	-0.0070211017
208	0x3dc6c439	0.09705395
209	0x3cad6146	0.021164548
210	0x3e1d45f9	0.15358724
211	0xbdbd46e6	-0.092420384
212	0xbcdc125a	-0.02686422
213	0xbc06c9cd	-0.008226824
214	0xbc3e39da	-0.011610473
215	0x3db6ff1e	0.089353785
216	0x3def1be2	0.1167524
217	0xbdf576a9	-0.11985523
218	0xbc969609	-0.01838209
219	0xbb313f46	-0.002704577
220	0xbd66e327	-0.056368973
221	0x3db71e64	0.089413434
222	0xbdd37510	-0.10325062
223	0xbd486f66	-0.048934363
224	0x3d3f2a4c	0.046671197
225	0x3e03a76f	0.1285684
226	0x3d0c37a0	0.034232736
227	0xbd99eafd	-0.075155236
228	0xbdec00e5	-0.11523608
229	0x3d1c89ed	0.038217474
230	0x3d190d1e	0.037366025
231	0x3d1cd9a4	0.038293496
232	0xbd111352	-0.035418816
233	0x3dcee759	0.1010272
234	0xbe1b1af5	-0.15147002
235	0xbe35a46e	-0.17738506
236	0xbd41ba14	-0.0472966
237	0x3d0ebbb1	0.034846965
238	0x3d86f5bc	0.06589839
239	0x3deb7894	0.11497608
240	0xbd98f771	-0.07469071
241	0x3d0d1081	0.034439567
242	0x3d9f8834	0.077896506
243	0xbda4c9b5	-0.08046285
244	0xbd4083b8	-0.047000617
245	0xbd83cb13	-0.06435218
246	0x3c334463	0.010941598
247	0xbde585c7	-0.11207157
248	0xbdf719a0	-0.120654345
249	0x3d521dd1	0.051297966
250	0xbd777cf5	-0.060421903
251	0x3dc56cdf	0.09639906
252	0xbdd35f5c	-0.10320923
253	0xbe15abe5	-0.14616354
254	0xbab7e148	-0.0014028931
255	0x3dac3017	0.0840761

model_cnn.fc1.bias f4 [256]
0	0xbbaa82f7	-0.0052036005
1	0xbd2f6222	-0.042818196
2	0xbc1cbaa6	-0.009565985
3	0xbcf78ad6	-0.03021757
4	0xbd6eea0c	-0.058328673
5	0x3b27c244	0.002559797
6	0x3d379411	0.04481894
7	0x381a00a9	3.6717076e-05
8	0xbb2d70af	-0.002646487
9	0xbde31956	-0.11088817
10	0x3c676605	0.014123444
11	0x3bffa47c	0.0078015905
12	0xbc80a0dc	-0.015701704
13	0xbc60277c	-0.013681289
14	0x3cb754ad	0.022379244
15	0xbc544a03	-0.012957099
16	0x3e0481d1	0.12940146
17	0x3c8bdb9b	0.01707249
18	0x3cbd0520	0.023073733
19	0xbd32e243	-0.04367281
20	0xbb9cd352	-0.0047859335
21	0x3d7cd640	0.061727762
22	0xbd39b3be	-0.04533743
23	0xbbd91aa3	-0.00662549
24	0x3c83dc4f	0.016096262
25	0xbd25f26f	-0.040514406
26	0x3d860288	0.065434515
27	0x3d329287	0.04359677
28	0x3b74960a	0.0037320876
29	0xbd912eac	-0.0708898
30	0xbd769c6c	-0.06020777
31	0x3d5380c7	0.051636484
32	0xbc12fdab	-0.008971612
33	0xbc92cc6d	-0.017919743
34	0xbd3fe7a4	-0.04685177
35	0x3cb19781	0.021678688
36	0x3b81d235	0.003961826
37	0xbc3070f4	-0.010769118
38	0x3d95e1e4	0.07318476
39	0x3dc2a62d	0.09504352
40	0x3daa61be	0.08319424
41	0x3cbbc647	0.022921694
42	0x3d0a215b	0.033723217
43	0xbde929f5	-0.11384956
44	0x3d1acac4	0.03779103
45	0xbd0fa136	-0.035065852
46	0xbc5a74cc	-0.013333511
47	0x3d8639b1	0.065539725
48	0xbd32160b	-0.043478053
49	0xbb91c0a5	-0.004448014
50	0xbcbea9d7	-0.023274345
51	0x3d41d4f4	0.04732223
52	0x3d3a1edc	0.045439586
53	0x3d9350d8	0.07193154
54	0x3d85633f	0.0651307
55	0xbae718bb	-0.0017631272
56	0x3d08ea32	0.03342647
57	0x3d7d3259	0.061815593
58	0xbc9ac12d	-0.018890942
59	0xbc55788c	-0.013029229
60	0xbc94683d	-0.018116111
61	0x3d02a004	0.031890884
62	0xbd800b43	-0.06252148
63	0x3c96cb87	0.018407596
64	0xbc62ecf0	-0.013850436
65	0xbc239c7c	-0.009986039
66	0x3d39508b	0.045242827
67	0xbd966384	-0.073432
68	0x3d5daf16	0.054122053
69	0xbc0881f1	-0.008331762
70	0x3d345b4f	0.04403239
71	0xbc9ab8d6	-0.018886965
72	0x3d1e13b6	0.038593017
73	0xbb8219ad	-0.003970346
74	0x3dddafeb	0.10824569
75	0x3ce86cb0	0.028372139
76	0xba84429f	-0.0010090655
77	0x3beee273	0.0072901784
78	0x3d2075a4	0.03917469
79	0x3dff063f	0.12452363
80	0x3d323ba5	0.043513913
81	0x3cb43d50	0.022001892
82	0xbc19a8e7	-0.009378648
83	0xbbeb73bb	-0.007185427
84	0x3d1c3e3f	0.0381453
85	0xbb9ab084	-0.0047207493
86	0xbbb3d338	-0.0054878257
87	0x3d917233	0.0710186
88	0x3d635c67	0.055508044
89	0x3cb2ef82	0.021842722
90	0xbdb9b8da	-0.09068461
91	0x3df35c0c	0.11882791
92	0x3ae8f451	0.0017773007
93	0xbc032b4c	-0.008005928
94	0x3bfe0ceb	0.007753005
95	0xbb8ee235	-0.004360462
96	0xbc3b8710	-0.011445776
97	0x3c0ddcad	0.00865857
98	0x3d93d364	0.07218054
99	0x3c0f9019	0.008762383
100	0x3d3e0fe4	0.046401873
101	0xbbaa1ecc	-0.0051916596
102	0x3cd6c71a	0.026217986
103	0xbda41d4a	-0.08013399
104	0x3e021c6b	0.12706153
105	0x3d97e3b3	0.07416477
106	0x3d05deba	0.03268311
107	0xbb9a04ea	-0.004700293
108	0x3c274555	0.010209401
109	0xbc89d96a	-0.016827304
110	0x3e022ec8	0.12713158
111	0xbd2d9a8f	-0.042383727
112	0xbd98e25a	-0.07465048
113	0xbc6ccacc	-0.014452647
114	0xbcabe1d8	-0.020981714
115	0xbda5e02f	-0.080994
116	0xbb42e327	-0.0029737444
117	0xbd8bf0b8	-0.06833023
118	0xbc96c7e7	-0.018405868
119	0xbc93ec93	-0.018057143
120	0xbd4202cd	-0.047365952
121	0xbb9c6481	-0.004772723
122	0x39a3c44d	0.00031236038
123	0x3d2705b7	0.040776934
124	0xbd7b8882	-0.06140948
125	0x3df69b07	0.12041288
126	0x3c7435c2	0.014905395
127	0xbc20c961	-0.0098136375
128	0xbd09e168	-0.03366223
129	0xbb99e7fd	-0.0046968446
130	0xbd893729	-0.06699974
131	0x3d2515eb	0.040304106
132	0x3d020295	0.031740744
133	0xbb7e2c1d	-0.0038783618
134	0x3d7263cf	0.059177216
135	0x3cb68e28	0.022284582
136	0xbbcc7640	-0.0062396824
137	0xbc9521dd	-0.018204624
138	0xbba9bbe8	-0.005179871
139	0x3dbf9bdb	0.09355899
140	0xbc25881e	-0.010103254
141	0xbdfeabcc	-0.124351114
142	0xbd019752	-0.03163845
143	0xbc83d587	-0.016093029
144	0xbd579056	-0.052627884
145	0xbde006ba	-0.10938783
146	0x3cc20fe4	0.023689218
147	0xbdc5d1f5	-0.09659187
148	0xbd52cacc	-0.051462933
149	0x3a7706b2	0.00094233
150	0xbd2da5bd	-0.04239439
151	0xbdf8b4f4	-0.12143889
152	0xbb8f88cd	-0.0043803216
153	0xbd74e989	-0.05979303
154	0xbc6b7134	-0.014370251
155	0xbd4ed0f1	-0.05049223
156	0xbdd23f1a	-0.10265942
157	0x3d7b4796	0.061347567
158	0xbcbfb446	-0.02340139
159	0x3c0bcd91	0.008532898
160	0xbcb88fc2	-0.022529487
161	0xbc406f27	-0.011745251
162	0xbd36539b	-0.044513326
163	0xbcbb87fd	-0.022891993
164	0x3dbc60fc	0.09198186
165	0x3bff9041	0.007799179
166	0x3dfd0d64	0.1235607
167	0xbc7d6869	-0.015466788
168	0x3d391940	0.045190096
169	0xbbb79a8e	-0.005603141
170	0x3c7dbd6e	0.015487058
171	0x3b5daac6	0.0033823713
172	0xbd44c24c	-0.04803686
173	0x3d54a2eb	0.051913183
174	0x3d68f331	0.05687255
175	0xbbc72c85	-0.006078305
176	0x3c101c8e	0.0087958705
177	0xbbf7e118	-0.007564675
178	0x3d61bce9	0.0551118
179	0x3d79e22f	0.06100672
180	0xbc89b540	-0.01681006
181	0x3d8e432b	0.06946405
182	0xbdb48121	-0.08813692
183	0xbd5e9256	-0.054338776
184	0xbc015df6	-0.007895937
185	0x3c9d23e8	0.01918216
186	0xbba90f01	-0.0051592593
187	0x3da511e1	0.08060051
188	0xbadc7385	-0.0016819095
189	0x3c72b7fc	0.014814373
190	0xba27c8d9	-0.0006400473
191	0x3d49f727	0.04930797
192	0x3c1537f2	0.009107577
193	0x3cdf83e8	0.027284577
194	0x3aea743e	0.0017887426
195	0x3d9a650a	0.07538803
196	0x3dbc2eee	0.09188639
197	0x3cc82b3a	0.024434675
198	0x3cce39ff	0.025174139
199	0xbd2a1881	-0.041527275
200	0x3db99123	0.09060886
201	0x3d0f5a42	0.034998186
202	0xbc13e77c	-0.009027358
203	0xbd150c8f	-0.03638893
204	0xbd52811d	-0.051392663
205	0xbcbe1c8a	-0.023206968
206	0xbdb1777f	-0.0866537
207	0xbd2bc599	-0.04193649
208	0x3b27503b	0.0025529999
209	0xbc93a66c	-0.018023692
210	0xbdfa59b8	-0.12224144
211	0x3ccd7c99	0.025083827
212	0xbba9e26f	-0.0051844637
213	0x3c8366c0	0.016040206
214	0xbc2635ae	-0.010144634
215	0x3d46b0c2	0.048508413
216	0xbd934f48	-0.07192856
217	0xbc4dc1a1	-0.012558372
218	0x3db1d3c1	0.08682967
219	0xbcc38b07	-0.023870004
220	0x3d216d7d	0.039411057
221	0xbc6b6eae	-0.01436965
222	0xbbb4b499	-0.005514693
223	0xbd23b27f	-0.03996515
224	0xbd740549	-0.059575353
225	0xbd4002dc	-0.046877727
226	0xbde58a7b	-0.11208054
227	0x3bda5c89	0.006663863
228	0xbb9a3347	-0.0047058198
229	0xbcd428ae	-0.025898304
230	0xbd4519e2	-0.048120387
231	0xbb9c50fa	-0.0047703953
232	0x3cd0bfa9	0.025482016
233	0xbd9a1b5d	-0.075247504
234	0x3d885ec7	0.06658702
235	0x3c0761c7	0.008263058
236	0xbd9d90f5	-0.07693664
237	0x3ca46a0f	0.020070104
238	0xbc8d8d20	-0.017279208
239	0x3dd91fe1	0.106017835
240	0x3cd43f5f	0.025909124
241	0xbd060803	-0.032722484
242	0xbb7de043	-0.0038738407
243	0xbb79536a	-0.0038044103
244	0xbd03e70f	-0.032202777
245	0x3dbcc575	0.092173494
246	0x3d5ba543	0.053624403
247	0x3d62c971	0.05536789
248	0xbdf211cb	-0.118198
249	0xbd37ef0d	-0.04490571
250	0xbdfee7f0	-0.12446582
251	0xbd8b3ee1	-0.067991026
252	0x3a310f66	0.00067543087
253	0x3bc3293e	0.005955844
254	0x3db72a14	0.08943573
255	0x39b69e6b	0.00034831776

model_cnn.classifier.weight f4 [5, 256]
0	0xbcf2755e	-0.02959698
1	0xbc483d04	-0.0122215785
2	0xbd5ba67f	-0.05362558
3	0x3bc4cd15	0.006005893
4	0x3d9a2bd8	0.07527894
5	0x3dbf87b2	0.09352054
6	0x3d25f7f4	0.04051967
7	0x3d4a3828	0.04936996
8	0xbcebb0e5	-0.028770873
9	0x3ba4a4b2	0.005024516
10	0x3d466eea	0.04844562
11	0xbd88b1d9	-0.06674547
12	0x3ceee082	0.029159788
13	0x3d4c2f6a	0.049849905
14	0x3d8fbf20	0.07018876
15	0xbd746571	-0.059667055
16	0xbc9558d9	-0.018230842
17	0xbd834e0c	-0.06411371
18	0xbd1fc2d2	-0.039004155
19	0x3cfed9e0	0.03110975
20	0xbd58b214	-0.052904204
21	0xbd5ccf54	-0.05390866
22	0xbdf2d1af	-0.118564
23	0x3d5f4aac	0.054514572
24	0x3c32b791	0.010908023
25	0xbd66ee67	-0.056379702
26	0xbab7f005	-0.0014033323
27	0xbc3dba40	-0.01158005
28	0xbd00be6e	-0.031431608
29	0xbd281d08	-0.04104331
30	0xbd4077c8	-0.046989232
31	0x3da392d9	0.07986993
32	0xbd2ad2fb	-0.041705113
33	0x3b866fb7	0.004102673
34	0x3ac1ed17	0.001479539
35	0x3d5340ed	0.05157559
36	0xbd391478	-0.045185536
37	0xbbc87f64	-0.006118702
38	0x3d657c87	0.05602696
39	0xba112302	-0.00055365276
40	0x3d69f795	0.05712088
41	0x3c959c38	0.018262967
42	0xbd258e32	-0.04041881
43	0x3c094b44	0.008379761
44	0xbdafe18e	-0.08587943
45	0xbc87f6fa	-0.01659726
46	0x3c02759d	0.0079626115
47	0xbc2ed8d4	-0.010671813
48	0x3bdfb79a	0.006827307
49	0xb9856d6b	-0.0002544926
50	0xbcae19dd	-0.021252567
51	0xbb1a9598	-0.00235877
52	0x3def32c3	0.11679604
53	0xbb7de2df	-0.0038739962
54	0xbd265935	-0.04061242
55	0xbd28680a	-0.041114844
56	0x3c1281fe	0.008942125
57	0x3d447531	0.047963325
58	0x3d884b1e	0.066549525
59	0x3d3cb64d	0.046072293
60	0xbd03b18c	-0.032151744
61	0x3da2c64a	0.07947977
62	0xbcf33a70	-0.029690951
63	0x3d387be4	0.045040026
64	0x3cfa2d53	0.03053919
65	0x3db8203e	0.08990525
66	0xbdb133ea	-0.0865248
67	0xbd859b7b	-0.06523796
68	0x3d460616	0.048345648
69	0x3d3a1fa2	0.045440324
70	0x3c858287	0.016297592
71	0x3b600e70	0.0034188293
72	0xbdf76291	-0.12079347
73	0xbdb0022c	-0.08594164
74	0x3c264792	0.0101489
75	0x3ca706b4	0.020388938
76	0xbc258775	-0.010103096
77	0x3bb62134	0.0055581573
78	0x3db24230	0.087040305
79	0x3c418e1d	0.011813668
80	0x3ca9f2cb	0.020745656
81	0xbcc56b24	-0.02409894
82	0xbd4daf79	-0.050216172
83	0xbd0e884a	-0.034797944
84	0xbda3516a	-0.07974513
85	0xbd25449b	-0.04034863
86	0xbd172a36	-0.03690549
87	0xbcd66b9d	-0.02617436
88	0x3c6463ef	0.013939842
89	0xbbc1a9b9	-0.005910125
90	0x3dacf7ab	0.084456764
91	0x3dd0f420	0.10202813
92	0x3d72a892	0.059242792
93	0x3d11bd2a	0.03558079
94	0xbcfbc241	-0.030732276
95	0x3d0cde83	0.03439189
96	0x3d4948ae	0.04914158
97	0xbc63beec	-0.0139005
98	0x3c934e1e	0.017981585
99	0xbd673794	-0.056449488
100	0xbddb3f5b	-0.107054435
101	0x3c9e9b7b	0.019361248
102	0x3cf8b172	0.03035805
103	0x3ca94b74	0.020665862
104	0x3d0bbf7c	0.03411816
105	0xbdf302da	-0.11865778
106	0xbb007062	-0.0019598235
107	0x3d6f5853	0.058433842
108	0xbc2e778d	-0.01064862
109	0x3c11e7f3	0.008905399
110	0xbd2c459d	-0.042058576
111	0xbd108ac4	-0.035288587
112	0xbd085128	-0.03328052
113	0xbc838bf2	-0.016057942
114	0xbbb4d9ad	-0.005519113
115	0x3d12582a	0.03572861
116	0xbcdeed60	-0.027212799
117	0x3d34c8a3	0.044136655
118	0xbc87113f	-0.016487716
119	0x3d85f4d1	0.06540836
120	0x3c17c6d9	0.009263718
121	0x3d5d66d2	0.054053135
122	0xbb8911a3	-0.0041830107
123	0x3d2b65db	0.041845184
124	0xbdf3c65c	-0.119030684
125	0xbcb286a8	-0.021792725
126	0x3de31d76	0.110896036
127	0x3c5c19ad	0.013433856
128	0x3c94ef34	0.018180467
129	0xbcb883a7	-0.022523714
130	0xbd097049	-0.03355435
131	0xbc5d9bd2	-0.01352592
132	0x3d0346d0	0.032049954
133	0x3d01abbd	0.031657923
134	0x3c5f31b9	0.013622695
135	0x3d2977d7	0.041374054
136	0x3cf2b925	0.0296293
137	0xbd3f2ace	-0.04667168
138	0x3d7e5bcb	0.06209926
139	0xbd2a87e9	-0.04163352
140	0x3d55a6c9	0.05216101
141	0xbd65be62	-0.056089766
142	0x3bf37885	0.0074301385
143	0xbcfa5132	-0.030556295
144	0xbd39132a	-0.045184292
145	0x3d0a0fd9	0.03370652
146	0xbd879fc7	-0.06622272
147	0xbb16a944	-0.0022989074
148	0xbc984e2c	-0.018591963
149	0x3dda8ea1	0.106717356
150	0x3d0a432b	0.033755463
151	0xbc69f861	-0.01428041
152	0xbd7d5004	-0.061843887
153	0xbd0806bf	-0.03320956
154	0xbce706ff	-0.028201578
155	0xbdb7a1d3	-0.089664124
156	0x3d717e7d	0.05895852
157	0xbccaa3b9	-0.024736272
158	0x3cd95052	0.026527558
159	0xbce4af71	-0.027915688
160	0x3b7e2dcd	0.0038784624
161	0xbd5fe46a	-0.054661192
162	0x3d62649c	0.05527173
163	0x3c987aa8	0.018613175
164	0xbc1373bc	-0.008999761
165	0xbd5b4db4	-0.0535409
166	0x3d706beb	0.05869667
167	0xbcab9313	-0.020944154
168	0x3d903371	0.07041062
169	0x3d668669	0.056280527
170	0x3daa27a0	0.08308339
171	0xbbadcbfd	-0.0053038583
172	0x3c79382a	0.015211144
173	0xbc532263	-0.012886616
174	0xbd89e200	-0.06732559
175	0xbcc9e6af	-0.024646131
176	0x3d8801a7	0.0664094
177	0xbbe4a11f	-0.006977215
178	0x3d2a7761	0.041617755
179	0x3cecc6bc	0.028903358
180	0xbc655adc	-0.013998713
181	0x3cddcecb	0.027076146
182	0x3d72e504	0.059300438
183	0x3dcd71a8	0.10031444
184	0x3923802e	0.00015592642
185	0x3d7d7cf9	0.06188676
186	0x3c1cfaed	0.00958131
187	0xbb1fcc26	-0.0024383157
188	0xbda3e887	-0.080033354
189	0xbc056856	-0.008142551
190	0x3d03afff	0.032150265
191	0x3cd6a3c2	0.026201133
192	0xbccb7562	-0.024836246
193	0x3d031073	0.03199811
194	0x3d6727bb	0.056434374
195	0x3c9d2201	0.019181253
196	0xbdcd247f	-0.10016727
197	0x3dda66d4	0.10664144
198	0xbd7773b7	-0.06041309
199	0xbd82205e	-0.0635383
200	0x3d7712d5	0.060320694
201	0x3c823fa7	0.015899492
202	0xbb0ffaa2	-0.0021969457
203	0xbd34809a	-0.044067957
204	0xbbe1371c	-0.0068730246
205	0xbc86cf84	-0.016456373
206	0xbdd8614b	-0.10565432
207	0xbb74af72	-0.003733602
208	0x3d24b516	0.04021176
209	0xbd699ded	-0.057035375
210	0xbcd6c939	-0.026218997
211	0xbde43649	-0.111431666
212	0xbcf3337f	-0.029687641
213	0x3d3a12ff	0.045428272
214	0xbcef6143	-0.029221183
215	0x3cee6265	0.029099653
216	0x3c569771	0.01309763
217	0xbcc158a2	-0.023601834
218	0x3d0abfeb	0.033874433
219	0xbde0ed28	-0.10982734
220	0xbc0f8fec	-0.008762341
221	0xbd50830c	-0.050906226
222	0xbc822c30	-0.01589021
223	0x3c26766c	0.01016007
224	0xbd2e2659	-0.04251704
225	0x3d7d05d5	0.06177314
226	0xbd93cb42	-0.07216503
227	0xbca3ad7d	-0.019980187
228	0x3c0e07ab	0.00866882
229	0x3daf7df2	0.08568944
230	0xbabd16e9	-0.0014426383
231	0x3d200765	0.039069552
232	0x3d5c77cf	0.053825196
233	0x3d1571a1	0.036485318
234	0x3da4b473	0.080422305
235	0x3d69ec00	0.057109833
236	0x3bcb9a60	0.0062134713
237	0x3d743487	0.059620406
238	0x3cbdbbfb	0.023160925
239	0xbda68608	-0.08131033
240	0xbd46e496	-0.04855784
241	0x3cd99e80	0.026564837
242	0xbc78d7f9	-0.015188211
243	0xbd5785aa	-0.052617706
244	0x3d89f166	0.06735496
245	0xbda0d381	-0.07852841
246	0x3d817c95	0.0632259
247	0x3b5e6684	0.0033935616
248	0x3d2ec72b	0.04267041
249	0xbc947a67	-0.018124772
250	0xbc5454e2	-0.012959691
251	0xbcc14e2c	-0.023596846
252	0x3d536e82	0.05161906
253	0x3ddc7207	0.107639365
254	0xbd9b6b8d	-0.07588873
255	0xbd062006	-0.032745384

model_cnn.classifier.bias f4 [5]
0	0xbd15a4f7	-0.036534276
1	0xbd2e98b2	-0.04262609
2	0x3d63d4ca	0.055622853
3	0xbd1d2dbb	-0.03837369
4	0x3d48d700	0.049033165

model_cnn.domain_classifier.weight f4 [2, 256]
0	0x39d192b1	0.0003997288
1	0xbd063c7e	-0.032772534
2	0xbc54a039	-0.012977653
3	0x3d78d175	0.06074663
4	0xbd07dd49	-0.03317002
5	0x3d109a6d	0.035303522
6	0x3d0174b6	0.031605445
7	0xbd01bb68	-0.031672865
8	0x3d1f1bf0	0.038845003
9	0x3c5b7d3b	0.0133965565
10	0xbce9cb42	-0.028539304
11	0xbd114d3a	-0.03547404
12	0x3cd4c985	0.025974998
13	0xbd48ce43	-0.04902483
14	0x3d15f703	0.03661252
15	0xbba53ad7	-0.0050424146
16	0x3ccbd683	0.02488256
17	0x3d159562	0.036519416
18	0x3c8d7802	0.017269138
19	0x3d33db09	0.04391006
20	0x3c82bbe3	0.015958732
21	0x3d6fa529	0.05850712
22	0x3d719243	0.058977377
23	0x3d5cfbf4	0.05395122
24	0xbd7a41e8	-0.06109801
25	0xbd208a90	-0.039194643
26	0x3c53c617	0.012925646
27	0xbd4e7bbc	-0.05041097
28	0xbd4c73bb	-0.049915057
29	0x3d744f7a	0.059646107
30	0xbd7c7835	-0.061638076
31	0x3d75b5ef	0.05998796
32	0xbd1acf1b	-0.037795167
33	0xbd281523	-0.041035783
34	0xbd015b6a	-0.03158132
35	0x3d017365	0.03160419
36	0x3c9b611a	0.0189672
37	0xbd33f0c5	-0.043930788
38	0x3d716f56	0.05894407
39	0xbc11ba71	-0.008894549
40	0x3d456a2c	0.048196957
41	0x3c448c3c	0.011996325
42	0xbcfe0319	-0.031007336
43	0x3d69ca20	0.057077527
44	0xbc519d5e	-0.012793867
45	0x3d24f8b3	0.04027624
46	0xbb8af20f	-0.0042402814
47	0xb74f98f0	-1.237377e-05
48	0x3d241001	0.040054325
49	0x3d73d0ad	0.05952518
50	0xbd554d90	-0.052075922
51	0x3c1bcfe7	0.009510017
52	0xbc33ae44	-0.010966841
53	0x3d17b3f2	0.037036844
54	0x3d129f4b	0.035796445
55	0x3bec2c80	0.0072074533
56	0xbc8f86cd	-0.017520333
57	0xbcc8c16b	-0.024506291
58	0x3d34be88	0.044127017
59	0x3cf86a7a	0.03032421
60	0xbd767ec5	-0.06017949
61	0x394482f3	0.00018740799
62	0x3b2ac8d6	0.002605965
63	0xbd169ac3	-0.036768686
64	0xbb372a4d	-0.0027948797
65	0xbc7ce4d9	-0.015435421
66	0xbcd24396	-0.025666993
67	0xbd57adad	-0.052655865
68	0x3c5fb914	0.013654966
69	0x3ca88903	0.020573145
70	0xbd6afc17	-0.057369318
71	0xbd3f932f	-0.046771225
72	0x3d3a73b7	0.04552051
73	0xbb746eb5	-0.0037297432
74	0xbd725226	-0.059160374
75	0x3cac2d83	0.021017795
76	0x3c8ac1ad	0.016938055
77	0xbd4039f5	-0.046930272
78	0x3d128cab	0.035778683
79	0x3d13f71c	0.036124334
80	0x3c97db44	0.018537171
81	0xbcf8a94c	-0.030354165
82	0x3d70e812	0.05881507
83	0x3d4f4b61	0.050608996
84	0xbc6ac5e5	-0.014329408
85	0xbd1687ee	-0.036750726
86	0x3c0915a3	0.008366975
87	0xbd6c9cd0	-0.057766736
88	0x3d73d20d	0.059526492
89	0xbd46d239	-0.048540328
90	0x3ce7ea54	0.028309979
91	0xbc287ed4	-0.010284144
92	0x3cddfd46	0.02709831
93	0x3c04b847	0.008100576
94	0x3b863e37	0.004096772
95	0xbc4ba7ab	-0.012430112
96	0x3d140433	0.036136817
97	0xbcdac604	-0.02670575
98	0xbc33da60	-0.010977358
99	0x3d3c0109	0.045899425
100	0xbd712ba9	-0.05887953
101	0xbd28504b	-0.0410922
102	0xbd56071d	-0.052252878
103	0x3d09d858	0.033653587
104	0xbd76f705	-0.06029417
105	0xbc95b238	-0.018273458
106	0x3d55e659	0.05222163
107	0xbd2c6bf5	-0.042095143
108	0x3ce9788f	0.02849987
109	0x3d692540	0.05692029
110	0xbd52dc2b	-0.0514795
111	0x3cc73cdd	0.024321014
112	0xbca02dec	-0.019553147
113	0xbbcc8039	-0.0062408713
114	0xbc3a3725	-0.011365687
115	0x3ce34f83	0.027747875
116	0xbaba2142	-0.0014200585
117	0xbd673646	-0.056448244
118	0x3d0b5520	0.03401673
119	0x3bf9f205	0.007627728
120	0x3d4d4bdd	0.050121177
121	0x3b25c377	0.0025293508
122	0x3d496b38	0.049174517
123	0x3d7998f9	0.0609369
124	0xbd5bcb6b	-0.05366079
125	0x3cf97526	0.030451369
126	0xbcb535f4	-0.022120453
127	0xbd753805	-0.059867878
128	0x3ac66136	0.0015135172
129	0xbd1bc65e	-0.038030975
130	0x3cb659c9	0.02225961
131	0x3d585b14	0.052821234
132	0x3d26b338	0.04069826
133	0x3bbd2687	0.005772415
134	0x3b3dd8c5	0.0028968316
135	0xbcef068e	-0.02917793
136	0x3d3802ff	0.044924732
137	0x3c34f05e	0.011043636
138	0xbc850b87	-0.016240848
139	0xbc7f9bbd	-0.015601096
140	0xbd0400b7	-0.032227244
141	0x3c21f682	0.009885432
142	0xbb5d6407	-0.0033781545
143	0x3d3f1c0d	0.04665761
144	0x3d756520	0.059910893
145	0xbd782766	-0.06058445
146	0x3d4c8ccf	0.049938973
147	0xbd69f652	-0.057119675
148	0xbd778e2f	-0.06043833
149	0xbd5721e5	-0.05252256
150	0x3d548c69	0.051891718
151	0xbcba3aa1	-0.022733035
152	0xbd10d663	-0.035360705
153	0x3d3ce151	0.046113316
154	0x3d3b7f41	0.045775656
155	0x3ce03190	0.027367383
156	0x3d2c0ba8	0.042003304
157	0x3c9cc818	0.01913838
158	0xbd77719c	-0.06041108
159	0xbcd20bc2	-0.025640372
160	0x3b56c178	0.0032769125
161	0x3c7c6116	0.0154040065
162	0x3d37ae4f	0.044843968
163	0x3c1d2b4e	0.009592844
164	0x3d3867b6	0.04502078
165	0xbd414a9b	-0.04719029
166	0xbd1330df	-0.03593528
167	0xbd55df28	-0.05221477
168	0xbd3872bf	-0.045031305
169	0x3c97c9e7	0.018528892
170	0x3d0a923e	0.033830874
171	0xbb0d3006	-0.0021543517
172	0x3d1b8214	0.03796585
173	0xbd571b4e	-0.052516274
174	0x3d42ce71	0.04756016
175	0x3d215687	0.03938916
176	0xbd7a3b9e	-0.06109201
177	0x3c1e2b1f	0.009653836
178	0xbc1ffcfa	-0.009764904
179	0xbb1ce83c	-0.0023942133
180	0xbd735af6	-0.05941292
181	0xbd4dd72d	-0.050254036
182	0xbd5113ac	-0.05104415
183	0xbd254e60	-0.040357947
184	0x3c2ce7af	0.010553285
185	0x3c836ef5	0.01604412
186	0x3d600966	0.054696463
187	0xbc6557fd	-0.013998029
188	0x3ce366d0	0.027758986
189	0x3d16e2af	0.036837276
190	0x3ccbb5b1	0.02486691
191	0xbd48dabf	-0.049036738
192	0xbc24f8ac	-0.010069054
193	0x3c027d1c	0.007964399
194	0x3d0409d7	0.032235947
195	0xb940427c	-0.00018335314
196	0xbd5c3e71	-0.053770486
197	0xbcbb11a9	-0.02283557
198	0xbc156540	-0.009118378
199	0x3c0df54e	0.008664442
200	0xbd4b3452	-0.049610443
201	0xbd746ecb	-0.059675973
202	0xbcc132fc	-0.023583882
203	0x3d6d8dfc	0.057996735
204	0xbd53ad30	-0.051678836
205	0xbd44ad29	-0.0480167
206	0x3d674e21	0.056470994
207	0x3c415b40	0.011801541
208	0xbd60095b	-0.054696422
209	0xbc21d8fb	-0.009878392
210	0xbd6ab695	-0.05730303
211	0xbabaa658	-0.0014240248
212	0x3c559e54	0.013038237
213	0x3baefbb5	0.0053400644
214	0x3d2f3042	0.04277063
215	0xbc9faeb7	-0.01949249
216	0xbc374884	-0.011186723
217	0xbd4a77bb	-0.04943059
218	0x3d692ff7	0.05693051
219	0x3d1730b9	0.0369117
220	0x3c8962c6	0.016770732
221	0xbbcbc930	-0.006219052
222	0x3d665f17	0.05624303
223	0x3c559883	0.01303685
224	0x3c8f9bdb	0.017530372
225	0xbd6994fa	-0.05702684
226	0xbd6fb3f5	-0.05852123
227	0x3d430475	0.047611672
228	0x3c1d865d	0.009614554
229	0x3c88e5ef	0.016711203
230	0x3d6f85d3	0.058477234
231	0xbd533ade	-0.051569812
232	0x3c2b85c8	0.010468908
233	0xbd588903	-0.05286504
234	0xbbd35916	-0.006449829
235	0xbd7a2b99	-0.061076734
236	0x3d581c82	0.052761562
237	0x3d217542	0.039418466
238	0xbb80102c	-0.003908178
239	0xbb020ae0	-0.0019842908
240	0xbd20f226	-0.03929343
241	0x3c962c36	0.018331628
242	0xbbbf3122	-0.0058347145
243	0x3c50a074	0.0127335675
244	0x3c94a1ee	0.01814362
245	0x3d148796	0.036262117
246	0x3c8db589	0.017298477
247	0xbd774ee5	-0.060377974
248	0xbd357888	-0.0443044
249	0x3d73d146	0.05952575
250	0x3d5a5826	0.05330672
251	0x3d6cd57e	0.05782079
252	0xbc975394	-0.01847247
253	0xbceaa2f1	-0.02864215
254	0x3ce72671	0.028216572
255	0xbd7c1fb3	-0.06155367

model_cnn.domain_classifier.bias f4 [2]
0	0xbc188a0c	-0.009310257
1	0x3b3ba0e6	0.0028629838
