checkpoint/pretrain_cnn_features_1d_sa_nmc_1212/best_model.pth (torch, 906722 bytes, 37 tensors)

model_cnn.conv_layers.0.0.weight f4 [16, 21, 15]
-0.013637955 0.054399114 0.004033292 0.008371738 -0.026207795 -0.021390479 0.064599246 0.03717311
0.009298054 0.049578287 -0.01923304 -0.050646305 -0.06561809 0.015405412 0.00039594996 0.037910126
0.046608075 0.021715285 0.054672293 -0.0117172785 0.047960036 -0.019839853 -0.009995327 0.027404962
-0.039370507 0.039074242 0.011730599 -0.009203181 0.041688006 0.03604818 -0.020837197 0.0015663782
0.008000401 0.049850497 0.029452799 0.040420555 0.035378356 -0.057698052 0.0214969 -0.03093909
0.03475918 0.026624536 -0.047372553 -0.018761475 -0.0040871417 0.03681745 -0.035003442 0.02336146
0.046923365 0.045139015 0.039378636 0.018214393 -0.05061592 0.038212385 -0.044766624 -0.03147922
0.0036377322 0.015434615 0.03256164 -0.008003272 -0.02628356 -0.0053980118 0.022752237 -0.030010313
-0.051268563 0.024173424 -0.040964313 -0.041830275 0.03452361 -0.050865773 -0.056618504 0.033234738
-0.04185251 -0.009616532 0.042943936 -0.0037532197 0.06961946 0.058543187 0.05559548 0.027334146
-0.015615005 0.043842882 -0.032280464 -0.027565654 -0.021457508 0.029799366 0.0126818055 0.039775196
0.0408729 0.007160748 0.022193043 -0.06433782 -0.068907246 -0.05275072 0.021584943 0.04452553
-0.021326646 0.026427453 -0.040195215 -0.0012821868 -0.002840003 -0.016620696 -0.03012025 0.024700215
-0.0058782124 -0.0017722988 0.058930904 -0.016054522 0.054295637 0.06372981 -0.024553558 -0.0489858
0.0055125426 -0.049012724 0.013125838 -0.049160182 -0.045325622 0.0077300114 -0.019553965 -0.054664444
0.030437516 0.03811266 0.030652443 0.051739737 -0.013411391 0.055770386 -0.04595654 0.0394099
0.026905026 -0.0698383 -0.018882215 -0.04151678 0.038501833 -0.017028455 0.018781485 0.07971491
-0.047481123 0.043430787 -0.05593421 -0.02540947 -0.031083373 -0.058946166 -0.07306126 -0.066600576
-0.055553973 -0.034711055 -0.0163603 0.023001362 -0.011990481 -0.059301108 -0.009582822 0.03394267
-0.049795505 -0.036222003 -0.06384957 0.01822167 0.029776925 -0.017736131 -0.0419502 -0.02688665
-0.0014685718 0.023834104 -0.009376879 -0.031023445 -0.002572386 0.036583707 -0.0033273015 0.050821546
-0.00021594114 0.009565929 0.00238019 0.023709841 -0.029182091 -0.034466125 -0.04026078 0.025670107
0.050539408 0.055949345 0.020941254 -0.00968218 0.021817205 -0.048622493 0.0070719887 -0.021144936
-0.0073811975 0.028331835 -0.024439882 -0.049428437 -0.00474397 -0.024307229 -0.03420819 -0.024032617
-0.038967032 0.042522274 -0.003025208 -0.052723277 0.01781178 0.0028412396 0.03442082 0.046640575
0.06270454 -0.015173488 -0.000478466 -0.032951184 0.050873432 0.016968746 -0.013733923 0.010888956
0.05263189 0.019699654 0.056111187 0.07611021 0.020838477 0.015683651 0.028405467 -0.03933879
0.030822815 0.008403226 0.0043338705 0.0096391495 0.05692399 0.02425315 -0.043098494 0.060242627
0.042448435 0.0053427205 0.0054040872 0.001254674 -0.02512604 0.04510013 -0.027552495 -0.027331242
0.006055712 -0.03774523 0.05609929 0.060297184 0.029065551 0.037506342 -0.05151778 0.05071087
0.012592652 -0.04926984 -0.06305339 -0.007328959 0.018169034 -0.023932872 -0.016020097 -0.0083132
-0.045696307 0.049511317 0.005791159 -0.03912082 -0.030105114 0.030538483 -0.04086963 0.056954514
00000000: bb71 5fbc 9bd1 5e3d b529 843b 9d29 093c
00000010: bbb1 d6bc 163b afbc 9c4c 843d d542 183d
00000020: dd56 183c 9a12 4b3d 9c8e 9dbc 8072 4fbd
00000030: c762 86bd fb66 7c3c 8197 cf39 a647 1b3d
00000040: 1ce8 3e3d 41e4 b13c 0ef0 5f3d d4f9 3fbc
00000050: be71 443d 3087 a2bc 71c3 23bc 5f80 e03c
00000060: f842 21bd 500c 203d b331 403c f0c8 16bc
00000070: 0bc1 2a3d 42a7 133d c5b2 aabc ee4e cd3a
00000080: 1d14 033c 0930 4c3d ff46 f13c 0690 253d
00000090: e5e8 103d cb54 6cbd 441a b03c f973 fdbc
000000a0: a45f 0e3d b31b da3c b909 42bd aab1 99bc
000000b0: 6eed 85bb e5cd 163d c55f 0fbd 8860 bf3c
000000c0: b732 403d b0e3 383d 7e4b 213d 5a36 953c
000000d0: a452 4fbd 9784 1c3d 355d 37bd 5bf0 00bd
000000e0: 0567 6e3b 78e1 7c3c 5b5f 053d 2820 03bc
000000f0: 9f50 d7bc cee1 b0bb e662 ba3c 30d8 f5bc
00000100: fcfe 51bd 5807 c63c 32ca 27bd 3956 2bbd
00000110: a168 0d3d a158 50bd cee8 67bd 2621 083d
00000120: 8a6d 2bbd a98e 1dbc fbe5 2f3d 94f8 75bb
00000130: a694 8e3d fbca 6f3d 16b8 633d dceb df3c
00000140: 14d6 7fbc 9894 333d 8538 04bd 5ed1 e1bc
00000150: a8c7 afbc cd1d f43c 59c7 4f3c 51eb 223d
00000160: 586a 273d b5a4 ea3b 2fce b53c 8cc3 83bd
00000170: 3e1f 8dbd 2411 58bd e8d2 b03c 6760 363d
00000180: 38b5 aebc 637e d83c bda3 24bd 0d0f a8ba
00000190: 581f 3abb 2028 88bc bebe f6bc 1b58 ca3c
000001a0: 059e c0bb 7b4c e8ba 8861 713d c684 83bc
000001b0: 1a65 5e3d c684 823d 8b24 c9bc 56a5 48bd
000001c0: 8fa2 b43b 91c1 48bd c10d 573c 305c 49bd
000001d0: 5ca7 39bd 094c fd3b a32f a0bc d3e7 5fbd
000001e0: 1958 f93c 051c 1c3d d51a fb3c 0ced 533d
000001f0: 73bb 5bbc 7d6f 643d ed3c 3cbd 466c 213d
00000200: ee67 dc3c 6207 8fbd e0ae 9abc 800d 2abd
00000210: 19b4 1d3d 427f 8bbc a1db 993c 9241 a33d
00000220: 917b 42bd 7be4 313d 451b 65bd 8527 d0bc
00000230: 8fa2 febc 8971 71bd 24a1 95bd e265 88bd
00000240: 908c 63bd 2e2d 0ebd 0906 86bc 5a6d bc3c
00000250: b973 44bc b8e5 72bd 4501 1dbc 7807 0b3d
00000260: 5ff6 4bbd 865d 14bd 90c3 82bd 9d45 953c
00000270: bdee f33c 5d4b 91bc f9d3 2bbd 6441 dcbc
00000280: 187d c0ba bd3f c33c 7ba1 19bc e124 febc
00000290: 7a95 28bb ccd8 153d db0e 5abb 412a 503d
000002a0: 426e 62b9 6aba 1c3c f6fc 1b3b 243b c23c
000002b0: 480f efbc 5a2c 0dbd 7de8 24bd 1e4a d23c
000002c0: 6902 4f3d 242b 653d fe8c ab3c 02a2 1ebc
000002d0: ffb9 b23c 6128 47bd 24bc e73b 2538 adbc
000002e0: f9dd f1bb 2a18 e83c 2636 c8bc 7975 4abd
000002f0: 4e73 9bbb f41f c7bc e31d 0cbd 0de0 c4bc
00000300: e59b 1fbd d62b 2e3d 9142 46bb 5df4 57bd
00000310: 03ea 913c 1734 3a3b d9fc 0c3d 300a 3f3d
00000320: 3d6b 803d 399a 78bc 9fda fab9 d2f7 06bd
00000330: a960 503d 0a02 8b3c 4004 61bc 9767 323c
00000340: 8994 573d 2b61 a13c d8d4 653d abdf 9b3d
00000350: 74b5 aa3c 007b 803c 95b2 e83c b621 21bd
00000360: 2180 fc3c afad 093c 2403 8e3b 86ed 1d3c
00000370: 2129 693d 8bae c63c 0c88 30bd f9c0 763d
00000380: 69de 2d3d fd11 af3b c514 b13b e073 a43a
00000390: 20d5 cdbc eaba 383d c5b5 e1bc c5e5 dfbc
000003a0: fe6e c63b be9a 1abd 5ec8 653d 2efa 763d
000003b0: e11a ee3c 40a0 193d 4f04 53bd 34b6 4f3d
000003c0: 6951 4e3c 2ccf 49bd 2322 81bd c427 f0bb
000003d0: 3ad7 943c df0e c4bc 943c 83bc 1734 08bc
000003e0: 0d2c 3bbd 61cc 4a3d c3c3 bd3b 273d 20bd
000003f0: 009f f6bc d72b fa3c ea66 27bd 2349 693d

model_cnn.conv_layers.0.0.bias f4 [16]
0.00090840185 0.000110151486 0.00043691727 7.4235104e-05 -0.00037348337 0.0007732314 0.00019115196 -6.722519e-06
0.00063771097 -0.0006363515 -0.0004511136 0.00032077124 -0.0010549936 -0.00041371834 -0.00092757016 -6.567227e-05
00000000: d121 6e3a 2101 e738 0b12 e539 abae 9b38
00000010: 17d0 c3b9 aeb2 4a3a f76f 4839 0092 e1b6
00000020: 0f2c 273a d4d0 26ba 7183 ecb9 302d a839
00000030: b647 8aba 56e8 d8b9 2e28 73ba 88b9 89b8

model_cnn.conv_layers.0.1.weight f4 [16]
0.9942445 1.0336437 1.0023144 0.99329823 1.0274935 0.98282903 1.0014024 1.0165044
0.96465015 1.0058964 0.9614168 1.029433 1.0019712 1.0042893 1.0313122 0.9837292
00000000: cf86 7e3f 704e 843f d74b 803f cb48 7e3f
00000010: e884 833f af9a 7b3f f42d 803f d11c 823f
00000020: 50f3 763f 37c1 803f 691f 763f 76c4 833f
00000030: 9840 803f 8d8c 803f 0a02 843f add5 7b3f

model_cnn.conv_layers.0.1.bias f4 [16]
0.01559053 0.014603878 -0.004290406 -0.0035044749 -0.0042262375 0.020287754 0.00084409583 -0.011052175
-0.005528639 -0.008931348 -0.027783059 -0.013457257 -0.0075207925 -0.006893837 0.015871964 -0.022269834
00000000: 6c6f 7f3c 1b45 6f3c 8996 8cbb 55ab 65bb
00000010: 407c 8abb 8132 a63c 5046 5d3a 2f14 35bc
00000020: 9629 b5bb ca54 12bc 4c99 e3bc d47b 5cbc
00000030: fb70 f6bb b2e5 e1bb ec05 823c 3a6f b6bc

model_cnn.conv_layers.0.1.running_mean f4 [16]
0.21770713 0.118711665 -0.21206178 -0.54141104 -0.015644772 0.21745889 0.22067387 0.34096527
0.46637934 0.54325444 0.11486317 -0.2308805 -0.51993006 -0.60944057 0.16243216 -0.39847872
00000000: 9eee 5e3e 1a1f f33d b926 59be ea99 0abf
00000010: 7729 80bc 8bad 5e3e 55f8 613e 0093 ae3e
00000020: 46c9 ee3e b912 0b3f 623d eb3d f06b 6cbe
00000030: 231a 05bf 4c04 1cbf 9e54 263e 6705 ccbe

model_cnn.conv_layers.0.1.running_var f4 [16]
0.47948185 0.8171854 0.47353202 1.9229152 0.49673522 0.4869603 2.6937246 0.32291606
1.2320918 0.41830263 1.6901554 0.50311995 0.5944483 0.26338503 0.37659326 1.984484
00000000: a57e f53e 1033 513f ca72 f23e 1622 f63f
00000010: 1454 fe3e dc52 f93e fc65 2c40 4155 a53e
00000020: 2fb5 9d3f c32b d63e 0357 d83f 78cc 003f
00000030: c42d 183f 67da 863e d5d0 c03e 9203 fe3f

model_cnn.conv_layers.1.0.weight f4 [32, 16, 3]
0.09598933 0.07104929 -0.09535486 0.03371342 0.14818953 -0.03189796 0.037258524 0.10804199
-0.02036035 -0.059783928 -0.08627831 -0.02195531 -0.11063433 0.13183495 -0.13254273 0.116872124
0.083091974 -0.14000261 -0.08672355 0.12438163 -0.012225575 -0.1082476 -0.012373834 -0.0437939
0.015013515 0.05652568 -0.12281152 -0.07734253 -0.009653363 0.13038783 -0.110478066 -0.08084623
0.07772753 0.13953656 0.015797582 0.007597457 0.045101818 -0.045459066 0.07626226 0.14186566
0.10363562 -0.1415398 0.13069685 0.14602135 0.06859067 -0.053303935 -0.011318566 -0.09911115
-0.008665285 0.07496085 -0.030034795 -0.005289962 -0.014908366 0.024478799 0.026439782 -0.037671424
-0.14009015 -0.013945763 -0.059414577 -0.056082867 -0.061205875 -0.09855933 -0.13030502 -0.04495101
0.013551629 0.1340121 0.022040656 0.02621008 0.08280393 0.049309194 -0.13870549 -0.15550469
-0.07323673 -0.014994041 -0.0782904 0.10755475 -0.06730601 -0.06899286 -0.11128977 -0.07289793
-0.10193139 0.14235689 0.06722431 -0.13731676 0.14903252 -0.004202665 0.06622309 -0.015982613
-0.022585195 0.063373215 0.12540025 0.021345032 0.10838094 0.13679954 0.016920632 -0.013247456
-0.027119491 -0.04405798 -0.07354923 -0.12374495 -0.12057568 -0.03755511 -0.042466525 -0.13523975
-0.05241777 0.11596486 -0.008251717 -0.059236053 0.005278125 0.098582305 -0.07913156 -0.067976646
-0.0094615985 -0.008827817 0.13470641 -0.11298108 0.020649007 0.046569288 0.013853204 0.045078672
0.06275081 0.14581549 0.13610394 -0.13019082 0.033033215 0.12169764 -0.09163642 -0.027485326
0.026299123 0.12778105 0.057599682 0.04560668 -0.15483275 0.030874223 0.018946722 0.017952224
0.0689663 0.12915638 0.13408075 -0.11012578 -0.1282386 0.013278713 -0.121264 0.058428947
-0.01586268 0.13088953 0.05367775 -0.012641152 0.025312109 -0.1363418 -0.0835312 -0.08522188
-0.08632569 0.120409 -0.097124815 0.09702209 0.09593709 -0.101081185 -0.11729418 0.094207436
0.038527742 -0.046572026 0.023465004 -0.07463053 -0.07101056 0.11913782 -0.038102258 0.11434932
-0.12930183 -0.008090252 -0.11549093 0.010995556 0.12725413 0.10867791 0.12143983 -0.07467643
0.050069492 -0.1065822 0.16526088 -0.034506023 0.11226596 -0.005645908 0.026884515 -0.023618301
0.12854768 -0.13048574 -0.14024799 -0.012997796 -0.12018746 -0.035400826 0.01616594 0.053086005
0.043647807 0.14741904 -0.096131936 -0.091184944 0.015074093 0.040093698 0.09679754 -0.067490555
0.14025304 0.13219553 -0.11213181 0.127444 0.00034574312 0.08932382 -0.044410773 0.018786471
0.0582922 -0.060743924 -0.101833664 0.009598429 0.11606574 0.03612471 -0.03801107 0.04595842
0.059519596 -0.10865072 0.03144473 0.051496465 -0.0070697665 -0.11747768 -0.079270594 0.15873605
0.11758179 -0.03919518 0.07819671 0.033541262 0.08164324 -0.027676016 -0.13802771 0.10537222
-0.0322377 0.016346559 -0.13164896 -0.10485707 0.053684644 -0.073548235 0.05908038 0.097708866
-0.016043847 0.08801472 0.060442332 0.030821143 0.07889993 0.015700668 0.0978776 -0.13645917
-0.14717141 -0.07354488 0.06275305 0.0192663 0.10030404 0.1502932 -0.12165315 -0.09695529
00000000: 0e96 c43d 4a82 913d 6949 c3bd 1517 0a3d
00000010: ffbe 173e 6fa7 02bd 659c 183d 1e45 dd3d
00000020: c0ca a6bc fedf 74bd afb2 b0bd 9fdb b3bc
00000030: 4094 e2bd beff 063e 48b9 07be a75a ef3d
00000040: 202c aa3d d85c 0fbe 1e9c b1bd ccbb fe3d
00000050: c74d 48bc ebb0 ddbd 9fbb 4abc 3c61 33bd
00000060: 3ffb 753c 7987 673d 9b84 fbbd c365 9ebd
00000070: 2429 1ebc 6384 053e 5342 e2bd b592 a5bd
00000080: 9c2f 9f3d ace2 0e3e ee69 813c 17f4 f83b
00000090: afbc 383d 4933 3abd 632f 9c3d 3b45 113e
000000a0: e93e d43d cfef 10be 65d5 053e 9f86 153e
000000b0: 4479 8c3d 3a55 5abd 8271 39bc c9fa cabd
000000c0: d7f8 0dbc 1385 993d 880b f6bc 6b57 adbb
000000d0: 3842 74bc c387 c83c 3e98 d83c 5a4d 1abd
000000e0: cb73 0fbe c57c 64bc b35c 73bd 26b7 65bd
000000f0: 03b3 7abd 79d9 c9bd ae6e 05be 8d1e 38bd
00000100: a707 5e3c 783a 093e 9b8e b43c 86b6 d63c
00000110: 1b95 a93d 70f8 493d d008 0ebe 9f3c 1fbe
00000120: 24fd 95bd 91a9 75bc b856 a0bd aa45 dc3d
00000130: bcd7 89bd 214c 8dbd e4eb e3bd 834b 95bd
00000140: 68c1 d0bd 01c6 113e e6ac 893d c49c 0cbe
00000150: fb9b 183e 82b6 89bb f99f 873d f8ed 82bc
00000160: 9604 b9bc d1c9 813d ec68 003e c7db ae3c
00000170: d4f6 dd3d 2e15 0c3e 239d 8a3c dc0b 59bc
00000180: b229 debc 2476 34bd fba0 96bd fe6d fdbd
00000190: 62f0 f6bd 63d3 19bd 61f1 2dbd 4a7c 0abe
000001a0: 04b4 56bd fc7e ed3d 3632 07bc 81a1 72bd
000001b0: 1ff4 ac3b 85e5 c93d ba0f a2bd 5737 8bbd
000001c0: d204 1bbc 8ca2 10bc 7af0 093e a062 e7bd
000001d0: 1b28 a93c 70bf 3e3d 8df8 623c 6aa4 383d
000001e0: 7f83 803d a850 153e d55e 0b3e be50 05be
000001f0: d64d 073d 9d3c f93d e0ab bbbd e828 e1bc
00000200: 4271 d73c 09d9 023e a5ed 6b3d 12ce 3a3d
00000210: 7a8c 1ebe f0eb fc3c 2836 9b3c 8b10 933c
00000220: 343e 8d3d 9241 043e 774c 093e a089 e1bd
00000230: fb50 03be f68e 593c 4359 f8bd 3153 6f3d
00000240: 73f2 81bc e807 063e 33dd 5b3d d61c 4fbc
00000250: 575b cf3c 2f9d 0bbe 6812 abbd cf88 aebd
00000260: 86cb b0bd fe98 f63d 60e9 c6bd 84b3 c63d
00000270: aa7a c43d a703 cfbd ee37 f0bd d4ef c03d
00000280: 44cf 1d3d 4fc2 3ebd ae39 c03c e4d7 98bd
00000290: fc6d 91bd 88fe f33d 1d11 1cbd fa2f ea3d
000002a0: b367 04be fa8c 04bc 8286 ecbd b426 343c
000002b0: e84e 023e 8692 de3d 72b5 f83d f5ef 98bd
000002c0: ab15 4d3d c547 dabd 263a 293e 3056 0dbd
000002d0: b2eb e53d 4f01 b9bb ea3c dc3c 2b7b c1bc
000002e0: 01a2 033e 0e9e 05be 2b9d 0fbe b5f4 54bc
000002f0: d824 f6bd 7500 11bd 6f6e 843c b670 593d
00000300: 0bc8 323d 04f5 163e d2e0 c4bd 2cbf babd
00000310: 54f9 763c 4a39 243d ca3d c63d 7d38 8abd
00000320: 7e9e 0f3e 445e 073e 5da5 e5bd ae80 023e
00000330: db44 b539 68ef b63d 12e8 35bd 16e6 993c
00000340: cdc3 6e3d 9fce 78bd 2b8e d0bd bb42 1d3c
00000350: e0b3 ed3d 81f7 133d 7fb1 1bbd e53e 3c3d
00000360: d2ca 733d 4584 debd 30cc 003d f5ed 523d
00000370: 80a9 e7bb 2398 f0bd 9f58 a2bd b48b 223e
00000380: b9ce f03d 208b 20bd 9925 a03d 9062 093d
00000390: 9234 a73d d0b8 e2bc 2357 0dbe 64cd d73d
000003a0: ae0b 04bd 38e9 853c fcce 06be 4ebf d6bd
000003b0: 6ee4 5b3d 75a0 96bd 45fe 713d 961b c83d
000003c0: 636e 83bc 1041 b43d 6192 773d 9f7c fc3c
000003d0: 4996 a13d b09e 803c 0d74 c83d f4bb 0bbe
000003e0: 1ab4 16be b39e 96bd ac84 803d 5cd4 9d3c
000003f0: 346c cd3d 76e6 193e 4925 f9bd 7f90 c6bd

model_cnn.conv_layers.1.0.bias f4 [32]
0.0007497419 0.0038741909 -0.00022255986 -0.00021537213 0.004512146 1.0641086e-05 0.0021292951 0.00023085362
-0.00029143682 -0.00010808169 -0.000456732 0.0002365086 0.0006070108 0.0021129383 0.0004517345 4.740738e-05
-3.977872e-05 -0.00021611714 -0.0003403509 0.0019530173 0.00032004138 -0.0004432342 -0.00012461751 -0.00022071144
-0.0007268032 -9.772781e-05 0.003514365 -0.0004276666 -0.000336911 0.00042003547 -0.0007298913 -0.00022245328
00000000: 548a 443a 23e6 7d3b f55e 69b9 84d5 61b9
00000010: a0da 933b 1e87 3237 a58b 0b3b 4c11 7239
00000020: fdcb 98b9 eaa9 e2b8 8875 efb9 4bff 7739
00000030: ce1f 1f3a 3979 0a3b c7d6 ec39 49d7 4638
00000040: 13d8 26b8 819d 62b9 2071 b2b9 63fc ff3a
00000050: 3acb a739 e361 e8b9 c2ab 02b9 c76e 67b9
00000060: f086 3eba 38f3 ccb8 4351 663b 7038 e0b9
00000070: 6ea3 b0b9 3538 dc39 2d56 3fba 5942 69b9

model_cnn.conv_layers.1.1.weight f4 [32]
0.99266666 1.0038276 0.98478854 1.0096205 0.9826538 0.9988874 1.0011199 1.0152403
0.98000073 1.0079365 1.014664 0.99966365 1.0003636 0.9953427 1.012292 0.9778753
0.9773229 1.0320903 0.99520457 1.0208187 1.0109411 1.0099229 0.98918027 0.99217576
0.98395514 1.0619054 0.98036146 0.9964169 1.0034287 1.017458 0.9994843 0.98820984
00000000: 671f 7e3f 6c7d 803f 1a1b 7c3f 3f3b 813f
00000010: 338f 7b3f 16b7 7f3f b224 803f 65f3 813f
00000020: 54e1 7a3f 1004 813f 83e0 813f f5e9 7f3f
00000030: ea0b 803f c7ce 7e3f c992 813f 0956 7a3f
00000040: d531 7a3f 891b 843f bac5 7e3f 30aa 823f
00000050: 8566 813f 2745 813f eb3a 7d3f 3bff 7d3f
00000060: 7ce4 7b3f 84ec 873f f8f8 7a3f 2e15 7f3f
00000070: 5a70 803f 103c 823f 34de 7f3f 52fb 7c3f

model_cnn.conv_layers.1.1.bias f4 [32]
-0.016491696 0.014140324 -0.0038415135 0.016674347 -0.005815682 0.032586984 0.011459839 0.0081903795
0.027732268 0.020884829 0.030742833 -0.008256096 -0.004870182 0.007092527 0.033723116 -0.0024871638
-0.0064173727 0.013319964 -0.0011036847 0.026892534 0.015418955 0.010767306 -0.033779223 -0.008309408
-0.000624584 0.002917582 -0.0057666507 0.007898141 -0.0011852353 -0.01797606 0.021354772 -0.011328543
00000000: 9819 87bc d1ac 673c e7c1 7bbb a498 883c
00000010: 7a91 bebb ee79 053d 0cc2 3b3c f130 063c
00000020: c82e e33c a916 ab3c 65d8 fb3c 9444 07bc
00000030: 0c96 9fbb 6e68 e83b 4021 0a3d afff 22bb
00000040: d348 d2bb fa3b 5a3c 83a9 90ba bb4d dc3c
00000050: c99f 7c3c 5b69 303c 155c 0abd 2f24 08bc
00000060: 1fbb 23ba e734 3f3b 2cf6 bcbb 3467 013c
00000070: e659 9bba 8842 93bc 34f0 ae3c 5a9b 39bc

model_cnn.conv_layers.1.1.running_mean f4 [32]
0.18675746 -0.07046616 -0.05330316 -0.031574935 0.26807395 -0.118893795 -0.22072072 0.012846538
0.18090717 -0.13252899 0.23191656 0.09670598 -0.4479422 0.34758934 -0.3198561 0.038632847
0.039201293 0.12425352 0.13024426 -0.13464329 -0.081182644 -0.07499877 0.23955545 -0.06399766
0.10115707 -0.1282875 0.5368616 -0.056870267 -0.33052084 -0.0391558 -0.021888992 -0.108046986
00000000: 593d 3f3e 9050 90bd 6a54 5abd b854 01bd
00000010: fd40 893e 977e f3bd 9d04 62be 497a 523c
00000020: bb3f 393e aeb5 07be 897b 6d3e c90d c63d
00000030: ae58 e5be 3bf7 b13e 2ec4 a3be 7a3d 1e3d
00000040: 8991 203d a178 fe3d c05e 053e eedf 09be
00000050: 1643 a6bd f598 99bd 064e 753e 3511 83bd
00000060: 702b cf3d cc5d 03be c36f 093f ccf0 68bd
00000070: 073a a9be d561 20bd 8b50 b3bc bd47 ddbd

model_cnn.conv_layers.1.1.running_var f4 [32]
0.14718157 0.15935232 0.059928995 0.13998513 0.15133767 0.11402939 0.089236975 0.079131044
0.07956592 0.069668196 0.08368812 0.07147223 0.29158828 0.16905522 0.07317076 0.13110669
0.15382461 0.13360976 0.12922092 0.06301444 0.07908303 0.09190662 0.13808647 0.19983584
0.095651485 0.09133224 0.17612334 0.1373449 0.097458564 0.15113796 0.09749239 0.05323251
00000000: c4b6 163e 412d 233e 1b78 753d 4358 0f3e
00000010: 43f8 1a3e 3e88 e93d e0c1 b63d 750f a23d
00000020: 75f3 a23d 33ae 8e3d ad64 ab3d 0860 923d
00000030: 0f4b 953e d01c 2d3e 8dda 953d d540 063e
00000040: 3384 1d3e ffd0 083e 7d52 043e b70d 813d
00000050: 49f6 a13d 8a39 bc3d 8a66 0d3e c4a1 4c3e
00000060: ede4 c33d 660c bb3d ad59 343e 24a4 0c3e
00000070: 5b98 c73d e9c3 1a3e 17aa c73d 550a 5a3d

model_cnn.conv_layers.3.0.weight f4 [64, 32, 3]
-0.097342074 0.0133670755 0.037076693 0.012437921 0.0913767 0.054685872 -0.0006222584 0.10659107
-0.09560624 -0.00715486 -0.03879946 -0.09085342 -0.046676 -0.005262982 0.00048239078 0.06575767
-0.0068806703 0.018247452 -0.05723474 0.088642955 -0.030778699 -0.08159926 0.07420436 -0.04074969
0.005388037 -0.060276315 -0.037260946 -0.010852673 0.02368409 0.053263247 -0.07994527 0.05656432
0.028284006 0.030945625 -0.042455733 0.08431428 0.016987456 0.09169939 0.030179089 -0.08815675
-0.10223995 0.03839111 -0.091612756 -0.103126965 -0.002201623 0.092523746 0.01978985 -0.029900638
0.00025680588 -0.0061447625 -0.038177654 -0.08463693 0.08020267 0.007551057 -0.04233432 -0.0056850784
0.056839388 -0.08681208 0.051578946 -0.06704343 0.08378817 -0.037729938 -0.06349659 0.117046095
-0.06870817 0.058367737 -0.03382085 0.043352347 0.06724474 -0.017307196 -0.00018103945 0.019778779
0.07696117 0.042340886 -0.11661048 0.12256666 -0.1403018 -0.003932651 0.012100369 -0.07544247
0.081632584 0.029284965 -0.018317316 0.003138532 -0.0045593306 0.05221644 0.016073957 0.038447358
-0.07906494 -0.05972471 0.06589854 -0.023544675 -0.08177335 0.0367214 -0.093699254 0.021623064
-0.08019629 0.05659503 -0.057897225 -0.029641278 0.016073985 0.09373169 -0.07209995 0.08266776
-0.07004287 0.07951584 -0.034860514 -0.10825588 -0.07489603 0.09101374 -0.09533107 0.06300697
-0.040756833 0.063169874 0.07274571 -0.06774739 -0.014485794 0.074728034 -0.010223011 -0.09327844
0.029618157 0.06137581 -0.030438285 0.034398075 -0.035006024 0.042650677 0.07690539 -0.013298481
-0.07040918 0.025781762 -0.044191495 0.08158137 0.11725886 -0.07550323 0.080014415 -0.09375023
-0.076362506 -0.004717822 -0.034845486 0.0658181 -0.03929555 0.060574137 -0.07877524 -0.03972474
-0.05764816 0.027049044 -0.095951244 0.056308735 -0.05263483 -0.007051701 0.015394038 0.030004464
-0.006286426 0.10751336 -0.08217567 0.033649445 0.109037876 -0.01774498 -0.021475509 -0.008982681
-0.080924526 0.0014528014 0.06582243 0.05074797 -0.04231309 -0.0910852 0.0358031 0.056813926
-0.09881266 0.08502137 -0.06296335 -0.03777445 0.011722275 -0.045067284 -0.024920424 0.076724865
-0.124409966 0.06780164 -0.03900397 0.01316533 0.025648512 0.016860513 0.05383274 -0.0479529
-0.079598896 0.035889592 -0.024943704 -0.030540997 0.07404053 -0.036331557 -0.09526354 -0.0030884247
-0.018027904 0.07895187 0.0888776 0.04667211 0.062456574 -0.082115486 -0.033555325 -0.017183239
-0.04387181 -0.03927418 -0.054140277 -0.005678743 0.007853569 -0.08606798 0.03077254 -0.05053335
-0.02883046 0.087328136 -0.049889006 -0.0852812 -0.07409458 -0.008796663 0.00040717976 -0.029598711
-0.024785819 -0.062756084 -0.0385367 -0.06929769 -0.10044026 0.045982856 0.07252917 -0.03428122
-0.008615658 -0.038555432 -0.09816838 0.0020395594 0.055136222 -0.05660335 0.08265527 -0.054025833
-0.02862408 0.08072217 -0.06848767 -0.033961218 -0.10863711 0.08417814 -0.09140661 -0.0018294781
-0.046320397 0.009870807 0.040395398 0.056474306 0.018913263 0.095009275 -0.05223359 -0.011591995
0.038149912 -0.05415301 0.029367419 -0.1067237 -0.106184244 0.042132698 -0.025411123 -0.0566426
00000000: 485b c7bd 9401 5b3c bbdd 173d 6cc8 4b3c
00000010: b523 bb3d 4bfe 5f3d 0e1f 23ba 6b4c da3d
00000020: 34cd c3bd 5173 eabb 2fec 1ebd 5c11 babd
00000030: 552f 3fbd 1875 acbb 65e9 fc39 f5ab 863d
00000040: 3f77 e1bb ae7b 953c fa6e 6abd 708a b53d
00000050: 9c23 fcbc 831d a7bd 75f8 973d 26e9 26bd
00000060: 218e b03b 4ce4 76bd ef9e 18bd 69cf 31bc
00000070: 2305 c23c 902a 5a3d 59ba a3bd fdaf 673d
00000080: dcb3 e73c ae81 fd3c 10e6 2dbd f7ac ac3d
00000090: 4729 8b3c e4cc bb3d 233a f73c 878b b4bd
000000a0: 2e63 d1bd ff3f 1d3d 789f bbbd 3b34 d3bd
000000b0: 1b49 10bb 177d bd3d 531e a23c 2ff2 f4bc
000000c0: e7a3 8639 015a c9bb 2c60 1cbd 2056 adbd
000000d0: 4c41 a43d db6e f73b c066 2dbd e549 babb
000000e0: 6bd0 683d 88ca b1bd 7244 533d 114e 89bd
000000f0: 2299 ab3d b58a 1abd 800a 82bd ddb5 ef3d
00000100: deb6 8cbd 0213 6f3d bb87 0abd 3b92 313d
00000110: 9cb7 893d d2c7 8dbc 68d5 3db9 1b07 a23c
00000120: d19d 9d3d a36d 2d3d 7ad1 eebd 3b04 fb3d
00000130: 46ab 0fbe 78dd 80bb a040 463c 9581 9abd
00000140: fc2e a73d 06e7 ef3c 320e 96bc d4af 4d3b
00000150: 7066 95bb e8e0 553d 88ad 833c fa7a 1d3d
00000160: cdec a1bd e6a1 74bd d0f5 863d c3e0 c0bc
00000170: c978 a7bd 2e69 163d 65e5 bfbd da22 b13c
00000180: f43d a4bd 31d0 673d a425 6dbd 44d2 f2bc
00000190: 97ad 833c 66f6 bf3d 23a9 93bd b74d a93d
000001a0: a372 8fbd 33d9 a23d e6c9 0ebd 42b5 ddbd
000001b0: 1763 99bd 6965 ba3d f03c c3bd cc09 813d
000001c0: a3f0 26bd 355f 813d b4fb 943d 25bf 8abd
000001d0: d355 6dbc 030b 993d 6a7e 27bc c408 bfbd
000001e0: c7a1 f23c 3465 7b3d b659 f9bc ffe4 0c3d
000001f0: 7a62 0fbd 7ab2 2e3d 9380 9d3d dfe1 59bc
00000200: b032 90bd 4634 d33c 2402 35bd 2214 a73d
00000210: 6a25 f03d 70a1 9abd 99de a33d 1f00 c0bd
00000220: f263 9cbd f697 9abb 24ba 0ebd a4cb 863d
00000230: 5ff4 20bd 961c 783d ea54 a1bd 69b6 22bd
00000240: 7a20 6cbd f595 dd3c 1682 c4bd fda3 663d
00000250: 9f97 57bd f511 e7bb 4637 7c3c eccb f53c
00000260: 5dfe cdbb f72f dc3d b84b a8bd 00d4 093d
00000270: 404f df3d ec5d 91bc 68ed afbc 182c 13bc
00000280: c2bb a5bd ed6b be3a e9cd 863d 1add 4f3d
00000290: 7e50 2dbd e18a babd 45a6 123d b8b5 683d
000002a0: 4b5e cabd af1f ae3d eef2 80bd 62b9 1abd
000002b0: c90e 403c 7998 38bd eb25 ccbc ed21 9d3d
000002c0: a7ca febd 96db 8a3d a0c2 1fbd 65b3 573c
000002d0: d41c d23c 0f1f 8a3c b87f 5c3d 436a 44bd
000002e0: bf04 a3bd f700 133d bd56 ccbc 1d31 fabc
000002f0: 90a2 973d 66d0 14bd 8819 c3bd 2b67 4abb
00000300: 41af 93bc 85b1 a13d 7605 b63d 412b 3f3d
00000310: 77d2 7f3d 2a2c a8bd 4f71 09bd ddc3 8cbc
00000320: edb2 33bd f6dd 20bd 32c2 5dbd c014 babb
00000330: 42ac 003c 6944 b0bd b216 fc3c 0ffc 4ebd
00000340: db2d ecbc 18d9 b23d 6a58 4cbd e9a7 aebd
00000350: e6be 97bd e11f 10bc be7a d539 ff78 f2bc
00000360: a10b cbbc 4386 80bd a9d8 1dbd f3eb 8dbd
00000370: 9fb3 cdbd 8558 3c3d 2c8a 943d 776a 0cbd
00000380: b028 0dbc 4dec 1dbd 810c c9bd 21aa 053b
00000390: 85d6 613d ead8 67bd 2b47 a93d 314a 5dbd
000003a0: 0c7d eabc aa51 a53d 4343 8cbd eb1a 0bbd
000003b0: 227d debd 9765 ac3d 6433 bbbd 19cb efba
000003c0: 75ba 3dbd 2ab9 213c a575 253d 9a51 673d
000003d0: fdef 9a3c 3994 c23d e4f2 55bd 5aec 3dbc
000003e0: 1543 1c3d 8ccf 5dbd f193 f03c f591 dabd
000003f0: 2077 d9bd 5693 2c3d fd2a d0bc 1202 68bd

model_cnn.conv_layers.3.0.bias f4 [64]
-0.00024454732 1.52174125e-05 0.00012689391 -9.409362e-05 -0.00023446788 1.0958395e-05 -3.7586192e-06 -0.00028605107
1.0606236e-06 0.00012478497 -0.00018212861 3.6752677e-05 -8.4278916e-05 -2.2106142e-06 0.00011570891 0.00029147713
-5.5478695e-06 2.2046834e-05 9.804094e-06 2.3620783e-05 3.978145e-05 -0.00017830497 4.7113914e-05 -2.046342e-05
-0.00022202202 2.7061005e-05 -5.372531e-05 4.836187e-05 5.177834e-05 -1.5795207e-05 1.6037247e-05 3.242152e-05
5.111809e-06 1.301537e-05 -5.1511117e-05 8.884222e-06 0.00018369126 5.0953116e-05 0.00012064623 -5.1426632e-05
-1.2625264e-06 2.0245582e-06 -1.33756985e-05 6.461528e-06 -6.184144e-05 -0.00018528404 0.0001388316 1.8723136e-05
4.613186e-05 6.135273e-06 -7.6796714e-05 2.9593579e-05 -6.2897256e-05 -6.5485e-05 -6.41554e-05 -0.00018897036
0.00021395783 -3.8831455e-05 -1.6845257e-05 6.873511e-05 -4.674471e-06 -4.2312873e-05 -0.00052279315 6.6984057e-06
00000000: 9636 80b9 4a4e 7f37 d30e 0539 2154 c5b8
00000010: 7edb 75b9 f3d9 3737 963c 7cb6 20f9 95b9
00000020: c05a 8e35 b6d8 0239 c7f9 3eb9 e326 1a38
00000030: e6be b0b8 105a 14b6 bfa8 f238 66d1 9839
00000040: d627 bab6 37f1 b837 437c 2437 3f25 c637
00000050: 02db 2638 60f7 3ab9 2e9c 4538 dca8 abb7
00000060: 95ce 68b9 1101 e337 1d57 61b8 2ad8 4a38
00000070: 922c 5938 f37f 84b7 ba87 8637 58fc 0738
00000080: 1b86 ab36 975c 5a37 a40d 58b8 710d 1537
00000090: 3f9d 4039 7eb6 5538 7403 fd38 edb2 57b8
000000a0: 1474 a9b5 a5dd 0736 3068 60b7 1ad0 d836
000000b0: dfb0 81b8 ce48 42b9 5393 1139 a10f 9d37
000000c0: b57d 4138 98dd cd36 ec0d a1b8 ba3f f837
000000d0: b5e7 83b8 fe54 89b8 2b8b 86b8 5826 46b9
000000e0: de59 6039 f5de 22b8 ea4e 8db7 e225 9038
000000f0: 66d9 9cb6 1a79 31b8 0e0c 09ba dec2 e036

model_cnn.conv_layers.3.1.weight f4 [64]
1.0697721 1.0099987 0.99913967 0.99260557 1.0109273 1.0067756 0.95490307 0.98689455
0.9928002 1.0193576 1.0070319 0.99997085 0.9857731 0.99828744 0.99075526 1.0269234
0.97785807 0.96790254 0.99227846 1.0097586 1.0157105 1.0034486 0.9935155 1.0237652
1.0167078 0.9758845 0.9837361 1.0013593 1.0009094 0.98885626 0.95438653 0.9985125
0.9827126 1.0679616 1.0229479 1.0015266 0.9880978 0.98910403 1.0242807 1.0267621
0.98132956 1.0100787 1.0183992 1.0052778 0.98335725 0.96726197 1.0097094 1.0125774
0.98199254 1.0072058 1.0062383 1.0170462 0.97333527 1.0044303 1.003743 0.96431595
1.0219442 0.97208345 1.0047085 0.95862925 0.97927797 0.9843291 1.0073184 0.9923466
00000000: 4bee 883f a347 813f 9ec7 7f3f 661b 7e3f
00000010: 1166 813f 06de 803f 8774 743f 1fa5 7c3f
00000020: 2728 7e3f 4f7a 823f 6ce6 803f 17fe 7f3f
00000030: a05b 7c3f c48f 7f3f 23a2 7d3f 3a72 833f
00000040: e854 7a3f 76c8 773f f605 7e3f c53f 813f
00000050: cd02 823f 0171 803f 0857 7e3f bd0a 833f
00000060: 7b23 823f 91d3 793f 21d6 7b3f 8b2c 803f
00000070: cd1d 803f af25 7d3f ad52 743f 849e 7f3f
00000080: 0e93 7b3f f7b2 883f f5ef 823f 0632 803f
00000090: faf3 7c3f ec35 7d3f a11b 833f f16c 833f
000000a0: 6a38 7b3f 424a 813f e85a 823f f1ac 803f
000000b0: 4dbd 7b3f 7b9e 773f 283e 813f 239c 813f
000000c0: dd63 7b3f 1fec 803f 6bcc 803f 922e 823f
000000d0: 802c 793f 2c91 803f a77a 803f 69dd 763f
000000e0: 11cf 823f 76da 783f 4a9a 803f ba68 753f
000000f0: f6b1 7a3f fefc 7b3f cfef 803f 6d0a 7e3f

model_cnn.conv_layers.3.1.bias f4 [64]
0.062183876 0.0008861896 -0.022943566 -0.0007100578 0.017011032 -0.007599083 -0.012687158 0.00537068
0.011176233 0.0072553945 0.021475961 0.005617084 -0.02372705 0.008556334 0.006324026 0.01640538
0.010474861 -0.031462513 0.0073081753 0.0044121603 0.0003443719 0.0038880587 0.013152134 0.008865933
-0.010399248 -0.009298069 -0.03039314 0.00677536 -0.03403568 -0.0071073202 -0.02118777 -0.0010970545
-0.01970543 0.04097462 0.020280544 -0.0045829043 -0.008628443 -0.01281031 0.0019325734 0.013858125
0.014906391 0.0050475197 0.0039141006 0.010904908 -0.016756745 -0.016522871 0.0072161877 -0.010828928
0.0028041336 0.018956264 0.010052735 0.016675228 -0.0122588705 -0.0020523465 0.016280908 -0.026580917
0.0018562356 -0.013325238 0.020735068 -0.021555329 0.018326186 -0.021343455 0.0066652833 -0.015473071
00000000: 85b4 7e3d 2d4f 683a 25f4 bbbc 2c23 3aba
00000010: b85a 8b3c ba01 f9bb ccdd 4fbc 87fc af3b
00000020: 851c 373c a9be ed3b 5bee af3c 840f b83b
00000030: 3b5f c2bc de2f 0c3c c639 cf3b 9364 863c
00000040: c09e 2b3c d6de 00bd 6b79 ef3b e293 903b
00000050: d08c b439 cdce 7e3b 0c7c 573c 6b42 113c
00000060: 9c61 2abc ee56 18bc 09fb f8bc d703 de3b
00000070: ff68 0bbd 86e4 e8bb f991 adbc 0acb 8fba
00000080: 486d a1bc 01d5 273d 6223 a63c 302c 96bb
00000090: 505e 0dbc 56e2 51bc 674e fd3a 300d 633c
000000a0: ef39 743c aa65 a53b db41 803b 80aa 323c
000000b0: 7145 89bc f95a 87bc c575 ec3b d16b 31bc
000000c0: 8ec5 373b 2b4a 9b3c 3ab4 243c 7d9a 883c
000000d0: 6ed9 48bc a980 06bb 8a5f 853c 39c0 d9bc
000000e0: ee4c f33a 1952 5abc 97dc a93c cd94 b0bc
000000f0: cc20 963c 78d8 aebc 7368 da3b c382 7dbc

model_cnn.conv_layers.3.1.running_mean f4 [64]
-0.08679545 -0.03870422 -0.1674669 -0.099512875 -0.5209564 -0.35859713 -0.056860335 0.40661508
-0.18863077 0.18528713 0.15603782 0.0255089 0.68599945 -0.054269582 0.12691756 0.0211736
0.23696557 -0.26597744 0.46605974 -0.2666703 -0.806947 0.1143492 -0.2714707 -0.38298917
-0.15897244 0.16869661 0.028445743 -0.31340507 0.185011 -0.45669872 -0.11298086 -0.2643629
-0.31960973 -0.5218706 -0.18406373 -0.18111092 -0.4159373 0.265854 -0.0916196 -0.39288685
-0.114670835 0.4992306 -0.07245043 0.5684729 -0.12647311 0.20525657 -0.3446747 -0.1540772
0.19162609 -0.45260406 -0.208844 -0.25762984 0.3088935 0.25797302 -0.1622452 0.18262276
0.18908969 0.018161712 -0.13427298 -0.19390444 -0.65048724 -1.0297225 -0.6862042 0.4270643
00000000: d0c1 b1bd 5188 1ebd 717c 2bbe 68cd cbbd
00000010: 665d 05bf 0b9a b7be 62e6 68bd da2f d03e
00000020: 6d28 41be e9bb 3d3e 61c8 1f3e 0af8 d03c
00000030: a99d 2f3f c849 5ebd adf6 013e 4274 ad3c
00000040: 1aa7 723e 322e 88be 629f ee3e 0289 88be
00000050: 1494 4ebf ea2f ea3d 35fe 8abe 2817 c4be
00000060: acc9 22be cebe 2c3e 0c07 e93c a176 a0be
00000070: 8673 3d3e 6ad4 e9be 8262 e7bd 935a 87be
00000080: e3a3 a3be 5099 05bf 347b 3cbe 2475 39be
00000090: bcf5 d4be 041e 883e 0fa3 bbbd 7728 c9be
000000a0: 8bd8 eabd 279b ff3e e460 94bd 7187 113f
000000b0: 2b82 01be c72e 523e 3479 b0be 6ac6 1dbe
000000c0: a139 443e b8bb e7be 34db 55be 0fe8 83be
000000d0: 4a27 9e3e 0a15 843e 9b23 26be 7601 3b3e
000000e0: baa0 413e dfc7 943c db7e 09be e38e 46be
000000f0: 5586 26bf f2cd 83bf 14ab 2fbf 2ca8 da3e

model_cnn.conv_layers.3.1.running_var f4 [64]
0.11528804 0.084938884 0.097478114 0.26707068 0.07919956 0.22998768 0.14497079 0.09764563
0.14813608 0.16289023 0.15848652 0.29740393 0.22786303 0.15167105 0.2008361 0.10450806
0.17044277 0.10576517 0.13267343 0.1601837 0.2471679 0.13792959 0.120837025 0.15389341
0.37000978 0.16678056 0.26156983 0.12725267 0.06285207 0.18326779 0.18389495 0.29333812
0.26248366 0.13733552 0.10092215 0.13840221 0.10035307 0.11278029 0.17415537 0.10357648
0.1421074 0.1662294 0.08648101 0.17678359 0.10141604 0.11174681 0.29922798 0.1601813
0.1597768 0.14964952 0.15302728 0.121675104 0.16370228 0.18167312 0.299322 0.14385504
0.08655465 0.10419067 0.25890088 0.15949969 0.22081701 0.21965821 0.30529585 0.16185807
00000000: 231c ec3d 70f4 ad3d 9ba2 c73d 7dbd 883e
00000010: 6133 a23d e481 6b3e 3973 143e 6ffa c73d
00000020: fcb0 173e b2cc 263e 4a4a 223e 5445 983e
00000030: ed54 693e a84f 1b3e fba7 4d3e 5208 d63d
00000040: 8d88 2e3e 699b d83d 8bdb 073e 3207 243e
00000050: 9519 7d3e 6a3d 0d3e 6779 f73d 3c96 1d3e
00000060: ec71 bd3e 86c8 2a3e 7bec 853e 864e 023e
00000070: 96b8 803d 8daa 3b3e f54e 3c3e 6a30 963e
00000080: 4264 863e afa1 0c3e 46b0 ce3d 4fb9 0d3e
00000090: e985 cd3d 5af9 e63d c955 323e e81f d43d
000000a0: 9a84 113e 0a38 2a3e f51c b13d c206 353e
000000b0: 36b3 cf3d 83db e43d 6934 993e 9106 243e
000000c0: 889c 233e b93d 193e 2fb3 1c3e cc30 f93d
000000d0: 92a1 273e 8508 3a3e bc40 993e bc4e 133e
000000e0: 9043 b13d eb61 d53d a88e 843e e353 233e
000000f0: db1d 623e 15ee 603e bd4f 9c3e 1fbe 253e

model_cnn.conv_layers.4.0.weight f4 [128, 64, 3]
-0.030807756 0.05693253 0.026210848 -0.017060226 -0.013468728 -0.07400467 -0.08265492 -0.033094306
-0.015104534 0.025147296 -0.0015117585 -0.010094454 -0.073121704 0.023912327 0.029197758 0.03913572
-0.06338574 -0.040954895 -0.038218383 -0.05313947 -0.027262842 -0.064550385 -0.06844885 0.046796583
-0.062005892 -0.017196331 -0.034810007 0.022836061 -0.029858539 -0.07250564 -0.027304325 -0.041162346
-0.0073270164 -0.017836304 -0.09034497 -0.014797627 0.0051734685 0.046380945 -0.020241791 0.03045418
0.047761217 0.062438853 -0.019226203 -0.060993474 -0.0072160787 -0.007827393 0.007510044 0.08585542
0.045386657 -0.002321563 -0.05475337 -0.04754877 -0.06348788 0.018997094 0.0058036745 -0.0023169694
0.03533706 0.03878514 0.06916484 -0.033043686 0.047224883 0.05413211 0.07211139 0.01781448
-0.01554604 -0.01372371 0.0063465633 -0.040617198 -0.040795732 0.00274761 0.0045468686 -0.039573643
0.07864929 0.032756455 -0.055810336 -0.053093378 -0.018054662 -0.005711994 -0.05952155 -0.06753522
-0.038679395 -0.013630042 0.006249735 -0.0308904 0.07161542 0.0153896 0.040197767 -0.033515934
0.03970088 -0.045084048 -0.032164548 0.03768393 -0.045234974 -0.03568289 -0.0038215362 0.038057424
-0.06852187 0.04669757 -0.024072265 0.016975123 -0.0585129 -0.024387568 0.004119847 -0.039928187
-0.054452226 -0.0017808926 0.046722148 -0.035431076 -0.076288976 -0.010802609 -0.060239017 0.011260096
0.0019214656 -0.013548586 0.008650737 0.099780485 -0.026914155 -0.046937812 -0.035578784 -0.01933125
0.043583017 -0.047873326 0.015904034 -0.015056951 -0.06949498 -0.03274461 -0.02966806 -0.09826231
0.060144022 0.021459147 -0.022613104 -0.060809806 -0.011523856 0.03887428 0.0012092191 -0.04466638
-0.020519074 0.02393924 -0.00016284506 -0.042835064 0.033781733 0.04019662 -0.04969638 -0.07007606
-0.04233775 0.046404317 0.020501532 0.053858254 -0.06626756 0.036115367 -0.014650736 -0.048912592
-0.0963061 -0.04487711 -0.035057966 0.081064865 -0.053226728 0.021438133 0.033821225 0.03842747
0.02634727 0.033013906 -0.04253913 -0.05712725 0.022344254 -0.015178097 -0.009186527 -0.0046648337
0.050528374 0.05237712 0.07705267 -0.012424557 -0.03558144 0.02545139 0.021083122 -0.08598187
-0.0011235181 0.017450504 0.041613016 -0.054979965 0.04621761 -0.03757913 0.012410161 -0.04648383
-0.011646002 0.056797232 0.01564094 -0.011696543 0.009708915 0.04621692 -0.03317597 -0.026115881
-0.05118987 -0.07150626 0.024340112 -0.050502542 -0.02966162 -0.07172176 -0.006211905 0.03456126
0.05582165 -0.00081646105 -0.003977516 -0.020763427 0.019472066 0.009412535 -0.008050684 0.04177299
0.0063636284 0.02373734 0.012226923 -0.058719408 0.06225705 0.066883124 -0.045968518 0.04060139
-0.06569548 -0.018552596 0.049568616 -0.07544656 0.052915163 0.08757845 -0.0052758283 0.067266524
0.039394293 -0.03612869 0.027395343 0.0062165977 -0.012552933 0.027498832 -0.055916943 -0.057700597
0.025368892 0.030618355 0.05700112 0.0326313 0.039122853 0.062311456 -0.036731556 -0.03752143
0.026156425 -0.041568514 0.049037326 -0.034679137 0.03398688 0.037754383 0.050658673 -0.037719894
-0.0001264754 -0.0152561795 -0.052579217 -0.00820382 0.05909215 -0.023955325 -0.020634433 -0.059399143
00000000: 8c60 fcbc 1632 693d 22b8 d63c e3c1 8bbc
00000010: f1ab 5cbc c38f 97bd fc46 a9bd e58d 07bd
00000020: 0279 77bc b401 ce3c 3326 c6ba 3563 25bc
00000030: d5c0 95bd c9e3 c33c 2330 ef3c c74c 203d
00000040: 62d0 81bd 52c0 27bd e18a 1cbd c6a8 59bd
00000050: 5356 dfbc fe32 84bd e92e 8cbd c6ad 3f3d
00000060: e4f9 7dbd 52df 8cbc f094 0ebd b112 bb3c
00000070: e599 f4bc d67d 94bd 52ad dfbc d999 28bd
00000080: 7817 f0bb 711d 92bc c906 b9bd bf71 72bc
00000090: 3386 a93b f2f9 3d3d 1dd2 a5bc 0b7b f93c
000000a0: 44a1 433d e2bf 7f3d 4580 9dbc 4bd4 79bd
000000b0: db74 ecbb 773e 00bc d116 f63b f7d4 af3d
000000c0: 5ce7 393d 5d25 18bb 1245 60bd 80c2 42bd
000000d0: ef05 82bd cb9f 9b3c c02c be3b 4cd8 17bb
000000e0: 98bd 103d 2bdd 1e3d 4ca6 8d3d d158 07bd
000000f0: e16e 413d a2b9 5d3d 23af 933d acef 913c
00000100: d1b4 7ebc 69d9 60bc d5f6 cf3b 385e 26bd
00000110: 6d19 27bd 3f11 343b e6fd 943b f917 22bd
00000120: e112 a13d a22b 063d 6199 64bd 7178 59bd
00000130: 5fe7 93bc ae2b bbbb decc 73bd e84f 8abd
00000140: 496e 1ebd 8a50 5fbc 94ca cc3b dd0d fdbc
00000150: 1bab 923d a924 7c3c 6aa6 243d 0148 09bd
00000160: 649d 223d 0daa 38bd f9be 03bd 775a 1a3d
00000170: 4f48 39bd 3928 12bd bd72 7abb 1ae2 1b3d
00000180: 3255 8cbd f345 3f3d 3333 c5bc 6a0f 8b3c
00000190: 39ab 6fbd 70c8 c7bc c8ff 863b bd8b 23bd
000001a0: 4c09 5fbd d76c e9ba b95f 3f3d 2d20 11bd
000001b0: 653d 9cbd 6dfd 30bc 30bd 76bd 447c 383c
000001c0: b0d9 fb3a e3fa 5dbc d2bb 0d3c b659 cc3d
000001d0: 137b dcbc dd41 40bd 0fbb 11bd 925c 9ebc
000001e0: 1b84 323d d216 44bd 2d49 823c 6eb1 76bc
000001f0: 6253 8ebd 361f 06bd 6e0a f3bc c03d c9bd
00000200: 9459 763d 18cb af3c 1e3f b9bc b413 79bd
00000210: 8ece 3cbc a33a 1f3d a97e 9e3a 18f4 36bd
00000220: 9e17 a8bc 3a1c c43c 63c1 2ab9 d273 2fbd
00000230: b75e 0a3d 36a5 243d 6e8e 4bbd 0a84 8fbd
00000240: 596a 2dbd 7412 3e3d d4f2 a73c 799a 5c3d
00000250: 49b7 87bd b5ed 133d a409 70bc 9258 48bd
00000260: 223c c5bd 0fd1 37bd f198 0fbd 5605 a63d
00000270: 4504 5abd 069f af3c 2088 0a3d 1f66 1d3d
00000280: 3bd6 d73c 9739 073d 833d 2ebd 43fe 69bd
00000290: 4c0b b73c 8ead 78bc 1683 16bc 76db 98bb
000002a0: d7f6 4e3d 6489 563d cacd 9d3d 5e90 4bbc
000002b0: d8bd 11bd 6f7f d03c 83b6 ac3c 4317 b0bd
000002c0: 0343 93ba 5cf4 8e3c 6972 2a3d ac32 61bd
000002d0: ad4e 3d3d 93ec 19bd fd53 4b3c d465 3ebd
000002e0: dfce 3ebc 37a4 683d 6e21 803c dba2 3fbc
000002f0: 2412 1f3c f44d 3d3d 87e3 07bd f9f0 d5bc
00000300: 78ac 51bd e071 92bd ea64 c73c c1db 4ebd
00000310: edfc f2bc dce2 92bd 3c8d cbbb 1c90 0d3d
00000320: 3ea5 643d c607 56ba d355 82bb 1018 aabc
00000330: e283 9f3c 0837 1a3c 04e7 03bc 281a 2b3d
00000340: fc85 d03b cf74 c23c 6f53 483c c383 70bd
00000350: 4001 7f3d 05fa 883d 7c49 3cbd a54d 263d
00000360: 5a8b 86bd 9dfb 97bc 7608 4b3d ba83 9abd
00000370: 92bd 583d 555c b33d dbe0 acbb 08c3 893d
00000380: e95b 213d adfb 13bd 336c e03c 9ab4 cb3b
00000390: d1aa 4dbc 3b45 e13c 2a09 65bd 7657 6cbd
000003a0: 6cd2 cf3c 58d3 fa3c 027a 693d 66a8 053d
000003b0: 493f 203d 4c3a 7f3d d473 16bd 12b0 19bd
000003c0: 0046 d63c bf43 2abd 5ddb 483d b60b 0ebd
000003d0: d435 0b3d 57a4 1a3d 787f 4f3d 2d80 1abd
000003e0: 7b9e 04b9 0ef5 79bc 4e5d 57bd 5169 06bc
000003f0: 9c0a 723d f53d c4bc 8b09 a9bc 844c 73bd

model_cnn.conv_layers.4.0.bias f4 [128]
2.1430948e-05 5.5732464e-05 2.893409e-05 2.441879e-06 -2.8980454e-05 4.020455e-05 -6.993305e-06 3.7821097e-05
-2.1110256e-05 8.6243854e-05 -9.946463e-05 -2.8137662e-05 -2.1583717e-05 2.6959326e-05 2.4290914e-05 -0.00018608084
-3.351835e-05 -1.0529059e-05 -7.413808e-05 -2.450465e-05 2.0751331e-05 -1.3271413e-06 9.590654e-06 1.4025364e-05
-8.211118e-05 8.021666e-06 2.2283055e-05 0.0001204616 -4.045597e-05 -1.8983605e-05 -0.0001745299 -4.1230578e-05
2.8957278e-05 -1.8655914e-05 -1.4794805e-05 4.9927818e-05 1.3190871e-05 -8.850157e-06 0.0001467494 -2.3063958e-05
1.9520514e-05 8.4892035e-06 6.9111455e-05 -2.1626995e-05 5.0548506e-06 1.8999399e-05 2.7309316e-05 5.4092376e-05
9.874682e-06 -5.313507e-06 -2.0968992e-05 -1.2397145e-05 -5.6972594e-06 -0.00013377983 2.2287893e-05 3.7036385e-05
-1.5876551e-06 -4.0337654e-05 -1.3806337e-05 3.989874e-05 2.4084013e-05 -3.6760095e-05 -4.6523623e-06 -3.207285e-05
-0.00013509493 -1.0137365e-05 -3.0514326e-05 -6.0776165e-05 5.765163e-05 2.463719e-05 1.0189424e-06 -1.0540393e-06
-9.371224e-07 3.316607e-06 9.7819775e-06 1.6942472e-06 -1.927234e-05 8.957782e-05 -4.46756e-06 1.45794265e-05
3.715151e-05 2.5010835e-05 3.5271594e-05 -1.0356635e-05 6.6100906e-06 2.1036009e-05 9.72553e-06 -4.5396282e-05
-5.8800633e-06 2.6711814e-07 7.4103344e-05 3.146987e-05 -1.7652223e-05 1.4969936e-05 -1.791487e-05 -9.817962e-05
-2.5355952e-05 -8.478051e-05 -2.2536691e-05 -4.448927e-06 -1.26468585e-05 -2.1102998e-05 1.8975345e-05 -3.842139e-06
-5.4725057e-05 -1.2061214e-05 4.763433e-05 5.1075676e-05 -5.1803736e-06 5.0096924e-06 4.3940203e-05 2.5761705e-05
1.5781827e-05 -1.6236978e-05 -1.5794549e-05 2.0358075e-05 -3.3051456e-05 -0.00010402409 -1.6879578e-05 1.7694674e-05
1.5462267e-05 8.207313e-06 -3.453059e-05 1.5354964e-05 -2.6018362e-05 1.5265337e-05 7.339563e-05 3.1620348e-05
00000000: 9cc6 b337 47c2 6938 7cb7 f237 29df 2336
00000010: 0d1b f3b7 4fa1 2838 08a8 eab6 18a2 1e38
00000020: ee15 b1b7 d1dd b438 ab97 d0b8 2b09 ecb7
00000030: ae0e b5b7 b626 e237 57c4 cb37 b21e 43b9
00000040: 0e96 0cb8 f7a5 30b7 947a 9bb8 568f cdb7
00000050: 2513 ae37 3a20 b2b5 8ce7 2037 7b4e 6b37
00000060: 1b33 acb8 cb94 0637 7fec ba37 54a0 fc38
00000070: 44af 29b8 fb3e 9fb7 0302 37b9 ffee 2cb8
00000080: 48e9 f237 457f 9cb7 3437 78b7 9669 5138
00000090: 5c4e 5d37 237b 14b7 bee0 1939 7979 c1b7
000000a0: fcbf a337 da6c 0e37 eeef 9038 9e6b b5b7
000000b0: d69c a936 e660 9f37 4f16 e537 3fe1 6238
000000c0: 70ab 2537 ad4a b2b6 91e6 afb7 55fd 4fb7
000000d0: 162b bfb6 4047 0cb9 e3f6 ba37 8457 1b38
000000e0: 6a17 d5b5 3a30 29b8 c4a1 67b7 f258 2738
000000f0: 0608 ca37 da2e 1ab8 7d1b 9cb6 f685 06b8
00000100: 45a8 0db9 a713 2ab7 04f9 ffb7 e9e9 7eb8
00000110: f7ce 7138 f6ab ce37 98c2 8835 8478 8db5
00000120: 908e 7bb5 e092 5e36 461d 2437 e465 e335
00000130: 09ab a1b7 badb bb38 0ce8 95b6 299a 7437
00000140: 21d3 1b38 5cce d137 96f0 1338 69c1 2db7
00000150: 3fcc dd36 7c76 b037 d52a 2337 e367 3eb8
00000160: 5c4d c5b6 7068 8f34 ee67 9b38 84fe 0338
00000170: dc13 94b7 6327 7b37 e447 96b7 c8e5 cdb8
00000180: 7eb3 d4b7 31cc b1b8 2d0d bdb7 fe47 95b6
00000190: d82d 54b7 5806 b1b7 3e2d 9f37 b9eb 80b6
000001a0: 9588 65b8 855a 4ab7 f9ca 4738 173a 5638
000001b0: 12d3 adb6 ee18 a836 6f4c 3838 d71a d837
000001c0: 3763 8437 a534 88b7 897e 84b7 a2c6 aa37
000001d0: bba0 0ab8 8227 dab8 9e98 8db7 066f 9437
000001e0: f7b4 8137 24b2 0937 f0d4 10b8 89ce 8037
000001f0: 0242 dab7 100e 8037 fbeb 9938 17a0 0438

model_cnn.conv_layers.4.1.weight f4 [128]
1.055793 1.0291857 1.0798643 1.0899513 1.0720181 1.102793 1.044036 1.0643675
1.0434871 1.0669044 1.0786611 1.0945076 1.0703634 1.0315655 1.10832 1.0453945
1.0815064 1.0466957 1.0501486 1.093194 1.056807 1.0801907 1.0633329 1.0515631
1.0566866 1.0736998 1.0661045 1.0625333 1.073191 1.0822526 1.075676 1.0455294
1.0566672 1.0614653 1.0403048 1.0801045 1.0862905 1.0558754 1.0922841 1.0824417
1.0512879 1.0470625 1.0816594 1.0842562 1.0482413 1.1120536 1.0781844 1.0677139
1.1014526 1.0801156 1.060343 1.0572387 1.0673065 1.0749077 1.0689662 1.0562888
1.061863 1.0722167 1.0438384 1.1231196 1.0876187 1.0794622 1.0511991 1.0738175
1.0701265 1.0688671 1.0666503 1.0516833 1.0631703 1.083983 1.0786366 1.0776311
1.0607694 1.0964224 1.058766 1.0428061 1.0761265 1.0838432 1.0624591 1.0546058
1.0520326 1.0839213 1.0579903 1.0497911 1.0892736 1.0540835 1.0482997 1.0834513
1.0929174 1.0521355 1.099894 1.0535592 1.0505784 1.0810691 1.0443684 1.0615056
1.0536606 1.0823292 1.0584474 1.0793321 1.0880469 1.0865389 1.0467721 1.0639803
1.0511193 1.0584949 1.0525825 1.0838273 1.0696745 1.0643638 1.0643151 1.0810822
1.0511262 1.0705293 1.1130182 1.0388169 1.1048238 1.0956634 1.0605296 1.0429914
1.0430667 1.0424887 1.0575707 1.0783987 1.0520024 1.0665591 1.0694025 1.1003575
00000000: 3a24 873f 5bbc 833f fe38 8a3f 8683 8b3f
00000010: e437 893f 5228 8d3f f9a2 853f 323d 883f
00000020: fc90 853f 5390 883f 9111 8a3f d318 8c3f
00000030: ab01 893f 570a 843f 6edd 8d3f 7dcf 853f
00000040: cd6e 8a3f 20fa 853f 456b 863f c8ed 8b3f
00000050: 7445 873f b043 8a3f 4b1b 883f 9f99 863f
00000060: 8241 873f ff6e 893f 1d76 883f 1701 883f
00000070: 535e 893f 4187 8a3f c0af 893f e8d3 853f
00000080: df40 873f 18de 873f b528 853f dd40 8a3f
00000090: 910b 8b3f ed26 873f f7cf 8b3f 738d 8a3f
000000a0: 9a90 863f 2506 863f d173 8a3f e8c8 8a3f
000000b0: c52c 863f c657 8e3f f201 8a3f d9aa 883f
000000c0: 66fc 8c3f 3a41 8a3f 52b9 873f 9953 873f
000000d0: 809d 883f 9396 893f e2d3 883f 7934 873f
000000e0: 20eb 873f 663e 893f 7f9c 853f 62c2 8f3f
000000f0: 1737 8b3f d12b 8a3f b18d 863f da72 893f
00000100: e8f9 883f a3d0 883f ff87 883f 8f9d 863f
00000110: f715 883f f4bf 8a3f c410 8a3f d1ef 893f
00000120: 4bc7 873f 9257 8c3f a585 873f ac7a 853f
00000130: 83be 893f 60bb 8a3f a9fe 873f 53fd 863f
00000140: 01a9 863f efbd 8a3f 3a6c 873f 8e5f 863f
00000150: 516d 8b3f 35ec 863f af2e 863f 88ae 8a3f
00000160: b8e4 8b3f 60ac 863f 54c9 8c3f 07db 863f
00000170: 5a79 863f 7960 8a3f ddad 853f 6adf 873f
00000180: 5ade 863f c389 8a3f 347b 873f 8e27 8a3f
00000190: 1f45 8b3f b513 8b3f a1fc 853f 8230 883f
000001a0: 148b 863f c37c 873f 06bb 863f daba 8a3f
000001b0: 18eb 883f 133d 883f 7a3b 883f e760 8a3f
000001c0: 4e8b 863f 1b07 893f 6177 8e3f f4f7 843f
000001d0: de6a 8d3f b33e 8c3f 6fbf 873f be80 853f
000001e0: 3683 853f 4570 853f 7a5e 873f f808 8a3f
000001f0: 04a8 863f 0285 883f 2ee2 883f 84d8 8c3f

model_cnn.conv_layers.4.1.bias f4 [128]
0.022365374 0.026468594 0.05233692 0.06953171 0.051897563 0.075428545 0.029029286 0.060583845
0.033264868 0.047403034 0.072506405 0.071814016 0.05301485 0.029144911 0.07276657 0.026491918
0.05714904 0.039594803 0.04478686 0.07553115 0.036168806 0.052863155 0.03800158 0.034513704
0.053972263 0.062999584 0.03603725 0.03262244 0.0642658 0.08470021 0.05873073 0.034016307
0.041948546 0.047791578 0.022839364 0.06762032 0.061888807 0.041299384 0.06856893 0.053008046
0.055304892 0.032277543 0.053723615 0.065671675 0.040934052 0.08020458 0.065601125 0.053251613
0.056044597 0.053973023 0.051192906 0.0480027 0.063061535 0.053106587 0.045024756 0.031565208
0.05376577 0.073865585 0.029620454 0.095711894 0.07088356 0.05303604 0.053010125 0.053730488
0.049003292 0.04965985 0.0715099 0.032003116 0.0554301 0.094134 0.05764335 0.07327554
0.03214282 0.06924051 0.0448272 0.032472827 0.0391934 0.06688617 0.04900538 0.053032342
0.05241741 0.06876325 0.04771772 0.03701419 0.055986334 0.05366417 0.0039925943 0.041984625
0.087335356 0.036276296 0.08735189 0.04344584 0.037826817 0.06743568 0.04009406 0.043073457
0.047282882 0.07452539 0.047462977 0.07351166 0.07036012 0.065753005 0.048600547 0.056469463
0.03977535 0.04970554 0.040398974 0.06545004 0.07261355 0.06416079 0.056298226 0.07151544
0.024508487 0.046736084 0.104316115 0.035412867 0.08007152 0.05923696 0.05138203 0.04155642
0.044356443 0.039067216 0.057777386 0.06440065 0.044558924 0.04298815 0.0531736 0.08305452
00000000: 9737 b73c aad4 d83c 3d5f 563d a466 8e3d
00000010: 8a92 543d 487a 9a3d d3ce ed3c c426 783d
00000020: be40 083d af29 423d 3d7e 943d 3a13 933d
00000030: 1926 593d 4fc1 ee3c a406 953d 9405 d93c
00000040: 1d15 6a3d 292e 223d 6d72 373d 13b0 9a3d
00000050: be25 143d 0987 583d 8ba7 1b3d 3e5e 0d3d
00000060: 0512 5d3d ed05 813d cc9b 133d 1c9f 053d
00000070: ca9d 833d 4e77 ad3d a28f 703d af54 0b3d
00000080: 3dd2 2b3d 1ac1 433d 9e19 bb3c 867c 8a3d
00000090: 1e7f 7d3d 8b29 293d de6d 8c3d f71e 593d
000000a0: 6287 623d 7535 043d 4b0d 5c3d df7e 863d
000000b0: 77aa 273d 4d42 a43d e259 863d 5d1e 5a3d
000000c0: 058f 653d d112 5d3d a7af 513d 7b9e 443d
000000d0: 6826 813d 4b86 593d e16b 383d 854a 013d
000000e0: 7f39 5c3d d746 973d 98a6 f23c 9904 c43d
000000f0: 662b 913d 523c 593d 2521 593d 8014 5c3d
00000100: adb7 483d 2068 4b3d c873 923d b315 033d
00000110: ac0a 633d 54c9 c03d 6f1b 6c3d 7c11 963d
00000120: 31a8 033d f8cd 8d3d ba9c 373d 3a02 053d
00000130: 4289 203d 9efb 883d deb9 483d 7138 593d
00000140: a3b3 563d bfd3 8c3d a873 433d 319c 173d
00000150: ed51 653d f6ce 5b3d 4fd4 823b 12f8 2b3d
00000160: e1dc b23d 7496 143d 8ce5 b23d 44f4 313d
00000170: 4bf0 1a3d b81b 8a3d ab39 243d cb6d 303d
00000180: b2ab 413d c5a0 983d 8a68 423d 488d 963d
00000190: f718 903d 83a9 863d 5e11 473d 864c 673d
000001a0: 7aeb 223d 0998 4b3d 6579 253d ac0a 863d
000001b0: 6ab6 943d bb66 833d f898 663d b076 923d
000001c0: 06c6 c83c 566e 3f3d b0a3 d53d 150d 113d
000001d0: 89fc a33d 74a2 723d f775 523d 1137 2a3d
000001e0: 1aaf 353d f204 203d fba7 6c3d 7de4 833d
000001f0: 6b83 363d 5814 303d 90cc 593d 7d18 aa3d
