checkpoint/transfer_WideResNet_sa_spinel5v_to_nmc_1122/retry_target_focus/best_model.pth (torch, 331746 bytes, 78 tensors)

conv1.weight f4 [16, 21, 3]
0.16644177 0.0373083 -0.047361933 -0.029790197 0.17058805 -0.20998213 0.07779114 -0.15714237
0.11172731 -0.25982112 0.07257297 -0.0024480978 0.17040756 0.12273163 -0.1298034 -0.13910876
0.24277309 0.18617958 0.28585348 0.30304468 0.24171679 -0.018465497 -0.23640762 0.16866621
-0.24208769 -0.32594854 0.3946 0.19259872 0.07078301 -0.025455654 0.29610544 -0.46221703
-0.10189369 0.3065804 -0.07354164 -0.2368801 -0.007881129 0.023901623 -0.29989108 -0.14742719
-0.032588504 0.13439083 0.12551914 -0.23289913 -0.18376595 -0.2583614 -0.27744862 -0.3516388
-0.13924222 -0.21312666 -0.14690784 -0.5964506 -0.24397187 -0.23045273 -0.20923904 -0.046254657
-0.0019188732 -0.1425438 0.07022171 0.088179745 0.28371176 -0.25261202 -0.38042966 0.3504363
0.120328724 0.049954813 -0.048298232 -0.03303423 -0.30101562 -0.16084301 -0.18922435 -0.14477277
-0.31490448 -0.19055456 -0.019719934 -0.41002327 0.19576488 -0.12143531 0.057152707 0.13740413
0.11615809 -0.14756921 0.32145807 0.11828884 -0.11998727 -0.27470577 -0.024515761 -0.09555778
-0.0045288336 0.21649906 0.0066224365 0.25571764 -0.1756248 -0.21139657 0.15926962 -0.26227683
0.075125515 -0.09203994 0.07845138 0.2167197 -0.13690852 -0.078940675 -0.00020472525 -0.08309797
-0.19319138 0.10208972 0.07495662 -0.20796639 0.24683021 -0.11719489 -0.15775971 -0.2031605
0.15907691 0.06919202 -0.21797563 0.047103297 -0.086933054 0.0326835 0.04324348 0.2014601
0.083432056 0.124511085 -0.19465311 0.10041088 -0.030967748 -0.33878794 0.12253949 -0.14797239
0.11923338 -0.008724757 0.5012401 -0.26514608 -0.025668502 0.17272554 -0.22091974 0.11408261
0.107461296 -0.22321038 0.057926606 -0.016487772 -0.14442518 -0.32371688 0.06610584 0.2705587
0.13195896 0.32356843 -0.025469283 -0.12353428 0.20464416 -0.024420835 0.41367045 -0.2722366
-0.19747339 -0.5293085 0.078795195 0.10990257 0.011703078 0.10469554 0.21337381 -0.07884079
-0.125475 0.3094205 0.45659646 -0.19844484 -0.06693159 -0.037181232 0.38188073 0.073580705
-0.11210409 -0.011290597 0.03831614 -0.35048965 0.1830133 -0.076316185 0.22615056 0.3416919
-0.07013015 -0.32577118 -0.19110593 -0.3266623 0.08525237 0.2002371 -0.24553703 0.22524203
-0.21632548 0.050534952 0.38040483 0.098308064 -0.39318535 -0.30681568 -0.14670019 -0.2224694
0.19444129 0.03317381 0.066604406 0.039998546 -0.0021064864 0.01930972 0.18129319 0.05023606
-0.15863317 0.15695769 0.34303573 0.15230584 0.13572453 -0.28863108 -0.13030778 -0.07952052
-0.32208854 -0.2528718 0.5371976 0.11160514 0.048485927 -0.25830388 -0.082676835 -0.14221911
-0.022281706 0.45060703 0.0042701294 -0.2762624 -0.119852856 0.061394755 0.06712789 -0.24047957
-0.53450584 0.010854713 0.20375209 -0.25176972 -0.3377253 -0.14099503 0.013164481 0.19987679
-0.18205097 0.4925389 -0.03881515 0.10509907 -0.036131244 0.14237611 -0.047059044 0.32852665
0.00429312 0.10680982 0.09830759 -0.16135406 -0.22836664 0.24964747 -0.40470088 -0.3728185
-0.019126808 -0.23618825 0.0031264212 -0.19773567 -0.39207685 0.026840214 0.052116994 -0.10111316
00000000: b66f 2a3e 97d0 183d 96fe 41bd 920a f4bc
00000010: a2ae 2e3e 8e05 57be f650 9f3d eee9 20be
00000020: 4ad1 e43d 4607 85be 23a1 943d 4470 20bb
00000030: 527f 2e3e b95a fb3d 2feb 04be 8772 0ebe
00000040: 8299 783e dca5 3e3e 635b 923e ac28 9b3e
00000050: 9b84 773e f444 97bc d714 72be d6b6 2c3e
00000060: d6e5 77be bae2 a6be 0309 ca3e 9938 453e
00000070: aff6 903d 6088 d0bc 229b 973e b6a7 ecbe
00000080: a4ad d0bd 1bf8 9c3e 009d 96bd b290 72be
00000090: da1f 01bc 56cd c33c 538b 99be 27f7 16be
000000a0: 867b 05bd c09d 093e 1788 003e 1c7d 6ebe
000000b0: 242d 3cbe f247 84be bf0d 8ebe 000a b4be
000000c0: 8395 0ebe e03d 5abe 026f 16be fdb0 18bf
000000d0: c3d3 79be cdfb 6bbe c242 56be 8675 3dbd
000000e0: b382 fbba 00f7 11be 66d0 8f3d 9597 b43d
000000f0: ab42 913e 5d56 81be adc7 c2be 636c b33e
00000100: e86e f63d 6b9d 4c3d 5ed4 45bd e74e 07bd
00000110: b81e 9abe 08b4 24be 07c4 41be 503f 14be
00000120: 293b a1be bc20 43be b38b a1bc 92ee d1be
00000130: 9776 483e 13b3 f8bd f518 6a3d abb3 0c3e
00000140: 4be4 ed3d 621c 17be 2796 a43e 6b41 f23d
00000150: e3bb f5bd 3ca6 8cbe 47d5 c8bc ccb3 c3bd
00000160: 9c66 94bb eeb1 5d3e 0601 d93b 6ced 823e
00000170: fdd6 33be 5878 58be 9317 233e 2649 86be
00000180: 68db 993d 707f bcbd 1eab a03d c5eb 5d3e
00000190: bf31 0cbe a6ab a1bd 84ab 56b9 452f aabd
000001a0: f6d3 45be 6a14 d13d db82 993d 24f5 54be
000001b0: 0fc1 7c3e e003 f0bd c38b 21be 4e09 50be
000001c0: 0fe5 223e 8cb4 8d3d 0135 5fbe 63ef 403d
000001d0: f509 b2bd 22df 053d 1320 313d 8e4b 4e3e
000001e0: 6dde aa3d abff fe3d 2553 47be 38a4 cd3d
000001f0: 13b0 fdbc 9d75 adbe fcf5 fa3d 1386 17be
00000200: a130 f43d 48f2 0ebc 4551 003f 3ac1 87be
00000210: c046 d2bc f7de 303e c938 62be 25a4 e93d
00000220: ab14 dc3d 4391 64be 7344 6d3d 5d11 87bc
00000230: 32e4 13be 38be a5be 8062 873d ac86 8a3e
00000240: 4020 073e c3aa a53e f5a4 d0bc 8aff fcbd
00000250: 3d8e 513e 340e c8bc 9dcc d33e 9862 8bbe
00000260: 7736 4abe c380 07bf 605f a13d 9914 e13d
00000270: 44be 3f3c 9e6a d63d aa7e 5a3e 4877 a1bd
00000280: 857c 00be 5d6c 9e3e 03c7 e93e 2035 4bbe
00000290: 6e13 89bd 594b 18bd df85 c33e 7bb1 963d
000002a0: d496 e5bd 32fc 38bc 63f1 1c3d 6173 b3be
000002b0: d767 3b3e a94b 9cbd 0394 673e 3ef2 ae3e
000002c0: 65a0 8fbd 7bcb a6be 46b1 43be 4840 a7be
000002d0: cb98 ae3d f40a 4d3e 0f6e 7bbe d9a5 663e
000002e0: 6d84 5dbe bdfd 4e3d 6cc4 c23e bd55 c93d
000002f0: 974f c9be f216 9dbe 9338 16be 05cf 63be
00000300: 9e1b 473e 43e1 073d e467 883d 84d5 233d
00000310: fa0c 0abb 6b2f 9e3c eca4 393e 54c4 4d3d
00000320: bc70 22be 84b9 203e 61a2 af3e 10f6 1b3e
00000330: 5ffb 0a3e 74c7 93be 676f 05be a8db a2bd
00000340: cae8 a4be 6a78 81be c885 093f 3c91 e43d
00000350: 2e99 463d 6840 84be 7952 a9bd e3a1 11be
00000360: 2088 b6bc f7b5 e63e 71ec 8b3b 4472 8dbe
00000370: 6a75 f5bd 1179 7b3d 597a 893d 4740 76be
00000380: 60d5 08bf f7d7 313c 63a4 503e f6e7 80be
00000390: 55ea acbe 0061 10be d6af 573c 80ac 4c3e
000003a0: 926b 3abe 0f2e fc3e a2fc 1ebd 2e3e d73d
000003b0: 5bfe 13bd 0bcb 113e fcc0 40bd a534 a83e
000003c0: 4dad 8c3b 1bbf da3d 7d55 c93d 003a 25be
000003d0: f2d8 69be 96a3 7f3e f434 cfbe 11e2 bebe
000003e0: d3af 9cbc 55db 71be a5e4 4c3b 387b 4abe
000003f0: 4cbe c8be 02e0 db3c a178 553d 6b14 cfbd

block1.layer.0.bn1.weight f4 [16]
1.0167142 1.0047338 1.0012289 0.9715679 0.9959914 1.0193123 1.0210348 0.98867357
1.0163842 1.0032841 0.99927473 0.99165595 0.98959726 1.0021443 1.0025017 0.9980704
00000000: b123 823f 1e9b 803f 4528 803f adb8 783f
00000010: 4bf9 7e3f d378 823f 45b1 823f b619 7d3f
00000020: e118 823f 9d6b 803f 78d0 7f3f 2add 7d3f
00000030: 3f56 7d3f 4446 803f fa51 803f 8b81 7f3f

block1.layer.0.bn1.bias f4 [16]
0.012259469 0.027866285 -0.029858187 0.032516483 -0.02290021 0.02101075 0.010247375 -0.0056674527
0.010855991 -0.0042116903 -0.01674012 -0.0098702535 -0.020510843 0.012972522 -0.0059115677 -0.014176695
00000000: f1db 483c d647 e43c 2899 f4bc 0130 053d
00000010: 3999 bbbc bd1e ac3c 9be4 273c 0ab6 b9bb
00000020: 54dd 313c 3802 8abb 9322 89bc d8b6 21bc
00000030: 5b06 a8bc b38a 543c d3b5 c1bb 5e45 68bc

block1.layer.0.bn1.running_mean f4 [16]
0.5722589 0.37442794 0.7499877 -0.2063214 -0.4045547 -0.36395758 -0.1641668 -0.2697592
0.27805725 1.7116363 0.02907473 -0.42175668 -0.3801396 -0.3729626 -0.3395106 -0.17662154
00000000: 8f7f 123f 05b5 bf3e 32ff 3f3f eb45 53be
00000010: cb21 cfbe a658 babe 571b 28be e11d 8abe
00000020: 855d 8e3e e616 db3f 212e ee3c 7ef0 d7be
00000030: a8a1 c2be f4f4 bebe 55d4 adbe 47dc 34be

block1.layer.0.bn1.running_var f4 [16]
2.2454848 4.274989 1.0100691 1.626758 2.3841314 0.49849465 0.6121903 0.5514378
0.46346793 1.71117 0.36376646 0.40128577 0.7684632 5.981222 2.047478 0.36005646
00000000: 06b6 0f40 b6cc 8840 f249 813f 9b39 d03f
00000010: 9c95 1840 b13a ff3e 81b8 1c3f 072b 0d3f
00000020: ab4b ed3e 9e07 db3f 993f ba3e 5475 cd3e
00000030: 01ba 443f 2c66 bf40 e109 0340 5259 b83e

block1.layer.0.conv1.weight f4 [16, 16, 3]
-0.3605473 -0.16805655 0.020072717 -0.10116261 0.18532325 -0.4897683 0.062335726 -0.0013515347
0.06750934 0.38720724 -0.25312394 0.20828797 -0.061879583 -0.15212803 -0.21814556 -0.24128877
0.03849501 -0.3302968 -0.102040365 -0.018810663 -0.0057435916 0.3298932 -0.040598705 0.19465275
0.23029307 -0.31967142 -0.05282813 0.13038169 -0.11196065 0.16886562 0.24301226 0.39437595
-0.19973835 -0.09158349 -0.35819423 -0.26972657 -0.06217955 0.079393156 0.0018182427 -0.096976645
0.119192526 -0.13112663 0.19381805 0.031192005 -0.25224847 -0.030581959 0.20488058 -0.027141413
-0.07731445 0.060009625 -0.058829162 -0.07704054 0.076833434 -0.18340713 -0.19614337 0.023175279
0.089908764 0.1482374 0.09647809 -0.17663538 -0.020851236 0.022275161 0.22714972 0.16632639
-0.20495287 0.04434314 -0.1601544 -0.20192413 0.01027119 -0.08804362 0.20260037 -0.36986488
-0.09698039 -0.12637429 0.014666152 0.11456859 0.17765848 0.14304237 0.12027111 -0.10880877
0.116135836 -0.3518292 0.009982817 0.24856457 -0.0028176906 -0.17876874 -0.079791024 -0.19537403
0.016225956 0.038430784 0.03555315 -0.2858425 -0.37733334 -0.05376298 0.092175975 0.1846956
-0.27403668 0.08890904 0.14691383 0.13822232 -0.18863854 0.067185506 -0.12710398 -0.0374653
-0.20462862 0.12135909 0.15270106 -0.00036263224 0.13149476 0.106499635 0.39613122 0.098527364
0.004671594 -0.22062822 0.0632045 -0.042630963 -0.06147274 -0.20554854 -0.017228123 0.07854005
0.02687033 -0.10687438 0.08260362 -0.50431514 -0.039656628 0.24883288 0.11121494 -0.3554863
-0.3318128 -0.15093641 0.04128803 -0.063977264 -0.11329941 0.2254295 -0.18187197 0.19304302
0.27084446 0.017964456 0.062171306 0.19583347 0.19751102 -0.4327441 0.0026071495 -0.1934469
-0.058017302 0.057365905 -0.12025127 0.18485685 -0.1469768 -0.10819333 0.3251339 -0.026435494
0.37536678 -0.211294 0.26154193 -0.2101077 0.081703655 -0.101029694 -0.03020491 -0.38843012
-0.22272465 -0.20625918 0.03677075 0.05482814 -0.0031733299 -0.07781274 -0.1743015 0.28067684
0.14373197 0.05067098 -0.08615044 -0.10114196 -0.16308337 0.2731999 -0.08856209 0.05741564
0.06657101 -0.12102848 0.10724179 -0.09622842 0.16129985 0.14596471 0.17169148 0.06963368
-0.22671604 -0.26528975 0.110963434 -0.069843814 -0.06368197 -0.24967144 0.06556853 -0.122889005
0.07340655 -0.2028372 -0.100331135 -0.24551143 0.10757001 0.24935742 0.15506001 -0.1979073
-0.42806056 -0.060611233 -0.10394421 0.058310773 0.2856071 0.30698127 -0.0821172 0.14007436
0.2788216 0.17879336 -0.25364316 0.09329747 -0.1128801 0.2697345 0.08739184 0.22637187
-0.050695598 0.08664058 0.19540459 0.38616055 -0.2946319 0.24190706 -0.14398095 0.02695013
0.18707885 -0.17680044 -0.012779967 -0.03883566 -0.19357158 -0.21822774 -0.07035929 -0.074583344
-0.083455324 0.37806195 -0.36649883 -0.03893411 0.10458309 0.37911946 0.15960999 -0.0420179
-0.114084296 0.12748368 0.3137414 -0.2769839 0.2751537 -0.0946086 0.0628328 -0.0413999
-0.21743083 0.19098717 -0.0366524 0.2877876 0.18840082 0.3805373 -0.1996334 -0.0034154085
00000000: a899 b8be 0417 2cbe 8a6f a43c 582e cfbd
00000010: 61c5 3d3e e9c2 fabe bf53 7f3d fb25 b1ba
00000020: 5642 8a3d 0740 c63e 7699 81be 7149 553e
00000030: 7275 7dbd 73c7 1bbe 8d61 5fbe 6714 77be
00000040: f2ac 1d3d aa1c a9be 8afa d0bd d218 9abc
00000050: bd34 bcbb c3e7 a83e d44a 26bd 0d53 473e
00000060: f2d1 6b3e f9ab a3be 4f62 58bd c782 053e
00000070: a04b e5bd 1ceb 2c3e 35d8 783e a5eb c93e
00000080: 3688 4cbe 2090 bbbd 3c65 b7be 9a19 8abe
00000090: fcaf 7ebd e198 a23d 1a52 ee3a b19b c6bd
000000a0: 361b f43d 0f46 06be 3d78 463e 6086 ff3c
000000b0: b626 81be 0487 fabc 37cc 513e ab57 debc
000000c0: 0a57 9ebd a7cc 753d d9f6 70bd 6ec7 9dbd
000000d0: d95a 9d3d 14cf 3bbe cfd9 48be 15da bd3c
000000e0: 1622 b83d 8ccb 173e 4e96 c53d e8df 34be
000000f0: 36d0 aabc 667a b63c f099 683e 7751 2a3e
00000100: 2adf 51be 27a1 353d 84ff 23be 33c5 4ebe
00000110: 7e48 283c 3750 b4bd 7976 4f3e ee5e bdbe
00000120: a89d c6bd 4368 01be 4d4a 703c f0a2 ea3d
00000130: 1bec 353e b379 123e b350 f63d 22d7 debd
00000140: a0d8 ed3d f522 b4be f88e 233c b687 7e3e
00000150: 01a9 38bb 270f 37be 7a69 a3bd 2110 48be
00000160: 4cec 843c 9969 1d3d 2ea0 113d f359 92be
00000170: d631 c1be 9236 5cbd c2c6 bc3d d820 3d3e
00000180: 894e 8cbe f115 b63d 9470 163e 278a 0d3e
00000190: 762a 41be 8e98 893d 8c27 02be 3775 19bd
000001a0: 2a8a 51be 1d8b f83d ab5d 1c3e ad1f beb9
000001b0: 90a6 063e 7b1c da3d b6d1 ca3e b7c8 c93d
000001c0: 2c14 993b 5dec 61be 5c71 813d ce9d 2ebd
000001d0: d7ca 7bbd 517b 52be fe21 8dbc 9bd9 a03d
000001e0: 2b1f dc3c f4e0 dabd 162c a93d cc1a 01bf
000001f0: fd6e 22bd 0cce 7e3e a9c4 e33d 4d02 b6be
00000200: 5ee3 a9be 138f 1abe a31d 293d 8306 83bd
00000210: 8509 e8bd fed6 663e a53c 3abe 12ad 453e
00000220: 20ac 8a3e 322a 933c 57a7 7e3d 9288 483e
00000230: 5440 4a3e a290 ddbe b6dc 2a3b f216 46be
00000240: 8da3 6dbd 83f8 6a3d 4c46 f6bd 1d4b 3d3e
00000250: 1681 16be 7794 ddbd f377 a63e 408f d8bc
00000260: 1330 c03e 745d 58be d3e8 853e 7926 57be
00000270: 3f54 a73d a8e8 cebd 4a70 f7bc 50e0 c6be
00000280: ee11 64be 9b35 53be ed9c 163d 7993 603d
00000290: a4f7 4fbb 495c 9fbd 187c 32be e0b4 8f3e
000002a0: 792e 133e 608c 4f3d a46f b0bd 8423 cfbd
000002b0: 54ff 26be dbe0 8b3e 0b60 b5bd aa2c 6b3d
000002c0: 6256 883d c8dd f7bd 95a1 db3d 6813 c5bd
000002d0: ca2b 253e c677 153e e4cf 2f3e 1a9c 8e3d
000002e0: 4028 68be 0fd4 87be cc40 e33d 460a 8fbd
000002f0: b16b 82bd dfa9 7fbe cb48 863d 3bad fbbd
00000300: 2c56 963d 8eb4 4fbe 697a cdbd 5967 7bbe
00000310: aa4d dc3d 8d57 7f3e 0dc8 1e3e 36a8 4abe
00000320: c12a dbbe 7c43 78bd b4e0 d4bd 47d7 6e3d
00000330: 183b 923e a62c 9d3e 102d a8bd a76f 0f3e
00000340: b4c1 8e3e 9b15 373e 84dd 81be be12 bf3d
00000350: af2d e7bd a41a 8a3e 7efa b23d 07ce 673e
00000360: 30a6 4fbd 9e70 b13d 2418 483e d6b6 c53e
00000370: fed9 96be 7cb6 773e be6f 13be 85c6 dc3c
00000380: 9991 3f3e 2d0b 35be 1163 51bc 2412 1fbd
00000390: a137 46be 1877 5fbe 8818 90bd 27bf 98bd
000003a0: a0ea aabd 5691 c13e bca5 bbbe 6079 1fbd
000003b0: a92f d63d f21b c23e cd70 233e f61a 2cbd
000003c0: 07a5 e9bd 158b 023e b6a2 a03e d5d0 8dbe
000003d0: f2e0 8c3e 27c2 c1bd 7cae 803d f192 29bd
000003e0: 30a6 5ebe 2492 433e d420 16bd e558 933e
000003f0: 25ec 403e c9d5 c23e b36c 4cbe 0cd5 5fbb

block1.layer.0.bn2.weight f4 [16]
1.0068055 1.0001713 0.9952073 0.99729913 1.0077766 0.97713715 1.0002432 1.0140237
1.0128012 1.0021652 0.9820276 0.99679595 1.0008197 0.97317296 0.98214686 1.015069
00000000: 01df 803f 9d05 803f e8c5 7e3f ff4e 7f3f
00000010: d3fe 803f a925 7a3f f807 803f 87cb 813f
00000020: 78a3 813f f346 803f 2966 7b3f 052e 7f3f
00000030: dc1a 803f dd21 793f fa6d 7b3f c8ed 813f

block1.layer.0.bn2.bias f4 [16]
-0.0034005472 0.022711119 0.0025310388 -0.0069271093 0.019057939 -0.027819384 -0.0050983396 0.029651823
0.013020179 -0.009139443 -0.01110728 -0.01127701 0.008368573 -0.031214783 0.0013310855 -0.012552703
00000000: b7db 5ebb ab0c ba3c c9df 253b cefc e2bb
00000010: 651f 9c3c 7ae5 e3bc f90f a7bb 61e8 f23c
00000020: 9752 553c 9abd 15bc 4ffb 35bc 35c3 38bc
00000030: 571c 093c 25b6 ffbc d177 ae3a daa9 4dbc

block1.layer.0.bn2.running_mean f4 [16]
-0.38774216 -0.3920058 -0.14507155 -0.16733772 0.32815766 1.1645306 0.50308156 -0.032604493
0.22336489 0.3557291 0.09370253 0.51975393 -0.010974212 -0.22445314 0.062348254 -0.18091078
00000000: 2486 c6be fcb4 c8be a38d 14be 945a 2bbe
00000010: 4804 a83e 570f 953f f4c9 003f 4a8c 05bd
00000020: c4b9 643e 2022 b63e 1de7 bf3d 980e 053f
00000030: 2ecd 33bc 0bd7 65be e260 7f3d ad40 39be

block1.layer.0.bn2.running_var f4 [16]
0.44497722 0.47523817 0.28207943 0.5903847 0.4814203 0.90673935 1.0398468 0.9088286
0.63428414 0.47048342 0.7300852 0.22252607 0.8904765 0.43742242 0.15365928 0.65180415
00000000: 0ed4 e33e 6b52 f33e b76c 903e 7423 173f
00000010: b97c f63e 1220 683f b319 853f fea8 683f
00000020: 7260 223f 34e3 f03e dde6 3a3f e0dd 633e
00000030: 45f6 633f d5f5 df3e dc58 1d3e a3dc 263f

block1.layer.0.conv2.weight f4 [16, 16, 3]
0.43384084 -0.3948415 0.04412075 0.33345246 -0.11282364 -0.49757373 0.29608488 -0.27768016
-0.04521983 -0.17774852 0.062903024 -0.25283736 0.121549636 0.33727142 -0.10867945 -0.08349875
0.032639254 -0.016884329 0.27068272 -0.20935854 0.18291259 -0.08400391 0.15503839 -0.005227189
0.08519032 0.026814334 0.16322726 -0.110722 -0.11069602 -0.0038892394 -0.014319431 0.1716862
-0.15391263 -0.04046706 0.18707366 0.07896393 -0.029822027 0.018728731 -0.24793442 0.22756645
0.044095166 -0.5413689 0.015255482 0.041073065 0.105885565 -0.25489056 0.12648067 0.3278615
0.33944213 0.054347955 -0.051062245 -0.23223534 -0.027834663 -0.033525165 -0.037983082 0.12687175
0.09411049 -0.106280535 -0.08395976 0.09097072 0.024650007 0.053543076 -0.017487267 -0.21389818
0.20293991 -0.0071067605 0.044376656 -0.22904631 -0.246821 0.17784819 -0.071023956 0.0039259125
0.45047188 -0.02572413 0.09446303 -0.15931939 0.33004925 0.0275296 0.12294408 0.40162575
0.16212787 -0.22730994 -0.18197203 0.29718783 -0.3482434 -0.16354245 0.1054124 0.21713506
0.12581459 0.3003046 0.065393835 0.14758314 -0.1230696 -0.059338175 -0.017972844 -0.47224745
-0.002337252 0.026821611 -0.08771767 0.028149111 -0.13925363 -0.015975544 0.08441524 0.12536342
0.27176726 0.24080539 0.07519659 -0.09048137 -0.18814822 0.2758548 0.15559104 -0.01420923
-0.34217843 0.36954084 -0.17148592 0.11820536 0.06107127 -0.03199432 0.035865024 -0.15577108
0.17997137 0.26065835 0.19395 0.18080364 -0.29170924 0.047402043 0.16942477 0.3135985
0.14187033 -0.15343848 -0.10673076 -0.018864606 0.026937062 -0.2363438 -0.077234425 0.26377338
0.0020654267 0.18954107 -0.030411638 -0.11473973 -0.56940293 -0.1896585 -0.093194686 -0.042072203
0.041802853 -0.23041126 -0.28708375 0.12792715 0.10268827 0.4907666 0.3040782 0.003224721
-0.09425799 0.10513916 -0.0024978013 0.20634356 0.11807227 0.045862067 0.1557565 -0.22953819
-0.026448742 0.00896147 0.05931155 -0.0023055999 0.51648116 0.3570575 0.36298907 0.33151582
0.37618417 0.10484185 0.3128846 0.04838864 -0.25994188 -0.31781706 0.21269378 -0.21932304
-0.40583497 -0.10508492 -0.034985837 -0.12598883 -0.4134478 0.29317337 -0.0148208 -0.10314713
-0.0136066405 0.107066445 0.22566003 0.002080879 -0.29933032 0.37358072 -0.007668841 -0.17206399
0.21870232 0.35551977 0.14769046 0.03660578 -0.08671844 0.040413797 -0.36753199 -0.18720755
-0.31511003 -0.04246511 -0.05218581 0.017838037 -0.10830814 0.059585888 0.11861831 0.4462435
-0.28661507 0.20144264 0.17633994 0.004332238 -0.006401869 0.10413768 -0.049606837 0.20504552
-0.067377314 -0.17173524 0.29256737 -0.41513306 -0.050547604 -0.13941315 -0.2051426 0.06529432
-0.3564185 0.19147457 -0.012063138 0.05470425 -0.3000785 0.10472929 0.1826239 -0.025058402
-0.31892568 0.038938835 -0.10197363 -0.014287735 0.49669868 -0.06396207 0.07708893 0.14632939
0.09818338 -0.061756138 0.079689234 -0.04847315 -0.06046067 -0.16043851 0.057780415 0.4718836
-0.16542672 -0.4104861 -0.13412444 -0.06781571 -0.16363871 -0.09340667 -0.28040534 -0.10722233
00000000: 6320 de3e aa28 cabe f6b7 343d 48ba aa3e
00000010: 1510 e7bd fcc1 febe 7098 973e 182c 8ebe
00000020: 6e38 39bd b503 36be 4dd3 803d e673 81be
00000030: 04ef f83d d7ae ac3e 5593 debd 6501 abbd
00000040: bdb0 053d 0151 8abc ed96 8a3e 1662 56be
00000050: 704d 3b3e 3e0a acbd 62c2 1e3e d748 abbb
00000060: 4378 ae3d bca9 db3c 0c25 273e 37c2 e2bd
00000070: 98b4 e2bd 9ce2 7ebb 0c9c 6abc 82ce 2f3e
00000080: 469b 1dbe cac0 25bd 3d90 3f3e d7b7 a13d
00000090: 534d f4bc ff6c 993c 85e2 7dbe 2e07 693e
000000a0: 229d 343d 2797 0abf 21f2 793c 3b3c 283d
000000b0: 88da d83d 0481 82be 2684 013e 76dd a73e
000000c0: 5ccb ad3e f69b 5e3d a526 51bd 1acf 6dbe
000000d0: 8505 e4bc af51 09bd 2694 1bbd abea 013e
000000e0: 00bd c03d 9ca9 d9bd 18f3 abbd db4e ba3d
000000f0: d0ee c93c fc4f 5b3d 7541 8fbc 2008 5bbe
00000100: 7bcf 4f3e d4df e8bb 4cc4 353d 1e8b 6abe
00000110: a5be 7cbe d61d 363e 0275 91bd f1a4 803b
00000120: 40a4 e63e 69bb d2bc d575 c13d 9f24 23be
00000130: 37fc a83e c185 e13c 1bca fb3d e4a1 cd3e
00000140: d904 263e f0c3 68be e056 3abe 0129 983e
00000150: f54c b2be ac77 27be 75e2 d73d a758 5e3e
00000160: 8ad5 003e 86c1 993e 34ed 853d 0920 173e
00000170: ea0b fcbd 960c 73bd c93b 93bc 6bca f1be
00000180: 952c 19bb ffb8 db3c 52a5 b3bd f798 e63c
00000190: 8198 0ebe 25df 82bc e6e1 ac3d 455f 003e
000001a0: 1425 8b3e b095 763e ab00 9a3d 4c4e b9bd
000001b0: eda9 40be d73c 8d3e 4253 1f3e d5cd 68bc
000001c0: 0332 afbe 7534 bd3e 019a 2fbe a715 f23d
000001d0: de25 7a3d 7a0c 03bd 34e7 123d 7482 1fbe
000001e0: 6a4a 383e 0375 853e d49a 463e 9724 393e
000001f0: ea5a 95be a528 423d b07d 2d3e fc8f a03e
00000200: 7546 113e fa1e 1dbe a895 dabd f289 9abc
00000210: 1dab dc3c 1c04 72be 152d 9ebd 4e0d 873e
00000220: 1c5c 073b 0e17 423e d421 f9bc aafc eabd
00000230: 64c4 11bf d635 42be dbdc bebd e753 2cbd
00000240: 7839 2b3d eef0 6bbe a4fc 92be 56ff 023e
00000250: 3a4e d23d c345 fb3e 23b0 9b3e d755 533b
00000260: 550a c1bd 3353 d73d 27b2 23bb ba4b 533e
00000270: e0cf f13d ddd9 3b3d a27e 1f3e 0f0c 6bbe
00000280: 08ab d8bc 21d3 123c abf0 723d 8c19 17bb
00000290: 1c38 043f 3ed0 b63e b4d9 b93e 71bc a93e
000002a0: 369b c03e 53b7 d63d 6932 a03e 2b33 463d
000002b0: 1a17 85be ebb8 a2be 66cc 593e 3896 60be
000002c0: 9ac9 cfbe c336 d7bd 4f4d 0fbd 3703 01be
000002d0: 6eaf d3be d21a 963e f1d2 72bc cd3e d3bd
000002e0: 63ee 5ebc a745 db3d 6c13 673e 5b5f 083b
000002f0: d341 99be f945 bf3e e74a fbbb 8b31 30be
00000300: 80f3 5f3e b006 b63e 2b3c 173e f1ef 153d
00000310: 7099 b1bd f088 253d 272d bcbe 56b3 3fbe
00000320: 1a56 a1be e5ef 2dbd cac0 55bd 1321 923c
00000330: a8d0 ddbd 5510 743d 28ee f23d 077a e43e
00000340: 36bf 92be fb46 4e3e 7592 343e 72f5 8d3b
00000350: c5c6 d1bb 2346 d53d 8a30 4bbd 74f7 513e
00000360: 1efd 89bd 5ddb 2fbe 64cb 953e 528c d4be
00000370: 010b 4fbd 52c2 0ebe e710 52be 07b9 853d
00000380: 7c7c b6be e911 443e 78a4 45bc 9011 603d
00000390: e4a3 99be 4f7c d63d c201 3b3e 4747 cdbc
000003a0: 3a4a a3be 547e 1f3d 8dd7 d0bd 1b17 6abc
000003b0: 4a4f fe3e 8cfe 82bd cde0 9d3d 5fd7 153e
000003c0: 5e14 c93d 01f4 7cbd 1c34 a33d c88b 46bd
000003d0: 9ca5 77bd fe49 24be 28ab 6c3d ba9a f13e
000003e0: 9f65 29be 3c2b d2be eb57 09be f7e2 8abd
000003f0: e890 27be ff4b bfbd 4a91 8fbe 6297 dbbd

block1.layer.1.bn1.weight f4 [16]
0.9747486 0.97528106 1.0144566 1.0029551 1.0047083 0.9871985 1.0119351 1.003177
1.0061799 1.0046067 0.9866212 1.00576 0.99699545 1.0148739 1.0042176 1.001149
00000000: 2089 793f 05ac 793f b7d9 813f d560 803f
00000010: 489a 803f 0ab9 7c3f 1787 813f 1b68 803f
00000020: 81ca 803f f496 803f 3593 7c3f bebc 803f
00000030: 183b 7f3f 63e7 813f 348a 803f a725 803f

block1.layer.1.bn1.bias f4 [16]
-0.03597708 -0.020725638 -0.0041302005 -0.0142627545 0.025906263 0.012046806 -0.006209111 -0.008981935
-0.00090880913 0.011280425 -0.025579605 0.007404678 -0.010072933 -0.007165071 0.00740776 0.0042195665
00000000: b45c 13bd d0c8 a9bc a256 87bb 54ae 69bc
00000010: 5f39 d43c f75f 453c cc75 cbbb f728 13bc
00000020: 263d 6eba 88d1 383c 528c d1bc f1a2 f23b
00000030: f108 25bc f9c8 eabb cbbc f23b 4a44 8a3b

block1.layer.1.bn1.running_mean f4 [16]
0.6181217 0.67304456 1.0100179 0.5833001 -0.44318846 -0.46926787 0.15974434 0.09447701
-0.10170823 1.5006137 -0.1610797 -0.5485425 -0.7639154 -0.7327858 -0.90603554 0.058412455
00000000: 393d 1e3f a64c 2c3f 4448 813f 2853 153f
00000010: 99e9 e2be e143 f0be 0594 233e 2a7d c13d
00000020: 684c d0bd 1c14 c03f 14f2 24be 486d 0cbf
00000030: f68f 43bf da97 3bbf f2f1 67bf e641 6f3d

block1.layer.1.bn1.running_var f4 [16]
2.8310559 7.703479 2.193934 4.247121 4.1336403 1.2723993 1.1796753 2.064538
2.2912889 1.910306 1.4544163 1.0301317 1.2054558 7.338586 4.644387 1.7081757
00000000: 0530 3540 e682 f640 6a69 0c40 6ae8 8740
00000010: c846 8440 fbdd a23f 9aff 963f 6421 0440
00000020: 7aa4 1240 e884 f43f 502a ba3f 5bdb 833f
00000030: 604c 9a3f b2d5 ea40 d19e 9440 80a5 da3f

block1.layer.1.conv1.weight f4 [16, 16, 3]
0.29980922 0.17822762 0.22195332 0.11095285 -0.13013624 0.16278708 -0.14447942 -0.1007024
0.23118763 0.18325906 0.011031886 -0.07709792 0.13794738 0.10750744 0.24260393 -0.063915536
0.07364349 -0.3667566 0.18870884 0.10913733 -0.23782094 0.1072473 -0.041071076 -0.34562367
-0.09495977 -0.13762613 0.0027580827 0.09180555 0.026709598 0.31912538 -0.16230167 0.37242246
-0.22166671 -0.1369077 -0.2624243 -0.12224461 0.1691846 0.111962534 -0.04121226 -0.068639174
-0.08613425 0.012363916 0.016262487 -0.06000376 -0.23485067 0.10128602 -0.24654883 0.18360585
-0.20629519 -0.1933226 0.27065983 -0.22570506 0.18594225 0.089469835 -0.1400175 -0.17802364
-0.17415549 0.040666375 0.07551799 -0.14053102 -0.17643467 0.04324239 0.28728086 0.06196108
-0.13676424 -0.19178075 0.19924699 0.1839076 0.44560942 0.049024705 0.018519972 0.21801727
-0.12253165 0.1602528 0.18600403 0.21151212 0.15274875 0.4297004 0.027906336 -0.11242454
-0.117177516 -0.26247704 -0.080765516 0.24654016 -0.39407092 -0.023812557 -0.113524884 -0.2771124
0.18607128 0.12939733 0.1591074 -0.045531195 -0.086365186 0.15049894 0.16429757 -0.3247601
-0.26991197 0.14139669 0.053889636 0.13975438 0.088371985 0.15608577 0.0065530175 0.1843808
-0.1332122 0.44234413 -0.19609123 -0.34778652 -0.053526692 0.0025438927 0.21176925 0.17079662
-0.099651456 -0.0838488 -0.17437659 -0.24964248 0.18430305 -0.05299786 0.048523933 0.088717245
0.38889423 -0.044512946 0.37802285 0.23458724 0.44238734 0.3443004 0.0024649934 0.09648916
-0.16607074 -0.09828306 0.27211148 0.46743375 0.0037193943 -0.33059353 -0.07034446 -0.06349168
-0.40673518 0.25332344 0.18864363 -0.101972066 0.04352823 -0.12460781 0.026045898 0.12781152
0.1773277 0.4531135 0.02083602 -0.045619145 0.14609326 -0.08369524 0.08537259 -0.23401973
-0.08855361 -0.110100694 0.24585333 0.38067624 -0.38609767 -0.0397307 0.052144814 -0.109937355
-0.03648135 -0.46464637 0.3026171 0.15335606 0.25592652 0.12099691 0.24010594 -0.06705377
0.013609507 0.56728774 0.295603 -0.22935303 0.223021 0.020783717 0.14055872 -0.061291095
-0.26500735 0.4144113 0.098117925 0.2308703 0.11224794 -0.06678546 -0.5583423 0.010599639
0.065590255 0.11313243 0.023573112 -0.25454643 -0.039798252 0.098991625 -0.031746875 -0.3810744
-0.04226247 -0.10885383 -0.1157635 -0.43771958 -0.061519004 0.04089951 -0.39809692 0.15859973
0.36841083 0.37313378 0.17561474 -0.0696294 0.075860724 0.11761554 -0.18039298 -0.11616614
0.028201632 -0.1346817 -0.0525466 0.14474249 -0.32700694 0.12484203 -0.053730562 -0.16426587
-0.08328553 0.07044202 -0.058653593 -0.07155606 0.08159318 -0.11774713 0.12465822 0.06831668
-0.12539855 -0.13274719 -0.001646158 -0.1520593 -0.36885807 0.12824848 -0.10271585 0.12960002
0.31452483 -0.20917222 0.018408094 0.14568678 -0.09880637 -0.12086858 0.1006011 -0.046477847
0.089453146 -0.05046377 -0.41885608 -0.062006243 0.13475388 -0.22685508 -0.038974594 -0.19236396
0.40552548 -0.4652078 -0.19310462 0.094958305 -0.057853248 -0.23433723 -0.18075684 0.25682947
00000000: 9880 993e 4d81 363e bb47 633e 3f3b e33d
00000010: 6f42 05be a8b1 263e 6af2 13be 0f3d cebd
00000020: 73bc 6c3e 43a8 3b3e 15bf 343c 84e5 9dbd
00000030: 1442 0d3e dc2c dc3d 2a6d 783e 26e6 82bd
00000040: 66d2 963d 85c7 bbbe e43c 413e 6483 df3d
00000050: 5587 73be 79a4 db3d 253a 28bd 96f5 b0be
00000060: 457a c2bd dded 0cbe f3c0 343b 8c04 bc3d
00000070: 16ce da3c 6764 a33e 6932 26be 28ae be3e
00000080: 99fc 62be 8831 0cbe 7a5c 86be 625b fabd
00000090: ba3e 2d3e 9d4c e53d 30ce 28bd b292 8cbd
000000a0: 2767 b0bd 0692 4a3c e838 853c 81c6 75bd
000000b0: b27c 70be 0b6f cf3d 4c77 7cbe 2c03 3c3e
000000c0: 0c3f 53be 5cf6 45be ed93 8a3e 3a1f 67be
000000d0: a567 3e3e f63b b73d bf60 0fbe d44b 36be
000000e0: d155 32be c991 263d 2da9 9a3d 5de7 0fbe
000000f0: 4aab 34be ef1e 313d 7a16 933e e7ca 7d3d
00000100: ed0b 0cbe 2c62 44be 6707 4c3e 4652 3c3e
00000110: eb26 e43e 21ce 483d 32b7 973c eb3f 5f3e
00000120: e0f1 fabd 4f19 243e d777 3e3e a296 583e
00000130: 2b6a 1c3e b101 dc3e d49b e43c d63e e6bd
00000140: c4fa efbd 6463 86be 6468 a5bd 0675 7c3e
00000150: aac3 c9be 8d12 c3bc bc7f e8bd ade1 8dbe
00000160: 7889 3e3e bc80 043e 0ded 223e eb7e 3abd
00000170: 3be0 b0bd 651c 1a3e 9f3d 283e f546 a6be
00000180: e731 8abe 4bca 103e 61bb 5c3d c61b 0f3e
00000190: 5ffc b43d f3d4 1f3e b2ba d63b 52ce 3c3e
000001a0: c768 08be ee7a e23e 24cc 48be 1311 b2be
000001b0: ce3e 5bbd 70b7 263b 0ada 583e 4fe5 2e3e
000001c0: 1016 ccbd ebb8 abbd c78f 32be 47a2 7fbe
000001d0: f0b9 3c3e 4914 59bd 08c1 463d 63b1 b53d
000001e0: 251d c73e 3553 36bd 368c c13e a337 703e
000001f0: 9880 e23e 2448 b03e ba8b 213b 1c9c c53d
00000200: 730e 2abe a148 c9bd 3252 8b3e 7a53 ef3e
00000210: 15c1 733b 8e43 a9be c210 90bd ed07 82bd
00000220: 983f d0be 9cb3 813e cc2b 413e bbd6 d0bd
00000230: a84a 323d 6132 ffbd 355e d53c 06e1 023e
00000240: 6595 353e 7efe e73e 4db0 aa3c 24db 3abd
00000250: 7999 153e 6968 abbd d3d7 ae3d dea2 6fbe
00000260: 985b b5bd 797c e1bd fac0 7b3e ffe7 c23e
00000270: 98ae c5be a9bc 22bd cd95 553d d626 e1bd
00000280: 786d 15bd 21e6 edbe a1f0 9a3e 5f09 1d3e
00000290: cd08 833e 3acd f73d 55de 753e 7d53 89bd
000002a0: 69fa 5e3c c539 113f 4759 973e 85db 6abe
000002b0: 9e5f 643e 9d42 aa3c a0ee 0f3e 5f0c 7bbd
000002c0: 0baf 87be b82d d43e 0df2 c83d 4469 6c3e
000002d0: 3fe2 e53d d1c6 88bd 85ef 0ebf 1caa 2d3c
000002e0: 2f54 863d fab1 e73d 661c c13c e953 82be
000002f0: 7e03 23bd 1fbc ca3d 0309 02bd 2f1c c3be
00000300: 691b 2dbd c2ee debd 6a15 edbd c81c e0be
00000310: 5afb 7bbd 3f86 273d 5cd3 cbbe f867 223e
00000320: 58a0 bc3e 640b bf3e 5ad4 333e dc99 8ebd
00000330: de5c 9b3d 6be0 f03d f0b8 38be 83e8 edbd
00000340: 1c07 e73c 00ea 09be 1b3b 57bd 6037 143e
00000350: 746d a7be 2ead ff3d 9414 5cbd 5035 28be
00000360: 9b91 aabd e843 903d c03e 70bd fc8b 92bd
00000370: 531a a73d 6825 f1bd cf4c ff3d 9ee9 8b3d
00000380: 7a68 00be e1ee 07be e6c3 d7ba 6fb5 1bbe
00000390: f7da bcbe 9253 033e b05c d2bd deb5 043e
000003a0: 6609 a13e 3e31 56be 92cc 963c ea2e 153e
000003b0: fe5a cabd f289 f7bd f307 ce3d 8e5f 3ebd
000003c0: 3633 b73d 19b3 4ebd 4e74 d6be 42fa 7dbd
000003d0: ecfc 093e b34c 68be d3a3 1fbd 0ffb 44be
000003e0: 09a1 cf3e b72f eebe 38bd 45be 8079 c23d
000003f0: 87f7 6cbd 19f6 6fbe 5218 39be 277f 833e

block1.layer.1.bn2.weight f4 [16]
0.99341995 0.996421 0.9804691 1.002283 0.97787666 0.9794774 1.0136166 1.0084627
1.0022812 0.9850852 1.0073148 0.9853735 0.9985673 1.0000497 0.9840966 1.0007063
00000000: c550 7e3f 7215 7f3f 0600 7b3f cf4a 803f
00000010: 2056 7a3f 08bf 7a3f 30be 813f 4e15 813f
00000020: c04a 803f 8b2e 7c3f b1ef 803f 7041 7c3f
00000030: 1ba2 7f3f a101 803f c1ed 7b3f 2517 803f

block1.layer.1.bn2.bias f4 [16]
-0.008730052 0.009690489 0.019915195 -0.003387167 -0.0016949859 -0.019282475 0.011340947 -0.013092269
-0.01461885 -0.01030329 -0.00060397055 -0.009576468 0.010275261 -0.012931172 -0.00022484509 0.019333186
00000000: 7e08 0fbc dbc4 1e3c 3125 a33c 3bfb 5dbb
00000010: 4a2a deba 48f6 9dbc 61cf 393c f580 56bc
00000020: e783 6fbc 21cf 28bc c753 1eba 9ee6 1cbc
00000030: 9159 283c 44dd 53bc 65c4 6bb9 a160 9e3c

block1.layer.1.bn2.running_mean f4 [16]
0.17403395 0.16906351 0.6470484 0.49498028 -0.35659638 -0.24670407 1.1262773 -0.15394874
0.39478922 -0.78038305 -0.014567969 -0.009185706 -1.1577203 -0.9527914 0.28765634 -0.7681398
00000000: f535 323e fc1e 2d3e f7a4 253f 0e6e fd3e
00000010: cd93 b6be fe9f 7cbe db29 903f bda4 1dbe
00000020: d021 ca3e 2fc7 47bf 7eae 6ebc a57f 16bc
00000030: 2e30 94bf 23ea 73bf b147 933e cfa4 44bf

block1.layer.1.bn2.running_var f4 [16]
0.41321874 0.33701196 0.70488715 0.54373556 0.33823112 0.5715587 1.7743919 0.41205278
0.3263367 0.6058138 0.47390988 0.9381931 0.68917024 0.950763 0.46553764 0.4283398
00000000: 6891 d33e d58c ac3e 7c73 343f 4132 0b3f
00000010: a12c ad3e ac51 123f 461f e33f 95f8 d23e
00000020: 9b15 a73e 9d16 1b3f 51a4 f23e 6c2d 703f
00000030: 766d 303f 3465 733f f35a ee3e 5b4f db3e

block1.layer.1.conv2.weight f4 [16, 16, 3]
0.30111337 0.05435462 -0.2631017 -0.12795529 -0.28169584 -0.19824226 0.064198315 -0.15476629
0.042690653 -0.28019106 -0.12898852 -0.1686236 0.1507745 0.059078038 0.14517541 -0.24367097
0.22848457 -0.07218172 0.15065245 0.13658771 -0.11929763 -0.059216026 0.16509306 -0.23819582
-0.11453548 0.05719771 -0.1683243 0.054850854 0.22837432 0.06729566 -0.10153576 0.15251862
-0.13996154 -0.44862399 -0.36185247 0.4072095 0.416352 -0.20949052 -0.11120419 0.21467292
-0.1642016 0.04853502 0.15732631 -0.28807542 -0.27889505 -0.10717401 0.163959 0.10885862
-0.2806885 -0.07593552 0.2694477 -0.40384176 -0.1541808 0.3086272 -0.1226867 0.19958131
-0.20118679 -0.23695303 0.21540941 0.10325092 -0.13689563 0.23141614 -0.19474979 -0.33140835
-0.50864756 0.31959492 -0.120063245 0.11844539 0.07723252 -0.15717204 -0.087124646 0.12743174
0.19002941 -0.20520647 -0.10040178 0.12380484 0.11949584 0.3680382 0.16142124 0.21117605
-0.21045914 -0.07019178 -0.3550095 -0.10949225 -0.03590654 0.41367027 0.11334805 0.34301165
-0.13226436 0.0069755428 -0.0768228 -0.3874548 0.46053088 0.25161093 0.19353247 0.16976744
-0.17389233 -0.40213776 0.02218321 -0.0892212 -0.148015 0.11819688 0.15350647 -0.014680266
0.084194854 0.35266787 0.10426232 -0.29008403 0.12873018 -0.28463992 -0.019028163 0.10139566
-0.29775974 0.29462203 0.038992956 -0.25622478 0.055577606 0.20764406 0.037142213 0.26379776
0.20709881 -0.0653478 -0.12181747 -0.27379185 -0.09534063 0.027872944 0.116318345 -0.14885929
0.00091775303 -0.35315463 -0.27896547 0.16238624 -0.4348256 0.070761286 0.026150722 0.16946416
0.22016262 0.08254736 -0.16671847 -0.12977503 -0.09357848 0.2936166 0.0039365534 -0.47400263
0.035261605 -0.0762081 0.20411034 0.08770823 0.017502293 0.08463954 0.3914837 0.056833744
0.055644758 -0.2245243 0.046737347 0.37937066 -0.0966424 0.10461762 -0.23314682 -0.05921167
0.15152325 0.3118738 -0.11273719 0.3171132 0.27975556 -0.12466011 0.067243576 0.18228501
-0.15131928 0.05216732 0.21646921 0.120027386 0.1788235 -0.24579254 0.41987255 -0.28120613
-0.0382574 0.015230458 -0.031529054 0.01831863 -0.12655622 -0.21434659 -0.33134237 0.14863911
-0.23865464 -0.25549397 -0.16207157 -0.28254128 -0.19881047 0.0245721 0.13792664 0.36741713
-0.030694077 0.14904211 0.13211484 0.24635197 -0.07100615 0.16236964 0.034828134 -0.082853265
0.025824659 -0.06878781 -0.27927604 -0.16677769 -0.37031895 0.21363631 -0.26470998 0.1725211
0.24504289 -0.14806004 0.2888372 -0.00081906107 0.26414022 0.28119534 0.045170724 -0.04710512
-0.120326996 0.03655472 0.23632827 0.40291876 -0.28964382 0.090508044 0.015446166 -0.09760554
-0.07921483 0.29402453 -0.19159792 -0.14460912 0.08194133 -0.026050689 -0.25080174 0.00010639135
-0.09976763 0.22285978 0.12870456 0.013537999 -0.45342463 -0.09120245 -0.2550168 -0.1805826
-0.034206785 -0.13878459 0.16052805 0.21590406 0.12640014 0.06200939 -0.054623645 0.13875793
0.17558186 -0.12492973 0.1605167 0.049316004 -0.053402904 -0.028303826 -0.11821942 -0.07112937
00000000: 882b 9a3e f3a2 5e3d 44b5 86be b606 03be
00000010: 703a 90be 0500 4bbe 687a 833d 0e7b 1ebe
00000020: 65dc 2e3d 3475 8fbe 9115 04be aaab 2cbe
00000030: a164 1a3e d0fb 713d dda8 143e e284 79be
00000040: dcf7 693e 02d4 93bd a344 1a3e a6dd 0b3e
00000050: 5152 f4bd 818c 72bd 280e 293e 9be9 73be
00000060: 9491 eabd 2548 6a3d 355d 2cbe 4aab 603d
00000070: f5da 693e 4fd2 893d fbf1 cfbd d72d 1c3e
00000080: 1452 0fbe 0bb2 e5be ba44 b9be c37d d03e
00000090: 172c d53e af84 56be 06bf e3bd 38d3 5b3e
000000a0: 7724 28be a8cc 463d 261a 213e 9f7e 93be
000000b0: 55cb 8ebe 0c7e dbbd dee4 273e 45f1 de3d
000000c0: 67b6 8fbe 1584 9bbd 0df5 893e 59c4 cebe
000000d0: 92e1 1dbe 6204 9e3e 2a43 fbbd 0b5f 4c3e
000000e0: e903 4ebe d1a3 72be 4994 5c3e 3875 d33d
000000f0: 5e2e 0cbe 5af8 6c3e 7d6c 47be 5bae a9be
00000100: ba36 02bf f2a1 a33e b8e3 f5bd 7f93 f23d
00000110: 152c 9e3d b5f1 20be 686e b2bd 777d 023e
00000120: 1297 423e a521 52be 739f cdbd 648d fd3d
00000130: 3cba f43d 816f bc3e 9c4b 253e 893e 583e
00000140: 9a82 57be b5c0 8fbd cec3 b5be 793d e0bd
00000150: bc12 13bd 97cc d33e 0623 e83d 399f af3e
00000160: 4f70 07be 1893 e43b 4655 9dbd 7a60 c6be
00000170: b4ca eb3e 26d3 803e 602d 463e 84d7 2d3e
00000180: d510 32be 00e5 cdbe 90b9 b53c 9bb9 b6bd
00000190: 3f91 17be 3511 f23d cd30 1d3e 8085 70bc
000001a0: 5a6e ac3d e290 b43e 7c87 d53d e585 94be
000001b0: d8d1 033e 53bc 91be f3e0 9bbc 87a8 cf3d
000001c0: f773 98be b3d8 963e 14b7 1f3d e52f 83be
000001d0: 58a5 633d a5a0 543e 6f22 183d 8010 873e
000001e0: b611 543e 11d5 85bd 707b f9bd 722e 8cbe
000001f0: f341 c3bd cd55 e43c 5038 ee3d 926e 18be
00000200: 5d95 703a afd0 b4be 90d4 8ebe 9448 263e
00000210: 76a1 debe 4beb 903d 0a3a d63c 0388 2d3e
00000220: 4f72 613e 970e a93d 3fb8 2abe bfe3 04be
00000230: 13a6 bfbd ea54 963e 34fe 803b 79b0 f2be
00000240: 796e 103d fe12 9cbd 4d02 513e 5fa0 b33d
00000250: f860 8f3c 7f57 ad3d 8d70 c83e 80ca 683d
00000260: c2eb 633d b3e9 65be a96f 3f3d df3c c23e
00000270: 73ec c5bd c341 d63d 0abe 6ebe f087 72bd
00000280: e928 1b3e ecad 9f3e c2e2 e6bd a95c a23e
00000290: 1f3c 8f3e cd4d ffbd 00b7 893d eca8 3a3e
000002a0: 71f3 1abe 66ad 553d 1baa 5d3e ebd0 f53d
000002b0: 821d 373e 0ab1 7bbe 89f9 d63e 40fa 8fbe
000002c0: cbb3 1cbd 2c89 793c 9c24 01bd f410 963c
000002d0: f497 01be ac7d 5bbe b5a5 a9be da34 183e
000002e0: e261 74be 1bd0 82be 17f6 25be 40a9 90be
000002f0: f994 4bbe 6e4b c93c a43c 0d3e 191e bc3e
00000300: 2572 fbbc 7f9e 183e 1d49 073e b143 7c3e
00000310: ac6b 91bd 3a44 263e f2a7 0e3d f9ae a9bd
00000320: 3c8e d33c a0e0 8cbd 45fd 8ebe c5c7 2abe
00000330: 729a bdbe 7ac3 5a3e 1188 87be 5fa9 303e
00000340: 86ec 7a3e 0d9d 17be 78e2 933e 42b6 56ba
00000350: 633d 873e d6f8 8f3e f004 393d 4cf1 40bd
00000360: 006e f6bd 67ba 153d 0a00 723e 5e4b ce3e
00000370: 324c 94be 485c b93d ea11 7d3c 6ae5 c7bd
00000380: 633b a2bd 628a 963e 3f32 44be 6a14 14be
00000390: dbd0 a73d 4168 d5bc 1669 80be 6c1e df38
000003a0: f952 ccbd 5b35 643e 21cb 033e 7cce 5d3c
000003b0: 4627 e8be 5ac8 babd 9091 82be a5ea 38be
000003c0: 6a1c 0cbd 8c1d 0ebe 7761 243e f415 5d3e
000003d0: 0a6f 013e 8ffd 7d3d 0bbd 5fbd 8f16 0e3e
000003e0: bbcb 333e 29db ffbd 7d5e 243e 94ff 493d
000003f0: 01bd 5abd 6ddd e7bc 061d f2bd 46ac 91bd

block2.layer.0.bn1.weight f4 [16]
1.0101169 0.98160183 0.99958384 0.9951574 1.0194936 0.9846601 0.9908539 0.97864157
1.0023332 1.0072457 1.0322477 0.9851338 1.0166565 1.0252122 0.98981726 1.0141228
00000000: 834b 813f 424a 7b3f bae4 7f3f a3c2 7e3f
00000010: c47e 823f af12 7c3f 9aa8 7d3f 4188 7a3f
00000020: 744c 803f 6ded 803f b120 843f bb31 7c3f
00000030: cd21 823f 273a 833f aa64 7d3f c7ce 813f

block2.layer.0.bn1.bias f4 [16]
0.017398076 -0.001428704 -0.008057763 0.023162453 0.0015668062 -0.012504793 0.014550981 -0.007752106
-0.0015925893 0.002693187 0.030841634 -0.006698543 0.01801388 0.02919764 0.0032115015 0.029193074
00000000: 6986 8e3c 5a43 bbba b504 04bc 2fbf bd3c
00000010: 4b5d cd3a e7e0 4cbc 3d67 6e3c 6105 febb
00000020: 6ebe d0ba 2e80 303b 98a7 fc3c 747f dbbb
00000030: d891 933c e42f ef3c 0e78 523b 5026 ef3c

block2.layer.0.bn1.running_mean f4 [16]
0.20717384 0.8007634 0.55501795 0.92629874 -0.42901936 0.11160545 0.2362938 0.2582487
-0.05028587 1.6139562 -0.24190915 -1.26816 -1.42889 -0.32576343 -1.2106086 -1.0771909
00000000: 6125 543e d5fe 4c3f a815 0e3f ea21 6d3f
00000010: 6da8 dbbe 6691 e43d 00f7 713e 2c39 843e
00000020: 8ef8 4dbd 1e96 ce3f 08b7 77be 1153 a2bf
00000030: dee5 b6bf 77ca a6be 39f5 9abf 64e1 89bf

block2.layer.0.bn1.running_var f4 [16]
4.455152 10.291388 5.4649806 7.0814843 5.9670014 2.9010527 1.864252 2.451403
3.9034164 2.9991844 2.0789084 3.2559388 2.7141519 7.6073947 6.562745 2.7859476
00000000: 9b90 8e40 86a9 2441 1fe1 ae40 859b e240
00000010: adf1 be40 d9aa 3940 cf9f ee3f c9e3 1c40
00000020: 93d1 7940 a3f2 3f40 d60c 0540 4d61 5040
00000030: aab4 2d40 c76f f340 0202 d240 f74c 3240

block2.layer.0.conv1.weight f4 [32, 16, 3]
-0.19467741 -0.021139994 -0.059938937 0.2966256 -0.17565529 0.055404585 -0.12218979 -0.04911648
-0.023555465 -0.08215503 0.051976755 -0.20849654 -0.12078888 -0.17614119 -0.3017064 -0.20769688
-0.25327897 0.057772446 0.15881996 -0.09941003 -0.023456415 0.062285136 -0.14181201 -0.22548287
0.048980642 -0.15820648 0.049990706 -0.19926792 -0.21630695 -0.25780928 -0.08331693 0.2669049
-0.11403449 -0.14770631 0.0559443 -0.15201393 0.21267226 0.109217964 0.10502035 0.21731554
-0.03396165 0.15825962 0.050959338 -0.2526561 -0.019154634 -0.26216954 -0.23329008 0.026183838
-0.19423231 -0.19268358 0.05511817 0.03497797 -0.13047567 -0.4890377 -0.122318044 -0.14849599
0.028201306 -0.07530708 0.047642004 -0.2526742 0.03208501 0.17184713 0.18727888 -0.044355024
-0.1755225 0.0032971343 -0.09263219 0.09626944 -0.04130089 -0.030408593 0.008021946 0.015417172
-0.21783875 0.18766974 0.009255512 -0.075795874 -0.02283702 -0.24803755 0.19104673 0.09304767
0.17199428 -0.07440019 -0.08610572 -0.17209557 0.17292297 0.060934093 0.20486282 -0.23203842
-0.016835382 0.12954716 0.11607125 0.27203655 0.06385902 0.16681422 -0.010565296 -0.12408736
-0.2469534 0.18029572 0.055053458 0.072938934 0.24134621 -0.17930317 0.036245983 -0.10544883
-0.2066175 0.083379716 0.15693757 0.050985567 -0.037651297 0.24662936 -0.16546066 0.058490694
0.056073338 -0.073511444 0.1035135 0.05631237 0.052255318 -0.1819778 0.20102559 0.052669354
-0.19849588 -0.10429082 0.008675335 0.0767193 -0.12340285 -0.025968308 -0.021431018 -0.12798731
-0.15754505 0.06265899 -0.21253029 -0.11385051 0.13192603 -0.15547536 -0.043232717 -0.16026054
-0.068244256 -0.015155214 -0.13053401 -0.011862247 0.088465855 -0.098183595 -0.047221314 0.007219362
-0.09863274 -0.07208386 0.09592374 -0.006318666 -0.2356718 -0.052153233 -0.08816195 0.12635748
-0.19800618 0.10460822 0.017462242 -0.16470243 -0.037303664 -0.17297885 0.055603534 0.14463533
-0.082523905 -0.04449792 -0.21564476 0.22415242 -0.025273394 -0.048281256 0.14038058 -0.047360618
-0.18710032 0.14671193 -0.029940572 -0.1252541 0.27484542 -0.092837125 0.04611396 0.16607909
0.21691622 0.023139667 0.08893858 -0.08624412 0.17370339 -0.4630896 0.077921525 0.26576373
-0.024950366 -0.25003085 0.104758196 -0.13073735 -0.10377441 0.1613768 -0.0685362 -0.013446945
-0.19714864 0.11384419 0.09700725 -0.04416875 -0.23681284 0.29175988 -0.13363904 0.097443275
0.10052896 0.0038268985 0.13439426 -0.17760898 0.07764436 0.098625824 -0.4140824 0.028873164
-0.21293765 0.14169934 0.18444768 -0.38850346 -0.124052025 0.22519472 0.12809162 -0.16291519
0.29987454 0.1241736 -0.19109435 0.21581751 0.13051222 0.23489061 0.007759234 0.071065135
0.18593046 -0.064785905 -0.015851758 0.1538442 -0.013356033 0.00084222807 0.05002498 0.13164477
0.004832141 0.0729608 0.13629831 -0.013291777 0.055511486 -0.057654165 -0.1545364 -0.13276438
-0.17036954 -0.058730673 0.10735279 0.12232303 -0.087139994 0.3290277 -0.1783728 -0.058690056
-0.089797705 0.10865752 0.09833964 0.03577854 -0.09884741 0.2791942 -0.16504857 -0.019918783
00000000: 8459 47be c82d adbc 8882 75bd 50df 973e
00000010: fbde 33be ebef 623d a43e fabd 5d2e 49bd
00000020: 64f7 c0bc e540 a8bd 94e5 543d 1e80 55be
00000030: 2960 f7bd 5b5e 34be 4379 9abe 7eae 54be
00000040: c8ad 81be cda2 6c3d b3a1 223e 7c97 cbbd
00000050: ab27 c0bc b31e 7f3d 2b37 11be fbe4 66be
00000060: ed9f 483d e100 22be 0ec3 4c3d e40c 4cbe
00000070: 927f 5dbe 94ff 83be 11a2 aabd c2a7 883e
00000080: ea8a e9bd 5340 17be da25 653d 8aa9 1bbe
00000090: c2c6 593e abad df3d e914 d73d f787 5e3e
000000a0: 5f1b 0bbd cf0e 223e bdba 503d 245c 81be
000000b0: 2eea 9cbc 163b 86be 98e3 6ebe 7d7f d63c
000000c0: d6e4 46be d84e 45be 97c3 613d 0f45 0f3d
000000d0: 6a9b 05be 2663 fabe e281 fabd 550f 18be
000000e0: 6d06 e73c 993a 9abd 4324 433d 835e 81be
000000f0: 926b 033d b2f8 2f3e 09c6 3f3e 9dad 35bd
00000100: 2cbc 33be bc14 583b f2b5 bdbd ea28 c53d
00000110: 1f2b 29bd 711b f9bc 7b6e 033c 4e98 7c3c
00000120: 1f11 5fbe 7f2c 403e 6ea4 173c de3a 9bbd
00000130: b414 bbbc 8efd 7dbe c1a1 433e c78f be3d
00000140: 451f 303e 205f 98bd 3258 b0bd d239 30be
00000150: b812 313e 0796 793d 8fc7 513e 7b9b 6dbe
00000160: 5bea 89bc 03a8 043e c3b6 ed3d 6048 8b3e
00000170: 85c8 823d 59d1 2a3e 101a 2dbc 8421 febd
00000180: 5ae1 7cbe 719f 383e bc7f 613d 0261 953d
00000190: 7623 773e 409b 37be ab76 143d 8ef5 d7bd
000001a0: 8a93 53be fcc2 aa3d 3eb4 203e 3ed6 503d
000001b0: 3f38 1abd 688c 7c3e 856e 29be f093 6f3d
000001c0: 28ad 653d 2b8d 96bd e3fe d33d cda7 663d
000001d0: ac09 563d 6358 3abe a7d9 4d3e d2bb 573d
000001e0: 8142 4bbe 6d96 d5bd fe22 0e3c 021f 9d3d
000001f0: a2ba fcbd 7dbb d4bc 1a90 afbc 1b0f 03be
00000200: 7d53 21be 5b53 803d 8aa1 59be 752a e9bd
00000210: 9e17 073e ef34 1fbe ca14 31bd 571b 24be
00000220: a5c3 8bbd 934d 78bc b5aa 05be df59 42bc
00000230: 962d b53d 7b14 c9bd 236b 41bd 6690 ec3b
00000240: f6ff c9bd b4a0 93bd aa73 c43d d00c cfbb
00000250: f353 71be a19e 55bd 418e b4bd db63 013e
00000260: 22c2 4abe d63c d63d fa0c 8f3c c1a7 28be
00000270: bacb 18bd 5e21 31be 88c0 633d 491b 143e
00000280: 4b02 a9bd 7343 36bd fbd1 5cbe 3688 653e
00000290: 260a cfbc 91c2 45bd edbf 0f3e 35fd 41bd
000002a0: 3a97 3fbe a73b 163e ee45 f5bc 9c42 00be
000002b0: 8ab8 8c3e 6421 bebd fee1 3c3d a310 2a3e
000002c0: 491f 5e3e 668f bd3c 6e25 b63d c2a0 b0bd
000002d0: 4ddf 313e 141a edbe 5295 9f3d 2f12 883e
000002e0: b664 ccbc 0b04 80be 778b d63d 03e0 05be
000002f0: ae87 d4bd f63f 253e b55c 8cbd 9350 5cbc
00000300: 55e1 49be 2527 e93d bdab c63d 4bea 34bd
00000310: 117f 72be 8d61 953e acd8 08be 5790 c73d
00000320: 21e2 cd3d b4cc 7a3b a69e 093e 21df 35be
00000330: 0204 9f3d 56fc c93d 9c02 d4be 6a87 ec3c
00000340: 540c 5abe a219 113e dadf 3c3e ede9 c6be
00000350: fd0e febd 7299 663e 732a 033e 3dd3 26be
00000360: 2889 993e ba4e fe3d 3dae 43be 44ff 5c3e
00000370: ffa4 053e 2a87 703e 2c41 fe3b 998a 913d
00000380: 8e64 3e3e 79ae 84bd 8cdb 81bc 5589 1d3e
00000390: 43d3 5abc f8c8 5c3a fee6 4c3d e3cd 063e
000003a0: f056 9e3b 796c 953d c991 0b3e c1c5 59bc
000003b0: 0360 633d c626 6cbd ca3e 1ebe 63f3 07be
000003c0: 5a75 2ebe 938f 70bd c8db db3d 7f84 fa3d
000003d0: 7476 b2bd 5276 a83e 5ca7 36be fc64 70bd
000003e0: dce7 b7bd d587 de3d 4b66 c93d 858c 123d
000003f0: 8370 cabd 8bf2 8e3e 7e02 29be b72c a3bc

block2.layer.0.bn2.weight f4 [32]
1.0029066 1.0250486 0.9964882 0.96672666 0.9885552 0.9909837 1.0191705 0.9968268
0.97885704 1.0176437 1.0101285 1.0142422 0.98263043 1.0136328 1.0013833 0.9936293
0.99708027 1.0142571 0.99463856 1.0035244 0.9839987 1.0028144 0.9917128 1.0026228
1.0001969 0.99352616 0.9849057 0.99526787 0.99319714 1.0089893 1.0227417 0.9807704
00000000: 3e5f 803f cb34 833f da19 7f3f 667b 773f
00000010: f411 7d3f 1cb1 7d3f 2e74 823f 0b30 7f3f
00000020: 6096 7a3f 2642 823f e44b 813f b0d2 813f
00000030: ab8d 7b3f b8be 813f 542d 803f 7d5e 7e3f
00000040: a740 7f3f 2dd3 813f a2a0 7e3f 7d73 803f
00000050: 57e7 7b3f 395c 803f e4e0 7d3f f255 803f
00000060: 7406 803f bb57 7e3f c822 7c3f e0c9 7e3f
00000070: 2b42 7e3f 9026 813f 33e9 823f c513 7b3f

block2.layer.0.bn2.bias f4 [32]
0.008488906 0.00016810615 0.007960074 -0.009991246 -0.007606593 -0.013570905 0.025657509 -0.016897654
-0.019603314 0.022704605 0.017727632 -0.016564116 -0.035565387 0.009841112 -0.011799 -0.02396969
0.014117407 0.0113137765 -0.012884217 0.020398399 0.0027885789 0.012081821 0.0021319778 -0.010392552
0.0007621366 -0.01917488 -0.014416292 0.0066840625 0.01921838 0.024562713 0.014618257 -0.024593078
00000000: 0d15 0b3c a745 3039 f86a 023c 53b2 23bc
00000010: ba40 f9bb 8058 5ebc b22f d23c f36c 8abc
00000020: 2197 a0bc 02ff b93c 8a39 913c 78b1 87bc
00000030: 03ad 11bd 9e3c 213c 9850 41bc 155c c4bc
00000040: b24c 673c 6b5d 393c 5318 53bc 8b1a a73c
00000050: 97c0 363b d5f2 453c a7b8 0b3b 8645 2abc
00000060: 1fca 473a a314 9dbc 5032 6cbc fb05 db3b
00000070: dd6f 9d3c be37 c93c 6a81 6f3c 6c77 c9bc

block2.layer.0.bn2.running_mean f4 [32]
-0.87254244 -0.24564195 -0.32922673 -0.22559717 0.25651124 0.10284945 0.15080105 -0.36658567
-0.38078144 0.65619 -0.0075517287 0.5360909 0.09061602 0.39124382 0.33206618 0.24022178
0.0947265 -0.14339654 0.18104026 -0.24668543 -0.13920279 -0.4714868 0.18659952 0.47404045
-0.13029872 -0.10059351 0.3629779 -0.34211192 0.8245341 0.15166105 -0.2603688 -0.06454
00000000: f15e 5fbf 9089 7bbe 6890 a8be f202 67be
00000010: 7155 833e bca2 d23d 976b 1a3e 1eb1 bbbe
00000020: c9f5 c2be 11fc 273f 7e74 f7bb 413d 093f
00000030: e494 b93d 1c51 c83e 9404 aa3e b3fc 753e
00000040: f8ff c13d 8bd6 12be 9e62 393e 1b9b 7cbe
00000050: 2d8b 0ebe b866 f1be f213 3f3e 6eb5 f23e
00000060: 076d 05be f803 cebd 3dd8 b93e 4b29 afbe
00000070: ab14 533f 094d 1b3e 0f4f 85be 8c2d 84bd

block2.layer.0.bn2.running_var f4 [32]
1.0497209 0.503569 0.27108112 0.18471478 0.3608195 0.2653476 0.24484272 0.20837142
0.22314113 0.43606535 0.8544272 0.42627817 0.31933844 0.25411537 0.14474384 0.15007895
0.54747826 0.33889917 0.14815462 0.39833263 0.19144496 0.21473464 1.0379815 0.61776096
0.11740961 0.30162776 0.48806337 0.22753796 0.26989633 0.24984546 0.55441827 0.24967034
00000000: 415d 863f e6e9 003f 25cb 8a3e df25 3d3e
00000010: 55bd b83e a4db 873e 0db8 7a3e 515f 553e
00000020: 1c7f 643e f543 df3e bebb 5a3f 2241 da3e
00000030: 5480 a33e 691b 823e bb37 143e 4cae 193e
00000040: 8927 0c3f 3184 ad3e d8b5 173e 41f2 cb3e
00000050: 260a 443e 66e3 5b3e 94dc 843f 9525 1e3f
00000060: 7374 f03d f46e 9a3e 71e3 f93e b6ff 683e
00000070: da2f 8a3e 7dd7 7f3e 5bee 0d3f 95a9 7f3e
