checkpoint/pretrain_cnn_features_1d_lirich_1210/best_model.pth (torch, 110818 bytes, 10 tensors)

model_cnn.conv1.weight f4 [32, 21, 3]
00000000: 00e6 ddbd 4018 bb3d 0e97 bdbd 0d30 cfbd
00000010: 0217 a5bd 599e 653d 81c5 42bd 1104 3d3d
00000020: 530a ddbd dc98 9ebd 8793 41bd df04 d3bc
00000030: 87e2 c6bd 50e7 a63d 9797 fbbc 858c 213d
00000040: 6e69 b43d f117 b83c 8104 093d fc02 f73d
00000050: 97d6 6cbd d95c 1f3d 9fb1 69bd 3c59 b63d
00000060: 3a06 cc3d 51f0 efbd 8036 da3d f952 723d
00000070: cdc7 5c3d 0959 503d 6872 d43d 2778 90bc
00000080: 1f42 dcbd dd2c 18bd 80c4 b7bd 4425 f03b
00000090: 0582 b8bc 205a 88bd 8a4b 2bbc 9867 f23d
000000a0: a632 33bc ca9d 443b 2dc6 98bc cf71 aa3c
000000b0: 50f3 e73d 50bb 9b3d bd14 333d d917 d83c
000000c0: 292b eb3c 3145 433d 1b90 8dbc 88db f1bd
000000d0: ea9c a1bd 8832 da3d ecff d53b 5ef8 cebd
000000e0: 0c99 9a3c 5326 d33d cbc8 f1bd 7dc2 afbd
000000f0: 8f6d 49bd 9a78 c63b dd85 e8bc cb73 52bc
00000100: 2e7f f9bd 0fc0 753d cf86 e43d 0fc3 9f3d
00000110: beaa b4bd 20f2 cdbd ca62 5a3d 73f8 7a3b
00000120: cba3 573d 8d14 fabd e660 d5bb 8404 b83d
00000130: 0f7f 733d 9a86 b73b 1e1f d33c bc0d 33bc
00000140: 76d2 8bbd 271c 47bd e22d 9fbd d644 d43d
00000150: f808 903d cb91 383d 72d1 c3bd 0e25 c93d
00000160: 1fe6 253d 268c b43d 77e9 46bd 2ffe e23c
00000170: 54fa fd3d 2c9c af3d 72fb d03d 4188 d0bc
00000180: ce88 c23d f823 ccbd 4325 223c 5d54 93bd
00000190: 6be4 f8bc 2341 08bd 2dd3 2a3c bae2 ec3d
000001a0: 9aca 813d ea06 c9ba e81b b53d 1246 86bd
000001b0: ac06 873d ab08 2fbc 5e67 abbc 2347 613c
000001c0: 1ab8 c7bd f325 5e3c 356b 293d 708b da3d
000001d0: 89c3 24bd 01b2 353d 8ed9 ff3d e176 61bd
000001e0: 393a f33d 9c27 82bd 0960 5f3d f241 4e3d
000001f0: f10c 0c3d 7bff c93d d978 4cbd 1fb9 0b3d
00000200: 9094 99b9 4e1e c4bd 4766 01bd b95c aebd
00000210: c113 603d a32d 293c 64d5 393c 51a6 20bd
00000220: 9ca9 ceb9 e79b 24bd dd2e 103d 6e89 f83d
00000230: de23 943c 8b78 60bd 668f 9bbd 9466 0d3c
00000240: b05d bdbd d9fd c3bd cbe4 a5bd 6b5e 33bd
00000250: f366 083c 53a1 af3d 1dca 433d faa0 c33d
00000260: 780f a4bd 26cf 1d3c 7b66 e7bd b010 963d
00000270: 23e8 ce3c 3184 f73d 2c76 b5bd 05f7 d03d
00000280: 51c8 d73d 2caa d23d 2a15 8b3c 5291 e83d
00000290: f044 aa3d 4d75 be3d ba79 16bc 7df5 c3bd
000002a0: 7148 28bb 825d b93c 48ce b1bd 7d0f 96bd
000002b0: 666d f9bd 99cd 30bd 56b5 de3d ca4a a83c
000002c0: 0477 0ebc 378e c63b 73d7 9e3d a9cd e1bd
000002d0: 5b0a c5bd a0aa 2fbd 0973 92bd ff21 873d
000002e0: 6f44 b43d 164b f8bd 77ee d8bd 5a38 f9bd
000002f0: d395 3e3d 35b8 d13d 1602 c6bd e500 73bd
00000300: 1b50 283d 0e70 a6bd 4f23 d93d 27d6 f83c
00000310: 2b90 0bbd 7c5f eb3b bffb 243d 9b62 32bd
00000320: adfa c9bd ea11 f23a b4ee 573b 3eed c93a
00000330: 026c 8ebc dcb7 a73d 6be9 0bbd 1b6a 37bc
00000340: cf49 583d 3175 a4bd ab45 0e3d 3905 dcbc
00000350: 3670 733d b2eb 89bd 9a58 b93b e68d 393c
00000360: 998e cdbd 00ab bdbd a9d0 413d 5d1a 12bd
00000370: 0231 973d 5278 00be b698 81bd 8592 d6bd
00000380: dd0c 4a3d b5d6 2dbb d950 b8bc de84 a3bc
00000390: cea2 c7bd a340 0e3d 4a45 0c3b 7d04 b0bd
000003a0: 3f47 463d 9ed5 c8ba c17f f7bd 8bbf 883d
000003b0: 30f7 873d e143 babc f819 b0bd d885 c63b
000003c0: c9a6 c03d a421 ea3d facd c4bd 95fc 64bd
000003d0: 08db c63d 0523 783d 9dc4 a13d ac79 82bd
000003e0: 943f dc3d 8510 d2bd 7617 a6bb d2cc d33a
000003f0: b12a a53c a3bf c4bd 1cae ea3d e587 fb3d
-0.10834885 0.09135485 -0.09257327 -0.10116587 -0.08061029 0.056059215 -0.047551636 0.046146456
-0.10792985 -0.07743999 -0.047259834 -0.025759159 -0.097111754 0.08149588 -0.030711932 0.03944065
0.088091716 0.022472354 0.03345156 0.12061116 -0.057821836 0.038906906 -0.05705416 0.08903739
0.09962125 -0.117157586 0.10654926 0.05916116 0.053901482 0.05086616 0.10373384 -0.017635418
-0.10754799 -0.03715216 -0.08973026 0.007328661 -0.022522936 -0.06657815 -0.010455022 0.11836165
-0.0109373685 0.0030001276 -0.018649185 0.020806221 0.11325705 0.076040864 0.04372095 0.026378559
0.028707104 0.047673408 -0.017280629 -0.118094504 -0.07891257 0.10654169 0.0065307524 -0.10105966
0.018871807 0.10310044 -0.11805876 -0.085820176 -0.04917675 0.0060568573 -0.028384143 -0.01284499
-0.12182461 0.059997614 0.11158525 0.07800876 -0.08821629 -0.10055947 0.05331687 0.003829506
0.05264644 -0.12210951 -0.0065117953 0.08985236 0.059447344 0.0056007626 0.025771674 -0.0109285675
-0.068272516 -0.048610833 -0.07772423 0.10364692 0.07032961 0.045060914 -0.09561433 0.09821521
0.040502664 0.08815794 -0.048562493 0.027709095 0.12401262 0.08574709 0.102042094 -0.025455596
0.0949875 -0.09967798 0.009896579 -0.071938254 -0.030382356 -0.033265244 0.010426325 0.11566682
0.06337471 -0.0015337144 0.08843213 -0.065563336 0.065930694 -0.010683219 -0.020923313 0.0137498705
-0.097519115 0.0135588525 0.041362006 0.10671127 -0.04022554 0.04435921 0.12492667 -0.055045012
0.118763395 -0.06355211 0.054534946 0.05035586 0.03419203 0.09863182 -0.049919937 0.034112092
-0.00029293122 -0.09576093 -0.03159168 -0.08513779 0.05470634 0.010325822 0.01134238 -0.03922111
-0.0003941775 -0.040187743 0.035200942 0.12135588 0.018083509 -0.05480246 -0.075957105 0.008630414
-0.09246385 -0.09569902 -0.081002794 -0.043791216 0.008325326 0.08575692 0.047800172 0.09552188
-0.08010763 0.009631908 -0.112988435 0.07327402 0.025257176 0.120857604 -0.0886043 0.10203365
0.10536254 0.10286364 0.016977865 0.11355843 0.0831393 0.09299717 -0.009184295 -0.095683075
-0.0025677944 0.022627596 -0.08681923 -0.07327173 -0.12179069 -0.043164823 0.10874431 0.020543475
-0.008695368 0.006059434 0.077559374 -0.11025555 -0.09621116 -0.04288733 -0.071508475 0.06598281
0.08802115 -0.121236965 -0.105923586 -0.12168951 0.046529602 0.10240213 -0.096683666 -0.059327025
0.04109202 -0.081268415 0.10602438 0.030375553 -0.034073036 0.0071830135 0.040279146 -0.04355107
-0.09862266 0.0018468474 0.0032948675 0.0015405787 -0.017385487 0.08189365 -0.03415815 -0.011194731
0.052804764 -0.08030165 0.03473441 -0.02685796 0.059433185 -0.067344084 0.005656314 0.011325335
-0.10036964 -0.09261131 0.047318134 -0.035669673 0.073823944 -0.12545899 -0.063279554 -0.10477165
0.049328674 -0.002652568 -0.022499489 -0.019960817 -0.097478494 0.03472961 0.0021403604 -0.08594606
0.04840779 -0.0015322452 -0.12084914 0.06677159 0.06638944 -0.022737445 -0.08598703 0.006058436
0.09406812 0.11432198 -0.096095994 -0.055904943 0.09709746 0.060580272 0.07898829 -0.06370863
0.10754314 -0.10257057 -0.0050687147 0.0016159064 0.020161958 -0.09606864 0.1145899 0.12281779

model_cnn.conv1.bias f4 [32]
00000000: 4bc8 e5bc 0447 923d 5e10 f93d 195a 7bbd
00000010: 7623 a73d 58c9 a0bd 8a88 abbd 87ab edbd
00000020: 0952 833c 15ac c53d 7e18 f5bd 4977 c4bd
00000030: c4e6 9a3d 5f77 7bbd 34bb 833d 6f11 b7bc
00000040: fe46 b63d 3756 a03c 60f6 bd3d d103 5ebd
00000050: e556 39bd f553 4abd f20c c73d 32b8 313c
00000060: 01d1 b3bd 6e92 893d c886 9f3d 6b78 9ebd
00000070: 5af3 e63b 3b8e f9bd ef7a 8b3c 5174 313d
-0.028049609 0.071424514 0.12161325 -0.06136522 0.081610605 -0.07850903 -0.08375652 -0.11604982
0.016030328 0.09651963 -0.11967562 -0.09593064 0.07563546 -0.061393138 0.064321905 -0.02234718
0.089002594 0.01957236 0.09275508 -0.05420286 -0.045248885 -0.049396474 0.09719266 0.010847138
-0.08780099 0.06717382 0.07789379 -0.07737812 0.0070480527 -0.121853314 0.017026393 0.04332382

model_cnn.conv2.weight f4 [64, 32, 3]
00000000: 0604 b93d cf98 0bbd 69b0 123d 212e 10bd
00000010: 4b1a 17bd fd42 bbbd f948 a83c f534 8a3d
00000020: 54a7 6cbd 1602 2f3d 6974 74bc 025b 92bd
00000030: 56eb 213c bfbd cdbd 1d01 5c3d a28b b0bc
00000040: be8d c23d 793a 9c3b a7b1 ccbd 2328 a03d
00000050: 4e12 bfbc 8839 91bd 4a09 c33d 9e8e 2c3c
00000060: c3a1 0b3d 6ec6 b2bd 6f8b 0fbd 79a9 a53d
00000070: 6e3c 90bd 47e7 aabd ed0f a63d 27fc 87bc
00000080: 5d99 ddbb ac4d 963d 8b1f 073d 3baf 51bd
00000090: b690 c5bc 08e9 883d 5b53 02bd 5f2b a53d
000000a0: 118b bc3d 429e 763d 8c24 f9bb df68 35bd
000000b0: 6831 61bd 24b1 abbd 045b c6b9 5b4c 853d
000000c0: 97d7 2d3d 2927 de3b 411f c2bd 7097 433d
000000d0: bd4d b9bc 43a8 8a3c 618d 80bd f887 623c
000000e0: 58f9 c43c 8e48 cdbc 0b73 0ebd abcc 023d
000000f0: c913 803c 04ef 923d 993f 9abd f401 cf3d
00000100: 6963 c0bd dcbd 97bd 989e 9bbc 3099 b7bd
00000110: a3f1 8a3d 0e9d 9abc 0fd2 413b 1535 033d
00000120: 8dbd 2c3c 5759 b03d f1f5 933d 112b 0a3d
00000130: 1b92 cabd 1d1e 193d d2c5 81bc 7a4f 963c
00000140: 7a50 a23d bf06 41bd 1e89 b4bb 2ab1 aabd
00000150: afa5 1b3d 6ed6 aebc 8727 16bd 5a47 d93b
00000160: 8a05 be3b 127c a03c 3ae5 c33d 042f 9e3d
00000170: 4ec6 ae3d faf8 72bd a9f1 c7bd a150 963d
00000180: e2f9 b13d e9b1 773d 4432 a0bd 7b72 24bd
00000190: acc5 be3d 9c1f 58bd 64b4 91bd d6f5 883c
000001a0: 1e00 a63d 6225 25bd 84f7 05bd 3903 14bd
000001b0: 2ce8 5dbd c033 d239 82fd 50bc df12 2a3d
000001c0: d8b4 9dbd 9f52 f8bc e574 c2bd 0346 d2bd
000001d0: 2a2d df3c 3a83 68bc c505 bebd 458d 85bb
000001e0: e24a f63c 76bb 953d 8541 773d bafc c8bd
000001f0: 1373 d83c 7db8 c6bd dbd8 983d 3733 863d
00000200: 17cd c2bd 00ec df3a 2a58 063d f012 aa3b
00000210: 68bf bebd bdaa c13d 54f6 51bd 9ac3 fb3c
00000220: ddaa 803d d433 c1bd d6f1 ffbc 7f51 45bd
00000230: 6bb8 ca3d b790 2dbd 8f98 b3bd c22f bfbd
00000240: 0911 3cbc f3dc b43d 8d1a a8bd 495f 80bd
00000250: d150 bebd 2911 c73d 2158 5d3d 3d57 2b3d
00000260: 3dea a23d 7a75 023d fda0 8d3d 4ab3 b5bc
00000270: ef23 723c 86a4 68bd f14a d0bc 74ce 133c
00000280: 7f38 43bd 3346 5ebd 8d1a 1bbd 5406 803d
00000290: 0186 4d3d bfb1 11bd 066f d93b 294f 38bd
000002a0: e78f 8e3d 4888 6bbd 7102 78bd d670 823d
000002b0: 8ebc a5bd 957b 13bd a58c 323d 0e39 eebc
000002c0: a545 24bd 6aaf a03d ff6e 91bc 1a28 c43d
000002d0: dda2 d1bc 3280 55bd be96 a63d 81a9 92bd
000002e0: c8e7 95bd 1090 5f3d 88d6 8ebd 5d22 053d
000002f0: bf4f 93bd efda c73d 4267 943c 372d aa3d
00000300: 03e4 c8bd 1659 e53c 562d 8bbb 135b 523d
00000310: 8d30 ebbc c8d0 d23d 7056 cb3d 97af 4c3d
00000320: de00 72bd de7a 9e3d cd2f c9bd f7de 633d
00000330: 7f89 533d fbf5 5a3d 76b7 f73c e8e4 ad3d
00000340: 9e2f 62bd 2a63 9b3d e307 283d b2f2 703b
00000350: 2782 293d 1b4e 0abc 5ebe aa3d b2b7 363b
00000360: d309 6d3d e44e bc3d c7ba 0b3d f413 7a3b
00000370: d6d5 c9bb 2c46 a8bd 693e a1bd 4b92 0f3d
00000380: 0dc8 2b3c c7c0 e03c 8ac3 babd 6327 6e3d
00000390: 5395 1cbc 6be4 263d be73 62bd aada b63c
000003a0: 2b45 5b3d 3c35 9abd 1e79 253c a1a2 0cbd
000003b0: b4a4 ad3d dee3 a6bc 1f77 70bd d8df 83bd
000003c0: d3fb 07bc 7bf8 413d 338c 113d 3808 c03d
000003d0: 6ae5 a33d 3a0a 923c 6ec9 ee3c d6d8 30bd
000003e0: 53c4 163d 587e a23d 157e 8eba 2f37 a93c
000003f0: 64c4 a9bd 3791 6e3d c096 b23d b890 c23d
0.090339705 -0.034081277 0.03581277 -0.035200242 -0.03689031 -0.091436364 0.020542609 0.06748382
-0.057776764 0.0427266 -0.0149203325 -0.071462646 0.009882769 -0.10045957 0.053712 -0.021550957
0.094996914 0.0047677127 -0.09994822 0.078201555 -0.023324158 -0.07091051 0.09523256 0.010532049
0.034089815 -0.08729254 -0.035045084 0.08088965 -0.07042776 -0.08344894 0.08108506 -0.016599728
-0.006762667 0.073390335 0.032989066 -0.051192503 -0.024116855 0.06685072 -0.031817775 0.08064913
0.09206212 0.06020952 -0.0076032337 -0.044289466 -0.054978758 -0.08383396 -0.00037833315 0.06508704
0.04244193 0.0067795706 -0.094786175 0.047751844 -0.022620076 0.016925937 -0.06276966 0.013826363
0.024044678 -0.02505901 -0.034777682 0.031933468 0.015634434 0.07174495 -0.075316615 0.101077944
-0.09393961 -0.0740926 -0.018996522 -0.08964765 0.0678437 -0.018873718 0.0029574668 0.032033045
0.010543239 0.0861079 0.07224644 0.033732478 -0.09891149 0.037382234 -0.015841398 0.018348444
0.07925506 -0.047125574 -0.0055095097 -0.083345726 0.037999805 -0.021342482 -0.03665879 0.00663082
0.005799 0.019590411 0.09565206 0.07723811 0.08533917 -0.059319474 -0.0976289 0.073395975
0.086902395 0.060472403 -0.078220874 -0.04014824 0.09315047 -0.05276452 -0.07114485 0.016718786
0.08105491 -0.040318854 -0.032706752 -0.036135886 -0.054176494 0.00040092878 -0.0127557535 0.041521903
-0.07700509 -0.030312834 -0.09494952 -0.1026726 0.027243216 -0.014191443 -0.09278444 -0.0040756785
0.030065004 0.07311146 0.06036522 -0.09813829 0.02642206 -0.09703157 0.07463237 0.06552737
-0.09511774 0.0017083883 0.032798924 0.005190246 -0.093138516 0.09456394 -0.051260307 0.030732919
0.062825896 -0.094337136 -0.031243246 -0.048173424 0.09898456 -0.04237434 -0.087693326 -0.09335281
-0.011478671 0.08831205 -0.08208189 -0.06268174 -0.09292758 0.0972007 0.054039124 0.041831244
0.07954834 0.031850316 0.06915472 -0.022180218 0.014779075 -0.056797527 -0.02542636 0.00902139
-0.0476613 -0.054266166 -0.037867118 0.06251207 0.050176624 -0.035569903 0.0066355495 -0.044997368
0.06961041 -0.057503015 -0.060549203 0.06369178 -0.080926046 -0.03600653 0.04359116 -0.02907994
-0.04010548 0.078459576 -0.017753122 0.09577961 -0.025590355 -0.05212421 0.081342205 -0.071612366
-0.073195994 0.054580748 -0.06974512 0.032503475 -0.07192945 0.09758555 0.018115643 0.08309405
-0.09809115 0.027996581 -0.004247348 0.051356386 -0.028709674 0.10293728 0.09928596 0.049972143
-0.05908286 0.07738279 -0.098235704 0.055632558 0.0516448 0.05345724 0.030238848 0.08490926
-0.055221193 0.075872734 0.041023146 0.0036765751 0.04138389 -0.008441473 0.08337091 0.0027880487
0.057870697 0.09194735 0.03411367 0.0038158866 -0.0061595244 -0.08216509 -0.07873232 0.035051625
0.010484708 0.027435673 -0.09119327 0.05814303 -0.009557086 0.04074518 -0.05528616 0.022321064
0.05353276 -0.07529685 0.010099677 -0.034334783 0.0847868 -0.020372327 -0.058707353 -0.06439179
-0.008299786 0.04735611 0.035534095 0.093765676 0.08002742 0.017827142 0.029148784 -0.04317554
0.036808323 0.079342544 -0.0010871316 0.020656196 -0.08289412 0.058243956 0.087201595 0.09500259

model_cnn.conv2.bias f4 [64]
00000000: ea47 f5bc 2169 5d3d 1a49 923d a8f2 6fba
00000010: d36c e93a bc67 ca3d 30a3 443a 4e2c cb3d
00000020: 9fa1 fc3c cba2 943c 6e58 5dbc 9a43 bf3d
00000030: 946e 943d 2ff8 0e3d 7cac a73d ac9e c83d
00000040: 5b60 e43b 6aae 323c 9bdc 18bd d684 9ebd
00000050: 3144 883c f249 cebd 1356 1a3d c2e3 473c
00000060: ee95 a33d dad1 ab3d 2e29 953d 22d3 8ebd
00000070: 135f 1c3d 58c3 ae3d e446 f9bb 1527 203d
00000080: 55ee a3bc e1da d43c 95b6 38bd 23c7 473d
00000090: 228a b53d 96cc 7dbc bda0 503d 3197 263d
000000a0: 5256 aeba 72ba 99bd 6c43 46bd 86fc 533c
000000b0: fa99 c6bd 0a8d c3bd d21a 65bc cc79 afbd
000000c0: 6f68 7cbd 9879 9d3d 67c3 02bd 1a4f b93d
000000d0: 1f10 ccbc a07d c73d 0b38 9e3b ceda 963d
000000e0: 7209 70bd 34a2 96bd 7855 9abd e87d 64bd
000000f0: 084a 86bd 454f 1b3d 45e2 6b3c fa23 7e3c
-0.029941518 0.054055337 0.07142849 -0.0009153285 0.0017808921 0.09883067 0.00075011235 0.0992056
0.030838786 0.018144032 -0.013509853 0.09339066 0.072476536 0.034904655 0.08187196 0.09795889
0.0069694943 0.010905841 -0.03731976 -0.0774018 0.016634079 -0.10072698 0.037679743 0.012200298
0.07987581 0.083896354 0.07283245 -0.06973864 0.038176607 0.085333526 -0.007607328 0.03909977
-0.020011107 0.025983276 -0.045096 0.048773896 0.08864237 -0.015490672 0.050934542 0.04067153
-0.0013300872 -0.07506265 -0.048404142 0.012938624 -0.096973374 -0.095483854 -0.013983445 -0.08568153
-0.061623033 0.07689208 -0.03192463 0.090482906 -0.02491003 0.09740758 0.004828458 0.073659524
-0.058602758 -0.073551565 -0.07535833 -0.055784136 -0.06557089 0.037917394 0.014397209 0.015511507

model_cnn.fc1.weight f4 [256, 64]
00000000: c209 a5bc 3793 84bd 8230 ebbd 4a43 93bd
00000010: f8b4 2ebc f634 823c 8e76 bcbd 6e74 93bd
00000020: 4c56 a93d a96e 81bd fed2 9bbc 551c 88bd
00000030: 8490 cd3d 7302 1f3c 91a6 bfbd fb5e 743d
00000040: c1bc 54bd 9f21 f03d cab1 e73d a5b9 d9bd
00000050: 387c f53d b65c a53d f68a fabc 5e49 e9bd
00000060: eb1e 783d fe3a 08bd 219d 85bd cdcc 8bbd
00000070: a774 d53d 854f 893d d4e9 933c c408 90bd
00000080: a816 f43d a40d 67ba f020 01b9 81ab 803d
00000090: 4d34 473c 669f a23d b270 e2bd b5a0 cb3c
000000a0: 087c e83d 89c8 f0bb cb51 893d 0cba 5ebb
000000b0: f07c fabd ab3a f3bd ab0a 8ebd 7457 88bd
000000c0: 312b 8b3d baa7 89bd a9dd e0bd 5223 5fbd
000000d0: b723 a63d 8811 a9bd 26a9 a43c 7849 d3bb
000000e0: 3179 2b3d 7700 d1bd 14b7 d6bd 9c9d efbd
000000f0: 620b bb3c 6129 0cbd e8d5 0fbc 1e1c b73d
00000100: a6b6 63ba b706 73bd d711 483d a630 d83d
00000110: 329f f2bc b6c8 593b c755 efbc cb4d f53d
00000120: c66b d9bb 065d eb3d a876 d0bd d340 7b3d
00000130: e73f d5bd 611a 2d3d f649 ad3c 7c9f f9bd
00000140: 5fb0 8c3d b195 a93d 4f35 c8bc 731d 1cbd
00000150: af83 d5bc 3646 22bb 74ff fabd dd1d 1e3c
00000160: 63f5 73bc e743 3b3d 2e94 dd3d ca46 d93d
00000170: 0c7c 293b 2a51 cc3d c09f c83d de3b cd3d
00000180: 5673 96bc 9e2b 9f3d 9307 4d3d e600 fdbc
00000190: 3331 603d f08d 863d 96e2 953d acd3 ed3d
000001a0: c776 82bc 24cb f7bd 20a5 f13d adc5 2fbd
000001b0: 3c47 c2bd 6824 c6bd 071c ca3d 2393 293c
000001c0: 407f 90bd 635e 4a3d 770e b9bd eaee 8cbd
000001d0: ac9b b8b9 dc33 0ebc 4194 dbbc 5298 b4bd
000001e0: 8ca8 cb3d ef0c b6bc ef2b adbd 2602 d83d
000001f0: 68a3 bfba ca53 d3bd bd6c 9d3d bf4c 4e3d
00000200: 16a9 ae3d 8b01 2f3d 34e1 ce3d a601 a33d
00000210: 4117 3abd 6e01 aa3d 7c7e f8bd ae22 e53c
00000220: 74a7 b23d 8862 ca3d ee53 843d e2cb a53d
00000230: 648f e93d 8e6f a9bd 024f d83d 558b 2dbd
00000240: 3e53 d8bd 76d5 f13c 815d cb3c fe16 8ebc
00000250: faad f63c 4674 cb3d 2920 313d ad66 51bd
00000260: 9a19 eabd db3c 6abd 8ec6 e23c 769e 873c
00000270: 594b 4bbd e66a d93d 22eb 723d 17b6 233d
00000280: bdb8 08bd f7b3 ee3d aa22 883c 82bd f43d
00000290: 4bf8 0e3d d141 c2bc c0d4 dabd 76c2 e23c
000002a0: 71d2 9b3c aac8 e3bd 3355 413d 8871 803d
000002b0: f45b c83d 3400 93bd a49d a03d 1a70 e2bd
000002c0: 8c9e 5a3b 68d4 b63d 990b 56bd 9ff9 ec3c
000002d0: a90c a93c 2c09 a5bd f98b 3dbd 032a 7f3d
000002e0: a5bf f03b 7185 d93d 83ed 113d 5a07 ebbd
000002f0: f42c d13d 274e a43c 573c 99bd 8e55 b43d
00000300: 2486 c03d deda edbd 533c 22bc c970 65bd
00000310: 6b05 b5bb bb5e 4e3d a0da ae3d 83c7 dd3d
00000320: b458 b7bd b7f5 443d 5af2 883c 0339 1c3d
00000330: 8c2e 9b3c 3d96 25bc 0bda 583c cad3 ab3d
00000340: fb12 ddbd 1b9f c6bc df00 2dbd 2bb1 ba3d
00000350: a30e 2cbd 0d68 36bc 8370 5cbd c6ee edbd
00000360: 0c85 34bb 8d00 ec3d bc8e 75bc 4bf0 853d
00000370: 7dc1 97bc 0f73 193d f4b5 b4bd e444 003e
00000380: 53d8 e13d e938 aebd 8b83 e8bd 3960 d8bd
00000390: b608 dcbd 7620 e43d 5e59 bfbc b39b 8f3d
000003a0: faac b13d 7dc5 a23d a56d b33d 272d 003e
000003b0: 27a9 43bd 8184 e43d c67a 3f3d e697 e23d
000003c0: ba40 0c3c b4ee 103b 8697 ffbd 536d f3bd
000003d0: cf36 c9bd 85d7 4a3d 54b8 1abc 1fcd 8f3d
000003e0: 2d91 a63d ee55 5d3d fe85 3a3d 8e24 dcbc
000003f0: 0374 51bd 4c94 f63d fca5 123d 727a 8fbd
-0.020146254 -0.064733915 -0.114838615 -0.07190569 -0.0106632635 0.015894394 -0.092023 -0.071999416
0.08268413 -0.06319935 -0.019021507 -0.06646029 0.1003733 0.009705174 -0.09357942 0.059660893
-0.051937822 0.11725163 0.113132074 -0.10631112 0.119865835 0.08074324 -0.03058384 -0.11390947
0.06057636 -0.033259384 -0.065241106 -0.06826172 0.1042264 0.0670462 0.018055834 -0.07032922
0.11918384 -0.00088139833 -0.00012314669 0.06282712 0.012158466 0.07940559 -0.11056651 0.024856905
0.11351782 -0.0073481244 0.06705054 -0.0033985404 -0.12230861 -0.118764244 -0.069356285 -0.06657305
0.067953475 -0.067214444 -0.10979778 -0.054477043 0.08112281 -0.08255297 0.020100188 -0.006447967
0.041863624 -0.10205167 -0.10484138 -0.116999835 0.022832576 -0.03421915 -0.008779027 0.0894091
-0.00086865795 -0.059332576 0.04884514 0.10556154 -0.029616926 0.0033231205 -0.029215707 0.119777285
-0.006635162 0.11492352 -0.10178882 0.061341118 -0.10412579 0.042261485 0.021153431 -0.12188622
0.068695776 0.082805045 -0.024439482 -0.038114022 -0.026063768 -0.0024761087 -0.12255755 0.009650675
-0.014890048 0.045719054 0.10819279 0.10609205 0.0025861291 0.09976418 0.09796095 0.100211844
-0.018365543 0.07771991 0.05005605 -0.030884217 0.05473442 0.06570041 0.073186085 0.11612639
-0.015925778 -0.12099293 0.11799073 -0.042913128 -0.09486243 -0.09674913 0.09868627 0.0103500215
-0.07055521 0.04940642 -0.09035962 -0.06881507 -0.000352112 -0.008679356 -0.026804091 -0.08818115
0.09944257 -0.022222964 -0.08455645 0.10547285 -0.0014620842 -0.10318716 0.07686756 0.05036616
0.08528344 0.04272608 0.10101548 0.07959299 -0.045432333 0.08301054 -0.121335 0.027970638
0.087233454 0.098820746 0.06461321 0.08095528 0.11404303 -0.082732305 0.105619445 -0.042369206
-0.10562752 0.029520731 0.02482486 -0.017344948 0.030112255 0.09934287 0.04324356 -0.05112331
-0.11430664 -0.057186943 0.027682569 0.016555052 -0.049632404 0.106160924 0.05930627 0.039968576
-0.033379305 0.11655419 0.016618092 0.11950208 0.03490476 -0.023713024 -0.1068511 0.027680617
0.019021245 -0.11122258 0.047200393 0.06271654 0.09783164 -0.07177773 0.078425676 -0.11056538
0.0033358661 0.08927232 -0.052257154 0.028927622 0.02063592 -0.0805839 -0.046276066 0.062295925
0.0073470646 0.10621155 0.0356269 -0.114760116 0.10213652 0.020056797 -0.07482212 0.08805381
0.09400585 -0.11614011 -0.009902078 -0.056015763 -0.0055243275 0.05038331 0.08537793 0.108290695
-0.08952466 0.048085894 0.016717125 0.038140308 0.018943094 -0.01010662 0.013235579 0.08390005
-0.10794636 -0.02424579 -0.04223716 0.09115823 -0.042006146 -0.011133206 -0.053818237 -0.11617808
-0.0027545122 0.115235426 -0.014987644 0.06539973 -0.01852488 0.037463244 -0.08823767 0.1252628
0.11027589 -0.085069485 -0.11353215 -0.10565228 -0.10743849 0.11139004 -0.023358043 0.07012119
0.08675571 0.07947824 0.087611474 0.12517224 -0.047768738 0.111580856 0.046747945 0.110641286
0.008560354 0.0022114934 -0.12480073 -0.11886086 -0.09824907 0.04952194 -0.009443361 0.070215456
0.08133159 0.054037027 0.04553794 -0.0268729 -0.051136028 0.12040004 0.035802826 -0.070057765

model_cnn.fc1.bias f4 [256]
00000000: 970b c43c a681 f5bd 5ae8 81bd fe60 073c
00000010: ee99 d03d c866 a63d 92c2 ba3d dc6a b8bb
00000020: afb2 aabd e740 803c c998 58bc d9e1 9fbd
00000030: 87d9 5cbd b7ee 56bd f8bb bfbd 51c8 c5bc
00000040: 11e2 d4bc a45b aabd 18e6 acbd d238 ba3d
00000050: fefa ca3d f29d e43d dc03 c4bd b6ed a23d
00000060: b317 2e3d b032 f73d 97df babd 52e5 dc3d
00000070: 1c85 91bd b889 85bd baef 603d b655 fc3d
00000080: 2f94 283d b9a2 d03c 9531 683d 183c ce3d
00000090: ffe8 63bd d52a 0e3d 04eb 1fbc 1bfd f23b
000000a0: 6772 6c3d 9a9a 6dbd f241 373c 17dd 4dbd
000000b0: 7fcc 2abd 652f 3d3d 7cb8 9b3d 2e28 e33d
000000c0: 72d7 873d 8610 c83c d8ca 74bd a689 76bd
000000d0: 534c 3c3d 9c6f dfbd 210d 4a3d cdae 783d
000000e0: 2dd5 31bd 85d6 ec3b a72f c2bc 9b4d e4bd
000000f0: 3e73 c9bd 93c6 113c d968 afbc 26c5 a73c
00000100: 3816 bb3d abcb 613d ace0 ccbd 109c a83d
00000110: 0b62 123d 8373 13bd 226f 11bc d803 823d
00000120: f4a1 913d 4778 00bd 1667 f43d 0b16 e0bd
00000130: 162e a0bd 611d a93c 6e4c e13c ce74 dcbd
00000140: eb51 003e 32cf cdbd 0e24 d5bd ca4e 3cbb
00000150: fa83 ed3d bc1a f53d d7e0 72bd ec22 cfbd
00000160: 97cf d4bc 795e 07bd eac8 cebd d052 cbbd
00000170: 8e94 a93d 89c7 dc3c 4668 ff3d f6d7 24bb
00000180: 105e 863d e659 ebbd 8068 de3d 7b4c 543d
00000190: ce03 483c 5b41 6fbd cd07 20bd 6f71 923c
000001a0: 6ccd 00bc b88e 913d 1f6a abbc dca5 c93d
000001b0: be40 d93d fe71 eebd 66ca 09bd 4765 26bd
000001c0: f195 67bd 3cdb eabb c6a4 b53d 51e8 d33c
000001d0: be1a c93d f8f8 e93d 9efb fdbd a068 a43d
000001e0: 589c b23d 14cf a63d c59f 163d 97d2 233d
000001f0: 34b2 873d 5ced d4bd 8905 f2bc fce8 803d
00000200: 3ab9 e0bd 7eb4 7c3c 5947 67bd 77ad 2b3d
00000210: d625 55bd 5784 a1bc e445 9e3b 5255 b33d
00000220: 1e51 3b3c 97ab 923c fbb7 7dbd 6d8d 363c
00000230: 4bc9 18bb c0ca acb7 a1df d2bc 4a5a f7bd
00000240: 557b f5bc 1d37 0ebd ecc3 6c3d 9f36 2f3d
00000250: c57d ddbd 12f8 8f3d dbf1 e7bc 8c08 f0bd
00000260: 77fe 003c 0878 9f3d f97f dbbb 5808 e73d
00000270: 8a9f 503b e2d3 27bd 1ae3 e1bd 0477 07bb
00000280: 28ff da3d 17b1 733d d36d 163d d296 9bbd
00000290: eb57 693d 9fde 3a3d 17cc d03c 78af b83d
000002a0: fdd9 ddbd 685e cb3d 51b5 4e3d 8375 0fbd
000002b0: 11ff eebc 9e2a eb3d b6f8 a33d 6ae4 3e3d
000002c0: 67a8 8bbd 6e9e bc3d febb 38bc 87ed d43c
000002d0: 02d5 ecbd 127b bf3a 0f00 87bd 3938 243d
000002e0: 0788 d13d e842 d13d be9e a53d 005e 8c3d
000002f0: 71c7 d43c d030 93bd 5e0c 583c 3479 7f3d
00000300: 7002 b1bd 4edb 973d f1d6 bd3c a753 d7bd
00000310: ff8e 7fbc a0cf bd3d b72b b6bb 661e 2fbd
00000320: a84d f43d 83f9 bdbd 75fc 183d 8386 7dbd
00000330: 099f 14bd 810b 153d 67ba 563d 2814 b0bd
00000340: 5151 b4bd e051 07bd db61 63bd 705a f83d
00000350: ce73 b4bd d5f7 68bd 90e4 a6bd 19c0 d83d
00000360: f813 dabd a46e ed3d 2a40 1dba 97b2 753d
00000370: 1c2e cebd 7cef f43d 9334 5abd d806 b5bd
00000380: 07bf 94bc 4654 d93d 8660 1ebd 3427 cc3d
00000390: 9007 fc3d 5a40 c63d 66cd 18bd 3a08 cdbd
000003a0: 6942 043d b2dc a2bd 1e04 2f3c d15e 7dbd
000003b0: 47c9 98bc 938b 09bd 1d78 283d 0dde 1abd
000003c0: 131a 72bd 4e92 bc3d 5e97 0bbd e0ad d93d
000003d0: dc3d bb3d fcd4 ebbd 9074 91bd a9a8 f63c
000003e0: 4a70 0d3d 36f9 f63d b53d 21bd f170 83bd
000003f0: c259 85bd e2f7 50bc 074d a6bd 5b48 24bd
0.023931308 -0.11987619 -0.06343146 0.008262871 0.1018561 0.08125073 0.091191426 -0.005627973
-0.083348624 0.015655948 -0.013220021 -0.07806749 -0.053918388 -0.05247375 -0.09362024 -0.02414337
-0.025986703 -0.0831826 -0.084423244 0.09092869 0.09911154 0.11162938 -0.095710486 0.07955496
0.04250307 0.12070215 -0.09124678 0.10785927 -0.07105467 -0.065204084 0.05491612 0.123210356
0.041156944 0.025468217 0.05668791 0.10070056 -0.055642124 0.034708817 -0.009760622 0.0074154264
0.05772629 -0.058008768 0.011185156 -0.050259676 -0.04169893 0.046187777 0.07603547 0.11091648
0.0663289 0.024421941 -0.05976376 -0.060189866 0.045971226 -0.1090996 0.049328927 0.060713578
-0.04341619 0.007227721 -0.023704363 -0.111476146 -0.09836434 0.008897441 -0.0214123 0.02047975
0.09135097 0.055125874 -0.1000379 0.082328916 0.035738032 -0.035998832 -0.008876594 0.063483894
0.07110968 -0.031364705 0.119337246 -0.10941704 -0.0782129 0.020643892 0.027502265 -0.10764466
0.12531249 -0.10049285 -0.104072675 -0.0028733485 0.11597438 0.1196799 -0.059296455 -0.10114083
-0.025977893 -0.03304908 -0.10096915 -0.099279046 0.08280288 0.026950615 0.124710605 -0.0025153137
0.0656091 -0.11491756 0.108597755 0.05183075 0.012207938 -0.058411937 -0.03906994 0.017876355
-0.007861476 0.071072996 -0.020924626 0.09846088 0.10608052 -0.11642836 -0.033640288 -0.04062393
-0.05653948 -0.007167248 0.08869319 0.025867613 0.09819554 0.1142444 -0.12401508 0.08027768
0.087212265 0.08144966 0.03677346 0.039995756 0.066257864 -0.10396835 -0.029543655 0.06294438
-0.10972829 0.015423892 -0.056464527 0.041913476 -0.052038036 -0.019716425 0.004830109 0.08756508
0.011432914 0.017904086 -0.061943036 0.011142117 -0.002331334 -2.059841e-05 -0.0257414 -0.12077768
-0.029966036 -0.03472053 0.057804033 0.0427767 -0.10815004 0.070297375 -0.028313568 -0.1172038
0.007873169 0.07786566 -0.006698605 0.11280888 0.0031833374 -0.04097355 -0.11029644 -0.0020670304
0.106931984 0.059495058 0.03672583 -0.07597126 0.05696861 0.045622464 0.025487943 0.09017843
-0.108325936 0.09930116 0.050465886 -0.035024177 -0.02917436 0.11482738 0.08006422 0.04660455
-0.068192296 0.092099056 -0.01127529 0.025992168 -0.115640655 0.0014608821 -0.06591808 0.04009268
0.10231023 0.102178395 0.08086918 0.068538666 0.025974007 -0.071870446 0.013186542 0.062371448
-0.08643043 0.07414876 0.023173781 -0.10514002 -0.015598058 0.09268117 -0.0055594104 -0.0427536
0.11928874 -0.09276106 0.037350137 -0.06189586 -0.03628448 0.036387924 0.05242386 -0.085975945
-0.088045724 -0.033037066 -0.055513244 0.121266246 -0.088111505 -0.056876976 -0.081490636 0.10583515
-0.1064834 0.11593369 -0.0005998636 0.05998477 -0.100673884 0.119597405 -0.053272795 -0.08839196
-0.018157495 0.10611777 -0.03866627 0.09968415 0.1230613 0.09680243 -0.03730526 -0.10011335
0.032289896 -0.079522505 0.010682134 -0.061858002 -0.018650664 -0.033580374 0.041130174 -0.03780942
-0.059106898 0.09207593 -0.034079902 0.10628867 0.09142658 -0.11515233 -0.07102311 0.03010972
0.034530915 0.12059252 -0.03936549 -0.06418026 -0.065112606 -0.012754412 -0.081201605 -0.040108066

model_cnn.classifier.weight f4 [5, 256]
00000000: 80d5 7b3d 60de 1a3c b0a2 6c3c 6056 9cbc
00000010: 32eb 203d e0fd fdbc 5a65 77bd f0d9 a23b
00000020: 8c50 c43c 42ff 043d f6e1 543d 58c5 3d3c
00000030: 58c5 5fbc 542e b93c 542f 01bd 9472 68bd
00000040: 622f 16bd 5e6d 343d e023 6e3d 4abf 16bd
00000050: 90c2 e63b de8e 46bd 2875 8d3c a815 593d
00000060: 860e 46bd 94e1 443d 9ea7 00bd 9a18 5e3d
00000070: 1cc3 38bd e657 5c3d fabc 1abd 2863 25bd
00000080: ca2e 383d 7880 943c 2ce8 3dbd d07a 08bd
00000090: d098 04bc 2655 053d c8ea 263d 009b 603b
000000a0: 5087 723d a0a2 24bc f832 693d d81d 0c3d
000000b0: 40a3 5a3b 70a9 3dbd 40dc f03a 5013 7cbc
000000c0: cebd 49bd 46f6 1f3d 04f1 1b3d c000 6bbb
000000d0: 2634 4dbd 4481 703d 6cb3 963c 4042 2bbb
000000e0: d8f5 49bd e038 833b 389c 02bd d0bd 343d
000000f0: c0dd 81bc 6ce2 6c3d b8df 8bbc 90e3 213d
00000100: c0a3 38bb a8ff f8bc 80fe a33c 2ca8 9a3c
00000110: 74d6 6cbd 144d 92bc 3c67 e13c 04b5 693d
00000120: e866 19bc 8caf a0bc e2ab 1a3d 6c86 33bd
00000130: c4c0 2cbd 906c f73c 0813 cb3c 7672 053d
00000140: 00ce 34bb bc41 2f3d e05e 5fbb e245 213d
00000150: 28a5 19bc 9ad9 093d c875 71bd 063c 06bd
00000160: bcc2 263d 0092 6f3b 0041 63bc 4867 02bc
00000170: aa97 7b3d acb2 083d b856 80bc 4c5f 58bd
00000180: 6664 663d 40a0 873b 5052 31bd f0d9 fdbb
00000190: 5cae 4c3d a8fd 8bbc a0b1 fdbc 447c b3bc
000001a0: 64b3 8c3c 2254 073d c0dd 61bd 60ec c93c
000001b0: 5cf6 92bc 789c 3a3c ca95 41bd a6a8 2e3d
000001c0: c80c 05bc 5484 363d f022 bc3c e0b3 9d3c
000001d0: 6855 e73c 3c3c 483d b022 503c feb4 753d
000001e0: 9859 55bd cca8 623d 10f6 193d 2c9c 8cbc
000001f0: e813 d93c 0684 04bd 2cef c5bc 0854 3abd
00000200: 30f1 83bb 18e3 933c 20ea 5f3d b839 c6bc
00000210: 0434 62bd 208f aa3b 88c5 173d 94f8 bd3c
00000220: 5c43 36bd cc67 98bc fcc7 c8bc 765f 08bd
00000230: 80f2 0c3b 5eba 753d 6871 3abd 7045 36bc
00000240: c022 0cbb 42ab 4a3d d40e c1bc 1c20 933c
00000250: b03f 84bc 24d3 2b3d 30a2 60bd 4c1d fe3c
00000260: f095 6dbd 7cbb 4dbd 00b2 2a3d 200b e93b
00000270: 4a6b 18bd 408d 80bb 22e0 2dbd a051 28bb
00000280: 2624 0d3d 84a9 94bc f25c 143d 403a 45bb
00000290: 3044 713d b66c 1f3d cc2b cbbc 1ec8 20bd
000002a0: 060b 49bd 30e0 8dbc 7aab 3bbd cef6 78bd
000002b0: ccdc 113d c8a9 5b3d 6a4d 4d3d 403f 76bd
000002c0: 208a 56bd 240a 943c 1217 07bd 942f 89bc
000002d0: a87f a73c b081 f9bb e0d0 f6bc 90b3 e4bb
000002e0: 4006 68bb b89d a2bc 5071 4a3d 80f0 7aba
000002f0: 74bb 21bd 44a9 bdbc e032 313b ba19 2b3d
00000300: f08d 67bd dc3d c03c 9ec3 72bd e26b 14bd
00000310: e618 1abd e0e7 7cbb c872 2a3c 8417 633d
00000320: 6a01 0c3d 08e3 78bc c8df 8fbc 3035 8c3b
00000330: d664 263d 1af3 3d3d bc9d e23c 00e7 f5ba
00000340: a831 283d f461 c93c a8df f33c 9435 793d
00000350: 208b be3b 44ca 7abd 2c07 133d 2e5f 5a3d
00000360: 4a70 0d3d 88e0 113d e0d0 1f3c 24d6 403d
00000370: 10aa 4cbd 104d e7bb 60a3 413c e683 12bd
00000380: e4f4 183d 7455 27bd d02d a7bb 38aa 8abc
00000390: 7282 7ebd fe19 6b3d ccb0 503d 9073 dc3b
000003a0: 24cf ecbc 60ec 8dbc 9405 c03c 9c24 64bd
000003b0: cab9 593d ecdb 01bd 78bb c1bc b685 6dbd
000003c0: a85d 2d3c b6ae 36bd 66f3 4cbd bce7 d03c
000003d0: 404e db3b 7021 27bc 4ac9 743d 3223 44bd
000003e0: 0e74 373d 24a2 a83c d033 1dbc 2c68 843c
000003f0: 38dc b93c 60da 2dbc 8cb0 7c3d f063 28bc
0.061482906 0.009452432 0.014443085 -0.019084156 0.0392868 -0.031004846 -0.06039939 0.004969828
0.023964189 0.032469995 0.051973306 0.011582695 -0.01365789 0.022605099 -0.031539276 -0.056749895
-0.03666628 0.044049613 0.05813968 -0.03680352 0.0070422366 -0.048476093 0.017267779 0.05299917
-0.048353694 0.04806669 -0.031409852 0.05422268 -0.045107946 0.053794764 -0.03777788 -0.040377766
0.044966497 0.018127665 -0.046363994 -0.033320248 -0.008093074 0.032551907 0.04075125 0.0034272075
0.059211075 -0.010048538 0.056933373 0.03420815 0.0033361465 -0.046304166 0.0018376186 -0.015385464
-0.049253277 0.039053224 0.038071647 -0.0035858601 -0.05009856 0.058717027 0.018396102 -0.0026132017
-0.04930672 0.0040045828 -0.031887263 0.04412633 -0.015852809 0.05783312 -0.01707445 0.03952366
-0.0028173774 -0.030395344 0.020018816 0.018879019 -0.057821706 -0.01785902 0.027515046 0.057057396
-0.009362914 -0.019614957 0.037761576 -0.043829367 -0.042176023 0.030203134 0.024789348 0.03257986
-0.0027588606 0.0427873 -0.003408365 0.039373286 -0.009377755 0.033654787 -0.058950216 -0.032772087
0.040713057 0.0036555529 -0.013870478 -0.0079591945 0.061423935 0.03337352 -0.01566635 -0.052825257
0.05624809 0.0041389763 -0.04329139 -0.0077469274 0.04997097 -0.017088726 -0.030968487 -0.02190984
0.017175384 0.03303922 -0.055143118 0.024648845 -0.017939739 0.011389844 -0.04726199 0.042641304
-0.008120723 0.04455979 0.022965878 0.01925081 0.028238967 0.04888557 0.012703583 0.05998706
-0.052087396 0.05533676 0.03758818 -0.017164312 0.02649875 -0.03235247 -0.024161898 -0.045490295
-0.0040265545 0.018052623 0.05466664 -0.024197444 -0.055225387 0.00520505 0.037053615 0.02318982
-0.044497833 -0.018604182 -0.024509422 -0.033294164 0.0021506846 0.059992187 -0.04551831 -0.011124954
-0.0021383017 0.04947973 -0.02356664 0.017959647 -0.01614365 0.041949406 -0.054842174 0.03101983
-0.05800432 -0.050227627 0.04167366 0.007111922 -0.037211694 -0.0039230883 -0.042450078 -0.0025683418
0.034458302 -0.018147238 0.036221452 -0.0030094534 0.05890292 0.038922034 -0.024801157 -0.039253347
-0.04908278 -0.017318815 -0.04581783 -0.060782246 0.03561096 0.053628713 0.050122656 -0.060118914
-0.05237782 0.018071242 -0.032980986 -0.01674632 0.020446613 -0.007614337 -0.030128896 -0.0069794133
-0.0035404116 -0.019850597 0.04942447 -0.00095725805 -0.03948541 -0.023152001 0.002703838 0.04177258
-0.056531847 0.023466997 -0.059268586 -0.036235698 -0.0376214 -0.0038590357 0.010403343 0.055442348
0.034181036 -0.015190847 -0.017562762 0.0042788014 0.04062351 0.046374418 0.027663104 -0.001876086
0.04106298 0.02458284 0.029769734 0.06084211 0.005814925 -0.06122805 0.03589551 0.053313427
0.034530915 0.03561452 0.0097543895 0.04707922 -0.04996687 -0.007058747 0.011818737 -0.03577032
0.03734292 -0.04085298 -0.005101897 -0.01692687 -0.06213612 0.057397835 0.050949857 0.0067276433
-0.028907366 -0.017324626 0.02344016 -0.055698976 0.053155698 -0.031703874 -0.023648962 -0.057988845
0.010581411 -0.04460021 -0.05003681 0.025501125 0.0066926777 -0.010200843 0.059762277 -0.047885127
0.044788413 0.020585127 -0.009594873 0.016162954 0.022688016 -0.010611147 0.061691806 -0.010277733

model_cnn.classifier.bias f4 [5]
00000000: 9e19 41bd 48eb 563c 8897 adbc 2e52 6f3d
00000010: 0e0b 193d
-0.04714357 0.013117619 -0.02119042 0.058427982 0.03736406

model_cnn.domain_classifier.weight f4 [2, 256]
00000000: f030 59bc c41a cc3c dcc8 9cbc ced1 3a3d
00000010: 30f4 6abd 7818 013c 1cf4 2dbd 74f9 b2bc
00000020: e48a 273d 2485 903c 804c 4f3c 5cbd 5d3d
00000030: 0882 07bc 00c2 823b 34b5 77bd 4cb5 cf3c
00000040: 0074 dc3b 508c e83b 58c7 103c 08c8 0bbc
00000050: 0c20 45bd c87c 523d 4873 16bd 00b0 1939
00000060: 8824 f9bc b008 52bd 364e 723d 6cc2 ebbc
00000070: 2c8f 85bc 80aa 54ba 0043 6c3d a431 653d
00000080: 6ada 173d 7027 d5bc a611 5bbd 1423 fa3c
00000090: b4c5 a6bc 7a30 5cbd 1c25 cdbc 98d7 71bc
000000a0: e2be 6dbd 7cf6 9cbc 1cb9 7e3d e838 72bc
000000b0: 30c7 02bd ce95 7c3d 5679 43bd 96d8 583d
000000c0: f8e5 4c3c 7656 163d a8bd 433d 1828 663c
000000d0: d4ad 743d 326d 443d 80df 043c 98e8 b43c
000000e0: 5069 33bc 5053 8c3b 7205 653d 98ea 0bbc
000000f0: 70c3 b0bc 402f bcbb d617 1b3d d093 343c
00000100: 048e 9d3c 222d 68bd fc6c 7dbd e611 273d
00000110: c0fc 50bc 4477 0a3d c8b3 4b3c 14db a9bc
00000120: 3210 57bd 1c96 4a3d 6836 673d 9065 7b3d
00000130: 905c 913b 00ff 5dbb ea05 403d 7e9f 66bd
00000140: d407 48bd c2d2 323d 1070 6ebc 2459 1e3d
00000150: 78c9 bdbc 00e0 3cb8 c0c2 0e3c 2239 383d
00000160: 00b7 f139 5ce5 83bc b0d8 2bbd a497 9b3c
00000170: 9068 053c 740d b1bc 0005 6ebb 22ea 72bd
00000180: 76af 323d 1ee0 02bd 7e48 683d 1e84 673d
00000190: da52 7b3d c8f2 4dbd d8ba 383d 606d 0abd
000001a0: 94bb 69bd a869 51bc e4c7 23bd 52ae 45bd
000001b0: 58df 343d 16df 7c3d 1c91 9dbc 6474 12bd
000001c0: 8e3f 123d b493 d13c a065 9ebc 9868 e3bc
000001d0: 58e7 b1bc 24fe 4b3d 00c2 b7bc a04b 3b3d
000001e0: 32f5 43bd 74d7 4abd 002f 943c 7812 e03c
000001f0: 7048 1c3c eeab 403d 1cff 913c d601 633d
00000200: 1208 76bd 2409 8cbc 2eab 743d fc45 bb3c
00000210: 7655 67bd 5077 dfbc bc5d 34bd 607d a13b
00000220: 8047 143a 5456 b0bc ceb5 7cbd b817 403c
00000230: b8fc 87bc bcad 263d 5efa 0b3d 98aa 333d
00000240: aa9d 51bd 0ca6 7fbd 58ba 6a3c 88ab f03c
00000250: 0042 5d39 b4c2 003d 9cbe 51bd a0ed 2e3c
00000260: dcd4 553d 9491 613d 0411 62bd 7806 58bc
00000270: 6099 ae3c fe51 01bd e087 013c 1874 6dbd
00000280: 7e3c 5abd 4cc3 83bc ec25 29bd 401a 22bb
00000290: 00f6 4a3d 18de 7f3d c0c7 77bb 9419 913c
000002a0: c001 153b 6662 333d 5c4e 433d 1ab8 4e3d
000002b0: b0d9 613d a8e7 193c 540c ca3c 6052 67bd
000002c0: 1a49 023d a824 cb3c 708a 45bd 8ec1 33bd
000002d0: 80ca 8d3a 8012 013a dafd 6f3d 5c7c b9bc
000002e0: 64a2 933c a430 83bc d044 8fbc 008f 7f3b
000002f0: ec6d 7dbd 0092 ce39 10a2 403c 92ba 7bbd
00000300: 1002 97bb a8e2 33bd e009 b5bb 44a1 e9bc
00000310: 845a 233d b0e6 e5bc 22ca 78bd bae5 043d
00000320: 003d 3dbb c681 5b3d cc64 69bd 7a70 4fbd
00000330: d693 6ebd 2c19 e03c 3208 513d 76e8 16bd
00000340: 1048 3d3c 761d 5abd 80c4 4dbc f6f9 0b3d
00000350: 6074 463b 122f 213d c02d ce3c d0bf cbbb
00000360: 80f7 2c3a 4e5e 69bd 3278 01bd 90b9 b4bc
00000370: 765c 1a3d b8f8 fc3c bc7f 85bc c027 883a
00000380: 026d 493d d84a 3fbd f2a1 753d c02e 35bc
00000390: be2a 523d 9c45 f43c ce2e 65bd 9cd1 f53c
000003a0: c020 3dbc f622 433d 9867 1a3c f84f bbbc
000003b0: 1cc7 ed3c 22b3 7e3d b4dc 6bbd 2ac8 4cbd
000003c0: c4d5 ddbc ac71 843c 50b7 983c ca54 6e3d
000003d0: 2098 2b3d 3cd8 753d f007 78bd c455 96bc
000003e0: e4e1 e1bc 903a 023c b2d2 4d3d dcfb bd3c
000003f0: b468 a03c 44ab a2bc a01a 953b 381b 5e3d
-0.0132562965 0.024915107 -0.019138746 0.04561024 -0.05736178 0.007879369 -0.04246913 -0.021847464
0.04090394 0.017641611 0.012652516 0.054135665 -0.008270748 0.0039904118 -0.060475543 0.025355004
0.0067276955 0.0070968047 0.00883659 -0.008531578 -0.048126265 0.051388532 -0.036731035 0.00014656782
-0.030412927 -0.051277816 0.05915662 -0.028779231 -0.016303621 -0.00081125647 0.057681084 0.055955544
0.03707353 -0.026019782 -0.053483628 0.030534305 -0.020357944 -0.05375717 -0.02504211 -0.014760874
-0.05804337 -0.019160502 0.062188253 -0.014784075 -0.03192824 0.061666302 -0.047723137 0.052940927
0.012506001 0.03670355 0.047788292 0.014047645 0.059736088 0.0479557 0.008109927 0.022083566
-0.010950401 0.0042823926 0.055913396 -0.008539818 -0.021577567 -0.0057429373 0.03786453 0.011021569
0.019232757 -0.056683667 -0.061871514 0.040788554 -0.012755573 0.033805147 0.012433 -0.020734347
-0.05250568 0.04945956 0.05644837 0.061376154 0.004436083 -0.0033873916 0.04688064 -0.056304447
-0.04883559 0.043658026 -0.014553085 0.03865923 -0.023167357 -4.503131e-05 0.008713424 0.04497636
0.00046103448 -0.016100578 -0.041954696 0.018993206 0.008142605 -0.02161286 -0.0036318898 -0.059305318
0.043624364 -0.031952016 0.05670976 0.05652248 0.06135831 -0.050280362 0.045100063 -0.033795714
-0.057063654 -0.012781538 -0.039985552 -0.048261948 0.04415831 0.06173619 -0.019234233 -0.03575553
0.03570514 0.025583126 -0.019335568 -0.027759835 -0.021716759 0.049802914 -0.022431374 0.04572642
-0.04784126 -0.04952188 0.018088818 0.027352557 0.009538755 0.047038965 0.017821841 0.055421673
-0.06006629 -0.017094202 0.059733562 0.02286052 -0.056477986 -0.027278572 -0.044034705 0.004928276
0.0005656406 -0.02152554 -0.06169682 0.011724405 -0.016599998 0.04069303 0.034174316 0.043863863
-0.05117575 -0.062414214 0.014326654 0.029378667 0.0002110079 0.031435683 -0.05120717 0.010676771
0.05220495 0.055070475 -0.05519201 -0.013185136 0.02131337 -0.031572334 0.00790593 -0.057972044
-0.053280346 -0.016084336 -0.04129593 -0.0024734885 0.04955101 0.062467664 -0.003780827 0.017712392
0.0022736639 0.043795012 0.04768215 0.05046854 0.055139244 0.00939361 0.024664082 -0.056475043
0.031807996 0.024797752 -0.048227727 -0.04388576 0.0010817796 0.0004923716 0.0585917 -0.022642307
0.01802177 -0.016014405 -0.017488867 0.0038995147 -0.061872408 0.0003940016 0.011757389 -0.061457224
-0.0046084 -0.043917328 -0.005524859 -0.02851928 0.039881244 -0.028064102 -0.060739644 0.032445647
-0.002887547 0.05359056 -0.056980893 -0.050644375 -0.058246456 0.027355753 0.051033206 -0.036842786
0.011552826 -0.053250752 -0.012559056 0.03417393 0.0030281767 0.03935153 0.0251683 -0.006217934
0.00065981597 -0.0569747 -0.031608768 -0.02206114 0.037685834 0.030880317 -0.01629626 0.0010387823
0.049176224 -0.046702236 0.059968896 -0.011058509 0.051310293 0.029818349 -0.05595284 0.030007176
-0.011543453 0.047640763 0.009424113 -0.02286528 0.029025607 0.062182553 -0.057583526 -0.04999558
-0.02707947 0.016167484 0.018642098 0.05818633 0.041893125 0.06002067 -0.060554445 -0.018351443
-0.027573533 0.007948533 0.050249763 0.023191385 0.019581176 -0.019857056 0.004550293 0.054225177

model_cnn.domain_classifier.bias f4 [2]
00000000: e4d7 be3c f419 753d
0.023296304 0.059839204
