checkpoint/pretrain_cnn_features_1d_sa_lirich_1210/best_model.pth (torch, 906722 bytes, 37 tensors)

model_cnn.conv_layers.0.0.weight f4 [16, 21, 15]
000000 98 05 3d bd f1 a8 30 3d 9b 6e 20 bd ca 6a 30 bd
       -0.046147913 0.043129865 -0.03916798 -0.043070592
000010 d0 b1 0a bd b2 5f df 3c 07 1a 9c bc 9d 59 bb 3c
       -0.03386098 0.02726731 -0.01905538 0.02286988
000020 45 53 3c bd 3e 44 04 bd ff 20 99 bc 76 6b 15 bc
       -0.04597785 -0.032291643 -0.018692492 -0.009119859
000030 2b d9 2a bd 55 68 10 3d 11 57 3b bc 6c 25 a4 3c
       -0.041711014 0.03525575 -0.0114343325 0.020037375
000040 a8 ba 20 3d 2d a3 11 3c b7 c5 5d 3c 2e 6d 57 3d
       0.03924051 0.008889002 0.013535908 0.052594356
000050 5d c9 c2 bc 1a 9f 83 3c 3f ab bf bc fc 2f 2b 3d
       -0.023777658 0.016067076 -0.023397086 0.04179381
000060 13 e0 3a 3d a7 2b 4d bd 18 6a 4c 3d fe 73 e6 3c
       0.04562385 -0.05009046 0.049905866 0.028131481
000070 56 b3 d2 3c cd aa c6 3c ad 3c 47 3d a0 8f 05 bc
       0.02572028 0.024251366 0.04864185 -0.008151919
000080 36 b9 49 bd c0 be 93 bc 74 76 2a bd bc 27 b0 3b
       -0.049248897 -0.018035293 -0.041616872 0.0053758305
000090 e6 8e 1f bc fd f0 e9 bc d8 8f 69 bb b0 7f 5d 3d
       -0.0097386595 -0.028557295 -0.0035638716 0.05407685
0000a0 9c a0 26 bb 9c eb 69 3b e2 7b f7 bb bc 77 24 3c
       -0.002542532 0.0035693413 -0.00755261 0.0100383125
0000b0 6a 1b 52 3d 97 e8 06 3d 01 04 98 3c af b5 2e 3c
       0.051295675 0.03293666 0.018556597 0.010663434
0000c0 56 9e 3a 3c 18 9b bb 3c b9 71 b6 bb 59 a6 53 bd
       0.011390289 0.022901103 -0.005567756 -0.051672313
0000d0 c9 46 08 bd 46 63 4b 3d 90 36 9d 3b 34 35 33 bd
       -0.03327063 0.04965522 0.004797764 -0.04375191
0000e0 9a b3 2d 3c d0 79 44 3d 6a 43 54 bd c1 71 15 bd
       0.010601902 0.047967732 -0.051822104 -0.036485437
0000f0 47 32 c4 bc 36 3a 55 3a ca 5c 71 bc 04 86 04 bc
       -0.023949755 0.0008133979 -0.014731595 -0.008088592
000100 f1 5b 5d bd a1 14 e6 3c dc 4e 4d 3d 79 79 13 3d
       -0.05404276 0.028086009 0.050124034 0.036004517
000110 f3 1a 1d bd 8c 22 34 bd fe 09 cf 3c b1 89 42 3b
       -0.03835578 -0.04397826 0.02527332 0.0029684121
000120 e6 aa c8 3c cf c0 5b bd 4f 7a fc ba fc 30 2a 3d
       0.024495553 -0.053650673 -0.0019262525 0.04155062
000130 67 ef e3 3c b5 44 5b 3b 8e d2 3b 3c c4 8a 7b bb
       0.027824117 0.00334577 0.011463774 -0.0038382271
000140 08 04 f1 bc b5 df a0 bc b5 ce 07 bd d8 69 45 3d
       -0.029420868 -0.019637922 -0.033156116 0.048196644
000150 00 dc 00 3d af 04 92 3c 97 8a 38 bd a2 67 33 3d
       0.03145981 0.017824499 -0.045054045 0.043800004
000160 f4 4f 81 3c 52 e6 17 3d 19 36 c5 bc d1 a2 27 3c
       0.015785195 0.037084885 -0.024073647 0.01023169
000170 c1 09 5a 3d df 10 13 3d a2 44 3f 3d 79 99 28 bc
       0.05323196 0.03590476 0.046696313 -0.010290497
000180 aa f7 33 3d 72 a6 2f bd 2b 66 b9 3b 98 a0 ff bc
       0.043937363 -0.042883344 0.0056579313 -0.031204507
000190 39 03 4d bc 1e a5 61 bc cc cc 9c 3b 9b d7 53 3d
       -0.012512975 -0.013772277 0.004785156 0.05171929
0001a0 36 ef e7 3c 94 d3 da ba ee 1c 1e 3d c2 21 f9 bc
       0.028312307 -0.0016695135 0.03860181 -0.030411605
0001b0 4d 03 df 3c c2 0b 81 bb 52 5d 04 bc 51 d5 ed 3b
       0.027223254 -0.003938169 -0.00807889 0.0072580953
0001c0 d6 42 2a bd be 67 05 3c 0a fa a7 3c 14 31 4d 3d
       -0.041567646 0.00814241 0.02050497 0.050095633
0001d0 30 14 81 bc d4 1d b3 3c 25 3b 6d 3d 61 d5 b8 bc
       -0.015756696 0.02186481 0.057917733 -0.022562684
0001e0 05 7f 55 3d 68 84 f0 bc 4c f5 be 3c bf da a5 3c
       0.05212309 -0.029360011 0.023310326 0.020245908
0001f0 2c 06 8d 3c 60 9e 3d 3d 0e eb b4 bc a5 76 86 3c
       0.017214857 0.046293616 -0.022084739 0.016413996
000200 a2 c0 00 3b c4 38 27 bd ef 68 40 bc 70 c1 12 bd
       0.0019646068 -0.04082562 -0.011743768 -0.035829008
000210 59 29 d9 3c 78 2c db 3b ca 28 ea 3b bb d5 94 bc
       0.026508974 0.0066886507 0.0071459757 -0.01816832
000220 6a e5 04 3b 5a bf 7e bc 4c 7a 93 3c 87 0b 68 3d
       0.0020278343 -0.015548551 0.018002652 0.05665162
000230 a9 b6 29 3c 59 ac db bc 76 ec 04 bd 94 83 cc 3b
       0.010358491 -0.02681558 -0.03245207 0.0062412713
000240 73 02 23 bd 76 52 25 bd f6 0a 0e bd 0d bc 8c bc
       -0.039797258 -0.040361844 -0.034678422 -0.017179513
000250 8c 3a ca 3b 0a 1e 27 3d ed a7 a9 3c f5 12 38 3d
       0.00617153 0.04080013 0.020709956 0.044939954
000260 6e c7 08 bd a8 df d6 3b bb 49 45 bd c3 de 0b 3d
       -0.033393316 0.0065574236 -0.048166018 0.03414799
000270 41 34 22 3c 11 3f 67 3d ed 2a 1c bd fe 44 41 3d
       0.009900154 0.05645663 -0.038126875 0.047184937
000280 9f f6 4a 3d 63 c2 42 3d 0a d1 23 3c 17 0b 5a 3d
       0.049551602 0.047548663 0.009998569 0.053233232
000290 89 52 22 3d 49 20 24 3d 9b 70 a5 bb 34 8f 38 bd
       0.039629493 0.040069852 -0.005048824 -0.045058444
0002a0 94 2d b6 b8 59 8b 47 3c 2b 2c 17 bd e7 44 02 bd
       -8.686926e-05 0.012179219 -0.036907356 -0.03180399
0002b0 7c 1c 57 bd 8b 71 9e bc c7 97 4c 3d 80 78 2d 3c
       -0.0525174 -0.01934125 0.049949434 0.0105878115
0002c0 4f 24 2c bb 17 79 3d 3b 6f 65 12 3d 4c 5d 49 bd
       -0.0026266759 0.0028911286 0.035741266 -0.04916124
0002d0 1d 3c 3a bd cd dc a6 bc e1 bc 0b bd ec 67 df 3c
       -0.045467485 -0.020368958 -0.034115676 0.027271233
0002e0 d4 cd 1b 3d 27 44 67 bd 1e ff 4b bd c5 2e 68 bd
       0.03803809 -0.05646148 -0.049803846 -0.056685228
0002f0 56 6b b1 3c 14 3c 3b 3d 83 83 30 bd 8a f9 ce bc
       0.021657627 0.04571159 -0.04309417 -0.025265474
000300 15 61 98 3c df 6f 14 bd d0 59 46 3d 63 96 77 3c
       0.01860098 -0.0362395 0.048425496 0.015111539
000310 79 29 75 bc 40 cf 83 3b e1 88 9f 3c dc 9a 94 bc
       -0.014963501 0.004022509 0.019474449 -0.018140249
000320 4a f4 2a bd 00 e9 1a 3b 95 8c 3a 3b 6a 35 3a 3b
       -0.04173688 0.0023637414 0.002846514 0.0028413185
000330 98 50 d2 bb a4 55 1c 3d e9 bd 61 bc a8 c5 6e bb
       -0.006418299 0.03816761 -0.013778188 -0.003643373
000340 70 5a cd 3c c2 7c 09 bd 0d 9b 56 3c 34 cf 66 bc
       0.025067538 -0.033566244 0.01309849 -0.014087487
000350 e9 9d cf 3c 84 83 04 bd a4 ca a2 39 c3 f5 73 3b
       0.025343852 -0.032351986 0.00031050027 0.0037225343
000360 e6 d2 41 bd a8 29 2f bd f0 c2 b4 3c 75 f8 82 bc
       -0.04732027 -0.042764336 0.02206561 -0.015987614
000370 18 f1 0b 3d fb 35 60 bd 92 f1 dd bc 67 78 3b bd
       0.03416547 -0.05473898 -0.027092729 -0.04576912
000380 eb b5 bd 3c 86 bb ac 39 27 a7 20 bc 5b 13 15 bc
       0.023158034 0.00032946112 -0.009805477 -0.009098853
000390 15 60 2c bd 2e 9f 91 3c 88 ec 5a 3b 67 24 17 bd
       -0.04208382 0.017776098 0.0033405144 -0.03689995
0003a0 e5 89 bc 3c 8a e0 15 3a b3 ec 57 bd f9 46 04 3d
       0.023014972 0.0005717358 -0.05271597 0.032294247
0003b0 56 63 03 3d 92 3a 10 bc 70 98 17 bd db 0f 88 3b
       0.032077156 -0.008803027 -0.03701061 0.0041522807
0003c0 7c ee 26 3d c2 90 4c 3d 8c 54 35 bd 30 56 e0 bc
       0.04075478 0.04994274 -0.044270083 -0.027384847
0003d0 97 f0 38 3d 2d 6c ee 3c c6 79 14 3d 4f af db bc
       0.04515132 0.029104317 0.036248945 -0.026816992
0003e0 49 09 4b 3d fe b9 3b bd 4c 95 0e bb 00 0e e5 3a
       0.049569402 -0.045831673 -0.0021756468 0.0017475486
0003f0 8b fa 23 3c 2b be 2c bd 65 05 55 3d 90 b6 5a 3d
       0.010008465 -0.042173546 0.052007098 0.05339676

model_cnn.conv_layers.0.0.bias f4 [16]
000000 8a 47 8f bb f0 5a 18 bd 51 87 1a bd 52 f4 71 3c
       -0.004372542 -0.0371961 -0.037726704 0.014767723
000010 cf 66 3a bd 25 bd 5c bd be 87 3b bd 5e 58 78 3c
       -0.045508202 -0.05389132 -0.04578375 0.015157787
000020 1f f8 2a bc 30 84 cb 3c 83 62 26 bc bf 29 47 3d
       -0.010435133 0.024843305 -0.010155323 0.048623797
000030 60 02 3f bd 26 6d 3e bd 46 ab 38 3d 18 23 77 3a
       -0.046633124 -0.04649081 0.045085214 0.00094275316

model_cnn.conv_layers.0.1.weight f4 [16]
000000 47 36 80 3f ef a9 7f 3f dd 3c 80 3f 59 82 7f 3f
       1.0016564 0.99868673 1.0018574 0.9980827
000010 ec 86 7f 3f f6 90 7f 3f 93 7d 7f 3f f2 7c 7f 3f
       0.9981525 0.9983057 0.99800986 0.99800026
000020 24 87 7f 3f 5e 24 80 3f 01 80 7f 3f 88 28 80 3f
       0.99815583 1.0011098 0.99804693 1.0012369
000030 13 3d 80 3f c1 1b 80 3f b2 3d 80 3f 76 41 80 3f
       1.0018638 1.000847 1.0018828 1.0019977

model_cnn.conv_layers.0.1.bias f4 [16]
000000 c2 15 da 3a da 2c d6 ba 88 69 e3 b9 d0 ab 51 3a
       0.0016638564 -0.0016340271 -0.0004337544 0.00079983193
000010 29 dc d9 ba 7a c2 01 3b 90 36 f0 3a ab d1 c4 ba
       -0.0016621399 0.0019799755 0.0018326808 -0.0015016099
000020 37 20 03 bb 96 7d c2 3a 1e 99 f0 ba f2 86 f0 ba
       -0.0020008215 0.0014838453 -0.0018356179 -0.0018350764
000030 5c 97 b9 b9 e1 bf a6 3a 46 51 cd 3a b4 47 02 3b
       -0.0003539872 0.0012721979 0.001566448 0.0019879164

model_cnn.conv_layers.0.1.running_mean f4 [16]
000000 b0 b8 64 3d 4e 79 d6 bc 88 6e 07 bd ad 8c 11 3e
       0.055840194 -0.02618089 -0.033064395 0.1421382
000010 a0 10 ca bd aa 4c 3c 3d 38 8d 3d 3d da 10 23 3c
       -0.09866452 0.04597155 0.046277255 0.009952748
000020 20 64 ad bc 78 78 19 3b a7 5a 09 3c 33 b9 1c 3d
       -0.021165907 0.0023417752 0.00838343 0.038262557
000030 a0 7b c6 bd 25 f4 ba bc 51 4a 23 3d 54 47 67 bd
       -0.09691548 -0.022821495 0.039865796 -0.05646451

model_cnn.conv_layers.0.1.running_var f4 [16]
000000 0b af 5b 3f c1 74 5f 3f 98 e7 83 3f 05 e4 53 3f
       0.8581397 0.8728753 1.0305052 0.82769805
000010 5f 9b 5d 3f c1 6e 5b 3f b0 1d 59 3f 3c 76 5f 3f
       0.865652 0.8571587 0.84810925 0.87289786
000020 e3 6c 61 3f f9 5d 58 3f 8f 47 5a 3f eb a7 5e 3f
       0.8805677 0.8451839 0.8526544 0.8697497
000030 d8 4e 5d 3f 4d 4f 60 3f e6 00 60 3f a9 df 6b 3f
       0.8644843 0.87621003 0.8750137 0.92138153

model_cnn.conv_layers.1.0.weight f4 [32, 16, 3]
000000 d9 99 14 3e e1 51 50 3d 0d 1c 6b bd 56 77 0e bd
       0.14511813 0.050859336 -0.0573998 -0.034781776
000010 e7 67 0d 3e fc d2 17 3c 92 8c b1 3b 4b 68 84 3d
       0.13809167 0.009266611 0.0054183686 0.06465205
000020 55 1e 62 3c 2b 99 65 3c 75 dc 09 be 8f 0b a8 bc
       0.013801177 0.014013569 -0.13463004 -0.020513324
000030 13 1b e4 bc a9 dc cf 3d b9 b6 65 3d 17 19 15 be
       -0.027844941 0.101495095 0.05608246 -0.14560352
000040 e4 7b f9 bd 55 92 5b 3d 38 be eb bd 54 60 9d 3d
       -0.121818334 0.05360635 -0.11510891 0.07684389
000050 c9 7f 9d bd 50 6b 2f bc 42 c4 ca 3d de a2 3d bd
       -0.07690389 -0.010706738 0.099007145 -0.0462979
000060 f6 6b ef bd d7 7a 03 be 9c b9 a8 3c 6e df da 3c
       -0.11690514 -0.12839828 0.020596318 0.026717868
000070 a4 89 ae bc cf 83 5c 3c d7 8c eb bd 7e 20 09 3e
       -0.021305867 0.01345916 -0.115014724 0.13391301
000080 38 a7 b5 3d b7 c0 62 bc c9 20 0f 3e 21 41 08 3e
       0.08869785 -0.013839892 0.1397735 0.13306095
000090 c0 ac fd bd 88 b9 5c 3d 26 dc 0f 3e 9e f6 0b 3e
       -0.12386465 0.053887874 0.14048824 0.13668296
0000a0 51 c9 2e 3d 1b 12 50 3c 94 20 2d 3d cf b9 3f 3d
       0.04267246 0.012699629 0.042267397 0.04680806
0000b0 6d c4 e3 3d eb 4e b3 bd 1c 02 0e 3e 91 b0 c3 bd
       0.111214496 -0.08755287 0.13867992 -0.09555162
0000c0 50 25 6a 3d e3 b5 e7 3d 1c 70 43 3d 93 a5 c8 3d
       0.05716449 0.11313989 0.047714338 0.09797206
0000d0 52 17 45 3d 31 49 59 3d 3a 3e 03 3e c9 00 94 bb
       0.048117943 0.053048316 0.12816706 -0.004516695
0000e0 f3 0f 05 bc 5b 4d 97 3d b0 83 8d bd 0e 5d 03 3e
       -0.008121478 0.07387801 -0.06909883 0.12828466
0000f0 29 ce aa 3d ca 3c f0 3d 13 73 b6 bd 46 05 74 3d
       0.08340103 0.117303446 -0.089086674 0.05957534
000100 91 10 db 3d 1f b5 24 bd 0a 0c 88 bd 83 ff 04 3d
       0.10696519 -0.040211793 -0.06642921 0.032470237
000110 82 b3 a8 bd 17 73 9c bd ca 0a da bc 9c a8 05 3e
       -0.082373634 -0.07639139 -0.026616473 0.130526
000120 9c 7b 3a bd 29 e6 4c 3d 9f 55 22 bc af f5 80 bd
       -0.04552804 0.050024185 -0.009908109 -0.062968604
000130 aa ac ee 3d f3 27 e9 bd e5 10 19 3c 03 f8 33 3d
       0.11654027 -0.11384573 0.009342407 0.043937694
000140 de 9c 05 bc 54 5a ca 3d 68 68 87 bd 16 9f fd bc
       -0.008155076 0.0988051 -0.06611711 -0.030959647
000150 42 bf ce bd 67 fe a1 3d 87 c3 82 3d 74 09 4f bd
       -0.10095073 0.079098515 0.0638495 -0.050546125
000160 c0 5e b8 bd d9 1b 56 bc 8e a2 ce 3b ce 24 d6 3c
       -0.09002447 -0.013068163 0.006305999 0.026140597
000170 5e 98 e8 bd de 3e ba 3d 6c 5e 0c 3e 6a 06 b2 3d
       -0.11357187 0.09094022 0.13707894 0.0869263
000180 e6 53 28 bb 59 de 92 3c d7 c0 14 bc 3b 33 23 3d
       -0.0025684773 0.01792829 -0.00907918 0.03984378
000190 53 08 08 3e 09 b6 bd bd 6e e3 82 bc e3 9f bf 3d
       0.13284425 -0.09263236 -0.015977588 0.09356668
0001a0 c8 a4 23 3d 74 8a 0b 3e 2a 7f 10 be 77 f6 3a 3d
       0.03995207 0.13627034 -0.14111009 0.045645203
0001b0 a5 37 84 3c a8 91 ec bc 05 a3 02 be 23 c9 95 3c
       0.016139815 -0.028878048 -0.127575 0.018284386
0001c0 13 1a 0a 3e f9 57 bc 3d fe 47 05 be 9a 7f 82 3d
       0.13486509 0.09196467 -0.13015744 0.06371994
0001d0 a1 6d dd bd b8 00 e4 3d 2f 70 1c 3c 38 cf 37 3c
       -0.10811926 0.111329496 0.009548231 0.011218838
0001e0 de f3 0f 3e 56 5b de bd a5 41 03 be 75 81 7b bd
       0.14057872 -0.10857265 -0.1281801 -0.061402757
0001f0 ce 20 1a bd c8 30 c1 bd 6e 9c 04 bc 93 1a af bd
       -0.03762894 -0.094331324 -0.008093936 -0.085499905
000200 f4 c4 5c 3d 3a e5 23 bd 26 34 ad 3d 3d 3b 88 3d
       0.053898767 -0.04001353 0.08457212 0.06651924
000210 63 73 0d 3e e3 16 b7 bd 32 2d 08 bc 9d 6f 07 bc
       0.13813548 -0.08939912 -0.008311557 -0.008266357
000220 26 fd fd bd aa ab e9 3d cf 73 bd 3d 95 83 cd 3d
       -0.124018 0.114096954 0.09250604 0.10034863
000230 78 f7 40 bd c3 3a 98 bd 5a 98 99 3d c7 9f ca 3c
       -0.047111005 -0.07433083 0.07499762 0.02473439
000240 03 93 88 3c cd 34 e5 bc 91 d8 07 be bd 25 bd 3d
       0.016671663 -0.027979279 -0.13266207 0.09235714
000250 74 39 a6 bd 22 4f cb 3d 76 0a 1a bd 29 2f 17 bd
       -0.08116427 0.09927203 -0.037607633 -0.03691021
000260 2d 17 2d 3d d7 55 33 3d 4c 60 f9 3d 19 cb 5e bd
       0.04225843 0.043783035 0.1217657 -0.054392908
000270 f4 48 74 3d 6e f2 7c 3d 9f 6b 41 bc a4 36 09 be
       0.059639886 0.061754636 -0.011805444 -0.1339975
000280 92 b4 af bc a5 6c ec 3d 87 2d fc bd 7c c4 86 3c
       -0.021448407 0.1154416 -0.12313371 0.016451113
000290 42 90 99 bd 95 88 8f bd bc 79 ea 3d 66 d4 14 bc
       -0.07498218 -0.07008473 0.11449 -0.009083843
0002a0 d0 b7 4b 3d 72 8e f2 3c 26 1d d6 bd 27 ce 11 be
       0.049735844 0.029608939 -0.104547784 -0.14238797
0002b0 8d fd bb bd 8a 3e fd bc 5c ce 85 bd 62 21 1f bd
       -0.0917922 -0.03091361 -0.065335006 -0.038850196
0002c0 25 d1 75 3d 1d 57 47 bc fe 53 77 3c 8f 1b 8c bd
       0.06001391 -0.0121667655 0.015095709 -0.06841194
0002d0 16 57 c9 3d e0 dc 8a bd 4b e6 0d bc 83 12 ab 3d
       0.098310634 -0.0678041 -0.008660863 0.0835314
0002e0 7d f6 03 3e 2d 9a 9e bd 21 17 09 be 72 60 f7 bd
       0.12886997 -0.077442504 -0.13387729 -0.12078942
0002f0 0c 31 ef 3c eb 55 7b 3d 7b a0 8b bd 2a 20 ef bd
       0.029198192 0.061361235 -0.068177186 -0.11676057
000300 1f 08 f6 bc d4 0c 1e bd d7 03 c0 bd 9b e1 0a be
       -0.03003317 -0.038586453 -0.093757324 -0.13562624
000310 cf 2b d1 bd 6c b6 66 bb 5e 18 9a 3d 84 38 e4 bd
       -0.10213434 -0.0035203947 0.07524179 -0.11143592
000320 2a 74 58 bd 17 79 e6 bd b0 c1 8e 3d a5 16 27 bc
       -0.052845158 -0.11253565 0.06970537 -0.01019827
000330 60 ae be 3d 50 0d 9b 3c 13 23 da bc 87 02 00 3e
       0.09310603 0.018927246 -0.026628053 0.12500964
000340 cc 6e c0 3d 37 a1 07 3e 15 ff cb bd b3 0e 84 3d
       0.09396133 0.13245092 -0.099607624 0.06448116
000350 30 7b b9 bd 68 cd b6 bd fc c1 d6 3d 85 be 85 3d
       -0.09056699 -0.08925897 0.10486218 0.06530479
000360 43 41 ab bd 7e 09 c2 bd 0b 88 98 bd de b1 e5 3d
       -0.08362057 -0.09474467 -0.07447823 0.11215566
000370 4f 49 40 3d 0a 5c 06 3c 71 fb c6 bd 42 7a 41 3d
       0.046944913 0.008200655 -0.097159274 0.047235735
000380 13 4e ff bc 3a a8 b0 3d 0a 8d 00 3d f1 33 7e 3d
       -0.031165158 0.08625837 0.031384505 0.062061254
000390 a3 06 42 bd e6 09 b6 ba a7 df a6 bd a0 fb f5 3c
       -0.04736961 -0.0013888448 -0.08148127 0.03002721
0003a0 51 40 33 bc 0d d5 ff bd c3 2a a2 3d e7 e8 61 3d
       -0.010940627 -0.12491808 0.079183124 0.055153754
0003b0 48 b0 ac 3d 72 b5 81 3d 2e 42 4a 3c 4e 42 d6 3d
       0.084320605 0.06333436 0.01234488 0.10461865
0003c0 04 26 02 be 28 a8 25 3d 12 e8 e7 3d 4c c7 d8 bc
       -0.12709814 0.04044357 0.11323561 -0.02646222
0003d0 88 97 e1 3d 80 59 6d 3d 4f 44 fe 3d ac c8 00 3e
       0.110152304 0.057946682 0.124153726 0.1257655
0003e0 cd c2 8a 3d 84 43 6e 3c c3 e5 fe bd 19 0f 60 bd
       0.067754366 0.014542464 -0.12446167 -0.0547019
0003f0 f6 71 05 be 34 e0 cd bc 3d 92 af 3d 38 06 9c 3d
       -0.13031754 -0.025131322 0.085728146 0.07618374

model_cnn.conv_layers.1.0.bias f4 [32]
000000 d1 77 21 bd c8 6c 59 bc 68 32 9a bb a6 24 9f 3d
       -0.039420906 -0.013270564 -0.004705716 0.07770662
000010 96 e0 79 3d e3 2f 05 be c6 0b 80 3d 3d b7 08 3e
       0.061005197 -0.13006549 0.062522456 0.1335115
000020 9f a9 d8 bd 07 99 b8 3d 1e 40 e1 bd ed 88 1c bc
       -0.10579228 0.09013563 -0.109985575 -0.00955413
000030 47 30 93 3d 56 86 f6 3d 26 84 bd bd cf 48 04 be
       0.071869425 0.12037341 -0.09253721 -0.129184
000040 df ca 93 bd 0e 50 0b 3e bb 7d 29 3d 5e 34 95 bd
       -0.07216429 0.13604757 0.04137967 -0.07285379
000050 c6 d1 98 bd ff 29 87 bd 0e 42 cf bd d4 3a bb bd
       -0.07461886 -0.06599807 -0.10120021 -0.0914208
000060 46 c8 80 bd 17 4f e8 3d bb 64 8b bc 96 2e 06 3d
       -0.06288199 0.1134321 -0.017015805 0.03275927
000070 cf 6a 8f 3d 4c 63 0b 3d 61 e9 96 bd ea d3 b0 bd
       0.07002794 0.034030244 -0.07368732 -0.086341694

model_cnn.conv_layers.1.1.weight f4 [32]
000000 ad 7d 7f 3f c8 3f 80 3f 99 e4 7f 3f a8 7f 7f 3f
       0.9980114 1.0019464 0.9995819 0.9980416
000010 cc 3f 80 3f 43 87 7f 3f d9 89 7f 3f 75 ed 7f 3f
       1.0019469 0.9981577 0.99819714 0.99971706
000020 09 41 80 3f b8 35 80 3f 07 80 7f 3f d8 7c 7f 3f
       1.0019847 1.0016394 0.9980473 0.9979987
000030 2c 8b 7f 3f 02 7e 7f 3f 84 90 7f 3f 79 7d 7f 3f
       0.99821734 0.9980165 0.9982989 0.9980083
000040 c8 26 80 3f 5d 7f 7f 3f 9f 3d 80 3f 7f 10 80 3f
       1.0011835 0.99803716 1.0018805 1.0005034
000050 4d 3f 80 3f 35 a8 7f 3f 8f 41 80 3f b9 3a 80 3f
       1.0019318 0.9986604 1.0020007 1.0017921
000060 7d 41 80 3f 9b 33 80 3f 35 41 80 3f a9 0c 80 3f
       1.0019985 1.0015749 1.00199 1.0003864
000070 c9 82 7f 3f ab 90 7f 3f 0e 33 80 3f f6 7c 7f 3f
       0.9980894 0.9983012 1.0015581 0.9980005

model_cnn.conv_layers.1.1.bias f4 [32]
000000 e0 80 f8 ba ed e0 68 3a 72 b5 80 ba b0 09 d0 3a
       -0.0018959306 0.0008883614 -0.00098197 0.0015872028
000010 62 c4 3b ba 1a 6a e1 3a d8 16 03 3b 68 79 41 ba
       -0.0007162747 0.0017197758 0.002000263 -0.00073804567
000020 45 7c ef 3a fa 5c a8 3a e3 21 03 bb d0 1c f8 ba
       0.0018271288 0.0012845092 -0.0020009212 -0.0018929485
000030 b0 0f f6 ba b2 d7 01 bb db 0d fb 3a 5e 97 f9 ba
       -0.0018772986 -0.0019812402 0.001915391 -0.0019042303
000040 46 36 c2 3a 83 8f fa ba 87 86 63 3a d8 7a e6 ba
       0.00148172 -0.0019116256 0.0008679409 -0.0017584218
000050 80 c4 f8 3a fe 13 03 3b 0a 48 a6 b9 23 84 f3 3a
       0.001897946 0.002000093 -0.0003171566 0.0018578809
000060 bb 1d 00 3b fc 05 91 3a ec 3a 00 3b 3c 0a 45 ba
       0.001954897 0.0011064406 0.001956637 -0.00075164787
000070 1e 35 c6 ba 1a 3c 80 ba 7e d7 3f 3a fa ed f2 ba
       -0.0015122031 -0.0009783537 0.00073181826 -0.0018534057

model_cnn.conv_layers.1.1.running_mean f4 [32]
000000 41 1a d0 3c 2a e7 8b 3d 1c 3c 00 3d be f2 ed bc
       0.025403144 0.068312004 0.031307325 -0.029046413
000010 2a e1 a5 3c ba d0 f7 bc ce da 0f 3d 55 82 f7 3c
       0.020248968 -0.030250896 0.035120778 0.030213514
000020 7c c6 c6 bd 68 b8 4b 3d a5 68 5e bc 0a a3 28 3d
       -0.09705827 0.04973641 -0.013574754 0.04117111
000030 cc 90 bb 3c 7a d7 be bc bb 8b d4 bc a9 00 42 3b
       0.022896193 -0.023296107 -0.025945535 0.0029602444
000040 a2 4f 1b bb 70 61 27 3d 1e 23 09 3c 0c fe bb bd
       -0.0023698588 0.040864408 0.008370189 -0.09179315
000050 82 83 ac 3c 78 e9 6f bd 3b 2e 6c b9 70 0f 60 bc
       0.021058802 -0.058572263 -0.00022523936 -0.013675556
000060 bc 9f 32 3b b0 c1 36 3d 81 69 5e bc 53 cf 9c bc
       0.0027255854 0.04461831 -0.013574959 -0.019141829
000070 ca b4 41 bc 70 ed 2f 3d 58 3f 82 bc 4c a3 c6 bc
       -0.011822889 0.042951047 -0.015899345 -0.024247788

model_cnn.conv_layers.1.1.running_var f4 [32]
000000 61 f2 53 3f 18 26 53 3f 2c e0 53 3f c8 cb 53 3f
       0.82791716 0.8248 0.82763934 0.8273282
000010 f2 9a 54 3f 4e c6 51 3f 11 91 54 3f 4b cf 53 3f
       0.8304893 0.81943214 0.83033854 0.8273818
000020 f2 1b 58 3f 7c 62 55 3f fb 5f 55 3f 1c 95 55 3f
       0.8441764 0.833534 0.8334958 0.8343065
000030 b4 17 56 3f af a2 55 3f e8 30 53 3f 60 85 52 3f
       0.8362992 0.8345136 0.824965 0.82234764
000040 04 18 55 3f 2e 7d 54 3f bd 9d 53 3f 4a 5b 56 3f
       0.8323977 0.8300351 0.82662565 0.83733046
000050 6c 48 53 3f 93 a2 55 3f 50 73 5a 3f 51 b4 54 3f
       0.8253238 0.83451194 0.853322 0.8308764
000060 30 3f 54 3f 7d 58 53 3f 7b 0d 58 3f 2c dc 53 3f
       0.82908916 0.825569 0.8439557 0.8275783
000070 c7 a6 52 3f 3d 30 58 3f 0d eb 53 3f 5a de 55 3f
       0.8228573 0.84448606 0.82780534 0.83542407

model_cnn.conv_layers.3.0.weight f4 [64, 32, 3]
000000 d8 99 78 bd 05 05 be bc 57 9b 8e bc 90 85 3e 3d
       -0.06069359 -0.023195753 -0.017408056 0.046514094
000010 9a e9 0a 3d 51 1a 59 3d f1 e1 61 bd 38 38 c8 bd
       0.033914186 0.053003613 -0.055147115 -0.09776348
000020 0a dc e7 3c 57 b9 c5 bd 22 ed a8 3d e5 91 04 bd
       0.028303165 -0.096544914 0.082483545 -0.0323657
000030 f8 fb a4 3c 4f dc f4 3c 45 b8 5c bd b3 cf 87 bd
       0.02013968 0.029890208 -0.05388667 -0.06631412
000040 07 d9 90 3d a7 47 a8 3d f1 fa 5d 3c c2 db a9 3d
       0.07072645 0.082167916 0.013548599 0.082938686
000050 c1 95 48 3d d3 87 21 bc 8e a3 1f bd f1 b9 87 bd
       0.04897094 -0.009859043 -0.038974337 -0.066272624
000060 18 4e e4 3c 14 2b 66 3d bc 50 a3 3d c7 06 b1 bb
       0.02786927 0.056193426 0.07974383 -0.0054024193
000070 c6 c1 9a 3d e3 4b 69 3d c9 76 69 3d 59 27 58 3d
       0.075564906 0.056957137 0.056998048 0.0527719
000080 44 3a 50 3d 48 9f 01 3d ea 3b 7b 3d e1 ab ad 3d
       0.050836816 0.031646043 0.061336435 0.08480049
000090 50 26 92 3d 3b c1 a2 3d 80 f6 55 bd 64 29 9e bc
       0.07136214 0.07947012 -0.052237034 -0.019306846
0000a0 55 b1 c8 3d d6 be 61 3d 69 7d 96 3d e1 bd 2a 3d
       0.097994484 0.055113636 0.07348139 0.04168499
0000b0 ca 87 70 bd 74 2c 34 3d 4a 6c 7b bd 37 f9 4b 3d
       -0.05872325 0.043987706 -0.06138257 0.049798217
0000c0 9b ab cd bc 9d 6c a2 3d bd 06 80 bd 23 77 55 bd
       -0.025106242 0.079308726 -0.06251285 -0.05211557
0000d0 ef a2 96 3c cd 40 a3 3d e6 21 86 bd 7c 66 f5 3b
       0.01838824 0.07971344 -0.06549434 0.0074890237
0000e0 09 70 a9 bb 99 93 72 3d 67 df 7c bd ec 6e c0 bd
       -0.0051708263 0.05922279 -0.06173649 -0.09396157
0000f0 6c 01 ab 3c 2d b6 55 bd 6b 55 2b bd 82 4a 78 3d
       0.020874701 -0.05217569 -0.041829508 0.06061793
000100 0f c6 89 bb 14 cd c9 bc ae ec 91 3d 5f e8 aa bd
       -0.0042045186 -0.024633922 0.07125221 -0.083451025
000110 63 72 94 bd 8c 12 9b 3d e6 a7 90 bc 51 3d c5 3d
       -0.0724838 0.07571897 -0.017658185 0.09630836
000120 2e 08 2e 3d 75 26 03 bd b0 8d 8d bd 98 00 98 3d
       0.04248827 -0.032019097 -0.0691179 0.07421988
000130 11 d1 93 bd 05 2f a1 3d b7 bc c2 3c a2 41 53 bd
       -0.072176106 0.078702964 0.023771627 -0.051576264
000140 57 81 92 3d 32 35 25 3d 53 52 57 bd a1 3c 9b 3d
       0.07153576 0.040333934 -0.052568745 0.075799234
000150 8d f2 c1 bd ab 8f c8 3c 7a 92 82 3d d6 55 e2 3b
       -0.09470091 0.024482569 0.063755944 0.006907205
000160 46 a8 91 bd 1b 9d 3a 3d ca 81 b7 bd 77 95 c0 3c
       -0.07112174 0.045559984 -0.08960302 0.02350877
000170 09 22 b8 3d 6a 84 c1 3d 62 4f 02 bb 1a b5 93 3d
       0.08990867 0.09449084 -0.0019883742 0.07212277
000180 26 67 c8 3d f7 f3 28 bd 21 18 8d 3b c8 ac 2b bd
       0.09785299 -0.041248288 0.004305855 -0.041912824
000190 55 1c 89 bd 15 6e aa 3d 2a fa 52 bd a0 b6 c4 b9
       -0.06694857 0.08321778 -0.051508106 -0.000375201
0001a0 51 5f 32 3d 57 73 aa bd 72 d0 a2 bd 75 6a 75 3d
       0.043547932 -0.083227806 -0.07949914 0.05991598
0001b0 cb 12 27 3c c1 e6 28 bd d6 1f 77 bc 22 85 35 bd
       0.010197352 -0.04123569 -0.015083274 -0.04431642
0001c0 35 83 86 bc 38 08 88 bd a7 5a 77 bc 41 e1 6b 3d
       -0.016419986 -0.066421926 -0.015097297 0.057587866
0001d0 d2 95 c1 bd 3e 04 82 bd 14 3e b5 bd 99 15 4c 3c
       -0.09452404 -0.063484654 -0.08849731 0.012456321
0001e0 4d 7d 11 bd 4a 9b c7 3b 9a 4a 0c 3d 6a e0 1b 3d
       -0.035519887 0.00609151 0.034250833 0.038055815
0001f0 08 30 5c bd 34 ad 8c bb 7b 1c cd bd b5 98 99 bd
       -0.053756744 -0.0042931084 -0.10015198 -0.0749983
000200 7e d6 33 bd 2c 0d 3a bd 89 83 80 bd ba 42 25 3d
       -0.043905728 -0.045422718 -0.06275088 0.04034684
000210 a4 2e 9f 3b f6 17 1a 3d c5 76 91 bc bb 9a 8e 3d
       0.004857855 0.037620507 -0.017756829 0.06963106
000220 01 67 77 bd 17 96 15 3d 7e e9 6f bd 4b 3c 20 bd
       -0.060400967 0.03652009 -0.058572285 -0.03912
000230 4a 3c c5 3d a0 df b4 bc a2 d1 4c 3c 16 1b 06 3d
       0.0963064 -0.022079289 0.012501152 0.032740675
000240 5d 80 92 3d d1 af 15 3d 7d 72 97 bd 7d 0a a5 bd
       0.071533896 0.036544625 -0.07394884 -0.08058641
000250 3a 60 15 ba a2 8c f2 bb 4f 84 87 3d 5c 91 c8 bc
       -0.0005698238 -0.0074020186 0.06617033 -0.024483375
000260 44 33 d1 3d 9b 6b b0 3d 5d 1c cb 3d 24 e8 3a 3b
       0.10214856 0.08614274 0.09917519 0.0028519714
000270 63 8e fd bb 09 51 80 3d b7 bf 8d bc 1f b3 8c bd
       -0.007737921 0.06265456 -0.01730333 -0.06870102
000280 0e b5 c7 bd 35 15 be bc f3 c7 2f 3c 28 66 bf 3d
       -0.0975133 -0.023203472 0.010728824 0.09345657
000290 6f e2 98 3d 24 5b 93 bd 24 e5 bb bd 37 c2 85 bb
       0.07465064 -0.07195118 -0.091745645 -0.00408199
0002a0 05 fd 2b bd fd 68 29 bc 9d 72 bd bd 82 74 c5 bd
       -0.041989345 -0.010339973 -0.092503764 -0.09641363
0002b0 8b 7a e8 ba 55 57 e3 bc d6 53 63 bd 48 26 e0 3c
       -0.0017736716 -0.027751604 -0.055499874 0.027362004
0002c0 f2 90 e2 bc ef 17 60 bd 9e 11 8d 3d 14 95 ab bd
       -0.027657006 -0.054710325 0.06888126 -0.08378044
0002d0 e7 01 ca bd 30 2a 73 bb 96 03 e0 3c 90 9d 70 bb
       -0.09863644 -0.0037104003 0.02734546 -0.0036715008
0002e0 4a 98 6a bd a4 d8 8a bc 56 d2 62 bc 2f fb 15 3d
       -0.05727414 -0.016949005 -0.013844093 0.0366165
0002f0 88 08 89 bd ca 2a 1f 3d 56 af e2 3c b9 09 ad 3d
       -0.0669108 0.038859166 0.027671497 0.0844912
000300 bb 19 4c 3d e1 d4 f4 3c a2 08 1b 3d e7 b9 b3 bd
       0.049829226 0.029886665 0.03785003 -0.087756924
000310 2c ed 6a 3d 9d b4 c9 3d 65 42 87 bc cb 9d 94 bd
       0.05735509 0.098489024 -0.016511152 -0.07256659
000320 46 7b f8 3c bb 73 b2 3d b8 10 a6 3d 81 34 02 bc
       0.030332219 0.0871348 0.081086576 -0.007947088
000330 f6 eb 90 3d f5 34 f4 3b d6 af 84 3b f1 e8 cb bd
       0.07076256 0.007452602 0.0040492816 -0.099565394
000340 55 04 4d bd 9b 7a 01 3d 8c ea a4 3d 15 3a c8 bd
       -0.05005296 0.031611066 0.08052549 -0.09776703
000350 92 c3 ee bc af 5a b0 3d 03 ac c2 3c 98 84 ff bb
       -0.02914599 0.086110465 0.023763662 -0.007797789
000360 ea 36 ae bd f5 57 b0 3d f1 d9 19 3d 31 13 52 3c
       -0.08506568 0.086105265 0.03756136 0.012821958
000370 58 bd ad 3d 07 97 b2 bc 27 2f a5 3a d2 08 11 bd
       0.0848338 -0.021800531 0.0012602553 -0.035408802
000380 5a 11 ac bd 55 74 bc 3d 9e 22 ce bd ea 14 8e 3d
       -0.08401747 0.09201876 -0.100651965 0.06937583
000390 b3 f8 15 bd a5 db bc 3d e5 0c 16 3d fb 65 80 bd
       -0.03661413 0.09221581 0.03663339 -0.06269451
0003a0 0f 1c 9e bb fe 25 96 3d 99 75 73 bd 6b ec 6e bd
       -0.004825122 0.07331465 -0.05943832 -0.058330934
0003b0 91 cb c4 3d 42 5e 87 bd 98 00 f7 3b c4 b4 7b 3c
       0.0960914 -0.06609775 0.0075379126 0.015362922
0003c0 70 ca 85 bd 1c b4 cb bd 6e 16 8c 3c 76 f5 97 bd
       -0.065327525 -0.099464625 0.017100539 -0.07419865
0003d0 0a 40 82 bc 7c ae aa 3d da 5f 72 3c 03 57 12 bd
       -0.015899677 0.083340615 0.014793361 -0.035727512
0003e0 a6 ae 93 bd 80 dd 50 3c 16 22 8b 3d a8 4b 1d bd
       -0.07211046 0.012748122 0.06793611 -0.03840223
0003f0 8e 8d 91 3d 11 41 0a bd 1c a3 c8 bc f6 17 9e 3d
       0.071070775 -0.03375346 -0.02449184 0.07719414

model_cnn.conv_layers.3.0.bias f4 [64]
000000 7c 00 b3 bc ad fd 89 bd fd 2b 8d 3c 49 75 b9 3d
       -0.021850817 -0.06737838 0.01723289 0.090555735
000010 ec a2 b8 3c 49 b0 bf bd cf 85 22 3d 7d e6 87 bb
       0.022538625 -0.093597956 0.03967839 -0.0041473494
000020 3b 07 b8 3c 80 ba 3d b7 3c 88 a6 3c bb d6 95 bd
       0.022464385 -1.1308701e-05 0.020328633 -0.07316347
000030 36 9b 8d bd b1 fb cb bd a7 87 70 3d af 14 2d bd
       -0.0691437 -0.09960116 0.05872312 -0.042256054
000040 25 55 5f bc 1d 88 2e 3d 99 ff 0e 3d 67 ec 95 3d
       -0.01363114 0.042610276 0.034911726 0.07320481
000050 28 98 19 3d ef 29 36 bd 8a 32 60 bc ff c9 58 3d
       0.037498623 -0.044473585 -0.013683924 0.052927013
000060 24 62 16 bd d5 df c8 3d 04 57 56 bd 88 66 00 3d
       -0.036714688 0.098083176 -0.05232908 0.03134778
000070 cf 5a 51 bd e5 c4 9f bd ec 9f 33 3c f1 b0 1b bd
       -0.051111992 -0.078012265 0.010963421 -0.03801054
000080 dd 66 3f 3d 25 6f c1 bc 82 34 c3 3d 56 b5 b5 3c
       0.046728957 -0.023612568 0.095314994 0.022181194
000090 3b 2e c8 3d f4 18 bc bc aa ba 88 bd ac 36 b7 bc
       0.09774443 -0.022961117 -0.06676228 -0.022364937
0000a0 85 6f 36 bd 02 84 74 3d 40 da 52 bd f6 a3 8c bd
       -0.044539947 0.059696205 -0.05147767 -0.068672106
0000b0 b5 ce 80 bd 01 fd a0 3d a9 d3 8e bd 4d c6 53 3c
       -0.06289426 0.07860757 -0.06973965 0.012925697
0000c0 61 0a 85 3d 9b dd 82 bd f6 66 51 bc 98 32 47 bd
       0.0649612 -0.06389924 -0.012780895 -0.048632234
0000d0 ef e7 be 3d 8f a7 00 bd 31 56 ad 3c fa 55 8a 3c
       0.093215816 -0.031409796 0.021159263 0.0168867
0000e0 f5 4d be bd 44 28 33 3d 90 7d 3f bd 58 94 ab 3d
       -0.09292213 0.043739572 -0.046750605 0.08377904
0000f0 f6 7e 95 3d 1c 8e 02 3d d9 fc ad bc 21 4d 64 bd
       0.072996065 0.031873807 -0.021238731 -0.05573762

model_cnn.conv_layers.3.1.weight f4 [64]
000000 c5 30 80 3f 2f e3 7f 3f 16 7d 7f 3f 5c ee 7f 3f
       1.0014883 0.9995603 0.9980024 0.9997308
000010 7b 82 7f 3f a9 88 7f 3f b0 3f 80 3f da d9 7f 3f
       0.9980847 0.998179 1.0019436 0.9994179
000020 cc 0f 80 3f fb 3b 80 3f 2b 30 80 3f d9 7c 7f 3f
       1.0004821 1.0018305 1.00147 0.9979988
000030 c7 2d 80 3f 93 1c 80 3f b7 bf 7f 3f 64 38 80 3f
       1.001397 1.000872 0.9990191 1.0017209
000040 de 18 80 3f fc 85 7f 3f 3c 41 80 3f a3 7d 7f 3f
       1.0007589 0.9981382 1.0019908 0.9980108
000050 12 3d 80 3f 0a 7f 7f 3f 47 d6 7f 3f ef 3e 80 3f
       1.0018637 0.9980322 0.99936336 1.0019206
000060 be 7f 7f 3f 2b 8d 7f 3f 04 86 7f 3f cf 97 7f 3f
       0.99804294 0.9982478 0.99813867 0.99841017
000070 c0 1b 80 3f c8 81 7f 3f 2e 14 80 3f fc 3f 80 3f
       1.0008469 0.99807405 1.0006158 1.0019526
000080 15 25 80 3f 22 a0 7f 3f 24 a7 7f 3f 76 b7 7f 3f
       1.0011317 0.9985372 0.9986441 0.99889314
000090 af 3e 80 3f 35 3d 80 3f fa 7c 7f 3f 52 7d 7f 3f
       1.001913 1.0018679 0.99800074 0.998006
0000a0 f9 d0 7f 3f 49 3b 80 3f ac 27 80 3f c2 40 80 3f
       0.9992824 1.0018092 1.0012107 1.0019763
0000b0 ea 3e 80 3f 68 3b 80 3f 1e 9c 7f 3f e3 2c 80 3f
       1.00192 1.0018129 0.9984759 1.0013698
0000c0 8a 3b 80 3f 4b cb 7f 3f 78 3a 80 3f 00 a6 7f 3f
       1.001817 0.99919575 1.0017843 0.9986267
0000d0 0c 3f 80 3f 06 9d 7f 3f 0b 31 80 3f 75 34 80 3f
       1.001924 0.99848974 1.0014967 1.0016009
0000e0 69 83 7f 3f 52 2d 80 3f 56 82 7f 3f 5c 86 7f 3f
       0.9980989 1.0013831 0.9980825 0.9981439
0000f0 fe 7c 7f 3f 25 b9 7f 3f 6f 3c 80 3f 08 0a 80 3f
       0.998001 0.99891883 1.0018443 1.0003061

model_cnn.conv_layers.3.1.bias f4 [64]
000000 87 00 b8 3a c2 b9 02 bb 50 a9 02 bb 8c 24 03 3b
       0.0014038243 -0.0019947146 -0.0019937344 0.0020010797
000010 5f 6c 4f 3a 0b 67 e7 ba 10 e9 02 3b 84 13 ac b9
       0.0007912572 -0.001765461 0.0019975342 -0.00032820937
000020 74 aa 01 3b 4a 6c 02 3b 1e 6b c5 3a 14 d7 01 bb
       0.0019785436 0.001990097 0.0015061831 -0.0019812034
000030 ec db c4 3a e2 cc 36 3a 45 1d eb 3a e9 67 bc 3a
       0.0015019155 0.0006973279 0.00179378 0.0014374229
000040 6d ce 00 3b 2a 26 03 bb dc fb e7 ba f4 bd eb ba
       0.001965429 -0.0020011761 -0.0017698961 -0.0017985688
000050 10 45 02 3b 9b 21 03 bb b6 16 fb ba a8 ba e8 3a
       0.001987759 -0.0020009044 -0.0019156549 0.0017755823
000060 93 7c 99 ba c0 03 01 bb ed 28 03 bb 5a 23 fa ba
       -0.00117101 -0.0019686073 -0.0020013407 -0.0019084022
000070 82 d5 2e 3a 57 3b fb ba f8 d7 01 bb 90 b5 02 3b
       0.00066693884 -0.0019167465 -0.0019812565 0.0019944645
000080 58 0f ac 3a d4 9d ed ba 8d 43 01 3b cb 59 02 3b
       0.0013127131 -0.0018128701 0.0019724101 0.0019889947
000090 25 95 f7 3a ca 6e 01 3b 3a 16 39 3a d4 98 01 3b
       0.0018889053 0.0019749873 0.0007060502 0.001977493
0000a0 1a 5e c1 ba 19 15 0f ba 5c 1a 01 bb 36 00 f3 b9
       -0.0014752776 -0.0005458161 -0.001969955 -0.0004634873
0000b0 f9 c2 d9 3a 50 ef 53 ba f0 e5 d0 ba 36 cf c2 3a
       0.0016613893 -0.00080846716 -0.0015937667 0.0014862779
0000c0 e4 ef 0d ba 25 2e fc 3a 6a 74 ed 3a b2 ca ac ba
       -0.00054144696 0.0019239826 0.0018116359 -0.0013182967
0000d0 09 8b 02 3b 21 0e 84 ba 86 50 dc 3a 2a d4 ff 3a
       0.0019919297 -0.0010075012 0.0016808666 0.0019518186
0000e0 49 b5 eb ba 9c cf de 3a 35 be f4 ba 84 1d 03 bb
       -0.0017983104 0.0016999128 -0.0018672409 -0.0020006606
0000f0 c2 99 02 bb 22 74 66 ba f8 0f f2 3a dc ee 3b ba
       -0.0019928073 -0.0008791109 0.0018467894 -0.00071690767

model_cnn.conv_layers.3.1.running_mean f4 [64]
000000 fe 42 cc 3d e0 6d 18 be e4 04 06 bc 44 23 38 3d
       0.09973715 -0.14885664 -0.008179877 0.044955507
000010 45 55 92 3b 90 48 2c be 45 e7 bf bc a2 2d 48 bd
       0.0044657313 -0.16824555 -0.023425708 -0.048871644
000020 04 6b 19 3d 36 65 62 bd 1d 5c df 3d 1c 7b 0e 3d
       0.037455574 -0.055272304 0.10906241 0.034785375
000030 54 3e e9 bc 4a 9e b0 3c a3 6f e7 3c 2b 4d 76 3d
       -0.028472103 0.021559853 0.028251475 0.060132187
000040 93 53 8d 3d ce 1a eb bc d6 37 f6 3d b6 99 c3 3d
       0.06900706 -0.028699305 0.120223686 0.095508024
000050 ee 5b 04 3d 82 3c b9 3d 3f 8b cc ba d5 a4 da bd
       0.032314233 0.09044744 -0.0015605463 -0.106759705
000060 56 60 12 bd f3 3c 5e 3d 50 9e b5 bd 5c 63 46 bc
       -0.035736404 0.054257344 -0.08868086 -0.01210865
000070 68 e2 d8 bc e3 0a 89 3b aa c2 b7 3d b6 26 07 bd
       -0.026475146 0.004182206 0.08972676 -0.032995902
000080 0c 65 02 bd c2 a5 e0 3b 36 f5 9a bd da 94 b2 3c
       -0.031834647 0.0068556974 -0.075663015 0.021799494
000090 7b b9 56 bc 00 6a 34 3d 8d 1d 97 bd c6 3b 49 bc
       -0.013105745 0.044046402 -0.07378683 -0.0122823175
0000a0 72 83 00 3d 12 84 a2 3c e7 64 0e ba 10 65 f3 bd
       0.031375356 0.019838367 -0.0005431906 -0.118845105
0000b0 6a fe f5 3d a8 c2 ca 3d 80 72 ae 3d aa c4 6e 3d
       0.12011416 0.09900409 0.08517933 0.058293022
0000c0 00 f0 76 bd 89 d2 57 3d 56 7a d2 bd 88 fe f7 bc
       -0.060287476 0.052691016 -0.1027724 -0.030272737
0000d0 a2 9e e2 bb 80 28 30 bc 56 58 6b bd c1 b3 bd 3d
       -0.006915883 -0.010751843 -0.05745729 0.09262801
0000e0 1a 45 b4 3c ba f8 83 3d 5c e2 32 bd 7c 5a a5 3c
       0.022005606 0.06443925 -0.043672904 0.020184748
0000f0 bd 53 0b 3e 66 a8 de 3c 00 01 62 3d 4c 04 96 bd
       0.13606162 0.027179908 0.055176735 -0.07325038

model_cnn.conv_layers.3.1.running_var f4 [64]
000000 dc 73 56 3f fd 08 56 3f 91 dc 51 3f c1 74 5e 3f
       0.8377054 0.83607465 0.8197718 0.868969
000010 3e 15 5b 3f a3 13 59 3f 37 66 5d 3f cc 8f 54 3f
       0.8557929 0.8479559 0.8648409 0.83031917
000020 19 d3 56 3f 8d a0 54 3f 3d f0 51 3f a1 10 55 3f
       0.8391586 0.8305748 0.820072 0.832285
000030 70 c1 54 3f 7f 0e 5f 3f 70 7f 57 3f 64 b6 55 3f
       0.8310766 0.87131494 0.8417883 0.8348143
000040 1d 3c 59 3f 89 e5 56 3f ba 49 58 3f b3 1a 57 3f
       0.8485735 0.8394399 0.844875 0.84025115
000050 81 4e 5a 3f 72 ca 55 3f dd 22 5c 3f d8 9a 54 3f
       0.8527604 0.8351203 0.859907 0.8304877
000060 71 6a 52 3f 28 39 5c 3f 09 71 57 3f 28 83 54 3f
       0.82193667 0.86024714 0.8415685 0.8301263
000070 bf 48 53 3f 41 7d 58 3f 00 84 5e 3f 79 3d 56 3f
       0.82532877 0.8456612 0.86920166 0.8368755
000080 81 45 52 3f d0 fa 56 3f 37 93 56 3f 3c 20 53 3f
       0.82137305 0.8397646 0.8381838 0.8247106
000090 77 2d 57 3f 6f fb 53 3f d6 0f 54 3f 5f d4 55 3f
       0.8405375 0.8280553 0.82836664 0.8352718
0000a0 8b 95 58 3f a5 d8 53 3f 5d ac 53 3f 70 1e 57 3f
       0.84603184 0.8275245 0.8268488 0.8403082
0000b0 59 12 56 3f 07 92 54 3f 44 06 58 3f 5f 07 58 3f
       0.83621746 0.8303532 0.8438456 0.8438625
0000c0 ab d1 5b 3f 20 3d 55 3f 87 af 58 3f df 1e 56 3f
       0.858668 0.83296394 0.84642833 0.83640856
0000d0 2b e6 53 3f 2e fc 53 3f 6b e2 55 3f 29 91 52 3f
       0.82773083 0.8280667 0.8354861 0.82252747
0000e0 37 bd 53 3f 3c 92 56 3f 93 f5 56 3f ce 7f 5a 3f
       0.82710594 0.83816886 0.83968467 0.85351264
0000f0 ab de 57 3f ed 6f 55 3f 47 22 59 3f 60 9b 54 3f
       0.8432414 0.8337391 0.8481793 0.83049583

model_cnn.conv_layers.4.0.weight f4 [128, 64, 3]
000000 cb 39 7d 3d 9e 80 40 3c 60 03 8f 3d 15 2e 19 bc
       0.061822694 0.011749415 0.069830656 -0.009349366
000010 05 c0 68 bd 75 13 88 3d b6 76 02 3d 32 5c 81 3d
       -0.05682375 0.06644336 0.031851493 0.06316413
000020 df e9 5b bd 26 f0 8c 3c 56 79 68 bd d4 49 df 3c
       -0.053689834 0.017204355 -0.05675634 0.027256884
000030 e2 af 68 3d 73 9e f5 3c 29 39 c6 bc c0 e5 5d bd
       0.05680836 0.029982781 -0.024197178 -0.054174185
000040 35 d2 a0 3c 7e 00 25 3d e3 f0 b3 bc c3 b5 73 bd
       0.019631485 0.040283673 -0.02196545 -0.059499513
000050 95 22 e3 3c 78 19 ec 3c 4f bf c3 bc 47 72 8c bd
       0.027726451 0.028820738 -0.023894934 -0.06857734
000060 fc 12 8a bd e3 f4 93 3d f8 9a cf 3b 72 0e 3a 3d
       -0.06741902 0.07224443 0.0063356124 0.045423932
000070 5e c9 dd 3c dc 0d 66 bc 15 8b 3f bd dc 4a 88 bd
       0.027073558 -0.01404139 -0.0467635 -0.06654903
000080 73 7d b4 3c 64 6f 12 bc 72 a7 f3 3c 8f 9a 21 bc
       0.022032475 -0.00893769 0.02974293 -0.00986351
000090 fa ca 4a bd 76 c8 5f bd f4 e8 24 3d 74 8d ce bc
       -0.04950998 -0.054634534 0.040261224 -0.025213934
0000a0 ce 3f 2c 3d f2 e3 a9 bc 1a 59 a3 bc 92 d0 32 bc
       0.042053036 -0.020738576 -0.019939948 -0.010913985
0000b0 7d 12 35 3d 75 bb ca bc 13 da 64 bd bf 5b 88 bd
       0.044207085 -0.02474759 -0.055872034 -0.06658124
0000c0 15 0c f4 3c 40 00 95 bd e9 af 88 bc 5e 17 6c bd
       0.029790917 -0.07275438 -0.016685443 -0.057639472
0000d0 6c d5 1d bd ab de 8e bd f5 f9 fd bc 90 2a 6c bd
       -0.038533613 -0.06976064 -0.031002978 -0.05765778
0000e0 ce b2 35 bd 1c f2 88 bd 66 94 5e 3c 99 ea 57 bd
       -0.044359975 -0.06686804 0.013585186 -0.052713964
0000f0 d8 9b a6 bc 71 1d 8a bd ca c9 29 3d bf 5f 61 bd
       -0.020337984 -0.06743897 0.041452207 -0.05502295
000100 4c 64 28 bd e7 8c ae bc af e2 32 3c 5e 94 e4 bc
       -0.041111276 -0.021307422 0.010918303 -0.027902778
000110 d1 e2 87 bd 33 76 e8 bc 51 c8 76 3d af 18 92 bd
       -0.06635059 -0.028376674 0.06024963 -0.07133614
000120 f4 08 3b 3c 89 40 eb bb 16 7c cb ba 5f f4 8a bd
       0.011415709 -0.007179324 -0.0015524651 -0.06784891
000130 e9 f5 34 3c 68 1e 67 3d a2 68 11 3d 00 a9 c3 b8
       0.011044958 0.056425482 0.035500176 -9.329803e-05
000140 07 aa 53 bd 41 a8 4d 3c 12 c0 6c 3d 99 2b 8e 3c
       -0.051675823 0.012552322 0.05780036 0.017354773
000150 de ab b8 3c 12 f8 e2 3b 69 18 78 bd b4 85 b2 bc
       0.02254289 0.006926545 -0.060570154 -0.02179227
000160 f5 af 5f 3d 16 57 70 bd 11 86 8d bb 87 d5 10 3d
       0.054611165 -0.0586768 -0.0043189605 0.035359886
000170 eb 07 88 3d 70 82 5d bc 9f 85 30 bd 38 f5 90 bc
       0.06642135 -0.013519868 -0.04309618 -0.017695054
000180 ef b4 3f bd f9 5a 29 bd e2 57 0d 3d 34 67 77 bc
       -0.04680341 -0.041346524 0.03450764 -0.015100289
000190 a4 50 d3 3c 5a b3 95 bc 93 70 96 bd f1 45 ed bc
       0.025795288 -0.018273998 -0.073456906 -0.028964015
0001a0 16 d3 1f 3d 76 d0 8a bc 79 1f 09 bd ec d4 77 3d
       0.039019667 -0.016945105 -0.03347728 0.060505792
0001b0 d1 9b 05 bd cb 79 17 3d fe 8e 41 bd d5 12 cf 3c
       -0.0326193 0.036981385 -0.04725551 0.025277534
0001c0 03 65 77 3d 77 d0 d1 bc 23 c5 ba 3c a5 02 5c 3d
       0.060399067 -0.0256121 0.02279908 0.05371346
0001d0 58 62 54 bc b0 6a 04 3b 1e 98 dc bc 0f de 31 3d
       -0.0129629 0.0020205192 -0.026928004 0.043424662
0001e0 38 b7 e4 3b c5 46 31 bd ed 54 06 3d 2e 0e d9 3b
       0.006979849 -0.04328038 0.032795835 0.006624005
0001f0 1b 4f 00 3d 33 a7 b9 3c ab b8 30 bd 78 d4 99 bc
       0.03132544 0.022662735 -0.043144863 -0.01877807
000200 27 2c b0 bb b3 a8 71 bd a8 be 90 bd 94 51 52 3d
       -0.005376357 -0.058998775 -0.07067615 0.05134733
000210 02 2a 17 3d 98 47 3f 3d 12 80 8f 3d b8 51 3e 3d
       0.036905296 0.046699136 0.07006849 0.04646465
000220 de 8a 28 3d e6 7f 95 bc 25 81 81 bd 3c c2 e2 bc
       0.04114806 -0.018249463 -0.063234605 -0.027680509
000230 12 07 df 3c 43 54 8e bd 5c 6f f8 3c f9 95 ba 3c
       0.027225051 -0.069496654 0.030326538 0.02277659
000240 aa 47 7d bd 63 4f f0 bc a4 57 48 bb db 77 b2 bc
       -0.061835922 -0.02933473 -0.0030569816 -0.021785667
000250 21 d2 08 3d 63 d1 40 3c e2 e0 86 bd 06 35 3b bd
       0.03340352 0.011768672 -0.06585862 -0.045704864
000260 3c cc 48 3d 7d c5 b1 3c 16 67 8e bd 2e da d4 bc
       0.049022898 0.021700615 -0.06953256 -0.025982942
000270 e6 5a 9a bc b1 52 68 bd 93 0f 94 bd 99 8d 86 bd
       -0.018842172 -0.056719486 -0.07229533 -0.06569976
000280 e8 21 2f bd 21 0c 01 3c f3 f7 48 bd 0d cd 1f bd
       -0.042756945 0.007876427 -0.049064588 -0.03901391
000290 d4 dd 92 bd 58 8d 36 bd b5 df 5f bd b5 83 85 3d
       -0.071712166 -0.04456839 -0.054656703 0.06519262
0002a0 14 59 1f 3c f6 45 e0 3c ea 7a 74 bd 50 6a 8c bd
       0.009725828 0.02737711 -0.059687532 -0.06856215
0002b0 d3 06 23 3d 22 39 4e bd 62 ed 53 bb 51 3f 73 bd
       0.03980143 -0.050347455 -0.0032337536 -0.059386555
0002c0 9a c0 1c 3d 43 28 ae 3b 32 1d 86 3d 74 fc 8b 3d
       0.038269617 0.005314858 0.06548537 0.06835261
0002d0 e8 9d 3c bd c9 af 11 bd 73 16 43 3c 8f 83 3e 3d
       -0.04604903 -0.035568032 0.011907208 0.046512183
0002e0 ad e2 3c bd 65 28 6d 3d 7a 61 e1 3c a1 6e 8b bd
       -0.046114612 0.05789985 0.0275123 -0.0680821
0002f0 8a 94 5e bd 6a 53 87 3d 58 01 7c bb 41 f4 0f 3d
       -0.054340877 0.06607707 -0.003845295 0.035145048
000300 00 10 3e bd d1 02 7e bd 7e 9b 6a 3d 29 61 21 3c
       -0.046401978 -0.062014405 0.057277195 0.009849825
000310 c2 23 97 3c ca b9 35 bb ea 93 38 bd 7e 4c a8 3c
       0.018449668 -0.0027729147 -0.045062937 0.020544287
000320 64 86 ca bc e4 d3 15 3c a5 2f 24 bd 8d d5 86 3d
       -0.024722286 0.009144757 -0.0400845 0.065837
000330 0c 2f 0b 3c 91 12 05 3d 24 09 72 bc e4 92 69 bc
       0.008495104 0.03248841 -0.014772687 -0.014256213
000340 b8 c8 85 3d 8c be 18 3b dd a9 4f bc c6 ac 6c 3d
       0.06532425 0.0023306934 -0.012674776 0.057781957
000350 96 07 dc 3c 36 b8 8f bd f6 91 0a 3d 43 02 b9 3c
       0.026859086 -0.07017557 0.033830605 0.022584086
000360 d8 45 9a 3a 52 f2 68 3d 48 d1 e8 3c 96 12 1f bd
       0.0011770083 0.05687172 0.028420106 -0.038836084
000370 a3 38 94 bd a5 fa 52 3d d8 38 87 3b f1 34 e0 bc
       -0.07237365 0.051508565 0.0041266493 -0.027368994
000380 c7 cf 27 3c 95 ef 4f 3d f4 5f df bc 15 56 d8 3c
       0.010242409 0.050765593 -0.027267434 0.026408235
000390 aa 64 90 3c 23 2b 5a bd fe be 6f bd 92 c6 21 3d
       0.017626125 -0.053263795 -0.058531754 0.039496012
0003a0 cb 59 3f bc f1 44 77 3c 64 c5 52 bd 1d 2d b7 3b
       -0.011679123 0.0150921205 -0.051457778 0.0055900947
0003b0 5a 29 c8 bc 5b c4 8d 3c 6f 5d 09 3d 44 0f 56 bd
       -0.02443378 0.017305544 0.03353637 -0.052260652
0003c0 0f ef 3c bd 19 c8 8c 3d 9b b7 72 3a 50 75 44 bd
       -0.04612642 0.06874103 0.0009258927 -0.04796344
0003d0 09 1d 97 3c 07 4e 5b 3d 92 c1 12 3d 58 01 89 3d
       0.018446462 0.05354121 0.035829134 0.066897094
0003e0 46 a3 39 3c fb cf 7e bd 53 2a 90 bd 6e 38 90 3d
       0.011330431 -0.062210064 -0.07039323 0.07042013
0003f0 e6 41 57 3d f0 8c 9b 3c 7d 78 6a 3d e6 cf a4 b9
       0.05255308 0.018988103 0.057243813 -0.00031435414

model_cnn.conv_layers.4.0.bias f4 [128]
000000 22 ef 58 3d 14 e8 3b bd c1 82 3f 3d a0 cb 26 3c
       0.05296243 -0.045875624 0.046755556 0.010180384
000010 31 3a 80 3c 04 65 d8 bc 9c e1 0b 3d 7a df 5d bd
       0.015652748 -0.026415356 0.034150705 -0.054168202
000020 fe 08 80 3d 5e a2 2b bd c3 3c 5d 3d a2 dd ab bc
       0.06251715 -0.041902892 0.054013025 -0.020979706
000030 1c f7 54 b9 b7 95 a4 bc 0f 81 36 3c 34 66 64 bd
       -0.00020309951 -0.02009092 0.011139168 -0.05576153
000040 27 05 05 3d f8 61 17 bd 76 05 01 3d b0 61 48 b8
       0.032475617 -0.036958665 0.03149935 -4.7774694e-05
000050 91 ee 6c bd 4a bc 25 bb 83 35 82 3d 12 51 ab bc
       -0.057844702 -0.002528923 0.06357863 -0.02091268
000060 39 31 69 bc ce 9f 20 bd c2 4d 22 bb a6 af 25 bd
       -0.014232927 -0.0392149 -0.0024765586 -0.040450715
000070 fb d5 2e bd d0 41 71 bd 6a 9e 3a 3d aa 83 0a 3d
       -0.042684536 -0.058900654 0.04556123 0.03381697
000080 96 51 45 3c b1 c9 af 3c 12 02 81 3d 40 ee aa 3c
       0.012043377 0.021458479 0.06299223 0.02086556
000090 85 45 7a 3d 28 a1 34 bd d5 52 98 ba 66 d3 60 3d
       0.061101455 -0.044099003 -0.0011621366 0.054889105
0000a0 4c 0f c6 3c 9b 11 10 3d 37 09 1c 3d 7b 8f 02 3d
       0.024177216 0.03517304 0.038094725 0.031875115
0000b0 55 6e d3 3c bc db 4d bc b7 c5 cd bc db b7 8f 3d
       0.025809446 -0.012564596 -0.025118692 0.070174895
0000c0 1d 0f 7b bd dd f8 72 3d 84 87 05 3d a5 96 8b bd
       -0.06129371 0.059319366 0.03259994 -0.068158425
0000d0 bb 92 cf 3a e8 78 e2 3b 4e b6 3b bd 9b b2 86 bc
       0.0015836576 0.006911386 -0.045828156 -0.016442588
0000e0 81 13 63 3d 7f 9c 73 3d 8d a6 4d 3c f4 1a 8f 3c
       0.055438522 0.05947542 0.012551916 0.017468907
0000f0 d8 ce f3 bc b0 c5 25 bd f1 9d d0 bc 27 15 7b 3c
       -0.029761717 -0.040471733 -0.025465937 0.015324867
000100 af 7e c0 3b 2e d1 fa 3c 33 e4 3b 3c 5a d8 8c bd
       0.005874477 0.030617323 0.011467981 -0.06877203
000110 30 ae 2f bd f6 54 6a 3c 7f 2d 58 bd 53 24 6f 3d
       -0.042890728 0.014302483 -0.052777763 0.05838425
000120 d9 a9 3d bd cf ce 15 3c 36 11 4a bd 4f 0d 2a 3c
       -0.046304557 0.009143545 -0.04933282 0.01037915
000130 54 8c 8e bd 9a 70 49 3d 9c 55 72 3d 3e 57 74 3d
       -0.06960359 0.04917965 0.059163675 0.059653513
000140 3e 43 03 bb b6 99 28 3d b6 e1 88 bd 77 99 3e bd
       -0.0020029093 0.041162215 -0.06683676 -0.046533074
000150 50 5c d1 39 5d 14 16 bd 26 bb 86 3d 0d d2 9c bb
       0.00039932365 -0.036640514 0.065786645 -0.004785782
000160 f6 aa 8d 3c b0 a1 3c 3d 88 ce 83 3d c8 65 92 bb
       0.017293435 0.046052635 0.06435877 -0.0044676997
000170 fb 02 4e ba 16 e4 5d bd 01 96 8d 3d 8e 18 5c 3d
       -0.00078587205 -0.054172598 0.069133766 0.053734355
000180 9c 67 69 3d a6 89 8a 3d 2c 56 33 bd 2a 11 5d bb
       0.056983575 0.067645356 -0.04378335 -0.0033732154
000190 40 3b 6d bd 40 41 51 3d 27 57 8b 3d 27 1e 75 3d
       -0.057917833 0.051087618 0.06803732 0.05984321
0001a0 23 79 b7 3c 02 16 c7 bc d4 24 1a 3d 2c db 23 3d
       0.02239663 -0.024302486 0.03763278 0.04000394
0001b0 23 a1 d5 3c a3 26 f5 3b 69 55 c4 bb b0 4a a6 bc
       0.026077813 0.0074814125 -0.005991627 -0.020299286
0001c0 65 94 e6 bb 54 4d 6b bd c0 74 4e bc 58 29 7f 3c
       -0.007036733 -0.057446793 -0.012601078 0.015573822
0001d0 ef 87 1d 3b f0 c9 5c bc da a5 4a 3d 79 b0 32 3c
       0.0024037322 -0.01347588 0.049474575 0.010906332
0001e0 96 7d 5c 3c 07 b6 56 3d b2 71 52 3d e8 e0 f2 3c
       0.013457676 0.05241969 0.05137796 0.02964826
0001f0 e0 3e 49 3c 0b 2a 85 bd b5 7f 0e bd 51 66 10 3d
       0.012283057 -0.0650216 -0.03478976 0.035253827
