checkpoint/transfer_cnn_openmax_0_to_3_1210/best_model.pth (torch, 886690 bytes, 39 tensors)

cnn.layer1.0.weight f4 [16, 1, 3]
-0.5779948 -0.18138497 0.18009181 3.387162e-06 0.20757452 -0.24111508 -0.2801674 -0.059733823
-0.49030912 -0.10278365 0.043224875 0.2510274 -0.20332105 0.33523822 -0.038827106 -0.11061085
-0.1946068 0.37725717 0.017012585 -0.33701712 -0.32461408 -0.022215476 0.14496438 -0.34508806
-0.5541983 0.22708757 0.12142127 -0.31242406 -0.3010728 0.46887895 -0.3851814 0.3426985
-0.40473786 0.20208354 -0.03390045 0.23410721 0.27051854 -0.26826698 -0.48840114 0.0041884603
0.10489958 -0.0650677 0.24745852 0.5448803 -0.24126022 0.21857625 0.16672115 0.3100404
00000000: 78f7 13bf fbbc 39be fd69 383e 004f 6336
00000010: 6a8e 543e dfe6 76be 1a72 8fbe 74ab 74bd
00000020: cc09 fbbe 3c80 d2bd 910c 313d aa86 803e
00000030: 6533 50be 58a4 ab3e 2c09 1fbd f187 e2bd
00000040: 0147 47be da27 c13e fa5d 8b3c 828d acbe
00000050: d133 a6be 3bfd b5bc 8b71 143e 62af b0be
00000060: f1df 0dbf a589 683e b7ab f83d 0cf6 9fbe
00000070: 3726 9abe e710 f03e 7f36 c5be 2e76 af3e
00000080: cd39 cfbe fdee 4e3e 33db 0abd cdb9 6f3e
00000090: 6881 8a3e 4a5a 89be b70f fabe 5a3f 893b
000000a0: 97d5 d63d 3742 85bd c465 7d3e 467d 0b3f
000000b0: eb0c 77be 74d2 5f3e f3b8 2a3e 9ebd 9e3e

cnn.layer1.0.bias f4 [16]
-0.053273067 -0.3211921 -0.123538606 0.001070557 -0.33418283 0.25354972 0.23333474 0.004407799
-0.19193135 -0.31183004 0.12774132 -0.16598304 0.024723781 0.31161216 -0.117993854 0.04315936
00000000: dc34 5abd 4a73 a4be cf01 fdbd ef51 8c3a
00000010: 031a abbe 45d1 813e 4def 6e3e 4c6f 903b
00000020: a789 44be 30a8 9fbe 9fce 023e 75f7 29be
00000030: 8789 ca3c a18b 9f3e c3a6 f1bd dec7 303d

cnn.layer1.1.weight f4 [16]
0.97866297 0.9950295 1.0392901 0.9790696 0.99699277 0.9936762 0.9859858 0.98973155
1.0206767 0.9938757 1.000019 1.048323 0.98724633 1.015264 0.97812146 0.99244946
00000000: a889 7a3f 41ba 7e3f 7507 853f 4ea4 7a3f
00000010: eb3a 7f3f 9061 7e3f 9169 7c3f 0c5f 7d3f
00000020: 89a5 823f a36e 7e3f 9f00 803f 732f 863f
00000030: 2dbc 7c3f 2cf4 813f 2b66 7a3f 2b11 7e3f

cnn.layer1.1.bias f4 [16]
0.019916575 0.012983321 0.015753778 -0.033310518 -0.020994175 -0.011765724 0.012238269 -0.034651726
0.012591448 -0.023219535 -0.051231366 0.034156404 -0.016633041 -0.02538439 -0.019284584 -0.062776625
00000000: 1628 a33c ffb7 543c 110e 813c 9c70 08bd
00000010: fafb abbc 06c5 40bc 0583 483c f8ee 0dbd
00000020: 5c4c 4e3c e536 bebc fbd7 51bd 96e7 0b3d
00000030: 0442 88bc edf2 cfbc b4fa 9dbc 0891 80bd

cnn.layer1.1.running_mean f4 [16]
-0.053274002 -0.32119355 -0.123538285 0.001069615 -0.33418453 0.25355127 0.23333731 0.004407037
-0.19193056 -0.3118316 0.12774107 -0.16598344 0.024723139 0.31161344 -0.11799396 0.043160025
00000000: d735 5abd 7b73 a4be a401 fdbd 5332 8c3a
00000010: 3c1a abbe 79d1 813e faef 6e3e e868 903b
00000020: 7289 44be 64a8 9fbe 8ece 023e 90f7 29be
00000030: 2e88 ca3c cc8b 9f3e d1a6 f1bd 91c8 303d

cnn.layer1.1.running_var f4 [16]
0.53026336 0.08564388 0.18063745 0.10484664 0.12136349 0.2212402 0.25264218 0.11518606
0.41496968 0.5512182 0.174934 0.03929014 0.5416514 0.013540115 0.47827306 0.12042399
00000000: 57bf 073f 0f66 af3d 06f9 383e d6b9 d63d
00000010: 6c8d f83d ca8c 623e 515a 813e abe6 eb3d
00000020: e876 d43e a31c 0d3f e621 333e b3ee 203d
00000030: aba9 0a3f 5cd7 5d3c 35e0 f43e daa0 f63d

cnn.layer2.0.weight f4 [32, 16, 3]
-0.011092925 0.047555633 0.06841046 -0.00041387428 0.027040089 -0.021225534 0.043361314 0.038691595
0.112156436 0.12097982 0.026606591 0.115841545 -0.14090109 -0.07928859 -0.1300498 -0.06932553
0.10483878 -0.119783476 0.08761784 -0.04009188 0.018767187 -0.09550929 -0.074173965 0.029712403
0.016068699 -0.13179077 -0.004695336 -0.06578001 -0.10425038 -0.117223255 0.057143144 0.013074294
0.0910791 0.124012105 0.030275827 -0.051687647 0.09405484 0.05226875 0.11447851 0.084982604
0.028910585 0.06604837 -0.13357115 0.0755848 0.08930926 -0.015410572 -0.1282938 0.076029904
0.0152106 -0.02303855 -0.036188684 0.10962211 -0.036707796 0.19126421 0.1210861 0.07048349
0.097700715 -0.11702299 -0.12842505 0.09254737 0.09109891 -0.12469061 -0.1046678 0.055895932
0.04808017 0.08020754 -0.11197205 0.06684198 0.029006362 -0.12168132 0.1558155 0.008471695
-0.075759456 -0.07924632 -0.06281043 -0.06125582 4.23326e-05 -0.11345113 -0.1348581 -0.12358152
-0.06669851 -0.04406924 0.0045122737 0.0007210609 0.053090386 -0.092392206 0.11671033 0.09107274
-0.11513824 -0.07016326 -0.0758524 -0.0077950456 -0.14752385 0.033223342 0.05553137 0.07938356
0.0647514 -0.05509301 -0.09954329 0.08330584 -0.019331183 -0.11285764 0.09975221 0.07259899
0.10261876 -0.10084413 -0.037066136 0.090341404 -0.14180355 -0.16996625 -0.09922193 0.040706284
-0.13280618 0.056762796 -0.08180223 -0.060118962 -0.037261788 0.08049265 0.11743171 0.07428456
-0.10658689 -0.026795048 0.0797799 0.059475012 -0.05984365 0.06403791 -0.004509724 -0.13159564
0.06812256 -0.02617385 0.04892148 0.096160226 0.08719304 0.022113793 -0.0069005773 -0.036340583
-0.12139923 -0.13425383 0.13094717 -0.0358693 0.026983336 -0.05582104 0.06572856 -0.026612775
-0.10686302 0.12121704 -0.07475297 0.041150212 -0.007908881 0.15244547 0.020184755 -0.045936506
0.071732864 0.10030248 -0.08990893 0.085753426 0.15925626 -0.06966366 -0.012549933 -0.035074793
0.036447935 -0.071545415 -0.11163981 0.0555979 0.04252271 -0.053978033 0.064359486 0.101583585
0.024985135 0.004328599 0.077903114 -0.13641275 -0.07562066 0.036827944 -0.06280121 0.13149638
-0.023796394 -0.109042615 -0.06850971 -0.032902993 -0.056817684 0.06208919 0.028169993 -0.09876761
0.03842333 0.11379799 0.0066282633 -0.12525783 0.05949713 -0.14750923 -0.062762074 0.040499058
-0.1515314 0.023822665 0.060905594 0.12896046 0.044649437 -0.006762976 0.028891236 -0.15674014
-0.071763076 -0.086237825 -0.06041884 -0.14453892 -0.088073604 -0.012527677 0.03949211 -0.08238662
0.123472616 0.077332385 0.09448402 -0.03974313 -0.04888101 -0.09654536 -0.06959353 -0.023137627
0.048309673 -0.06469906 0.09878982 0.07822309 0.09615548 0.039176214 -0.14351931 0.11064606
0.00032640505 0.1521523 0.15147547 0.020750172 0.056274068 -0.09612842 0.12813453 -0.113848016
0.0968084 -0.053780004 0.14397453 0.0106080035 -0.07293267 0.07302902 0.02708154 0.061955117
-0.090068385 -0.06902591 -0.029957928 -0.059495173 0.08989688 0.062484425 -0.041724388 0.07445667
0.14487971 -0.07070221 0.09630845 -0.11296933 -0.111715965 -0.12803572 0.009672867 0.1136166
00000000: 1abf 35bc b2c9 423d c91a 8c3d 44fd d8b9
00000010: 2d83 dd3c 2ce1 adbc a29b 313d 147b 1e3d
00000020: 46b2 e53d 45c4 f73d 11f6 d93c 553e ed3d
00000030: 6048 10be 0e62 a2bd c62b 05be 8bfa 8dbd
00000040: b7b5 d63d 0a51 f5bd fb70 b33d 6237 24bd
00000050: a5bd 993c 609a c3bd 85e8 97bd 6d67 f33c
00000060: 81a2 833c 29f4 06be 55db 99bb abb7 86bd
00000070: 3981 d5bd bf12 f0bd ee0e 6a3d 9035 563c
00000080: ae87 ba3d 0ffa fd3d 0305 f83c 6db6 53bd
00000090: d39f c03d c217 563d b673 ea3d 5c0b ae3d
000000a0: e4d5 ec3c 5e44 873d e0c6 08be 34cc 9a3d
000000b0: c6e7 b63d a07c 7cbc 735f 03be 91b5 9b3d
000000c0: e135 793c 57bb bcbc 963a 14bd 8f81 e03d
000000d0: ea5a 16bd c4da 433e fdfb f73d a659 903d
000000e0: 5017 c83d c0a9 efbd db81 03be 7a89 bd3d
000000f0: 1192 ba3d ca5d ffbd 125c d6bd 22f3 643d
00000100: b6ef 443d da43 a43d 9a51 e5bd 73e4 883d
00000110: c09e ed3c 0e34 f9bd 198e 1f3e ddcc 0a3c
00000120: c627 9bbd e54b a2bd c1a2 80bd 62e7 7abd
00000130: 488e 3138 1159 e8bd 3e18 0abe 4f18 fdbd
00000140: 3a99 88bd f381 34bd b2db 933b 9405 3d3a
00000150: 4e75 593d 2038 bdbd d305 ef3d 5884 ba3d
00000160: 99cd ebbd c1b1 8fbd 8158 9bbd 956d ffbb
00000170: 7e10 17be 3315 083d dd74 633d d993 a23d
00000180: 629c 843d 35a9 61bd 5add cbbd 419c aa3d
00000190: 6e5c 9ebc e821 e7bd e34a cc3d c7ae 943d
000001a0: c929 d23d 5e87 cebd a9d2 17bd ea04 b93d
000001b0: f334 11be a20b 2ebe de34 cbbd a2bb 263d
000001c0: 58fe 07be 1b80 683d ed87 a7bd 4d3f 76bd
000001d0: d19f 18bd 55d9 a43d 0980 f03d 8122 983d
000001e0: 3a4a dabd 4a81 dbbc a563 a33d 129c 733d
000001f0: 9d1e 75bd 4f26 833d 4fc6 93bb 02c1 06be
00000200: d783 8b3d 8b6a d6bc e461 483d a7ef c43d
00000210: 4492 b23d fc27 b53c 3d1e e2bb ddd9 14bd
00000220: 29a0 f8bd d679 09be 0417 063e b0eb 12bd
00000230: 280c dd3c 9aa4 64bd b29c 863d 0903 dabc
00000240: 00db dabd a440 f83d 1618 99bd 208d 283d
00000250: 4094 01bc aa1a 1c3e 805a a53c eb27 3cbd
00000260: aee8 923d 636b cd3d 2c22 b8bd 7e9f af3d
00000270: 1314 233e d2ab 8ebd 3c9e 4dbc 96aa 0fbd
00000280: 6e4a 153d 6786 92bd 6aa3 e4bd a0ba 633d
00000290: 4b2c 2e3d 1218 5dbd e8ce 833d 0e0b d03d
000002a0: a0ad cc3c ecd6 8d3b ab8b 9f3d c9af 0bbe
000002b0: 01df 9abd e6d8 163d ec9d 80bd fda6 063e
000002c0: a8f0 c2bc bc51 dfbd d24e 8cbd 4ac5 06bd
000002d0: a9b9 68bd 3c51 7e3d c2c4 e63c ac46 cabd
000002e0: c861 1d3d ec0e e93d e731 d93b 9743 00be
000002f0: 43b3 733d a90c 17be 6789 80bd 57e2 253d
00000300: 0c2b 1bbe c027 c33c 2578 793d 360e 043e
00000310: 54e2 363d f49b ddbb 50ad ec3c 7d80 20be
00000320: 85f8 92bd 759d b0bd bf79 77bd 0302 14be
00000330: ef5f b4bd e340 4dbc 7bc2 213d 51ba a8bd
00000340: 36df fc3d 7160 9e3d d680 c13d b1c9 22bd
00000350: 7437 48bd 93b9 c5bd 0d87 8ebd 1f8b bdbc
00000360: 5de0 453d f180 84bd 5152 ca3d 6d33 a03d
00000370: 2aed c43d 3d77 203d baf6 12be 679a e23d
00000380: 5821 ab39 d0cd 1b3e 631c 1b3e 44fc a93c
00000390: a37f 663d fade c4bd b335 033e 2629 e9bd
000003a0: 7b43 c63d 6c48 5cbd 0f6e 133e 31cd 2d3c
000003b0: b95d 95bd 3d90 953d 1bda dd3c a6c4 7d3d
000003c0: c675 b8bd 755d 8dbd 546a f5bc 36b1 73bd
000003d0: db1b b83d abef 7f3d 31e7 2abd bd7c 983d
000003e0: 595b 143e 52cc 90bd 5d3d c53d 775c e7bd
000003f0: 57cb e4bd cc1b 03be f27a 1e3c d2af e83d

cnn.layer2.0.bias f4 [32]
0.00013587925 0.0006076165 -0.0006931982 -5.0463117e-05 0.00018614205 -0.00023780453 0.0012433717 -0.0001972249
-0.00017662728 -0.00013814037 -0.00016979742 0.00017744704 -0.00030976042 -7.83447e-05 6.69711e-05 0.0013974311
0.00021078078 -0.0004159643 0.00013122166 2.8974384e-05 -0.00035206368 0.0013841024 -0.0013973274 0.000469023
-0.0023090483 -0.00014954395 -0.002980226 8.345271e-05 -0.0036086973 -0.0017056082 0.0019032282 -0.00034449797
00000000: cf7a 0e39 7448 1f3a beb7 35ba 5ca8 53b8
00000010: 202f 4339 2b5b 79b9 a2f8 a23a 28ce 4eb9
00000020: 0635 39b9 c6d9 10b9 a60b 32b9 1411 3a39
00000030: 5767 a2b9 fe4c a4b8 d672 8c38 022a b73a
00000040: 0905 5d39 c915 dab9 8c98 0939 040e f337
00000050: 3095 b8b9 c56a b53a 8726 b7ba 34e7 f539
00000060: 6753 17bb e6ce 1cb9 e54f 43bb 5503 af38
00000070: e57f 6cbb b78e dfba be75 f93a bc9d b4b9

cnn.layer2.1.weight f4 [32]
1.0070368 1.0110332 0.9686558 1.0003908 0.96058995 0.98445994 0.993383 1.0080243
1.0139879 0.9462909 0.9917344 0.9908041 0.97986174 0.98016137 1.011442 1.0376648
1.0042003 0.9854048 1.0024972 1.0071857 1.0269209 1.0061927 0.98055893 1.0023905
0.9863705 1.0333136 1.046045 1.0026447 1.0418386 0.9857919 1.0056398 1.0060334
00000000: 95e6 803f 8969 813f d4f9 773f ce0c 803f
00000010: 39e9 753f 9105 7c3f 594e 7e3f f106 813f
00000020: 5bca 813f 1f40 723f 4ee2 7d3f 56a5 7d3f
00000030: 38d8 7a3f dbeb 7a3f ee76 813f 33d2 843f
00000040: a389 803f 7d43 7c3f d451 803f 76eb 803f
00000050: 2572 833f ecca 803f e905 7b3f 554e 803f
00000060: c782 7c3f 9f43 843f cde4 853f a956 803f
00000070: f85a 853f dc5c 7c3f ceb8 803f b4c5 803f

cnn.layer2.1.bias f4 [32]
-0.08452632 0.015380268 -0.031840224 -0.04980784 -0.038044572 -0.043065723 -0.018382577 -0.097304225
0.016045438 -0.082411 -0.04243407 -0.110369 -0.011905642 -0.0071816444 0.01851035 -0.1278424
-0.014892739 -0.03082173 -0.007458215 -0.031214563 0.051237203 -0.049865857 -0.107593894 -0.099038385
-0.029885778 -0.034281094 -0.055838954 0.039097182 -0.098043844 -0.038555846 -0.056621008 -0.027930973
00000000: 231c adbd 85fd 7b3c e56a 02bd 4e03 4cbd
00000010: a0d4 1bbd af65 30bd 0f97 96bc 7047 c7bd
00000020: b971 833c 19c7 a8bd 59cf 2dbd 2409 e2bd
00000030: e20f 43bc 0054 ebbb 04a3 973c 1ee9 02be
00000040: ad00 74bc da7d fcbc 0b64 f4bb afb5 ffbc
00000050: 1ade 513d 2440 4cbd 305a dcbd a3d4 cabd
00000060: 05d3 f4bc 556a 0cbd 63b7 64bd 5e24 203d
00000070: 36cb c8bd bcec 1dbd 6eeb 67bd 7fcf e4bc

cnn.layer2.1.running_mean f4 [32]
0.12636743 -0.12143047 -0.081362404 -0.010132081 0.12523843 -0.10850677 -0.21651863 0.18429402
-0.29412284 -0.0534105 0.27452832 0.25111708 -0.18439062 0.31377456 -0.10388692 0.24578224
-0.13436714 -0.0568661 -0.075406 0.02330035 -0.25219524 -0.027945265 0.11171412 0.48792607
0.23069157 0.06639707 0.16056882 -0.40321726 -0.05313952 -0.09119682 -0.038682677 0.010315932
00000000: 7766 013e 8ab0 f8bd 55a1 a6bd 0701 26bc
00000010: 813e 003e cc38 debd 0fb7 5dbe 92b7 3c3e
00000020: 4597 96be f8c4 5abd fa8e 8c3e 6b92 803e
00000030: e5d0 3cbe 0fa7 a03e aac2 d4bd 57ae 7b3e
00000040: 8a97 09be 6dec 68bd 766e 9abd 60e0 be3c
00000050: bc1f 81be 78ed e4bc 5fca e43d 72d1 f93e
00000060: 693a 6c3e 30fb 873d 276c 243e 7e72 cebe
00000070: d3a8 59bd 66c5 babd ba71 1ebd 2804 293c

cnn.layer2.1.running_var f4 [32]
0.067148045 0.11640041 0.2583844 0.074733146 0.17498636 0.26553318 0.18306427 0.14795308
0.123287454 0.26791573 0.15507986 0.14132814 0.16680527 0.18709919 0.22743428 0.08476126
0.1281756 0.13991238 0.15020925 0.04403118 0.07820171 0.073691994 0.028904438 0.15248132
0.12912291 0.16406582 0.04272282 0.32770246 0.048024777 0.32166502 0.050586943 0.13540204
00000000: ea84 893d 5763 ee3d f64a 843e b10d 993d
00000010: a02f 333e f7f3 873e 3375 3b3e 0381 173e
00000020: 227e fc3d 402c 893e 41cd 1e3e 53b8 103e
00000030: 00cf 2a3e ee96 3f3e 88e4 683e 5097 ad3d
00000040: 7740 033e 3145 0f3e 74d0 193e 0a5a 343d
00000050: 3828 a03d d4eb 963d 00c9 ec3c 1024 1c3e
00000060: cc38 043e df00 283e 20fe 2e3d 9ec8 a73e
00000070: a1b5 443d 47b1 a43e 4134 4f3d d5a6 0a3e

cnn.layer3.0.weight f4 [64, 32, 3]
-0.040588968 0.102474555 0.077668175 -0.03760028 -0.0074070944 -0.055204097 -0.031761266 -0.09284373
0.022033552 -0.08863524 0.068311095 -0.015627833 -0.091278695 -0.05207069 0.067024276 -0.04204732
-0.05166355 -0.041559648 0.0536086 -0.083354466 0.021340493 0.11917606 0.007573734 -0.056256365
0.06882232 -0.0702157 -0.059203703 0.0022568014 0.00826046 0.0053589577 0.07215484 -0.017813995
-0.06554802 0.043633286 -0.089413695 0.004862732 -0.03596603 -0.05516869 -0.02052731 0.04269977
0.009885223 -0.11845635 -0.02369013 0.0038680336 -0.071211316 0.05760596 0.051133614 -0.08717131
-0.097961254 0.041866753 -0.067490265 0.0651295 -0.08314346 0.02903635 0.10126598 -0.040577352
0.062249724 -0.039411124 -0.093633264 -0.08189096 -0.0030173482 -0.019929767 -0.08143799 -0.018794747
-0.061085418 0.04956857 -0.08861234 -0.05064466 0.06814413 -0.06842185 0.056117624 0.02766222
-0.114350125 -0.0068788235 0.072662845 -0.0473933 -0.03862738 -0.08693678 0.09462677 0.06361981
0.057215616 0.020305056 0.028130718 0.011699327 -0.070753165 -0.04157521 0.05449359 -0.10703658
0.06386343 0.08091414 -0.0694745 0.05985044 -0.06587325 0.012457506 0.004795903 0.04938971
0.042087708 -0.035720326 0.004870793 -0.070701726 -0.039621975 0.0059987996 0.009891305 -0.010281174
-0.05659615 -0.08652898 0.033861555 -0.0012173366 0.07026586 -0.090822525 -0.033283174 0.055008136
-0.05758818 -0.083789185 -0.01862555 -0.07449886 -0.071396664 0.03866563 -0.09917484 0.06416358
0.089794256 0.010738143 -0.034109656 0.032244053 -0.030776469 0.07389605 -0.08537571 -0.03941184
0.0055234707 -0.08596512 0.08502523 0.07121532 -0.0020816617 -0.06381411 0.029884337 -0.06293115
0.07045747 0.040866107 0.08298318 -0.08009938 0.08597826 -0.01757448 0.109709606 0.003944628
-0.05106323 -0.018403517 -0.005845747 0.007070313 -0.025197059 0.06361182 0.072653756 0.00055658363
0.020651078 0.10439338 0.060680605 0.045481827 -0.08544818 0.058512684 -0.021660514 0.10840619
0.039333254 0.036272522 0.06230312 -0.07149283 -0.10381457 0.025036797 -0.025574185 0.087230146
0.078450486 -0.0076114284 0.036466245 0.047885243 -0.03789933 -0.05572858 0.041794073 0.11407048
0.06175561 -0.08116714 0.06435348 0.06007446 -0.093334645 -0.036793526 0.10808954 -0.017573949
-0.09557776 0.005795049 0.053424913 -0.049750347 -0.11426452 0.019116016 -0.05918563 0.020949766
-0.08486921 -0.054796852 -0.105301395 -0.12097552 0.040290624 0.094625115 -0.067241624 -0.060603432
-0.087699115 0.06744077 0.07421078 -0.0713507 0.058030188 0.07702489 0.01692798 -0.006528795
0.085162334 -0.048659578 -0.03007609 0.014931872 -0.047778636 0.03425258 0.09170277 -0.04388861
-0.018171499 -0.04430644 0.023791729 -0.09750705 -0.020932464 -0.05411227 -0.022158021 0.02539026
-0.05601557 0.041915637 -0.022840684 -0.09704945 0.029344736 -0.044028915 -0.028594028 -0.0068533057
-0.059838716 0.04574541 -0.033750523 0.0156282 0.032307878 0.004697416 0.04540547 -0.06981865
-0.030683199 -0.030987045 0.10649984 0.016674595 -0.07659685 0.0258015 0.09032098 0.057692118
-0.07767017 -0.02902567 0.04222847 0.023766646 -0.026481466 -0.016282387 -0.041572385 -0.01850767
00000000: 9e40 26bd 2ede d13d 7e10 9f3d c002 1abd
00000010: 36b7 f2bb b11d 62bd 1a18 02bd da24 bebd
00000020: b57f b43c 6586 b5bd b0e6 8b3d f105 80bc
00000030: 53f0 babd 1348 55bd 0644 893d d039 2cbd
00000040: 299d 53bd 733a 2abd b194 5b3d bfb5 aabd
00000050: 42d2 ae3c 9412 f43d 162d f83b 136d 66bd
00000060: b7f2 8c3d 40cd 8fbd 957f 72bd d8e6 133b
00000070: e156 073c 329a af3b ebc5 933d a8ee 91bc
00000080: 0a3e 86bd d1b8 323d 871e b7bd 8d57 9f3b
00000090: 1e51 13bd 90f8 61bd e428 a8bc f4e5 2e3d
000000a0: a1f5 213c 3e99 f2bd ce11 c2bc d67e 7d3b
000000b0: 3dd7 91bd 3af4 6b3d 7b71 513d df86 b2bd
000000c0: e99f c8bd 797c 2b3d 5638 8abd 9e62 853d
000000d0: 1e47 aabd a4dd ed3c 8a64 cf3d 7034 26bd
000000e0: 91f9 7e3d 8f6d 21bd ccc2 bfbd 73b6 a7bd
000000f0: b4be 45bb c043 a3bc f6c8 a6bd 71f7 99bc
00000100: b434 7abd 6a08 4b3d 637a b5bd c670 4fbd
00000110: 268f 8b3d c120 8cbd 98db 653d e19b e23c
00000120: 6630 eabd c167 e1bb 42d0 943d 7a1f 42bd
00000130: be37 1ebd e90b b2bd aecb c13d 1a4b 823d
00000140: ec5a 6a3d ca56 a63c 6472 e63c 89ae 3f3c
00000150: 09e7 90bd c44a 2abd ac34 5f3d ff35 dbbd
00000160: d4ca 823d 50b6 a53d a648 8ebd bc25 753d
00000170: 8ee8 86bd 911a 4c3c f326 9d3b dd4c 4a3d
00000180: 2964 2c3d 7a4f 12bd 2c9b 9f3b 11cc 90bd
00000190: a74a 22bd 9491 c43b 240f 223c 5f72 28bc
000001a0: 5dd1 67bd 1b36 b1bd 6ab2 0a3d 0a8f 9fba
000001b0: 8ce7 8f3d 2901 babd f053 08bd 3650 613d
000001c0: 95e1 6bbd aa99 abbd 9c94 98bc dc92 98bd
000001d0: 6a38 92bd da5f 1e3d 2e1c cbbd 3268 833d
000001e0: 0de6 b73d 09ef 2f3c 91b6 0bbd 5712 043d
000001f0: ef1e fcbc d056 973d 76d9 aebd 4f6e 21bd
00000200: 3bfe b43b 7b0e b0bd b521 ae3d 56d9 913d
00000210: 7d6c 08bb f9b0 82bd ffcf f43c 0ce2 80bd
00000220: 024c 903d 3863 273d 16f3 a93d 250b a4bd
00000230: 5f15 b03d 5bf8 8fbc 6eaf e03d f041 813b
00000240: ad27 51bd f9c2 96bc ae8d bfbb 16ae e73b
00000250: 106a cebc ea46 823d 7ecb 943d b2e7 113a
00000260: 732c a93c 32cc d53d 3a8c 783d 274b 3a3d
00000270: 75ff aebd ffaa 6f3d 6471 b1bc 1104 de3d
00000280: e81b 213d 7f92 143d 8e31 7f3d d56a 92bd
00000290: bc9c d4bd f819 cd3c f480 d1bc b8a5 b23d
000002a0: a6aa a03d 4a69 f9bb a15d 153d 5123 443d
000002b0: 543c 1bbd a743 64bd 4330 2b3d c99d e93d
000002c0: 73f3 7c3d f53a a6bd c2cb 833d a310 763d
000002d0: 3c26 bfbd cfb4 16bd 0c5e dd3d 3ef7 8fbc
000002e0: 46be c3bd 65e4 bd3b 15d4 5a3d 05c7 4bbd
000002f0: 8403 eabd 3199 9c3c a26c 72bd d89e ab3c
00000300: e9cf adbd aa72 60bd 42a8 d7bd 03c2 f7bd
00000310: c807 253d d0ca c13d fab5 89bd 4e3b 78bd
00000320: 989b b3bd 631e 8a3d d2fb 973d 5120 92bd
00000330: 10b1 6d3d 3abf 9d3d 8cac 8a3c 81ef d5bb
00000340: 9769 ae3d 444f 47bd 2262 f6bc cfa4 743c
00000350: 88b3 43bd 6f4c 0c3d a9ce bb3d 8bc4 33bd
00000360: 65dc 94bc ab7a 35bd dfe6 c23c c7b1 c7bd
00000370: 8f7a abbc d4a4 5dbd bd84 b5bc 3cff cf3c
00000380: 9570 65bd bbaf 2b3d 631c bbbc ddc1 c6bd
00000390: 5f64 f03c aa57 34bd 063e eabc b291 e0bb
000003a0: 7119 75bd 8a5f 3b3d fd3d 0abd b606 803c
000003b0: 4455 043d c8ec 993b 16fb 393d 15fd 8ebd
000003c0: 555b fbbc 8bd8 fdbc 971c da3d 2999 883c
000003d0: cfde 9cbd ab5d d33c 35fa b83d 924e 6c3d
000003e0: 8a11 9fbd 3ec7 edbc c3f7 2c3d 45b2 c23c
000003f0: a9ef d8bc a462 85bc ce47 2abd 669d 97bc

cnn.layer3.0.bias f4 [64]
3.8578582e-06 -0.00020076337 2.160621e-05 -0.0005606895 0.00076380296 -0.000235705 0.00013989754 -0.0001142268
-3.4798115e-05 1.529447e-05 -8.199262e-06 0.00011233788 -0.00032537113 -0.00011962399 5.0333918e-05 1.1835538e-05
-0.00034915959 -0.00039832573 8.064847e-05 -0.00024637976 -9.325582e-05 -0.0002031989 -0.00050334557 0.0001317881
0.00010110608 2.631484e-05 9.526087e-05 0.00012442366 0.00040009143 0.00044564437 -0.00032509182 7.494423e-05
0.00058113947 -0.0004643041 -1.7724378e-06 0.00037542236 -0.000214136 0.00025494944 -0.00011416836 -0.00010025174
-0.00023465155 -0.0005128368 -0.00014360617 0.00028557362 0.00023846509 0.00015764176 -0.00019481554 -0.00022155365
-0.00067586714 -0.00030102645 0.00016262902 0.00014498018 -0.0001124267 -3.93171e-05 0.00017714381 0.00046425822
0.00012253415 0.00015192386 0.00017641963 -3.309727e-05 5.628667e-05 -0.000102409904 -0.00038978705 -4.473104e-05
00000000: c072 8136 0284 52b9 fc3e b537 3cfb 12ba
00000010: f339 483a 9427 77b9 76b1 1239 0c8d efb8
00000020: 31f4 11b8 a04c 8037 908f 09b7 f196 eb38
00000030: 9396 aab9 a4de fab8 a21d 5338 4091 4637
00000040: 680f b7b9 60d6 d0b9 d121 a938 882c 81b9
00000050: 5692 c3b8 ca11 55b9 f3f2 03ba 9930 0a39
00000060: ea08 d438 b0be dc37 cac6 c738 b977 0239
00000070: 5dc3 d139 60a5 e939 1671 aab9 612b 9d38
00000080: 9c57 183a d76d f3b9 80e4 edb5 56d4 c439
00000090: b289 60b9 bcaa 8539 ac6d efb8 3e3e d2b8
000000a0: cc0c 76b9 e56f 06ba fd94 16b9 0bb9 9539
000000b0: 7c0c 7a39 a34c 2539 6647 4cb9 db50 68b9
000000c0: ad2c 31ba 16d3 9db9 6587 2a39 d205 1839
000000d0: a0c6 ebb8 6ae8 24b8 aebf 3939 af67 f339
000000e0: 837c 0039 c04d 1f39 49fd 3839 ecd1 0ab8
000000f0: 5a15 6c38 e6c4 d6b8 555c ccb9 979d 3bb8

cnn.layer3.1.weight f4 [64]
1.0031619 0.993372 0.97618145 1.0283957 1.042578 1.0204393 1.0331826 0.9929588
1.0184531 1.0017054 0.99579066 0.9713533 1.0388801 0.9616648 1.0248574 1.0048507
0.9754126 0.99151486 0.99255836 1.0009232 1.0075135 1.0021077 1.0074649 0.9756632
0.9770244 0.9856729 1.0314869 1.0133052 1.013889 0.97774506 0.9953777 1.0160949
0.96538657 0.9817424 0.9972864 1.0339806 0.9853133 1.0238385 1.0038397 0.9984759
0.9995861 1.0384591 0.9985017 0.94702446 0.97763145 0.9923121 0.9887482 1.0159539
1.0181913 0.95017636 0.97151595 1.0447801 0.9763816 0.99350935 0.937671 1.0310153
0.97533333 1.0186366 1.0003991 1.0484557 1.0491871 1.0178049 1.0135739 0.97184306
00000000: 9c67 803f a14d 7e3f 07e7 793f 78a2 833f
00000010: 3273 853f c19d 823f 543f 843f 8c32 7e3f
00000020: ac5c 823f e237 803f 23ec 7e3f 9caa 783f
00000030: 06fa 843f aa2f 763f 872e 833f f39e 803f
00000040: a4b4 793f ebd3 7d3f 4e18 7e3f 401e 803f
00000050: 34f6 803f 1145 803f 9cf4 803f 10c5 793f
00000060: 451e 7a3f 0f55 7c3f c307 843f fcb3 813f
00000070: 1dc7 813f 804d 7a3f 13d1 7e3f 660f 823f
00000080: 9323 773f 7853 7b3f 294e 7f3f 7a59 843f
00000090: 7e3d 7c3f 240d 833f d27d 803f 1e9c 7f3f
000000a0: e0e4 7f3f 3aec 843f cf9d 7f3f 3270 723f
000000b0: 0e46 7a3f 2a08 7e3f 9a1e 7d3f c70a 823f
000000c0: 1854 823f c23e 733f 45b5 783f 5bbb 853f
000000d0: 25f4 793f a156 7e3f 350b 703f 4ff8 833f
000000e0: 72af 793f af62 823f 140d 803f cc33 863f
000000f0: c34b 863f 6e47 823f cabc 813f b5ca 783f

cnn.layer3.1.bias f4 [64]
0.015309967 -0.068345696 -0.027157394 -0.11697972 -0.029745705 0.028074922 0.03391779 -0.066105306
0.032543246 -0.04011129 0.037096232 -0.047925126 0.044774033 -0.09180947 -0.11128584 -0.09107711
-0.05286131 -0.043390054 -0.097041704 0.035357624 -0.067808755 -0.034862712 -0.063620925 -0.05284266
-0.03257384 -0.073253766 -0.03714026 0.040540513 0.0078211725 -0.10657334 -0.029654961 -0.036465604
-0.06402809 -0.07679939 -0.04626697 -0.024656722 -0.08267488 -0.05700041 -0.096663386 0.018065924
-0.036099155 -0.05774375 0.026499644 -0.026587423 -0.060523096 0.0058552134 -0.05624707 -0.007369411
-0.093364306 -0.05512451 -0.06397435 0.044931453 -0.032216612 -0.07724876 -0.03566472 -0.08358304
-0.0880343 0.047236566 0.0043200906 -0.063975446 0.045469116 -0.074591696 -0.045670666 -0.08663541
00000000: a8d6 7a3c d4f8 8bbd 2f79 debc 1093 efbd
00000010: 44ad f3bc 61fd e53c 61ed 0a3d 3862 87bd
00000020: 114c 053d bc4b 24bd 38f2 173d 234d 44bd
00000030: fa64 373d 9a06 bcbd d5e9 e3bd a386 babd
00000040: 1a85 58bd c5b9 31bd cdbd c6bd 28d3 103d
00000050: 51df 8abd 34cc 0ebd b04b 82bd 8c71 58bd
00000060: 266c 05bd 1206 96bd 6320 18bd cf0d 263d
00000070: 6024 003c 2043 dabd f6ee f2bc f55c 15bd
00000080: 2921 83bd 0049 9dbd 6f82 3dbd e5fc c9bc
00000090: 7351 a9bd 4379 69bd 74f7 c5bd fdfe 933c
000000a0: b5dc 13bd b684 6cbd c815 d93c decd d9bc
000000b0: 11e7 77bd 17dd bf3b 5463 66bd 1a7b f1bb
000000c0: c935 bfbd 3dca 61bd fc04 83bd 0b0a 383d
000000d0: 91f5 03bd 9934 9ebd 2b15 12bd 962d abbd
000000e0: 544b b4bd 217b 413d 8c8f 8d3b 8f05 83bd
000000f0: d33d 3a3d 88c3 98bd 2a11 3bbd e86d b1bd

cnn.layer3.1.running_mean f4 [64]
-0.500793 0.108349055 -0.1661791 0.20963806 0.0492336 -0.41032594 -0.50883937 0.19511816
-0.16042389 0.07150354 -0.20738749 0.3569516 -0.4891731 0.29795158 0.078625016 -0.09364496
-0.25008944 0.033229902 0.53648055 -0.72562194 0.3216724 -0.39314306 0.088047996 0.30435562
-0.30632564 0.18336654 0.08561412 -0.72499055 0.053234097 0.4760611 0.12952386 0.088976495
0.025618546 0.43532762 0.4461996 0.14081927 0.07127068 0.117888846 0.26912695 -0.8969221
-0.55743045 -0.0939378 -0.1914069 0.2887754 0.39772674 -0.08499707 0.10812208 -0.14135873
0.5423055 0.12956667 0.7682151 -0.6160215 0.24806939 0.6551438 -0.12187315 0.47088408
0.6727573 -0.5769608 0.061634008 0.49096227 -0.29184994 -0.028943736 0.2629376 -0.08995189
00000000: f833 00bf 1ce6 dd3d db2a 2abe 5cab 563e
00000010: 2ca9 493d 3e16 d2be 4c43 02bf 0ecd 473e
00000020: 2946 24be 7370 923d 635d 54be 5cc2 b63e
00000030: e674 fabe 1c8d 983e 2706 a13d eec8 bfbd
00000040: b90b 80be 141c 083d ca56 093f 5cc2 39bf
00000050: 3fb2 a43e 0c4a c9be 8252 b43d 80d4 9b3e
00000060: b7d6 9cbe 70c4 3b3e 7556 af3d fb98 39bf
00000070: ff0b 5a3d 48be f33e e7a1 043e 4f39 b63d
00000080: fcdd d13c 43e3 de3e 4674 e43e ed32 103e
00000090: 5df6 913d b56f f13d 02cb 893e b09c 65bf
000000a0: c3b3 0ebf 7662 c0bd 2c00 44be 5fda 933e
000000b0: d7a2 cb3e f212 aebd 1c6f dd3d 58c0 10be
000000c0: 89d4 0a3f 20ad 043e bfa9 443f 96b3 1dbf
000000d0: e705 7e3e 81b7 273f a198 f9bd b817 f13e
000000e0: d339 2c3f b4b3 13bf f173 7c3d 685f fb3e
000000f0: 5b6d 95be 6a1b edbc c29f 863e b238 b8bd

cnn.layer3.1.running_var f4 [64]
0.18318623 0.11217327 0.15692852 0.117531456 0.14292543 0.42720246 0.2973705 0.258681
0.34432974 0.15950176 0.30863935 0.13517511 0.24435282 0.2081441 0.1853093 0.11986445
0.17407481 0.14401205 0.4349319 0.603673 0.22812395 0.12813687 0.14968018 0.1254275
0.11755197 0.1731308 0.16037075 0.6281723 0.13400638 0.28169015 0.1889418 0.10276578
0.106091045 0.30772653 0.13912676 0.21089359 0.26393694 0.15624301 0.19268642 0.54867595
0.36745483 0.12166365 0.13519844 0.10906679 0.15261869 0.099863924 0.24745083 0.19978334
0.14618914 0.19417448 0.48021138 0.26179537 0.17445377 0.29046458 0.35771713 0.19168836
0.34950602 0.5717565 0.13965783 0.088564195 0.24911629 0.16196541 0.1901476 0.17249121
00000000: 2c95 3b3e 19bb e53d dfb1 203e 55b4 f03d
00000010: 0b5b 123e 48ba da3e f240 983e d671 843e
00000020: fd4b b03e 6e54 233e fa05 9e3e 586b 0a3e
00000030: a037 7a3e ba23 553e b9c1 3d3e 7e7b f53d
00000040: ab40 323e e577 133e 65af de3e 508a 1a3f
00000050: 5399 693e 5036 033e c345 193e 1170 003e
00000060: 16bf f03d 3349 313e 3b38 243e e6cf 203f
00000070: f838 093e b139 903e f679 413e de76 d23d
00000080: 4346 d93d 558e 9d3e 3f77 0e3e 7df4 573e
00000090: be22 873e 2bfe 1f3e 974f 453e 0776 0c3f
000000a0: 0a23 bc3e cb2a f93d 7671 0a3e 695e df3d
000000b0: 1348 1c3e 7585 cc3d c063 7d3e 0194 4c3e
000000c0: 9bb2 153e add5 463e 44de f53e 0b0a 863e
000000d0: 02a4 323e c6b7 943e b326 b73e f449 443e
000000e0: 74f2 b23e a25e 123f 7602 0f3e 2561 b53d
000000f0: 5718 7f3e 43da 253e 0db6 423e 89a1 303e

cnn.layer4.0.weight f4 [128, 64, 3]
0.036274742 -0.042803098 -0.04050706 -0.047149185 0.08343034 -0.0070626615 0.0346112 -0.062189225
-0.006718019 0.08759769 -0.041644964 0.02054016 0.026100483 0.046027217 0.008219426 -0.018212412
0.014212824 0.08109522 -0.047571737 0.081738025 0.0700462 0.04818663 0.034549247 0.050709672
0.0851116 0.053312946 0.018964408 0.050033256 -0.0037185599 -0.071102634 -0.057127338 0.06477888
0.00834822 -0.010904253 0.019656429 -0.043571077 0.04524784 0.065241635 0.009562633 0.04731231
-0.020380678 -0.040753614 0.095885366 0.01337352 0.0430769 -0.024001176 -0.032836378 0.0073581752
0.040413566 -0.026430603 0.04819306 0.039477758 -0.014296391 -0.019988237 0.029457377 0.06790608
-0.0034578324 0.01077835 0.040505126 0.0768377 0.033915684 0.042614926 0.028003963 0.06806839
0.022155741 0.02184955 0.002843401 0.014966253 0.017506974 -0.042918414 0.0651777 0.040756986
0.036271714 -0.06134005 -0.078043416 -0.008402153 -0.019732947 -0.016766867 0.057775263 0.071658306
0.00908143 0.040389024 0.034666922 0.054194212 -0.041569833 -0.030696224 -0.040206697 -0.048347823
-0.05824222 -0.039178427 -0.06135445 0.004201049 -0.038560264 0.03040552 -0.013269191 0.07384283
-0.05884193 -0.049597446 -0.017244732 -0.034338567 0.014076793 -0.01265215 0.008492268 0.0056911497
0.037837867 -0.06482674 0.02664598 0.04858981 -0.041169893 -0.04053125 0.027610283 -0.03614836
-0.04391138 0.08399527 0.05017231 0.010382268 -0.018641619 -0.025432259 0.073743634 0.008793099
0.005641459 0.03234016 -0.011830542 0.018668002 -0.0297006 0.048952915 -0.004464337 0.05350923
0.067974135 -0.0037211352 -0.029090133 0.021612836 -0.031115491 0.006622237 0.03726515 -0.07761387
0.02545437 0.012744794 -0.026577141 0.07284359 -0.013602482 0.005680517 -0.047071036 -0.058856383
0.070890844 -0.014508935 0.08151644 0.039042953 0.042916205 -0.0209412 -0.043737445 0.07206291
0.016265238 0.069495276 -0.007329615 0.13141495 -0.039442454 -0.0683897 -0.07544795 0.00046779154
0.0567338 0.06453577 0.03407846 -0.041886393 -0.067399114 0.00686955 -0.021870216 -0.038972925
0.013802462 0.07842019 0.030457102 0.10566522 0.008546701 0.092219144 0.06722686 0.008357598
-0.009074261 -0.0023001074 -0.014260753 -0.047819577 0.07783218 0.041773453 0.032499563 0.0045189634
0.056259066 -0.017317727 0.0018114296 0.02389834 -0.013012526 -0.069555886 0.06670576 0.021498537
-0.06856027 -0.05454126 0.08624424 -0.08998572 -0.06023105 0.057252567 -0.057670932 0.041633356
0.03339502 -0.05106661 -0.070388764 -0.021331124 -0.08807125 -0.03955118 0.04845196 0.028581638
-0.017984714 -0.0009161954 -0.073792815 -0.032039348 -0.057495072 -0.030737435 -0.032716148 0.046875406
-0.038801912 0.03521007 -0.08305973 0.0674526 -0.03039121 0.061965354 -0.064996324 0.013795884
0.026840797 0.026295835 0.0028497973 0.050973717 -0.10008326 -0.01457814 0.030477375 0.039901715
-0.033973973 -0.006464649 -0.011538959 -0.0077684373 -0.038809776 0.0006706085 0.0072772517 -0.044351865
-0.029818792 -0.032118205 0.0091046775 0.0471664 0.080893405 -0.037300356 -0.010736419 0.04227039
-0.001443733 -0.041743416 -0.018230287 0.006801588 0.041866448 0.031532858 -0.019797744 0.060083788
00000000: d394 143d 4d52 2fbd bbea 25bd 811f 41bd
00000010: 87dd aa3d e66d e7bb 79c4 0d3d 21ba 7ebd
00000020: d422 dcbb 6b66 b33d e993 2abd d643 a83c
00000030: aed0 d53c 0987 3c3d c5aa 063c 3232 95bc
00000040: e8dc 683c 4015 a63d 95da 42bd 4466 a73d
00000050: 6274 8f3d 585f 453d 8383 0d3d f2b4 4f3d
00000060: fe4e ae3d ad5e 5a3d 3f5b 9b3c acef 4c3d
00000070: 15b3 73bb 429e 91bd 5bfe 69bd caaa 843d
00000080: f9c6 083c c1a7 32bc 8506 a13c 9677 32bd
00000090: cd55 393d 689d 853d 97ac 1c3c 8eca 413d
000000a0: 61f5 a6bc 43ed 26bd 8c5f c43d 9c1c 5b3c
000000b0: 6771 303d 1d9e c4bc 707f 06bd d91c f13b
000000c0: b288 253d fe84 d8bc 1666 453d 6eb3 213d
000000d0: 693b 6abc 5fbe a3bc 9950 f13c 5812 8b3d
000000e0: cd9c 62bb ad97 303c b4e8 253d 165d 9d3d
000000f0: 2ceb 0a3d fd8c 2e3d 9168 e53c 7167 8b3d
00000100: f57f b53c d4fd b23c 5a58 3a3b 0435 753c
00000110: c96a 8f3c 38cb 2fbd e37b 853d ccf0 263d
00000120: a691 143d b43f 7bbd 3ad5 9fbd 2fa9 09bc
00000130: fda6 a1bc ab5a 89bc c1a5 6c3d 97c1 923d
00000140: 47ca 143c f66e 253d e7fe 0d3d c0fa 5d3d
00000150: 2145 2abd a676 fbbc c7af 24bd 5e08 46bd
00000160: 658f 6ebd 8f79 20bd ce4e 7bbd f4a8 893b
00000170: 5ef1 1dbd ff14 f93c 0567 59bc e93a 973d
00000180: 3c04 71bd b126 4bbd d344 8dbc 99a6 0cbd
00000190: 59a2 663c f74a 4fbc 2723 0b3c d37c ba3b
000001a0: e1fb 1a3d e2c3 84bd ac48 da3c 1c06 473d
000001b0: c3a1 28bd 1904 26bd f62e e23c 4e10 14bd
000001c0: 6bdc 33bd b605 ac3d 7b81 4d3d 631a 2a3c
000001d0: 4fb6 98bc 5057 d0bc e706 973d ee10 103c
000001e0: fddb b83b 1e77 043d e4d4 41bc a3ed 983c
000001f0: ac4e f3bc da82 483d 9349 92bb 7f2c 5b3d
00000200: 0636 8b3d 4ade 73bb 6e4e eebc 670d b13c
00000210: eae5 febc 5aff d83b 58a3 183d 05f4 9ebd
00000220: af85 d03c 8acf 503c 4eb8 d9bc 052f 953d
00000230: f2dc 5ebc a123 ba3b 8fcd 40bd 6413 71bd
00000240: 382f 913d e2b6 6dbc 17f2 a63d 81eb 1f3d
00000250: e7c8 2f3d e18c abbc 0926 33bd b895 933d
00000260: ad3e 853c 8a53 8e3d 442d f0bb a491 063e
00000270: 698e 21bd e60f 8cbd 7484 9abd eb41 f539
00000280: b361 683d 542b 843d db95 0b3d 1191 2bbd
00000290: 8c08 8abd f619 e13b 2b29 b3bc 13a2 1fbd
000002a0: b923 623c c49a a03d 2c81 f93c 0267 d83d
000002b0: 7607 0c3c 64dd bc3d 3cae 893d 4fee 083c
000002c0: 36ac 14bc 66bd 16bb efa5 69bc 76de 43bd
000002d0: 7a66 9f3d a41a 2b3d 431e 053d d013 943b
000002e0: e86f 663d e8dd 8dbc 7e6d ed3a 74c6 c33c
000002f0: 7d32 55bc 5173 8ebd 089d 883d b31d b03c
00000300: 5469 8cbd a866 5fbd d2a0 b03d 6f4a b8bd
00000310: d5b4 76bd ab81 6a3d 5b38 6cbd bd87 2a3d
00000320: 37c9 083d 392b 51bd fc27 90bd 9cbe aebc
00000330: b35e b4bd 6b00 22bd 9075 463d 0a24 ea3c
00000340: ae54 93bc d52c 70ba b020 97bd b13b 03bd
00000350: f47f 6bbd 13cd fbbc 5e01 06bd 6d00 403d
00000360: c1ee 1ebd 6f38 103d 381b aabd 9724 8a3d
00000370: fdf6 f8bc 62cf 7d3d cb1c 85bd 2208 623c
00000380: 3be1 db3c 5d6a d73c aac3 3a3b d1c9 503d
00000390: 74f8 ccbd 27d9 6ebc b0ab f93c fb6f 233d
000003a0: 4b28 0bbd 68d5 d3bb e70d 3dbc 608e febb
000003b0: 00f7 1ebd c6cb 2f3a 0376 ee3b 4daa 35bd
000003c0: 8a46 f4bc 618e 03bd c92b 153c 8e31 413d
000003d0: 71ab a53d 42c8 18bd cee7 2fbc b723 2d3d
000003e0: a43b bdba 25fb 2abd af57 95bc dbdf de3b
000003f0: 277c 2b3d 9928 013d e12e a2bc 6b1a 763d

cnn.layer4.0.bias f4 [128]
0.0002243591 -9.887057e-05 -0.00018894862 -7.853246e-05 -0.00033767193 0.00029718233 0.00022022576 0.00021437732
-0.00016085982 -3.4117846e-05 0.0001270063 -0.0002143882 1.3399942e-05 5.4384396e-05 -0.0002063915 -0.00019954467
7.195302e-05 0.00029942757 0.00011210868 -0.00041748272 -2.6599773e-05 9.47626e-05 -0.0002735185 0.00022502877
3.0235486e-05 -0.00025994703 8.991333e-05 0.00035156455 0.00018341249 -0.00015600266 -5.889476e-05 -3.9641105e-05
0.00010868117 0.00013990662 0.00012071337 -0.0002460787 -0.00021260284 -0.00018718324 0.00011376229 -2.1027918e-05
0.00018340346 4.537534e-05 0.0001855462 0.0001232847 0.00011863304 0.00022256993 -0.00016535798 0.00014210516
0.00029381056 7.8048484e-05 -0.00014311358 -5.2231662e-05 -0.0002815023 -1.00440375e-05 6.747585e-05 0.0002427347
-0.00024073829 -1.3051824e-05 0.00015858511 -0.00010200551 0.000168717 -1.8642553e-05 8.4897656e-05 0.00025463564
-0.00014281523 -0.00051422114 -0.00017703717 0.000138897 -0.00020737472 0.000101256235 -4.4935943e-05 3.558697e-05
-0.00018450787 0.0001600654 -0.00024066756 -0.00029624844 -0.00018231057 -8.706748e-05 -0.00022632381 -0.0001912322
3.070556e-06 -0.00013759531 3.714666e-05 0.00017162158 3.7943202e-05 7.05256e-05 -0.00016901399 -0.00026050964
2.6982212e-05 9.7551325e-05 -0.0002289702 0.00022302198 0.00029318783 -9.6713484e-05 -0.00013554245 -9.650103e-07
0.00019461464 0.00029752374 -0.00046276095 7.407059e-05 9.237298e-05 -0.00016911692 -0.00020837695 -6.490485e-05
-0.00011572765 8.987535e-05 0.00017388177 0.0004782673 0.00018998329 0.00011631142 0.00024902713 0.0002461932
0.00023799423 2.9118273e-05 0.000101565405 0.00042158255 0.00020043334 -0.00014640031 -0.00014874071 7.0223046e-05
-1.8792634e-05 0.00012216491 5.666341e-05 0.000116731804 -0.00023147822 2.4112167e-05 -5.367791e-05 0.00022088584
00000000: f041 6b39 bc58 cfb8 8220 46b9 cbb1 a4b8
00000010: 8f09 b1b9 23cf 9b39 67ec 6639 79ca 6039
00000020: 7bac 28b9 c219 0fb8 fe2c 0539 65cd 60b9
00000030: 50d0 6037 cd1a 6438 cc6a 58b9 dd3c 51b9
00000040: 7ce5 9638 7dfc 9c39 e41b eb38 95e1 dab9
00000050: 9422 dfb7 49bb c638 0867 8fb9 b3f5 6b39
00000060: 36a2 fd37 8049 88b9 da8f bc38 3252 b839
00000070: 6a52 4039 a594 23b9 c405 77b8 5044 26b8
00000080: c2eb e338 e6b3 1239 7f27 fd38 2004 81b9
00000090: 24ee 5eb9 9e46 44b9 aa93 ee38 1c65 b0b7
000000a0: fe4f 4039 6651 3e38 2e8f 4239 fc45 0139
000000b0: a1ca f838 a961 6939 f263 2db9 1002 1539
000000c0: 960a 9a39 f6ad a338 c210 16b9 5213 5bb8
000000d0: 9996 93b9 d082 28b7 d281 8d38 9a86 7e39
000000e0: b16e 7cb9 28f9 5ab7 de49 2639 cbeb d5b8
000000f0: a0e9 3039 9462 9cb7 150b b238 9e80 8539
00000100: acc0 15b9 cccc 06ba 0ea3 39b9 e1a4 1139
00000110: ba72 59b9 8759 d438 9a79 3cb8 3843 1538
00000120: 7478 41b9 3bd7 2739 b55b 7cb9 cb51 9bb9
00000130: 9f2a 3fb9 ff97 b6b8 5651 6db9 8185 48b9
00000140: c00f 4e36 7647 10b9 eccd 1b38 51f5 3339
00000150: 3425 1f38 25e7 9338 5939 31b9 0395 88b9
00000160: dc57 e237 7894 cc38 b817 70b9 02db 6939
00000170: 01b7 9939 a8d2 cab8 6620 0eb9 8085 81b5
00000180: 7811 4c39 f6fc 9b39 b99e f2b9 5856 9b38
00000190: 5eb8 c138 fa54 31b9 c37f 5ab9 871d 88b8
000001a0: cfb2 f2b8 767b bc38 0854 3639 f3bf fa39
000001b0: 4036 4739 38ec f338 db8f 8239 7e13 8139
000001c0: 178e 7939 0443 f437 83ff d438 da07 dd39
000001d0: 6a2b 5239 0983 19b9 48f7 1bb9 b644 9338
000001e0: e0a4 9db7 6519 0039 e0a9 6d38 e9cd f438
000001f0: f6b8 72b9 7c44 ca37 3824 61b8 979d 6739

cnn.layer4.1.weight f4 [128]
1.059064 1.0265307 1.063714 1.0117728 1.0564574 1.0789018 0.9805802 1.028432
1.045326 1.0229756 1.0442954 1.0224419 1.0173006 1.0230626 0.98307735 1.0664766
1.0457841 1.0345843 0.9789644 1.047189 1.0392224 1.0584416 1.0690186 1.0253236
1.0115602 1.0029664 1.0218271 1.070235 1.0404648 1.064703 1.0753776 1.0520743
1.0827531 1.0558269 0.990546 1.0337013 1.0184324 1.0124109 1.0334567 1.033489
1.020347 1.056575 0.9921483 1.0206414 1.0178465 1.0223666 1.0620285 1.025537
1.0266213 1.0717965 1.0043554 1.0461162 1.0129027 1.0260842 1.0215101 1.0402558
1.0169033 1.0634634 1.0443395 1.0555092 1.0370362 1.0599478 1.0167145 1.0390203
1.0282805 1.0554963 1.0559753 1.0881164 1.075971 1.0734684 1.0482289 1.0331228
1.0237796 1.02656 1.0079665 1.0136167 1.0518037 1.03425 1.0617152 1.0179203
1.0370064 1.0192149 1.0333695 1.0159858 1.0143132 1.065092 1.0726442 1.0316961
1.0309052 1.0605245 1.0393285 1.0142902 1.021522 1.0143417 1.060414 1.0157386
1.092208 1.031974 0.9989681 1.0224584 1.0807675 1.011478 0.9798812 1.0318785
1.0336534 1.0849853 1.071123 1.0363908 1.0390029 1.0576432 0.98915976 1.0408169
1.0527364 1.0279208 1.0275189 1.0901186 0.97564065 1.0373323 1.0017922 1.039702
1.0852683 1.0506892 1.0213717 0.98050815 1.0481923 1.0372277 1.0012199 0.9983899
00000000: 698f 873f 5c65 833f c827 883f c581 813f
00000010: ff39 873f 7419 8a3f 4e07 7b3f a9a3 833f
00000020: 3ecd 853f ddf0 823f 79ab 853f 60df 823f
00000030: e836 823f b7f3 823f f5aa 7b3f 4e82 883f
00000040: 41dc 853f 426d 843f 699d 7a3f 4a0a 863f
00000050: 3d05 853f 047b 873f 9ad5 883f ce3d 833f
00000060: ce7a 813f 3461 803f 3bcb 823f 76fd 883f
00000070: f32d 853f 3048 883f f9a5 893f 5faa 863f
00000080: a797 8a3f 5625 873f 6c94 7d3f 5350 843f
00000090: fe5b 823f ae96 813f 4f48 843f 5e49 843f
000000a0: bb9a 823f d93d 873f 6efd 7d3f 61a4 823f
000000b0: cb48 823f e9dc 823f 8df0 873f cc44 833f
000000c0: 5468 833f a130 893f b88e 803f 23e7 853f
000000d0: cca6 813f ba56 833f d8c0 823f 1a27 853f
000000e0: e329 823f 921f 883f ebac 853f ed1a 873f
000000f0: 9abd 843f 5fac 873f b323 823f 9efe 843f
00000100: b29e 833f 811a 873f 332a 873f 6647 8b3f
00000110: 6bb9 893f 6a67 893f 5d2c 863f 5e3d 843f
00000120: 360b 833f 5166 833f 0c05 813f 31be 813f
00000130: 81a1 863f 4e62 843f 49e6 873f 364b 823f
00000140: a0bc 843f a275 823f 7445 843f d30b 823f
00000150: 04d5 813f ef54 883f 684c 893f 9e0e 843f
00000160: b4f4 833f 44bf 873f b708 853f 43d4 813f
00000170: 3cc1 823f f3d5 813f a5bb 873f b903 823f
00000180: 79cd 8b3f b917 843f 60bc 7f3f ebdf 823f
00000190: 9756 8a3f 1c78 813f 7fd9 7a3f 9814 843f
000001a0: c14e 843f cce0 8a3f 8f1a 893f 74a8 843f
000001b0: 0cfe 843f da60 873f 9339 7d3f 7d39 853f
000001c0: 11c0 863f e992 833f bd85 833f 0289 8b3f
000001d0: 96c3 793f 4ec7 843f ba3a 803f f514 853f
000001e0: 12ea 8a3f fc7c 863f 4fbc 823f 9502 7b3f
000001f0: 2a2b 863f e1c3 843f f927 803f 7b96 7f3f

cnn.layer4.1.bias f4 [128]
-0.036701936 -0.009530731 -0.027669935 -0.02419253 0.04438303 -0.01992853 -0.03582638 0.018835697
-0.0202075 0.0069328076 -0.021060174 0.007043055 -0.016414262 -0.0214063 -0.035256404 -0.010735914
-0.012770816 0.011616185 -0.04160987 0.016827805 0.027008262 0.026711954 0.011702975 0.018706795
-0.0296695 0.002786746 0.008857151 0.018822074 -0.02096044 -0.0036458895 -0.048708543 0.041268725
-0.028203288 0.044541698 -0.026558463 0.02550855 -0.009287817 -0.0007862034 -0.03213979 0.021887857
-0.006523189 -0.009447534 -0.012300609 -0.00054398255 -0.039689153 0.018024294 0.027770469 0.023098642
-0.015913054 0.013252589 -0.035473295 -0.03674432 0.0005587576 0.00069850124 0.03683805 0.0131708095
-0.027108984 0.001300563 0.0071921186 -0.004877159 -0.028566025 -0.039526682 -0.032285273 -0.020415965
0.03718448 -0.003944661 0.015666902 0.016652072 -0.048384223 0.014837699 -0.038234465 0.0031026483
-0.0118621 0.00015176616 0.00791435 0.0064639864 -0.037291422 0.033537462 0.013062323 -0.05435053
-0.015027782 -0.045265332 -0.022121413 0.011259694 0.015465336 -0.01697908 -0.026769632 0.045713708
-0.050829813 0.05017555 0.014857156 -0.037625875 -0.024436364 -0.02442231 -0.058901276 -0.062754765
-0.025482133 -0.020953504 -0.027653163 -0.0015450026 -0.0052040685 -0.007916289 -0.025742352 0.0038276634
-0.04767361 0.01445923 -0.030193236 0.05207193 -0.037075542 -0.036735617 -0.022124523 0.04473437
0.025649412 0.008201777 -0.06849296 -0.036667444 -0.030800916 -0.0537155 -0.023024628 -0.056411743
0.015889179 0.018852366 -0.0030661938 -0.02576098 0.04591159 -0.01806908 -0.0020686912 -0.05339715
00000000: c554 16bd c826 1cbc 0fac e2bc 6a2f c6bc
00000010: fbca 353d 2841 a3bc afbe 12bd 524d 9a3c
00000020: 338a a5bc 9b2c e33b 6386 acbc 6dc9 e63b
00000030: 3477 86bc 445c afbc 0569 10bd b0e5 2fbc
00000040: af3c 51bc d051 3e3c 1c6f 2abd 77da 893c
00000050: 6e40 dd3c 07d3 da3c d6bd 3f3c fe3e 993c
00000060: 740d f3bc d7a1 363b 951d 113c c030 9a3c
00000070: 3bb5 abbc e0ef 6ebb 9c82 47bd 6509 293d
00000080: 950a e7bc 5b71 363d 2291 d9bc 4ff7 d03c
00000090: ee2b 18bc 3819 4eba 03a5 03bd 2a4e b33c
000000a0: 7ac0 d5bb d4c9 1abc 7e88 49bc 0d9a 0eba
000000b0: 1891 22bd afa7 933c e57e e33c 5d39 bd3c
000000c0: 185c 82bc 6321 593c 724c 11bd 3681 16bd
000000d0: 9679 123a a01b 373a 7fe3 163d 61ca 573c
000000e0: a913 debc a777 aa3a ddab eb3b 93d0 9fbb
000000f0: 4c03 eabc bbe6 21bd 903d 04bd 623f a7bc
00000100: c14e 183d 3742 81bb e057 803c ed69 883c
00000110: 892e 46bd d219 733c be9b 1cbd cd55 4b3b
00000120: 4159 42bc 6b23 1f39 31ab 013c d9cf d33b
00000130: e4be 18bd 945e 093d 5b03 563c a99e 5ebd
00000140: 1637 76bc 2468 39bd f737 b5bc 947a 383c
00000150: 5262 7d3c b617 8bbc fd4b dbbc 4c3e 3b3d
00000160: ec32 50bd e184 4d3d 6e6b 733c 971d 1abd
00000170: c52e c8bc 4c11 c8bc 7742 71bd 9285 80bd
00000180: e8bf d0bc afa6 abbc e388 e2bc af81 caba
00000190: e486 aabb 53b3 01bc a0e1 d2bc 89d9 7a3b
000001a0: 6745 43bd 68e6 6c3c ce57 f7bc 6049 553d
000001b0: 86dc 17bd 1678 16bd 7d3e b5bc 633b 373d
000001c0: b71e d23c bf60 063c 0946 8cbd 9a30 16bd
000001d0: 3452 fcbc c904 5cbd 259e bcbc 0010 67bd
000001e0: 062a 823c 4770 9a3c 32f2 48bb b108 d3bc
000001f0: cb0d 3c3d 9b05 94bc e192 07bb f8b6 5abd

cnn.layer4.1.running_mean f4 [128]
0.73440564 -0.22937655 0.19018449 -0.011958963 -0.46708712 0.44347557 -0.40098378 0.47580153
0.4364727 -0.18467373 0.48273245 -0.33516964 0.5991061 0.3669011 -0.23352163 0.3739466
0.2502651 -0.63419735 -0.6297868 -0.44380805 -0.46632028 -0.29487848 -0.13905871 -0.2697435
-0.42943624 -0.17036414 -0.1630607 0.41677004 0.1346616 0.45633295 0.38967186 -0.37681964
0.45138192 -0.34819314 0.3370113 -0.25218248 -0.36270526 -0.253452 0.55647117 -0.3731983
0.18823825 0.61918277 -0.60698 0.43608442 -0.00079538376 -0.3679882 -0.5130324 -0.6662106
-0.043225404 -0.09442979 0.36728367 0.47448632 -0.88379896 -0.08261693 -0.38805693 0.3811631
-0.016798405 -0.17620711 0.5754538 0.2363479 0.9300742 0.7014263 0.4626358 0.4057346
-0.2895157 0.5041643 0.67844 0.19663972 0.21941344 0.0804229 0.7562405 0.3437132
0.049048077 0.067406334 -0.12436052 -0.6135172 0.4357758 0.13275082 0.027444854 0.7658732
-0.051204883 0.23169428 0.19125289 -0.86276156 -0.5464115 1.0767175 0.30626866 -0.80310977
0.7439507 0.08062119 0.08953552 0.6306374 -0.21949272 0.65098965 0.27960646 0.561072
0.789188 0.19461823 -0.16517147 -0.43041393 -0.16766448 -0.29043067 -0.30077294 0.561097
0.18199 0.1712676 0.32795948 -0.41136783 0.18970451 0.16272245 0.33041075 -0.2157307
-0.21997955 0.12585653 0.6112824 0.12725621 -0.7221205 0.5096371 0.5230282 0.58235604
-0.13294935 0.42879558 -0.13443248 -0.5243827 -0.41250935 0.5150534 -0.6568462 0.29011348
00000000: 0202 3c3f b0e1 6abe b9bf 423e 87ef 43bc
00000010: 0b26 efbe 3b0f e33e bf4d cdbe 429c f33e
00000020: 5a79 df3e 1c1b 3dbe b528 f73e 5b9b abbe
00000030: 045f 193f 76da bb3e 4b20 6fbe ee75 bf3e
00000040: bf22 803e c25a 22bf b539 21bf cf3a e3be
00000050: 88c1 eebe 50fa 96be 6865 0ebe d21b 8abe
00000060: 11df dbbe f073 2ebe 62f9 26be e262 d53e
00000070: bbe4 093e 79a4 e93e 1283 c73e 81ee c0be
00000080: 881b e73e 5f46 b2be bf8c ac3e 101e 81be
00000090: 81b4 b9be 76c4 81be e574 0e3f d913 bfbe
000000a0: 87c1 403e c382 1e3f 0b63 1bbf 7546 df3e
000000b0: 4d81 50ba f368 bcbe 1756 03bf c78c 2abf
000000c0: 1f0d 31bd 6864 c1bd 9b0c bc3e dfef f23e
000000d0: a640 62bf 1133 a9bd 66af c6be cf27 c33e
000000e0: cf9c 89bc a36f 34be f150 133f 2f05 723e
000000f0: 5819 6e3f ad90 333f 99de ec3e 72bc cf3e
00000100: 673b 94be e910 013f 3eae 2d3f ec5b 493e
00000110: ebad 603e c3b4 a43d fa98 413f 2dfb af3e
00000120: a3e6 483d 550c 8a3d bab0 febd 770f 1dbf
00000130: 011e df3e d5ef 073e 08d4 e03c 4410 443f
00000140: 36bc 51bd 4441 6d3e ccd7 433e f1dd 5cbf
00000150: a0e1 0bbf e1d1 893f 3fcf 9c3e 9a98 4dbf
00000160: 8e73 3e3f b91c a53d 665e b73d 7471 213f
00000170: b3c2 60be 42a7 263f 9428 8f3e 6aa2 0f3f
00000180: 3a08 4a3f 004a 473e b622 29be 375f dcbe
00000190: 3db0 2bbe 54b3 94be e9fe 99be 0ea4 0f3f
000001a0: 965b 3a3e c660 2f3e 4eea a73e ce9e d2be
000001b0: e641 423e b7a0 263e 992b a93e 82e8 5cbe
000001c0: 5242 61be 89e0 003e 017d 1c3f 744f 023e
000001d0: e4dc 38bf 9477 023f 2de5 053f 4915 153f
000001e0: e023 08be 188b db3e aba8 09be f23d 06bf
000001f0: 6d34 d3be 8ada 033f 1327 28bf c189 943e

cnn.layer4.1.running_var f4 [128]
0.19010262 0.11455904 0.15560494 0.15409538 0.13112764 0.17158346 0.34960344 0.10756175
0.12536663 0.13629772 0.17523882 0.28464407 0.13022985 0.1321965 0.30128384 0.11030785
0.11247162 0.1425522 0.42698547 0.12766601 0.1361424 0.11374321 0.22252849 0.374709
0.21588358 0.2421132 0.22037353 0.23641802 0.19052678 0.22729115 0.17641671 0.10356235
0.21708316 0.1276548 0.23105009 0.30201128 0.13183844 0.14108743 0.15865006 0.15935002
0.1349664 0.16977392 0.28841853 0.18497936 0.14669436 0.21894988 0.10670364 0.10848874
0.14674203 0.1277231 0.12642759 0.12198747 0.7376231 0.13546646 0.16094247 0.15144263
0.16310506 0.19796918 0.20093425 0.4580708 0.2791073 0.18716814 0.2155091 0.1297278
0.13760577 0.1776728 0.2991281 0.24030462 0.16783817 0.37691998 0.23275958 0.19201186
0.17168002 0.28363267 0.14229174 0.1746288 0.14621449 0.14748576 0.13512932 0.20722064
0.16090204 0.07157917 0.14888108 0.30083272 0.15970875 0.26709777 0.121424094 0.1675112
0.19868338 0.12036563 0.23773174 0.19990802 0.12608209 0.25655589 0.07509369 0.14131607
0.2679615 0.17649716 0.10738183 0.09610904 0.13962743 0.41276804 0.5736738 0.17044418
0.16797261 0.13342474 0.104156524 0.108604014 0.1365825 0.122498065 0.38996607 0.11023536
0.2811805 0.17167498 0.33185893 0.13096443 0.26622972 0.19185303 0.3183534 0.14184391
0.21540199 0.22837411 0.16974644 1.009486 0.14958169 0.2793481 0.23518671 0.14959791
00000000: 43aa 423e ee9d ea3d e756 1f3e 2ecb 1d3e
00000010: 5346 063e 93b3 2f3e 39ff b23e 5649 dc3d
00000020: 1c60 003e a191 0b3e ce71 333e debc 913e
00000030: f95a 053e 855e 073e e041 9a3e 15e9 e13d
00000040: 8557 e63d 34f9 113e d79d da3e e1ba 023e
00000050: ea68 0b3e 33f2 e83d 82de 633e dcd9 bf3e
00000060: 9610 5d3e 86ec 773e 99a9 613e 9117 723e
00000070: 7419 433e 03bf 683e 95a6 343e 7f18 d43d
00000080: 0c4b 5e3e f1b7 023e 6598 6c3e 39a1 9a3e
00000090: a800 073e 3979 103e 2975 223e a72c 233e
000000a0: a234 0a3e 37d9 2d3e 98ab 933e 3b6b 3d3e
000000b0: 0c37 163e 6634 603e 7087 da3d 582f de3d
000000c0: 8b43 163e d8c9 023e 3c76 013e 91d4 f93d
000000d0: ded4 3c3f b8b7 0a3e 1ace 243e c713 1b3e
000000e0: 0305 273e 6fb8 4a3e b5c1 4d3e 4288 ea3e
000000f0: 27e7 8e3e 01a9 3f3e 6bae 5c3e 5dd7 043e
00000100: 87e8 0c3e dcef 353e 5127 993e 6a12 763e
00000110: c5dd 2b3e a8fb c03e 8758 6e3e c29e 443e
00000120: e3cc 2f3e 4d38 913e edb4 113e e4d1 323e
00000130: 40b9 153e 8206 173e 575f 0a3e a631 543e
00000140: 81c3 243e 1a98 923d 4874 183e bf06 9a3e
00000150: b18a 233e 0ac1 883e 32ad f83d 0e88 2b3e
00000160: a873 4b3e 4182 f63d f36f 733e b0b4 4c3e
00000170: aa1b 013e 4b5b 833e b8ca 993d 29b5 103e
00000180: 4032 893e acbb 343e 01eb db3d d1d4 c43d
00000190: 7efa 0e3e 5556 d33e 49dc 123f eb88 2e3e
000001a0: 0301 2c3e 7fa0 083e 0450 d53d c86b de3d
000001b0: 48dc 0b3e 44e0 fa3d a2a9 c73e 14c3 e13d
000001c0: e4f6 8f3e 91cb 2f3e 6ae9 a93e 8a1b 063e
000001d0: 434f 883e 1f75 443e 38ff a23e 883f 113e
000001e0: 5792 5c3e e7da 693e 03d2 2d3e d636 813f
000001f0: f12b 193e b706 8f3e c9d4 703e 3230 193e
