checkpoint/transfer_cnn_features_1d_1_to_3_1210/retry_target_focus/best_model.pth (torch, 103138 bytes, 10 tensors)

model_cnn.conv1.weight f4 [32, 1, 3]
000000 14 04 12 bf 5a 16 ce 3e 6f 43 10 bf f4 1a fe be
       -0.5703747 0.40251428 -0.56352895 -0.4962994
000010 01 43 cd be 2d 7c 9a 3e 59 01 f1 be f6 af 0c 3e
       -0.40090182 0.30172864 -0.4707134 0.13738999
000020 29 31 ff be c6 4a d4 be 7e 3a 90 be 0e 53 88 be
       -0.49842194 -0.41463298 -0.28169626 -0.26625866
000030 26 7e f1 be ab 80 d7 3e 1d cd d4 bd 17 6b 88 3e
       -0.47166556 0.42090353 -0.10390685 0.26644203
000040 a5 65 dc 3e 37 2e 83 3e e2 db 27 3e dc 1d 14 3f
       0.430463 0.25621197 0.16392472 0.5785806
000050 4b 80 98 be f6 83 83 3e 7f 57 8f be bb 63 d4 3e
       -0.2978538 0.25686616 -0.27996442 0.41482338
000060 ef 64 2a 3f 26 a0 06 bf 93 b1 27 3f c5 2b c6 3e
       0.6656026 -0.5258812 0.6550533 0.38705269
000070 5c 94 8c 3e 62 d1 c9 3e 0a 25 e7 3e 73 3a a0 bd
       0.2745694 0.3941756 0.45145446 -0.07823648
000080 d3 95 ec be 9b 77 5b be ab 13 d7 be 33 1b 00 be
       -0.46208057 -0.21432345 -0.42007193 -0.12510376
000090 d4 5a 17 be 83 b9 8e be 5e 06 19 be 68 8c 0e 3f
       -0.14780742 -0.2787591 -0.14943835 0.5568299
0000a0 94 1e 17 be 62 14 95 bc bb 58 f5 bd 8d fc b3 3d
       -0.14757758 -0.018198196 -0.119798146 0.087884046
0000b0 8b f4 06 3f ab 9c bd 3e 85 bc 61 3e 81 c1 b4 3e
       0.5271689 0.3703359 0.2204457 0.35303882
0000c0 4b 2e 14 3e d8 c2 6c 3e de 44 ed bd d3 d5 10 bf
       0.14470784 0.23121202 -0.11585401 -0.5657627
0000d0 29 a5 bd be 79 dd 07 3f 5a d5 85 3d d1 db fb be
       -0.3704007 0.53072315 0.06534834 -0.49191144
0000e0 fd be 14 3e 3a 61 d8 3e db 52 f9 be cc 49 a6 be
       0.14525981 0.42261678 -0.48696026 -0.32478178
0000f0 b3 b8 aa be 5c 02 98 3a 5b 2e a7 be 95 8e 7b bd
       -0.3334404 0.0011597383 -0.32652554 -0.061415274
000100 19 91 14 bf 11 1b 9e 3e 31 f4 e6 3e 13 e5 8f 3e
       -0.580339 0.30880025 0.45108178 0.28104457
000110 d4 d4 bc be 69 45 f7 be 55 ac 8b 3e d1 b8 df 3c
       -0.36881125 -0.48295143 0.27279916 0.027309807
000120 fc ea 58 3e 2d 4c 01 bf fa 76 49 3d c5 b7 d4 3e
       0.2118339 -0.5050686 0.04918573 0.41546455
000130 73 9e 93 3e 1a d1 08 3e d4 0c 9f 3d 55 f7 1e bd
       0.28831825 0.13361016 0.07766119 -0.038810093
000140 f7 b8 89 be dd 97 7d be 20 a0 bc be 10 b5 00 3f
       -0.2689893 -0.24764962 -0.36840916 0.5027628
000150 b3 66 af 3e e4 27 62 3e fa 45 f3 be 33 e3 f5 3e
       0.3425804 0.2208553 -0.47514325 0.48024902
000160 f8 51 85 3e b5 4a de 3e 01 e3 73 be 29 84 a9 3d
       0.260391 0.43416372 -0.23817064 0.08277161
000170 f5 6f 0d 3f 68 3b cb 3e a3 09 f2 3e 5b 29 17 be
       0.5524896 0.3969376 0.47272977 -0.1476187

model_cnn.conv1.bias f4 [32]
000000 a0 96 dc 3e 89 c7 cc be d5 34 7c 3c b6 13 76 be
       0.43083668 -0.39995983 0.0153934555 -0.24030957
000010 3a 49 c7 bd 8b 4e 05 be 73 c2 8b 3c b4 e1 08 3f
       -0.09730764 -0.13018243 0.017060494 0.53469396
000020 7a 5a 64 3e f6 43 43 bc c9 7a c8 3e f6 d0 8d be
       0.22300139 -0.011918059 0.39156178 -0.27698487
000030 7e 70 9f 3e 2a f2 7b bd 0f 02 c2 bd ee 9d 4a 3d
       0.31140512 -0.061510243 -0.09473049 0.04946702
000040 36 05 f1 be b6 66 0e 3d 2f b3 0b 3e 83 91 cb 3e
       -0.47074288 0.03476592 0.13642572 0.39759454
000050 6e fb 95 bd 46 41 10 3e a6 b0 16 3f 18 4a 5a be
       -0.07323347 0.140874 0.58863294 -0.21317327
000060 74 22 08 3f 43 6f 89 be e6 57 87 3e 30 fc 30 3e
       0.5317757 -0.26842698 0.2643425 0.17283702
000070 a2 90 dc 3d c4 5b e4 3e 20 5a 77 be f7 5e b2 3d
       0.10769774 0.44601262 -0.24155474 0.08709519

model_cnn.conv2.weight f4 [64, 32, 3]
000000 00 65 d0 3c e7 6b 54 bd 5c fa 04 38 c6 11 94 bd
       0.025438786 -0.051860716 3.1704418e-05 -0.072299525
000010 50 97 27 3d 22 09 ac 3b 07 0c 0e 3d 00 a9 cc bb
       0.040915787 0.005250112 0.03467944 -0.0062457323
000020 76 67 cd 3c aa a4 bd 3c 01 0d ac 3d c5 c3 1d 3e
       0.025073748 0.023149807 0.08400918 0.15406711
000030 16 5a a0 3b 7c 38 64 bd 70 69 95 bd 8e ad d2 3c
       0.0048935516 -0.05571793 -0.07295501 0.025717523
000040 9f 3c 6d bd c2 e4 71 bd 07 71 90 bd f3 fd 1e bd
       -0.05791914 -0.05905605 -0.07052808 -0.038816404
000050 e2 9f 57 3b f4 31 c1 3d d7 27 82 3d 12 89 d1 3d
       0.0032901694 0.09433356 0.06355255 0.10231222
000060 90 4b 31 bd 5f f3 ef 3c 4f f3 8e bd 59 13 cc 3d
       -0.043284953 0.029290853 -0.06980001 0.09964628
000070 e2 b3 7e 3d 2c f3 0e 3e 94 37 78 bd 7c 14 c0 3d
       0.06218327 0.1395995 -0.06059988 0.09378907
000080 db d1 c8 3d 01 f4 d5 3d e4 cd 14 3d 0f ca eb 3d
       0.09805652 0.10446931 0.036329165 0.11513149
000090 7e 6b bc 3d f5 bb cc 3d a6 67 8d 3c 7b 7f aa bd
       0.0920019 0.099967875 0.017261337 -0.08325096
0000a0 1a 35 d0 bb 6c 5b 67 3c e2 44 9e bd fc c9 87 bd
       -0.0063539864 0.014120918 -0.07727982 -0.06630322
0000b0 96 33 d8 bd 96 dc 3b ba 64 80 fd 3d e4 54 56 3d
       -0.10556714 -0.0007166354 0.12378004 0.05232705
0000c0 43 2c 49 3d 32 d5 72 3d b1 8f f2 3d b1 e6 c7 bd
       0.049114477 0.05928535 0.11843813 -0.09760798
0000d0 6a 9d b0 bd 54 0f 29 bd a0 35 40 bd 6f d0 83 3d
       -0.08623774 -0.041274384 -0.04692614 0.0643624
0000e0 22 2c ac 3d a1 fe ad bd 60 b4 94 bd 1a c5 ae bd
       0.08406855 -0.08495832 -0.07260966 -0.08533688
0000f0 3e 29 0f 3e 37 bc 3b 3e 87 2e b5 3c 91 51 25 bd
       0.13980576 0.18333517 0.022116913 -0.04036099
000100 a7 fb 20 3d 57 00 74 bd ba 3f d6 3d e9 bc 2a 3d
       0.039302494 -0.059570637 0.104613736 0.041684065
000110 98 70 2d bc 6d bc d7 ba 02 2c c1 3c 20 de 35 bd
       -0.0105859265 -0.0016459354 0.023580555 -0.044401288
000120 2d ca 6b bd 66 77 b5 3c af e4 bf 3c 73 aa b9 3c
       -0.057565857 0.02215166 0.023424475 0.022664284
000130 c3 3d b3 3b 82 99 af 3d 47 62 24 bc 1c 15 0c 3c
       0.005470009 0.08574201 -0.010033197 0.008549955
000140 80 2c 77 3d 7d ee 74 bd c9 10 02 3d a9 40 93 bc
       0.060345173 -0.059797753 0.03175429 -0.017975168
000150 d2 da 45 3d 27 a0 65 bd 49 49 43 3b 08 59 17 3d
       0.048304386 -0.056060936 0.002979832 0.03695014
000160 d9 1a 62 bd 60 bb 41 bd 39 e4 de 3c 1c 74 2a bd
       -0.055201385 -0.047297835 0.027208434 -0.041614637
000170 24 76 47 3d 31 bb be bd 8c 7e 2f bd d0 bc 9c bd
       0.048696652 -0.09313048 -0.042845294 -0.076532006
000180 60 11 b3 3c 27 17 b3 bc 68 27 1b bd c7 14 c5 bc
       0.021858871 -0.021861626 -0.037879378 -0.024057759
000190 8a c3 b1 bd ba 46 b1 3c 71 0f 02 bc 4e a6 a5 bd
       -0.08679874 0.02164017 -0.007938252 -0.08088361
0001a0 d0 7f e5 3c 2d 6b 9b bd 1e 70 30 be 8f 6c 9c bc
       0.028015047 -0.075888015 -0.1723027 -0.019094734
0001b0 2f 3b 9f 3d 96 dd 83 3b 1d f5 40 bd a6 20 07 bd
       0.0777496 0.004024218 -0.04710876 -0.03299012
0001c0 e9 60 24 3d 97 b1 67 3d 7a d1 9c bd 56 71 3a bd
       0.040131483 0.056565847 -0.07657142 -0.04551824
0001d0 3f 0a a4 3d 05 c8 e8 3c c3 d9 2a 3d 6d 22 94 bd
       0.08009767 0.02841569 0.04171158 -0.07233129
0001e0 e0 59 a0 3d e9 69 bf bd 15 4c 70 bc 3f af 55 bd
       0.07829642 -0.09346373 -0.014666577 -0.05216908
0001f0 c9 4d 17 bd 3c 45 06 be f8 e5 a1 3d b2 96 af 3d
       -0.036939416 -0.13112348 0.07905191 0.08573665
000200 1a 19 ae bd 9f 31 07 bd 66 4e ba bd d0 60 78 3d
       -0.085008815 -0.033006307 -0.090969846 0.060639203
000210 19 6f f3 3c c0 bd 06 3d 63 ab b9 3b d2 24 02 bc
       0.029716061 0.032895803 0.005666183 -0.007943349
000220 e8 c4 74 3d e6 82 82 3b c6 e8 1a bd 8f 59 55 3d
       0.059758097 0.0039828895 -0.037819646 0.052087363
000230 48 7d 00 3d 4e 8d 90 bd 8c 52 93 bd de 75 09 be
       0.031369478 -0.07058202 -0.07193479 -0.13423869
000240 2e de 9e bd 27 b9 b9 bd 50 79 d6 bd a6 a2 ba bd
       -0.07757221 -0.09068518 -0.10472357 -0.09113054
000250 5f d6 a5 3d 20 e9 b8 bd 01 0a b7 3d 09 fe 85 bd
       0.08097529 -0.0902884 0.08937455 -0.06542594
000260 35 2b a3 bc 7e 6d 89 3d 91 b7 8f 3c 77 92 39 bd
       -0.019918064 0.06710337 0.017543586 -0.045305695
000270 06 d4 16 be de dc da bd b5 05 8a 3c c5 31 3e bd
       -0.14729318 -0.10686658 0.016848424 -0.046434183
000280 5f 08 9e 3d ad 0e d2 bc 99 d5 03 bd d9 f6 b0 3c
       0.077164404 -0.025641764 -0.032186124 0.021602081
000290 b5 9f 0b bd 6e f3 31 3c cd d3 a8 3d 63 25 3c 3d
       -0.034087855 0.010861261 0.08243523 0.045934092
0002a0 66 a0 ca bc b2 22 95 3c cd 92 8b 3d 3e dc 8d bc
       -0.024734687 0.01820502 0.068151094 -0.017316934
0002b0 dd e3 94 bd f1 4a 18 bc 1b d7 ed bc 31 90 cc bd
       -0.07270024 -0.009295211 -0.029033234 -0.0998844
0002c0 f2 9e 73 bd e1 ea 20 3d 01 8d 78 bb ad db f8 3c
       -0.059477754 0.039286498 -0.0037925842 0.030378187
0002d0 9f ec 81 bd e9 19 be 3d 50 26 3d bd e4 d5 e8 bb
       -0.0634396 0.09282286 -0.046179116 -0.007105576
0002e0 07 20 a1 bd f1 d1 9f bd 50 0a 45 3d 88 a0 d5 bc
       -0.07867437 -0.07803715 0.048105538 -0.026077524
0002f0 51 61 7f bd 0b 72 69 bd 77 b2 72 3d 66 ac 3d 3d
       -0.062348668 -0.056993525 0.05925223 0.04630699
000300 79 58 3c 3d be 69 d3 bd 33 e5 02 3d 98 77 ca 3c
       0.04598281 -0.10322903 0.031956863 0.02471523
000310 31 e7 8d bd 07 74 27 3b c5 fe 33 bd 20 8d f4 bd
       -0.06928862 0.0025551335 -0.04394414 -0.1194098
000320 c0 d5 db bd 1e a9 99 3d 8a a5 84 bc f4 1a 14 bc
       -0.10734129 0.0750296 -0.016192216 -0.009039629
000330 87 af d7 bd fa 5d d0 bd d1 eb 59 3d 99 59 da 3c
       -0.10531526 -0.101741746 0.053203408 0.026654052
000340 19 92 e1 bc 52 3d 50 3d f0 2c 81 bd 5b 2e d4 bd
       -0.027535485 0.05083973 -0.06307399 -0.10360404
000350 e2 42 ed bd 72 e9 0e 3d b5 d6 3d bd b0 b1 65 3d
       -0.115850225 0.0348906 -0.04634734 0.05607766
000360 87 81 55 3d 5c a4 b4 ba 5e 84 57 3d 21 98 46 bd
       0.05212548 -0.0013781893 0.05261647 -0.048484925
000370 e7 ae 82 3d 03 f3 96 bd 09 12 73 bc 51 e5 87 3d
       0.06381016 -0.073705696 -0.014835843 0.066355355
000380 4d 88 5e bd b9 c2 95 3d 4a 65 a7 3c af 1f d6 bb
       -0.054329205 0.07312531 0.02043404 -0.0065345387
000390 5e cb af 3d a4 d5 99 3d 4d d2 31 bd 78 1b 2b bc
       0.08583711 0.07511452 -0.04341345 -0.010443561
0003a0 c3 f6 0a bc fd 6f 81 3d 53 ce 43 3d fb ae 95 3d
       -0.008481684 0.06320188 0.047804188 0.073087655
0003b0 59 cd 57 3d 8e f5 e0 bd b1 f7 3e 3d a6 8d 45 bd
       0.05268607 -0.10984336 0.046622936 -0.04823079
0003c0 5e d7 14 3e af ea 02 3e b0 a7 93 3b 80 b2 96 bc
       0.14535281 0.12784837 0.004506074 -0.018395662
0003d0 fd cd f9 3b d4 8b b0 3c 33 88 d8 bd d9 65 d7 bb
       0.0076234327 0.02155105 -0.10572853 -0.0065734205
0003e0 81 ef 2b 3d b4 ac 62 3d 0a 63 44 3d 2b 77 63 3c
       0.041976456 0.055340484 0.047946014 0.013883392
0003f0 69 e8 63 be dc 65 6c bd 28 df 51 be 15 4d 92 bd
       -0.22256626 -0.05771433 -0.20495284 -0.071436085

model_cnn.conv2.bias f4 [64]
000000 96 8f c2 3d 2d 02 f0 bd 29 c2 c9 3c 05 98 f7 3d
       0.09500043 -0.11719165 0.024628716 0.12089542
000010 0d 46 88 bd 1a 39 70 bc 3c 05 eb 3d 11 f8 e8 bc
       -0.06653986 -0.014662052 0.11475608 -0.0284386
000020 2e 56 cd 3d 63 ba d3 3b 04 06 bf bd 90 80 ab 3d
       0.10026203 0.006461428 -0.09327319 0.08374131
000030 00 99 dd bb 9a df c6 3c 7b ea 3c bd 74 87 dc 3c
       -0.006762624 0.024276543 -0.046122056 0.026920058
000040 83 20 60 3c 35 0c df bb 1d 7d 88 bd 1f 68 be 3d
       0.013679626 -0.006806875 -0.066644885 0.09297203
000050 c5 9a 86 bd 31 06 1f bc 0e db c1 bd e7 00 27 3c
       -0.06572489 -0.009706066 -0.094656095 0.010193086
000060 a0 37 54 bc 4e 49 9c bd c9 40 e4 3a 36 fd 9c bc
       -0.012952715 -0.07631169 0.0017414327 -0.01916371
000070 61 fa d5 bd 6c 46 98 3d 1f c7 53 3c dd 86 45 bd
       -0.104481466 0.07435307 0.012925892 -0.04822432
000080 ed 2c 60 3d d0 b3 98 bd e8 9e c7 bd e8 17 43 3d
       0.054730345 -0.074561715 -0.09747106 0.04763022
000090 48 7a c3 bd 84 e5 e3 3c 3c d6 74 3d 4f 4c c3 3d
       -0.09544808 0.027819403 0.059774622 0.09536039
0000a0 49 30 29 3c 49 74 97 bd 8b 28 cd bd a9 b5 46 bd
       0.0103264535 -0.073952265 -0.100174986 -0.04851309
0000b0 dd d0 a6 bc d6 8e 8e bd af 59 99 3d 4d 4a 3d 3d
       -0.020363266 -0.069608375 0.07487809 0.046213437
0000c0 5e 5c cc bc 4c 9f e6 bd 6d fe d8 3d 89 21 af 3b
       -0.024946388 -0.11260852 0.10595403 0.005344574
0000d0 b8 0e de bb a0 ea 6b bd 3b 3c c7 bc 2a d2 db 3a
       -0.006776657 -0.057596803 -0.024320712 0.0016771008
0000e0 d7 5e 47 3d e5 8e 21 3d 09 3d 99 bd 54 5e e5 3d
       0.04867443 0.039442915 -0.07482345 0.11199632
0000f0 4b 4c 76 bd b8 ba 25 bd 94 65 8a 3d bb d4 c5 bc
       -0.060131352 -0.040461272 0.06757656 -0.02414929

model_cnn.fc1.weight f4 [256, 64]
000000 9f 84 ce 3a d5 5d 80 bb cb a6 c3 bb 4d 7c 16 bd
       0.0015756077 -0.0039174356 -0.005970811 -0.036739636
000010 d5 ea 30 3c 3d f1 9d 3c 4b f6 e9 bb 7d 4d 32 3a
       0.010798176 0.01928007 -0.007139956 0.0006801708
000020 4a d8 c3 3b 44 7e 29 bc 70 83 be 3b fb 26 c7 3b
       0.0059767114 -0.0103450455 0.0058140084 0.006077645
000030 fb eb 35 bc da b5 85 bc 2b 90 d3 3a 97 a4 9d bb
       -0.011103625 -0.016322065 0.0016140988 -0.0048108804
000040 e4 87 78 3c 88 63 d5 3a 9b 54 f1 3a 7b 62 09 39
       0.015169118 0.0016280273 0.0018412055 0.00013102025
000050 83 79 59 3c 6f 12 67 bc 93 01 d5 3b 57 26 95 ba
       0.0132736 -0.014103516 0.006500432 -0.0011379224
000060 19 e3 99 3c 9c de 6d 3c 5a 54 a2 3a 78 1e 80 bc
       0.018785046 0.014518406 0.0012384758 -0.015639529
000070 1b e4 08 3d 6e 05 d9 ba 45 ff 3d 3b ae 0c 27 3b
       0.033420663 -0.0016557404 0.0028991264 0.0025489735
000080 40 05 a8 39 7c 25 cc bb 5e 75 b5 ba 2b 6f f6 3a
       0.0003204737 -0.0062300544 -0.0013844182 0.0018801441
000090 dc 7b b2 3c b9 07 21 3c fc 43 c7 bb 1f 26 b0 bc
       0.021787576 0.009828501 -0.0060811024 -0.021502553
0000a0 01 d3 1e 3d 8b 8a 08 bb 38 e7 1e 3c 15 2c 98 3b
       0.038775448 -0.0020834531 0.0096986815 0.004643927
0000b0 51 75 00 3d ae 79 83 3c f3 15 1d bc ce 58 87 3c
       0.03136188 0.016049232 -0.009587753 0.016521838
0000c0 b4 2e 9e 3b d3 19 39 3c c7 8a f2 bb 2e 6c d6 bc
       0.004827345 0.011297661 -0.0074017975 -0.026174631
0000d0 97 cb 92 bc f6 d4 93 3c d6 0a 71 bb e7 6d 13 3c
       -0.017919345 0.018045884 -0.003678014 0.008998371
0000e0 a6 1a f3 3c a4 00 df ba 31 83 11 3d 85 a8 19 bc
       0.029675793 -0.0017013741 0.035525504 -0.009378557
0000f0 ca 1e 13 3d be ff 8e 3c 0e f4 ad 3b ef eb 51 bc
       0.035918035 0.017455932 0.0053086346 -0.012812599
000100 d8 d0 24 3d 1b 5d 02 3d 5a 0b ac bd 3c 74 c0 bc
       0.04023823 0.031827074 -0.08400603 -0.023492925
000110 09 58 af 3d cd bc e6 bd 8e eb bf bd af e8 b1 3d
       0.08561713 -0.1126648 -0.093711 0.08686959
000120 90 15 fe bd 17 99 8f bd 18 0b 59 bd 48 d3 a4 3d
       -0.124064565 -0.070116214 -0.052989095 0.08048111
000130 03 ee c0 3d 7c 2a a7 3d e8 9a a3 bd b9 67 bd bb
       0.09420397 0.081624 -0.079885304 -0.005780187
000140 77 ad 88 3d 49 aa a0 3c 9c a3 0b bd 40 8b 81 bc
       0.06673711 0.019612448 -0.034091577 -0.01581347
000150 22 bc b8 bb 35 78 ba bd 45 70 fb bd 8a dc 49 bb
       -0.0056376616 -0.09104959 -0.12277273 -0.0030801618
000160 e2 13 34 3d 4c 2e f1 3d 25 f2 09 bd 63 f1 6a bd
       0.043964274 0.117764086 -0.033678193 -0.05735911
000170 fa 62 f1 3d 85 d1 b0 bd dc 6d 71 bc 15 af 24 3d
       0.117864564 -0.08633713 -0.014735665 0.040206034
000180 26 47 41 bd 42 8d 1a 3b ee 63 fd bb c9 d7 08 3b
       -0.047186993 0.0023582731 -0.00773286 0.002088057
000190 82 0f 43 3d 0f 37 b2 bd 0f a5 84 3d 99 14 ed 3d
       0.04762221 -0.08701908 0.06476795 0.11576194
0001a0 8f 78 9a bd a4 5d 75 bd a3 4d 04 bd f0 5d e7 bd
       -0.07542526 -0.059903756 -0.032300603 -0.11297214
0001b0 9b e1 88 bd 7a 2f b0 bc 76 07 d2 3c 95 2e a4 3d
       -0.06683656 -0.021507014 0.025638323 0.08016697
0001c0 73 ec 88 bd f5 f1 90 3d db 1e 7d bd c4 77 ae 3c
       -0.06685724 0.070774 -0.061797004 0.021297343
0001d0 69 44 01 bd 6f 19 55 bd f5 2f e9 3d 89 49 b7 bd
       -0.03155938 -0.05202621 0.113861 -0.089495726
0001e0 c7 d9 db 3d 2a 4d a7 bd 57 12 60 bd 1a ea 55 bc
       0.10734897 -0.08169015 -0.05470499 -0.013056302
0001f0 70 29 a2 bd 2d d7 56 3d ee 3f 02 3b 46 fa b5 bc
       -0.0791806 0.0524513 0.001987453 -0.022214066
000200 27 1d d5 ba f5 1e 27 b7 f8 68 1c b8 4a 3c 9d 38
       -0.0016259298 -9.961183e-06 -3.7291058e-05 7.497573e-05
000210 5e dd f9 3b 00 af a8 3b 70 5e 0c bc dc 61 85 3b
       0.007625266 0.0051478148 -0.0085674375 0.0040705036
000220 88 32 d8 bb c9 e1 6a 3c 20 f5 bd bb ff 0b 0e 3c
       -0.0065978207 0.014336058 -0.0057970434 0.008669852
000230 54 e8 ba b8 e8 ab f5 bb 7c af 1c 3c 47 1a a2 bb
       -8.9124456e-05 -0.0074972995 0.009563323 -0.00494698
000240 2d 61 51 3c 6d 14 cf 3b 42 b6 92 37 26 ce 53 3b
       0.012779516 0.0063195736 1.7489427e-05 0.003231892
000250 c8 f6 61 bb b7 ce d6 3b e8 42 2a b9 03 bc 54 bc
       -0.0034479368 0.006555404 -0.00016237388 -0.012984279
000260 80 bf cf bb c9 e1 0f 3b 88 8d 2f b9 dd 91 04 bc
       -0.0063399673 0.0021954647 -0.00016742025 -0.008091417
000270 89 6a 43 3b 1f 40 f1 bb 56 cd 73 3c a9 83 cc bb
       0.0029818139 -0.00736238 0.014880499 -0.006241281
000280 ac 62 85 3a 0d 31 a2 b7 f8 c7 0b 3c c8 26 84 ba
       0.0010176501 -1.9334746e-05 0.008531563 -0.0010082358
000290 df 93 50 3b c1 3e 63 ba f0 a3 c8 3b a5 94 8a 3a
       0.003182642 -0.0008668714 0.0061230585 0.0010572864
0002a0 b0 dc 79 ba 8e 8c 4d 3b 1e c1 aa bb e8 40 68 ba
       -0.0009531481 0.0031364295 -0.0052110096 -0.00088597694
0002b0 cd 6d b2 b9 11 fc 06 b7 88 6b 05 3b b0 fa 3a b6
       -0.00034032614 -8.045711e-06 0.0020358283 -2.786208e-06
0002c0 fc 47 9b bb 1b 6a c9 3a b6 c8 ee bb 10 be 43 bb
       -0.004738806 0.0015366705 -0.00728711 -0.0029867925
0002d0 7d f4 be 3c 4c 5a ae 3b ef ee af 39 06 09 c8 bb
       0.02330994 0.005320823 0.0003355662 -0.0061045913
0002e0 64 cc d7 3b 80 60 75 3b 04 81 6c 3b 9c 75 97 b9
       0.0065856446 0.0037441552 0.0036087641 -0.0002888859
0002f0 46 d9 d6 3b 86 1b 7e b8 17 13 2a bc 7e a1 e4 bb
       0.0065566627 -6.0583952e-05 -0.010380528 -0.006977259
000300 fb 42 0d 3e e7 49 a2 3d d8 46 c5 3d 9f d5 cd 3c
       0.13795082 0.07924252 0.09632653 0.025126277
000310 b2 60 20 bd ee c6 ef bd 6d df b3 3d c8 48 cd bd
       -0.039154716 -0.11707865 0.087828495 -0.100236475
000320 d0 3b e4 bb f7 93 81 3c fa 04 15 3c 8c 81 ee 3d
       -0.006965138 0.015817625 0.009095425 0.11645803
000330 b6 38 d6 3d f0 fd c3 bc 0a 81 3e 3d 3e 7e 56 bc
       0.104600355 -0.023924798 0.04650978 -0.013091622
000340 41 d2 c1 3d e8 ed b3 3c 9d e2 1c 3e 18 aa b3 bd
       0.09463931 0.021964028 0.15320821 -0.08772677
000350 0e 39 ed bc c4 8d df bb f2 91 95 bc 53 7c b4 3d
       -0.02895787 -0.0068223197 -0.018258069 0.088127755
000360 69 96 f3 3d 88 35 ff bd 0a 28 2b bc 00 2f cc bb
       0.11893923 -0.12461382 -0.010446558 -0.006231189
000370 03 c1 7c bd 08 f3 c4 3d 6d 14 d5 bd 3c bb 5f bd
       -0.061707508 0.09616667 -0.104042865 -0.05462192
000380 40 7a 58 3d ba 1d fa 3d 8c b3 0d 3d d2 05 9d bd
       0.05285096 0.12212701 0.034595057 -0.07667126
000390 2d a5 f6 bd 99 f3 28 3d 01 f7 20 3d 5d f3 14 3d
       -0.120432235 0.041247938 0.03929806 0.0363649
0003a0 90 02 03 bd b6 12 c9 3d 51 e9 15 be 5f c6 32 be
       -0.031984866 0.09818022 -0.14639784 -0.17458485
0003b0 a4 0e 3b bd a2 a3 24 3d ca 75 83 3d 65 df f3 3d
       -0.04566826 0.040195115 0.06418951 0.119078435
0003c0 67 d8 95 bd 3b c2 04 3d 78 21 ac 3d 51 14 9a bd
       -0.07316666 0.032411795 0.08404821 -0.07523406
0003d0 b8 e9 39 bd e9 85 8f bd 47 a7 89 3b 34 49 e6 bd
       -0.045388907 -0.07007963 0.004200849 -0.11244431
0003e0 e4 31 fa bd 15 45 57 3d 58 1f 70 bd c2 11 cb 3d
       -0.12216547 0.052556116 -0.05862364 0.099154964
0003f0 81 f7 d5 bd 5d ab 1b be 06 38 cd ba 1e 3a a5 3d
       -0.10447598 -0.15202089 -0.0015656955 0.080677256

model_cnn.fc1.bias f4 [256]
000000 2b d6 43 39 22 62 2f bd a6 ba 1c bc 21 77 fc bc
       0.00018676433 -0.042818196 -0.009565985 -0.030818524
000010 41 e3 65 bd 08 2c 33 3a b7 33 ea 3c 86 63 a4 3b
       -0.05612493 0.0006834869 0.028589113 0.005016747
000020 af 70 2d bb 56 19 e3 bd cf 2c 79 3c 14 d7 7c ba
       -0.002646487 -0.11088817 0.015208437 -0.0009645086
000030 b7 48 90 bc 89 af 7d bc 65 d2 d4 3c 03 4a 54 bc
       -0.017612798 -0.015483745 0.02597923 -0.012957099
000040 f6 b4 04 3e 3c e8 91 3c 41 86 12 3c 48 b7 31 bd
       0.12959656 0.017810933 0.008943141 -0.04338768
000050 f8 98 9a 3b 40 d6 7c 3d 40 82 47 bd ad 38 dd bb
       0.0047179423 0.061727762 -0.0487082 -0.006751141
000060 60 bd 8a 3c f7 e0 2e bd 5f 3c 85 3d 8d 13 37 3d
       0.016936004 -0.042695012 0.065056555 0.04469638
000070 12 40 3e 3a ac 2e 91 bd 6c 9c 76 bd 57 37 02 3d
       0.0007257472 -0.0708898 -0.06020777 0.031791057
000080 ab fd 12 bc d9 e0 98 bc 9e a2 49 bd f7 ef 1c 3c
       -0.008971612 -0.018661903 -0.04922735 0.009578696
000090 e4 a8 8a 3b e7 d4 54 bc 18 89 8e 3d 36 a1 b9 3d
       0.004231559 -0.012990213 0.06959742 0.09063952
0000a0 be 61 aa 3d 47 c6 bb 3c 94 a5 f0 3c f5 29 e9 bd
       0.08319424 0.022921694 0.029375829 -0.11384956
0000b0 96 a5 15 3d ed 8a 06 bd cc 74 5a bc bc 0c 8b 3d
       0.03653487 -0.032847334 -0.013333511 0.06789538
0000c0 f7 58 46 bd 75 2a 9b bb d7 a9 be bc f4 d4 41 3d
       -0.048424687 -0.004735286 -0.023274345 0.04732223
0000d0 cd a6 31 3d b4 be 8e 3d 08 42 8a 3d d2 44 85 bc
       0.043371964 0.069699675 0.06750876 -0.016268168
0000e0 ca 14 e4 3c 77 f9 95 3d 41 52 e1 bb 8c 78 55 bc
       0.027841944 0.07322972 -0.0068762605 -0.013029229
0000f0 3d 68 94 bc ca 28 35 3d f5 0d 81 bd 9d 0d 8f 3c
       -0.018116111 0.044228353 -0.0630149 0.017462546
000100 f0 ec 62 bc ab 2b 10 bd d6 1f 40 3d 6a 81 8e bd
       -0.013850436 -0.035197895 0.04690536 -0.069582775
000110 df 71 43 3d f1 81 08 bc 79 90 27 3d d6 b8 9a bc
       0.047716018 -0.008331762 0.040909264 -0.018886965
000120 23 82 16 3d 06 52 58 bc 13 8a c9 3d 6e 52 fa 3c
       0.0367452 -0.01320315 0.09840789 0.030556884
000130 9f 42 84 ba 73 e2 ee 3b 24 28 49 3d f9 61 f9 3d
       -0.0010090655 0.0072901784 0.049110547 0.1217689
000140 a5 3b 32 3d 40 b1 85 3c e7 a8 19 bc bb 73 eb bb
       0.043513913 0.016319871 -0.009378648 -0.007185427
000150 ed c8 0a 3d 04 f1 99 bb a9 7a b4 bb 3e d3 8e 3d
       0.033883024 -0.0046979208 -0.0055077863 0.06973885
000160 67 5c 63 3d 16 d8 b5 3c 47 5e b5 bd 7f ce f6 3d
       0.055508044 0.022197764 -0.088558726 0.12051105
000170 6c 59 9c 3b 4c 2b 03 bc 33 d1 8b 3b 35 e2 8e bb
       0.004771402 -0.008005928 0.004266882 -0.004360462
000180 10 87 3b bc 82 49 74 3a 62 70 97 3d ee bd 0e 3c
       -0.011445776 0.0009318815 0.07394482 0.008712275
000190 62 a0 4e 3d 85 4b aa bb 9c 08 02 3d cc f5 9b bd
       0.05044592 -0.005196991 0.03174649 -0.076152414
0001a0 34 ce f6 3d fc d8 4c 3d 82 04 d0 3c ea 04 9a bb
       0.12051049 0.05001162 0.025392774 -0.004700293
0001b0 69 6a bd ba 6a d9 89 bc e0 5d 05 3e 8f 9a 2d bd
       -0.0014451268 -0.016827304 0.13024092 -0.042383727
0001c0 0b 96 99 bd cc ca 6c bc cb 8a a4 bc 02 6e a7 bd
       -0.074993216 -0.014452647 -0.020085713 -0.08175279
0001d0 27 e3 42 bb b8 f0 8b bd e7 c7 96 bc c3 10 93 bc
       -0.0029737444 -0.06833023 -0.018405868 -0.017952329
0001e0 cd 02 42 bd 67 64 9c bb ae 63 43 3b b7 05 27 3d
       -0.047365952 -0.004772711 0.0029814052 0.040776934
0001f0 bf 6d 81 bd 56 27 f6 3d de 60 90 3c 61 c9 20 bc
       -0.063197605 0.120192215 0.017624315 -0.0098136375
000200 8b 3a 1e bd 77 8f 99 bb 2c 37 89 bd eb 15 25 3d
       -0.03863005 -0.004686292 -0.06699976 0.040304106
000210 4a 98 a7 3c ee e7 93 3b 71 3b 82 3d 28 8e b6 3c
       0.02045836 0.004513732 0.06358994 0.022284582
000220 40 76 cc bb a5 2f f2 bc c4 a1 da 3b df 4f b7 3d
       -0.0062396824 -0.029563734 0.006672116 0.08950781
000230 1e 88 25 bc cc ab fe bd 4e 3b 05 bd 87 d5 83 bc
       -0.010103254 -0.124351114 -0.03252726 -0.016093029
000240 91 98 5a bd a4 a5 d9 bd b8 e0 2c 3d 29 c2 b0 bd
       -0.053368155 -0.106272966 0.042206496 -0.08630783
000250 12 4b 19 bd 51 cd 5c 3b bd a5 2d bd f4 b4 f8 bd
       -0.03742511 0.0033691714 -0.04239439 -0.12143889
000260 cd 88 8f bb 89 e9 74 bd 34 71 6b bc 9e e9 4c bd
       -0.0043803216 -0.05979303 -0.014370251 -0.050027482
000270 1a 3f d2 bd 46 f6 57 3d 46 b4 bf bc 85 95 e9 3c
       -0.10265942 0.0527251 -0.02340139 0.02851368
000280 6c 1c c6 bc 27 6f 40 bc 21 b5 49 bd fd 87 bb bc
       -0.024183474 -0.011745251 -0.049245004 -0.022891993
000290 1e c9 b8 3d d3 4e 90 3b a6 bc f7 3d 69 68 7d bc
       0.09022735 0.004403928 0.12096529 -0.015466788
0002a0 f0 b6 42 3d 8e 9a b7 bb 14 6c 30 3c 8e 97 f2 3b
       0.047537744 -0.005603141 0.010767955 0.0074033206
0002b0 4c c2 44 bd a7 35 52 3d 1d 31 8e 3d 85 2c c7 bb
       -0.04803686 0.051320698 0.06942961 -0.006078305
0002c0 4e 35 61 3c 18 e1 f7 bb 88 08 54 3d 2f e2 79 3d
       0.013745619 -0.007564675 0.05176595 0.06100672
0002d0 40 b5 89 bc aa 4c 6b 3d 21 81 b4 bd f0 db 5c bd
       -0.01681006 0.05744616 -0.08813692 -0.053920686
0002e0 f6 5d 01 bc 4b d6 52 3c d4 98 a2 bb cc a6 9e 3d
       -0.007895937 0.012868474 -0.004962066 0.07746658
0002f0 fc f4 f1 bb 84 d5 91 3c 08 3e f9 bb 27 f7 49 3d
       -0.0073839407 0.017802007 -0.0076062717 0.04930797
000300 f7 b3 e0 3c e8 83 df 3c 3e 74 ea 3a 6d 7d 80 3d
       0.027429564 0.027284577 0.0017887426 0.06273923
000310 df 74 cf 3d 66 0e b1 3c 4c ac ee 3c 65 14 a2 bc
       0.10129713 0.021613311 0.029134892 -0.019785115
000320 7a 54 b9 3d 4f a2 13 3d 7c e7 13 bc a0 77 f5 bc
       0.09049316 0.03604346 -0.009027358 -0.029964268
000330 f3 dd 5b bd 66 56 b3 bc 18 38 cc bd 58 7a 2f bd
       -0.053678464 -0.021891784 -0.099716365 -0.042841285
000340 28 aa 02 3a ac 20 8e bc b8 59 fa bd 59 db 8a 3c
       0.00049844617 -0.017349564 -0.12224144 0.016950296
000350 cf 9a a9 bb b3 59 d7 bb ae 35 26 bc cf 19 5d 3d
       -0.0051759253 -0.0065719723 -0.010144634 0.05397969
000360 3c 09 92 bd a1 c1 4d bc 97 c6 b1 3d 29 ac 08 bd
       -0.071306676 -0.012558372 0.08680456 -0.03336731
000370 32 a4 13 3d ae 6e 6b bc 86 48 9c bb 77 39 0c bd
       0.03604526 -0.01436965 -0.0047693877 -0.03423449
000380 db 5d 4d bd dc 02 40 bd 75 75 de bd db e9 b8 3b
       -0.050138336 -0.046877727 -0.10862247 0.005643112
000390 d9 3a 9a bb de 27 ee bc e2 19 45 bd b2 23 9e bb
       -0.004706722 -0.029071745 -0.048120387 -0.0048260326
0003a0 a9 bf d0 3c 41 5f 92 bd c7 70 8d 3d 9c 0e 98 3c
       0.025482016 -0.071470745 0.06906276 0.018561654
0003b0 f5 90 9d bd 40 c6 6b 3b fd cf a9 bc 7b 6a e0 3d
       -0.07693664 0.003597632 -0.02072906 0.109578095
0003c0 88 16 0c 3d 03 08 06 bd 30 b0 90 bb 6a 53 79 bb
       0.034201175 -0.032722484 -0.0044155344 -0.0038044103
0003d0 61 93 29 bd e6 f1 cd 3d 08 81 6c 3d 7b 1a 98 3d
       -0.041400317 0.10055904 0.05774024 0.07426926
0003e0 5e b3 e5 bd 96 73 0f bd f0 e7 fe bd 19 c9 8b bd
       -0.11215852 -0.03502234 -0.12446582 -0.06825466
0003f0 ee 5b ba 3a 13 34 9b 3b ff 93 bb 3d b3 b6 ac 3b
       0.0014218071 0.0047364323 0.091590874 0.005270803

model_cnn.classifier.weight f4 [5, 256]
000000 68 54 87 3b 04 3d 48 bc 7f a6 5b bd b8 2a d3 3b
       0.004129935 -0.0122215785 -0.05362558 0.0064443015
000010 92 23 52 3d 98 1e 90 3d 98 db 83 3c 4d f6 a0 3d
       0.051303454 0.07037085 0.016095921 0.07859478
000020 e5 b0 eb bc b2 a4 a4 3b 95 67 59 3d e8 6e 9f bd
       -0.028770873 0.005024516 0.0530773 -0.077848256
000030 a8 80 c2 3c 6e b9 45 3d 08 31 a3 3d 71 65 74 bd
       0.023742989 0.048272543 0.07968336 -0.059667055
000040 15 96 80 3b 76 d8 83 bd 6d f1 f1 bc 59 64 89 3c
       0.003924141 -0.06437771 -0.029534066 0.016771482
000050 61 9e 5c 3c 54 cf 5c bd 13 fe f6 bd 1a da b8 3d
       0.013465495 -0.05390866 -0.120601796 0.090259746
000060 e4 4b 90 3c 6f 80 5b bd 08 9c e1 ba 00 87 5c bc
       0.017614312 -0.05358928 -0.0017212639 -0.013459921
000070 40 28 f3 bc 08 1d 28 bd c8 77 40 bd 3e 31 00 3d
       -0.029682279 -0.04104331 -0.046989232 0.03129696
000080 fb d2 2a bd ae 18 5e 3c 17 e5 7d bd ed c7 b9 3c
       -0.041705113 0.013555689 -0.061986055 0.02267834
000090 32 f2 8a bd b9 78 5c bb f4 8b 41 3d fc 52 86 b9
       -0.06784476 -0.0033641292 0.04725261 -0.000256203
0000a0 39 c2 69 3d 38 9c 95 3c 7b fd dd bc 44 4b 09 3c
       0.05706999 0.018262967 -0.027098408 0.008379761
0000b0 44 29 b9 bd 33 dd 83 bc 9d 75 02 3c cc d4 90 bc
       -0.09041074 -0.016096687 0.0079626115 -0.017679594
0000c0 4f 65 f8 bb 29 41 f0 b9 dd 19 ae bc 98 95 1a bb
       -0.0075804363 -0.00045824915 -0.021252567 -0.00235877
0000d0 48 6d fa 3d c8 44 24 bd 59 f8 22 bd a1 0d 06 bd
       0.12227875 -0.040104657 -0.039787624 -0.03272784
0000e0 08 15 21 3d be 53 d9 3b b9 40 7b 3d 4d b6 3c 3d
       0.039326698 0.0066322973 0.06134102 0.046072293
0000f0 8c b1 03 bd d3 20 62 3d cf a6 de bc 3d 03 1e 3d
       -0.032151744 0.055207085 -0.02717915 0.038577307
000100 53 2d fa 3c 2b ca 35 3d db 93 c8 bd c8 cf eb bd
       0.03053919 0.044382256 -0.09793826 -0.115142405
000110 58 cb 48 3d a2 1f 3a 3d c8 23 d7 3c 70 0e 60 3b
       0.04902205 0.045440324 0.026262179 0.0034188293
000120 95 7d fc bd da 97 0c bd 45 96 80 bd a9 eb 0b 3d
       -0.1232864 -0.034324504 -0.06278662 0.03416029
000130 75 87 25 bc 34 21 b6 3b 77 8d de 3d e8 6e 78 3b
       -0.010103096 0.0055581573 0.10866826 0.0037907902
000140 cb f2 a9 3c 4c 2a bf bd 79 af 4d bd 4a 88 0e bd
       0.020745656 -0.09334239 -0.050216172 -0.034797944
000150 ab 40 92 bd 93 60 25 bd 36 2a 17 bd db ae 1c bd
       -0.07141241 -0.040375303 -0.03690549 -0.038252693
000160 ef 63 64 3c af d7 c4 bb 30 39 3f 3c 2d db cb 3d
       0.013939842 -0.006007157 0.011671349 0.09953914
000170 ed 09 83 3d 2a bd 11 3d 9b 4c 77 3d 83 de 0c 3d
       0.063983776 0.03558079 0.06037579 0.03439189
000180 ae 48 49 3d 58 8b 39 bd 8b 27 f4 3c 28 2f 6e bd
       0.04914158 -0.045298904 0.029804012 -0.05815044
000190 25 c7 e2 bd 7c 41 9f 3c 9a 0c 19 3d c4 a9 85 3c
       -0.1107314 0.019440405 0.037365533 0.016316302
0001a0 0f d5 52 3d 28 80 8e bd 63 62 eb ba 53 58 6f 3d
       0.05147272 -0.069580376 -0.0017958399 0.058433842
0001b0 ff d6 e6 bc f3 e7 11 3c e5 bb 24 bd c4 8a 10 bd
       -0.02817869 0.008905399 -0.040218253 -0.035288587
0001c0 6b bf 0f bd f2 8b 83 bc aa 67 ab ba b3 8c 99 3c
       -0.03509466 -0.016057942 -0.0013077159 0.018743848
0001d0 60 ed de bc a3 c8 34 3d 3f 11 87 bc b2 1e 7e 3d
       -0.027212799 0.044136655 -0.016487716 0.062040992
0001e0 d9 c6 17 3c ee 72 5d 3d c9 07 10 bb db 65 2b 3d
       0.009263718 0.054064684 -0.0021977297 0.041845184
0001f0 8b 08 ef bd f3 f6 b3 bc d5 b1 c1 3d ad 19 5c 3c
       -0.11671551 -0.02196834 0.09457747 0.013433856
000200 07 f1 a6 bc ea 75 b8 bc fc 46 09 bd d2 9b 5d bc
       -0.020378603 -0.022517163 -0.03351496 -0.01352592
000210 c0 17 97 3c 8a db c3 3d 34 03 61 3c d7 77 29 3d
       0.018443942 0.09563358 0.013733674 0.041374054
000220 25 b9 f2 3c cd 08 3e bd ee d3 25 bb ba 66 1c bd
       0.0296293 -0.04639511 -0.0025303322 -0.038183905
000230 c9 a6 55 3d 62 be 65 bd 9f c7 b3 3a 32 51 fa bc
       0.05216101 -0.056089766 0.0013716108 -0.030556295
000240 79 fa f0 bc fb f3 08 3d 7d a4 f7 bd 0b 24 98 3c
       -0.02941631 0.033435803 -0.120919205 0.018571874
000250 09 05 93 3c e1 01 e7 3d 2b 43 0a 3d 61 f8 69 bc
       0.017946737 0.11279655 0.033755463 -0.01428041
000260 04 50 7d bd bf 06 08 bd ff 06 e7 bc 7d 79 b0 bd
       -0.061843887 -0.03320956 -0.028201578 -0.08616922
000270 7d 7e 71 3d 74 ea 10 bd 52 50 d9 3c b2 79 16 3c
       0.05895852 -0.035379842 0.026527558 0.009184288
000280 59 49 d2 3b 6a e4 5f bd 72 03 a9 3d a8 7a 98 3c
       0.006417435 -0.054661192 0.0825261 0.018613175
000290 89 f8 01 bc b7 43 6d bd a1 37 1f 3d 13 93 ab bc
       -0.007932791 -0.057925906 0.03887141 -0.020944154
0002a0 8c 10 88 3d 69 86 66 3d 0d bd 1b 3d 87 01 80 bd
       0.06643781 0.056280527 0.03802209 -0.06250291
0002b0 2a 38 79 3c 7d ba c3 bc 55 54 8b bd af e6 c9 bc
       0.015211144 -0.023892635 -0.068031944 -0.024646131
0002c0 9e d4 f3 3d 1f a1 e4 bb e7 64 27 3d bc c6 ec 3c
       0.11905788 -0.006977215 0.040867712 0.028903358
0002d0 dc 5a 65 bc 8a c4 c7 3c 04 e5 72 3d 9a 4b d8 3d
       -0.013998713 0.02438571 0.059300438 0.10561295
0002e0 2e 80 23 39 96 49 6c 3d 8d 7d 1c 3c ac 8c 2b 3b
       0.00015592642 0.057687365 0.009551418 0.0026176376
0002f0 4e ce a6 bd 72 50 0f bc 9a 05 2a 3d c2 a3 d6 3c
       -0.08144818 -0.008747207 0.04150925 0.026201133
000300 d1 d9 08 bd 73 10 03 3d bb 27 67 3d 8e 22 e0 3b
       -0.03341085 0.03199811 0.056434374 0.0068400567
000310 86 43 d7 bd ff 0b e2 3d fb 8c 66 bd f1 16 f8 bd
       -0.10510926 0.11037444 -0.056286793 -0.12113751
000320 5f 2e 66 3d c2 78 fc 3c a2 fa 0f bb f2 c7 50 bd
       0.056196567 0.0308193 -0.0021969457 -0.050971933
000330 b8 a5 02 bc fe e3 86 bc af c2 a4 bd 58 db 66 bb
       -0.007974081 -0.016466137 -0.080449454 -0.0035225954
000340 d8 6d c4 3d a5 d2 55 bd 39 c9 d6 bc 53 3d 90 bd
       0.095912635 -0.05220284 -0.026218997 -0.07042947
000350 e1 31 f3 bc 4e 1c b7 3c 43 61 ef bc 62 6b a9 ba
       -0.02968687 0.022352364 -0.029221183 -0.0012925679
000360 65 33 48 3c a2 58 c1 bc 7d 6a 07 3d 2f 46 ed bd
       0.012219285 -0.023601834 0.03306054 -0.11585652
000370 bb da 05 3b 0c 83 50 bd c4 3f 82 bc 84 db ba 3c
       0.0020424563 -0.050906226 -0.015899546 0.022809751
000380 d8 b6 15 bd d5 05 7d 3d a1 0a 00 be bf b9 22 bc
       -0.036551327 0.06177314 -0.12504055 -0.009931981
000390 1d bf 0e 3c 46 2e b4 3d e9 16 bd ba c3 cf 1f 3d
       0.008712557 0.087978885 -0.0014426383 0.039016496
0003a0 cf 77 5c 3d 68 be 17 3d a5 3f 89 3c dc 86 48 3d
       0.053825196 0.03704682 0.01675398 0.048956737
0003b0 60 9a cb 3b fe f5 be ba f4 80 d9 bb fa 10 b9 bd
       0.0062134713 -0.0014569161 -0.006637687 -0.09036441
0003c0 ac b6 c7 bd 80 9e d9 3c da 72 82 bc aa 85 57 bd
       -0.09751639 0.026564837 -0.015923906 -0.052617706
0003d0 ce 53 89 3d c7 9b c2 bd f7 3f 7a 3d e0 e1 4a 3d
       0.067054376 -0.095023684 0.061096158 0.049531817
0003e0 de 00 4d 3d 32 f6 b9 bc e2 54 54 bc 67 a9 a1 bd
       0.050049655 -0.022700403 -0.012959691 -0.07893639
0003f0 bd f2 43 3d 31 74 da 3d 5e 05 8e bd 79 b9 b7 3d
       0.047838915 0.10666693 -0.069346175 0.08970923

model_cnn.classifier.bias f4 [5]
000000 0c 43 be bc 3d 92 66 bd b4 2b 31 3d e9 2e 5c bc
       -0.02322533 -0.056291807 0.04325457 -0.013438919
000010 7c e0 18 3d
       0.03732346

model_cnn.domain_classifier.weight f4 [2, 256]
000000 d1 6b e7 39 9c 62 06 bd b0 d0 54 bc 86 c5 77 3d
       0.00044140083 -0.032808885 -0.012989208 0.060491107
000010 05 02 08 bd 1c b6 10 3d 56 9e 01 3d d9 e4 01 bd
       -0.03320505 0.035329923 0.03164514 -0.031712387
000020 6d 22 1f 3d a8 b1 5b 3c 28 29 ea bc 11 68 11 bd
       0.03885119 0.013409056 -0.028584078 -0.035499636
000030 fb 27 d5 3c ad 6c 48 bd c4 0b 16 3d 2c 7e a7 bb
       0.02602004 -0.048931766 0.036632314 -0.0051114764
000040 08 33 cc 3c a9 aa 15 3d 9e ab 8d 3c a2 b5 33 3d
       0.024926677 0.036539707 0.017293748 0.04387439
000050 1e e6 82 3c 91 b9 6e 3d c0 9f 70 3d 96 54 5c 3d
       0.015978869 0.05828244 0.0587461 0.053791605
000060 11 31 79 bd 8c 8e 20 bd 19 f6 53 3c 6f 07 4e bd
       -0.06083781 -0.039198443 0.012937092 -0.050300058
000070 3b 06 4c bd 3e 53 73 3d f0 5f 7b bd c5 b4 74 3d
       -0.04981063 0.059405558 -0.06137079 0.059742708
000080 b0 dc 1a bd 9e 0a 28 bd 1a 85 01 bd 04 9d 01 3d
       -0.03780812 -0.04102575 -0.031621076 0.031643882
000090 b1 a0 9b 3c 2a cb 33 bd 51 7d 70 3d 5b f4 11 bc
       0.018997522 -0.043894924 0.05871326 -0.008908357
0000a0 54 13 45 3d cc b5 44 3c 4d 59 fe bc d1 f3 68 3d
       0.048114136 0.012006234 -0.031048441 0.056873146
0000b0 43 cc 51 bc 6b f4 24 3d f2 21 8e bb 61 ee 87 38
       -0.012805047 0.040272158 -0.0043375427 6.481703e-05
0000c0 79 0d 24 3d 30 d6 72 3d b8 c1 54 bd f3 ff 1b 3c
       0.04005191 0.059286296 -0.051942557 0.009521472
0000d0 5f d5 33 bc 38 c6 17 3d 7e b8 12 3d 12 0f ed 3b
       -0.010976165 0.03705427 0.035820477 0.0072344625
0000e0 39 bc 8f bc fe 1c c9 bc e6 96 34 3d 8a c3 f8 3c
       -0.017545806 -0.024549957 0.04408922 0.030366678
0000f0 de 7a 75 bd 24 a7 1b 39 80 47 37 3b 9c ae 16 bd
       -0.05993163 0.00014844217 0.0027966201 -0.036787614
000100 03 c4 42 bb 0b 32 7d bc a1 a1 d2 bc 6b 19 57 bd
       -0.0029718883 -0.015453826 -0.025711836 -0.052514475
000110 2e f0 5f 3c f3 d2 a8 3c 6a 21 6a bd f9 4d 3f bd
       0.013668103 0.0206084 -0.057160772 -0.04670522
000120 04 3d 3a 3d 32 56 7c bb f8 5c 71 bd 10 7a ac 3c
       0.045468345 -0.0038503525 -0.058926553 0.021054298
000130 e6 f2 8a 3c d4 f2 3f bd f5 a5 12 3d 92 0e 14 3d
       0.016961526 -0.04686244 0.0358028 0.036146708
000140 e7 17 98 3c 3f 02 f9 bc f2 f7 6f 3d 55 d4 4e 3d
       0.018566085 -0.030396579 0.05858607 0.050495464
000150 ba 04 6b bc e3 9b 16 bd d6 5b 09 3c 34 bc 6b bd
       -0.014344389 -0.03676976 0.008383712 -0.05755253
000160 8b d7 72 3d f7 76 46 bd 95 48 e8 3c f7 a7 28 bc
       0.05928759 -0.048453297 0.028354922 -0.010293952
000170 64 5c de 3c 3c 06 05 3c 2f a1 89 3b d3 d3 4b bc
       0.027143665 0.008119162 0.004200123 -0.01244064
000180 98 1b 14 3d 10 25 db bc 7d 01 34 bc 08 c6 3b 3d
       0.036159128 -0.026751071 -0.010986683 0.045843154
000190 96 3a 70 bd 4c 45 28 bd b9 78 55 bd 45 fb 09 3d
       -0.058649622 -0.04108171 -0.052117083 0.033686895
0001a0 7e f1 75 bd 00 ed 95 bc 68 58 55 3d 22 58 2c bd
       -0.060044758 -0.018301487 0.052086264 -0.042076237
0001b0 88 d6 e9 3c 50 51 68 3d e2 58 52 bd e8 97 c7 3c
       0.02854468 0.05671817 -0.051354297 0.024364427
0001c0 72 71 a0 bc f1 d8 cd bb 86 5e 3a bc 60 ae e3 3c
       -0.019585345 -0.006281965 -0.011375075 0.02779311
0001d0 21 0f de ba 6d 69 66 bd 98 76 0b 3d 74 af fa 3b
       -0.0016941765 -0.056252886 0.034048647 0.00765031
0001e0 8c db 4c 3d 22 a2 32 3b a8 07 49 3d 61 8a 78 3d
       0.050014064 0.0027257283 0.049079567 0.060678843
0001f0 60 28 5b bd b7 cd f9 3c 5b 88 b5 bc 97 38 74 bd
       -0.0535053 0.0304936 -0.022159746 -0.05962428
000200 57 cc e9 3a 6b d2 1b bd da ac b6 3c 69 c4 57 3d
       0.0017837387 -0.038042467 0.022299219 0.052677546
000210 83 ab 26 3d 2a cd be 3b f2 fb 48 3b 25 63 ef bc
       0.04069091 0.0058227973 0.003066775 -0.02922208
000220 e2 d2 37 3d 77 17 35 3c c1 37 85 bc 36 eb 7f bc
       0.044878848 0.011052958 -0.016261937 -0.0156200435
000230 94 28 04 bd 86 22 22 3c 8a 8a 66 bb 31 d8 3e 3d
       -0.03226526 0.009895926 -0.003517779 0.046592895
000240 12 65 74 3d c0 1d 77 bd f9 1e 4c 3d 65 1f 69 bd
       0.0596667 -0.060331106 0.049834225 -0.056914706
000250 9b 86 76 bd 95 8f 56 bd 3a 03 54 3d dc 8f ba bc
       -0.060186964 -0.052383024 0.05176089 -0.022773676
000260 c9 f1 10 bd dc a3 3c 3d aa 45 3b 3d a2 90 e0 3c
       -0.035386834 0.046054706 0.045720734 0.027412716
000270 ab f8 2b 3d d8 08 9d 3c 6a 6a 76 bd c1 69 d2 bc
       0.041985195 0.019169256 -0.060160078 -0.025685193
000280 ef 4b 60 3b dc ad 7c 3c 14 7f 37 3d 55 5a 1d 3c
       0.0034224947 0.015422311 0.044798926 0.009604056
000290 8c 36 38 3d 52 00 41 bd 57 49 13 bd 51 51 55 bd
       0.044973895 -0.047119446 -0.035958614 -0.052079502
0002a0 78 41 38 bd 78 06 98 3c 7a b4 0a 3d 70 f6 1b bb
       -0.04498431 0.018557772 0.033863522 -0.0023798011
0002b0 8d 8e 1b 3d 16 89 56 bd 9b 7f 42 3d 13 59 21 3d
       0.037977744 -0.05237683 0.047484975 0.03939159
0002c0 dd 2a 79 bd 76 59 1e 3c 21 2a 20 bc f2 73 2a bb
       -0.060831893 0.009664884 -0.009775669 -0.002600905
0002d0 18 62 72 bd 09 65 4d bd 89 96 50 bd 71 49 25 bd
       -0.05917558 -0.050145183 -0.05092481 -0.040353242
0002e0 9f 0f 2d 3c ca 99 83 3c e8 56 5f 3d e6 92 65 bc
       0.010562806 0.016064543 0.05452624 -0.014012074
0002f0 ad c5 e3 3c 24 f6 16 3d 2c 12 cc 3c 01 79 48 bd
       0.02780422 0.03685583 0.024911009 -0.048943523
000300 32 23 25 bc 7e cf 02 3c ae 31 04 3d bc 9d 16 b9
       -0.010079192 0.00798404 0.03227394 -0.00014363875
000310 c5 99 5b bd 57 67 bb bc 15 9b 15 bc 1c 34 0e 3c
       -0.053613443 -0.022876425 -0.009131213 0.008679416
000320 f0 ca 4a bd 1e 72 73 bd 9d 8b c1 bc f4 a9 6c 3d
       -0.049509943 -0.059435003 -0.023626143 0.057779267
000330 0e 27 53 bd 9b 58 44 bd f1 80 66 3d f0 83 41 3c
       -0.051550917 -0.047936063 0.05627531 0.0118112415
000340 dc 56 5f bd 0e 05 22 bc e7 dc 69 bd 97 8f de ba
       -0.054526195 -0.0098889 -0.057095435 -0.0016980049
000350 56 cf 55 3c 55 f9 b0 3b 22 16 2f 3d d7 f1 9f bc
       0.013049921 0.0054008164 0.042745717 -0.019524498
000360 a9 6f 37 bc c1 10 4a bd e2 5b 68 3d be 43 17 3d
       -0.011196055 -0.049332384 0.05672825 0.03692984
000370 cb 92 89 3c 31 25 cd bb 56 95 65 3d 80 c9 55 3c
       0.01679363 -0.006260537 0.05605062 0.01304853
000380 56 d1 8f 3c 6f bf 68 bd 2a c8 6e bd fb b4 42 3d
       0.017555874 -0.05682319 -0.05829636 0.047535878
000390 25 b5 1d 3c 85 15 89 3c ac 9a 6e 3d 49 b6 52 bd
       0.009625708 0.016733894 0.058252975 -0.051443372
0003a0 0b ae 2b 3c b3 f1 57 bd ce 93 d4 bb 0e 1b 79 bd
       0.010478507 -0.052720737 -0.0064873463 -0.060816817
0003b0 b7 86 57 3d 97 77 21 3d e6 ba 83 bb 2d b0 11 bb
       0.05261871 0.03942069 -0.0040200828 -0.0022230253
0003c0 68 f5 20 bd 67 67 96 3c 7b cc c0 bb dd ce 50 3c
       -0.039296538 0.018359853 -0.005883751 0.012744633
0003d0 cb db 94 3c 4c 9e 14 3d 5a e9 8d 3c 2d 48 76 bd
       0.018171212 0.036283776 0.017323185 -0.060127426
0003e0 0b 4f 35 bd c6 d6 72 3d 56 ba 59 3d 15 f4 6b 3d
       -0.044264834 0.059286855 0.05315622 0.05760582
0003f0 c1 8f 97 bc aa 00 eb bc d4 84 e7 3c 94 08 7b bd
       -0.018501164 -0.02868684 0.02826158 -0.061287478

model_cnn.domain_classifier.bias f4 [2]
000000 d1 bc 18 bc 05 eb 46 3b
       -0.009322361 0.0030352485
