checkpoint/transfer_WideResNet_sa_lirich_to_spinel5v_1210/best_model.pth (torch, 110818 bytes, 10 tensors)

model_cnn.conv1.weight f4 [32, 21, 3]
-0.066048086 -0.05603247 -0.009272217 0.0024809744 -0.097577296 -0.120437264 -0.014521447 0.03743019
0.030521339 -0.084762126 0.06628791 -0.097188056 -0.08280031 0.07560095 0.005221196 0.032711558
-0.12461372 -0.12840296 -0.041914217 0.09132686 -0.15421839 0.058605783 -0.07711582 -0.11181436
0.09254277 -0.103383034 0.033625733 -0.04002064 0.08052513 -0.12902708 0.07074549 0.08784049
0.039770573 0.10821361 0.102501124 0.07458416 0.09993472 0.11967199 0.10899844 0.061172623
-0.08730464 0.066300675 0.00047526017 0.055094592 0.005878247 0.07632039 -0.10373115 -0.07745485
-0.036834307 0.1109399 -0.07798321 -0.008655349 -0.045585092 -0.12540574 -0.099227145 -0.09002742
-0.090956524 -0.10674104 -0.026063448 0.11025913 -0.061299648 -0.039116837 -0.04625459 0.03385836
0.08159241 -0.053687777 -0.057668332 0.039586473 -0.119949736 0.072555 -0.050236564 0.0523123
0.086249754 0.012203061 -0.13609175 -0.04707329 0.09952638 -0.12474496 0.10749994 -0.09216986
-0.022296349 0.070471235 -0.12277396 -0.12603301 -0.048170865 -0.118495 -0.026523007 0.058339015
0.036368407 -0.13597535 -0.042222247 -0.105318084 -0.0831752 0.03970424 0.01100317 0.10700294
0.029340548 -0.10510691 0.026526773 -0.0823779 -0.11698206 -0.10239798 0.10170052 -0.08097554
0.07823226 -0.097796105 0.09728814 -0.08782331 0.020042425 -0.14404091 -0.06620614 -0.042642906
-0.0129807 -0.058681466 -0.03988907 -0.022031626 0.07854523 -0.1337058 -0.105710834 0.035471793
-0.02846931 -0.04039187 -0.013655895 0.11366052 -0.121714264 0.08864061 0.044383563 -0.086990714
-0.035543606 -0.04765019 -0.05213535 -0.084123135 0.093590446 0.11104647 0.024896046 0.06282903
0.098566286 0.06279408 0.13130178 0.05668481 -0.112337515 0.14194654 0.022808282 -0.045648072
0.03288644 -0.074444875 -0.04554072 0.005496601 -0.04984265 -0.10453036 -0.016531859 0.10972248
-0.010063238 0.003270341 -0.013154595 -0.08638829 0.012986547 -0.09645294 0.053634178 0.10802609
0.11096698 -0.037824757 -0.114745915 0.018788408 0.094160154 0.021239942 -0.123260126 0.11920412
-0.10635106 0.03554723 0.12761644 -0.06417432 -0.030265646 0.024269069 -0.025445685 0.069158845
0.034298826 -0.008956189 -1.1265952e-05 -0.04489926 -0.019154666 -0.08880829 0.12398034 -0.011495234
0.04135882 0.050383653 0.08104126 -0.03766108 -0.10071965 -0.0069426163 -0.09741393 -0.030331727
-0.049252246 -0.111708336 0.07270598 0.14137442 0.018959258 0.11795293 0.08872869 0.11003343
0.023272822 0.10428516 -0.0650548 -0.10161623 0.05140658 -0.04393409 0.13502495 0.013955796
-0.03545747 0.10804913 0.12498132 0.09593623 0.07883253 -0.03269967 0.07381846 0.04116014
-0.041360527 -0.087793894 0.12956199 -0.11782913 0.029721746 -0.06510569 -0.108111106 -0.05727308
-0.047395203 0.068090044 -0.0077292365 0.11722408 0.015086308 -0.008552199 0.07104057 -0.021928897
0.060703468 0.032126877 -0.009184591 -0.09435244 0.08902834 -0.092394225 0.044101045 -0.12725684
0.005846064 0.0007626248 0.041808717 -0.09212881 -0.1127235 -0.05031662 -0.059142575 -0.11645187
0.094215624 0.00664089 0.053164534 0.0545442 -0.040691726 -0.040459123 -0.077849954 0.095436156
00000000: 3844 87bd 4e82 65bd 7fea 17bc d897 223b
00000010: 9bd6 c7bd d0a7 f6bd 5deb 6dbc 6650 193d
00000020: e307 fa3c c497 adbd f5c1 873d 880a c7bd
00000030: 3593 a9bd acd4 9a3d 9116 ab3b 8efc 053d
00000040: 7a35 ffbd 117c 03be 3eae 2bbd 9409 bb3d
00000050: 6deb 1dbe 9e0c 703d e6ee 9dbd edfe e4bd
00000060: 1087 bd3d 7cba d3bd 23bb 093d afec 23bd
00000070: 5cea a43d ad1f 04be 03e3 903d b7e5 b33d
00000080: 78e6 223d 199f dd3d 1cec d13d 94bf 983d
00000090: 93aa cc3d 9716 f53d 933a df3d 2590 7a3d
000000a0: c6cc b2bd a6c8 873d 572c f939 deaa 613d
000000b0: 4f9e c03b dd4d 9c3d ff70 d4bd a6a0 9ebd
000000c0: 92df 16bd 7534 e33d a9b5 9fbd 2acf 0dbc
000000d0: 6fb7 3abd 5d6a 00be 9a37 cbbd 4c60 b8bd
000000e0: 6a47 babd 0c9b dabd 0383 d5bc 8acf e13d
000000f0: 5715 7bbd fa38 20bd 7475 3dbd 10af 0a3d
00000100: ec19 a73d b7e7 5bbd a135 6cbd 6d25 223d
00000110: 35a8 f5bd b797 943d dbc4 4dbd 6c45 563d
00000120: b6a3 b03d 59ef 473c a35b 0bbe eccf 40bd
00000130: 7dd4 cb3d 497a ffbd ee28 dc3d 8dc3 bcbd
00000140: d5a6 b6bc 3953 903d ea70 fbbd cc0e 01be
00000150: d04e 45bd 82ad f2bd c746 d9bc e4f4 6e3d
00000160: 0af7 143d 1f3d 0bbe 3cf1 2cbd 02b1 d7bd
00000170: c257 aabd eaa0 223d a446 343c 5b24 db3d
00000180: 975b f03c 4b42 d7bd ad4e d93c bfb5 a8bd
00000190: 4a94 efbd 08b6 d1bd 5d48 d03d 81d6 a5bd
000001a0: 3c38 a03d 5349 c8bd 013f c73d b5dc b3bd
000001b0: 0330 a43c 767f 13be 1697 87bd 54aa 2ebd
000001c0: 00ad 54bc fa5b 70bd b962 23bd ab7b b4bc
000001d0: 52dc a03d 2cea 08be ec7e d8bd df4a 113d
000001e0: 7838 e9bc f271 25bd fabc 5fbc d9c6 e83d
000001f0: 5445 f9bd 3589 b53d 8acb 353d 3028 b2bd
00000200: 2c96 11bd d82c 43bd e08b 55bd c048 acbd
00000210: 59ac bf3d 556c e33d cbf2 cb3c 82ac 803d
00000220: 1fdd c93d 2f9a 803d f973 063e 552e 683d
00000230: 3611 e6bd 6f5a 113e 6fd8 ba3c 79f9 3abd
00000240: efb3 063d 8e76 98bd e888 3abd d51c b43b
00000250: ce27 4cbd 0314 d6bd d26d 87bc 2eb6 e03d
00000260: 48e0 24bc 3853 563b 5f86 57bc 58ec b0bd
00000270: 87c5 543c 1e89 c5bd 83af 5b3d c83c dd3d
00000280: a842 e33d 22ee 1abd e8ff eabd 26ea 993c
00000290: 0ad7 c03d 63ff ad3c ce6f fcbd 4a21 f43d
000002a0: 96ce d9bd f999 113d e2ad 023e d36d 83bd
000002b0: a9ef f7bc edcf c63c 7873 d0bc 27a3 8d3d
000002c0: ed7c 0c3d fbbc 12bc e502 3db7 49e8 37bd
000002d0: 3fea 9cbc 1fe1 b5bd 68e9 fd3d 8256 3cbc
000002e0: de67 293d 175f 4e3d f6f8 a53d 8142 1abd
000002f0: 1b46 cebd e37e e3bb f480 c7bd 3e7a f8bc
00000300: b9bc 49bd 57c7 e4bd dfe6 943d 75c4 103e
00000310: 7250 9b3c 4e91 f13d 63b7 b53d 3559 e13d
00000320: a5a6 be3c 7593 d53d 733b 85bd 2c1c d0bd
00000330: b58f 523d 3bf4 33bd fb43 0a3e daa6 643c
00000340: da3b 11bd dd48 dd3d 35f6 ff3d 377a c43d
00000350: f372 a13d 17f0 05bd 222e 973d 8997 283d
00000360: a869 29bd 49cd b3bd e6ab 043e 6650 f1bd
00000370: 057b f33c 2256 85bd 5b69 ddbd 2d97 6abd
00000380: 7921 42bd cb72 8b3d 8945 fdbb 2e13 f03d
00000390: 902c 773c 861e 0cbc b87d 913d 3ba4 b3bc
000003a0: 33a4 783d 7997 033d f77a 16bc da3b c1bd
000003b0: 7e54 b63d 2f39 bdbd 4ca3 343d 9e4f 02be
000003c0: 5790 bf3b e2ea 473a 9e3f 2b3d 08ae bcbd
000003d0: 94db e6bd cd18 4ebd 7c3f 72bd 517e eebd
000003e0: 1ff4 c03d d39b d93b 0ec3 593d bd69 5f3d
000003f0: 5eac 26bd 77b8 25bd cc6f 9fbd 0874 c33d

model_cnn.conv1.bias f4 [32]
0.10922839 -0.017126428 -0.033923294 -0.025644124 0.1133393 0.041361555 -0.09193035 -0.024387214
-0.030765569 -0.013033329 0.095614366 -0.039919242 0.015129444 -0.078223325 -0.10195483 -0.050383657
-0.0035418447 0.014423683 -0.06542028 0.12253896 0.09412816 -0.054679643 -0.017935684 0.08946964
-0.10945592 -0.08115398 0.11091092 0.11148812 0.099982664 0.09983785 0.114694215 0.016043255
00000000: 22b3 df3d b94c 8cbc 27f3 0abd a013 d2bc
00000010: 6f1e e83d bc6a 293d fb45 bcbd b2c7 c7bc
00000020: 1308 fcbc be89 55bc 77d1 c33d 5c82 23bd
00000030: 7de1 773c 8d33 a0bd b2cd d0bd 185f 4ebd
00000040: 4b1e 68bb 5051 6c3c 11fb 85bd b5f5 fa3d
00000050: 44c6 c03d c3f7 5fbd dbed 92bc dc3b b73d
00000060: 6d2a e0bd 0f34 a6bd 4425 e33d e253 e43d
00000070: b6c3 cc3d c977 cc3d cde4 ea3d 256d 833c

model_cnn.conv2.weight f4 [64, 32, 3]
0.0017933559 0.0063538267 -0.090253584 -0.055251587 -0.0053141983 -0.040564097 0.07262065 -0.046822324
0.020039912 -0.046933863 0.056720234 -0.08565436 0.051491566 0.10580569 -0.02614068 0.09784974
0.015385036 -0.0693675 -0.093882844 0.04689739 0.046574235 -0.057034105 0.07141831 0.044493586
-0.06573923 -0.007391228 -0.04678198 0.050418574 -0.03598641 0.079297036 -0.004184217 0.043893095
0.07322073 -0.013220316 -0.023945227 0.031421293 0.0055089407 0.08244393 -0.0025337513 0.11090405
0.07595963 0.0895274 -0.010728098 0.004870236 0.08475293 -0.012214839 0.099297225 0.024587976
0.047422655 0.09191419 0.08564687 -0.073641345 0.087352194 0.066708036 -0.08814639 0.08677297
0.0458872 0.01142748 -0.09883228 -0.03476924 0.054923393 0.011388067 0.054352563 -0.07220576
0.07313641 0.026239825 0.06923474 0.09937782 0.08224525 0.0067309183 0.027635373 0.06460553
-0.021611134 -0.06117983 0.050402142 0.016188333 -0.0068452647 -0.09564079 -0.021630308 0.106333636
-0.0070960536 0.016721783 0.0386924 -0.0616947 0.08346648 0.093434796 -0.017179994 0.032408785
-0.085590236 -0.08363015 -0.00067190063 -0.10019883 -0.05160701 0.07419603 0.104246356 0.005460089
-0.012202546 0.09049268 -0.092593335 0.09150113 -0.048183292 0.0020271195 -0.00222499 -0.042468358
0.039160863 -0.015009404 0.0041913204 -0.02220917 0.049421318 -0.058408238 -0.07492007 -0.051519185
0.0980507 0.006660777 0.020449 0.04354094 -0.029640006 0.06604487 -0.08504907 -0.04707043
0.09059786 -0.034828275 -0.05885461 -0.09640852 -0.09552539 0.014194142 -0.06672052 -0.09476641
0.10181158 0.043105364 0.08173734 0.031202191 -0.018437305 -0.06722878 -0.09807785 -0.092623405
-0.10193232 -0.015098168 0.0085197175 0.086542 -0.021450106 -0.09158213 -0.06531555 0.09156388
0.06715859 0.029874595 -0.07615139 0.014780417 -0.045776315 0.048385095 0.031084524 0.070701145
-0.009217379 0.10118886 0.026946988 0.07962777 0.0033940393 0.05672906 0.072492704 0.012524387
0.08335222 -0.08935462 -0.010971928 -0.016047083 -0.0041037784 0.030530676 -0.02926846 -0.026059428
0.06744463 -0.07364998 -0.006124949 0.07815044 0.094862364 -0.082250856 0.034333225 0.044349965
0.021256773 0.0333656 -0.03928257 0.019342972 0.019067256 0.030331114 0.019128265 -0.06365343
0.010001034 -0.043061465 0.056682892 0.07126959 -0.100606464 -0.07420813 -0.061708197 -0.0488263
0.04280197 -0.06446189 0.09565691 -0.09138015 -0.048478402 -0.046335977 0.06198564 -0.0067305076
0.031233156 0.015403156 0.012955725 0.084970504 -0.030325165 -0.09402797 0.03618502 0.067347765
-0.06574663 -0.047403567 -0.066987075 0.06313145 -0.019159447 -0.073894165 -0.06883526 -0.032668944
0.014870344 0.08482086 -0.09627013 0.06812112 -0.031741835 -0.08017886 -0.077575035 -0.05562895
-0.060763568 0.043635353 0.07183897 -0.059946477 0.10101323 -0.09112963 -0.058710877 -0.035051566
-0.024674177 -0.08845977 0.046598084 0.006624947 -0.07934354 -0.047250032 -0.10238087 -0.02911323
0.025829664 0.0052149887 0.058354836 -0.010352308 -0.011208389 0.07078 -0.09231972 -0.02240671
0.037298143 -0.0044662203 0.044446293 0.07621031 0.035624262 0.03320043 -0.03420356 0.011034321
00000000: 0a0f eb3a c333 d03b dfd6 b8bd 7d4f 62bd
00000010: ba22 aebb 8a26 26bd 23ba 943d c4c8 3fbd
00000020: be2a a43c b93d 40bd 7a53 683d 8e6b afbd
00000030: d2e8 523d a7b0 d83d fb24 d6bc 7265 c83d
00000040: 8511 7c3c 8c10 8ebd a645 c0bd 7a17 403d
00000050: a0c4 3e3d 989c 69bd c343 923d e83e 363d
00000060: 4aa2 86bd 1d32 f2bb 769e 3fbd b583 4e3d
00000070: 7c66 13bd 7c66 a23d c21b 89bb 3fc9 333d
00000080: c0f4 953d 069a 58bc c828 c4bc 9db3 003d
00000090: 5884 b43b 5dd8 a83d 4b0d 26bb aa21 e33d
000000a0: b990 9b3d 245a b73d e8c4 2fbc 8096 9f3b
000000b0: f292 ad3d c020 48bc 585c cb3d b96c c93c
000000c0: 423e 423d 823d bc3d a067 af3d 46d1 96bd
000000d0: b5e5 b23d 399e 883d 1886 b4bd 07b6 b13d
000000e0: 37f4 3b3d 533a 3b3c 9468 cabd 316a 0ebd
000000f0: 5af7 603d 0495 3a3c cba0 5e3d 9de0 93bd
00000100: 8bc8 953d e7f4 d63c f2ca 8d3d 9986 cb3d
00000110: 3370 a83d 098f dc3b 9463 e23c e74f 843d
00000120: d509 b1bc b497 7abd 7a72 4e3d 659d 843c
00000130: 3e4e e0bb 52df c3bd 0b32 b1bc 73c5 d93d
00000140: 0386 e8bb 1ffc 883c ec7b 1e3d 95b3 7cbd
00000150: 79f0 aa3d be5a bf3d 0fbd 8cbc 13bf 043d
00000160: ef49 afbd 4946 abbd 7d22 30ba 0b35 cdbd
00000170: df61 53bd 17f4 973d 1d7f d53d 8cea b23b
00000180: 30ed 47bc 3a54 b93d 93a1 bdbd f264 bb3d
00000190: d85b 45bd 6cd9 043b 23d1 11bb 4df3 2dbd
000001a0: 2467 203d 01ea 75bc 5857 893b 01f0 b5bc
000001b0: 026e 4a3d 7a3d 6fbd b26f 99bd c805 53bd
000001c0: cece c83d a642 da3b a984 a73c fc57 323d
000001d0: 99cf f2bc 8842 873d 352e aebd eccc 40bd
000001e0: 5f8b b93d 18a8 0ebd 8811 71bd d571 c5bd
000001f0: d1a2 c3bd 8c8e 683c c5a4 88bd e414 c2bd
00000200: 9782 d03d 408f 303d e865 a73d bd9b ff3c
00000210: d509 97bc 3eaf 89bd 0add c8bd 57b1 bdbd
00000220: e4c1 d0bd 4e5e 77bc 4996 0b3c ef3c b13d
00000230: 22b8 afbc 698f bbbd 29c4 85bd d885 bb3d
00000240: 718a 893d 91bb f43c 43f5 9bbd 9029 723c
00000250: f27f 3bbd 732f 463d f9a4 fe3c c3cb 903d
00000260: 7d04 17bc 1b3c cf3d eebf dc3c e213 a33d
00000270: 886e 5e3b bb5c 683d 0e77 943d 1633 4d3c
00000280: 92b4 aa3d 8eff b6bd 9ac3 33bc 2c75 83bc
00000290: fd78 86bb 781b fa3c 69c4 efbc 957a d5bc
000002a0: 6920 8a3d cdd5 96bd ccb3 c8bb 560d a03d
000002b0: 3347 c23d 2373 a8bd ffa0 0c3d 4fa8 353d
000002c0: af22 ae3c 5eaa 083d c3e6 20bd 2775 9e3c
000002d0: ef32 9c3c f578 f83c e1b2 9c3c bb5c 82bd
000002e0: 60db 233c 3861 30bd 522c 683d caf5 913d
000002f0: c30a cebd 6ffa 97bd bcc1 7cbd 16fe 47bd
00000300: 1e51 2f3d 9804 84bd c5e7 c33d 8425 bbbd
00000310: 4a91 46bd cbca 3dbd a8e4 7d3d 978b dcbb
00000320: addc ff3c 855d 7c3c 4044 543c 0405 ae3d
00000330: 7b6c f8bc bd91 c0bd be36 143d a0ed 893d
00000340: 2ba6 86bd 3e2a 42bd 8530 89bd 104b 813d
00000350: 46f4 9cbc d355 97bd 80f9 8cbd dfcf 05bd
00000360: bea2 733c 8fb6 ad3d 4629 c5bd 1683 8b3d
00000370: ba03 02bd d034 a4bd a9df 9ebd 2fdb 63bd
00000380: 38e3 78bd fcba 323d 4f20 933d 708a 75bd
00000390: 06e0 ce3d 2ca2 babd d17a 70bd 3b92 0fbd
000003a0: 8021 cabc 652a b5bd a2dd 3e3d 1516 d93b
000003b0: de7e a2bd 4089 41bd 10ad d1bd de7e eebc
000003c0: bb98 d33c 7fe2 aa3b 7b05 6f3d ba9c 29bc
000003d0: 64a3 37bc 1bf5 903d 1f12 bdbd 478e b7bc
000003e0: f0c5 183d 5f59 92bb 510d 363d 2714 9c3d
000003f0: bfea 113d 2dfd 073d 0819 0cbd 4cc9 343c

model_cnn.conv2.bias f4 [64]
-0.05018461 0.063537374 -0.04877068 -0.058581572 -0.09046051 -0.060918637 -0.0043875333 -0.08348068
0.08071548 0.03484885 -0.07644981 0.07708153 0.09364349 -0.08465977 0.066004194 -0.01635982
-0.012263443 0.058381457 0.095175594 -0.061340317 0.014522982 0.07704351 -0.036381587 -0.08304849
-0.060568918 -0.037029862 -0.03131962 0.0015568157 0.0006624415 0.07024475 0.08013839 -0.010341633
-0.07070771 0.033527113 -0.046196464 0.061094806 0.08993901 -0.0013848633 0.02017704 0.08881053
0.051065035 -0.09182217 -0.09116411 0.034586 -0.092499025 0.00077150314 -0.0729704 0.016420415
0.090633534 0.0816515 0.01543685 -0.017034063 0.036453553 -0.0372536 0.09661561 -0.042411488
-0.042134058 0.037079044 -0.08048917 0.048109725 -0.015402443 -0.06402345 0.09163646 -0.0017001452
00000000: 618e 4dbd e21f 823d c4c3 47bd 3bf3 6fbd
00000010: 5c43 b9bd d285 79bd 4cc5 8fbb ebf7 aabd
00000020: 284e a53d abbd 0e3d b891 9cbd ecdc 9d3d
00000030: 28c8 bf3d 1a62 adbd 352d 873d 0705 86bc
00000040: 9cec 48bc 6521 6f3d 6ceb c23d fc3f 7bbd
00000050: cdf1 6d3c fdc8 9d3d dc04 15bd 5415 aabd
00000060: 1d17 78bd a0ac 17bd 0049 00bd 110e cc3a
00000070: b2a7 2d3a 7bdc 8f3d 991f a43d f46f 29bc
00000080: 34cf 90bd ba53 093d 8138 3dbd 8c3e 7a3d
00000090: f231 b83d 4d84 b5ba 524a a53c 4ce2 b53d
000000a0: 9229 513d 430d bcbd 40b4 babd 0daa 0d3d
000000b0: 2170 bdbd b33e 4a3a 8171 95bd 1b84 863c
000000c0: 139e b93d e738 a73d d7ea 7c3c 058b 8bbc
000000d0: 5250 153d 3b97 18bd 68de c53d abb7 2dbd
000000e0: c394 2cbd 32e0 173d 82d7 a4bd b40e 453d
000000f0: 875a 7cbc ba1e 83bd e5ab bb3d 68d7 deba

model_cnn.fc1.weight f4 [256, 64]
-0.062028624 0.007463759 0.06751882 0.1081138 -0.09789896 -0.050645374 0.03452041 -0.05654576
-0.071032725 0.03821306 -0.09446743 0.08291907 -0.117507584 0.105100386 0.087276064 0.1296926
0.07012895 0.07905141 0.00308256 -0.03255718 -0.0072219786 0.04324482 -0.08723325 0.06254193
-0.086917914 -0.10671884 -0.054031823 -0.038275864 0.046176076 0.09105923 0.123868726 -0.10685044
0.020930681 -0.025492761 0.09231624 -0.036415268 -0.018452907 -0.1117431 0.017834527 0.12560353
0.07409103 0.05127286 -0.00092900614 -0.11030931 -0.0020853537 0.040815987 -0.1276268 -0.085311644
0.010874201 0.07983628 -0.0758152 -0.112211294 -0.098237745 0.07366217 0.100705095 -0.098182075
-0.10751927 -0.002656814 0.11544629 -0.031268835 0.09491618 0.051366184 0.0031116519 -0.10439361
0.087294646 -0.021583745 0.03128192 -0.06515575 -0.0541483 -0.06345457 -0.12117508 -0.013377857
0.11722766 -0.11210981 -0.026350679 -0.11641007 -0.05883508 0.0033076473 -0.083376266 0.058773167
-0.040657386 -0.038858503 -0.083314076 0.0578513 0.10012765 0.11215541 -0.09564844 -0.123503216
-0.051452257 0.03471324 0.0054900898 0.047070093 -0.0070009786 0.07534436 -0.070693776 -0.052300207
-0.0037833918 0.11644058 -0.034819953 0.048860673 0.038883515 -0.043220263 -0.088368915 0.047241926
0.07231175 -0.10015221 -0.051002093 -0.047270767 0.09991605 -0.10819884 0.028394813 -0.040011458
-0.08092161 0.12032159 -0.06722759 -0.07943097 -0.06797778 0.062252276 -0.0054570097 -0.07342168
-0.051903993 -0.110521644 0.095431186 -0.013367541 -0.046811175 0.025037048 -0.037052974 0.027892819
0.106735274 0.05633932 0.122344345 0.008906425 -0.050968055 -0.09640537 0.075480334 -0.0090351775
-0.005003315 0.07140723 -0.03691201 -0.01249647 0.085667945 -0.058344487 -0.12395435 0.06107077
-0.030917991 -0.06966905 0.0027866384 0.09687336 -0.016719595 0.11840602 -0.041031517 0.051849335
0.03655118 -0.037290268 -0.061857507 0.04649482 -0.034516945 -0.07207284 -0.0040662666 0.10757117
-0.07026241 0.09793879 -0.0021976612 0.101837926 -0.057386655 -0.051951334 0.11588848 -0.01565958
0.11379784 -0.01829993 -0.13410427 0.07212217 0.04520542 -0.020906454 0.011206463 0.08265456
-0.08694726 0.030031264 -0.09762474 -0.10191218 -0.03700833 -0.092519335 -0.12515458 -0.09186663
0.10963999 0.0932174 -0.026133336 0.09360882 0.038873307 -0.075301185 0.08364261 0.016617171
0.12845117 0.11427511 -0.056521557 0.011806837 -0.1248404 0.101888575 -0.070554554 -0.008295373
-0.044669423 0.121692784 0.0064497017 -0.099181496 -0.11621656 0.101271026 0.05530117 0.049525157
-0.11135151 0.012230715 0.11598597 0.047049366 0.008715698 0.01294118 -0.07760687 -0.058446385
-0.09259387 -0.11728237 -0.10910445 0.06381216 0.063611306 0.029449992 0.059569877 -0.10662998
-0.025260914 -0.12674372 0.06742245 -0.10509812 -0.024749974 -0.037093263 0.031424407 0.11399505
-0.050231628 0.10287975 0.007542456 -0.06395983 -0.00069940864 -0.08661228 -0.03324244 0.109104715
-0.13427214 -0.060177833 0.024430584 -0.076978624 -0.05515634 0.101296686 0.10623276 -0.060443167
-0.088386305 0.04099377 -0.10749612 -0.015378382 -0.039731055 0.08478695 0.07291479 -0.06716763
00000000: ba11 7ebd 8c92 f43b 4f47 8a3d c56a dd3d
00000010: 407f c8bd 8671 4fbd 4665 0d3d 879c 67bd
00000020: 9b79 91bd 4c85 1c3d 2478 c1bd 79d1 a93d
00000030: d1a7 f0bd df3e d73d cbbd b23d 23ce 043e
00000040: c49f 8f3d b5e5 a13d c604 4a3b ad5a 05bd
00000050: 59a6 ecbb 7b21 313d 59a7 b2bd fc15 803d
00000060: 0502 b2bd 688f dabd 7950 5dbd 27c7 1cbd
00000070: 2023 3d3d 437d ba3d e3ae fd3d 67d4 dabd
00000080: d276 ab3c 32d6 d0bc 4c10 bd3d 2d28 15bd
00000090: 8d2a 97bc 91d9 e4bd b719 923c 369e 003e
000000a0: 0abd 973d 7e03 523d 8c88 73ba d9e9 e1bd
000000b0: 6eaa 08bb aa2e 273d 9ab0 02be dfb7 aebd
000000c0: b429 323c 3481 a33d 0045 9bbd 09cf e5bd
000000d0: df30 c9bd 31dc 963d 793e ce3d af13 c9bd
000000e0: 1033 dcbd f11d 2ebb 1b6f ec3d c013 00bd
000000f0: 6a63 c23d 5965 523d dbec 4b3b 51cc d5bd
00000100: 89c7 b23d 65d0 b0bc 7821 003d 6170 85bd
00000110: 9cca 5dbd 78f4 81bd a42a f8bd cd2e 5bbc
00000120: 0e15 f03d d499 e5bd 61dd d7bc 6768 eebd
00000130: 0efd 70bd 1dc5 583b 2dc1 aabd 22bc 703d
00000140: 5c88 26bd 182a 1fbd 92a0 aabd 7cf5 6c3d
00000150: ba0f cd3d bcb1 e53d 54e3 c3bd 41ef fcbd
00000160: 9abf 52bd 782f 0e3d 36e6 b33b 92cc 403d
00000170: 7768 e5bb 254e 9a3d e6c7 90bd be38 56bd
00000180: c8f2 77bb 6678 ee3d 5e9f 0ebd 2122 483d
00000190: 5244 1f3d bb07 31bd c3fa b4bd c080 413d
000001a0: 2f18 943d 9a1c cdbd 92e7 50bd fe9e 41bd
000001b0: c9a0 cc3d 5a97 ddbd 3d9c e83c 0ee3 23bd
000001c0: 3bba a5bd 2a6b f63d 9eae 89bd b4ac a2bd
000001d0: ef37 8bbd 3efc 7e3d b7d0 b2bb 1b5e 96bd
000001e0: 4899 54bd 2c59 e2bd 6d71 c33d 8803 5bbc
000001f0: 13bd 3fbd 7f1a cd3c dcc4 17bd 7b7f e43c
00000200: 0698 da3d 0fc4 663d ac8f fa3d 41ec 113c
00000210: e1c3 50bd 2e70 c5bd 6f95 9a3d 4808 14bc
00000220: d9f2 a3bb f43d 923d 0c31 17bd febd 4cbc
00000230: ad72 af3d a1fa 6ebd c7db fdbd 5825 7a3d
00000240: ba47 fdbc a6ae 8ebd 09a0 363b 8a65 c63d
00000250: 88f7 88bc db7e f23d aa10 28bd f85f 543d
00000260: b1b6 153d aebd 18bd 4c5e 7dbd 5a71 3e3d
00000270: a461 0dbd ed9a 93bd 513e 85bb 464e dc3d
00000280: bde5 8fbd 2294 c83d a306 10bb 6790 d03d
00000290: 450e 6bbd ecca 54bd f056 ed3d 8548 80bc
000002a0: d80e e93d bce9 95bc a152 09be cab4 933d
000002b0: 5229 393d 0344 abbc 509b 373c cb46 a93d
000002c0: 6811 b2bd 2004 f63c 7bef c7bd 55b7 d0bd
000002d0: 0c96 17bd c77a bdbd 8628 00be 9224 bcbd
000002e0: ee8a e03d c4e8 be3d 9415 d6bc fbb5 bf3d
000002f0: 9e39 1f3d 8237 9abd d14c ab3d bc20 883c
00000300: b488 033e 1209 ea3d 2683 67bd 7771 413c
00000310: 53ac ffbd f5aa d03d e87e 90bd 51e9 07bc
00000320: 49f7 36bd 113a f93d 0558 d33b ab1f cbbd
00000330: f302 eebd 2f67 cf3d 7b83 623d e4da 4a3d
00000340: 430c e4bd 5663 483c 0d8a ed3d d6b6 403d
00000350: 49cc 0e3c 3e07 543c 5af0 9ebd 7a65 6fbd
00000360: dba1 bdbd bd31 f0bd 2772 dfbd f3af 823d
00000370: a546 823d 1c41 f13c 8bff 733d d260 dabd
00000380: faef cebc 1bc9 01be c814 8a3d af3d d7bd
00000390: 75c0 cabc 1bef 17bd e1b6 003d 3d76 e93d
000003a0: aebf 4dbd 9eb2 d23d b526 f73b 5ffd 82bd
000003b0: 8558 37ba c761 b1bd 3a29 08bd 4b72 df3d
000003c0: a37e 09be 087d 76bd a622 c83c f8a6 9dbd
000003d0: 9deb 61bd a374 cf3d 9090 d93d 4193 77bd
000003e0: e103 b5bd 15e9 273d ed26 dcbd 9cf5 7bbc
000003f0: 08bd 22bd c8a4 ad3d 5954 953d 2f8f 89bd

model_cnn.fc1.bias f4 [256]
-0.09386189 0.072068214 -0.09258592 -0.033002164 0.048190888 -0.007050554 -0.03600094 0.07822362
0.08599258 0.08045129 -0.01847615 0.100946166 -0.07172958 -0.03135209 0.09631521 0.088030554
-0.11518585 -0.041379042 0.086363025 -0.10774145 -0.0052444017 -0.12438431 -0.008249397 -0.002724985
0.0940744 -0.05096102 -0.076301366 0.038443476 -0.1244814 0.049398217 0.056997128 -0.04708169
-0.09413907 0.01285598 -0.111351624 -0.0035509916 -0.044131532 -0.042309232 -0.006976912 -0.06848917
-0.0032327382 -0.08379946 0.09914098 -0.04789145 -0.080862716 -0.077881426 0.036962774 0.0978064
-0.0923918 0.008700984 0.059100095 -0.030947018 -0.006729672 0.015512448 0.06849491 -0.0050594844
0.0151436245 -0.033677496 -0.04501154 0.089487165 -0.06313803 0.07040285 -0.031496316 -0.027138136
-0.0015484235 -0.11056692 -0.04801529 -0.041442975 -0.11555058 0.049093626 -0.11624559 0.07365667
0.049160317 0.04657782 -0.03197232 -0.025221398 0.09256046 -0.04398011 0.024746807 -0.036729902
0.13253266 -0.10493294 -0.032255277 -0.019984577 -0.10107319 -0.07539603 0.07756696 -0.046690088
0.056702796 0.006273725 0.026232336 -0.04477358 -0.03218049 0.03343441 -0.11507145 -0.030967455
0.117133595 0.07751401 -0.07294995 0.08831934 -0.08494497 -0.012771595 0.08056304 -0.016017174
-0.0053408234 -0.052397896 0.0020984584 -0.03150286 -0.036620792 -0.06445037 0.10296695 -0.079498135
0.1012598 0.077570796 -0.016726917 0.06513881 -0.010122114 -0.00051394856 -0.042484198 0.025385672
0.11456665 0.06924332 -0.091195785 0.102605835 0.013814496 0.013916328 0.05012795 0.09558179
-0.020469716 -0.08722275 -0.09452485 -0.033501014 0.04004495 0.097495906 -0.028661665 -0.018871611
-0.024381222 -0.04398915 -0.09534256 0.056271195 0.09958602 0.016917905 -0.01713362 -0.07206554
-0.09142663 -0.041294426 0.0136621175 -0.068038136 -0.0058690286 0.094864376 0.06736088 0.10294637
-0.050270736 0.0720384 -0.11278412 0.062336747 0.03069936 -0.12214724 -0.055168867 0.0051493756
0.09309576 -0.01834993 0.109982744 -0.018862294 0.03344513 -0.0048185983 -0.11759105 -0.019573605
0.08806968 -0.011682264 -0.043493483 0.09995466 0.10492202 0.031525206 0.057086494 -0.05852386
0.017882233 -0.032350168 0.072579935 -0.01638076 0.116018794 0.1078021 0.075084805 -0.06374517
-0.024944933 -0.11297276 -0.004354978 -0.020364586 -0.09416448 0.00910488 0.09910498 0.087079346
0.018295184 0.037333 0.09055581 -0.09273103 -0.03410518 -0.022466164 0.03217867 -0.11880176
0.011909155 -0.11070446 -0.043223783 -0.001100577 0.09030875 0.04084307 -0.10476685 0.06807526
-0.02188001 0.06449329 0.05867093 -0.09186372 0.06321052 0.027886268 0.06993295 -0.11237921
-0.040150374 0.08956402 -0.042542562 0.019824224 -0.03167052 0.12508948 0.113167405 0.08990508
-0.07350434 0.116607524 -0.013684542 0.010500861 -0.08801248 0.082297124 -0.095026545 -0.016862305
-0.016495 -0.09644004 -0.033112507 -0.04739234 0.123453304 0.11590988 -0.063291594 -0.01600669
0.10858743 0.018736428 0.0007902982 -0.05633697 0.008632765 0.112463295 -0.0038080262 0.0018413196
-0.09366725 -0.11353905 0.008397959 0.058095086 0.11774358 -0.021306464 0.050274294 0.030196717
00000000: aa3a c0bd 8098 933d b09d bdbd 472d 07bd
00000010: cf63 453d 5508 e7bb b975 13bd b533 a03d
00000020: e11c b03d a5c3 a43d 4c5b 97bc ddbc ce3d
00000030: f5e6 92bd 0d6b 00bd e940 c53d 5d49 b43d
00000040: 8fe6 ebbd 127d 29bd 19df b03d 8da7 dcbd
00000050: 3bd9 abbb 33bd febd 7b28 07bc a995 32bb
00000060: 14aa c03d 81bc 50bd e443 9cbd e876 1d3d
00000070: 1bf0 febd c955 4a3d d275 693d bbd8 40bd
00000080: fccb c0bd e3a1 523c 520c e4bd c1b7 68bb
00000090: 44c3 34bd 724c 2dbd 949e e4bb 0d44 8cbd
000000a0: 59dc 53bb 0d9f abbd 6d0a cb3d d329 44bd
000000b0: 5a9b a5bd 4c80 9fbd 4766 173d b94e c83d
000000c0: e937 bdbd 928e 0e3c f112 723d 9a84 fdbc
000000d0: 9584 dcbb ec27 7e3c 0f47 8c3d 08ca a5bb
000000e0: f71c 783c 6af1 09bd 055e 38bd 0c45 b73d
000000f0: 834e 81bd 5f2f 903d 4802 01bd cc50 debc
00000100: 79f4 caba e970 e2bd aeab 44bd 1cc0 29bd
00000110: c8a5 ecbd 6616 493d 2b12 eebd 4fd9 963d
00000120: 545c 493d 62c8 3e3d 68f5 02bd 1b9d cebc
00000130: 5790 bd3d 7d24 34bd d1b9 ca3c 1872 16bd
00000140: a4b6 073e 15e7 d6bd 1c1e 04bd b2b6 a3bc
00000150: 76ff cebd 3c69 9abd 6ddb 9e3d 1b3e 3fbd
00000160: 3141 683d d293 cd3b 32e5 d63c 8064 37bd
00000170: b1cf 03bd 85f2 083d 95aa ebbd 76af fdbc
00000180: bde3 ef3d aabf 9e3d c966 95bd c5e0 b43d
00000190: a1f7 adbd f43f 51bc 3cfe a43d 7336 83bc
000001a0: 1302 afbb 2d9f 56bd 4a86 093b 2509 01bd
000001b0: afff 15bd 8efe 83bd 56e0 d23d ebcf a2bd
000001c0: 4c61 cf3d 70dd 9e3d e306 89bc 7f67 853d
000001d0: 39d7 25bc 81ba 06ba e903 2ebd 9df5 cf3c
000001e0: eba1 ea3d 71cf 8d3d dbc4 babd 0223 d23d
000001f0: 3256 623c 4f01 643c f752 4d3d 63c0 c33d
00000200: 1bb0 a7bc d7a1 b2bd 3f96 c1bd 5c38 09bd
00000210: 2c06 243d efab c73d decb eabc a398 9abc
00000220: 21bb c7bc f82d 34bd f642 c3bd a07c 663d
00000230: c1f3 cb3d 6b97 8a3c ce5b 8cbc 1997 93bd
00000240: e33d bbbd 5824 29bd 13d7 5f3c 9457 8bbd
00000250: fb50 c0bb 4148 c23d 80f4 893d 8cd5 d23d
00000260: b0e8 4dbd de88 933d 5cfb e6bd d154 7f3d
00000270: 397d fb3c 5528 fabd c0f8 61bd 18bc a83b
00000280: fda8 be3d 9852 96bc a23e e13d 1985 9abc
00000290: c3fd 083d 55e5 9dbb 94d3 f0bd d358 a0bc
000002a0: e05d b43d f766 3fbc 3926 32bd 07b5 cc3d
000002b0: 5be1 d63d 9320 013d 87d3 693d b7b6 6fbd
000002c0: c37d 923c 9c81 04bd caa4 943d f230 86bc
000002d0: 439b ed3d 59c7 dc3d 10c6 993d d48c 82bd
000002e0: 5159 ccbc 435e e7bd 34b4 8ebb a2d3 a6bc
000002f0: 4fd9 c0bd a22c 153c 8df7 ca3d a856 b23d
00000300: c8df 953c 7dea 183d 5375 b93d c4e9 bdbd
00000310: e0b1 0bbd f60a b8bc c8cd 033d 564e f3bd
00000320: 9e1e 433c 05b9 e2bd 6c0b 31bd 3c41 90ba
00000330: cbf3 b83d 104b 273d 0190 d6bd 0b6b 8b3d
00000340: b53d b3bc 0f15 843d ee50 703d 0c23 bcbd
00000350: 8474 813d be71 e43c 0239 8f3d 1227 e6bd
00000360: b874 24bd 576d b73d 1c41 2ebd 6966 a23c
00000370: f2b8 01bd 7517 003e 50c4 e73d 2820 b83d
00000380: 7289 96bd edcf ee3d 2135 60bc ce0b 2c3c
00000390: e33f b4bd 658b a83d 479d c2bd d122 8abc
000003a0: 8620 87bc 5b82 c5bd fba0 07bd 781e 42bd
000003b0: 16d5 fc3d 2962 ed3d 069f 81bd 7620 83bc
000003c0: 1663 de3d 237d 993c 042c 4f3a 98c1 66bd
000003d0: 7170 0d3c 2853 e63d 1490 79bb 6f58 f13a
000003e0: 9dd4 bfbd 2987 e8bd 9897 093c 1df5 6d3d
000003f0: 8c23 f13d e58a aebc 6bec 4d3d 1b5f f73c

model_cnn.classifier.weight f4 [5, 256]
-0.0058653504 0.0017995611 0.041978337 0.04329785 0.0095990375 0.053588808 0.014732331 -0.050958395
0.011713281 -0.022249408 0.030110203 0.023619756 0.05276005 -0.050537124 0.02493558 0.048445724
-0.028107792 -0.0045279264 -0.035558812 -0.0076020285 -0.0034197792 -0.009194709 0.035622247 0.03289415
-0.056256123 0.014964774 0.062487148 -0.03803762 -0.016415022 -0.05885396 0.04195168 0.014580153
0.032755636 0.017156355 0.031801097 0.020813704 0.027155668 -0.019898742 0.015609659 -0.0010241643
0.031040668 -0.046502665 0.041182347 -0.046043918 0.034410343 0.0019573271 -0.0022791475 0.0045193434
0.006318599 0.003686741 -0.03025733 -0.028552026 0.027228497 0.0129715875 -0.014476262 -0.057056926
-0.052807428 -0.04086864 0.0068554506 0.045192912 0.021051764 0.061861925 -0.028820641 0.035898373
-0.009439312 -0.049374424 -0.01338736 -0.061857462 -0.04415515 -0.05742123 -0.04799042 -0.0057938397
-0.031504773 -0.050193004 0.044034258 -0.010978468 0.029252633 -0.023604594 0.017626107 0.001029633
0.0030917153 0.016437717 0.043994002 0.03432405 0.0059166998 0.012387253 -0.040289775 -0.05701694
-0.029178448 -0.007908791 -0.051966563 0.038572744 0.03429593 -0.003758885 -0.043615974 0.05445408
0.033594064 0.018951587 -0.053069726 -0.02323141 -0.031697154 0.037178256 -0.05612024 -0.048751637
-0.061851926 0.023104072 0.061571144 -0.029715165 -0.053914234 -0.008442871 -0.056515202 0.04881841
-0.00083517283 -0.061314367 0.050042346 -0.057356596 -0.019268923 0.04992999 0.047626093 0.0062788203
0.029281177 -0.0026290491 0.05879341 -0.02299396 -0.050791703 -0.027669944 0.026203357 0.019417927
-0.011951312 0.01357571 0.046842724 -0.029673927 0.00096505135 0.00051447004 0.06006019 -0.053445324
-0.054678902 -0.03538076 -0.05748739 0.058134057 0.013517849 -0.0029604286 0.010034695 -0.0017114654
-0.016808711 -0.053063154 0.02422829 0.008697242 -0.05541279 -0.058725104 0.045844644 0.060367122
-0.04862207 -0.0016757771 -0.02721151 0.0027798116 -0.0056149364 0.051083133 0.027256325 0.051157616
0.036108486 -0.0526731 0.055958122 -0.028011434 -0.007506542 -0.047909707 -0.0009793416 0.027202807
0.03049644 0.05534704 -0.039402515 -0.034774654 0.012781225 -0.012543179 -0.026467107 -0.042690553
-0.011347644 0.029283874 0.024089225 0.0054507554 0.055113822 0.039162166 -0.04349968 0.006132424
-0.0110079795 -0.042008445 -0.013633549 0.012310274 -0.017921984 0.04969813 0.014639087 0.02437888
0.0025456399 -0.025567368 0.059102893 0.032717027 0.016185306 0.01644016 -0.010477997 0.017051674
0.017486863 -0.014946945 0.012830891 -0.028997213 0.012825482 -0.037010334 -0.018435813 0.041802257
0.035870723 0.05663725 -0.046591654 0.042009607 -0.036549628 -0.060443923 -0.04452368 0.050384745
0.017148271 -0.02639848 0.055124678 -0.009201333 -0.010127634 -0.023398288 0.03836377 0.032168157
-0.034451023 0.001788877 -0.023663707 0.029521793 -0.013129503 0.01759699 -0.060565233 -0.044751965
-0.053251848 0.044046104 0.012090236 0.045027316 -0.012810074 -0.057832442 0.042846978 0.0470538
-0.05086296 0.039525747 0.027435206 -0.0020570531 -0.011631481 0.050689228 0.05347132 0.040081173
-0.03856495 0.033617646 -0.044775747 0.04154204 0.010269739 0.05184482 0.030983642 -0.04949011
00000000: 2032 c0bb 40df eb3a 7af1 2b3d 1659 313d
00000010: 4845 1d3c f07f 5b3d e05f 713c c0b9 50bd
00000020: 10e9 3f3c 6444 b6bc aca9 f63c 387e c13c
00000030: ec1a 583d 0400 4fbd b445 cc3c 066f 463d
00000040: 5042 e6bc 005f 94bb 1ea6 11bd 701a f9bb
00000050: 601e 60bb 68a5 16bc a2e8 113d 04bc 063d
00000060: d26c 66bd d02e 753c 86f2 7f3d 56cd 1bbd
00000070: cc78 86bc da10 71bd 86d5 2b3d 98e1 6e3c
00000080: c62a 063d 7c8b 8c3c de41 023d 8081 aa3c
00000090: 9075 de3c b002 a3bc a8bf 7f3c 403d 86ba
000000a0: 0049 fe3c 9479 3ebd d2ae 283d 8c98 3cbd
000000b0: dcf1 0c3d 8046 003b c05d 15bb 0017 943b
000000c0: 400c cf3b 409d 713b 38de f7bc f0e5 e9bc
000000d0: 4c0e df3c c886 543c d82d 6dbc 86b4 69bd
000000e0: 9a4c 58bd e065 27bd b0a3 e03b 341c 393d
000000f0: c074 ac3c ee62 7d3d 4419 ecbc 2c0a 133d
00000100: 58a7 1abc d63c 4abd a856 5bbc 405e 7dbd
00000110: 08dc 34bd 8632 6bbd 9a91 44bd 40da bdbb
00000120: 260b 01bd 2e97 4dbd 445d 343d 08df 33bc
00000130: 38a3 ef3c 6c5e c1bc a064 903c c0f4 863a
00000140: 609e 4a3b 64a8 863c 0e33 343d 6097 0c3d
00000150: e0e0 c13b e8f3 4a3c e406 25bd 988a 69bd
00000160: a407 efbc e093 01bc e4da 54bd 74fe 1d3d
00000170: e479 0c3d a057 76bb aaa6 32bd 3e0b 5f3d
00000180: ee99 093d 5c40 9b3c a45f 59bd cc4f bebc
00000190: e0d4 01bd 3a48 183d 56de 65bd ccaf 47bd
000001a0: 7258 7dbd c044 bd3c 0632 7c3d 386d f3bc
000001b0: 2cd5 5cbd f853 0abc 7c7c 67bd d0f5 473d
000001c0: 80ef 5aba c624 7bbd 34f9 4c3d c0ee 6abd
000001d0: dcd9 9dbc 6483 4c3d 9413 433d 90be cd3b
000001e0: 14df ef3c 204c 2cbb 5cd1 703d d45d bcbc
000001f0: f60a 50bd 14ac e2bc 6ca8 d63c 5812 9f3c
00000200: 70cf 43bc a86c 5e3c 28de 3f3d bc16 f3bc
00000210: 80fb 7c3a 80dd 063a ac01 763d 7ce9 5abd
00000220: fcf6 5fbd 6aeb 10bd e677 6bbd fa1d 6e3d
00000230: f879 5d3c c003 42bb 9068 243c 4053 e0ba
00000240: 6cb2 89bc c058 59bd 687a c63c e07e 0e3c
00000250: 86f8 62bd bc89 70bd 98c7 3b3d 8443 773d
00000260: f027 47bd c0a5 dbba acea debc 802d 363b
00000270: 80fd b7bb 8c3c 513d a848 df3c a68a 513d
00000280: 7ee6 133d c0bf 57bd 5834 653d 3c78 e5bc
00000290: 70f9 f5bb f83c 44bd 405d 80ba 6cd8 de3c
000002a0: acd3 f93c 94b3 623d 8864 21bd de6f 0ebd
000002b0: 5868 513c e881 4dbc 8cd1 d8bc 4adc 2ebd
000002c0: 78eb 39bc bce4 ef3c c456 c53c 409c b23b
000002d0: 08bf 613d 8268 203d b82c 32bd 80f2 c83b
000002e0: d05a 34bc 0c11 2cbd 405f 5fbc 08b1 493c
000002f0: 20d1 92bc 4490 4b3d c8d8 6f3c 38b6 c73c
00000300: c0d4 263b a872 d1bc e015 723d 4a02 063d
00000310: 0c97 843c 84ad 863c e8ab 2bbc f4af 8b3c
00000320: 9c40 8f3c 08e4 74bc a838 523c 908b edbc
00000330: f821 523c 2698 17bd b406 97bc d838 2b3d
00000340: 2eed 123d 76fc 673d e4d6 3ebd 4412 2c3d
00000350: 10b5 15bd 0c94 77bd 765e 36bd 3c60 4e3d
00000360: 887a 8c3c a041 d8bc 6aca 613d 30c1 16bc
00000370: 60ee 25bc c4ad bfbc 5423 1d3d c2c2 033d
00000380: 841c 0dbd c078 ea3a 64da c1bc b0d7 f13c
00000390: 201d 57bc 9027 903c 4013 78bd d64d 37bd
000003a0: 9c1e 5abd b069 343d 2016 463c 906e 383d
000003b0: 58e1 51bc b6e1 6cbd 5080 2f3d 7cbb 403d
000003c0: ae55 50bd c0e5 213d ccbf e03c a0cf 06bb
000003d0: f891 3ebc 829f 4f3d be04 5b3d 282c 243d
000003e0: 48f6 1dbd a8b2 093d c666 37bd fc27 2a3d
000003f0: 6842 283c 3c5b 543d 68d1 fd3c 24b6 4abd

model_cnn.classifier.bias f4 [5]
0.040691786 -0.016884543 0.04517372 -0.025934309 0.050343297
00000000: 6eac 263d 7451 8abc 1408 393d 3074 d4bc
00000010: c634 4e3d

model_cnn.domain_classifier.weight f4 [2, 256]
-0.012008868 0.016708046 -0.048902787 -0.044058464 0.044542536 -0.048497774 -0.039169744 0.015522905
-0.016651541 -0.0114953965 0.030166775 0.058117338 0.006187454 0.04010988 0.0040227845 0.040200345
0.055353142 -0.053302996 -0.0280841 -0.0034205988 -0.02357366 0.0056829974 0.056652933 0.027785406
-0.018082835 0.023904003 0.020226374 0.060001135 -0.014852077 0.029057205 -0.025311157 -0.011968814
-0.007669434 0.019330092 -0.052566312 -0.01958523 0.033902325 -0.055127308 -0.021391869 -0.011737965
0.03841111 -0.014699452 0.0030195042 0.041314617 -0.027082868 -0.033547565 -0.015380524 0.035754852
-0.022647597 -0.016568586 0.0013081655 -0.006582424 0.021686755 -0.045170322 0.048523255 -0.022399075
0.029552653 0.021131925 0.004849553 -0.02339802 -0.031090304 -0.035781138 0.057185777 0.011987515
-0.032115057 -0.051052563 0.041628025 -0.050777607 0.009809181 -0.036277056 0.0389319 0.033783443
0.009858273 0.03860323 -0.019517802 0.05920168 0.057180367 0.032042056 -0.046614088 0.057974398
-0.034001328 0.035742484 0.00832177 -0.0075941533 -0.008231111 -0.038303167 0.04367391 0.0047540814
-0.013977662 0.017921887 0.059789985 -0.023473129 -0.051864445 0.00050629675 -0.008624651 -0.03908463
0.043089174 0.0004651919 -0.050225265 0.005394295 -0.05110491 0.03042306 0.016457975 0.0067648143
-0.029957183 0.011724159 -0.06125222 0.043000504 0.01589235 -0.056989916 -0.052528672 0.024775319
0.0048293695 -0.007898793 -0.026159823 -0.049580105 -0.009012178 0.060647525 0.03109897 0.057815097
-0.005340427 0.05136945 -0.034200534 0.032332137 0.04139792 0.046873115 0.023659326 0.019626752
-0.035798036 0.003247194 0.057956457 0.05062376 0.047029592 0.004652582 0.028080799 0.05769241
-0.023854733 0.029869765 -0.04320448 0.022928119 -0.044682957 -0.01602824 0.05258371 -0.036765546
0.007466413 -0.009848282 -0.05945883 0.02765055 0.029192634 -0.04562609 0.01836361 0.014247455
-0.020831771 0.0058777034 0.020881347 -0.040882654 -0.017392837 -0.008410402 -0.036429718 -0.038241424
0.040621772 -0.015913151 0.0064025894 0.052384436 0.048003174 -0.025618136 -0.044015855 0.06163653
0.04798732 -0.010334 -0.043205343 0.0023482963 0.035310104 0.037687138 -0.059589006 0.04301417
-0.0063699707 -0.057721682 -0.057739258 -0.00349126 -0.023456901 -0.057496354 -0.028801158 -0.017029144
0.05923616 0.024795063 -0.02876407 0.0435163 -0.025875643 -0.050268777 -0.026779398 -0.061582804
0.057282 0.053726636 0.00016546994 0.019322947 -0.018216483 -0.015899189 -0.04066115 0.04471205
0.031817622 -0.03237813 0.0022526905 0.030029617 -0.053493172 -0.012269482 -0.008135423 -0.05566506
-0.056219637 0.03271947 -0.055328064 0.06049005 0.0117796585 0.059795998 0.024500571 0.041043065
0.010800019 0.04399571 0.04876619 0.003753394 -0.047608495 0.03675144 -0.01971475 -0.026978388
-0.021604493 0.057690322 0.0047451854 -0.020584174 -0.0025093332 0.053698227 0.05545354 0.047994986
0.004943624 0.013781682 -0.035699427 0.0004413873 0.04228875 0.009065516 -0.0025861561 0.015997462
-0.04497356 -0.043746836 0.037419006 0.02736529 0.008836582 0.047262304 0.042733498 -0.056072824
0.015704758 -0.049502864 -0.009281419 0.05362968 -0.038810447 0.00880944 0.02721265 -0.004739873
00000000: d8c0 44bc 50df 883c 4a4e 48bd a676 34bd
00000010: 3c72 363d 9aa5 46bd 7470 20bd c853 7e3c
00000020: d068 88bc 3057 3cbc 5020 f73c 720c 6e3d
00000030: 20c0 ca3b 424a 243d 90d1 833b 1ea9 243d
00000040: fab9 623d 3e54 5abd a010 e6bc 202c 60bb
00000050: 8c1d c1bc 7038 ba3b e80c 683d 389e e33c
00000060: 7422 94bc 54d2 c33c c8b1 a53c c0c3 753d
00000070: 2056 73bc 6009 ee3c 5859 cfbc d818 44bc
00000080: e04f fbbb 245a 9e3c c64f 57bd 3471 a0bc
00000090: 2add 0a3d 2ccd 61bd 003e afbc 9850 40bc
000000a0: f854 1d3d f8d5 70bc e0e2 453b 8439 293d
000000b0: e4dc ddbc 2c69 09bd 98fe 7bbc ae73 123d
000000c0: 7487 b9bc d8ba 87bc c076 ab3a 60b1 d7bb
000000d0: 6ca8 b13c 8404 39bd 52c0 463d 447e b7bc
000000e0: 6818 f23c dc1c ad3c 00e9 9e3b 34ad bfbc
000000f0: 18b1 febc 3e8f 12bd a23b 6a3d 4867 443c
00000100: 148b 03bd 7e1c 51bd 2682 2a3d 2efc 4fbd
00000110: b0b6 203c 4097 14bd 0e77 1f3d 8260 0a3d
00000120: 9884 213c 6c1e 1e3d cce3 9fbc 767d 723d
00000130: f635 6a3d 883e 033d 6aee 3ebd 9076 6d3d
00000140: fa44 0bbd b666 123d 0858 083c 60d8 f8bb
00000150: c8db 06bc c8e3 1cbd 6ae3 323d 20c8 9b3b
00000160: 9002 65bc ecd0 923c 58e6 743d b84a c0bc
00000170: d06f 54bd 00b9 043a 684e 0dbc 3417 20bd
00000180: 467e 303d 00e5 f339 02b9 4dbd a0c2 b03b
00000190: 6253 51bd c839 f93c e0d2 863c 60ab dd3b
000001a0: c468 f5bc b016 403c 9ce3 7abd 4c21 303d
000001b0: ac30 823c 426e 69bd 4e28 57bd 9cf5 ca3c
000001c0: b03f 9e3b f069 01bc 204d d6bc 8214 4bbd
000001d0: d0a7 13bc 8a69 783d 44c3 fe3c 86cf 6c3d
000001e0: c0fe aebb c668 523d dc15 0cbd b46e 043d
000001f0: de90 293d 06fe 3f3d 34d1 c13c 48c8 a03c
00000200: f6a0 12bd e0ce 543b c063 6d3d dc5a 4f3d
00000210: 1aa2 403d b074 983b b409 e63c e04e 6c3d
00000220: 006b c3bc 70b1 f43c 2ef7 30bd c0d3 bb3c
00000230: 7a05 37bd a84d 83bc 0462 573d 7897 16bd
00000240: d0a8 f43b b05a 21bc 1a8b 73bd 6883 e23c
00000250: 6425 ef3c 6ce2 3abd 486f 963c 286e 693c
00000260: 64a7 aabc c099 c03b 5c0f ab3c 9274 27bd
00000270: 6c7b 8ebc c8cb 09bc 5437 15bd 0aa3 1cbd
00000280: 0463 263d 4c5c 82bc d0cc d13b 1091 563d
00000290: fa9e 443d 20dd d1bc f849 34bd 9676 7c3d
000002a0: 5a8e 443d f04f 29bc 16f8 30bd e0e5 193b
000002b0: 54a1 103d d45d 1a3d 9a13 74bd a02f 303d
000002c0: 30bb d0bb 926d 6cbd 0080 6cbd a0cd 64bb
000002d0: b028 c0bc 4c81 6bbd 68f0 ebbc b480 8bbc
000002e0: 9ea1 723d 041f cb3c a0a2 ebbc 263e 323d
000002f0: 28f9 d3bc a2e6 4dbd 7860 dbbc 403e 7cbd
00000300: 88a0 6a3d 7610 5c3d 0082 2d39 284b 9e3c
00000310: bc3a 95bc 043f 82bc 4e8c 26bd fc23 373d
00000320: 3253 023d ee9e 04bd e0a1 133b ac00 f63c
00000330: a81b 5bbd f005 49bc 704a 05bc 0c01 64bd
00000340: 9046 66bd da04 063d ae9f 62bd 6ac4 773d
00000350: 78ff 403c a6ec 743d 6cb5 c83c c61c 283d
00000360: 90f2 303c d834 343d 0ebf 473d 80fb 753b
00000370: 2001 43bd ae88 163d d480 a1bc c801 ddbc
00000380: e8fb b0bc b04c 6c3d 807d 9b3b 24a0 a8bc
00000390: a073 24bb acf2 5b3d 4023 633d 6496 443d
000003a0: 20fe a13b 90cc 613c 9039 12bd 006a e739
000003b0: f836 2d3d 8887 143c 807c 29bb 1c0d 833c
000003c0: 3236 38bd e22f 33bd ac44 193d 2c2d e03c
000003d0: 50c7 103c 1e96 413d 5209 2f3d 9eac 65bd
000003e0: 44a7 803c 84c3 4abd 1811 18bc ccaa 5b3d
000003f0: b4f7 1ebd 7855 103c 10ed de3c f050 9bbb

model_cnn.domain_classifier.bias f4 [2]
-0.023640215 0.042928703
00000000: 20a9 c1bc 02d6 2f3d
