checkpoint/transfer_cnn_features_1d_sa_spinel5v_to_nmc_1212/best_model.pth (torch, 906722 bytes, 37 tensors)

model_cnn.conv_layers.0.0.weight f4 [16, 21, 15]
00000000: 2a18 a0bb 344c bf3b ddeb b2bb e0bc 9b3d
00000010: 5cf7 753d c62f 433d f7b6 a4bc cfb1 813d
00000020: 2669 f53c a5b3 513d 4e6f cdbb 7387 b83c
00000030: c527 853d 7b2c 3a3d 8096 d73a e9cc 5cbb
00000040: b1c9 6c3d a623 e3bc 1d2a b73c 5a9a adbc
00000050: f419 fa3a 1c4a 123b 5a04 973c 0573 7f3d
00000060: f923 3a3d 03c7 9f3c 4ebd 833d 6101 0bbc
00000070: 4a30 443d d950 ad3c 5a82 3abc 1cda 523c
00000080: 6f41 1fbd 9f41 463c 9523 9a3c 2d7c 3b3d
00000090: 60cc 57bc 6bac 993c a507 543d a1a2 bdbc
000000a0: 9626 663d 804d 97bc bd43 f93c 3903 d23c
000000b0: 0f7c d83c e6b2 8b3d 8a20 993c 4aa4 1f3d
000000c0: c774 d73c e1f3 62bc cbf6 683b 1da0 61bc
000000d0: f777 3f3d 06ba c53c ec28 fb3c 00e4 cf3b
000000e0: c965 fc3c 740b 353c 3048 3a3d 1b56 af3d
000000f0: 1c0e 893b 5486 13bc c25a 12bd e156 943b
00000100: 3160 0abd 16d8 4cbd 007e febc e4ee adbc
00000110: 1945 b838 b1f7 203d 977c a63c c675 4e3d
00000120: e2bc f6bc ec09 3b3c 3a68 34bd 25a1 1b3d
00000130: 913b 873c fe37 703d ab82 18bd 701c 443d
00000140: 5b8b 453d 89e9 353d 719d f83b 1809 563d
00000150: c9f5 1d3d 628b 313d d052 35bb 14a9 2cbd
00000160: 1281 173a bc0c 423c 16a6 2dbd 9d51 2dbd
00000170: 3804 81bd bf57 65bb 0819 193d 719e 9bbb
00000180: 7b15 4fba f520 1dbc a85e aabb 1bbb abbd
00000190: e9da adbd f9b9 51bd 41e1 7ebd d389 83b9
000001a0: 8a5d 223c 20f2 adbd e946 61bd d32b a8bd
000001b0: 0442 cebb cbe0 c83c bc6a a7bd 8bd0 34bd
000001c0: ea64 6ebb 486e 7bbd 6db5 5f3c 6c49 8abc
000001d0: cc1e 2bbd dd6f d2bc ca24 d5bb 6d25 54bd
000001e0: e358 94bd a763 e8bb 1424 e4bc b740 dcbc
000001f0: e6ae 01bd b97f d8bb 9590 1fbd b407 f9bc
00000200: f392 d1bb 1f2d 9bbd 4dd8 b1bc c3dd 3abd
00000210: 7e9f 10bc 3c79 7bbd a7da 15bd e758 6f3b
00000220: a2cb adbc d9ee 27bd 365b 2e3c 3ad4 10bc
00000230: 462e ad3c a0bc 2fbd 1327 1bbd 2177 61bd
00000240: a0e8 673c 3112 0bbc 9229 98bc c030 77bc
00000250: 1cbd 37bd 88cb 4d3c 9746 0e3b eaa3 63bc
00000260: 36dc 993c 1710 20bc e53f 51bd f38c 943c
00000270: 9d53 2a3d 36ae 8fbc 5da7 43bd 786f febb
00000280: 0cfe 093d 4b36 2d3d 3166 4cbd 4514 e4bc
00000290: 92e8 263d fcac 7c3d 2004 d63c a354 b5bc
000002a0: d5bf 813d 1e28 a2bd 406a 89bc 585c e33a
000002b0: 1d4a 76bc d760 a8bd 9b45 de3c 9de4 a13c
000002c0: 03a7 6dbd 187d c6bc c051 69bd 37c0 e63c
000002d0: 65b9 043d c92a 1a3d 922a 823c 29cf 95bb
000002e0: 3486 103d df5e 283b 6ccd 96bc 39b6 103d
000002f0: d380 d03c 69b7 adbb 674f bbbb 4c2e 1ebd
00000300: 1a1d 6cbb 508c 11bc fefc 84bc d4d7 11bd
00000310: 6522 323d c2e7 d8bc 4dde 933d dd57 adbc
00000320: 1ba2 f43a 751f 2a3d 6658 163c bac7 bbbc
00000330: 9116 5abd 7dd1 fbbc 5dc0 1b3d c66f e0bc
00000340: c19d 203d 99dd 8dbc 33b6 a23c 9903 643d
00000350: 1105 953c 76d5 eb3c 43e4 8d3d 3691 403d
00000360: 07a2 ca3c 61aa 5a3d b24c a93d 23b9 473d
00000370: 9dc2 953c 005b 5f3d 7377 013d 002e bebb
00000380: adc8 8a3c 808c 353d a967 cf3b f6e4 4c3d
00000390: 1434 36bc 51db 8d3d a772 2bbc afda 7b3c
000003a0: ad14 02bd 31e5 edbc 23e2 b33c 7f4f 99bc
000003b0: 5f39 1dbd e243 c5bc baac 1f3d 8ecc 023d
000003c0: 4fce 903c 5dbf 7bbd 0911 093c 1ccc 693b
000003d0: db78 31bd 68fc 0cb9 4543 a03c b840 4dbc
000003e0: 2796 4abc 3c62 6f3d 7df1 8e3b 694f 013c
000003f0: ed57 edbc 1f51 dcbc d427 673d bb32 173d
-0.004885693 0.0058379415 -0.005460246 0.076043844 0.060050353 0.047652982 -0.020106776 0.063327424
0.029957365 0.051196713 -0.006269372 0.022525525 0.06501726 0.045452576 0.0016448051 -0.0033691472
0.057809535 -0.02772696 0.022358948 -0.021191765 0.0019081221 0.0022322005 0.018434692 0.06236555
0.045444462 0.019504076 0.064325914 -0.0084842155 0.047897615 0.021156715 -0.011383617 0.012869384
-0.03888076 0.012100606 0.018815795 0.04577272 -0.013171285 0.018758973 0.051765103 -0.023148837
0.056189142 -0.018469572 0.030427808 0.025636302 0.026426343 0.068212315 0.018692274 0.038975038
0.026300801 -0.013852091 0.003554749 -0.013771084 0.046745267 0.024136554 0.030659162 0.0063443184
0.030810254 0.011050094 0.045479 0.08561345 0.00418259 -0.009004194 -0.035731085 0.0045269583
-0.03378314 -0.050010763 -0.03106594 -0.021232076 8.786674e-05 0.039298717 0.020323081 0.050405286
-0.030119363 0.01141594 -0.04404471 0.037995476 0.016507896 0.05864715 -0.03723399 0.047878683
0.048228603 0.04441217 0.007587128 0.052254766 0.038564477 0.043345816 -0.0027667768 -0.042153433
0.0005779426 0.011843856 -0.04239472 -0.04231416 -0.06299633 -0.0034994928 0.037377387 -0.0047491123
-0.0007899624 -0.009590377 -0.005199272 -0.08385297 -0.084890194 -0.051202748 -0.062226538 -0.00025088954
0.009909997 -0.08493447 -0.054999266 -0.08211484 -0.006294491 0.024521252 -0.08174655 -0.044144195
-0.0036376067 -0.06138447 0.013654095 -0.016880713 -0.041777417 -0.025688106 -0.0065046297 -0.051793505
-0.07243516 -0.0070919576 -0.027849235 -0.026886327 -0.031660937 -0.0066070226 -0.038956244 -0.030399181
-0.0063956915 -0.075769655 -0.021709586 -0.045621645 -0.008827088 -0.061394915 -0.036585476 0.0036521496
-0.021215264 -0.040999267 0.010641864 -0.008839661 0.021140229 -0.042904496 -0.03787906 -0.05504525
0.014154583 -0.008488224 -0.01857451 -0.0150873065 -0.044858083 0.012560733 0.0021709555 -0.013894061
0.018781763 -0.009769461 -0.051086325 0.018133616 0.041583646 -0.017539125 -0.047767032 -0.007764753
0.033689544 0.042288106 -0.049902145 -0.027841697 0.04074914 0.06168841 0.026125014 -0.022135084
0.06335417 -0.07917808 -0.016774297 0.0017346246 -0.015032318 -0.08221596 0.0271328 0.019762332
-0.058020603 -0.024229571 -0.05696273 0.028167827 0.03240337 0.03763846 0.01588944 -0.0045718146
0.035284236 0.0025691313 -0.0184085 0.03533003 0.025452053 -0.005301405 -0.0057162526 -0.03861837
-0.0036028088 -0.008883551 -0.016233917 -0.03560622 0.043489832 -0.026477698 0.07220135 -0.02116006
0.0018664034 0.041533906 0.009176349 -0.022922385 -0.053244177 -0.03073954 0.03802525 -0.027397048
0.039212946 -0.01731758 0.01986227 0.055667493 0.018190892 0.02878831 0.06928303 0.047013484
0.024735464 0.053385142 0.082665816 0.048760545 0.018281275 0.054530144 0.031608056 -0.0058038235
0.016941393 0.044323444 0.006329496 0.05002304 -0.011120815 0.06926597 -0.010464347 0.015371962
-0.031758 -0.029039951 0.021958416 -0.018714665 -0.03838479 -0.02408022 0.038983084 0.03193336
0.0176765 -0.061461795 0.008365878 0.0035674637 -0.043328147 -0.00013445469 0.019563327 -0.012527637
-0.012364901 0.058443293 0.0043622837 0.007892468 -0.02897259 -0.02689415 0.056434467 0.036913615

model_cnn.conv_layers.0.0.bias f4 [16]
00000000: f9d4 583a 498f 7dba ab07 14b9 35c6 433a
00000010: c29c 6239 c6b4 3f39 822f 7138 b3ba 793b
00000020: 2a5d 70b8 e2c3 e738 0e3c 28b8 72c5 3d39
00000030: a32d 973a d8b3 12b9 2880 6cb9 96fb 8239
0.00082714815 -0.0009672535 -0.00014117236 0.0007468195 0.00021611436 0.00018282523 5.7503123e-05 0.0038105666
-5.7307225e-05 0.000110514244 -4.011025e-05 0.00018097999 0.0011533987 -0.00013990642 -0.00022554456 0.00024982978

model_cnn.conv_layers.0.1.weight f4 [16]
00000000: cc80 7e3f 316a 803f f186 7b3f de64 7b3f
00000010: 5713 803f 78c5 733f 2696 833f 21e4 833f
00000020: 7bef 7e3f 1009 7c3f fad6 823f 2fc6 7e3f
00000030: c780 833f ed38 7e3f 44ce 7c3f 4e18 803f
0.9941528 1.0032407 0.9825278 0.98200786 1.0005902 0.9522319 1.0280197 1.0303994
0.9958417 0.9845133 1.0221856 0.99521154 1.0273675 0.9930561 0.98752236 1.0007417

model_cnn.conv_layers.0.1.bias f4 [16]
00000000: 069d 923b fcf9 fc3b a309 4ebd d671 0fbd
00000010: 0265 9bba 9efd 33bd 5acd 033d 803c 883d
00000020: 459d c9bc 8d0f 1a3c b069 7db9 1251 493c
00000030: 0a4b 60bc 9446 24bd b1c8 a3bb 97bb a43c
0.004474285 0.00772023 -0.05030216 -0.03502067 -0.0011855664 -0.04394304 0.03217826 0.066521645
-0.024611125 0.009403122 -0.00024167332 0.012287395 -0.013689766 -0.04010637 -0.0049982895 0.020108981

model_cnn.conv_layers.0.1.running_mean f4 [16]
00000000: 0845 453f 779a e13e 770d 56be 065e bf3e
00000010: fa41 533f fd99 823e 244b ab3e b275 413f
00000020: 76b2 c6be af11 f3bd fc5e d3be 01a8 38be
00000030: 115f 083f 5329 f43d 7f7a 90be c259 0dbf
0.7705846 0.4406316 -0.20903574 0.37376422 0.8252255 0.2550811 0.33455765 0.75570214
-0.3880803 -0.11868607 -0.41283405 -0.18032838 0.5327006 0.119219445 -0.28218457 -0.55215085

model_cnn.conv_layers.0.1.running_var f4 [16]
00000000: bc68 b03f e31d 3f40 7403 6c3f e96d 4e3f
00000010: 08e6 6d3f d74b 413f 1c20 543e 3f57 9e3e
00000020: 33b7 c23f c136 333f 365c 243f 8e2b 5640
00000030: 85d9 0f3f 7b77 b940 5aaa 863e 48e7 583f
1.3781962 2.9861991 0.9219277 0.8063646 0.92929125 0.7550635 0.20715374 0.30925938
1.5212158 0.7000542 0.642032 3.3464084 0.56191283 5.795835 0.26301843 0.8472791

model_cnn.conv_layers.1.0.weight f4 [32, 16, 3]
00000000: 5259 a5bb fa8d d23d d35c 33bd ce49 cbbc
00000010: 9005 d4bd 48be a13d f66a b23c 6fba 8abd
00000020: bfa6 c7bd 65a7 33bc f578 423c a917 193d
00000030: 2aa1 dfbd e18e c63d d19b 273e fde3 7b3d
00000040: eb37 0dbc 5354 8bbc f954 c7bc f521 8a3c
00000050: 872a 063e dd84 bcbd af71 a4bc 44d5 c53d
00000060: e08b 2d3d 7ebe 1d3e 9355 10be 0f2a c63d
00000070: 0f90 8c3d 73e5 2b3c 7a40 13be 9ad2 253d
00000080: a375 f53d 7642 dc3d 6831 14be a832 943d
00000090: a325 01be 8cdf dc3d 9c8c b1bc 2e1f 65bb
000000a0: 1998 fb3d 8475 f8bd 0ada ebbd 33ba 9cbd
000000b0: e886 b7bc ab02 92bd a150 1f3d fc0c 89bd
000000c0: 28f0 263d 4e46 39bd 728e 973d 229d 903d
000000d0: 9253 153e f123 b1bd 92ae 90bb e840 90bc
000000e0: 5306 03be 91f3 d73d ece2 ec3d 32cd b33d
000000f0: 84b7 01bd 09e8 3ebd bb16 b53d d660 7f3c
00000100: 2ba9 b93c 1537 afbc 6e05 e8bd e7d7 fe3d
00000110: 1b4b 89bd 56f4 163e 5f6c 5bbb efd3 fcb9
00000120: e490 223d fdf7 413d 9fcc 093e 2850 8dbd
00000130: 8ecb 0c3d 0849 823d da2b f4bc ad80 2dbe
00000140: f24c 4fbd 57cd c03d 30b3 febd 6394 7d3c
00000150: 5f1b f2bd efbc 90bd 92d9 f93d c3b6 81bc
00000160: f14d 923d 4f96 e23c 26fd b8bd 3de1 06be
00000170: eca2 9abd 5d3e d9bc ce28 2ebd 8a7c e2bb
00000180: 7480 373d 5c97 66bc d6ed d4ba 4320 69bd
00000190: ff97 cf3d 8e09 8bbd 211a f83c 4c4b c53d
000001a0: aa70 1e3e fe09 adbd f132 00be 850e 03be
000001b0: 90d0 ab3c 8dd1 6a3d 01ca 90bd b4dd 93bd
000001c0: 3e2d 683c 8240 8ebb c79f 76bd 4657 1bbe
000001d0: 316e b0bd 70b8 573c 537f cd3d 4b1d 91bd
000001e0: 885c 6dbd 7ada dabd 2f77 823d b1b4 4ebc
000001f0: 04e2 c23d 78ef cf3c cfd8 74bd e5dc d73d
00000200: be26 c53d d207 f83d e14d cfbd bb32 743d
00000210: 5cac b3bd 0716 b2bd e151 0b3e 4446 9d3d
00000220: ade5 ccbd 456c c7bd 0245 8fbd a96a 143e
00000230: ac96 1b3d 0a72 0b3c cbc8 f2bd 70d7 283d
00000240: 3c4c fbbc 5cc7 8f3d 8b7f 0a3d f349 9c3d
00000250: 93a1 1bbd 36dd 8cbb efb3 bfbd 7f3a f33b
00000260: abc5 12bd b13e e6bd 3612 963d cf2a 423d
00000270: 713e b03d 50f2 8d3d b58c b43c c909 073e
00000280: e715 d3bd 0345 4a3d a7b0 193e d005 20bb
00000290: 5fa8 e03d 9276 993d 9813 073e cad0 203e
000002a0: e250 a83d 21be 853b bc61 d3bd ed49 55bd
000002b0: cfb5 07be aaf6 f1bb a49e a43d c539 963d
000002c0: 1924 e63c 175d f3bd a748 ab3d a9dd 643d
000002d0: 0412 94bd 0451 00be 8ffc 93bd 7a80 6a3d
000002e0: ea5f 98bd 51c3 d4bd ac32 dbbd 0882 b5bd
000002f0: 80d1 bd3b cc1a f63d 1c10 b3bd 03ff f5bd
00000300: 263c 083e 88d7 e03d 36ab 973d b053 08be
00000310: 981b 943d f747 643c 9ea1 223c 5e76 d53d
00000320: 6414 a33c e30e 953d 0b98 4bbd fc55 973d
00000330: 5c5a 50bd bf63 923d 22eb 81bd 1ae7 03be
00000340: 8de8 cbbd 4d48 c4bd 4f31 463d a92e 1e3e
00000350: 7464 863d 30d2 a4bc 9c87 76ba aa21 023c
00000360: b812 eb3d 193d 763d f37e dcbd f3e7 bdbc
00000370: 328e 1c3e 3c98 0e3e 9257 0fbe 46b7 e1bd
00000380: d634 8b3d 7b6b 8fbd 1aa5 f93d f982 f13d
00000390: 4eef f0bd d39a 1339 ccf5 48bd 6773 e3bd
000003a0: d40a 673d c172 e53c 5eaa 3bbb 4fef 15be
000003b0: 1e20 34bd ae30 b93b 2527 8cbd 4328 173e
000003c0: 399d 49bd 836e 553d 5837 69bd ba21 cbbd
000003d0: 5524 cdbc b570 0f3d 99f6 d33d c920 243c
000003e0: 3c81 e63d 4b11 c03d 400d b9bd 1d5f ab3a
000003f0: e408 103e dd9a febc f6f5 983d 1253 0b3e
-0.005046048 0.10280986 -0.043789696 -0.024815466 -0.103526235 0.078976214 0.021779519 -0.06773841
-0.09748601 -0.010965203 0.011869659 0.03737608 -0.109194115 0.09695221 0.16368033 0.061496723
-0.008619289 -0.017007982 -0.02433251 0.016861895 0.1310216 -0.09205029 -0.02007374 0.09659818
0.042369723 0.15404698 -0.14095144 0.09675991 0.068634145 0.010491717 -0.14380065 0.04048405
0.11985328 0.10754864 -0.14471972 0.072362244 -0.12612014 0.10784826 -0.021673493 -0.0034961211
0.1228487 -0.12131789 -0.11516197 -0.07652702 -0.022403196 -0.07129415 0.038895253 -0.0669193
0.040756375 -0.045233063 0.07400216 0.07061221 0.14582661 -0.086494334 -0.0044153417 -0.017609075
-0.12795381 0.105445035 0.115667194 0.08779372 -0.031669155 -0.046608005 0.08842226 0.015587052
0.022663673 -0.02138857 -0.11329161 0.12443524 -0.06703778 0.14741644 -0.0033481342 -0.00048223088
0.03968896 0.04735564 0.13456963 -0.06900054 0.034373812 0.06361586 -0.029806066 -0.16943617
-0.05061049 0.094141655 -0.12436521 0.015477273 -0.11821627 -0.07067286 0.12199701 -0.015834218
0.071437724 0.027659563 -0.09032659 -0.13171859 -0.07550606 -0.026518995 -0.042519383 -0.006911819
0.044800237 -0.014074173 -0.0016245197 -0.056915533 0.10136413 -0.06788932 0.030285897 0.09633502
0.15472665 -0.084491715 -0.12519433 -0.12798508 0.020973474 0.05732875 -0.07069779 -0.07220021
0.014170943 -0.004341186 -0.06021097 -0.15170011 -0.08614767 0.013166532 0.10034051 -0.07085665
-0.057949573 -0.10686202 0.06370389 -0.012616322 0.09515765 0.025382742 -0.059777077 0.10540179
0.0962653 0.121108666 -0.10122276 0.059618693 -0.08773109 -0.08695608 0.13605453 0.07679418
-0.10004745 -0.09737448 -0.06995584 0.14493813 0.03798549 0.008511076 -0.118547045 0.041221082
-0.030676 0.07020447 0.03381304 0.07631292 -0.037995886 -0.0042988313 -0.093604915 0.0074227448
-0.035833042 -0.11242426 0.07327692 0.047404107 0.0860566 0.06930983 0.02203975 0.13187326
-0.10306912 0.04938222 0.15008794 -0.0024417527 0.10969614 0.074933186 0.13191068 0.15704647
0.08218552 0.004081503 -0.10321376 -0.052072454 -0.13252948 -0.007384141 0.08038071 0.073352374
0.028093385 -0.1188299 0.08363467 0.055875454 -0.07229999 -0.12530905 -0.07225906 0.05725143
-0.07440169 -0.10388816 -0.10703024 -0.08862692 0.0057927966 0.1201683 -0.08743307 -0.1201153
0.13304195 0.10978609 0.07405703 -0.13313174 0.072318256 0.013933173 0.009926228 0.104229674
0.019907184 0.0727823 -0.049705546 0.07389447 -0.050867423 0.07147931 -0.06343676 -0.12881127
-0.09956465 -0.09584103 0.048386868 0.15447487 0.06562129 -0.020119756 -0.00094043626 0.007942596
0.1147818 0.06011686 -0.10766401 -0.023181891 0.15288618 0.1392526 -0.13998249 -0.11021285
0.06797187 -0.07002922 0.12189694 0.11792559 -0.11764394 0.00014076689 -0.049062535 -0.111059956
0.05640681 0.02800882 -0.0028635482 -0.1464207 -0.04397594 0.005651555 -0.06843404 0.14761452
-0.049222205 0.052107345 -0.056937546 -0.09918542 -0.025041739 0.035019595 0.10349769 0.010017582
0.11255118 0.09378298 -0.0903573 0.0013074611 0.14065892 -0.031079704 0.07468788 0.13605908

model_cnn.conv_layers.1.0.bias f4 [32]
00000000: 2716 28b8 0238 303d 8ec6 debc 11d4 5dbc
00000010: fff6 ed38 8ad1 443d 8b60 dfbc 222d c7b9
00000020: 4e47 d9b7 af34 a53c 62d7 dbbc f77a 85bd
00000030: 68ab fdb9 c96c 8bbc d0c4 afbb d22e b13c
00000040: 293f c0b9 e1bd 7d37 3a32 0a3d 7634 52bd
00000050: c0f9 1ebd 5931 1d3d 1a16 9f37 7718 833d
00000060: 3fbe 063c c9e7 9aba eae9 fdbc cdd8 283d
00000070: 4d6e 0dbd 2949 3e3d 4b0b 0d38 89b2 83bc
-4.0074952e-05 0.043022163 -0.027194288 -0.01353933 0.00011347047 0.048051395 -0.027267715 -0.00037989864
-2.590162e-05 0.020166723 -0.026836101 -0.06517594 -0.00048383628 -0.017019646 -0.005364038 0.021628771
-0.00036668152 1.5124185e-05 0.033739306 -0.051319562 -0.0388124 0.03837714 1.8964569e-05 0.06401151
0.008224069 -0.0011818345 -0.030995328 0.041222382 -0.03452902 0.04645649 3.3627537e-05 -0.016076343

model_cnn.conv_layers.1.1.weight f4 [32]
00000000: f7b8 7b3f 04a2 803f 60b9 833f a473 7d3f
00000010: 44e3 7c3f 9b7e 823f 3643 733f 68f9 7c3f
00000020: b8e7 843f df6c 813f 5481 803f 0899 803f
00000030: ae90 803f ac1e 803f 8254 833f 6844 763f
00000040: 1b90 803f 1622 7b3f 2770 803f 87f9 803f
00000050: 6d37 7e3f 8839 803f 411d 833f fa01 7c3f
00000060: 5550 7e3f 0006 823f 4444 7c3f 019f 823f
00000070: 9c41 7c3f f391 803f fdb7 803f 38d9 773f
0.9832911 1.0049443 1.0290947 0.9900458 0.9878428 1.0194887 0.9502443 0.98818064
1.0383215 1.011135 1.0039468 1.0046701 1.0044153 1.000936 1.0260165 0.9619813
1.0043977 0.98098886 1.0034226 1.007615 0.99303323 1.0017557 1.0243303 0.98440516
0.99341327 1.0158081 0.98541665 1.0204774 0.9853761 1.004454 1.0056149 0.96815825

model_cnn.conv_layers.1.1.bias f4 [32]
00000000: af57 103c 0064 833d 060b c33c 286b 663b
00000010: ce86 c8bc 3c0b dc3c 8e32 b0bc d5f2 a03c
00000020: 0203 2b3c 2f69 593c 1787 d73c 92a5 3ebb
00000030: 5417 c93b b869 6c3a 970c 853c 0dab b53b
00000040: 0b30 e13b ff0b 163c 54cf 00bd 8a68 f23b
00000050: b6b5 30bc 0ef2 4abc 3a29 e43c 71de 0c3c
00000060: f7b1 df3c 2ffc d93c 693d d2bc 71fc 163d
00000070: f291 40bb e883 e6ba 1469 26bb ede3 2f3c
0.008809968 0.06415558 0.023808967 0.0035159085 -0.024478342 0.026860826 -0.021508481 0.019647041
0.010437729 0.013269707 0.026309533 -0.0029090387 0.006136814 0.0009018439 0.016241355 0.0055440725
0.0068721822 0.0091581335 -0.031447724 0.007397716 -0.010785511 -0.012386812 0.02785169 0.008597956
0.02730654 0.026609508 -0.025664048 0.03686184 -0.0029383865 -0.0017586919 -0.0025392221 0.010735494

model_cnn.conv_layers.1.1.running_mean f4 [32]
00000000: ba74 3d3d 2c31 183e 54d9 49be 8528 073e
00000010: 9c22 503e 91f1 5a3e 6c50 b2be 904a 103e
00000020: 2903 4abe 27d6 b33c 12f6 3abe 825c 94bb
00000030: eab6 8abe 9b2a 823d db58 cf3d 7922 ff3d
00000040: fe01 963d 2791 1bbf 2b75 a13e 255d 5dbe
00000050: b3d1 e73d 9675 693e 30db 473e 7860 9c3e
00000060: 2061 bbbe 1730 75be 3138 0cbe 8a62 6dbe
00000070: b78e 9b3d 880f d43e 2a31 51be 317a cb3e
0.046253897 0.14862508 -0.1971181 0.1319905 0.20325702 0.21381213 -0.34826982 0.14090943
-0.19727768 0.021952702 -0.18257931 -0.0045276294 -0.27092677 0.063557826 0.1012437 0.12457747
0.07324599 -0.6076836 0.31534705 -0.21617563 0.11319294 0.22798762 0.19517207 0.3054235
-0.36597538 -0.23944126 -0.1369331 -0.23182121 0.0759558 0.414181 -0.20428911 0.39741662

model_cnn.conv_layers.1.1.running_var f4 [32]
00000000: 5d3b 8c3d c04c ca3d d760 903d 97eb cb3d
00000010: b1d4 143e f031 7a3d 1b94 db3d fe4a ff3d
00000020: fabe c23d 38be 2a3d 7877 313e 2e93 c03d
00000030: 0e44 073e 9269 aa3d be56 8c3d 9868 c03d
00000040: 7ff6 fb3d f2e9 fa3d 541d 593e 8abf f93d
00000050: 24df a63d 4f1e 6c3d 6f7d e03d 6238 203e
00000060: 1fbb 243e 2fab 9a3d e895 e13d a2f8 aa3d
00000070: 719a 363d a8b0 293e b412 0e3e fd76 e83d
0.0684726 0.0987792 0.07049721 0.099570446 0.1453426 0.06108278 0.10721608 0.124654755
0.09509082 0.041685313 0.1733073 0.09403072 0.13209555 0.08320917 0.06852482 0.0939495
0.12302875 0.12251653 0.21202594 0.12194736 0.081480294 0.057646092 0.109614246 0.15646508
0.16087006 0.07552182 0.110149205 0.08348204 0.04458088 0.16571295 0.13874322 0.1135082

model_cnn.conv_layers.3.0.weight f4 [64, 32, 3]
00000000: aaaa 7f3d 23ff fc3c c91b 87bd 6dd8 693d
00000010: 8c31 0dbe b39f e53b 7687 553d 909d 51bc
00000020: a2be 64bd cafa 833c 5c2e f4bd 47b5 253c
00000030: d163 a33d e72e bd3d 1790 b73b 40dd c53d
00000040: 9f2b e63d be07 39bd c7ee c9bb 8894 32bd
00000050: ce26 5bbd 1183 b53d e760 43bd f490 7fbb
00000060: 246b 343d a54b b2bd f6ac e5bd a1e2 3b3d
00000070: db00 893c 4b7f 51bd 9e03 89b9 c84d d4bc
00000080: 8f91 1c3b 4ea9 96bd 3372 98bc fa81 7c3d
00000090: bb30 aebd 5518 90bd daba b3bd 0b79 d93b
000000a0: d22e f4bc 6586 7f3c 80eb 2e3d 2299 2b3d
000000b0: 63d6 7fbd d0cb 62bb 7ee1 d0bd a99b 9ebd
000000c0: c97c 47bd 188d 46bd 7d70 6ebd f4f2 283d
000000d0: 4ed8 253c 8636 513d 1637 43bc 5c83 c03d
000000e0: 27e2 35bd 381c 523d a130 6ebd 59bb 87bd
000000f0: 051f 6a3d 5cc6 26bd 2fe1 48bb a100 263d
00000100: 540c 833d 8e87 fe3c 4c7c 8ebd b6a6 c0bd
00000110: ea95 42bc 312e cbbc 1757 2b3d 7534 2ebd
00000120: 44a7 ca3d 623a aa3d bc00 d33d 72e4 8cbc
00000130: e844 3abd 0e14 383d 8c0c 5dbd 6321 abbd
00000140: a33f d9bd cfd1 20ba cf93 ee3c 3e89 e63d
00000150: a7b8 863d f5de 9bbd 3618 c1bd 4f2e 25bc
00000160: c759 48bd 09dc 61bc 442c d6bd 5162 efbd
00000170: 4253 bdba 9ebd debc 99a2 92bd 5a09 3b3c
00000180: 970f 91bc 9697 86bd 37fd dc3d 70d8 bcbd
00000190: 4b1c b5bd 1f7c fa3c ff77 ec3c 8fe9 f2bc
000001a0: fafd b7bd 3345 a2bb e049 cfbc 0598 073d
000001b0: 9737 9ebd f630 2d3d 2b4f 303d 5958 d63d
000001c0: 9679 0a3d 39fa 423d 65e5 fa3b cff3 cebd
000001d0: 4d91 2a3d 6e42 af3d 6f56 5dbc aa18 cbbd
000001e0: a445 cf3c c7f5 bc3d 6e9e 7d3d 5708 0fbd
000001f0: fc0a b83d 847b f03b 632e 263c 8752 9ebd
00000200: 082a 2bbd b5dc bc3c b5fc 953d a30e 9dbd
00000210: 78bf 06bd 8e7f ce3d a326 81bc c473 7cbc
00000220: 8160 aebd 2fe4 eb3d d3d4 6e3d eeb0 1abc
00000230: 4470 963d 064a 17bd 3500 d23c 3353 c5bc
00000240: cd95 bcbd ec57 a03d 0978 d7bd 09c1 153d
00000250: ec3e 6dbd ff9e a23d cebd 203d 6283 31bd
00000260: 1d82 983c afa7 b63d 9361 5ebd 864c 8abd
00000270: 474c c93d e549 b3bd fefc d63b 90e2 ce3b
00000280: 1824 8cbd dd27 8cbd a68a 5c3d 1dae 67bd
00000290: d287 dd3c 983e 903d b256 cf3c a301 26bd
000002a0: 330c a5bd b699 323c 972f 7f3d 90cc 00bd
000002b0: b7cf 933d b89c 0dbd f321 4ebd 1fbf 493d
000002c0: 0a3b 08bd 6e07 fdbc ef1a 2b3d f116 3bbd
000002d0: d143 09bd 1edf 813d ab1f 853d c718 acbc
000002e0: 3151 d8bc 79fe 3bbd 86e9 3bbb 57a3 05be
000002f0: 3103 b1bd f1f3 a4bd 96fa 9f3d d11c debd
00000300: 5a26 9e3d 921e 283d 722b b9bd 9785 b33d
00000310: 2b71 f7bc 2d35 1dbd 97fb 3f3c 992a 203d
00000320: 2440 833d fc45 0a3c 2f3b f6bb 363c b5bd
00000330: 4056 12bd 06ed a53d 6531 9dbd 9534 e1bc
00000340: c256 62bd 70d6 cb3b 34f1 663d 9cf3 9dbc
00000350: 11ef 96bc 63a3 fabd c782 37bd d575 7ebd
00000360: 24c6 993c 572b e03d 08fd 87bc eb9b 1abc
00000370: 4a96 a83d 25ae 993c 64a7 a83d 55e9 49bd
00000380: e5d3 46bd 1bde 873d 3248 b83d 8713 5ebd
00000390: a26e 963c ec65 de3d 6c3e 773d b32c adbd
000003a0: 9c07 51bd c3b1 473d 9bba 88bd a106 a73d
000003b0: c166 443d 5efc 77b9 d01d e3bc 7b40 11bd
000003c0: f584 b1bd a9a8 c13a f8c2 913d 5532 e13b
000003d0: 1829 9abd 8dca 3abd ef60 b5bd 709a b4bd
000003e0: 820a bdbd cd28 46bc bd22 f03c 59f1 8d3c
000003f0: 0929 973d 582f 0f3d 8ae0 b7bc 56ab b43d
0.062418617 0.030883377 -0.065970965 0.057091165 -0.13788432 0.007007563 0.05213114 -0.0127939135
-0.055845864 0.016110796 -0.11922905 0.010114021 0.07978023 0.092374615 0.0056018936 0.09661341
0.11238789 -0.0451734 -0.0061624977 -0.04359868 -0.053503804 0.088628896 -0.047699835 -0.003899631
0.04404749 -0.08705834 -0.1121463 0.045870427 0.01672404 -0.051146787 -0.0002613337 -0.025915995
0.002389047 -0.07356511 -0.018609142 0.061647393 -0.08505388 -0.07035891 -0.087758735 0.006636744
-0.029807482 0.015596007 0.04270506 0.041894086 -0.062460314 -0.0034606345 -0.10199259 -0.077445336
-0.04870299 -0.0484744 -0.058212746 0.041247323 0.010122372 0.05107739 -0.011914989 0.09400055
-0.04440513 0.051296443 -0.058151845 -0.066275306 0.05715849 -0.040716514 -0.0030651798 0.040527944
0.06398836 0.031070497 -0.069573015 -0.094067976 -0.011876563 -0.0248023 0.041831102 -0.042530496
0.09895185 0.08311917 0.103028744 -0.017198775 -0.04547587 0.044941 -0.053967044 -0.083559774
-0.10607841 -0.00061347795 0.029123215 0.112566456 0.065781884 -0.07610885 -0.09428446 -0.010081842
-0.048913743 -0.013785371 -0.10457662 -0.11688674 -0.0014444368 -0.027190026 -0.07159919 0.011415804
-0.01770763 -0.065718815 0.107904844 -0.0922097 -0.08843287 0.030576764 0.028865812 -0.029652385
-0.08983989 -0.004952097 -0.025303781 0.03310396 -0.07725447 0.04228302 0.04304425 0.1046607
0.03380736 0.047601912 0.0076567405 -0.101050965 0.041642476 0.08557592 -0.013509377 -0.09916814
0.025301762 0.09226566 0.06191867 -0.034920063 0.0898647 0.007338943 0.010142895 -0.077305846
-0.04178813 0.02305446 0.07323591 -0.07668807 -0.032897443 0.10082923 -0.015765494 -0.01540846
-0.085145004 0.11518132 0.058308434 -0.009441597 0.07345632 -0.03693583 0.025634864 -0.024087524
-0.0920826 0.0782927 -0.10520942 0.036561046 -0.057921335 0.07940482 0.03924351 -0.043338187
0.01861673 0.08918702 -0.054292273 -0.06752877 0.09829002 -0.08754329 0.0065609207 0.0063136294
-0.06842822 -0.06843541 0.053843163 -0.05656253 0.027042303 0.07043189 0.025309894 -0.040528905
-0.080589674 0.010900905 0.062301245 -0.031445086 0.07217353 -0.034573287 -0.050325345 0.049254533
-0.03325943 -0.030887332 0.041773733 -0.045676176 -0.03351194 0.06341384 0.06500181 -0.021007909
-0.026405903 -0.04589698 -0.0028673126 -0.1305059 -0.08643187 -0.08054341 0.07811467 -0.1084534
0.07722159 0.04104478 -0.0904149 0.087657146 -0.03020533 -0.03838079 0.011717699 0.039103124
0.06408718 0.008439537 -0.0075143795 -0.08849375 -0.035726786 0.08101849 -0.07675437 -0.027490893
-0.05525852 0.0062206313 0.056382373 -0.019281201 -0.018424543 -0.12238195 -0.044802453 -0.062124092
0.018771239 0.109457664 -0.016600147 -0.009436588 0.0823179 0.018759796 0.08235052 -0.04929479
-0.048541922 0.0663416 0.08998145 -0.05421784 0.0183633 0.10859284 0.060362265 -0.08455791
-0.051032647 0.04875351 -0.06676217 0.08155561 0.047949556 -0.0002364977 -0.027724177 -0.035461884
-0.08667938 0.0014774996 0.071172655 0.006872455 -0.07527369 -0.045603324 -0.08856379 -0.08818519
-0.0923052 -0.012094689 0.02931344 0.017326998 0.07380874 0.03495726 -0.022445936 0.08821742

model_cnn.conv_layers.3.0.bias f4 [64]
00000000: 681f a638 90c0 e23b 7b1f 2539 4fd5 aebc
00000010: 0a28 3f3a 475e 953a b8e3 33b6 9438 ffbc
00000020: 864b 08bd db7e 0c3d 780d fa36 920e 303c
00000030: 9438 e338 91fc 17b8 4ac0 11bc c101 04bd
00000040: a20c 3238 fd85 3538 54a7 923a 70e1 5236
00000050: a94b 35bc 27a0 80bc e8f5 e33b 1cff ecb9
00000060: cdeb 073c 20f9 cbb8 8a79 d137 38ec 8536
00000070: 8901 123c d77b 8fb8 026d 92bc 6fa4 ecbc
00000080: b1f4 e139 52bf 14bd c9c0 03b8 9707 b9bc
00000090: abbf 63bb fc54 0fbd 59f9 feba 430c b9bc
000000a0: ceff fbbb 4e57 05bd e603 fab8 c652 72bc
000000b0: 77f3 2638 2492 08bd 85fd cc3b 1771 8bbc
000000c0: 9fcd f9bb d434 c8b6 8054 c9b6 35cf 57ba
000000d0: e788 e9bc 16cd e5b9 8ad0 ce3c 1ea5 15bd
000000e0: 15f6 a938 f317 5c38 e4c4 d5b8 3dda f4bc
000000f0: 4916 32b7 4125 ae3c b400 7e3b 0d2c 65b9
7.921347e-05 0.006919928 0.00015747354 -0.021341948 0.0007292038 0.0011395895 -2.6805628e-06 -0.031154908
-0.03327515 0.034300666 7.4521486e-06 0.010745661 0.00010834742 -3.6236426e-05 -0.008895943 -0.032228235
4.2450272e-05 4.327855e-05 0.0011188784 3.142366e-06 -0.011065402 -0.015701367 0.0069568045 -0.000452035
0.008295965 -9.7261975e-05 2.4971338e-05 3.9912084e-06 0.008911499 -6.841838e-05 -0.017874245 -0.028887002
0.00043097654 -0.03631527 -3.141238e-05 -0.022586627 -0.0034751694 -0.034993157 -0.0019452974 -0.022588855
-0.0076904064 -0.032553963 -0.00011921655 -0.014790243 3.980423e-05 -0.033342496 0.006255808 -0.017021699
-0.007623389 -5.9666145e-06 -6.000104e-06 -0.00082324754 -0.028507663 -0.00043831085 0.025245924 -0.03653442
8.104384e-05 5.2474392e-05 -0.00010193305 -0.02988922 -1.0614815e-05 0.021257998 0.0038757743 -0.00021855552

model_cnn.conv_layers.3.1.weight f4 [64]
00000000: 6d28 833f 23a9 853f 71f5 7a3f fa9e 873f
00000010: 5a20 7b3f 5e04 823f fb37 7e3f 69e9 7d3f
00000020: 99f1 7c3f c903 803f efd1 793f 7ba1 833f
00000030: ed6b 7b3f aa46 813f ee8a 823f 5154 763f
00000040: a94e 853f c514 813f eae8 783f cc9e 813f
00000050: 9d3d 823f e0b9 763f 6cd7 843f 6317 813f
00000060: 3970 833f a189 853f dfbd 813f 2746 7f3f
00000070: 9d09 7f3f a841 7e3f 5cb5 7a3f 5e5b 7b3f
00000080: 2266 823f 152e 7b3f aac8 7d3f 381a 853f
00000090: 32f8 7f3f 5898 823f 0b7d 7c3f 7f63 7a3f
000000a0: 3408 823f ea3d 7c3f 29f2 813f 358e 7e3f
000000b0: cf92 803f 1292 763f a3d9 783f 4557 7f3f
000000c0: 2a6b 723f ac5b 7b3f a2a6 6f3f 5f36 813f
000000d0: 3f1b 793f 70d5 7b3f e30c 823f 9f2f 813f
000000e0: 709b 763f 1999 813f 8826 853f 0d68 7e3f
000000f0: 4f8c 773f 0dd1 7f3f 7bf2 743f 1239 803f
1.0246712 1.0442241 0.98030764 1.0595391 0.9809624 1.0157583 0.9930417 0.9918428
0.9880615 1.0001155 0.9758596 1.0283655 0.98211557 1.009969 1.0198648 0.96222407
1.041463 1.0084463 0.972304 1.0126586 1.0175053 0.9637737 1.0378242 1.0085262
1.0268623 1.0432626 1.0136069 0.9971642 0.99624044 0.99318933 0.9793298 0.9818629
1.0187418 0.9811719 0.99134314 1.0398626 0.9998809 1.0202742 0.986283 0.9780807
1.0158753 0.98531973 1.0152026 0.9943574 1.0044802 0.96316636 0.9720709 0.9974254
0.9469477 0.98186755 0.93613636 1.0094718 0.973072 0.98372555 1.0160183 1.0092658
0.9633093 1.0124847 1.0402384 0.9937752 0.9669847 0.9992836 0.95682496 1.0017416

model_cnn.conv_layers.3.1.bias f4 [64]
00000000: d490 503c c794 f93c f6f1 ab3b 17e7 f23c
00000010: 13c4 9f3b 38cc 203c 78a5 9fbc 8407 743c
00000020: 6586 ac39 489d a93c 6732 b0bc 9ec3 473c
00000030: 5850 49bb 630a 13bc 1c73 94bb 367e 02bd
00000040: e451 af3b 4b64 203c da9d 34bd b389 0dbb
00000050: 5a9b e4bb 5f91 1fbd 1966 a33b 2c23 9a3b
00000060: e2f9 ea3c 3bcc 1e3d 9d38 bc3c cb7c 95bb
00000070: a97b a33c b7b5 40bc b79f 8fbc 6ddd acbc
00000080: 2102 f3bb 5880 c5bc 000d 603c daa3 423c
00000090: a7a6 3f3c 09b1 033c 8903 c0bc bca9 8fbc
000000a0: c4b3 773c 9392 953c ec6e 133c 33cf 99bb
000000b0: bbca 3cbc 524d 84bb 37aa 2fbd 0dee 8dbb
000000c0: b268 7fbd 6845 aabc 38c2 eebc dd14 b2bb
000000d0: eed7 d2bb 5474 2cbc 4132 323c 7ebb 20bc
000000e0: a88e aebb 363b b23c d907 673d 8a72 a2bb
000000f0: 85ac 46bd 356c 4c3c c769 5fbd f010 213c
0.012729842 0.03046645 0.00524735 0.029651208 0.004875669 0.009814315 -0.019488081 0.01489437
0.00032906528 0.02070488 -0.021508409 0.012192635 -0.0030718055 -0.008974644 -0.0045303237 -0.031858645
0.0053503383 0.009789537 -0.04409585 -0.0021596968 -0.006976527 -0.038956996 0.004986536 0.0047039
0.028683607 0.038768988 0.022976214 -0.0045619956 0.019956427 -0.011762074 -0.017532213 -0.021101678
-0.0074160253 -0.02410905 0.013674974 0.011879886 0.011697448 0.008037814 -0.023439186 -0.01753699
0.015118543 0.018258369 0.008998614 -0.0046938895 -0.011522944 -0.0040375376 -0.04288694 -0.0043313564
-0.062355705 -0.020785049 -0.029145345 -0.005434616 -0.006434432 -0.010525782 0.010876239 -0.009810327
-0.0053270645 0.02175675 0.05640397 -0.004957502 -0.04850437 0.01247697 -0.054544237 0.009830698

model_cnn.conv_layers.3.1.running_mean f4 [64]
00000000: ea9f f8be 0b04 d0bd 5b66 92be f80f f3bd
00000010: fde2 41bf 7cee cb3d c16a 02bf 371b 8abf
00000020: 216a 433e 0acb f43e d74f 87be 9309 d8bd
00000030: b474 843d e2ad e43e a0d0 343e ebc7 4c3f
00000040: f0a2 ffbd adfc b13d c365 c33e b838 7abe
00000050: e764 013e ca21 9e3d dba1 2bbf a178 e0be
00000060: 29f8 c6be 88b6 2cbf 00fe 1f3e e09b dbbe
00000070: 8286 6abe d8cc d7bc ee1a 0bbf ce9f 563e
00000080: 4517 73bd 77a2 11be 9970 d0be fbb5 cf3d
00000090: 2c13 dd3e d617 8abe 8297 f1be 26d6 d53d
000000a0: 8449 06be 3614 4b3d 51b3 47bf a5d4 193f
000000b0: d789 a73d 5559 14bd d85a d23e eb05 aebd
000000c0: 0f25 313f e04e b5be 8bcc 953e 833f 07bf
000000d0: a541 09be 3b76 20be 94ed 0c3e 31d0 25be
000000e0: d42f d03e 244a 45bf b09a e6bd d07e b53e
000000f0: 5111 a4bd b3ea 13be a0e4 123f 8e0b 9fbe
-0.48559505 -0.10157021 -0.28593716 -0.1186828 -0.7573698 0.09957597 -0.50944144 -1.0789555
0.19083454 0.47811157 -0.264281 -0.10548701 0.06467572 0.44663912 0.17657709 0.7999255
-0.1248225 0.08690772 0.38163576 -0.24435699 0.12636147 0.077212885 -0.67043847 -0.43842033
-0.38861206 -0.6746602 0.15624237 -0.4289236 -0.22902873 -0.026342794 -0.54337966 0.20959398
-0.059348363 -0.14222132 -0.40710905 0.10142132 0.4317869 -0.2697131 -0.47185904 0.10441236
-0.13113981 0.04957982 -0.7800799 0.60090095 0.08180588 -0.036218006 0.41084933 -0.084972225
0.6919717 -0.3541174 0.29257616 -0.52831286 -0.13403948 -0.15670101 0.13762504 -0.161927
0.4066149 -0.77066255 -0.11259973 0.35448313 -0.08011115 -0.14445 0.57380104 -0.31063503

model_cnn.conv_layers.3.1.running_var f4 [64]
00000000: a5db 063e 2aba 293e 5946 533e e07f d13d
00000010: 7ba9 733e 0231 5f3e f8c8 853e 905a 503e
00000020: 0dbb 353e e49e 213e 8ab9 1b3e 9dfa 193e
00000030: ea32 6b3e ca2a 4f3e f760 ca3d 3cf3 6c3e
00000040: 2cec ea3d 1052 8c3e 1447 953e bc19 273e
00000050: 8f7f bf3d 58f2 9b3e 1047 be3d f460 1b3e
00000060: 451f 063e 2410 3c3e 668f 353e 2bee 523e
00000070: 140e 133e 3b6f 463e a274 123e 0690 343e
00000080: 33dc 263e ece2 533e 8189 5a3e 63c3 323e
00000090: 4882 6f3e 03da ed3d 9abd 4c3e 661b fc3d
000000a0: 4f5f dc3d 0449 3d3e 5faa 323e 9e78 943e
000000b0: 420b 3d3e f6d9 283e fd32 8b3e 5275 0d3e
000000c0: f0a7 243e a9e3 0a3e c106 463e a37b c73d
000000d0: 306d 303e a67c 723e 493a 283e 19cb a83e
000000e0: 3fe9 c03e e962 473e a138 303e 3af6 133e
000000f0: 9db7 773e 6f19 463e ea9d 313e f79d 803e
0.13169725 0.16574922 0.20632304 0.10229468 0.2379512 0.21796039 0.2612989 0.20347047
0.17747135 0.15783268 0.15207496 0.15037008 0.22968641 0.20231166 0.09881776 0.23139662
0.114708275 0.2740636 0.2915579 0.1631841 0.09350502 0.3045833 0.09290898 0.15173703
0.13097866 0.18365532 0.17730483 0.20598666 0.14360839 0.19378369 0.14302304 0.17633066
0.16294937 0.20692033 0.21341516 0.17457347 0.23389542 0.11613848 0.19994202 0.12309913
0.10760366 0.18484885 0.17447804 0.28998274 0.18461326 0.16489395 0.27187338 0.13814285
0.16079688 0.13563408 0.19338514 0.09740379 0.17229152 0.23680362 0.16428484 0.3296745
0.37677953 0.19471325 0.17209102 0.14449397 0.24191137 0.1934564 0.17345396 0.25120518

model_cnn.conv_layers.4.0.weight f4 [128, 64, 3]
00000000: 226f 9abd c5c4 0e3c 1e8b 6a3d b8af b53b
00000010: 322d 273c ad86 913c 8271 5dbd ab00 09bd
00000020: cb78 0e3d 27a8 35bd 9564 f8bc 6b1c 323d
00000030: 405f cd3d f2d0 03bc ed4c 18bd 8692 d3bc
00000040: 6257 69bd 8c00 21bd aa1f 033d 6e99 b6bc
00000050: 8665 a33c 8f6e a6bc 6c3b 31bd eefd b03c
00000060: c287 3a3d c749 0cbd c43a 30bd ae2b a63d
00000070: 59cb 57bd fa64 593d 1938 b1bc 9901 503c
00000080: dd7e 803d 03dc 12bd 531b 3c3d 6d4a 5d3d
00000090: 14f6 1e3b d16e c83a facf 5cbb d382 4f3d
000000a0: a2fe 06bb 05a5 6cbd 53d1 ab3c e497 063d
000000b0: 4baa 193d e4d3 183c 6bba 20bd 6bab 03bd
000000c0: 1392 aebc 1443 99bc cf6b 29bd e8c7 4a3d
000000d0: 09c9 053d 7af5 e63c 5950 863d a9d9 643d
000000e0: 7020 353d a6b5 ecbc 7bff 4fbd e24c f9bc
000000f0: 9b1a 3e3d 08e0 0abd 70d7 52bb e707 af3c
00000100: d699 82bd bff4 5cbd bc53 b23b 0ec8 293c
00000110: c2fd b33d 3b82 383d 79f6 d0bc 7f82 e2bc
00000120: 8429 ee3d eb59 7c3c 9260 80bd 048b 98bc
00000130: 291f 03bc d864 9fbd 213d 84bd 4594 89bd
00000140: f4ab c2bc 7b08 c33c 417d 0bbd 5f82 63bd
00000150: 1b92 60bd 1127 5bbd f6b9 84bd 770b fa3d
00000160: c8f3 313d f993 803c d446 72bd ded4 63bd
00000170: 570f 953d e710 40bd a113 95bc f136 53bd
00000180: eb72 a53d c85a 1bbc b083 493d 83c9 6b3d
00000190: 528c 3dbd c1dc 94bd e04d fdba ff0e 383d
000001a0: f8e7 b2bc 2d22 663d 6f4c db3c fb5a acbd
000001b0: 41bb 1abd aa2a 783d 895c 6bbc ba1f b53c
000001c0: d14b 91bc e917 85bd a0ca 293d 13a4 663a
000001d0: 3730 b43c 3a08 ddbc c930 42bd 275d 6f3c
000001e0: d336 d0bc 6901 583c 1735 bcbb 6670 613d
000001f0: 2e0f b23c c67c e53c e237 0a3d b874 333c
00000200: 87af 7d3d cc85 ec3b b0f8 c23b 3b1b 3b3d
00000210: df16 a93a 06d5 39bd 664e 773d c70a a83b
00000220: 26a2 f8bb a12e 1e3d db58 213d 17bb 26bc
00000230: cf4a 86bd 16b1 523d 2883 8638 54a6 18bc
00000240: f2a2 6e3b c6c7 293d b20e 44bd addd cc3c
00000250: fa53 d43c a6aa 73bd 2d62 9dbd ba52 c03c
00000260: a98d 57bc cf2f 843c 03ca 55bd dadf e03c
00000270: 2ea4 cbbc 2583 e5bb 198c 873d 690f 40bd
00000280: 1212 0abd 56e1 be3d f56d 95bc f069 10bd
00000290: 07fd ab3c 6640 ce3d 8520 503d d9f0 773d
000002a0: bee8 b63a ad0c 74bd 06b6 b3bd 7f8b 963d
000002b0: 7575 8c3d e18f 2c3d 5d66 af3d 3fc2 e63c
000002c0: 9b82 883d 1f6d a23c 4894 a2bb 9afe 913c
000002d0: bad1 163d e014 7dbd 92ad 7fbc c939 d13c
000002e0: b615 5bbc 7a8f ce3b 0293 3b3c 349b 7abd
000002f0: 4170 06bd 559f 793c da08 4fbd 4f20 8fbd
00000300: 326b cabc 4170 7c3d 4899 ae3c 59f0 783d
00000310: 85ba f03c 8c6c 58bc 7af7 46bd 5d79 62bc
00000320: 6096 80bd 53d3 89bc 90e3 8cbc 537a a03d
00000330: 2ffa 903d 1778 83bd e1af 2d3d eae6 743d
00000340: d616 96bd f2ca 17bd c278 02bd af7b 28bd
00000350: a511 733c cfba 9c3d 4c89 ed3c 5903 83bc
00000360: a505 ba3c 96b3 943c 7f51 acbd 2cbd c2bd
00000370: 8c1e 683d ed13 33bd c8b2 f2bc 752a 42bd
00000380: 99ae 903d 6929 7cbd c2b7 04bd a490 8fbd
00000390: 74c6 98bd 5c89 d73c cfb2 8f3d 328a 873d
000003a0: 852c cf3c e4bf ae3c 5a5e eb3c d8c6 a53c
000003b0: 5b74 08bd a35b 8cbd b362 5f3c c15d 90bc
000003c0: 65da 6abd fc18 12bd d501 72bd 7796 37bd
000003d0: d2d8 0f3d 55a4 a2bd 3255 45bd ecff ce3c
000003e0: ebf7 f2bc 696e 903d ba63 d33b a81b be3b
000003f0: da13 05bb d98e 78bd 72f0 bbbd ab60 80bd
-0.07540728 0.008713906 0.05726158 0.005544629 0.0102036465 0.017764414 -0.054063328 -0.033447903
0.034783166 -0.044349816 -0.030321399 0.043484133 0.10027933 -0.008045422 -0.037182737 -0.025826704
-0.0569681 -0.039307162 0.03201262 -0.022289958 0.019945871 -0.02031639 -0.04326956 0.021605458
0.045539625 -0.034250047 -0.043024793 0.081138 -0.05268416 0.053074814 -0.021633195 0.012695693
0.06274197 -0.03585435 0.045924496 0.054026056 0.002425556 0.0015291815 -0.00336933 0.050661873
-0.002059855 -0.057774562 0.020973837 0.032859698 0.03751592 0.009327862 -0.039240282 -0.0321459
-0.021309888 -0.018708743 -0.04136258 0.04950705 0.032662425 0.028193224 0.06558294 0.05587164
0.044220388 -0.02889521 -0.050780755 -0.030432168 0.04641209 -0.03390506 -0.0032171868 0.021366073
-0.06376998 -0.053944346 0.005442111 0.010362638 0.08788635 0.045046072 -0.025508152 -0.027650116
0.11629012 0.0154022975 -0.06268419 -0.018620975 -0.008003035 -0.07782906 -0.06456972 -0.06717733
-0.023763634 0.023807755 -0.034055 -0.055544253 -0.054826837 -0.053504054 -0.06480782 0.12209218
0.04344538 0.015695559 -0.05914958 -0.055622928 0.072783165 -0.04689112 -0.018197836 -0.051566068
0.080785595 -0.009482093 0.049197853 0.057565223 -0.046276398 -0.07268668 -0.0019325577 0.044936176
-0.021839127 0.056184936 0.026769845 -0.08415791 -0.037776235 0.060587563 -0.014365324 0.022109855
-0.017736347 -0.06498701 0.041453004 0.00087982527 0.021995647 -0.026981462 -0.047409806 0.014609612
-0.025416767 0.01318393 -0.0057436335 0.055038832 0.021735754 0.028013598 0.0337447 0.010953121
0.061934974 0.0072180983 0.005950056 0.045680266 0.0012900493 -0.04536917 0.0603775 0.005128238
-0.007587689 0.038618688 0.03939138 -0.010176442 -0.06557237 0.051438414 6.414048e-05 -0.009316999
0.003641304 0.041450284 -0.047865577 0.025008047 0.02591895 -0.059488915 -0.07684741 0.023476947
-0.013156333 0.016136078 -0.052194607 0.02745049 -0.02485856 -0.007004159 0.066185184 -0.046889696
-0.03370864 0.09320323 -0.018240908 -0.03525728 0.020994676 0.10070877 0.050812263 0.060532425
0.0013954861 -0.0595824 -0.087749526 0.073508255 0.06858341 0.0421294 0.08564446 0.028168796
0.06665536 0.019827424 -0.004961524 0.017821599 0.036821105 -0.061787486 -0.015605347 0.02554025
-0.0133718755 0.006303725 0.011448624 -0.06118317 -0.032821897 0.015235742 -0.05054555 -0.06988584
-0.024709318 0.06163049 0.021313325 0.06077609 0.029385814 -0.013209473 -0.048575856 -0.013822881
-0.06278682 -0.0168244 -0.017198354 0.078358315 0.07078969 -0.0641939 0.04240406 0.05979053
-0.07328574 -0.037058778 -0.031853445 -0.04113358 0.01483575 0.076528184 0.028996132 -0.015992807
0.02270777 0.01815204 -0.08413982 -0.09508738 0.056669757 -0.043720175 -0.029626265 -0.04740377
0.07064552 -0.06156293 -0.032401808 -0.0701001 -0.07459727 0.026310615 0.07016527 0.066181555
0.025289783 0.021331735 0.028731514 0.020236418 -0.03331409 -0.06853416 0.013634372 -0.01762283
-0.057337184 -0.03566836 -0.05908378 -0.04482123 0.035118885 -0.079415 -0.04817695 0.025268517
-0.029659232 0.07052309 0.0064510973 0.0058016367 -0.0020306022 -0.060683105 -0.09176721 -0.06268438

model_cnn.conv_layers.4.0.bias f4 [128]
00000000: 2e41 8db7 72cf 973a 216e 45bc 74fd 1dbb
00000010: 468b 1038 721f beb9 4890 3a3c 59a8 2bb8
00000020: 1cbe 08b7 ffd2 153b b7d4 2c3c b466 f935
00000030: 80ea 5bb8 0205 adbb cbaf 5c3c 1145 a73b
00000040: 33bf d73b a9ab 4d3c 1300 ddba 8660 a8b8
00000050: 3696 e7bb d506 843b 7f4b 513c 3ff6 033c
00000060: caa1 73b7 6055 79b5 fbd4 f639 cdaa 5b3a
00000070: b640 53b8 975e 5ab7 84a4 35b8 b0c8 67b6
00000080: 33e0 a838 e310 e0bb 19f4 50b7 16d5 99b7
00000090: 1400 21b8 907b 2f37 1098 603b fb32 a737
000000a0: ecf0 24b8 a670 953b 9527 873b 605d 9cb5
000000b0: a22f 3c38 8a37 33bc aca9 40b9 e28b 6f39
000000c0: 9244 8438 168a 9e36 ca58 b337 3e2e e5ba
000000d0: ca75 563c cab7 6637 cc3a c93b 8c0f bc3b
000000e0: d994 5e3c 6751 2e37 383f 06bc 747f 67b8
000000f0: 6bdb f5b6 b8c2 7eb6 4fc7 a33b a1e2 c13a
00000100: 6810 57b5 f2f3 07b7 ebc6 66b7 db75 17bb
00000110: b4cf e839 c4a5 0cbc ab4b c4bb 87a3 7ab9
00000120: a854 03bc 1e66 ea37 a034 8bb6 c01a 33b8
00000130: f6f5 043b 6ed0 d43a 5619 c0b9 94a8 30b8
00000140: 3080 3ab9 6bc2 a43b b235 d0b6 1600 263b
00000150: db5a 15bc 4878 97b7 33f4 56bc 19b7 c337
00000160: 8691 b3b6 c29a aeb7 8835 03b7 36dd 053c
00000170: 221c c13b da9f 3038 d43d 1e3a 5289 9ebb
00000180: d880 86bb 4a05 c837 37e7 5439 64b8 1538
00000190: c4bf 663b 244b 2ab6 e283 74b7 91b1 c93a
000001a0: 61e7 ca3a 415e 453b 38e3 ee39 dd8b 8cb9
000001b0: ca2a e13a 5290 30b6 6132 cfba 5813 6abb
000001c0: ab47 133c 661d 8bb8 ec38 f635 7cdf 5d3c
000001d0: bac7 583b 50b3 3bb7 59d2 2cbc 5c11 7f3a
000001e0: 41bf 833b 9ee4 4937 8cf4 f3ba 1087 a03b
000001f0: f6da 9f38 40ff b8b7 6099 3a39 22d7 123c
-1.6838861e-05 0.0011582209 -0.012050183 -0.0024107369 3.4461984e-05 -0.00036263053 0.011386938 -4.0926363e-05
-8.150495e-06 0.002286136 0.010548762 1.8581836e-06 -5.2432064e-05 -0.005280138 0.013469647 0.005104669
0.006584072 0.012553134 -0.0016860984 -8.028843e-05 -0.007067467 0.0040291348 0.012774347 0.008054315
-1.4521598e-05 -9.2883965e-07 0.0004707946 0.00083796383 -5.0366587e-05 -1.3015836e-05 -4.330698e-05 -3.4538498e-06
8.0526246e-05 -0.0068379506 -1.24545995e-05 -1.8338247e-05 -3.8385464e-05 1.0459582e-05 0.0034270324 1.9931691e-05
-3.9325023e-05 0.004560548 0.0041245916 -1.1650081e-06 4.4867054e-05 -0.0109385345 -0.00018373755 0.00022844927
6.307023e-05 4.7248423e-06 2.1379808e-05 -0.0017485095 0.013089607 1.375186e-05 0.0061410423 0.005739158
0.013585293 1.0390161e-05 -0.008193783 -5.519339e-05 -7.3271126e-06 -3.796229e-06 0.0049981247 0.0014792272
-8.0117616e-07 -8.103425e-06 -1.37553825e-05 -0.0023111019 0.0004440524 -0.0085844435 -0.0059904656 -0.00023902777
-0.008015789 2.7942526e-05 -4.148649e-06 -4.270184e-05 0.0020288206 0.0016236433 -0.0003663997 -4.211867e-05
-0.00017786096 0.0050280592 -6.205134e-06 0.002532964 -0.0091159 -1.8056613e-05 -0.013119745 2.3331073e-05
-5.351557e-06 -2.0814481e-05 -7.820672e-06 0.008170417 0.0058932463 4.2110543e-05 0.0006036435 -0.004838147
-0.004104715 2.384432e-05 0.0002030403 3.5696095e-05 0.0035209516 -2.5375712e-06 -1.457424e-05 0.0015388002
0.0015480333 0.0030115994 0.0004556419 -0.00026807087 0.001717889 -2.631005e-06 -0.0015807861 -0.0035717096
0.008989255 -6.6335124e-05 1.8344995e-06 0.013542052 0.003307803 -1.1187818e-05 -0.010548198 0.0009730065
0.004020602 1.2033763e-05 -0.0018612309 0.004898913 7.6224955e-05 -2.205337e-05 0.00017795479 0.0089624245

model_cnn.conv_layers.4.1.weight f4 [128]
00000000: 46c8 863f ae26 883f e1b6 893f 37b2 8c3f
00000010: 1b62 883f 2a21 8f3f f2ff 933f cafa 8b3f
00000020: 55a9 873f 2f52 8c3f 9305 8d3f cac9 883f
00000030: d10e 893f 9294 883f be75 873f 7f85 853f
00000040: 72a4 833f 373e 893f 7ed5 883f ae03 853f
00000050: 271e 873f 5c8a 8b3f 8193 8b3f 86ea 8f3f
00000060: 265f 8e3f bf39 8d3f 39aa 873f 841a 8a3f
00000070: 809e 873f ee18 8a3f d7f8 893f 9ef9 873f
00000080: 2dbe 853f 1e83 8b3f d134 8d3f d1c0 873f
00000090: 843d 873f 698d 8b3f ac32 8f3f 3f34 8b3f
000000a0: 6365 8d3f 4de3 893f 1dae 873f bd9d 8b3f
000000b0: 9596 8c3f 1bf2 8c3f 83f6 873f 1637 8f3f
000000c0: d1a1 8a3f b028 8c3f 44ed 8b3f 3dc9 8e3f
000000d0: 9dee 863f 43bf 863f 27cc 913f e627 893f
000000e0: 09ae 8a3f 10d1 883f 9e19 863f 1cfc 8a3f
000000f0: 0722 893f 00dd 933f 6320 843f 9d81 883f
00000100: e173 8a3f e7b8 8e3f 2a2c 8a3f f19d 873f
00000110: 8303 883f dc25 873f f225 873f 1811 883f
00000120: 20f5 873f 85aa 8a3f 99b1 883f 657f 8d3f
00000130: e84b 8c3f e8a3 8b3f f67b 843f b47b 813f
00000140: b96c 8e3f d701 8d3f 8819 923f 3988 8f3f
00000150: 9096 8c3f d4bf 8a3f c45e 8d3f 1196 883f
00000160: 7b76 8d3f 539b 863f 7e4d 8a3f a056 853f
00000170: 1d5a 8e3f 76ad 8d3f f261 933f 604b 8d3f
00000180: 1c65 893f 459c 893f 99bd 883f ae74 873f
00000190: b781 853f fe0b 893f a408 8c3f 214a 8a3f
000001a0: 2b1b 843f 1768 8b3f daf0 893f ab75 883f
000001b0: d5ba 893f f038 873f df32 8c3f b634 883f
000001c0: 16cb 8b3f f56c 853f 41e3 883f ad73 8b3f
000001d0: 456f 8d3f 76ad 863f 6811 8a3f 7b90 873f
000001e0: dc2f 893f 0e4e 893f e201 873f c4a7 8b3f
000001f0: bd7e 8e3f 8a13 873f f628 8a3f 4d6b 873f
1.0529869 1.0636804 1.0758935 1.0991887 1.065494 1.1181996 1.1562483 1.093591
1.0598551 1.096258 1.1017326 1.0686581 1.0707647 1.067034 1.0582807 1.0431365
1.028456 1.0722111 1.0690153 1.0391748 1.0556077 1.0901599 1.090439 1.1243446
1.1122787 1.1033248 1.0598823 1.0789342 1.0595245 1.0788858 1.0779065 1.0623052
1.0448662 1.0899389 1.1031743 1.0605718 1.0565648 1.090253 1.1187339 1.0875319
1.1046566 1.0772492 1.060001 1.0907513 1.0983454 1.1011385 1.0622104 1.1188686
1.0830632 1.0949917 1.0931783 1.1155163 1.0541569 1.0527118 1.1390427 1.0715301
1.0834361 1.0688801 1.0476568 1.0858188 1.0713509 1.1551819 1.0322384 1.0664555
1.0816613 1.1150178 1.0794728 1.0595075 1.0626072 1.0558429 1.0558455 1.0630217
1.0621681 1.0833288 1.0679199 1.1054503 1.0960665 1.0909395 1.035033 1.0115876
1.112693 1.1016186 1.1414042 1.1213447 1.0983448 1.0839791 1.1044545 1.0670797
1.1051782 1.0516151 1.0804899 1.0417061 1.112125 1.1068561 1.1514266 1.1038628
1.0733981 1.0750815 1.0682861 1.0582483 1.0430211 1.0706785 1.0940137 1.0803872
1.0320791 1.0891141 1.0776627 1.066091 1.0760142 1.0564251 1.0953025 1.0641086
1.0921352 1.0423876 1.0694352 1.0894676 1.1049582 1.0521686 1.0786562 1.0590967
1.071773 1.0726945 1.054745 1.0910573 1.1132427 1.0552838 1.079375 1.0579621

model_cnn.conv_layers.4.1.bias f4 [128]
00000000: 4579 673c f116 6a3d 254a 313d ccc6 b83d
00000010: 3916 2b3d 2e5f 9b3d f902 e33d 73bd b63d
00000020: cf9c 153d 03da c33d 977f 923d b8eb 8d3d
00000030: 6c84 ab3c 70e4 2b3d 4b90 6b3d 9c9e b63c
00000040: 14ab c83c 5b9f 833d 7c0e 6d3d 42bb f83b
00000050: 8c5e 593d f4ad 9f3d 5d43 803d 9a85 e73d
00000060: f12f 9c3d da59 943d 8ab1 4f3d 46ac 7b3d
00000070: a934 7d3d 18d8 293d 9c75 9a3d 4115 393d
00000080: ce50 823c 7fe1 8f3d 3b53 aa3d 2ed9 453d
00000090: cab5 363d 06e1 a53d 0c47 c83d 72b7 b53d
000000a0: ed68 b23d 5186 523d 569d 4e3d d298 803d
000000b0: 6b6d 6d3d 225e b13d a041 613d 447a c73d
000000c0: dfbf 5a3d ebcc c13d d1a1 cf3d 720a a53d
000000d0: 2b02 1e3d 09c5 463d c4f2 b13d c0ef 613d
000000e0: 5e67 353d fe1a 6d3d b312 f13c 97c6 3d3d
000000f0: 8bf1 4b3d c2f2 df3d b247 a13c 7b5f ab3d
00000100: c95a a43d e4f5 de3d 9c6b 793d c72d 443d
00000110: a625 a23c 26a4 723d 1d57 3a3c f548 573d
00000120: 5b21 143d 309e 763d 9bc7 593d 8e04 a93d
00000130: 6236 873d c8af c43d dbd5 c8bc 663c 443c
00000140: 7433 ad3d a277 a03d 9dc6 b53d f8d3 f73d
00000150: b2a5 593d 7ec7 a63d b85a d73d d466 833d
00000160: eff0 b63d 989c 233d aed3 9d3d e5a2 dc3c
00000170: de80 f53d c0d0 6a3d b6a6 ef3d 552b a93d
00000180: dfe6 153d 93b0 933d 7621 5f3d 7a9b 573d
00000190: ed29 273d 7aec 483d 17fc 883d e798 993d
000001a0: 79be 193c 764c 993d 92bc 553d 6630 753d
000001b0: a8cd 643d 6f97 873c bea3 d53d 0b23 343d
000001c0: 2801 9d3d 127b ec3c 4a0f 173d 4877 563d
000001d0: 858a ad3d 8587 d63c d7d0 af3d 6e5a 663d
000001e0: 2373 553d 4973 ac3d d639 813d adbb 493d
000001f0: 3569 393d 0b8f 173d 985e 903d 33b1 5b3d
0.014128034 0.057150785 0.0432836 0.090222925 0.04176924 0.075865135 0.11084551 0.08922853
0.036526497 0.09563067 0.07153242 0.069297254 0.020937167 0.0419659 0.057510655 0.022292428
0.024495639 0.06426879 0.05787514 0.0075906822 0.053068683 0.07796851 0.062628485 0.11304779
0.076263316 0.072437 0.050706424 0.06144359 0.0618178 0.04146585 0.075419635 0.045186285
0.015907671 0.07025432 0.08316656 0.04830282 0.04460696 0.080995604 0.09779176 0.0887288
0.08711419 0.051397625 0.050443016 0.06279148 0.057965677 0.086605325 0.054994226 0.09740117
0.05340564 0.09462913 0.10138286 0.08058633 0.038576286 0.04852775 0.08688882 0.055160284
0.04428803 0.05788707 0.029427862 0.04633197 0.0497909 0.10934974 0.019687507 0.08367821
0.080251284 0.10886744 0.06089364 0.04789522 0.019793343 0.059238575 0.0113733085 0.05255981
0.036164623 0.060209453 0.053168874 0.08252822 0.066021696 0.0960384 -0.024516037 0.011977291
0.084570795 0.07835318 0.08875773 0.12100977 0.053136535 0.08143519 0.1051535 0.06416097
0.08932673 0.03994426 0.0770639 0.026933143 0.1198747 0.057327986 0.117017195 0.08260218
0.03659713 0.07211413 0.05447527 0.05263851 0.040811468 0.049053647 0.06688707 0.07499867
0.009383791 0.07485287 0.052181788 0.05986061 0.05586019 0.016551701 0.10431622 0.043978732
0.07666236 0.028867278 0.036879815 0.05235985 0.08473686 0.026187668 0.08584755 0.056238584
0.052111756 0.084204264 0.063098595 0.049251247 0.04526635 0.03700165 0.07049292 0.053635787
