checkpoint/transfer_cnn_features_1d_spinel5v_to_nmc_1210/retry_target_focus/best_model.pth (torch, 110818 bytes, 10 tensors)

model_cnn.conv1.weight f4 [32, 21, 3]
0	0xbd20bb50	-0.039241135
1	0xbc4fbdc9	-0.012679526
2	0xbd1694f1	-0.036763135
3	0x3e14264f	0.14467739
4	0x3de4b959	0.11168165
5	0x3db3ab3f	0.08772897
6	0xbd7b0923	-0.06128801
7	0x3e09d97e	0.13461873
8	0x3d9f8db6	0.07790701
9	0x3dc9d3ac	0.09854826
10	0xbd127069	-0.035751734
11	0x3d298c94	0.04139383
12	0x3e1f8f67	0.15582047
13	0x3df5766a	0.11985476
14	0x3e0b8108	0.1362344
15	0xbe06a04b	-0.13147084
16	0xbbe7e713	-0.0070771067
17	0xbe49f6d3	-0.19723062
18	0xbd95af64	-0.07308844
19	0xbe1f0b85	-0.15531738
20	0xbdd402a3	-0.103520654
21	0xbd9d3287	-0.07675653
22	0xbcad82de	-0.021180566
23	0x3dabc487	0.08387094
24	0x3c74c7a7	0.014940179
25	0xbd10e54e	-0.035374932
26	0x3d5d3dd9	0.05401406
27	0xbd6e927d	-0.05824517
28	0x3d8fd0f3	0.07022276
29	0xbc5a7177	-0.013332716
30	0xbca4aea5	-0.020102808
31	0x3c81bac7	0.015836133
32	0xbdd12fa7	-0.10214167
33	0x3c9519a6	0.018200707
34	0x3d0a3752	0.033744164
35	0x3decfdb1	0.11571825
36	0xbc0db19e	-0.008648304
37	0x3da151cf	0.07876932
38	0x3e249812	0.16073635
39	0x3c6bd477	0.014393917
40	0x3e3c1983	0.18369107
41	0xbb50a71b	-0.0031837884
42	0x3d867f5f	0.06567263
43	0x3d804559	0.06263227
44	0x3d4fc373	0.050723504
45	0x3e2540e1	0.1613803
46	0x3bd95a17	0.006633054
47	0x3db06455	0.08612887
48	0xbdbb1c7c	-0.09136292
49	0xbe3e4cbf	-0.18583964
50	0xbdf85516	-0.12125604
51	0xbd55ee5e	-0.052229278
52	0x3dba7b26	0.0910552
53	0x3d42cd39	0.047558997
54	0xbd37c318	-0.04486379
55	0xbdab4db1	-0.08364428
56	0xbc3824b0	-0.011239216
57	0xbdcb2dcd	-0.09920845
58	0xbc4201ec	-0.0118412785
59	0x3de0e0f8	0.109804094
60	0x3d9951ce	0.07486306
61	0xbdbdb67f	-0.09263324
62	0xbde8ec36	-0.11373179
63	0x3db1206c	0.08648762
64	0xbc56dbd7	-0.013113937
65	0xbc2f2fee	-0.01069258
66	0xbde9e3f1	-0.114204295
67	0xbd8d3cf4	-0.068963915
68	0xbc5de89b	-0.013544227
69	0x3d7d5509	0.061848674
70	0x3cf7f5f1	0.030268641
71	0x3da65dbc	0.08123347
72	0xbde3470c	-0.110975355
73	0xbc905097	-0.017616553
74	0xbe0c215a	-0.13684598
75	0x3d384764	0.04498996
76	0x3b408659	0.0029376952
77	0x3dd06470	0.10175407
78	0xbd80f8ab	-0.0629743
79	0x3e08ff35	0.13378604
80	0x3e14ef16	0.14544329
81	0x3e1b549e	0.15168998
82	0x3d6d8f81	0.057998184
83	0x3e19ea17	0.15030704
84	0x3e0d61d7	0.13806854
85	0x3e3f2620	0.18666887
86	0x3dc0c10d	0.094118215
87	0xbd426c7b	-0.047466736
88	0x3db3f6d5	0.08787314
89	0x3dfea9dc	0.12434742
90	0xbdb40864	-0.08790663
91	0xbda4289a	-0.08015557
92	0xbe0ef68a	-0.13961235
93	0xbd20535e	-0.039142005
94	0x3ddd33ff	0.10800933
95	0x3c2a5436	0.010396054
96	0x3ddd015d	0.10791276
97	0x3dc592d4	0.09647146
98	0x3e2f3a2c	0.17112035
99	0xbe0dc8db	-0.13846152
100	0xbdf61606	-0.120159194
101	0xbd8153ea	-0.063148335
102	0xbdf0be0e	-0.11755
103	0x3d0ccd2b	0.03437535
104	0x3d592c08	0.053020507
105	0xbe1f328b	-0.15546624
106	0xbe0b8f2d	-0.13628836
107	0xbe1a2525	-0.15053232
108	0x3c135b9e	0.008994011
109	0x3d9ba56f	0.07599913
110	0xbe02f6c6	-0.12789449
111	0xbdeec6c7	-0.116590075
112	0xbc410624	-0.011781249
113	0xbe04b955	-0.12961324
114	0x3e128508	0.1430856
115	0x3d738fc0	0.059463263
116	0xbc7dac92	-0.0154830385
117	0xbd20fc28	-0.039302975
118	0x3e0e5c4c	0.13902396
119	0xbdc91df0	-0.09820163
120	0xbe14f34a	-0.14545932
121	0x3dcf2d38	0.10116047
122	0xbd5175c6	-0.051137708
123	0xbc1682f1	-0.009186492
124	0xbd885933	-0.066576384
125	0x3d39767e	0.04527902
126	0x3af79790	0.0018889774
127	0x3cf4d0d4	0.029884733
128	0x3dc491eb	0.09598144
129	0xbdefd80d	-0.1171113
130	0xbc25cf90	-0.010120288
131	0xbd8b32ba	-0.06796785
132	0x3c358382	0.011078717
133	0xbdfd77a1	-0.12376333
134	0xbd4a286b	-0.04935495
135	0xbd130fae	-0.035903625
136	0xbe22bfc9	-0.15893473
137	0xbe14705c	-0.14495987
138	0xba96aab9	-0.0011494971
139	0xbdc1dab7	-0.09465545
140	0x3ca37d5b	0.019957235
141	0xbe67ed71	-0.2264917
142	0xbe28a848	-0.16470444
143	0xbe57524d	-0.21027489
144	0xbc8ab16e	-0.016930308
145	0xbd9dc2ca	-0.07703169
146	0xbdc6ef81	-0.097136505
147	0xbd8b1a64	-0.06792143
148	0xbe3ba367	-0.18324052
149	0xbd6d6c32	-0.05796451
150	0xbd3e597e	-0.046472065
151	0xbe313d1c	-0.17308468
152	0xbd447aeb	-0.047968786
153	0x3d35485b	0.044258457
154	0xbda3788f	-0.07981979
155	0x3dfa23f3	0.12213888
156	0x3dded3de	0.10880254
157	0x3c53fb6a	0.01293836
158	0xbd1eb1ea	-0.03874389
159	0x3d4c0417	0.049808588
160	0x3e05b8dd	0.13058801
161	0x3e2c0742	0.16799644
162	0xbe09ddfa	-0.13463584
163	0xbdcdfb68	-0.100577176
164	0x3d4b7701	0.049674038
165	0x3ce2dd51	0.027693423
166	0x3ceb4cb6	0.028723102
167	0xbddbf9bf	-0.10740995
168	0x3d9156f9	0.07096667
169	0xbe145a4c	-0.1448757
170	0xbd55a69c	-0.052160844
171	0xbcfa942f	-0.030588238
172	0xbce58fa9	-0.028022604
173	0xbe0ec859	-0.13943614
174	0x3cda4aba	0.02664696
175	0x3ce3b172	0.027794573
176	0xbe3cdaed	-0.18442889
177	0x3dafb554	0.085795075
178	0x3c754b60	0.014971584
179	0x3e502ce0	0.20329618
180	0x3dc05590	0.0939132
181	0x3dad4952	0.0846125
182	0x3d81d605	0.06339649
183	0x3c1e00a8	0.009643711
184	0x3da46676	0.080273554
185	0x3cbf8b7a	0.023381937
186	0xbd7f00eb	-0.062256735
187	0x3d5772aa	0.052599587
188	0xbbb2c7e8	-0.0054559596
189	0xbd2508b9	-0.04029152
190	0xbcce043d	-0.025148505
191	0xbdc0a833	-0.094070815
192	0xbd847cc2	-0.06469108
193	0xbd8ea776	-0.069655344
194	0xbdb66b13	-0.089071415
195	0xbe0c67c5	-0.1371146
196	0x3db2630f	0.087103
197	0xbe014a6e	-0.12626049
198	0x3dbf01dc	0.093265265
199	0xbdb231be	-0.08700894
200	0xbd023e0d	-0.031797457
201	0x3da1b495	0.078957714
202	0x3cec42a4	0.02884037
203	0xbd44a04d	-0.048004437
204	0xbe09abae	-0.13444397
205	0xbd9a85bc	-0.07545039
206	0x3db07bba	0.08617349
207	0xbd4c8edb	-0.049940925
208	0x3de692a3	0.112584375
209	0xbcbc92d5	-0.023019234
210	0x3b1c3e21	0.0023840743
211	0x3ddfe3f1	0.10932148
212	0x3d1c1ce0	0.038113475
213	0x3c7c7e45	0.015410964
214	0x3e14cea1	0.14531948
215	0x3dc7e883	0.09761145
216	0xbd014d3f	-0.03156781
217	0x3d0262bc	0.03183244
218	0x3da046f2	0.07826032
219	0x3b8ca82a	0.0042925077
220	0xbd5a814b	-0.05334596
221	0x3c2fa9b2	0.010721611
222	0x39a86914	0.00032121746
223	0xbda7a471	-0.081856616
224	0xbd747409	-0.059680972
225	0x3cf2bd46	0.029631268
226	0xbc796b6f	-0.015223368
227	0x3cfa0b67	0.030523015
228	0xbd6400cb	-0.05566482
229	0x3e0783f9	0.13233937
230	0xbd67dc4c	-0.056606576
231	0xbc07f4b3	-0.008298087
232	0xbdb72aca	-0.08943708
233	0xbdae6839	-0.08515973
234	0x3d90bcc5	0.07067255
235	0xbccc7020	-0.02495581
236	0xbdb09739	-0.086225934
237	0xbc9e4ad0	-0.019322783
238	0x3df94649	0.12171609
239	0x3dcadce5	0.099054135
240	0x3dc2e440	0.095161915
241	0xbde97e56	-0.1140105
242	0x3c7550bd	0.014972863
243	0x3e102771	0.14077546
244	0xbdbec722	-0.09315325
245	0xbb91a757	-0.0044449973
246	0x3e09df7f	0.13464163
247	0xbd9c6152	-0.0763575
248	0xbd79115f	-0.060807582
249	0x3dc68cf0	0.096948504
250	0xbca47451	-0.020074995
251	0xbc2f3bcc	-0.010695409
252	0xbd9a8d7e	-0.07546519
253	0xbd860fb7	-0.06545966
254	0x3e06a020	0.1314702
255	0x3dab55b1	0.08365954

model_cnn.conv1.bias f4 [32]
0	0x3de53298	0.111912906
1	0x3dca8431	0.09888495
2	0xbd8a0303	-0.06738856
3	0x3dcd4586	0.10023026
4	0x3c5e80f6	0.013580551
5	0x3db5caab	0.088765465
6	0x3bba4241	0.0056841676
7	0x3d21b3ce	0.039478116
8	0x3d93b30a	0.07211883
9	0x3d0689bf	0.03284621
10	0x3d290186	0.04126122
11	0x3df77027	0.12081938
12	0x3dadf936	0.08494799
13	0x3e37021f	0.17871903
14	0xbc7a6458	-0.015282713
15	0x3e4b2012	0.19836453
16	0xbdbc3c64	-0.09191206
17	0xbcb1dc04	-0.021711357
18	0x3d8f9a76	0.07011883
19	0xbcdcd2ee	-0.026956048
20	0x3defe181	0.11712933
21	0x3d1b6623	0.037939202
22	0x3d88d298	0.066807926
23	0x3deaa490	0.11457169
24	0x3d5d2fea	0.054000773
25	0x3e06bf6d	0.1315896
26	0x3e2b0b91	0.16703631
27	0x3da0c074	0.078492075
28	0xbd552e0c	-0.052045867
29	0x3dfa4a4e	0.12221204
30	0x3d9ecf59	0.07754392
31	0x3d6a6541	0.05722547

model_cnn.conv2.weight f4 [64, 32, 3]
0	0x3dab9aed	0.08379159
1	0xbd2eb27a	-0.042650677
2	0xba616a72	-0.00085989304
3	0xbdcf4e9e	-0.10122417
4	0x3caa3044	0.020774968
5	0xbd1c345a	-0.038135864
6	0xbcadf63d	-0.02123558
7	0x3cb3593d	0.021893138
8	0x3ce6a2b5	0.028153757
9	0x38a65c2b	7.9326644e-05
10	0x3d9bb5f7	0.076030664
11	0x3d6c1b06	0.05764296
12	0x3dc11dac	0.094294876
13	0xbd4463b2	-0.04794664
14	0xbdafbe89	-0.085812636
15	0x3dc25345	0.09488539
16	0x3ddbd142	0.10733272
17	0x3dada1b4	0.08478108
18	0xbd9e0ffe	-0.07717894
19	0xbd204776	-0.03913065
20	0x3dc02ba7	0.09383326
21	0xbd918f81	-0.07107449
22	0xbdb892cd	-0.09012375
23	0xbb22791e	-0.002479143
24	0x3d81f069	0.06344683
25	0xbd6cfc5d	-0.05785786
26	0xbd50f8ae	-0.05101841
27	0xbdc2a23b	-0.09503599
28	0xbde7677d	-0.11299036
29	0xbd701644	-0.058614984
30	0xbd6c04ed	-0.057621885
31	0xbb878656	-0.004135887
32	0xbdf7ff98	-0.121092975
33	0xbde0f43e	-0.109840855
34	0xbe32a9d8	-0.17447603
35	0xbe3a80ff	-0.1821327
36	0xbc876524	-0.01652772
37	0xbd6e43d5	-0.05817016
38	0xbe0bee4e	-0.13665125
39	0xbb2a9a67	-0.0026031972
40	0x3cfdef10	0.030997783
41	0x3d991ea4	0.07476547
42	0x3a060080	0.0005111769
43	0xbe236cea	-0.15959516
44	0xbd086b63	-0.033305537
45	0xbddb9973	-0.107226275
46	0x3d845f99	0.06463546
47	0x3d6614f4	0.056172326
48	0xbdf19b3b	-0.11797186
49	0xbcbf8f84	-0.023383863
50	0x3c024306	0.00795055
51	0xbd235605	-0.039876956
52	0xbe0abe5f	-0.13549183
53	0x3d660e4d	0.056165982
54	0xbc19af66	-0.009380197
55	0x3d95c78c	0.07313451
56	0x3dd82190	0.105532765
57	0xbde792ac	-0.11307272
58	0xbd4c290b	-0.04984383
59	0xbd889981	-0.066699035
60	0x3dc7b626	0.09751539
61	0xbd327108	-0.043564826
62	0xbdb5bb24	-0.08873585
63	0xbddfa429	-0.10919983
64	0xbce9a2a0	-0.028519928
65	0x3d95309a	0.07284661
66	0xbe1a26d5	-0.15053876
67	0xbe06a647	-0.13149367
68	0xbe2597af	-0.16171144
69	0x3da2e8b8	0.07954544
70	0x3d12a401	0.035800938
71	0x3cc0cdbc	0.023535602
72	0x3d0fa1c5	0.035066385
73	0xbc728627	-0.014802492
74	0x3cb570f1	0.022148581
75	0xbd3b9ab4	-0.045801833
76	0xbbec5888	-0.007212702
77	0xbda0504b	-0.07827815
78	0xbd22b75c	-0.039725646
79	0xbba1e27f	-0.0049403305
80	0xbd7c9816	-0.061668478
81	0xbd36d0ee	-0.044632845
82	0xbce793a4	-0.028268643
83	0x3d93e6c7	0.07221752
84	0x3d177056	0.036972366
85	0xbd460149	-0.04834107
86	0xbbc74976	-0.0060817553
87	0xbdfab49d	-0.122414805
88	0xbc063dc1	-0.008193434
89	0xbe0a4fbe	-0.13506982
90	0xbdc3df5e	-0.09564088
91	0x3ce5797e	0.028012034
92	0xbdef56e8	-0.11686498
93	0xbdb516c1	-0.088422306
94	0xbc145584	-0.009053592
95	0xbda7c431	-0.081917174
96	0xbd44131b	-0.047869783
97	0x3d9005c9	0.070323534
98	0xbcd156d6	-0.025554102
99	0x3def0f1e	0.11672805
100	0xbc017c8e	-0.007903231
101	0xbd0d9e2e	-0.03457468
102	0x3d67ac5c	0.05656086
103	0xbdc4dd8f	-0.096125714
104	0xbdd6d01c	-0.104889125
105	0x3d9c3da5	0.07628945
106	0xbd3a0e99	-0.045424078
107	0x3d64e3ef	0.055881437
108	0xbdd9bcf9	-0.10631747
109	0x3d80779a	0.06272812
110	0xbc8d5e30	-0.017256826
111	0x3da260ea	0.07928641
112	0xbdd4d29b	-0.10391732
113	0x3c9ad516	0.018900435
114	0x3d41ac8d	0.047283698
115	0x3dd3176d	0.103072025
116	0x3cc006f4	0.023440816
117	0x3d5eff59	0.054442737
118	0x3d5065df	0.0508784
119	0x3aa164db	0.0012313382
120	0xbe09e603	-0.13466649
121	0x3a9a115e	0.0011754443
122	0xbe32f8eb	-0.17477767
123	0x3deb408a	0.11486919
124	0x3de308a7	0.11085635
125	0x3de71284	0.112828285
126	0x3cbeb253	0.023278391
127	0x3d9f3159	0.07773084
128	0xbd8075c5	-0.06272463
129	0x3d8e2db5	0.06942312
130	0x3d08996d	0.033349443
131	0xbb7835a7	-0.0037873776
132	0x3dc2d46d	0.09513173
133	0x3d3a05b9	0.045415614
134	0x3e0c6567	0.13710557
135	0x3cf80570	0.03027603
136	0x3dadc64a	0.08485086
137	0x3df21419	0.118202396
138	0x3d11dd69	0.035611544
139	0x3b99115a	0.004671258
140	0xbc1f4e46	-0.009723252
141	0xbca808ff	-0.020512102
142	0xbc8fa6a4	-0.017535515
143	0x3dc52bd4	0.096275
144	0xbc56f230	-0.013119265
145	0x3b193ac0	0.0023380965
146	0xbdee1f60	-0.11627078
147	0x3d9601ba	0.07324548
148	0x3bbf86f9	0.0058449474
149	0x3d454662	0.048162825
150	0x3b580ddd	0.0032967248
151	0x3da78a53	0.0818068
152	0x3de78cbd	0.113061406
153	0xbbb1420e	-0.0054094857
154	0x3da4f5a4	0.08054665
155	0x3d14cb4f	0.036326703
156	0x3d5551a9	0.05207983
157	0xbd58c88e	-0.05292564
158	0xbdbca9f3	-0.09212103
159	0xbdd8123a	-0.105503514
160	0xbd4be730	-0.049781024
161	0x3af44ea3	0.0018639158
162	0x3db5e5a0	0.08881688
163	0x3e16adbb	0.1471471
164	0x3e08bf8b	0.13354318
165	0x3dc9408f	0.09826767
166	0x3de190c8	0.11013943
167	0x3d22a6b8	0.039709777
168	0x3dc8f0e7	0.098115735
169	0x3e103b11	0.14085032
170	0x3d79cb9c	0.060985193
171	0xbc75468f	-0.014970436
172	0xbdf20277	-0.118168764
173	0x3cb8a8da	0.022541452
174	0x3de231ee	0.110446796
175	0x3df0eee4	0.11764315
176	0x3d89130c	0.06693086
177	0xbd8cdf07	-0.068784766
178	0xbccf9f02	-0.025344376
179	0xbd99855e	-0.07496141
180	0xbb36c427	-0.0027887912
181	0x3e0ebe6f	0.13939832
182	0x3d4dff64	0.050292388
183	0xbcd2ad4f	-0.025717406
184	0x3cfd0e1c	0.030890517
185	0x3dc0d69b	0.09415933
186	0x3d051929	0.032494698
187	0x3dedc80a	0.1161042
188	0x3dcfe766	0.101515576
189	0xbd2bc2fe	-0.041934006
190	0x3cb0f873	0.021602845
191	0x3d99c33b	0.075079404
192	0x3bd5a952	0.0065204287
193	0x3dcb703d	0.09933517
194	0x3d9b5061	0.075836904
195	0xbd8ffefb	-0.070310555
196	0x3c632b8c	0.013865363
197	0xbd804c3d	-0.06264541
198	0xbdde390d	-0.10850725
199	0xbdf197ff	-0.11796569
200	0xbd155c5c	-0.036465034
201	0x3cc7355c	0.024317436
202	0xbd0b655d	-0.034032214
203	0xbcb16e89	-0.021659153
204	0x3dd63ffb	0.10461422
205	0x3de7dba4	0.1132119
206	0xbb6cc27f	-0.003612667
207	0xbd452e14	-0.048139647
208	0x3da1bf61	0.07897831
209	0xbd1e60f1	-0.03866667
210	0x3da49338	0.08035892
211	0x3d3e5971	0.046472017
212	0x3cf435d6	0.029810827
213	0x3d5b0972	0.053475805
214	0x3dc5cc71	0.09658135
215	0x3d4dde9e	0.050261132
216	0x3e198a0a	0.14994064
217	0x3dad76e8	0.08469945
218	0x3e126501	0.14296342
219	0xbdaac2e2	-0.08337952
220	0x3d7c1de3	0.06155194
221	0x3d21f3c5	0.039539117
222	0xbce28121	-0.027649464
223	0x3db826e5	0.089917935
224	0x3d8b5c8c	0.06804761
225	0xb9b5c0dc	-0.00034666702
226	0xbd1ece15	-0.038770754
227	0x3d71b22a	0.0590078
228	0xbcca5ed5	-0.024703423
229	0xbdac9e92	-0.084286824
230	0xbde17005	-0.11007694
231	0xbd7beada	-0.06150327
232	0xbab7bed0	-0.0014018659
233	0x3d548263	0.05188216
234	0x3deeaafd	0.11653707
235	0xbacc83d3	-0.0015603252
236	0x3e0c7a97	0.1371864
237	0xbde72b2b	-0.112875305
238	0xbe1a59df	-0.15073346
239	0xbe134181	-0.14380457
240	0x3b7e6f00	0.0038823485
241	0xbdae8330	-0.08521116
242	0x3ce30b7c	0.027715437
243	0xbc689685	-0.014196043
244	0x3d250459	0.04028735
245	0xbd226901	-0.03965092
246	0x3e204a3c	0.15653318
247	0x3dc91f18	0.09820384
248	0x3e2aa89b	0.1666588
249	0xbd9bf72d	-0.076155044
250	0x3c86982b	0.016429981
251	0x3dbb6ce5	0.09151629
252	0x3cf9cd75	0.030493477
253	0xbd1cbc1a	-0.038265325
254	0xbd14a003	-0.03628541
255	0xbda1ace6	-0.07894306

model_cnn.conv2.bias f4 [64]
0	0xbdb2b5ed	-0.08726106
1	0x3e0b108a	0.13580528
2	0x3e07ff67	0.13281022
3	0xbda1a6f8	-0.07893175
4	0x3d797532	0.06090278
5	0x3d6f627e	0.05844354
6	0xbbf419dc	-0.0074493717
7	0xbdc38117	-0.09546106
8	0x3dbd056d	0.092295505
9	0xbb12e8f7	-0.002241669
10	0xbdbe18e6	-0.09282093
11	0xbdc681d9	-0.09692735
12	0x3da1d8f7	0.07902711
13	0x3bf16abe	0.007367461
14	0x3da6bbf6	0.081413195
15	0xbd052dcd	-0.032514382
16	0x3e1117bd	0.14169212
17	0xbd35f533	-0.044423293
18	0xbc827848	-0.015926495
19	0x3d85b237	0.065281324
20	0xbd084c47	-0.03327587
21	0x3d915ca1	0.07097746
22	0xbdfd0ee1	-0.123563536
23	0x3cc4d8cc	0.024029158
24	0x3e34ce41	0.17656805
25	0xbd8cbad0	-0.06871569
26	0x3db6dec1	0.08929206
27	0x3c4bb4dc	0.012433257
28	0xbdd22037	-0.10260051
29	0xbe02c4ea	-0.12770429
30	0xbd5d4331	-0.054019157
31	0xbd41257d	-0.047154892
32	0x3c9cff8c	0.019164823
33	0xbd4c1f33	-0.04983444
34	0xbde681a6	-0.11255197
35	0x3c9083a6	0.0176409
36	0x3dd4244c	0.103584856
37	0xbe0956a6	-0.1341196
38	0x3d39b0f9	0.04533479
39	0xbc36387c	-0.011121865
40	0x3d5001cb	0.05078296
41	0xbdafda8a	-0.08586605
42	0xbe0cc369	-0.13746418
43	0xbdb9f7e3	-0.09080484
44	0xbccfc11e	-0.02536064
45	0xbc0768e4	-0.008264754
46	0xbc12b291	-0.008953706
47	0x3dfeb69e	0.12437175
48	0x3cc01654	0.023448147
49	0xbdaa9de0	-0.083308935
50	0x3d22e1f1	0.039766256
51	0x3d4fe8fa	0.050759293
52	0xbdaff9c8	-0.08592564
53	0x3d0f1375	0.034930665
54	0xbc59cd65	-0.013293599
55	0x3e118675	0.14211448
56	0xbd6c97c7	-0.057761934
57	0x3e01bc8b	0.1266958
58	0xbc3288da	-0.010896886
59	0x3da979bc	0.08275172
60	0xbdb8999b	-0.09013673
61	0x3d59cda2	0.053174622
62	0x3c8f3985	0.017483482
63	0xbdeb5b43	-0.11492016

model_cnn.fc1.weight f4 [256, 64]
0	0x3d9532eb	0.072851025
1	0x3db6d943	0.08928158
2	0xbd57c4f0	-0.05267805
3	0xbc2b470a	-0.010453949
4	0xbd015365	-0.03157367
5	0x3c908b1c	0.017644458
6	0xbdda1f19	-0.10650463
7	0x3c0050c6	0.007831758
8	0xbd1c8870	-0.038216054
9	0x3d773c8c	0.060360476
10	0x3deb7f8e	0.114989385
11	0x3e002a55	0.12516148
12	0x3cba2354	0.022721924
13	0x3de0cf60	0.10977054
14	0x3dc86eb2	0.097867385
15	0x3ddc01d5	0.10742537
16	0xbc95fd57	-0.018309278
17	0x3daba459	0.08380956
18	0x3d57a63d	0.05264877
19	0xbce6b461	-0.028162183
20	0x3d6bbfbd	0.057555903
21	0x3d38b10b	0.045090716
22	0x3d889ff3	0.06671133
23	0x3dfdcac0	0.12392187
24	0xbc1e16c9	-0.009648987
25	0xbdf72944	-0.12068418
26	0x3df858d3	0.12126317
27	0xbd1010de	-0.035172336
28	0xbdb98e87	-0.09060388
29	0xbdb76c97	-0.08956259
30	0x3d99a078	0.0750131
31	0xbb349e51	-0.0027560184
32	0xbd9ed6fa	-0.07755847
33	0x3d952273	0.07281961
34	0xbdc02490	-0.09381974
35	0xbd845a04	-0.064624816
36	0x3bc64982	0.0060512433
37	0xbc815b41	-0.015790584
38	0xbc6e5ba7	-0.014548219
39	0xbdc20959	-0.09474439
40	0x3e25094a	0.16116825
41	0xbc8d5411	-0.017252
42	0xbdcd7a32	-0.100330725
43	0x3dcda420	0.1004107
44	0xbb885ded	-0.0041615875
45	0xbdd9da3e	-0.106373295
46	0x3d58d893	0.052940916
47	0x3d0f569e	0.034994714
48	0x3df4060b	0.11915215
49	0x3d1671ea	0.03672973
50	0x3ddc2be3	0.10750558
51	0x3d81ec15	0.06343857
52	0xbd5a248d	-0.053257514
53	0x3da06b6b	0.07832988
54	0xbe038dd8	-0.12847078
55	0x3d012cc4	0.031536832
56	0x3d9c8f61	0.07644535
57	0x3db1842d	0.08667789
58	0x3d579554	0.052632645
59	0x3da3f5fe	0.08005904
60	0x3dc8213e	0.097719654
61	0xbdaafe7e	-0.08349322
62	0x3de483a7	0.11157923
63	0xbd1dc73d	-0.038520087
64	0xbe23d193	-0.15997915
65	0x3d9e003f	0.07714891
66	0x3d8f6b93	0.0700294
67	0x3c50fac5	0.012755101
68	0xbc853e4e	-0.01626506
69	0x3e39b515	0.18135484
70	0x3e0e236b	0.13880698
71	0xbdb73c58	-0.089470565
72	0xbdc3fbc0	-0.09569502
73	0x3ba14ccf	0.0049224864
74	0xbbbcaf52	-0.0057582045
75	0xbc297e46	-0.010345047
76	0xbbeb273d	-0.0071763084
77	0x3d7f7914	0.06237133
78	0x3db10a79	0.086445756
79	0x3cf2ad8b	0.029623767
80	0xbccda31e	-0.025102194
81	0x3d8b0e36	0.0678982
82	0x3d88b2c6	0.06674723
83	0x3e18c8db	0.1492037
84	0x3b81ddbb	0.0039632
85	0xbd6024f2	-0.054722734
86	0xbe1d241d	-0.15345807
87	0x3d094759	0.033515308
88	0x3da41567	0.08011895
89	0xbe197075	-0.14984305
90	0x3dc64e2f	0.09682881
91	0x3daeb0d8	0.08529824
92	0x3dd8b480	0.10581303
93	0xbe14dc65	-0.14537199
94	0x3c92b76a	0.017909724
95	0xbe105622	-0.14095357
96	0xbd6b2221	-0.057405595
97	0x3dead7cf	0.114669435
98	0xbdd802ce	-0.1054741
99	0x3d53dda7	0.051725056
100	0x3d64d143	0.05586363
101	0xbde81513	-0.113321446
102	0x39aa9d94	0.00032542332
103	0x3c846e4c	0.016165875
104	0xbb0cf06c	-0.0021505607
105	0x3e2148a7	0.15750371
106	0xbc75e9df	-0.0150093725
107	0xbe250a02	-0.16117099
108	0x3d9ee583	0.0775862
109	0x3d862deb	0.06551727
110	0xbde9f07b	-0.11422821
111	0x3dd6ea99	0.10493965
112	0x3e05ee2d	0.13079138
113	0xbdf24b0f	-0.118307225
114	0x3c219fc4	0.009864751
115	0xbdc1b124	-0.09457615
116	0xbd398345	-0.045291204
117	0x3db0440c	0.08606729
118	0x3d64727f	0.055773254
119	0x3e1fdebd	0.15612312
120	0xbdd18cab	-0.102319084
121	0x3dbf7cf7	0.09350007
122	0x3d85416b	0.06506618
123	0x3c9020c1	0.017593743
124	0xbc599dd8	-0.013282262
125	0x3c248b07	0.010042912
126	0x3da496a2	0.080365434
127	0x3d73d49b	0.05952893
128	0xbe073604	-0.13204199
129	0xbc4780ca	-0.012176702
130	0xbd1b547d	-0.03792237
131	0x3de6ff07	0.11279111
132	0xbcb6795e	-0.02227467
133	0x3c9d856d	0.019228661
134	0xbc349bbd	-0.011023459
135	0xbdb03192	-0.08603205
136	0xbd048bb8	-0.03235981
137	0x3e1441c2	0.1447821
138	0x3b9d15ba	0.00479385
139	0x3d8efc92	0.06981768
140	0x3b190821	0.0023350792
141	0x3ccf3987	0.025295986
142	0xbdab536d	-0.083655216
143	0x3dbc925c	0.09207603
144	0x3dd9384d	0.10606442
145	0xbddd6cb1	-0.10811747
146	0xbd0131ad	-0.031541515
147	0xbe0afb9e	-0.13572547
148	0xbde4f003	-0.11178591
149	0x3db0fc36	0.086418554
150	0xbcd4900f	-0.025947599
151	0x3dbc4d7f	0.09194469
152	0x3d9f245b	0.07770606
153	0x3db02474	0.08600703
154	0x3dd3fb14	0.10350624
155	0x3e00da07	0.12583171
156	0xbca42f5a	-0.02004211
157	0x3de6b4ce	0.112649545
158	0x3c0c0b32	0.008547591
159	0x3d520b92	0.051280566
160	0x3a233d9c	0.0006227137
161	0xbc03612d	-0.008018774
162	0xbdf28e41	-0.11843539
163	0xbdf51016	-0.11965959
164	0xbdd4c163	-0.10388448
165	0x3d92f466	0.071755216
166	0xbc874b4d	-0.016515398
167	0x3d5f69e1	0.054544333
168	0x3e0fca41	0.14041997
169	0x3d62e1d4	0.055391148
170	0xbce6d6c4	-0.02817858
171	0xbbb1ee1c	-0.005429996
172	0xbc8d35ca	-0.017237563
173	0x3e1ed96a	0.15512624
174	0x3c951b44	0.018201478
175	0xbdcd0e3c	-0.100124806
176	0x3cc12301	0.023576261
177	0x3cc57578	0.024103865
178	0xbd046633	-0.032324027
179	0x3dab6d67	0.08370476
180	0x3d2b12fa	0.041766144
181	0x3db595c5	0.08866457
182	0x3d30b465	0.043140788
183	0x3de1f107	0.110323004
184	0xbce07a61	-0.027402105
185	0x3dfb72d0	0.12277758
186	0x3d951ef9	0.07281298
187	0xbd83a790	-0.064284444
188	0x3cabf14c	0.020989083
189	0xbdc70221	-0.09717203
190	0xbce1a7c9	-0.027545827
191	0x3d530e13	0.051527094
192	0xbe256813	-0.16152982
193	0xbdec324a	-0.115330294
194	0x3dda2895	0.10652272
195	0xbd5e8694	-0.054327562
196	0xbd097cb3	-0.033566188
197	0x3d3d4d26	0.046216153
198	0xbdfce436	-0.12348215
199	0x3e26b26a	0.16278997
200	0x3e119ad7	0.14219223
201	0xbd46f4c3	-0.048573267
202	0xbd6c74c2	-0.057728536
203	0xbd5af7e4	-0.053459063
204	0x3dae35fb	0.0850639
205	0xbddc9d53	-0.10772195
206	0xbc8ce1fa	-0.017197598
207	0x3c9a87c7	0.018863572
208	0x3e191c53	0.14952211
209	0xbddebb16	-0.108755276
210	0xbdba107e	-0.09085177
211	0xbe22fff6	-0.15917954
212	0x3d9d649f	0.076852076
213	0xbd9ae617	-0.075634174
214	0xbd5485ff	-0.0518856
215	0x3de2b09c	0.11068842
216	0xbc42007e	-0.011840938
217	0x3d823613	0.0635797
218	0xbd93de0d	-0.07220087
219	0xbd5bb7a7	-0.05364194
220	0x3e07332a	0.13203111
221	0xbd13d808	-0.036094695
222	0x3df1bcf1	0.11803616
223	0x3d39c2f2	0.04535193
224	0x3bdbc1dd	0.00670646
225	0xbda824fa	-0.08210178
226	0x3e06a6b8	0.13149536
227	0x3a6f4753	0.00091277546
228	0xbdb7a20a	-0.089664534
229	0x3c52afdb	0.01285931
230	0xbde79637	-0.11307948
231	0xbc11ab0e	-0.00889088
232	0xbd41dbac	-0.047328636
233	0xbd9db9a5	-0.077014245
234	0xbde4b09e	-0.111664996
235	0x3e0d0afb	0.1377372
236	0x3d970189	0.0737334
237	0x3c046a7e	0.00808203
238	0x3d8d71a3	0.0690644
239	0x3df559fe	0.11980055
240	0xbdd8965a	-0.10575552
241	0xbc44bb2b	-0.012007515
242	0xbe09ee2c	-0.13469762
243	0x3d454dd9	0.048169944
244	0x3d1fc47e	0.03900575
245	0xbcad3016	-0.021141093
246	0x3c6b56f6	0.014363995
247	0x3c044cff	0.008074998
248	0xbd295c15	-0.041347582
249	0x3e10506f	0.14093183
250	0xbcb98664	-0.02264709
251	0x3e2ecb09	0.1706964
252	0x3dd6fd80	0.1049757
253	0xbdf2d2f4	-0.11856642
254	0x3de29cb8	0.11065048
255	0xbc16a3ef	-0.009194358

model_cnn.fc1.bias f4 [256]
0	0x3e00f0d0	0.12591863
1	0xbd5a8087	-0.05334523
2	0xbde0bd42	-0.10973598
3	0x3cda2705	0.026629934
4	0x3e04b43a	0.12959376
5	0x3e0fb0a1	0.14032222
6	0xbd812c91	-0.063073285
7	0xbddcb646	-0.107769534
8	0x3d11d491	0.03560311
9	0xbd086fa2	-0.033309586
10	0xbdc77f64	-0.09741095
11	0xbd93828d	-0.07202635
12	0x3e0e935c	0.139234
13	0x3cf72721	0.030170025
14	0x3e0438b6	0.12912259
15	0xbd13009e	-0.03588926
16	0x3d7df725	0.062003274
17	0xbdd07f8b	-0.10180577
18	0x3dc328bc	0.09529254
19	0x3d2efc24	0.04272093
20	0x3d44fa25	0.04809012
21	0xbd60db1b	-0.054896455
22	0xbc840ad5	-0.016118446
23	0xbb8a96f4	-0.004229421
24	0xbc581753	-0.013189155
25	0x3d12a415	0.035801012
26	0xbc1e90e9	-0.009678104
27	0x3db9d80f	0.09074413
28	0x3e0985ad	0.134299
29	0xbde4f508	-0.111795485
30	0xbd1d7907	-0.0384455
31	0xbd6947a7	-0.0569531
32	0xbd7e5186	-0.062089466
33	0xbc214f9d	-0.009845641
34	0x3d9d0043	0.076660655
35	0x3d81146a	0.06302722
36	0x3db61aeb	0.08891853
37	0x3e00a605	0.12563331
38	0xbdd31306	-0.10306363
39	0x3dc49559	0.09598798
40	0x3e04c44d	0.12965508
41	0x3d99560c	0.07487115
42	0x3d60cd54	0.054883316
43	0x3da229c9	0.07918126
44	0x3d81e67b	0.06342789
45	0xbdc494cb	-0.095986925
46	0xbb0e373d	-0.0021700405
47	0x3db47fc0	0.08813429
48	0xbddc7bea	-0.10765822
49	0x3d02e4ed	0.031956602
50	0xbdb262b4	-0.087102324
51	0x3d24142d	0.040058304
52	0xbd954a4b	-0.07289561
53	0xbca6ffbc	-0.020385616
54	0x3b02f4ac	0.0019982262
55	0x3e0d4a26	0.13797817
56	0x3d38ceae	0.04511898
57	0xba71df4b	-0.00092266937
58	0xbd7105c9	-0.058843408
59	0xbc333960	-0.010938972
60	0x3c7252bf	0.014790236
61	0xbc3e4b87	-0.011614687
62	0xbcf09f82	-0.029372934
63	0xbe00d737	-0.12582098
64	0xbd0b854c	-0.03406267
65	0xbd16a470	-0.036777914
66	0x3ce9ee77	0.028556092
67	0x3d7ce141	0.061738256
68	0xbdd948be	-0.106095776
69	0x3dc87111	0.09787191
70	0xbcddcfdf	-0.02707666
71	0xbe0c3189	-0.13690771
72	0xbaf38ec4	-0.0018581976
73	0x3da03b51	0.07823814
74	0xbcac8db0	-0.021063656
75	0x3e103150	0.14081311
76	0x3b3ff8eb	0.0029292654
77	0xbbf54e29	-0.007486124
78	0xbd79e6f7	-0.06101128
79	0x3d26fba0	0.040767312
80	0x3e198676	0.14992699
81	0x3d6740a1	0.05645812
82	0x3d08fece	0.033446126
83	0xbdb48ed9	-0.088163085
84	0x3d8fb2e0	0.070165396
85	0x3d90ae47	0.07064491
86	0x3d488912	0.048958845
87	0x3d8ee86b	0.06977924
88	0xbdd12cd6	-0.1021363
89	0x3e1808f8	0.14847171
90	0x3d996487	0.07489877
91	0xbcb88e11	-0.02252868
92	0x3bb06395	0.005382965
93	0x3dd632a6	0.10458879
94	0x3db1da7a	0.08684249
95	0x3d47a1a5	0.04873814
96	0xbd8556a6	-0.065106675
97	0x3defb292	0.117039815
98	0xbc05e588	-0.0081724
99	0x3cb2f0ce	0.02184334
100	0xbdef31e0	-0.11679435
101	0x3b3167da	0.0027069957
102	0xbd5e5f5e	-0.054290168
103	0x3d89b7bd	0.067244984
104	0x3ddee975	0.10884372
105	0x3de53a1f	0.11192726
106	0x3dd87d7d	0.1057081
107	0x3dda379d	0.10655139
108	0x3d6db97f	0.05803823
109	0xbd7ca61e	-0.06168186
110	0xba9a97a9	-0.0011794466
111	0x3da6276d	0.081129886
112	0xbdd43091	-0.10360826
113	0x3dd180a8	0.10229617
114	0x3d8a1cec	0.06743798
115	0xbde40b63	-0.11134984
116	0xbc6dca28	-0.01451353
117	0x3da69807	0.08134466
118	0xbc8ad4ff	-0.016947268
119	0xbd3d5280	-0.046221256
120	0x3dea40d1	0.11438144
121	0xbdc224ca	-0.09479673
122	0x3d0fe681	0.035131935
123	0xbd40171b	-0.046897035
124	0xba6b0d37	-0.0008966508
125	0x3db29102	0.08719064
126	0x3d8dbdb4	0.069209486
127	0xbdac53c1	-0.08414412
128	0xbd4ab82c	-0.049492046
129	0xbcc31516	-0.023813765
130	0xbc532646	-0.012887543
131	0x3dd7d532	0.10538711
132	0xbd6c21e4	-0.057649508
133	0xbd7f55f9	-0.06233785
134	0xbdc0945f	-0.094032995
135	0x3dffb0f9	0.12484927
136	0xbdd5e7b3	-0.10444584
137	0x3de42fdd	0.11141942
138	0x3c7a3f78	0.015273921
139	0x3d8aae72	0.06771554
140	0xbdb4c8b9	-0.08827347
141	0x3dea9ff6	0.114562914
142	0xbd3ce5a2	-0.046117432
143	0xbdb13f74	-0.08654681
144	0xbb237e54	-0.0024947124
145	0x3de41bc8	0.11138111
146	0xbd2f7aa6	-0.042841576
147	0x3dd11622	0.102092996
148	0x3e13e5a8	0.14443076
149	0x3e0f3b6f	0.13987516
150	0xbd23982e	-0.03994005
151	0xbd884850	-0.066544175
152	0x3cfeee58	0.03111951
153	0xbd9b54d0	-0.07584536
154	0x3c815029	0.015785294
155	0xbd51f0c6	-0.05125501
156	0x3c854cdb	0.016272
157	0xbd33296a	-0.043740667
158	0x3d860fdb	0.06545993
159	0xbcb90716	-0.022586387
160	0xbd749bd6	-0.05971893
161	0x3e189ed2	0.14904335
162	0xbd40b98c	-0.04705195
163	0x3e14c450	0.14528012
164	0x3e10c71f	0.14138459
165	0xbe19284a	-0.14956775
166	0xbda9f929	-0.08299477
167	0x3cc11238	0.023568258
168	0x3d49c783	0.049262535
169	0x3e11b91d	0.14230771
170	0xbd537c4c	-0.05163221
171	0xbd7a1458	-0.061054558
172	0xbd6461a3	-0.055757176
173	0x3cc80373	0.024415707
174	0xbd9e9e37	-0.07745021
175	0x3b7d33d1	0.0038635621
176	0x3e2c4e5c	0.16826767
177	0x3c099f87	0.008399851
178	0x3c6ae1fb	0.0143361045
179	0xbcf43f96	-0.029815476
180	0x3db2bf89	0.08727939
181	0xbd3719a4	-0.044702187
182	0xbdd85198	-0.10562438
183	0x3c1fe1ac	0.009758394
184	0x3d50c5b6	0.0509698
185	0x3dac4819	0.08412189
186	0x3e14f28f	0.14545654
187	0x3ca15d14	0.019697703
188	0xbccdea27	-0.025136067
189	0x3d9c6cf4	0.07637969
190	0xbdaea0db	-0.085267745
191	0xbd937311	-0.071996816
192	0xbdab52ba	-0.08365388
193	0x3df861be	0.12128018
194	0x3df63425	0.120216645
195	0xbd8d9049	-0.06912286
196	0x3bb7fe70	0.005615048
197	0xbdbbe741	-0.091749676
198	0x3d042d0e	0.03226953
199	0x3dd0ae43	0.10189488
200	0xbdf1df69	-0.1181019
201	0x3e2597cc	0.16171187
202	0xbd979efb	-0.0740337
203	0x3dde7a7e	0.10863207
204	0xbdca8657	-0.098889045
205	0x3df7153d	0.12064598
206	0xbcc6054c	-0.024172448
207	0xbd9fbda8	-0.07799846
208	0x3da56660	0.08076167
209	0x3d7574d0	0.059925854
210	0xbdb802bc	-0.089848965
211	0xbd9685bb	-0.07349726
212	0x3b18997f	0.002328485
213	0x3dd0b7fd	0.10191343
214	0x3d88f3e1	0.06687141
215	0x3bd50113	0.006500372
216	0x3e0ee176	0.13953194
217	0x3b8e28dd	0.0043383674
218	0x3e1183b2	0.14210394
219	0x3dbb3bc5	0.091422595
220	0xbc89147e	-0.016733404
221	0xbdc5e4bf	-0.096627705
222	0x3cd3b22d	0.025841797
223	0xbce9dfd1	-0.028549107
224	0xbd157106	-0.03648474
225	0x3dcc627a	0.099797204
226	0x3dd0563b	0.10172697
227	0x3bb35bb3	0.005473578
228	0xbdc24f93	-0.09487834
229	0x3e169e0d	0.14708729
230	0x3d5b5c98	0.0535551
231	0xba31ee17	-0.00067874923
232	0xbdb5a497	-0.08869284
233	0x3cfa0d83	0.030524021
234	0xbd814e74	-0.06313792
235	0x3df74797	0.120742016
236	0xbcf458e1	-0.029827537
237	0x3daaa109	0.08331496
238	0xbd724fd9	-0.05915818
239	0x3ddf2c76	0.10897152
240	0x3c35650a	0.011071453
241	0xbd5affb3	-0.05346651
242	0x3d8d7321	0.06906725
243	0x3dd88d90	0.10573876
244	0xbddc4548	-0.10755402
245	0xbc2d279b	-0.010568525
246	0x3d86b27e	0.065770134
247	0x3dfddba3	0.12395408
248	0xbc7778d6	-0.015104493
249	0xbd2c6f94	-0.042098597
250	0x3de72249	0.11285836
251	0xbd736bbb	-0.05942891
252	0xbd26cd0b	-0.040722888
253	0x3d984089	0.07434184
254	0x3d2c95fd	0.042135227
255	0x3db4517e	0.08804606

model_cnn.classifier.weight f4 [5, 256]
0	0xbc7cd3bd	-0.015431342
1	0x3d1fe1b9	0.039033625
2	0xbc96a106	-0.018387329
3	0x3d1678ef	0.036736425
4	0xbc2353bd	-0.009968695
5	0x3ccbd81c	0.024883322
6	0xbd8a57bb	-0.067550145
7	0xbd023d43	-0.031796705
8	0x3d1f506a	0.03889505
9	0x3c798fd9	0.01523205
10	0xbc60ffa6	-0.013732826
11	0xbc3b05da	-0.011414969
12	0x3d5741b9	0.052552912
13	0x3d26839d	0.04065286
14	0xbccc5ddb	-0.024947098
15	0xbd564c57	-0.052318897
16	0x3d641af9	0.055689786
17	0xbc55b6d6	-0.01304408
18	0xbd3cf86a	-0.046135344
19	0xbc94b018	-0.018150374
20	0x3d620faa	0.05519072
21	0xbc8a99ef	-0.016919104
22	0xbd05114d	-0.032487202
23	0xbcb69d30	-0.02229175
24	0x3ad8bb76	0.001653536
25	0x3d0d57b0	0.034507453
26	0xbd5e3c63	-0.054256808
27	0x3cb1497c	0.021641485
28	0xbca22dee	-0.019797292
29	0x3c8fcab6	0.017552715
30	0xbd42205f	-0.047394153
31	0x3ce3a798	0.027789876
32	0xbc03ba9c	-0.008040097
33	0x3d34b490	0.04411751
34	0x3cb03d5f	0.021513639
35	0x3c81011b	0.015747597
36	0x3c997f8a	0.018737573
37	0x3d426eee	0.047469072
38	0x3c1f0f03	0.009708169
39	0x3d7a702c	0.06114213
40	0xbd55044e	-0.05200606
41	0x3d39a690	0.045324862
42	0x3d1921ad	0.03738563
43	0xbc7185e2	-0.014741393
44	0x3c97b27b	0.018517723
45	0xbd03335f	-0.032031413
46	0xbd2a9dbb	-0.04165433
47	0xbd12d353	-0.035846066
48	0xbb82a220	-0.003986612
49	0x3c9e8fcd	0.019355679
50	0x3d59c494	0.053165987
51	0xbd09399d	-0.03350221
52	0xbd77a31e	-0.060458295
53	0x3ba8d425	0.0051522427
54	0x3d3f5be7	0.046718504
55	0x3cdafc84	0.026731737
56	0xbd0340e5	-0.03204431
57	0xbc6b3351	-0.0143554965
58	0xbcc6c9cb	-0.024266144
59	0xbd3fbc92	-0.046810694
60	0xbc2e0a5b	-0.010622586
61	0x3d57424a	0.052553453
62	0xbd388fb7	-0.045058932
63	0xbc61bee9	-0.013778427
64	0x3be36670	0.0069397017
65	0x3d48a8c4	0.048989072
66	0xbcdb3898	-0.026760384
67	0x3cb7887b	0.022403946
68	0xbc82efae	-0.015983429
69	0x3d1158ab	0.03548495
70	0xbd5e6763	-0.054297816
71	0x3cfb979a	0.030711938
72	0xbd844114	-0.06457725
73	0xbd36408f	-0.04449516
74	0x3d14ab91	0.03629643
75	0x3b5f4c74	0.003407267
76	0xbd41c31d	-0.047305215
77	0xbb4a707c	-0.00308898
78	0xbd388b6f	-0.04505485
79	0x3be634f7	0.007025357
80	0x3cc80da1	0.024420561
81	0xbd04038f	-0.032229956
82	0x3d12e3fc	0.035861954
83	0xbbc312a5	-0.0059531503
84	0x3d8160d0	0.06317294
85	0x3d23e0f3	0.04000945
86	0xbcbba9d5	-0.02290813
87	0xbd597912	-0.053093977
88	0xbd755fc5	-0.059905786
89	0xbcb6c277	-0.022309525
90	0xbd794e9c	-0.060865983
91	0xbd924601	-0.071422584
92	0x3cb6ac51	0.022298964
93	0x3d5b4202	0.053529747
94	0x3d74b291	0.059740607
95	0xbd670e47	-0.0564101
96	0xbd71b519	-0.0590106
97	0x3c6decf3	0.014521825
98	0xbd05bf5b	-0.032653194
99	0xbc87d31b	-0.016580155
100	0x3ca55f85	0.020187149
101	0xbcacd902	-0.021099571
102	0xbd010e38	-0.0315077
103	0x3b0ebc93	0.002177988
104	0xbc1b5d04	-0.009482626
105	0xbcd445c5	-0.025912175
106	0x3d4d85f5	0.05017658
107	0xbc1a639c	-0.009423163
108	0xbd2e182f	-0.042503532
109	0xbca2a798	-0.019855306
110	0xbbe06c37	-0.0068488377
111	0x3d2bde3f	0.041959997
112	0xbd4f3c16	-0.05059441
113	0x3c85380e	0.01626208
114	0xbd501917	-0.050805178
115	0xbd31dddf	-0.043424483
116	0xbd18915e	-0.037248008
117	0x3b244ba2	0.0025069495
118	0x3b76c26a	0.00376525
119	0x3d2e5f03	0.04257108
120	0x3d1dcaf5	0.038523633
121	0xbc766ab9	-0.015040093
122	0xbc8e722d	-0.017388428
123	0xba0f7613	-0.00054726115
124	0x3d4cc7bc	0.04999517
125	0x3d2cb4e5	0.042164702
126	0x3c9339ab	0.017971834
127	0xbaf375cb	-0.0018574534
128	0x3cd67619	0.02617936
129	0x3cc6ac68	0.024252132
130	0x3cf1cfd5	0.029518047
131	0x3d5c4402	0.053775795
132	0x3a594cf0	0.00082893576
133	0xbd784d06	-0.06062033
134	0x3cc93904	0.02456332
135	0x3d6d5680	0.05794382
136	0x3d0c08e5	0.03418817
137	0x3cfc242b	0.030778965
138	0x3b0be011	0.002134327
139	0x3d087252	0.03331215
140	0xbd4eb133	-0.05046196
141	0xbc33b692	-0.010968821
142	0x3c39ea02	0.011347296
143	0xbd110f9e	-0.035415284
144	0x3ce71382	0.028207544
145	0xbd462db9	-0.04838345
146	0xbc692573	-0.01423012
147	0xbc70f456	-0.014706692
148	0xbd84b071	-0.06478966
149	0x3d854a5d	0.06508324
150	0x3d38f518	0.045155615
151	0x3c34109a	0.010990286
152	0xbd0ae71d	-0.033911813
153	0xbcbc9ec1	-0.023024919
154	0x3c369c22	0.011145623
155	0xbd858588	-0.0651961
156	0x3d73b8a5	0.059502263
157	0xbd1ebbb6	-0.038753234
158	0xbcd47146	-0.02593292
159	0xbd8a07f6	-0.067398
160	0x3bfeec63	0.0077796443
161	0xbd694d57	-0.056958523
162	0xbd4b9050	-0.049698174
163	0x3c6c09ae	0.014406605
164	0x3b192179	0.0023365899
165	0xbc4b7c90	-0.012419835
166	0x3d70fada	0.05883298
167	0xbd1a21d2	-0.03762991
168	0x3d44f3d3	0.04808409
169	0x3d033e6c	0.032041952
170	0xbcc82b04	-0.024434574
171	0x3c775c98	0.01509776
172	0x3cbe62cb	0.023240468
173	0xbcc01ad5	-0.023450295
174	0x3d7a2e79	0.061079476
175	0xbc61d8cf	-0.013784601
176	0xb9d051bb	-0.00039733746
177	0xbd13b8b3	-0.036064815
178	0x3cd6c9a8	0.026219204
179	0x3d11a8be	0.035561316
180	0xbd20cb04	-0.03925611
181	0xbceaf3e5	-0.028680751
182	0x3c9b29f3	0.018940901
183	0xbd35393e	-0.044244044
184	0x3cbca0bf	0.023025868
185	0xbbf614fa	-0.007509825
186	0x3c32f075	0.010921587
187	0x3d7a5f0c	0.0611258
188	0x3d565ae0	0.05233276
189	0xbc945d07	-0.018110765
190	0xbcae81dc	-0.021302156
191	0xbc85cedd	-0.016333992
192	0xbbac1bca	-0.005252336
193	0xbd5ee9cf	-0.054422196
194	0x3ccf40b6	0.025299411
195	0x3d329a4d	0.043604184
196	0x3c82ec46	0.015981805
197	0xbd76588a	-0.06014303
198	0xbbe64dfa	-0.0070283385
199	0x3c6f52db	0.014607157
200	0xbbef979e	-0.0073117753
201	0x3d291277	0.041277375
202	0x3bb21512	0.0054346407
203	0xbd909e2c	-0.07061419
204	0x3cae3597	0.021265788
205	0xbccbd27b	-0.024880638
206	0xbd885e94	-0.06658664
207	0x3d415488	0.047199756
208	0xbc9d6aeb	-0.019216022
209	0xbd3a1322	-0.045428403
210	0x3d27a3d9	0.04092774
211	0x3d779577	0.060445275
212	0xbcab5469	-0.020914273
213	0x3d4a582c	0.049400494
214	0x3c8a8064	0.016906925
215	0xbd0690ee	-0.03285306
216	0x3c03d680	0.008046746
217	0xbbfeabff	-0.0077719684
218	0xbc50d94c	-0.01274712
219	0x3c2531c5	0.010082667
220	0xbc2c595a	-0.01051935
221	0xbd99d219	-0.07510776
222	0xbc8b580d	-0.01700976
223	0x3cb7b72c	0.02242621
224	0xbd5cd3fb	-0.053913098
225	0x3d5c8ca3	0.05384506
226	0xbd751d03	-0.05984212
227	0x3bad9fb7	0.0052985805
228	0xbd0ad5b1	-0.0338952
229	0x3d03c94b	0.03217439
230	0x3d45b976	0.048272572
231	0x3cded42a	0.027200777
232	0xbcdc37b7	-0.026882036
233	0xbc527547	-0.012845344
234	0x3cd91b6f	0.02650234
235	0x3b56bad3	0.0032765165
236	0x3cb61819	0.022228288
237	0xbcccaf5d	-0.024985963
238	0xbadecb8d	-0.0016997919
239	0xbc8722a9	-0.01649602
240	0xbd735591	-0.059407774
241	0xbd5a6202	-0.053316124
242	0xbbaeca8d	-0.0053342045
243	0xbd19841d	-0.03747951
244	0xbd8297c3	-0.063766025
245	0x3ca02b57	0.019551916
246	0xbcb42381	-0.021989586
247	0x3c97c2a9	0.018525438
248	0x3b0fe95b	0.002195916
249	0x3a6611a7	0.0008776434
250	0xbc3f2b97	-0.0116681075
251	0xbd236016	-0.039886557
252	0xbc34dc04	-0.011038784
253	0xbd75a9bb	-0.05997632
254	0xbd801ca0	-0.0625546
255	0x3cb997f6	0.022655468

model_cnn.classifier.bias f4 [5]
0	0x3d65995c	0.056054458
1	0xbb1bceed	-0.002377446
2	0xba86bf5c	-0.0010280418
3	0x3d3d13aa	0.04616133
4	0xbd4f134c	-0.050555512

model_cnn.domain_classifier.weight f4 [2, 256]
0	0xbd460b92	-0.048350878
1	0x3d310c61	0.043224696
2	0xbc6c123b	-0.014408643
3	0x3d1cc6cb	0.03827552
4	0xbcbbe741	-0.022937419
5	0xb83afc8b	-4.4581055e-05
6	0x3c0d57fc	0.008626934
7	0x3d366507	0.04452994
8	0x39ef4ff4	0.00045645202
9	0xbc829640	-0.015940785
10	0xbd2a2409	-0.041538272
11	0x3c9a0c43	0.018804675
12	0x3c04158c	0.008061778
13	0xbcaf4b97	-0.021398349
14	0xbb6ba86c	-0.0035958542
15	0xbd7080ea	-0.058716692
16	0x3d30e96e	0.043191366
17	0xbd019391	-0.03163487
18	0x3d65fa46	0.056146882
19	0x3d6537d7	0.055961456
20	0x3d78d441	0.060749296
21	0xbd4be77f	-0.04978132
22	0x3d36e574	0.044652417
23	0xbd090da4	-0.033460274
24	0xbd6769ad	-0.056497265
25	0xbc4f5586	-0.012654668
26	0xbd2227bc	-0.039588675
27	0xbd43b803	-0.04778291
28	0x3d3313c1	0.04372001
29	0x3d7a5c8b	0.061123412
30	0xbc9c00b6	-0.019043308
31	0xbd110045	-0.035400648
32	0x3d10cbf4	0.035350755
33	0x3ccf7f28	0.025329188
34	0xbc9cd31e	-0.019143637
35	0xbce126c6	-0.027484309
36	0xbcb02352	-0.021501217
37	0x3d49f7d2	0.049308605
38	0xbcb5ef1b	-0.022208741
39	0x3d396fb7	0.045272555
40	0xbd420347	-0.047366407
41	0xbd48d410	-0.049030364
42	0x3c92b677	0.017909272
43	0x3cddd91e	0.027081069
44	0x3c1abb4a	0.009444067
45	0x3d3ec25c	0.046572074
46	0x3c908c23	0.017644947
47	0x3d60c105	0.054871578
48	0xbd7396f1	-0.05947012
49	0xbc8aa555	-0.01692454
50	0x3d723d81	0.059140686
51	0x3cb96a2a	0.02263363
52	0xbd6509a7	-0.05591741
53	0xbcdd3f80	-0.027007818
54	0xbd32936f	-0.043597635
55	0x3b9fe2ed	0.0048793466
56	0x3a12cec9	0.00056002714
57	0xbcae9648	-0.021311894
58	0xbd7a33ad	-0.061084438
59	0x3c3e2f93	0.011608022
60	0xbc86a336	-0.016435247
61	0x3d250636	0.040289126
62	0x3d0a96b0	0.033835113
63	0x3d31e210	0.04342848
64	0xbd4f890f	-0.05066782
65	0xbd7d1c71	-0.061794702
66	0x3c6865f2	0.014184462
67	0x3cee4807	0.02908708
68	0x395b122c	0.00020892237
69	0x3cfef70b	0.031123659
70	0xbd4fa9ac	-0.05069892
71	0x3c2d3116	0.010570785
72	0x3d53b589	0.051686797
73	0x3d5f546c	0.05452387
74	0xbd5fd297	-0.054644194
75	0xbc55e18c	-0.013054263
76	0x3cacddbe	0.021101829
77	0xbd000964	-0.031258956
78	0x3c003eb7	0.007827452
79	0xbd6b18be	-0.057396643
80	0xbd5811f9	-0.052751515
81	0xbc827486	-0.015924703
82	0xbd277821	-0.04088605
83	0xbb207e69	-0.0024489409
84	0x3d48f24a	0.04905919
85	0x3d7d53ef	0.061847623
86	0xbb755257	-0.0037433112
87	0x3c8fa8e3	0.017536586
88	0x3b138755	0.0022511084
89	0x3d319a96	0.043360315
90	0x3d415e18	0.047208875
91	0x3d4caada	0.049967624
92	0x3d5f9bce	0.054591946
93	0x3c18608e	0.009300364
94	0x3cc80aed	0.024419272
95	0xbd650698	-0.05591449
96	0x3d00fe0b	0.031492274
97	0x3cc92078	0.024551615
98	0xbd43947e	-0.047749035
99	0xbd31f8cd	-0.043450166
100	0x3a8c621d	0.0010710392
101	0x39ff941a	0.00048747734
102	0x3d6d9c0e	0.058010153
103	0xbcb7a515	-0.022417584
104	0x3c922b41	0.01784289
105	0xbc81e353	-0.015855467
106	0xbc8dd8c7	-0.017315282
107	0x3b7d05c6	0.0038608178
108	0xbd7ae9f7	-0.061258283
109	0x39cc843c	0.00039008434
110	0x3c3eb88a	0.011640677
111	0xbd793af2	-0.06084723
112	0xbb958247	-0.0045626494
113	0xbd321993	-0.04348142
114	0xbbb33dc2	-0.0054700086
115	0xbce74fa6	-0.028236222
116	0x3d21bb72	0.039485402
117	0xbce39e8a	-0.027785558
118	0xbd7651fb	-0.060136776
119	0x3d03940a	0.032123603
120	0xbb3b5bfc	-0.0028588763
121	0x3d595407	0.05305865
122	0xbd6713c2	-0.056415327
123	0xbd4d6167	-0.05014172
124	0xbd6c35a2	-0.057668336
125	0x3cdddfc2	0.027084235
126	0x3d4ef514	0.050526693
127	0xbd156906	-0.03647711
128	0x3c3b670f	0.011438145
129	0xbd57f340	-0.052722216
130	0xbc4bb99f	-0.012434392
131	0x3d0a964b	0.033834737
132	0x3b447c0b	0.0029981162
133	0x3d1f9583	0.038960945
134	0x3ccc21d9	0.024918484
135	0xbbc9ba01	-0.0061562066
136	0x3a2b3f84	0.0006532597
137	0xbd670d54	-0.056409195
138	0xbd002f37	-0.031295028
139	0xbcb2ee5f	-0.02184218
140	0x3d18d442	0.0373118
141	0x3cfa75ef	0.030573813
142	0xbc842c8c	-0.016134523
143	0x3a86cd78	0.0010284623
144	0x3d476d36	0.048688136
145	0xbd3d64c8	-0.04623869
146	0x3d7331d2	0.059373684
147	0xbc336253	-0.010948735
148	0x3d5014bc	0.050801024
149	0x3cf1d8f2	0.029522393
150	0xbd62e876	-0.055397473
151	0x3cf36103	0.029709345
152	0xbc3b4022	-0.011428865
153	0x3d413320	0.047167897
154	0x3c18df3a	0.009330565
155	0xbcb9740c	-0.022638343
156	0x3ceb6af5	0.028737525
157	0x3d7c2bf3	0.06156535
158	0xbd698565	-0.05701198
159	0xbd4abfd5	-0.04949935
160	0xbcdba218	-0.02681069
161	0x3c83212c	0.016007029
162	0x3c973340	0.018457055
163	0x3d6bf738	0.057608813
164	0x3d29e41c	0.041477308
165	0x3d736791	0.05942494
166	0xbd7591b7	-0.059953418
167	0xbc94d7c2	-0.018169288
168	0xbcdfa3f0	-0.027299851
169	0x3c00efa1	0.007869632
170	0x3d4bc7b7	0.04975101
171	0x3cbc1924	0.022961207
172	0x3c9ed117	0.019386811
173	0xbca10deb	-0.019659957
174	0x3b939fb1	0.0045051207
175	0x3d5be6dd	0.053686965
176	0x3bc83f7e	0.0061110845
177	0xbc35521b	-0.011066939
178	0x3bb1533a	0.0054115327
179	0x3d1d0728	0.038336903
180	0x3ceb7823	0.02874381
181	0xbd1aa09d	-0.03775083
182	0xbbb374c5	-0.0054765665
183	0x3c9f0a20	0.019414008
184	0xbcd558e9	-0.026043372
185	0x3b80ffbd	0.0039367364
186	0xbb7144c3	-0.0036814667
187	0xbce29a25	-0.027661392
188	0xbd241a83	-0.040064346
189	0xbc593dfd	-0.013259408
190	0x3d3f4cb0	0.046703994
191	0x3d41de10	0.047330916
192	0x3c660929	0.01404027
193	0xbd33b0d8	-0.043869823
194	0xbb1f3893	-0.0024295195
195	0x3cc67e77	0.024230225
196	0x3d254b4b	0.040355008
197	0xbcd0b9f1	-0.025479289
198	0xbcb9bf8e	-0.022674348
199	0x3c02b339	0.0079773
200	0x3d0763b8	0.033054084
201	0xbc35e93d	-0.011102972
202	0xbd2c5c2d	-0.042080093
203	0x3d4c1ffa	0.049835183
204	0x3d47fa0d	0.04882245
205	0x3d54947d	0.051899422
206	0xbce3abbd	-0.027791852
207	0xb93e8895	-0.00018170693
208	0x3d667e8f	0.05627304
209	0xbad20456	-0.0016023021
210	0x3d408e38	0.04701063
211	0x3d67d0bd	0.056595553
212	0x3d044408	0.032291442
213	0xbc0aebd9	-0.008479082
214	0xbd6d2510	-0.057896674
215	0x3cebd819	0.028789567
216	0xbd7393a9	-0.05946699
217	0xbd5ef479	-0.054432366
218	0xbc767426	-0.01504234
219	0x3adb99cd	0.001675421
220	0x3cdeaab1	0.027181001
221	0x3d30c176	0.04315325
222	0x3d397470	0.04527706
223	0x3d1d7a24	0.03844656
224	0x3b5b5569	0.0033467656
225	0xbd26e307	-0.040743854
226	0xbd068660	-0.032842994
227	0x3d282c49	0.04105786
228	0x3b9e27b0	0.0048265085
229	0xbd086b3f	-0.033305403
230	0xbd4d49e0	-0.05011928
231	0xbd3b5509	-0.045735393
232	0x3d58aa98	0.052897066
233	0xbbf4d7b3	-0.0074720024
234	0xbcefbc53	-0.029264605
235	0x3d276394	0.04086645
236	0x3c80bd61	0.015715303
237	0x3ce9d5e0	0.028544366
238	0xbc5b3b9a	-0.013380909
239	0xbd0228b3	-0.031777095
240	0x3d57bd80	0.052670956
241	0xbd55d9ab	-0.052209537
242	0xbd3cbe11	-0.0460797
243	0xbcdc147b	-0.026865235
244	0xbc821a1b	-0.015881589
245	0x3d65f2b3	0.05613966
246	0xbd647230	-0.05577296
247	0x3cf13eab	0.029448828
248	0x3d680bdc	0.056651935
249	0x3bb5d872	0.005549484
250	0xbce97bb0	-0.028501362
251	0xbd2c1c9e	-0.04201948
252	0xbd420128	-0.047364384
253	0x3d220988	0.03955987
254	0x3d141a82	0.036158092
255	0xbcf0935a	-0.029367138

model_cnn.domain_classifier.bias f4 [2]
0	0x3c7ab79e	0.015302567
1	0xbd451949	-0.048119817
