checkpoint/transfer_cnn_openmax_1_to_3_1210/retry_target_focus/best_model.pth (torch, 886690 bytes, 39 tensors)

cnn.layer1.0.weight f4 [16, 1, 3]
-0.4860152 0.41332543 -0.43216258 -0.47814524 -0.3672808 0.23387517 -0.24970753 0.20108742
-0.47643194 -0.34336278 -0.20678005 -0.13248006 -0.4347132 0.36851764 -0.16612223 0.1924455
0.405313 0.099067084 0.16011702 0.5554783 -0.26269653 0.21278013 -0.2366016 0.40547913
0.4501314 -0.5273124 0.5044015 0.26867932 0.21369646 0.26152372 0.4809399 -0.07193822
-0.49361828 -0.16658647 -0.41129756 0.015186844 -0.12483286 -0.28627425 -0.06236849 0.52363557
-0.06666476 0.040424205 -0.09438693 0.11271689 0.48676643 0.34597808 0.19888027 0.1434415
00000000: fcd6 f8be 649f d33e 6a44 ddbe 74cf f4be
00000010: 3b0c bcbe f97c 6f3e 55b3 7fbe dce9 4d3e
00000020: e3ee f3be 3fcd afbe 26be 53be daa8 07be
00000030: bb92 debe 58ae bc3e f21b 2abe 6f10 453e
00000040: 2f85 cf3e afe3 ca3d b7f5 233e d333 0e3f
00000050: 2980 86be 09e3 593e b147 72be f69a cf3e
00000060: 9f77 e63e f2fd 06bf 7520 013f 5690 893e
00000070: 3fd3 5a3e 70e6 853e c13d f63e 5854 93bd
00000080: 89bb fcbe a595 2abe 9895 d2be 3ed2 783c
00000090: 5fa8 ffbd 8a92 92be 1a76 7fbd fb0c 063f
000000a0: 8987 88bd da93 253d ef4d c1bd 1dd8 e63d
000000b0: 7339 f93e 0a24 b13e 45a7 4b3e 54e2 123e

cnn.layer1.0.bias f4 [16]
0.06207814 0.13249403 -0.008585095 -0.4370633 -0.26125503 0.39373046 0.001154624 -0.36898565
0.017024947 0.37913236 -0.44574547 -0.2922094 -0.1378051 0.0013366737 -0.050653983 0.001487189
00000000: a645 7e3d 84ac 073e 80a8 0cbc c3c6 dfbe
00000010: 38c3 85be 0a97 c93e c156 973a b0eb bcbe
00000020: e777 8b3c a31d c23e c038 e4be 789c 95be
00000030: c81c 0dbe 5433 af3a 8d7a 4fbd c8ed c23a

cnn.layer1.1.weight f4 [16]
0.9915485 0.996721 1.0128247 1.027636 1.001265 0.9810534 0.9956709 0.99103373
0.9893843 1.0242946 0.99384993 0.9959705 0.99877524 1.0070276 0.99386114 0.991277
00000000: 1fd6 7d3f 1c29 7f3f 3da4 813f 9489 833f
00000010: 7429 803f 5126 7b3f 4ae4 7e3f 63b4 7d3f
00000020: 4a48 7d3f 161c 833f f36c 7e3f ecf7 7e3f
00000030: bcaf 7f3f 48e6 803f af6d 7e3f 54c4 7d3f

cnn.layer1.1.bias f4 [16]
-0.03630819 -0.027643086 0.0039426796 -0.01087518 -0.0021131148 0.007293592 -0.012063422 0.021614963
-0.009459817 -0.03868868 -0.039277002 -0.018386908 0.017347734 -0.0046009165 -0.008230342 -0.019936021
00000000: e6b7 14bd c173 e2bc 9831 813b d02d 32bc
00000010: 2f7c 0abb 16ff ee3b a9a5 45bc dd11 b13c
00000020: 59fd 1abc 0578 1ebd ece0 20bd 24a0 96bc
00000030: d61c 8e3c 49c3 96bb 8ed8 06bc de50 a3bc

cnn.layer1.1.running_mean f4 [16]
0.06208238 0.13249332 -0.008586525 -0.43706816 -0.2612558 0.39373448 0.0011518649 -0.3689892
0.017023237 0.37913486 -0.44575116 -0.29221037 -0.13780488 0.0013358772 -0.050657906 0.0014858836
00000000: 184a 7e3d 54ac 073e 7fae 0cbc 66c7 dfbe
00000010: 52c3 85be 9197 c93e 2cfa 963a 27ec bcbe
00000020: 5174 8b3c f71d c23e 7f39 e4be 999c 95be
00000030: b91c 0dbe 9a18 af3a aa7e 4fbd fbc1 c23a

cnn.layer1.1.running_var f4 [16]
0.29996353 0.55569005 0.16984786 0.1308519 0.24114615 0.19688074 0.44359782 0.14561373
0.4076841 0.110512346 0.75899065 0.20370926 0.0959282 0.24816449 0.3147219 0.12739627
00000000: d294 993e b441 0e3f 99ec 2d3e 0afe 053e
00000010: 04ef 763e 1b9b 493e 411f e33e c41b 153e
00000020: f8bb d03e 4c54 e23d 364d 423f 2999 503e
00000030: 0176 c43d d51e 7e3e 3b23 a13e 2b74 023e

cnn.layer2.0.weight f4 [32, 16, 3]
-0.13507928 0.04551873 0.14288543 0.062735304 -0.08986927 -0.12629472 0.07153667 0.0023619
0.05231457 -0.15328476 -0.011688985 0.090964675 0.061740246 -0.01701113 0.048086446 0.00022909616
-0.076852426 -0.018331265 -0.07884755 0.11309632 0.08434837 0.045583095 -0.07244923 0.119080015
0.043309487 0.12126966 -0.050125252 0.057140585 0.16748518 0.14473355 0.10713223 -0.029435858
0.086932816 -0.12515493 0.012575482 -0.08615541 -0.04204176 -0.042752456 0.011483346 0.13174084
0.08412696 -0.01116313 0.090458386 -0.04628901 0.088000685 0.002193815 0.0025876127 0.034066077
-0.11919479 0.023582129 0.034548655 0.12034088 -0.053638175 0.047614794 0.1368389 -0.027553663
0.13078164 -0.076999724 0.056176987 0.06552706 0.039751988 0.114392415 -0.07304017 0.042179618
0.0076339357 -0.118533865 -0.03817992 -0.08350466 0.05868579 0.011704128 -0.012117527 -0.048637122
0.0008055287 -0.065777555 0.043129705 0.16973947 0.03355888 -0.064152226 -0.10044145 0.01668557
-0.10442398 -0.11230758 -0.1102842 -0.040374383 0.0056639826 0.08750287 0.071566075 0.108271874
-0.08932178 0.017199062 -0.12461972 0.07200556 0.009716478 0.1437346 -0.091074206 0.11750913
0.10051236 0.104083695 0.015154222 0.13091117 0.10683157 0.09328964 -0.023776857 -0.12677638
-0.01054975 0.036459725 -0.09166743 -0.09814182 -0.15396275 -0.050935954 0.1325483 0.015941402
-0.026906649 0.011571251 0.09102453 -0.13869439 -0.11588997 -0.053155277 -0.077180944 0.05188971
0.103084154 -0.14141622 -0.14639452 -0.13508758 0.03695213 0.11811489 -0.107554846 -0.08299177
0.029477121 -0.091845594 0.12771806 0.013351894 -0.036077913 0.008536192 0.022762641 -0.045390535
-0.1201775 -0.019201705 -0.013468833 0.008560438 -0.018351201 0.109745204 -0.053577714 -0.018299695
0.043284696 -0.101512946 0.027681775 -0.010201132 0.078001104 -0.062960915 0.015093449 -0.0065719564
-0.1452367 -0.064795256 0.06744998 -0.043883454 0.06920829 -0.13411322 -0.06993577 -0.12072954
0.05081361 0.0010551004 -0.017933065 -0.035303462 -0.11681523 0.031025156 0.007996527 -0.10799184
0.04599025 0.008020376 -0.16054113 0.076490685 0.07659919 -0.013483003 -0.0905452 -0.0057697957
0.09815475 0.15132742 -0.09732886 -0.07887669 0.12955381 0.08174802 0.06945157 -0.07194659
0.1222713 -0.126204 -0.014038084 0.0054040905 0.043645244 -0.092735484 0.12891941 0.15617727
-0.095457695 0.015919179 -0.08703475 0.15189143 0.07222283 0.08316088 0.038270976 -0.003342221
0.1035253 0.021882396 -0.056608953 0.071823046 0.05836738 -0.031328123 -0.058442447 -0.11819189
-0.03786413 -0.06846093 -0.079611875 -0.12558928 0.11396624 -0.12614748 0.12638752 -0.067294374
-0.005470108 0.10228406 0.056284625 -0.04040803 -0.11976815 -0.07493094 0.107935295 -0.0420463
0.1303925 -0.0147026535 -0.030996066 0.06311801 -0.010390587 -0.011293409 0.10768382 0.04238714
0.0017441941 0.058692165 0.13088219 0.031025989 -0.04404168 0.054663524 -0.010331058 -0.122222304
-0.044285778 0.08238031 0.010225265 0.06719562 -0.09369238 0.13546433 -0.05864333 0.046919234
-0.07613671 -0.06308774 0.04973446 -0.024283158 -0.09397436 -0.046593055 0.10292801 0.104848325
00000000: 3952 0abe d971 3a3d 8f50 123e 5e7b 803d
00000010: 610d b8bd 6753 01be d181 923d 1bca 1a3b
00000020: cd47 563d aef6 1cbe 2883 3fbc b04b ba3d
00000030: 57e3 7c3d ed5a 8bbc 4bf6 443d 8839 7039
00000040: ce64 9dbd 732b 96bc d37a a1bd 0b9f e73d
00000050: d7be ac3d 57b5 3a3d 4360 94bd 39e0 f33d
00000060: 4a65 313d 3a5c f83d 2350 4dbd 3f0c 6a3d
00000070: 3c81 2b3e 0835 143e 2568 db3d 7823 f1bc
00000080: d509 b23d 9d28 00be 6509 4e3c 3f72 b0bd
00000090: fb33 2cbd 331d 2fbd a524 3c3c 12e7 063e
000000a0: c14a ac3d 90e5 36bc 3f42 b93d 8c99 3dbd
000000b0: b439 b43d 1cc6 0f3b f094 293b df88 0b3d
000000c0: 661c f4bd 4f2f c13c e482 0d3d 4775 f63d
000000d0: b4b3 5bbd bb07 433d 7f1f 0c3e 38b8 e1bc
000000e0: 9feb 053e 08b2 9dbd d719 663d 0d33 863d
000000f0: fbd2 223d 9246 ea3d 1696 95bd 89c4 2c3d
00000100: 1826 fa3b e2c1 f2bd 8c62 1cbd 7e04 abbd
00000110: 8360 703d acc2 3f3c 9888 46bc b837 47bd
00000120: 1e2a 533a 62b6 86bd c6a8 303d 2fd0 2d3e
00000130: 0975 093d 3e62 83bd 3fb4 cdbd 2db0 883c
00000140: 3ddc d5bd 8401 e6bd afdc e1bd 9c5f 25bd
00000150: ee98 b93b b434 b33d 3c91 923d a5bd dd3d
00000160: 56ee b6bd 0ce5 8c3c a038 ffbd a777 933d
00000170: dd31 1f3c 2a2f 133e 1d85 babd a0a8 f03d
00000180: 6dd9 cd3d d529 d53d 6a49 783c 940d 063e
00000190: 83ca da3d a40e bf3d afc7 c2bc abd1 01be
000001a0: dcd8 2cbc cb56 153d 22bc bbbd 94fe c8bd
000001b0: 69a8 1dbe 38a2 50bd beba 073e 8b97 823c
000001c0: 556b dcbc 5895 3d3c 126b ba3d e705 0ebe
000001d0: b857 edbd 59b9 59bd 0b11 9ebd 4e8a 543d
000001e0: c91d d33d 6acf 10be 72e8 15be 6654 0abe
000001f0: 1e5b 173d 38e6 f13d b745 dcbd 97f7 a9bd
00000200: 017a f13c 8b19 bcbd 86c8 023e e7c1 5a3c
00000210: 6fc6 13bd 62db 0b3c b878 ba3c 6deb 39bd
00000220: 9f1f f6bd e54c 9dbc 61ac 5cbc 1441 0c3c
00000230: 4255 96bc 18c2 e03d 4e74 5bbd 3ee9 95bc
00000240: 4b4b 313d 05e6 cfbd e4c4 e23c a622 27bc
00000250: 0bbf 9f3d a7f1 80bd 834a 773c 9159 d7bb
00000260: eeb8 14be 60b3 84bd 3723 8a3d 23bf 33bd
00000270: 13bd 8d3d fa54 09be 7c3a 8fbd 0d41 f7bd
00000280: ef21 503d 4b4b 8a3a 5de8 92bc 5d9a 10bd
00000290: d33c efbd 7828 fe3c dd03 033c d32a ddbd
000002a0: 4660 3c3d e567 033c e564 24be 26a7 9c3d
000002b0: 09e0 9c3d d0e7 5cbc c36f b9bd 8e10 bdbb
000002c0: 5c05 c93d 93f5 1a3e 5a54 c7bd 1a8a a1bd
000002d0: c1a9 043e 826b a73d a03c 8e3d bc58 93bd
000002e0: 6069 fa3d 9f3b 01be feff 65bc cc14 b13b
000002f0: 5bc5 323d 1aec bdbd 7303 043e efec 1f3e
00000300: 537f c3bd f068 823c 463f b2bd 6d89 1b3e
00000310: 90e9 933d 4050 aa3d 07c2 1c3d 2a09 5bbb
00000320: 1305 d43d b642 b33c cade 67bd f617 933d
00000330: a212 6f3d eb51 00bd 5961 6fbd 970e f2bd
00000340: 6b17 1bbd 3e35 8cbd 8d0b a3bd 7a9a 00be
00000350: 2267 e93d ce2c 01be bb6b 013e a2d1 89bd
00000360: 973e b3bb 4e7a d13d b58a 663d e482 25bd
00000370: 0149 f5bd 6575 99bd 2e0d dd3d be38 2cbd
00000380: 9d85 053e 66e3 70bc 76eb fdbc 0444 813d
00000390: 483d 2abc fe07 39bc 5689 dc3d 239e 2d3d
000003a0: 719d e43a 3267 703d fb05 063e 372a fe3c
000003b0: 0c65 34bd dce6 5f3d 9943 29bc b04f fabd
000003c0: 0165 35bd 02b7 a83d df87 273c db9d 893d
000003d0: cae1 bfbd 29b7 0a3e fd33 70bd 622e 403d
000003e0: 90ed 9bbd 2534 81bd 5cb6 4b3d 79ed c6bc
000003f0: a175 c0bd 5cd8 3ebd eccb d23d b8ba d63d

cnn.layer2.0.bias f4 [32]
-0.0002759172 0.03442414 0.059087887 -0.0028669087 -0.055859063 0.021260975 0.04322667 0.053102806
0.0006781937 0.0182954 -0.0071749114 -0.025264362 -0.037098397 -0.013808294 0.004353864 -0.0011368997
-0.0034659258 0.0002831697 -0.017453851 -0.0001601348 0.057055876 0.02138005 0.0038915372 0.0033829699
-0.000504371 -0.007048121 -0.014728806 0.058146056 -0.00067979656 -0.020106632 -0.005327031 -0.0027457871
00000000: fba8 90b9 5400 0d3d 2406 723d bfe2 3bbb
00000010: 79cc 64bd 7f2b ae3c 730e 313d 5482 593d
00000020: cfc8 313a 3ce0 953c 851b ebbb 35f7 cebc
00000030: 7df4 17bd 2f3c 62bc dcaa 8e3b 0604 95ba
00000040: 9624 63bb 6576 9439 61fb 8ebc dce9 27b9
00000050: 6cb3 693d 3725 af3c 2909 7f3b d1b4 5d3b
00000060: c437 04ba edf3 e6bb 1751 71bc 8f2a 6e3d
00000070: 6034 32ba aab6 a4bc 608e aebb aaf2 33bb

cnn.layer2.1.weight f4 [32]
1.0318365 1.0003372 0.9947918 1.0246433 0.9995303 0.9920375 1.0049297 0.9832542
1.0048959 0.9942648 0.9990402 1.010744 0.99960786 1.0227145 0.9865739 0.99520403
1.0113505 0.9893364 0.99845237 1.0028795 1.0145453 0.994673 0.9882508 1.0199081
0.98973185 1.0068055 0.98791224 0.9926144 0.9839724 0.98869914 1.025267 1.0191008
00000000: 3813 843f 0d0b 803f adaa 7e3f 8327 833f
00000010: 38e1 7f3f 2bf6 7d3f 89a1 803f 8cb6 7b3f
00000020: 6ea0 803f 2388 7e3f 19c1 7f3f 0f60 813f
00000030: 4de6 7f3f 4fe8 823f 1b90 7c3f b1c5 7e3f
00000040: ef73 813f 2645 7d3f 939a 7f3f 5b5e 803f
00000050: 9fdc 813f e4a2 7e3f 01fe 7c3f 598c 823f
00000060: 115f 7d3f 01df 803f d1e7 7c3f fa1b 7e3f
00000070: 9de5 7b3f 631b 7d3f f33b 833f e571 823f

cnn.layer2.1.bias f4 [32]
-0.05253378 -0.045707975 -0.011606351 -0.026175283 -0.01910598 -0.028135585 -0.013517008 -0.003176085
0.015683752 -0.047986384 -0.039708115 -0.03779039 -0.007125451 0.042357896 -0.006727337 -0.01663043
-0.0062182657 -0.007345935 -0.004175952 -0.02011526 -0.006242452 -0.03232903 -0.04259019 0.0012715859
-0.038259786 -0.007949802 -0.059500165 -0.027755292 -0.03324095 -0.024940353 0.018809168 -0.007997765
00000000: a92d 57bd 4938 3bbd 9028 3ebc 8c6d d6bc
00000010: 2584 9cbc 997c e6bc 7176 5dbc dd25 50bb
00000020: 367b 803c 5f8d 44bd faa4 22bd 19ca 1abd
00000030: 9e7c e9bb 797f 2d3d fe70 dcbb 8a3c 88bc
00000040: 98c2 cbbb 2bb6 f0bb 6dd6 88bb c2c8 a4bc
00000050: 7c8d ccbb 726b 04bd 0d73 2ebd 58ab a63a
00000060: 4bb6 1cbd e33f 02bc 72b6 73bd 115f e3bc
00000070: aa27 08bd b64f ccbc af15 9a3c 0f09 03bc

cnn.layer2.1.running_mean f4 [32]
0.325585 0.13141891 -0.1391839 -0.06906724 0.032618262 0.18934527 0.19905291 -0.08388312
-0.3100893 0.26966515 0.015663825 0.2533645 -0.048272356 -0.32587495 0.06494212 -0.048805777
-0.08138537 -0.22222903 -0.025854833 0.17751816 0.15059742 0.3588323 0.045568995 -0.13144572
0.07480756 -0.13537881 0.2710172 0.4843465 -0.09179186 0.1870764 -0.06341421 -0.073283575
00000000: 14b3 a63e ae92 063e 3986 0ebe 2073 8dbd
00000010: ba9a 053d bae3 413e 87d4 4b3e eaca abbd
00000020: 06c4 9ebe 8d11 8a3e 6c51 803c feb8 813e
00000030: 3cb9 45bd 15d9 a6be 6000 853d 91e8 47bd
00000040: 5fad a6bd 0290 63be 84cd d3bc 52c7 353e
00000050: 3636 1a3e deb8 b73e 8ea6 3a3d b599 06be
00000060: b534 993d bea0 0abe c4c2 8a3e 44fc f73e
00000070: 5ffd bbbd f590 3f3e 4fdf 81bd b315 96bd

cnn.layer2.1.running_var f4 [32]
0.17091502 0.050915364 0.102109574 0.0700603 0.092012845 0.13629247 0.14529954 0.18540797
0.16180427 0.066085696 0.10848206 0.22803047 0.037993312 0.10364811 0.0301819 0.09815758
0.09578199 0.167287 0.17721954 0.09904851 0.048280884 0.107280634 0.07475689 0.09043718
0.16356982 0.118928865 0.16145976 0.13148695 0.15957636 0.077199526 0.096983336 0.11660685
00000000: 5904 2f3e a18c 503d d31e d13d c67b 8f3d
00000010: 3b71 bc3d 4190 0b3e 67c9 143e 96db 3d3e
00000020: 05b0 253e f057 873d d82b de3d d280 693e
00000030: e09e 1b3d 7645 d43d 0840 f73c d706 c93d
00000040: 5929 c43d 494d 2b3e 0a79 353e f2d9 ca3d
00000050: 2dc2 453d f3b5 db3d 241a 993d 2137 b93d
00000060: d97e 273e fa90 f33d b555 253e 84a4 063e
00000070: fc67 233e c91a 9e3d 339f c63d 92cf ee3d

cnn.layer3.0.weight f4 [64, 32, 3]
-0.08883343 -0.029916922 -0.117441915 0.025797347 -0.042323574 0.040323548 -0.024487056 -0.03076945
-0.041086826 -0.00031226303 -0.063217275 -0.11901766 0.05685825 -0.096718505 0.07712746 0.09614446
0.051250342 0.065020524 -0.045505542 0.021908306 0.011265952 0.11430267 -0.1148958 -0.049496353
0.0456954 0.05565896 -0.109221615 0.092430465 0.06704463 0.062281378 -0.046043266 -0.043803573
0.020502709 0.073267564 0.085067995 -0.077842385 0.060841598 -0.027086148 -0.033465695 0.060836874
0.04346698 -0.0002405853 -0.07793009 0.08109192 -0.031872556 -0.0067497334 0.004850049 -0.11173004
-0.0065836348 0.0008487279 0.02291957 -0.019252792 0.07255636 -0.014942699 -0.08300135 -0.021300761
-0.02888004 0.059616707 0.099835224 0.023331722 0.09197898 0.08000414 0.020022815 0.045781426
0.025954394 -0.0016903188 0.09021727 -0.037826806 -0.08853384 -0.08475751 0.046499055 -0.064578466
0.049154114 -0.022982681 -0.102835774 -0.0006308888 0.0328069 -0.005785794 0.063246496 -0.03678278
-0.06071805 0.0134724965 -0.08913626 -0.04092705 -0.0012074355 0.0436925 -0.025250157 0.06025232
0.0033561662 -0.050323036 -0.022687204 0.060065433 0.006855603 -0.054443035 -0.057488646 -0.0010516178
0.016249586 -0.06922504 -0.101451546 0.057458222 0.020856934 -0.036383618 -0.0376922 0.07076893
-0.07668879 0.07202138 -0.051958244 0.015271536 0.007962521 0.029182946 0.04966417 -0.019375626
-0.09598028 -0.009337455 0.025345521 -0.02594687 0.031215651 0.11590117 -0.051494636 0.028449167
0.034382544 0.064602286 -0.032570787 -0.104107 -0.0619768 0.001821617 -0.10102125 0.07642803
0.08631344 0.028087318 -0.08241736 -0.10335741 0.05744041 -0.07352523 0.028669946 0.070503786
-0.05864119 0.042696312 0.0052832887 0.027868746 0.042287447 -0.02103713 0.037924685 -0.047851212
0.031295262 0.0225344 0.057734787 0.07654036 0.025065416 0.097351074 -0.111626856 -0.05717752
-0.09142976 -0.020650558 0.07775028 -0.10373688 0.04470826 -0.04699328 0.0022790346 -0.061340597
-0.07181774 0.008911326 -0.0037534402 -0.09598093 -0.0022976706 -0.062871605 -0.101255424 -0.0803194
0.013616132 0.0019028155 0.057188407 0.106603645 0.012702782 -0.019001434 0.055789854 0.017581172
0.07574326 0.046821132 0.013410868 0.04795366 -0.08831206 0.05714388 0.0682755 -0.023253955
-0.09365189 0.05953745 0.017938312 -0.06463934 0.002303837 0.06860194 -0.0468602 0.097915925
0.08686278 0.043954603 0.057396937 -0.058730442 -0.07036585 0.0746947 0.052642882 -0.09720389
-0.07716029 0.047948938 0.028797638 0.070862785 -0.06965409 0.05045077 0.005631752 -0.07221832
0.10647856 -0.024759887 -0.06209152 -0.095217705 -0.038324263 -0.05514664 -0.0043152655 -0.0770262
-0.09354023 -0.11687571 -0.0877951 -0.036454137 0.013183936 0.021619955 0.049554113 -0.06944634
0.055242464 0.061834846 -0.09107812 -0.07664061 -0.064266555 0.005375462 -0.063728966 0.0017777917
0.028448949 0.041099712 0.054868273 -0.04004727 -0.08359033 0.053644966 0.0015585588 -0.061367296
0.077182464 0.06434969 0.06902954 -0.027949952 -0.034945004 0.061833955 -0.08219639 -0.081549264
-0.047014862 0.05286792 -0.10038451 0.04399018 -0.09355024 -0.035180174 -0.03641095 0.07574607
00000000: 4dee b5bd 5514 f5bc 6385 f0bd f554 d33c
00000010: 7c5b 2dbd 4e2a 253d 1499 c8bc 3710 fcbc
00000020: a94a 28bd 3cb7 a3b9 0f78 81bd 88bf f3bd
00000030: 32e4 683d 5a14 c6bd 00f5 9d3d 63e7 c43d
00000040: e1eb 513d 7b29 853d 0564 3abd 0c79 b33c
00000050: d494 383c 8517 ea3d 7d4e ebbd b0bc 4abd
00000060: 1a2b 3b3d a6fa 633d 95af dfbd 2f4c bd3d
00000070: b24e 893d c21a 7f3d dd97 3cbd 606b 33bd
00000080: 4cf5 a73c 4e0d 963d 2138 ae3d d46b 9fbd
00000090: 0a35 793d c5e3 ddbc 5313 09bd 1630 793d
000000a0: 6f0a 323d a045 7cb9 d099 9fbd 8513 a63d
000000b0: cc8c 02bd de2c ddbb 29ed 9e3b b8d2 e4bd
000000c0: 88bb d7bb 2a7d 5e3a d2c1 bb3c 08b8 9dbc
000000d0: 6e98 943d 39d2 74bc 9dfc a9bd ef7e aebc
000000e0: d595 ecbc a630 743d 6976 cc3d 2b22 bf3c
000000f0: 7a5f bc3d 36d9 a33d e306 a43c 4e85 3b3d
00000100: 4f9e d43c b08d ddba d5c3 b83d 48f0 1abd
00000110: 3b51 b5bd 5895 adbd cb75 3e3d b741 84bd
00000120: d355 493d 2d46 bcbc 909b d2bd 3b62 25ba
00000130: 8760 063d c296 bdbb 6187 813d 8aa9 16bd
00000140: 7db3 78bd bfbb 5c3c 128d b6bd 1fa3 27bd
00000150: d042 9eba e8f6 323d 6bd9 cebc 23cb 763d
00000160: 20f3 5b3b 871f 4ebd 84da b9bc 2c07 763d
00000170: f7a4 e03b a9ff 5ebd 3779 6bbd 70d6 89ba
00000180: da1d 853c dcc5 8dbd d4c5 cfbd 5059 6b3d
00000190: 29dc aa3c fd06 15bd 2363 1abd 4def 903d
000001a0: 030f 9dbd f27f 933d 2bd2 54bd 7735 7a3c
000001b0: 3c75 023c 1311 ef3c a86c 4b3d a2b9 9ebc
000001c0: 4f91 c4bd 20fc 18bc 69a1 cf3c 888e d4bc
000001d0: f7b7 ff3c 985d ed3d 0aec 52bd 3a0e e93c
000001e0: b6d4 0c3d 344e 843d f268 05bd 0d36 d5bd
000001f0: 63db 7dbd 53c3 ee3a 3be4 cebd 4d86 9c3d
00000200: 1ac5 b03d 6017 e63c 6fca a8bd 0dad d3bd
00000210: a346 6b3d 6594 96bd 3cdd ea3c 4a64 903d
00000220: bf31 70bd 54e2 2e3d 701f ad3b ff4c e43c
00000230: 9a35 2d3d 0f56 acbc ea56 1b3d a2ff 43bd
00000240: 762f 003d 109a b83c 507b 6c3d 31c1 9c3d
00000250: fd55 cd3c 0060 c73d 9f9c e4bd fa32 6abd
00000260: 873f bbbd 5c2b a9bc 8a3b 9f3d 0074 d4bd
00000270: 0220 373d 077c 40bd db5b 153b 4740 7bbd
00000280: 2e15 93bd cf00 123c 47fc 75bb a691 c4bd
00000290: 8494 16bb d4c2 80bd 015f cfbd 7f7e a4bd
000002a0: 3216 5f3c e567 f93a 643e 6a3d 0353 da3d
000002b0: 541f 503c e5a8 9bbc e783 643d 6406 903c
000002c0: 481f 9b3d 84c7 3f3d 42b9 5b3c 0f6b 443d
000002d0: f4dc b4bd b30f 6a3d 06d4 8b3d 147f bebc
000002e0: 90cc bfbd 8bdd 733d 5ef3 923c a161 84bd
000002f0: f9fb 163b 2d7f 8c3d 7bf0 3fbd 2588 c83d
00000300: 1de5 b13d be09 343d 0d19 6b3d 558f 70bd
00000310: f91b 90bd 89f9 983d 10a0 573d d512 c7bd
00000320: 3706 9ebd 1b66 443d 06e9 eb3c 8220 913d
00000330: cea6 8ebd 77a5 4e3d 8f8a b83b 33e7 93bd
00000340: 6e11 da3d 3fd5 cabc ad53 7ebd 8001 c3bd
00000350: e7f9 1cbd 71e1 61bd 1267 8dbb eabf 9dbd
00000360: 0592 bfbd 885c efbd ebcd b3bd ef50 15bd
00000370: 6f01 583c 551c b13c 41f9 4a3d e239 8ebd
00000380: ec45 623d 8946 7d3d 2a87 babd c1f5 9cbd
00000390: 2f9e 83bd a524 b03b 5584 82bd ca04 e93a
000003a0: c50d e93c 2c58 283d 8ebd 603d 9b08 24bd
000003b0: 6831 abbd d3ba 5b3d 8e48 cc3a 465c 7bbd
000003c0: d711 9e3d c5c9 833d 5c5f 8d3d 4cf7 e4bc
000003d0: 7e22 0fbd 9a45 7d3d 9556 a8bd 4d03 a7bd
000003e0: a892 40bd 088c 583d 6596 cdbd 0c2f 343d
000003f0: 4597 bfbd 1619 10bd a623 15bd c120 9b3d

cnn.layer3.0.bias f4 [64]
0.006408574 -0.0007105496 0.0078112544 0.0024960642 -0.020250339 0.00036339887 -0.018629162 -0.016658956
0.01971379 -0.0007199963 0.01778725 -6.711422e-05 -5.900854e-05 0.005937563 0.00037157966 0.00027725715
-0.000617102 -0.008350341 -0.00013567568 2.2192457e-05 -0.00061535346 -0.0014038328 -0.00030594307 0.0009167734
1.11169065e-05 -0.01918036 -0.016082218 -0.001705647 0.0011706576 -0.0010953883 -0.002587312 0.0060156197
-0.004411324 -0.00021597746 -1.5505037e-05 0.02004928 -0.019875899 0.008944892 -0.0009897818 -0.00050492433
-0.00025545806 -0.0009842875 0.0077092075 -0.00039550912 0.0002599662 -0.00094510487 0.00025639866 0.0010256513
0.0001766881 6.096906e-05 0.00028171076 0.00028379177 -0.00014573915 0.00016133898 0.01556134 -8.4704836e-05
0.0006159225 0.0005101776 -0.0010415326 0.0006161976 -0.011948559 -0.00026816997 -0.002300263 -0.00025795968
00000000: 04ff d13b 2d44 3aba 8df5 ff3b 0295 233b
00000010: 0ae4 a5bc 9286 be39 2f9c 98bc 5d78 88bc
00000020: d07e a13c 22be 3cba 91b6 913c acbf 8cb8
00000030: f07f 77b8 e38f c23b 94d0 c239 d35c 9139
00000040: 04c5 21ba decf 08bc 2a44 0eb9 f029 ba37
00000050: ac4f 21ba d000 b8ba fc66 a0b9 9f53 703a
00000060: c082 3a37 2120 9dbc dbbe 83bc 0490 dfba
00000070: c070 993a 2293 8fba e48f 29bb ad1e c53b
00000080: de8c 90bb 0278 62b9 d010 82b7 633e a43c
00000090: c8d2 a2bc 998d 123c 91bb 81ba e65c 04ba
000000a0: 00ef 85b9 3503 81ba 859d fc3b 565c cfb9
000000b0: 134c 8839 eac0 77ba 3f6d 8639 266f 863a
000000c0: 5a45 3939 08b9 7f38 94b2 9339 e3c9 9439
000000d0: 8ed1 18b9 1a2d 2939 fef4 7e3c 90a3 b1b8
000000e0: dc75 213a 70bd 053a 0984 88ba 5288 213a
000000f0: e4c3 43bc 2a99 8cb9 02c0 16bb c33e 87b9

cnn.layer3.1.weight f4 [64]
0.9790749 1.012985 0.98304516 0.9967488 0.99430484 1.0256307 1.0151372 0.99950653
1.0055213 1.0060468 0.9762801 0.99461555 1.004773 0.9688519 0.9914664 1.0252438
0.99590814 0.9962615 1.0043191 0.98131037 0.9872897 1.0193478 1.0226425 1.0095657
0.9563692 1.0169717 0.98202455 0.9922038 0.99993026 0.9988849 1.0096912 1.0020576
0.9995749 1.0224756 1.0162078 0.9970061 0.98873144 1.0223643 0.99514943 0.9983365
0.98754597 1.0008662 1.0115067 0.99501854 0.99561083 0.9817937 1.0198596 1.0038561
0.9944642 0.9904019 0.98535025 0.988999 1.0108176 1.0219414 0.9704937 1.035647
1.0188253 1.0064497 1.0023426 1.0106953 1.0200417 1.0115354 1.0053368 0.9819916
00000000: a7a4 7a3f 7ea9 813f d9a8 7b3f ee2a 7f3f
00000010: c38a 7e3f de47 833f 04f0 813f a9df 7f3f
00000020: ecb4 803f 24c6 803f 7eed 793f 209f 7e3f
00000030: 679c 803f ae06 783f bed0 7d3f 303b 833f
00000040: d6f3 7e3f fe0a 7f3f 878d 803f 2837 7b3f
00000050: 05bf 7c3f fd79 823f f3e5 823f 7339 813f
00000060: 9dd4 743f 212c 823f f665 7b3f 1101 7e3f
00000070: 6efb 7f3f ecb6 7f3f 903d 813f 6c43 803f
00000080: 24e4 7f3f 7be0 823f 1913 823f cb3b 7f3f
00000090: 811d 7d3f d5dc 823f 1dc2 7e3f fb92 7f3f
000000a0: d0cf 7c3f 621c 803f 0d79 813f 89b9 7e3f
000000b0: 5ae0 7e3f d556 7b3f c28a 823f 5b7e 803f
000000c0: 3595 7e3f fb8a 7d3f ea3f 7c3f 0a2f 7d3f
000000d0: 7962 813f face 823f 4672 783f 1590 843f
000000e0: de68 823f 58d3 803f c34c 803f 775e 813f
000000f0: ba90 823f fe79 813f e0ae 803f cd63 7b3f

cnn.layer3.1.bias f4 [64]
-0.027256463 0.0069110817 -0.015865855 -0.018592644 -0.026172163 0.015139238 -0.009349428 -0.04215246
0.02818324 -0.019159919 0.012823466 0.00028877959 -0.043354243 -0.04300544 -0.043517854 0.027467987
-0.058299016 0.018112997 0.020573076 -0.029251756 -0.04487244 -0.02842249 0.037165046 0.009552308
-0.06527546 0.033248473 -0.034522608 0.0007340448 -0.04347124 -0.037788693 0.015048303 -0.03725583
-0.01696633 -0.032263577 0.018580802 -0.008621527 -0.042574856 0.03030916 -0.02672159 0.00088302756
-0.056218415 -0.04881234 0.027965838 -0.010591371 -0.009921883 -0.02257509 -0.022611571 -0.058268283
-0.022261376 -0.0112094665 0.0051005534 -0.014000581 -0.043338165 0.03668186 -0.053382095 -0.029707717
-0.037783757 0.027017538 -0.018754367 -0.0067632226 -0.040337157 -0.008920599 -0.04722111 -0.027666712
00000000: f248 dfbc 5b76 e23b 1cf9 81bc 9a4f 98bc
00000010: 0167 d6bc 910a 783c 582e 19bc 0fa8 2cbd
00000020: 8ae0 e63c 43f5 9cbc 8419 523c 5767 9739
00000030: 3894 31bd 7926 30bd c73f 32bd 8b04 e13c
00000040: f3ca 6ebd b561 943c de88 a83c 61a1 efbc
00000050: 2acc 37bd 48d6 e8bc 603a 183d 4981 1c3c
00000060: 24af 85bd 8d2f 083d 9467 0dbd ea6c 403a
00000070: e60e 32bd 51c8 1abd 288d 763c 9299 18bd
00000080: f9fc 8abc d026 04bd c436 983c 4e41 0dbc
00000090: f962 2ebd ea4a f83c 3ce7 dabc fa7a 673a
000000a0: 4845 66bd 73ef 47bd 9d18 e53c 6e87 2dbc
000000b0: 658f 22bc 65ef b8bc e73b b9bc b9aa 6ebd
000000c0: 7d5d b6bc e9a7 37bc 8b22 a73b b162 65bc
000000d0: 5c83 31bd b83f 163d 2fa7 5abd 995d f3bc
000000e0: 24c3 1abd e253 dd3c c2a2 99bc 069e ddbb
000000f0: 9338 25bd b427 12bc ec6a 41bd 4da5 e2bc

cnn.layer3.1.running_mean f4 [64]
-0.036416203 -0.09617187 -0.327563 0.06618483 0.0862249 -0.12114657 0.30989552 0.21495199
0.12775733 -0.030078825 -0.29641542 -0.24081752 0.409555 0.7767487 0.32499003 -0.48562494
0.29237774 -0.6351991 -0.39375347 0.4118503 0.6610745 0.09561038 -0.74172556 0.27437514
0.35787508 -0.53562516 0.07872695 -0.14614767 0.38719743 0.14335787 -0.661781 0.7158421
0.19769648 0.15140218 -0.43436548 -0.47667277 0.41795152 -0.50371593 0.030716764 0.04700107
0.22743845 0.3030288 -0.86387974 0.24633981 0.124707036 -0.28784263 0.1653417 0.46177936
-0.016295234 -0.36321688 -0.07891969 0.044343114 0.51966774 -0.60515654 -0.067538664 0.05798425
0.2524677 -1.1722139 0.15609626 -0.07159917 0.21104558 0.062261146 0.6075689 0.054030277
00000000: 2829 15bd c2f5 c4bd 56b6 a7be ea8b 873d
00000010: ae96 b03d b11b f8bd a0aa 9e3e 601c 5c3e
00000020: d1d2 023e de67 f6bc c3c3 97be de98 76be
00000030: 31b1 d13e 01d9 463f 1865 a63e d5a3 f8be
00000040: 89b2 953e 699c 22bf 0e9a c9be 0bde d23e
00000050: 2e3c 293f 60cf c33d bae1 3dbf e67a 8c3e
00000060: 673b b73e bb1e 09bf 983b a13d bca7 15be
00000070: be3e c63e 68cc 123e 7b6a 29bf 6e41 373f
00000080: f270 4a3e 2c09 1b3e 2765 debe 740e f4be
00000090: befd d53e 87f3 00bf b9a1 fb3c 3284 403d
000000a0: a0e5 683e 9726 9b3e 3927 5dbf 8140 7c3e
000000b0: 6766 ff3d 1c60 93be 564f 293e 586e ec3e
000000c0: 957d 85bc 90f7 b9be a5a0 a1bd 20a1 353d
000000d0: f208 053f 8aeb 1abf b651 8abd e580 6d3d
000000e0: 7243 813e 1b0b 96bf b3d7 1f3e 96a2 92bd
000000f0: 551c 583e 8b05 7f3d a389 1b3f da4e 5d3d

cnn.layer3.1.running_var f4 [64]
0.25317028 0.2667471 0.3076017 0.14342816 0.15084629 0.1817164 0.10072376 0.18832093
0.26321468 0.22210589 0.16507338 0.2285745 0.2383398 0.3742939 0.22071709 0.4593091
0.24365664 0.46392176 0.15362318 0.18899809 0.3303091 0.18367536 0.33823216 0.09743704
0.17111973 0.2107031 0.13221194 0.14284183 0.14805925 0.17744821 0.41442618 0.29386783
0.19538139 0.19619198 0.26836687 0.1929541 0.39594746 0.4406185 0.15437791 0.14440893
0.23914567 0.34199384 0.8269412 0.16130155 0.09477291 0.1561829 0.21670406 0.12000944
0.16715927 0.21405704 0.11173056 0.15037964 0.24286324 0.2977075 0.29859054 0.22100572
0.18612123 0.7809641 0.16481856 0.17215033 0.19977348 0.13239713 0.08086937 0.22155495
00000000: 899f 813e 1393 883e f87d 9d3e d5de 123e
00000010: 7377 1a3e dd13 3a3e 4248 ce3d 34d7 403e
00000020: 13c4 863e ba6f 633e ff08 293e 6f0f 6a3e
00000030: 590f 743e 73a3 bf3e a903 623e 902a eb3e
00000040: 2081 793e 2787 ed3e 654f 1d3e b788 413e
00000050: 461e a93e 6515 3c3e c42c ad3e 128d c73d
00000060: 033a 2f3e 8ec2 573e 9162 073e 2145 123e
00000070: d89c 173e fcb4 353e ab2f d43e d875 963e
00000080: 0f12 483e 8de6 483e 6267 893e c295 453e
00000090: a0b9 ca3e bf98 e13e 3e15 1e3e efdf 133e
000000a0: 9ae2 743e d119 af3e 6bb2 533f 3c2c 253e
000000b0: 4d18 c23d 69ee 1f3e abe7 5d3e 82c7 f53d
000000c0: cd2b 2b3e c531 5b3e fed2 e43d 1ffd 193e
000000d0: 24b1 783e 1e6d 983e dce0 983e 534f 623e
000000e0: 9096 3e3e 43ed 473f 32c6 283e 2d48 303e
000000f0: 6b91 4c3e 1d93 073e d79e a53d 4ddf 623e

cnn.layer4.0.weight f4 [128, 64, 3]
-0.02244262 0.04152006 -0.048256807 0.05339118 0.037772797 0.013861201 0.023882806 0.006534526
0.025611825 0.017464072 -0.07879612 -0.06627039 -0.04768478 -0.006325409 0.057808727 0.03822724
-0.03894706 0.05544019 -0.021380315 0.042880658 0.00025619243 -0.028665356 0.0067666373 -0.026896996
0.037717655 -0.051139534 -0.023780253 -0.056554418 0.033729818 0.062847756 0.06855139 -0.066580035
0.010650142 -0.045779858 -0.026751503 0.034635935 0.005274493 -0.052471146 0.023100358 0.028491126
-0.014570585 0.024211278 -0.023509739 -0.04103757 -0.03430744 -0.039401565 -0.01494661 0.013807819
-0.06550728 -0.0076949475 0.030973947 0.072385006 0.027157987 0.00021173623 -0.03019324 -0.0422807
-0.052901722 -0.029344283 -0.06850453 -0.082969986 -0.03998027 0.04825541 -0.056131497 -0.014230494
-0.024890272 0.058640216 0.06003879 0.05896429 0.009559091 0.014822285 -0.0022294943 0.07456309
0.032061547 0.022118654 0.0006890755 0.01713874 0.069109626 0.008936688 -0.043150853 -0.026275672
0.03550887 0.0260415 -0.008973217 0.03055611 0.018249806 -0.048011642 -0.09162342 -0.08324495
-0.04131892 0.03551299 0.02346732 0.040350996 0.055473935 -0.012129573 -0.067804165 -0.05255955
-0.044911418 -0.016293338 0.04043216 0.01336074 0.06208139 -0.055183657 -0.0016192845 -0.025038633
-0.06968849 0.0006377399 0.038391273 0.012936426 0.022288023 -0.002738893 0.03661818 0.043138452
0.07507816 0.0809835 -0.01363713 -0.0057689627 -0.00094629335 -0.015744906 0.045351464 0.07907323
-0.07337693 -0.054153778 0.027148124 -0.071510196 0.05221781 0.01853794 -0.042540822 0.057318266
-0.033485442 -0.06317756 0.030169653 -0.07522312 0.034273297 -0.0075152973 -0.05054271 -0.040320177
0.013990052 -0.018041648 0.013539333 0.0002679575 -0.01977577 0.010139938 -0.05825702 -0.040755004
0.0594604 -0.02708394 -0.058276154 -0.05937082 -0.009422972 0.019428944 0.05796451 0.035568785
0.071354665 -0.03820084 -0.018988669 -0.049488116 0.015606751 -0.03893826 -0.08840412 0.005057781
0.06629274 0.050173786 0.04317406 0.016835785 0.039879713 0.016634908 -0.06253125 0.014594452
-0.022915905 0.044913422 -0.07091726 0.065460704 0.07675298 0.08011408 -0.06631946 -0.052123465
-0.059807606 0.0439205 0.031906825 -0.0698292 0.021423902 -0.019189581 0.03626803 0.030094508
0.012412932 -0.022646815 -0.05292263 -0.05844129 0.014206606 0.020939676 0.03791685 -0.03531683
0.019549131 0.028332897 -0.038115043 0.08612373 0.02490257 0.062419765 0.066661015 -0.0650697
-0.04200119 -0.01039307 -0.06933887 0.014965344 -0.025526363 -0.025809793 -0.05410185 0.047941606
-0.04483192 0.028421052 -0.04071984 -0.028930033 -0.051788196 0.06495402 0.018954994 0.020565549
0.018756153 0.053683817 -0.03581282 0.07154156 -0.013050056 0.08729744 0.0673794 0.049837176
-0.06008151 -0.03756139 0.0011589038 -0.009633494 -0.018449878 -0.002268854 0.011221421 0.011811023
0.019126877 -0.053544648 -0.017015502 -0.020635113 0.09015934 -0.07601768 -0.0422273 -0.07926694
-0.0065428214 -0.03884122 0.02131908 0.032789096 0.046271417 -0.037299264 -0.025574101 -0.013845007
0.030689085 -0.0010569402 0.012914268 0.031077571 -0.057236824 -0.06926283 -0.045262925 0.06300118
00000000: 96d9 b7bc f010 2a3d eea8 45bd b6b0 5a3d
00000010: a6b7 1a3d 171a 633c e0a5 c33c 941f d63b
00000020: e4cf d13c d010 8f3c dc5f a1bd c5b8 87bd
00000030: 1e51 43bd 6045 cfbb d8c8 6c3d 2b94 1c3d
00000040: f486 1fbd 4115 633d c525 afbc a1a3 2f3d
00000050: 9151 8639 9cd3 eabc abba dd3b 1757 dcbc
00000060: d47d 1a3d b077 51bd cece c2bc 9ba5 67bd
00000070: 4728 0a3d 53b6 803d ac64 8c3d 1d5b 88bd
00000080: ef7d 2e3c a983 3bbd f825 dbbc 69de 0d3d
00000090: a7d5 ac3b fceb 56bd f63c bd3c 3966 e93c
000000a0: 77b9 6ebc bb56 c63c 7f97 c0bc 0317 28bd
000000b0: f585 0cbd 8963 21bd a0e2 74bc 313a 623c
000000c0: ae28 86bd e625 fcbb 13bd fd3c 973e 943d
000000d0: 6d7a de3c 8305 5e39 d057 f7bc 872e 2dbd
000000e0: 7aaf 58bd 6c63 f0bc 1a4c 8cbd 2bec a9bd
000000f0: 5ac2 23bd 77a7 453d 24ea 65bd 0527 69bc
00000100: afe6 cbbc b930 703d 3ceb 753d 8a84 713d
00000110: bc9d 1c3c 2bd9 723c b51c 12bb 89b4 983d
00000120: f852 033d 2e32 b53c 13a3 343a 8b66 8c3c
00000130: 5989 8d3d 306b 123c f3be 30bd 1440 d7bc
00000140: c071 113d fc54 d53c 6604 13bc cf50 fa3c
00000150: 9e80 953c dba7 44bd 0fa5 bbbd 547c aabd
00000160: 073e 29bd 1276 113d 893e c03c 1647 253d
00000170: a338 633d 1ebb 46bc e9dc 8abd af48 57bd
00000180: 09f5 37bd 9b79 85bc 319c 253d 01e7 5a3c
00000190: 0e49 7e3d 4208 62bd 2c3e d4ba d21d cdbc
000001a0: d7b8 8ebd 002e 273a 2b40 1d3d 4ef3 533c
000001b0: 5f95 b63c 007f 33bb f2fc 153d f2b1 303d
000001c0: 94c2 993d adda a53d 456e 5fbc 9109 bdbb
000001d0: ac10 78ba 76fb 80bc 75c2 393d 25f1 a13d
000001e0: a546 96bd 5ad0 5dbd be65 de3c f073 92bd
000001f0: 58e2 553d e1dc 973c 493f 2ebd 8fc6 6a3d
00000200: 0828 09bd 3d63 81bd 5926 f73c 940e 9abd
00000210: 2862 0c3d e242 f6bb df05 4fbd c526 25bd
00000220: 8836 653c 14cc 93bc 14d4 5d3c a67c 8c39
00000230: cc00 a2bc fc21 263c ea9e 6ebd b8ee 26bd
00000240: c08c 733d 24df ddbc fab2 6ebd d12e 73bd
00000250: cf62 1abc 7329 9f3c 326c 6d3d 93b0 113d
00000260: 6522 923d 7c78 1cbd 208e 9bbc 0db4 4abd
00000270: 75b3 7f3c ba7d 1fbd 380d b5bd bebb a53b
00000280: 7dc4 873d 0783 4d3d 48d7 303d 33eb 893c
00000290: e958 233d ee45 883c 6210 80bd 921d 6f3c
000002a0: 23ba bbbc 23f7 373d 123d 91bd 4310 863d
000002b0: ab30 9d3d da12 a43d 7fd2 87bd 6a7f 55bd
000002c0: d2f8 74bd fbe5 333d bbb0 023d 9d02 8fbd
000002d0: 2e81 af3c 7833 9dbc c98d 143d c288 f63c
000002e0: 9c5f 4b3c d085 b9bc 66c5 58bd 2260 6fbd
000002f0: d3c2 683c af89 ab3c b34e 1b3d 61a8 10bd
00000300: 8025 a03c 641a e83c 851e 1cbd a361 b03d
00000310: 7900 cc3c deab 7f3d 9285 883d 4343 85bd
00000320: 7109 2cbd b247 2abc 8a01 8ebd 3431 753c
00000330: aa1c d1bc 0f6f d3bc e799 5dbd 6b5e 443d
00000340: ada1 37bd 44d3 e83c d9c9 26bd adfe ecbc
00000350: dc1f 54bd 9d06 853d 8147 9b3c 1579 a83c
00000360: 81a6 993c 90e3 5b3d 77b0 12bd 6284 923d
00000370: e7cf 55bc 00c9 b23d 36fe 893d 1122 4c3d
00000380: 0818 76bd f9d9 19bd 5ce6 973a cdd5 1dbc
00000390: 3324 97bc 0eb1 14bb 0dda 373c 0583 413c
000003a0: f8af 9c3c a251 5bbd 1864 8bbc f80a a9bc
000003b0: 76a5 b83d 28af 9bbd 89f6 2cbd b556 a2bd
000003c0: 2a65 d6bb f917 1fbd 5aa5 ae3c dc4d 063d
000003d0: 1987 3d3d 1dc7 18bd c780 d1bc 2bd6 62bc
000003e0: ad67 fb3c 0789 8aba 5e96 533c 6496 fe3c
000003f0: 2971 6abd acd9 8dbd 9e65 39bd c306 813d

cnn.layer4.0.bias f4 [128]
-0.000121385994 -0.0048100776 0.00040150646 -0.00046683365 0.0027379326 -0.0011571909 -2.2419263e-06 0.00013424494
-0.0015567321 -7.164461e-05 0.00080593745 0.00046227727 -0.0009950394 -0.00047491622 -0.0049804538 0.00013330838
0.00090126065 0.00012935988 -0.00030632704 -0.0001770459 0.00486875 -2.6630005e-06 -0.0025980992 -0.0005344184
-0.0005037973 -0.0011125298 0.003016504 0.00019321355 -0.0003873293 -0.00033794675 -0.0018025364 -7.075808e-05
0.0001389613 -2.288472e-05 -0.0004384691 -0.0011481675 -7.604202e-05 -3.278075e-05 -0.0051303986 0.00038144924
0.00029669047 -0.00033892505 1.04542705e-05 0.00053583 0.00024996916 0.0008419038 -0.0044449805 -3.8210943e-05
-0.00080875447 -0.00033938163 -6.340415e-05 0.00030856006 -0.00044400097 6.81408e-06 0.00023317181 0.00012486242
-0.0050251842 0.00040598988 -0.003111371 -0.004495276 0.005304176 -0.00023304162 1.6980921e-05 0.0004241208
-0.00038942223 0.00022790706 0.00033345353 -0.00020227091 0.0003664075 -0.0002637519 -0.00062395376 0.00038902942
-0.0014024087 0.00020034544 0.0006754821 -0.001465214 -0.00073045364 -0.0006707357 0.00026324284 0.0030834333
0.00022788499 0.0003345648 7.031896e-05 -0.0053494996 -0.00023988899 -7.010979e-05 0.00029210345 -0.00034205746
0.00030214488 -0.00034885475 0.0052332277 0.003980755 -0.00039390085 0.002847104 0.004107747 0.00018250759
-6.81784e-05 -0.00053653383 -0.0002468651 0.0002587157 0.000107534084 -0.00022878253 -0.0003570448 0.00046010414
-0.0001245865 -0.00026700078 -0.00070426305 0.0058235074 9.883217e-05 -9.385121e-05 0.0006013811 -0.0041759415
-0.00041007815 0.00058188883 -0.0003638097 0.00083937205 -2.4603069e-05 -0.00054379983 7.413502e-05 -0.0007835316
0.00014151455 -0.0005479258 -0.0005604684 0.002074889 0.0008775623 -0.0049467543 0.00077224406 0.00039243777
00000000: 9c90 feb8 db9d 9dbb 4981 d239 5ac1 f4b9
00000010: e36e 333b e2ac 97ba 0074 16b6 1ac4 0c39
00000020: 430b ccba e83f 96b8 8c45 533a ce5d f239
00000030: fb6b 82ba 2dfe f8b9 1333 a3bb b2c8 0b39
00000040: 9442 6c3a c7a4 0739 859a a0b9 66a5 39b9
00000050: 098a 9f3b 00b6 32b6 df44 2abb 3618 0cba
00000060: 4411 04ba 4ed2 91ba 8ab0 453b 5e99 4a39
00000070: 7512 cbb9 722e b1b9 1643 ecba f463 94b8
00000080: 24b6 1139 90f8 bfb7 54e2 e5b9 1c7e 96ba
00000090: c078 9fb8 107e 09b8 e71c a8bb 40fd c739
000000a0: 1f8d 9b39 c0b1 b1b9 c064 2f37 f176 0c3a
000000b0: 4b0e 8339 35b3 5c3a 33a7 91bb b044 20b8
000000c0: 9802 54ba 08ef b1b9 d8f7 84b8 3bc6 a139
000000d0: cdc8 e8b9 80a4 e436 957f 7439 80ed 0239
000000e0: 4daa a4bb 0adb d439 25e8 4bbb 1c4d 93bb
000000f0: a7ce ad3b a25c 74b9 4072 8e37 885c de39
00000100: 5e2b ccb9 56fa 6e39 60d3 ae39 af18 54b9
00000110: 621a c039 2e48 8ab9 d490 23ba a5f6 cb39
00000120: 07d1 b7ba d213 5239 d612 313a 6c0c c0ba
00000130: ea7b 3fba 50d4 2fba db03 8a39 6d13 4a3b
00000140: 69f4 6e39 8768 af39 3478 9338 db4a afbb
00000150: b68a 7bb9 e807 93b8 7625 9939 2d56 b3b9
00000160: 3369 9e39 7ee6 b6b9 7f7b ab3b fe70 823b
00000170: 7a84 ceb9 7b96 3a3b 489a 863b 825f 3f39
00000180: 00fb 8eb8 2da6 0cba ac6d 81b9 3ca4 8739
00000190: ec83 e138 58e5 6fb9 be31 bbb9 223a f139
000001a0: 6fa3 02b9 3dfc 8bb9 4b9e 38ba 1fd3 be3b
000001b0: 1e44 cf38 fcd1 c4b8 01a6 1d3a 56d6 88bb
000001c0: c2ff d6b9 e689 183a b6bd beb9 4e09 5c3a
000001d0: b062 ceb7 ca8d 0eba f078 9b38 ea65 4dba
000001e0: 8663 1439 aea2 0fba 66ec 12ba dcfa 073b
000001f0: 360c 663a 6218 a2bb 6c70 4a3a 1bc0 cd39

cnn.layer4.1.weight f4 [128]
0.98365796 1.0305004 1.0090415 0.9997504 1.0140643 1.0295188 1.0499517 1.0093359
0.9879438 1.0141108 1.010084 1.0270555 1.0142443 1.0218364 1.0177137 1.0318874
1.0035088 0.98422456 0.9995574 1.0237733 1.0191126 1.0230737 1.0330448 1.0030771
1.0101144 1.01606 1.0110427 0.9909006 1.0066088 1.0162239 1.0318494 1.011827
1.0085891 0.9789172 0.99921024 1.0033194 1.030951 1.0102012 1.0357555 1.0222397
1.013011 1.0226423 1.0320549 0.9909679 1.0490631 1.0130693 1.0207835 0.9872335
1.0284785 1.0062652 1.033325 1.0051829 1.027181 0.9889573 1.0157745 1.0164473
1.0067997 1.0167426 1.0211859 1.0226668 0.9979416 1.0217379 0.9979343 1.0181731
1.0165211 1.0232995 1.0101963 1.0070996 1.0126159 1.0274763 1.0118663 0.99934655
1.0195497 1.0102152 0.9988853 1.0411972 1.0168123 1.023396 0.9959621 0.98702466
1.0175213 0.99907297 1.0195398 1.0133696 1.0192591 0.99729353 1.0109932 1.0294043
1.03052 1.0099704 1.0331738 1.0202904 1.0286827 1.0274523 1.0389462 0.9940577
1.0178545 0.99496555 1.0163592 1.0383365 1.0005988 1.0031089 1.0152788 1.0227848
1.022751 1.0109687 1.0248699 1.0226426 1.0152515 1.002128 0.9974652 1.019054
1.0324701 1.0209146 1.0266747 1.013408 1.0128046 1.0177304 1.0111498 0.9952054
1.0021546 1.0369571 1.0109696 1.0151966 1.0231502 1.0259839 1.0224745 1.0285565
00000000: 02d1 7b3f 70e7 833f 4628 813f a4ef 7f3f
00000010: dccc 813f 46c7 833f d164 863f eb31 813f
00000020: e3e9 7c3f 62ce 813f 6f4a 813f 8e76 833f
00000030: c2d2 813f 89cb 823f 7144 823f e314 843f
00000040: fa72 803f 24f6 7b3f fee2 7f3f 010b 833f
00000050: 4872 823f 14f4 823f d03a 843f d564 803f
00000060: 6e4b 813f 410e 823f d969 813f a9ab 7d3f
00000070: 8fd8 803f a013 823f a413 843f 8c83 813f
00000080: 7319 813f 519a 7a3f 3ecc 7f3f c56c 803f
00000090: 34f6 833f 464e 813f a393 843f c0d8 823f
000000a0: 58aa 813f f1e5 823f 601a 843f 13b0 7d3f
000000b0: b347 863f 41ac 813f 09a9 823f 56bb 7c3f
000000c0: 2fa5 833f 4ccd 803f fe43 843f d5a9 803f
000000d0: ab7a 833f 4e2c 7d3f e604 823f f21a 823f
000000e0: d0de 803f 9f24 823f 38b6 823f bfe6 823f
000000f0: 1a79 7f3f 4fc8 823f 9f78 7f3f 7f53 823f
00000100: 5d1d 823f 7afb 823f 1d4e 813f a4e8 803f
00000110: 669d 813f 5884 833f d684 813f 2dd5 7f3f
00000120: 9b80 823f bb4e 813f f2b6 7f3f f345 853f
00000130: e826 823f a4fe 823f 5ff7 7e3f a6ad 7c3f
00000140: 233e 823f 3fc3 7f3f 4880 823f 18b6 813f
00000150: 1577 823f a14e 7f3f 3a68 813f 85c3 833f
00000160: 14e8 833f b646 813f 0a3f 843f e098 823f
00000170: e0ab 833f 8f83 833f 30fc 843f 917a 7e3f
00000180: 0e49 823f 10b6 7e3f 0f18 823f 36e8 843f
00000190: 9f13 803f df65 803f a8f4 813f 9dea 823f
000001a0: 81e9 823f 6c67 813f f02e 833f f4e5 823f
000001b0: c3f3 813f bb45 803f e159 7f3f 5d70 823f
000001c0: fb27 843f 54ad 823f 146a 833f 5ab7 813f
000001d0: 95a3 813f fd44 823f 5b6d 813f c8c5 7e3f
000001e0: 9a46 803f 03bb 843f 7467 813f f6f1 813f
000001f0: 96f6 823f 7153 833f 72e0 823f bda7 833f

cnn.layer4.1.bias f4 [128]
-0.01637842 -0.008675419 -0.012998655 -0.0016897013 -0.030741382 0.030479716 0.025036791 -0.013739609
0.0052402094 0.0021018502 -0.012777929 0.006187582 0.0039460952 -0.01358752 -0.041813333 -0.01654998
-0.005546429 -0.008619119 -0.0071177185 -0.023253676 -0.0071367053 -0.03016435 0.004662751 -0.016397864
0.012140161 -0.018603878 -0.0004939447 -0.01015079 0.019380933 0.0054072808 0.018747922 -0.0082220975
0.006553325 -0.018493157 0.0072299186 -0.0040341574 -0.008369592 -0.00031337808 -0.008833567 0.014827544
0.015973074 -0.037492566 0.019494064 -0.016337683 0.04588339 0.0030014834 -0.016298909 -0.0013770168
0.012865856 0.0032192776 -0.023286821 0.0054166554 0.020839943 -0.0077276486 0.006653126 0.012604349
0.003486904 -0.030183017 0.023465429 0.026040118 -0.012377934 0.019534431 0.0018657413 -0.031707965
-0.021931635 0.014024854 0.006046986 -0.02669158 -0.029261222 -0.025190813 -0.030261213 -0.005348801
-0.00977687 -0.00020769831 -0.027265409 -0.010082586 -0.0084055355 -0.01011984 -0.0036211128 -0.013817799
-0.004682083 0.0033654212 -0.012029226 -0.0012570522 0.0050474587 -0.024233988 -0.0006597677 -0.012239235
0.017202964 -0.008661695 -0.0030554202 0.016855003 0.029639496 0.01213987 -0.006659543 -0.01018599
-0.020979803 0.0009317291 0.016776588 -0.015837083 -0.0065826373 -0.004125482 -0.012262431 0.009849471
-0.013542418 -0.030298252 0.012932254 -0.00077419146 0.0059053632 0.0009333018 -0.01050359 0.020962313
0.025650412 -0.028873907 0.022787169 0.015887104 0.0049743517 -0.005663502 0.020073017 -0.011647982
0.0055715204 -0.00031654455 -0.0009772856 0.021145342 0.017354174 0.016417393 0.0028885612 -0.0065497095
00000000: 092c 86bc 5823 0ebc 50f8 54bc f878 ddba
00000010: 5ad5 fbbc 99b0 f93c f519 cd3c 191c 61bc
00000020: 10b6 ab3b 32bf 093b 855a 51bc 33c1 ca3b
00000030: 3f4e 813b 319e 5ebc 7544 2bbd d393 87bc
00000040: d2be b5bb 3537 0dbc c03b e9bb 7e7e bebc
00000050: 06db e9bb 3a1b f7bc fec9 983b d054 86bc
00000060: 87e7 463c 2967 98bc 117c 01ba 804f 26bc
00000070: c3c4 9e3c 8f2f b13b 3e95 993c fab5 06bc
00000080: 46bd d63b f67e 97bc f4e8 ec3b f730 84bb
00000090: 9d20 09bc e54c a4b9 aaba 10bc 3aef 723c
000000a0: f7d9 823c ce91 19bd 04b2 9f3c 9bd6 85bc
000000b0: 39f0 3b3d 89b4 443b 4a85 85bc 047d b4ba
000000c0: 50cb 523c 84fa 523b 01c4 bebc 337e b13b
000000d0: 87b8 aa3c 3738 fdbb 7702 da3b 7982 4e3c
000000e0: 8b84 643b 6042 f7bc 923a c03c 1652 d53c
000000f0: d1cc 4abc ac06 a03c e48b f43a 36e0 01bd
00000100: f9a9 b3bc 80c8 653c cc25 c63b 4da8 dabc
00000110: 3bb5 efbc f75c cebc 5de6 f7bc ff44 afbb
00000120: 2a2f 20bc 97c9 59b9 b55b dfbc 6e31 25bc
00000130: 5fb7 09bc afcd 25bc 3150 6dbb 0d64 62bc
00000140: 296c 99bb 668e 5c3b 3b16 45bc acc3 a4ba
00000150: 2765 a53b 5b86 c6bc 43f4 2cba 1387 48bc
00000160: 3bed 8c3c c8e9 0dbc 723d 48bb 8113 8a3c
00000170: 87ce f23c 4ee6 463c 4c38 dabb 23e3 26bc
00000180: d6dd abbc 483f 743a 0e6f 893c c5bc 81bc
00000190: 2ab3 d7bb 0d2f 87bb 5de8 48bc ad5f 213c
000001a0: 05e1 5dbc 0a34 f8bc cee1 533c 1cf3 4aba
000001b0: c781 c13b d3a8 743a 4017 2cbc 28b9 ab3c
000001c0: d020 d23c f988 ecbc 28ac ba3c ac25 823c
000001d0: e3ff a23b e694 b9bb 2b70 a43c 2dd7 3ebc
000001e0: 4d91 b63b e4f5 a5b9 4318 80ba ff38 ad3c
000001f0: 572a 8e3c c57d 863c 044e 3d3b f29e d6bb

cnn.layer4.1.running_mean f4 [128]
-0.06227152 0.51131636 0.4272625 -0.4129197 0.7059447 0.046120547 0.057474837 0.32022378
-0.9730962 0.121297605 0.021046732 -0.012865567 -0.1929478 -0.008847326 0.8065098 0.27097148
0.8654475 -0.32149807 -0.07545249 0.56377643 0.24838664 0.7457368 0.29617083 0.98661596
-0.5129736 0.4954465 -0.69845605 -0.7353196 -0.5447765 -0.38095787 -0.18911195 -0.07005156
-0.55238855 -0.53584754 -0.82452285 -0.01769935 0.31780234 -0.05639431 0.55582327 0.029631415
-0.76356363 0.5027031 -0.7785065 -0.38254765 -0.6974795 -0.32247004 0.3954489 -0.27049002
0.029124375 -0.859139 0.80406684 -0.13608216 -0.036134772 -0.41567785 0.025808103 -0.61170805
-0.2583353 0.8793124 -0.32340086 -0.23867837 -0.0018616715 -0.49814767 -0.68401635 0.9378925
0.43931288 0.06312037 -0.71847993 0.47736388 1.1284595 0.8931865 0.7059456 0.1756782
0.75614715 0.4710726 0.20321938 0.5496727 0.5890524 0.15249225 -1.0487019 -0.3485225
-0.10584099 -0.6856735 0.21903422 0.7439248 0.030214403 0.4015509 -0.23910502 0.5316303
0.6607754 -0.007850153 0.07200871 -0.29878375 -0.58996344 -0.14918768 0.535646 -0.38499954
0.4411899 -0.9246129 -0.5475329 0.80135167 -0.27681267 -0.00528783 0.62318575 -0.27648774
0.48232797 0.80950564 -0.30220377 0.4162975 0.27326626 -0.61824703 -0.37019455 -0.4029008
0.4600871 1.1010243 -0.693118 -0.70929146 0.13689594 0.040917214 -0.23607305 -0.36945897
-0.34346724 0.5352749 0.13300012 -0.022454834 -0.71767294 -0.78340495 0.0033078832 1.0351539
00000000: 6c10 7fbd a1e5 023f 27c2 da3e 366a d3be
00000010: cbb8 343f e6e8 3c3d bc6a 6b3d 5ff4 a33e
00000020: d51c 79bf e16a f83d 326a ac3c 19ca 52bc
00000030: 1c94 45be 60f4 10bc 6d77 4e3f c6bc 8a3e
00000040: f88d 5d3f 659b a4be d686 9abd a753 103f
00000050: 1159 7e3e 9be8 3e3f b4a3 973e dd92 7c3f
00000060: 3d52 03bf 2aab fd3e 04ce 32bf e83d 3cbf
00000070: 7976 0bbf e90c c3be 90a6 41be 3177 8fbd
00000080: 5669 0dbf 4e2d 09bf ee13 53bf 3afe 90bc
00000090: fdb6 a23e b8fd 66bd 6f4a 0e3f 95bd f23c
000000a0: e878 43bf 26b1 003f 344c 47bf 49dd c3be
000000b0: 048e 32bf cb1a a5be 4778 ca3e ab7d 8abe
000000c0: 3e96 ee3c 89f0 5bbf 53d7 4d3f 1f59 0bbe
000000d0: 0e02 14bd bad3 d4be 846b d33c e698 1cbf
000000e0: 8644 84be 9e1a 613f cc94 a5be 1a68 74be
000000f0: 5403 f4ba 360d ffbe b21b 2fbf b919 703f
00000100: 9eed e03e 4145 813d 4dee 37bf 0a69 f43e
00000110: 5c71 903f dfa7 643f dab8 343f fce4 333e
00000120: dc92 413f 6e30 f13e be18 503e 5ab7 0c3f
00000130: 23cc 163f ee26 1c3e dd3b 86bf 8b71 b2be
00000140: 29c3 d8bd 4c88 2fbf 824a 603e db71 3e3f
00000150: 3284 f73c 1498 cd3e f2d7 74be ec18 083f
00000160: 9428 293f ee9d 00bc 4d79 933d 2ffa 98be
00000170: d807 17bf a8c4 18be 1920 093f a91e c5be
00000180: a4e3 e13e 6eb3 6cbf 1e2b 0cbf 6225 4d3f
00000190: 64ba 8dbe 8845 adbb 1a89 1f3f cd8f 8dbe
000001a0: b1f3 f63e c33b 4f3f 74ba 9abe f224 d53e
000001b0: 8ee9 8b3e 7045 1ebf 248a bdbe 0349 cebe
000001c0: 8990 eb3e 5dee 8c3f 2e70 31bf 2094 35bf
000001d0: 732e 0c3e cf98 273d 22bd 71be ba29 bdbe
000001e0: f0da afbe c707 093f 2f31 083e 33f3 b7bc
000001f0: 6ab9 37bf 3a8d 48bf 12c9 583b ec7f 843f

cnn.layer4.1.running_var f4 [128]
0.6406926 0.13414319 0.16162796 0.19380692 0.117002204 0.18511681 0.14552213 0.13821086
0.19761565 0.12753212 0.1199422 0.21295942 0.1121448 0.11370499 0.13119029 0.09288343
0.1308722 0.3063629 0.13930376 0.11666537 0.11599456 0.11442237 0.0890129 0.36835214
0.16431849 0.16986625 0.15538417 0.37630698 0.15005209 0.1142955 0.13143012 0.24587743
0.13584703 0.76931345 0.09682689 0.2604983 0.13201374 0.15213086 0.16621523 0.14141464
0.15952519 0.15477774 0.1339281 0.33042505 0.18821545 0.16783988 0.10248304 0.20633768
0.122356564 0.24316159 0.13585308 0.15567426 0.15291367 0.4858511 0.14175314 0.229378
0.18077864 0.16595171 0.10689031 0.13251613 0.18168607 0.107572764 0.50066876 0.25646362
0.13831489 0.16799328 0.19336355 0.14165822 0.1641827 0.17650749 0.097297974 0.14867453
0.19138274 0.12033033 0.0955355 0.2583574 0.26248968 0.16958334 0.39705995 0.3250758
0.1269188 0.2616269 0.12285892 0.16162549 0.15360832 0.14189672 0.07810149 0.13918673
0.19211894 0.10419205 0.16162162 0.19695854 0.11957742 0.1778995 0.120487355 0.24855444
0.10076468 0.25300768 0.12541537 0.13206773 0.15040432 0.1720886 0.15802886 0.07783233
0.42246124 0.138964 0.10002756 0.3895911 0.15957868 0.14323781 0.17796691 0.16907765
0.13029814 0.14604102 0.11021643 0.1526726 0.14511529 0.10221416 0.1771279 0.15713745
0.21335085 0.09319436 0.25505888 0.2307501 0.14514695 0.13450827 0.11279014 0.21019378
00000000: 6e04 243f d55c 093e cd81 253e 5275 463e
00000010: da9e ef3d 438f 3d3e c103 153e 2687 0d3e
00000020: c25b 4a3e c897 023e 42a4 f53d 0912 5a3e
00000030: 2cac e53d 29de e83d bf56 063e ab39 be3d
00000040: 5d03 063e 99db 9c3e a5a5 0e3e 41ee ee3d
00000050: 8e8e ed3d 4756 ea3d 654c b63d a798 bc3e
00000060: 1b43 283e 6bf1 2d3e 071d 1f3e 4fab c03e
00000070: 41a7 193e c213 ea3d 9e95 063e 4bc7 7b3e
00000080: 7c1b 0b3e baf1 443f 2d4d c63d 0860 853e
00000090: 9c2e 073e 31c8 1b3e 5334 2a3e 00cf 103e
000000a0: 925a 233e 0e7e 1e3e 7324 093e 792d a93e
000000b0: 8dbb 403e 38de 2b3e a1e2 d13d 2f4a 533e
000000c0: 1496 fa3d 5aff 783e 121d 0b3e 1369 1f3e
000000d0: 6795 1c3e 7ac1 f83e bc27 113e 11e2 6a3e
000000e0: 091e 393e 3fef 293e 4fe9 da3d 4fb2 073e
000000f0: ea0b 3a3e 1c4f dc3d d42b 003f 334f 833e
00000100: 6ba2 0d3e 6e06 2c3e 1801 463e da0e 113e
00000110: 821f 283e 61be 343e 2944 c73d 233e 183e
00000120: d6f9 433e c06f f63d 1ea8 c33d 6c47 843e
00000130: 0c65 863e 41a7 2d3e 714b cb3e 5670 a63e
00000140: 00f7 013e f6f3 853e 759d fb3d 2781 253e
00000150: 804b 1d3e 604d 113e adf3 9f3d f786 0e3e
00000160: d4ba 443e a462 d53d 2380 253e 80af 493e
00000170: 02e5 f43d 492b 363e 13c2 f63d 0e85 7e3e
00000180: b65d ce3d 398a 813e e36c 003e c33c 073e
00000190: 9703 1a3e fe37 303e 51d2 213e 8e66 9f3d
000001a0: d74c d83e 944c 0e3e 40db cc3d 7c78 c73e
000001b0: 9868 233e efac 123e f53c 363e b122 2d3e
000001c0: e06c 053e c78b 153e 27b9 e13d 3556 1c3e
000001d0: 1a99 143e a855 d13d 0461 353e a4e8 203e
000001e0: a578 5a3e afdc be3d 1497 823e c149 6c3e
000001f0: 67a1 143e 89bc 093e 84fe e63d 0a3d 573e
