checkpoint/pretrain_cnn_openmax_0_1210/best_model.pth (torch, 886690 bytes, 39 tensors)

cnn.layer1.0.weight f4 [16, 1, 3]
-0.5775977 -0.17754258 0.1833721 0.00093482557 0.20547567 -0.24311191 -0.2800758 -0.063134834
-0.49058104 -0.111134164 0.041820206 0.24314633 -0.20796958 0.33051056 -0.035422165 -0.1147704
-0.18994176 0.3812903 0.010761814 -0.34343943 -0.31827992 -0.02343408 0.1450301 -0.34479573
-0.55484223 0.2250049 0.1283177 -0.3149779 -0.30382198 0.46631262 -0.38853297 0.3415579
-0.3990177 0.20022936 -0.03246002 0.23606068 0.27141303 -0.26629445 -0.49074385 0.0009731206
0.10588851 -0.06366194 0.2512696 0.54476035 -0.2402823 0.21516383 0.17492773 0.31170118
00000000: 71dd 13bf b9cd 35be e5c5 3b3e 150f 753a
00000010: 3768 523e 54f2 78be 1866 8fbe d64c 81bd
00000020: 702d fbbe 4f9a e3bd aa4b 2b3d 5afb 783e
00000030: faf5 54be ae38 a93e d516 11bd be0c ebbd
00000040: 1880 42be 7b38 c33e 5252 303c 4bd7 afbe
00000050: 96f5 a2be d4f8 bfbc c582 143e 1189 b0be
00000060: 240a 0ebf af67 663e b765 033e c944 a1be
00000070: 8e8e 9bbe 87c0 ee3e cbed c6be ade0 ae3e
00000080: 0c4c ccbe ed08 4d3e ccf4 04bd e4b9 713e
00000090: a6f6 8a3e bf57 88be c742 fbbe 0519 7f3a
000000a0: 13dc d83d 3161 82bd 69a6 803e 6a75 0b3f
000000b0: 900c 76be e853 5c3e 4120 333e 4c97 9f3e

cnn.layer1.0.bias f4 [16]
-0.05378707 -0.32318592 -0.12398443 0.0008147935 -0.33629164 0.2555904 0.2355835 0.0042561255
-0.1927324 -0.3138651 0.12825474 -0.16697812 0.024664357 0.3137568 -0.11851214 0.043708775
00000000: d54f 5cbd a078 a5be 8deb fdbd de97 553a
00000010: 6b2e acbe bfdc 823e cd3c 713e f876 8b3b
00000020: a45b 45be edb2 a0be 3655 033e 50fc 2abe
00000030: e80c ca3c bba4 a03e 7eb6 f2bd f907 333d

cnn.layer1.1.weight f4 [16]
0.98075783 0.9933017 1.0412041 0.9808931 0.99253845 0.9895479 0.9880155 0.99013394
1.0191457 0.99486876 1.0010127 1.0434542 0.9901605 1.0162145 0.9780383 0.9917992
00000000: f212 7b3f 0549 7e3f 2d46 853f cf1b 7b3f
00000010: 0017 7e3f 0353 7d3f 95ee 7c3f 6b79 7d3f
00000020: 5e73 823f b8af 7e3f 2f21 803f e88f 853f
00000030: 297b 7d3f 5113 823f b860 7a3f 8de6 7d3f

cnn.layer1.1.bias f4 [16]
0.015004845 0.0063537606 0.011614884 -0.034113873 -0.022871336 -0.013772684 0.014142276 -0.028232588
0.015995568 -0.019627102 -0.053943463 0.022003261 -0.014984747 -0.02696474 -0.01829289 -0.059295226
00000000: e2d6 753c 3533 d03b 5b4c 3e3c fdba 0bbd
00000010: ab5c bbbc d3a6 61bc 01b5 673c 0748 e7bc
00000020: 2309 833c 04c9 a0bc d2f3 5cbd 2f40 b43c
00000030: 9682 75bc 29e5 dcbc f9da 95bc 8ddf 72bd

cnn.layer1.1.running_mean f4 [16]
-0.058036916 -0.3308122 -0.13016012 -6.4396234e-05 -0.3439802 0.26287204 0.24262454 0.0052969693
-0.19948013 -0.32150057 0.13395102 -0.17383796 0.02759188 0.3208256 -0.124270126 0.04764921
00000000: 1eb8 6dbd 3760 a9be b248 05be 770c 87b8
00000010: 2c1e b0be 2a97 863e 9172 783e 3392 ad3b
00000020: 8544 4cbe b99b a4be 752a 093e 9402 32be
00000030: 5e08 e23c 4143 a43e 5681 febd d12b 433d

cnn.layer1.1.running_var f4 [16]
0.5343272 0.08759116 0.1738794 0.10490923 0.122916006 0.22961566 0.24801563 0.11564893
0.42813483 0.5600608 0.17429727 0.037752263 0.54859686 0.0134673305 0.48379636 0.11893413
00000000: abc9 083f fe62 b33d 710d 323e a6da d63d
00000010: 63bb fb3d 5e20 6b3e cff7 7d3e 59d9 ec3d
00000020: 7d34 db3e 2560 0f3f fc7a 323e 1ea2 1a3d
00000030: d870 0c3f 14a6 5c3c 28b4 f73e bd93 f33d

cnn.layer2.0.weight f4 [32, 16, 3]
-0.00854738 0.044655107 0.06554981 -0.005020887 0.026542589 -0.020877443 0.041264895 0.038656108
0.114115715 0.12283201 0.027259456 0.11326203 -0.14096707 -0.07909605 -0.13027082 -0.0678024
0.1045836 -0.12392941 0.08283626 -0.04314343 0.018551873 -0.09862083 -0.07634664 0.031043662
0.017957589 -0.13455847 -0.008232879 -0.063777484 -0.10685119 -0.12043889 0.0535845 0.012136978
0.09026165 0.12275173 0.034916744 -0.05073321 0.08982199 0.048614815 0.115942985 0.08151716
0.029484877 0.0658037 -0.1349368 0.07566978 0.08940598 -0.01316239 -0.12484403 0.08210546
0.0122412 -0.024907328 -0.032182187 0.11272965 -0.03564967 0.19255084 0.11630667 0.06774191
0.098599784 -0.11459644 -0.13100931 0.09187627 0.0926563 -0.12389406 -0.10071606 0.055175114
0.0463252 0.08322535 -0.10470936 0.06772992 0.029367767 -0.1178096 0.15603745 0.010001206
-0.07596609 -0.08342504 -0.0629801 -0.06322757 -0.00020657023 -0.110041104 -0.1338537 -0.12558748
-0.066808864 -0.042799406 0.0038222163 -0.00059079885 0.06282137 -0.090647355 0.11740018 0.09345007
-0.11362885 -0.07164594 -0.07290985 -0.00518977 -0.15045485 0.03777739 0.04797789 0.07884757
0.061561927 -0.062048156 -0.101392284 0.081269234 -0.017066661 -0.114204206 0.09464955 0.06967939
0.09497941 -0.10383586 -0.040449418 0.0910123 -0.14318463 -0.17265497 -0.09701911 0.0376974
-0.13275227 0.05664517 -0.086037494 -0.0634595 -0.03820653 0.07887216 0.11744073 0.07253413
-0.11010476 -0.030064072 0.07921039 0.056043178 -0.060232665 0.06484141 -0.007584602 -0.13458456
0.061775647 -0.021524018 0.054630876 0.09692865 0.08492375 0.018134715 -0.010172453 -0.037599407
-0.12072734 -0.13642055 0.13117823 -0.03563371 0.024800893 -0.051306035 0.06678644 -0.02483446
-0.10522115 0.12311351 -0.0747053 0.036799707 -0.009081896 0.15353623 0.020869946 -0.040852867
0.06676762 0.10143298 -0.08718433 0.08767324 0.15823609 -0.06680735 -0.011311229 -0.032891538
0.038176674 -0.07333572 -0.110442996 0.052102223 0.04022409 -0.05944193 0.063820064 0.10392
0.02456806 0.007175057 0.08273474 -0.13444227 -0.073949195 0.03274049 -0.062010936 0.13239686
-0.022233393 -0.10715677 -0.06808301 -0.030116646 -0.0547158 0.062855214 0.026444877 -0.100427926
0.037519533 0.115304716 0.0037058063 -0.12703674 0.06299578 -0.14710036 -0.059560232 0.04309919
-0.14189373 0.0304542 0.055399556 0.120293014 0.049497202 -0.0055313483 0.031090667 -0.15137456
-0.06429978 -0.082304694 -0.053905167 -0.15045632 -0.0835893 -0.008976616 0.04433107 -0.077971354
0.12897053 0.06775948 0.09817496 -0.043945033 -0.043722846 -0.10345724 -0.0639506 -0.023029756
0.05502139 -0.05830368 0.09552807 0.08395796 0.10190766 0.03068714 -0.14252827 0.11639064
0.0057806275 0.15387826 0.15180308 0.019275393 0.055559915 -0.100466445 0.13191566 -0.12484433
0.10055315 -0.049668353 0.13517834 0.010876573 -0.06937635 0.07141723 0.034258462 0.06346578
-0.09117061 -0.0678095 -0.028881753 -0.056801334 0.088445015 0.06073478 -0.041180145 0.07729731
0.1449684 -0.07355721 0.096167296 -0.11188379 -0.11459491 -0.12991147 0.010067497 0.1117835
00000000: 4f0a 0cbc 46e8 363d fb3e 863d 4186 a4bb
00000010: d86f d93c 2c07 abbc 6105 293d de55 1e3d
00000020: 80b5 e93d 598f fb3d 394f df3c ecf5 e73d
00000030: ac59 10be 1cfd a1bd b765 05be fcdb 8abd
00000040: ed2f d63d b4ce fdbd 0fa6 a93d 2ab7 30bd
00000050: 19fa 973c b8f9 c9bd a15b 9cbd 474f fe3c
00000060: cb1b 933c b2c9 09be 33e3 06bc c59d 82bd
00000070: ccd4 dabd aaa8 f6bd 6c7b 5b3d 2dda 463c
00000080: 1adb b83d 4265 fb3d dc04 0f3d a0cd 4fbd
00000090: 97f4 b73d 5420 473d 8473 ed3d 78f2 a63d
000000a0: 458a f13c 17c4 863d df2c 0abe c2f8 9a3d
000000b0: 7c1a b73d 11a7 57bc 3aae ffbd e826 a83d
000000c0: 508f 483c 740a ccbc 78d1 03bd cede e63d
000000d0: 6305 12bd 0c2c 453e 3132 ee3d 45bc 8a3d
000000e0: afee c93d 8ab1 eabd 4e27 06be a029 bc3d
000000f0: 96c2 bd3d 2bbc fdbd 3944 cebd 4dff 613d
00000100: 7ebf 3d3d 0d72 aa3d dc71 d6bd fcb5 8a3d
00000110: ac94 f03c 2946 f1bd 48c8 1f3e 19dc 233c
00000120: 1c94 9bbd bfda aabd b6fb 80bd 757d 81bd
00000130: c69a 58b9 3b5d e1bd f210 09be 019a 00be
00000140: 16d3 88bd 6e4e 2fbd 267e 7a3b d7df 1aba
00000150: 7ea8 803d 52a5 b9bd 816f f03d c062 bf3d
00000160: 3eb6 e8bd 1bbb 92bd c251 95bd f20e aabb
00000170: d610 1abe 77bc 1a3d 7784 443d d67a a13d
00000180: 5c28 7c3d 3526 7ebd c2a6 cfbd 7c70 a63d
00000190: 62cf 8bbc e5e3 e9bd a0d7 c13d 11b4 8e3d
000001a0: 9184 c23d e5a7 d4bd 4aae 25bd a864 ba3d
000001b0: fe9e 12be 77cc 30be f5b1 c6bd 9768 1a3d
000001c0: 36f0 07be c404 683d 6d34 b0bd 0ef7 81bd
000001d0: 737e 1cbd ba87 a13d c484 f03d c68c 943d
000001e0: 9b7e e1bd ee48 f6bc 0f39 a23d 888d 653d
000001f0: 87b6 76bd 93cb 843d 4188 f8bb 89d0 09be
00000200: 7608 7d3d 2353 b0bc a0c4 5f3d 8782 c63d
00000210: 81ec ad3d 418f 943c 5caa 26bc d601 1abd
00000220: e53f f7bd d4b1 0bbe 9653 063e a7f4 11bd
00000230: 3e2b cb3c 4726 52bd 54c7 883d a371 cbbc
00000240: 307e d7bd f022 fc3d 18ff 98bd 4abb 163d
00000250: 3ccc 14bc 9a38 1d3e 73f7 aa3c 5655 27bd
00000260: 76bd 883d 18bc cf3d b38d b2bd 078e b33d
00000270: a408 223e 4bd2 88bd bc52 39bc 47b9 06bd
00000280: 255f 1c3d 0a31 96bd f02f e2bd 2469 553d
00000290: 04c2 243d 6279 73bd 18b4 823d 02d4 d43d
000002a0: f542 c93c be1c eb3b d570 a93d 3cab 09be
000002b0: ad72 97bd e41a 063d 2eff 7dbd 0b93 073e
000002c0: ce22 b6bc 0275 dbbd 1b6f 8bbd 2fb7 f6bc
000002d0: ad1d 60bd 3cba 803d eda2 d83c 28ad cdbd
000002e0: 15ae 193d e124 ec3d 1ddd 723b eb15 02be
000002f0: ee03 813d 7aa1 16be 6ef5 73bd c788 303d
00000300: 974c 11be 167b f93c a5ea 623d 2f5c f63d
00000310: 94bd 4a3d 5040 b5bb dbb1 fe3c ef01 1bbe
00000320: 9aaf 83bd 5d8f a8bd aacb 5cbd 3911 1abe
00000330: de30 abbd a812 13bc 7f94 353d 72af 9fbd
00000340: da10 043e 7bc5 8a3d f40f c93d b5ff 33bd
00000350: ba16 33bd 64e1 d3bd 88f8 82bd e6a8 bcbc
00000360: 1c5e 613d d7cf 6ebd 39a4 c33d 27f2 ab3d
00000370: f7b4 d03d 9963 fb3c eef2 11be 375e ee3d
00000380: 6b6b bd3b 4392 1d3e 4472 1b3e 6ee7 9d3c
00000390: cb92 633d 5ac1 cdbd e614 073e 62ae ffbd
000003a0: cfee cd3d 0b71 4bbd 316c 0a3e a733 323c
000003b0: 3015 8ebd 3243 923d 9a52 0c3d 59fa 813d
000003c0: a8b7 babd b5df 8abd 6d99 ecbc 84a8 68bd
000003d0: a922 b53d 08c5 783d 83ac 28bd 0d4e 9e3d
000003e0: 9972 143e 2aa5 96bd 5cf3 c43d 5423 e5bd
000003f0: bcb0 eabd 8307 05be 25f2 243c bfee e43d

cnn.layer2.0.bias f4 [32]
1.52884e-05 0.00038881836 -0.0006493143 -0.00028590398 0.00039276155 -0.00037326448 0.0013271543 -0.0002016213
-0.00015463468 0.00012089365 -0.00012195768 0.00035745822 -0.0005204631 0.00016771199 -0.00025999406 0.00093210686
0.00014987969 -0.00019882168 0.00022238116 0.00054878026 -0.00038796588 0.0011023752 -0.0011792564 0.0003512253
-0.0023620771 -0.0001579455 -0.0032671667 -0.00022160399 -0.0033618882 -0.0014257544 0.0015589778 -0.0004743962
00000000: 973f 8037 51da cb39 bf36 2aba 62e5 95b9
00000010: 90eb cd39 b6b2 c3b9 e9f3 ad3a 4e6a 53b9
00000020: 6e25 22b9 4988 fd38 88c3 ffb8 3b69 bb39
00000030: b06f 08ba d8db 2f39 d04f 88b9 a258 743a
00000040: 0629 1d39 ca7a 50b9 fd2e 6939 05dc 0f3a
00000050: e667 cbb9 937d 903a 4791 9aba a924 b839
00000060: 14cd 1abb 2c9e 25b9 f61d 56bb 5e5e 68b9
00000070: 2053 5cbb 61e0 baba 9d56 cc3a 61b8 f8b9

cnn.layer2.1.weight f4 [32]
1.0064077 1.0094649 0.9660951 0.9999889 0.96270144 0.98555046 0.9976958 1.008635
1.0064061 0.9541561 0.9961799 0.9925013 0.9789886 0.9780232 1.0107187 1.034734
1.0058361 0.985371 1.0040091 1.0118194 1.0323049 1.0081211 0.9794884 1.0009593
0.98729265 1.027707 1.0439239 1.006389 1.0399344 0.9855054 1.010218 1.0059657
00000000: f8d1 803f 2536 813f 0252 773f 46ff 7f3f
00000010: 9a73 763f 094d 7c3f fe68 7f3f f41a 813f
00000020: ead1 803f 9343 743f a505 7f3f 9114 7e3f
00000030: ff9e 7a3f ba5f 7a3f 3b5f 813f 2a72 843f
00000040: 3dbf 803f 4641 7c3f 5f83 803f 4c83 813f
00000050: 9122 843f 1d0a 813f c0bf 7a3f 6f1f 803f
00000060: 36bf 7c3f e78b 833f 4c9f 853f 5bd1 803f
00000070: 921c 853f 154a 7c3f d34e 813f 7cc3 803f

cnn.layer2.1.bias f4 [32]
-0.07687701 0.011658107 -0.033301424 -0.05007957 -0.037431836 -0.047233015 -0.011758775 -0.09923303
0.011669963 -0.07815775 -0.04394932 -0.10654875 -0.012566593 -0.008941294 0.015592556 -0.12543507
-0.015491581 -0.039215684 -0.005482913 -0.02675318 0.048844516 -0.04911658 -0.099486366 -0.09096359
-0.033806577 -0.03320331 -0.05346025 0.035706155 -0.10610974 -0.036588684 -0.04924468 -0.034298103
00000000: b271 9dbd a501 3f3c 1367 08bd 3c20 4dbd
00000010: 2052 19bd 6877 41bd e1a7 40bc b03a cbbd
00000020: 5f33 3f3c 2c11 a0bd 3404 34bd 3b36 dabd
00000030: 1ce4 4dbc 817e 12bc ec77 7f3c 0d72 00be
00000040: 66d0 7dbc a0a0 20bd 02aa b3bb 7c29 dbbc
00000050: 3011 483d 782e 49bd 82bf cbbd 1e4b babd
00000060: c478 0abd 3200 08bd 23f9 5abd 9e40 123d
00000070: 1050 d9bd 04de 15bd cab4 49bd 2b7c 0cbd

cnn.layer2.1.running_mean f4 [32]
0.11428559 -0.12276842 -0.11116513 0.005389014 0.14661461 -0.112012975 -0.17792003 0.1744166
-0.32636294 -0.043956775 0.26055095 0.23174484 -0.18727021 0.2953442 -0.10869696 0.2356931
-0.11947559 -0.04796458 -0.04890248 0.03963962 -0.22686656 0.00046060808 0.09947149 0.49025893
0.22657087 0.023465535 0.14786902 -0.37748188 -0.036472335 -0.087564886 -0.0137038715 0.003927578
00000000: 900e ea3d 026e fbbd 8baa e3bd 5396 b03b
00000010: 2422 163e 0f67 e5bd ab30 36be 449a 323e
00000020: 0b19 a7be 050c 34bd ef66 853e 854e 6d3e
00000030: c3c3 3fbe 5b37 973e 839c debd 8859 713e
00000040: 9eaf f4bd 8276 44bd f84d 48bd 275d 223d
00000050: b54f 68be c57d f139 b5b7 cb3d 3803 fb3e
00000060: 3202 683e cb3a c03c fa6a 173e 4e45 c1be
00000070: 0464 15bd 3855 b3bd 3486 60bc eab2 803b

cnn.layer2.1.running_var f4 [32]
0.071936294 0.12344241 0.27477652 0.07046153 0.17285864 0.2570838 0.17405617 0.13766725
0.14138687 0.25076932 0.1582181 0.1344944 0.1633453 0.18821388 0.2209465 0.080502056
0.11514771 0.13756423 0.14128657 0.037852548 0.0691555 0.07124766 0.03086702 0.15371582
0.12888815 0.15788567 0.04389158 0.32519 0.03980193 0.32262826 0.04669013 0.13270308
00000000: 5653 933d 60cf fc3d 82af 8c3e 224e 903d
00000010: db01 313e 7da0 833e c83b 323e a5f8 0c3e
00000020: b8c7 103e d664 803e ed03 223e e6b8 093e
00000030: fe43 273e 24bb 403e cd3f 623e 43de a43d
00000040: 90d2 eb3d a3dd 0c3e 6dad 103e 460b 1b3d
00000050: 66a1 8d3d 4bea 913d d5dc fc3c ae67 1d3e
00000060: 41fb 033e c8ac 213e a8c7 333d 4e7f a63e
00000070: 5907 233d 882f a53e 263e 3f3d 51e3 073e

cnn.layer3.0.weight f4 [64, 32, 3]
-0.03139702 0.10616694 0.078648135 -0.03698764 -0.009564856 -0.054263588 -0.0320636 -0.09079814
0.030163033 -0.084029675 0.07372216 -0.015075363 -0.0918105 -0.053608924 0.069761954 -0.03547095
-0.04591702 -0.041831456 0.05836794 -0.07965869 0.022146337 0.11419933 0.008285132 -0.052793592
0.063747376 -0.08385094 -0.057584587 -0.0032382733 0.0022951236 0.010241818 0.07347972 -0.016039394
-0.056131214 0.04162064 -0.09317896 0.0042627254 -0.035560377 -0.06062814 -0.010834612 0.042942923
0.011649623 -0.11026326 -0.019753776 0.015194596 -0.07081385 0.056456313 0.05465678 -0.07894287
-0.09986201 0.039629184 -0.072077766 0.066945285 -0.08386441 0.029977825 0.10589833 -0.031211939
0.061528023 -0.035224862 -0.09786804 -0.083044834 -0.010877366 -0.022352325 -0.084403746 -0.021004243
-0.05545242 0.050875645 -0.08597733 -0.048449356 0.06995301 -0.06339582 0.060566813 0.0300093
-0.107634924 -0.0021940242 0.08086489 -0.058080655 -0.040168352 -0.07738789 0.09980179 0.06978572
0.05833206 0.01535116 0.027873829 0.015879862 -0.06929902 -0.043211274 0.051636573 -0.10312761
0.067840904 0.088329695 -0.06092116 0.058990713 -0.06677707 0.009020533 0.0038519658 0.054132786
0.04472051 -0.035770517 0.0077932454 -0.06670729 -0.040678646 0.0065784254 0.0049442113 -0.011124489
-0.052215762 -0.082246244 0.03669938 -0.006974161 0.07471641 -0.08813427 -0.041196212 0.0587197
-0.05770712 -0.08773023 -0.019171637 -0.0726057 -0.07382555 0.03900289 -0.09895812 0.06391057
0.08145421 0.009644295 -0.039430182 0.03142602 -0.026197938 0.069601245 -0.084074475 -0.04023162
0.0010371228 -0.08938642 0.084383585 0.07109905 -0.0027551858 -0.065316 0.02928485 -0.05997971
0.074160114 0.042425167 0.08633335 -0.076477416 0.08782223 -0.01765073 0.11025927 -0.00054590614
-0.052105322 -0.019828567 -0.010114647 0.0067190826 -0.02084016 0.05639936 0.07242551 0.0077489032
0.018436654 0.099565886 0.060921606 0.04673052 -0.092548184 0.055855148 -0.01633842 0.10641567
0.038269185 0.037571866 0.06606198 -0.068585485 -0.10318572 0.02830183 -0.022336155 0.08654895
0.0804539 -0.0051643103 0.037604682 0.04296544 -0.038703337 -0.052708194 0.046988085 0.1147307
0.059522945 -0.0845064 0.06276758 0.05779522 -0.094745144 -0.04054923 0.1034689 -0.017585006
-0.09285738 0.003394771 0.047666453 -0.049960602 -0.10925965 0.020025365 -0.061895333 0.021817496
-0.0792374 -0.046657156 -0.10331125 -0.11138182 0.041696083 0.08683412 -0.05965615 -0.060491744
-0.0820286 0.06961216 0.08249282 -0.07383439 0.06032309 0.07651273 0.025435584 -0.0008366206
0.091028236 -0.05271827 -0.02819291 0.017591648 -0.047219824 0.037474457 0.09272819 -0.040235534
-0.022412622 -0.04597939 0.029097317 -0.10006039 -0.014711171 -0.048517376 -0.02181837 0.027533876
-0.05019163 0.043143854 -0.015795263 -0.09459508 0.029710991 -0.04404513 -0.021547955 -0.0043621534
-0.05819058 0.05142251 -0.032601494 0.024187097 0.027004931 0.009520015 0.052809827 -0.060912322
-0.032910243 -0.030234566 0.107464835 0.015029505 -0.07200624 0.030791277 0.089193925 0.05901332
-0.07468492 -0.027947122 0.045013156 0.028609643 -0.031095311 -0.017841466 -0.047339413 -0.016911829
00000000: 299a 00bd 0d6e d93d 4612 a13d 5a80 17bd
00000010: eab5 1cbc 7f43 5ebd 1f55 03bd 60f4 b9bd
00000020: 7718 f73c c017 acbd a5fb 963d a8fe 76bc
00000030: 2507 bcbd 0895 5bbd 5bdf 8e3d fd49 11bd
00000040: 7c13 3cbd 7657 2bbd 3913 6f3d 1824 a3bd
00000050: 3c6c b53c 57e1 e93d 5dbe 073c 183e 58bd
00000060: fc8d 823d 0bba abbd d1dd 6bbd 3639 54bb
00000070: c969 163b 4ccd 273c 897c 963d 0c65 83bc
00000080: d8e9 65bd 677a 2a3d 9cd4 bebd 55ae 8b3b
00000090: c2a7 11bd 3655 78bd a883 31bc ebe4 2f3d
000000a0: 0fde 3e3c b4d1 e1bd acd2 a1bc c1f2 783c
000000b0: da06 91bd bc3e 673d cadf 5f3d cdac a1bd
000000c0: 7484 ccbd 3652 223d 829d 93bd 9c1a 893d
000000d0: 1bc1 abbd 0e94 f53c 39e1 d83d 2eb0 ffbc
000000e0: cf04 7c3d f247 10bd 0a6f c8bd 6913 aabd
000000f0: fb36 32bc 391c b7bc dfdb acbd 1711 acbc
00000100: 1422 63bd fb62 503d e214 b0bd d572 46bd
00000110: 8643 8f3d abd5 81bd e814 783d 10d6 f53c
00000120: b36f dcbd 9ec9 0fbb 7e9c a53d fbe5 6dbd
00000130: 9287 24bd 8b7d 9ebd e264 cc3d d1eb 8e3d
00000140: 99ed 6e3d 6f83 7b3c a857 e43c 7c16 823c
00000150: a5ec 8dbd 4efe 30bd df80 533d 9234 d3bd
00000160: 2cf0 8a3d 33e6 b43d 7788 79bd 3fa0 713d
00000170: 6bc2 88bd dcca 133c 4371 7c3b 57ba 5d3d
00000180: da2c 373d 1b84 12bd 7b5e ff3b d59d 88bd
00000190: a79e 26bd d58f d73b 0d03 a23b 7d43 36bc
000001a0: 32e0 55bd b870 a8bd 1752 163d 8187 e4bb
000001b0: eb04 993d bd7f b4bd 5cbd 28bd 1184 703d
000001c0: 4d5e 6cbd e8ab b3bd d60d 9dbc 4cb2 94bd
000001d0: da31 97bd 7fc1 1f3d 8eaa cabd 8ce3 823d
000001e0: 77d1 a63d 1b03 1e3c 8b81 21bd 92b8 003d
000001f0: 0f9d d6bc 198b 8e3d 3d2f acbd e9c9 24bd
00000200: 11f0 873a 3a10 b7bd 4dd1 ac3d 619c 913d
00000210: 5990 34bb 65c4 85bd c8e6 ef3c 49ad 75bd
00000220: 42e1 973d 03c6 2d3d 8acf b03d 31a0 9cbd
00000230: 24dc b33d 4498 90bc 9dcf e13d 241b 0fba
00000240: 646c 55bd 856f a2bc e8b7 25bc c02b dc3b
00000250: fcb8 aabc 0403 673d d353 943d 83ea fd3b
00000260: 7708 973c 33e9 cb3d ef88 793d 8068 3f3d
00000270: e789 bdbd 5ec8 643d 26d8 85bc 75f0 d93d
00000280: 26c0 1c3d f5e4 193d 814b 873d 8c76 8cbd
00000290: 0953 d3bd 3dd9 e73c 50fa b6bc 9340 b13d
000002a0: 04c5 a43d 6039 a9bb 5e07 1a3d 87fc 2f3d
000002b0: 6487 1ebd 8ce4 57bd 9476 403d eef7 ea3d
000002c0: 55ce 733d b111 adbd 4a8c 803d aeba 6c3d
000002d0: be09 c2bd f316 26bd 81e7 d33d 6e0e 90bc
000002e0: 032c bebd ce7a 5e3b e63d 433d 7da3 4cbd
000002f0: 86c3 dfbd 3c0c a43c f685 7dbd 9bba b23c
00000300: 3847 a2bd 931b 3fbd d994 d3bd 271c e4bd
00000310: 83c9 2a3d 16d6 b13d 025a 74bd 31c6 77bd
00000320: 9cfe a7bd d290 8e3d fff1 a83d 7c36 97bd
00000330: 5815 773d b5b2 9c3d 495e d03c a850 5bba
00000340: 036d ba3d 1def 57bd d1f4 e6bc 5c1c 903c
00000350: 9369 41bd d17e 193d 47e8 bd3d 04ce 24bd
00000360: ad9a b7bc e354 3cbd 7f5d ee3c 76ec ccbd
00000370: 2007 71bc 28ba 46bd 70bc b2bc b98e e13c
00000380: bd95 4dbd 9cb7 303d 1165 81bc 11bb c1bd
00000390: 7764 f33c ab68 34bd 5685 b0bc 65f0 8ebb
000003a0: 3f59 6ebd 69a0 523d 2589 05bd 0524 c63c
000003b0: 7239 dd3c d6f9 1b3c 1e4f 583d 337f 79bd
000003c0: e4cc 06bd 7bae f7bc 8616 dc3d 503e 763c
000003d0: 0278 93bd fd3d fc3c 4eab b63d f3b7 713d
000003e0: 68f4 98bd 5df1 e4bc b75f 383d c55e ea3c
000003f0: 98bb febc 4428 92bc f9e6 41bd ad8a 8abc

cnn.layer3.0.bias f4 [64]
-0.00022631818 -0.000269951 -3.1052816e-05 -0.0007405558 0.00092962675 -9.535825e-05 -0.00013189984 -0.00016955615
-0.00022681328 -0.00018939344 3.2734657e-05 -4.5402132e-05 -0.00019160449 -9.136043e-05 0.00018850729 3.3163564e-05
-0.000108048545 -0.0002012828 -6.328715e-06 -5.043903e-05 -0.00034340456 3.228038e-05 -0.00074597774 0.00032725948
8.194471e-05 -5.6988792e-05 0.00029304775 -1.623651e-05 0.00064485346 0.00021552377 -0.00010306547 -4.7797457e-05
0.00043769064 -0.00022338826 0.00016255812 0.00018935988 4.02912e-05 0.0002285186 -9.914769e-05 -5.296446e-06
1.2694404e-05 -0.00040576136 -0.0002733977 7.01175e-05 0.000101505066 -6.374138e-05 -0.00032317502 -0.0004589617
-0.00048433663 -0.00021942068 -8.806108e-06 -8.443841e-05 0.00010720561 -0.00013040888 -2.7025633e-05 0.0002868287
-9.126151e-05 -2.0869882e-05 6.972098e-05 7.312847e-07 -8.524307e-06 -0.00013478109 -0.00013981848 -0.00010856694
00000000: d34f 6db9 3688 8db9 b53e 02b8 dc21 42ba
00000010: 32b2 733a 12fb c7b8 984e 0ab9 e2ca 31b9
00000020: bad4 6db9 ea97 46b9 924c 0938 2b6e 3eb8
00000030: 70e9 48b9 c298 bfb8 0aaa 4539 1b19 0b38
00000040: 1f98 e2b8 710f 53b9 3f5b d4b6 7f8e 53b8
00000050: fb0a b4b9 cb64 0738 b88d 43ba 0694 ab39
00000060: bbd9 ab38 4007 6fb8 34a4 9939 a433 88b7
00000070: 620b 293a 39fe 6139 da24 d8b8 217a 48b8
00000080: d879 e539 543d 6ab9 5d74 2a39 e88e 4639
00000090: 59fe 2838 7f9e 6f39 83ed cfb8 20b8 b1b6
000000a0: 0dfa 5437 5ebc d4b9 d156 8fb9 0c0c 9338
000000b0: 1edf d438 e5ac 85b8 d16f a9b9 cca0 f0b9
000000c0: 90ee fdb9 4a14 66b9 f2bd 13b7 8714 b1b8
000000d0: 93d3 e038 5ebe 08b9 1bb5 e2b7 7f61 9639
000000e0: a663 bfb8 bb11 afb7 2b37 9238 804d 4435
000000f0: 9f03 0fb7 0654 0db9 3d9c 12b9 6fae e3b8

cnn.layer3.1.weight f4 [64]
0.99816823 0.9924736 0.98223853 1.027095 1.0471559 1.0189952 1.032344 0.99458593
1.0155439 1.0032924 0.9945063 0.97385526 1.0354735 0.96188384 1.0232557 1.0043964
0.979298 0.9980269 0.99188364 1.0010372 1.0065027 1.0011177 1.0018101 0.981209
0.97658813 0.99455935 1.0351526 1.0129039 1.010553 0.97819513 0.9959492 1.0101619
0.96825993 0.9871514 1.0020921 1.0321645 0.9844777 1.0239888 1.0058577 0.99852175
0.99965626 1.0370846 0.996112 0.95621306 0.9842562 0.98709923 0.9867541 1.0136323
1.0155623 0.95130306 0.9705717 1.0443844 0.9777385 0.99536055 0.945742 1.0226425
0.97590995 1.0149201 1.0055486 1.044706 1.0477904 1.014362 1.0062469 0.9732997
00000000: f487 7f3f c012 7e3f fc73 7b3f d977 833f
00000010: 3409 863f 6f6e 823f d923 843f 2f9d 7e3f
00000020: 58fd 813f e36b 803f f797 7e3f 944e 793f
00000030: 658a 843f 053e 763f 0bfa 823f 1090 803f
00000040: 46b3 7a3f b17e 7f3f 16ec 7d3f fd21 803f
00000050: 15d5 803f a024 803f 503b 803f 8330 7b3f
00000060: ae01 7a3f 719b 7e3f e17f 843f d6a6 813f
00000070: cd59 813f ff6a 7a3f 87f6 7e3f fc4c 813f
00000080: e2df 773f f4b5 7c3f 8e44 803f f71d 843f
00000090: bb06 7c3f 1112 833f f2bf 803f 1f9f 7f3f
000000a0: 79e9 7f3f 30bf 843f 3201 7f3f 61ca 743f
000000b0: 37f8 7b3f 89b2 7c3f eb9b 7c3f b4be 813f
000000c0: f2fd 813f 9988 733f 6377 783f 63ae 853f
000000d0: 124d 7a3f f3cf 7e3f 261c 723f f3e5 823f
000000e0: 3cd5 793f e7e8 813f d1b5 803f edb8 853f
000000f0: ff1d 863f 9dd6 813f b3cc 803f 2b2a 793f

cnn.layer3.1.bias f4 [64]
0.017933035 -0.067503825 -0.020553555 -0.11166452 -0.026361266 0.027876278 0.028781459 -0.06792885
0.03283998 -0.04036879 0.03376914 -0.045947563 0.040239736 -0.09181585 -0.109582655 -0.08980903
-0.046914324 -0.042095214 -0.09601742 0.031502977 -0.06560116 -0.032129962 -0.05329066 -0.045605764
-0.023139661 -0.06346542 -0.03539898 0.039106786 0.0066082166 -0.09908647 -0.03456525 -0.035232954
-0.05435579 -0.075652145 -0.04051744 -0.017764742 -0.07401899 -0.05883531 -0.0908041 0.016871708
-0.035538252 -0.061647918 0.022267088 -0.018732974 -0.052041303 0.0030826707 -0.04704657 -0.008034697
-0.09275884 -0.052829985 -0.05565241 0.04657429 -0.033622466 -0.07444251 -0.0290658 -0.085544035
-0.0828325 0.04239568 0.0040090373 -0.059542853 0.0434154 -0.074720606 -0.052921116 -0.08674713
00000000: 4de8 923c 723f 8abd ee5f a8bc 5eb0 e4bd
00000010: 95f3 d7bc cb5c e43c 18c7 eb3c 481e 8bbd
00000020: 3783 063d bf59 25bd 8251 0a3d 8333 3cbd
00000030: 6cd2 243d f309 bcbd df6c e0bd cced b7bd
00000040: 3c29 40bd 086c 2cbd c8a4 c4bd 4409 013d
00000050: e759 86bd b59a 03bd 4f47 5abd 1ccd 3abd
00000060: 638f bdbc 28fa 81bd 85fe 10bd 702e 203d
00000070: bd89 d83b d9ed cabd 4b94 0dbd 6e50 10bd
00000080: 2da4 5ebd 83ef 9abd 9df5 25bd 5d87 91bc
00000090: 4597 97bd 4bfd 70bd 80f7 b9bd 8936 8a3c
000000a0: 8f90 11bd 8782 7cbd 7869 b63c e575 99bc
000000b0: 4329 55bd a206 4a3b e7b3 40bd f6a3 03bc
000000c0: 59f8 bdbd 4164 58bd c8f3 63bd afc4 3e3d
000000d0: b6b7 09bd 5175 98bd 671b eebc b631 afbd
000000e0: 16a4 a9bd 18a7 2d3d 3e5e 833b 35e3 73bd
000000f0: 59d4 313d 1e07 99bd d0c3 58bd 7ba8 b1bd

cnn.layer3.1.running_mean f4 [64]
-0.43535933 0.0832195 -4.6707457e-05 0.19887827 0.08289944 -0.47257897 -0.49228364 0.2385666
-0.21156794 0.05325134 -0.19996837 0.413168 -0.5153244 0.18932159 0.12554114 -0.15637971
-0.28849763 0.045000806 0.48575702 -0.6816059 0.2973 -0.29122436 0.069630764 0.48564208
-0.24983262 0.1487583 0.19223855 -0.73063165 0.07760303 0.48901486 0.112148926 -0.002710376
0.15217693 0.2877171 0.44079566 0.07954992 0.13295123 0.19554423 0.26560372 -0.9842197
-0.4157054 -0.077388644 -0.23323707 0.30055743 0.37954882 -0.10599584 0.18680362 -0.14715555
0.44825292 0.19428071 0.83753115 -0.51061875 0.36537892 0.7234695 -0.08327796 0.3257
0.62795687 -0.54286325 0.05908445 0.49603817 -0.3379237 0.03375865 0.16229829 -0.06868128
00000000: 6be7 debe fc6e aa3d c0e7 43b8 bfa6 4b3e
00000010: 2ec7 a93d dff5 f1be 9a0c fcbe ce4a 743e
00000020: 44a5 58be 141e 5a3d 82c4 4cbe c28a d33e
00000030: 4dec 03bf 85dd 413e db8d 003e 0122 20be
00000040: f6b5 93be c452 383d 25b5 f83e b97d 2ebf
00000050: b537 983e 5c1b 95be 939a 8e3d 14a6 f83e
00000060: 1fd4 7fbe 1954 183e 2fda 443e ad0a 3bbf
00000070: 56ee 9e3d 2860 fa3e 56ae e53d 90a0 31bb
00000080: 45d4 1b3e a84f 933e f8af e13e 12eb a23d
00000090: 5e24 083e bf3c 483e 36fd 873e d2f5 7bbf
000000a0: 57d7 d4be f07d 9ebd b3d5 6ebe aae2 993e
000000b0: 3954 c23e 5914 d9bd 7349 3f3e f2af 16be
000000c0: 6881 e53e 86f1 463e 7168 563f e9b7 02bf
000000d0: f212 bb3e 4c35 393f a38d aabd 27c2 a63e
000000e0: c8c1 203f 16f9 0abf 8902 723d b7f8 fd3e
000000f0: 5604 adbe 8346 0a3d 8631 263e c5a8 8cbd

cnn.layer3.1.running_var f4 [64]
0.20817219 0.12664515 0.15276854 0.13149059 0.1400852 0.50176525 0.30785698 0.2553153
0.39792672 0.16540727 0.30198655 0.15756704 0.27248478 0.18810073 0.1625082 0.11943466
0.1395015 0.10783962 0.3859843 0.54429144 0.21502537 0.14707845 0.17453824 0.17902549
0.13349022 0.15354726 0.191002 0.5806901 0.12898 0.31036463 0.17534994 0.11274203
0.122883655 0.19983107 0.1272848 0.21707936 0.24431252 0.14162791 0.17168838 0.6165035
0.29324743 0.12157385 0.1683597 0.13308273 0.15072174 0.1120439 0.26269627 0.19748788
0.14032537 0.14557983 0.552573 0.24343221 0.16567774 0.319857 0.40330714 0.16089036
0.3465208 0.5411184 0.13972497 0.083677754 0.2986196 0.17373562 0.22364661 0.16360895
00000000: 172b 553e 44af 013e 5b6f 1c3e 78a5 063e
00000010: 7f72 0f3e b073 003f 6e9f 9d3e b0b8 823e
00000020: 0dbd cb3e 8660 293e fb9d 9a3e 4159 213e
00000030: 2083 8b3e 7a9d 403e 8d68 263e 299a f43d
00000040: 7bd9 0e3e 05db dc3d bc9f c53e af56 0b3f
00000050: 9c2f 5c3e bc9b 163e 27ba 323e 7552 373e
00000060: a9b1 083e 7e3b 1d3e 0796 433e 1ba8 143f
00000070: 5513 043e 1de8 9e3e ef8e 333e 4be5 e63d
00000080: 6daa fb3d 84a0 4c3e f256 023e 0d4a 5e3e
00000090: 102d 7a3e e806 113e 14cf 2f3e 2cd3 1d3f
000000a0: 8724 963e b6fb f83d 7c66 2c3e d746 083e
000000b0: cd56 1a3e 4677 e53d 2080 863e 433a 4a3e
000000c0: 74b1 0f3e e112 153e 6d75 0d3f 4b46 793e
000000d0: 6da7 293e 4cc4 a33e 467e ce3e 71c0 243e
000000e0: 2d6b b13e bc86 0a3f 1014 0f3e 3e5f ab3d
000000f0: abe4 983e c0e7 313e 9e03 653e 1b89 273e

cnn.layer4.0.weight f4 [128, 64, 3]
0.036408305 -0.041627795 -0.039325118 -0.051986568 0.08262238 -0.008297662 0.037176464 -0.05818645
-0.004138272 0.08386881 -0.041614078 0.015774569 0.032229967 0.0497325 0.009693203 -0.019561447
0.011201001 0.08057181 -0.054211546 0.08246919 0.065972574 0.0490299 0.03404092 0.048720323
0.085484475 0.052095268 0.020058393 0.045623865 0.002580139 -0.072174564 -0.056372553 0.06100833
0.0084911445 -0.01432286 0.018629467 -0.038789786 0.046692822 0.06439137 0.009986661 0.050905313
-0.019295469 -0.04418501 0.09992715 0.009571717 0.03729587 -0.015875692 -0.033080418 0.008530725
0.041892022 -0.023825832 0.05773878 0.048425645 -0.015503139 -0.015181121 0.028193938 0.063858256
-0.010522342 0.009656532 0.04065756 0.07684046 0.031105591 0.03434974 0.015250094 0.073521785
0.021319235 0.022946285 -0.0027008883 0.013570636 0.026690325 -0.043786343 0.07280924 0.04768082
0.042706124 -0.05371614 -0.07639128 -0.0099294465 -0.01565409 -0.024959777 0.062168214 0.07830333
0.010923021 0.041151967 0.035624206 0.055299602 -0.035676517 -0.03351552 -0.039183475 -0.052247606
-0.05637799 -0.044542663 -0.05346822 0.012167223 -0.035723884 0.028440002 -0.017404854 0.07540119
-0.058855522 -0.04828261 -0.010917596 -0.027381213 0.020232035 -0.0137553755 0.0072821886 0.005464021
0.031671338 -0.05750602 0.024940606 0.0490573 -0.041847724 -0.041066963 0.027474532 -0.038882736
-0.041111194 0.08288295 0.044842232 0.003961943 -0.024158578 -0.025373792 0.07481234 0.009805703
0.002406939 0.035696205 -0.010757819 0.01065167 -0.020736061 0.048190966 -0.0052945954 0.05327747
0.06718671 0.004871603 -0.01825587 0.027341263 -0.028033702 0.0045540845 0.030862419 -0.07799442
0.03275886 0.016074115 -0.028488982 0.07256272 -0.018478889 0.0030501708 -0.044227466 -0.055618055
0.06694401 -0.015508299 0.07708454 0.04167754 0.041489214 -0.024430536 -0.03754149 0.07455588
0.023441618 0.07604354 -0.0020032353 0.12955977 -0.040914986 -0.0598854 -0.076927304 0.0082854135
0.050309926 0.06359862 0.03031175 -0.049446315 -0.06560822 0.0034920524 -0.023210244 -0.038849235
0.0146948425 0.079241 0.027638303 0.10497277 0.008377932 0.09198502 0.07261224 0.0109618595
0.00076938974 0.0033225277 -0.016861467 -0.046733797 0.077079035 0.041706778 0.03315923 0.0066147335
0.055655763 -0.01348638 0.0013711781 0.020511264 -0.016219713 -0.06768263 0.06769771 0.022970986
-0.06695825 -0.05533252 0.08230432 -0.08742507 -0.056542296 0.057010345 -0.05873897 0.047154035
0.03466644 -0.05137083 -0.06915656 -0.023315772 -0.090337366 -0.04220385 0.04381771 0.029234031
-0.019237204 0.002965591 -0.07160459 -0.035950065 -0.052712448 -0.034766525 -0.032264885 0.044015873
-0.037429206 0.02859634 -0.083063915 0.067316696 -0.033131532 0.056459554 -0.06743505 0.022459827
0.03164877 0.025989227 -0.0042253174 0.049018446 -0.0957306 -0.015145314 0.029444732 0.03649492
-0.0362355 -0.005671654 -0.01267542 -0.009634915 -0.036472496 0.0012741248 0.0053521856 -0.0463744
-0.029839076 -0.03449641 0.0056869523 0.04992889 0.083160065 -0.038815223 -0.010203403 0.041694716
-0.0015703129 -0.044185273 -0.017453227 0.0074748043 0.04227872 0.030867351 -0.020636452 0.05487645
00000000: e020 153d e881 2abd 6013 21bd deef 54bd
00000010: ec35 a93d ebf2 07bc 5946 183d ea54 6ebd
00000020: 579a 87bb 69c3 ab3d 8673 2abd ab39 813c
00000030: 9203 043d 4eb4 4b3d 3dd0 1e3c 543f a0bc
00000040: 6784 373c d502 a53d ed0c 5ebd 9be5 a83d
00000050: a11c 873d 94d3 483d 7e6e 0b3d f68e 473d
00000060: 7c12 af3d d961 553d 8051 a43c 17e0 3a3d
00000070: 8d17 293b 42d0 93bd e8e6 66bd dfe3 793d
00000080: 711e 0b3c 6eaa 6abc d39c 983c 0ae2 1ebd
00000090: f940 3f3d 9fdf 833d 189f 233c 1782 503d
000000a0: 8811 9ebc 57fb 34bd 9ba6 cc3d b1d2 1c3c
000000b0: 8ec3 183d bd0d 82bc 557f 07bd 74c4 0b3c
000000c0: f896 2b3d 642e c3bc 807f 6c3d f859 463d
000000d0: e100 7ebc 3dba 78bc f9f6 e63c 1ec8 823d
000000e0: e765 2cbc 6e36 1e3c 8b88 263d 885e 9d3d
000000f0: 27d1 fe3c 50b2 0c3d 88db 793c 9792 963d
00000100: ada5 ae3c d9f9 bb3c 6301 31bb 5f57 5e3c
00000110: aba5 da3c 4f59 33bd 031d 953d f74c 433d
00000120: 9eec 2e3d 7505 5cbd 0873 9cbd 1eaf 22bc
00000130: 023d 80bc 7278 ccbc 19a4 7e3d 7f5d a03d
00000140: 78f6 323c f78e 283d b0ea 113d d681 623d
00000150: 8a21 12bd 9247 09bd da7e 20bd 9601 56bd
00000160: 9bec 66bd 5e72 36bd 7e01 5bbd 0859 473c
00000170: 3553 12bd 02fb e83c a094 8ebc f06b 9a3d
00000180: 7d12 71bd fcc3 45bd b7df 32bc 914e e0bc
00000190: a7bd a53c 3a5e 61bc 6d9f ee3b 880b b33b
000001a0: ceb9 013d 6f8b 6bbd 3e50 cc3c 4ff0 483d
000001b0: 8568 2bbd d535 28bd 4512 e13c 8143 1fbd
000001c0: 3664 28bd 89be a93d 7dac 373d 30d3 813b
000001d0: 36e8 c5bc b3dc cfbc 3637 993d 19a8 203c
000001e0: bcbd 1d3b 2f36 123d 9041 30bc 5884 2e3c
000001f0: acde a9bc e463 453d 497e adbb 7a39 5a3d
00000200: 3099 893d f8a1 9f3b 568d 95bc c9fa df3c
00000210: efa6 e5bc 6e3a 953b 2fd3 fc3c 8abb 9fbd
00000220: 282e 063d ddad 833c ba61 e9bc c39b 943d
00000230: 0a61 97bc 60e5 473b dc27 35bd c2cf 63bd
00000240: f119 893d 8516 7ebc 80de 9d3d 11b6 2a3d
00000250: 98f0 293d 8c22 c8bc 1bc5 19bd c1b0 983d
00000260: a308 c03c b7bc 9b3d b648 03bb 51ab 043e
00000270: 7996 27bd 654a 75bd 108c 9dbd 8bbf 073c
00000280: c811 4e3d fe3f 823d 5950 f83c 3888 4abd
00000290: 9a5d 86bd ebda 643b 6923 bebc 6020 1fbd
000002a0: a3c2 703c 1b49 a23d b969 e23c f7fb d63d
000002b0: 9843 093c a462 bc3d bab5 943d 5f99 333c
000002c0: dfb0 493a c4be 593b 0f21 8abc f06b 3fbd
000002d0: 9ddb 9d3d bad4 2a3d f9d1 073d 68c0 d83b
000002e0: 4cf7 633d faf5 5cbc 1ab9 b33a 3d07 a83c
000002f0: 34df 84bc 319d 8abd 19a5 8a3d a62d bc3c
00000300: 6821 89bd 5aa4 62bd 2b8f a83d ea0b b3bd
00000310: e598 67bd ae83 693d 4698 70bd 9724 413d
00000320: 66fe 0d3d 386a 52bd f4a1 8dbd b800 bfbc
00000330: cc02 b9bd f2dd 2cbd 337a 333d 357c ef3c
00000340: 5797 9dbc 5c5a 423b 6da5 92bd 6040 13bd
00000350: 02e9 57bd 5867 0ebd 2f28 04bd fd49 343d
00000360: 5e4f 19bd df42 ea3c 6a1d aabd 56dd 893d
00000370: eeb4 07bd 2242 673d 631b 8abd acfd b73c
00000380: 24a2 013d 5ce7 d43c 8874 8abb 91c7 483d
00000390: 680e c4bd 0d24 78bc 1436 f13c b27b 153d
000003a0: ad6b 14bd 48d9 b9bb 91ac 4fbc c3db 1dbc
000003b0: 2f64 15bd 8900 a73a 6361 af3b 15f3 3dbd
000003c0: 1471 f4bc 1c4c 0dbd 9d59 ba3b 3c82 4c3d
000003d0: d34f aa3d b6fc 1ebd 2d2c 27bc 14c8 2a3d
000003e0: f5d2 cdba 9efb 34bd 12fa 8ebc 34ef f43b
000003f0: 732c 2d3d 87dd fc3c c70d a9bc 21c6 603d

cnn.layer4.0.bias f4 [128]
9.57253e-05 -7.874902e-05 -0.0002870493 2.1736292e-05 -0.0001342541 8.280923e-05 1.7460883e-05 5.420373e-05
-2.7976424e-05 4.6272122e-05 -2.8513281e-05 -0.00011909129 7.761344e-05 -0.00017381716 -4.5627807e-05 -4.4022032e-05
-4.4127748e-05 0.0001375751 1.6761856e-05 -0.00020800403 -5.6143417e-06 -5.3339636e-07 -0.000110698944 9.038509e-06
-0.00012260178 -0.00010745199 2.130892e-05 0.00020071969 -1.6175838e-05 -6.861049e-05 5.8479265e-05 -0.00011246857
5.1133273e-05 3.9075676e-05 5.3107167e-05 -5.5729983e-05 4.72992e-06 1.9437079e-05 4.6147343e-05 -2.9898827e-05
5.9591075e-05 -2.232941e-05 7.23339e-05 1.2547993e-05 1.202206e-06 5.2220395e-05 -0.000398862 -6.195925e-05
5.152658e-05 -4.5435798e-05 -4.5691537e-05 5.148863e-05 -8.1717764e-05 4.0745804e-06 9.686132e-05 9.454412e-05
-8.102007e-05 -8.2471386e-05 1.0291366e-05 -0.0002880011 -4.93878e-05 -7.097995e-05 -6.509781e-07 6.94157e-05
1.2782877e-05 -0.00035212174 -2.4996589e-05 9.538819e-05 4.7874e-05 1.4378536e-05 5.390113e-06 0.00010328516
-6.417009e-05 3.8174774e-05 -5.883677e-05 -9.0246125e-05 -0.00010821278 -5.732647e-05 -4.2011437e-05 -7.171323e-05
1.7886303e-05 9.3137714e-05 -4.657888e-05 4.3418462e-05 -1.7049342e-07 3.4439734e-05 -1.3510516e-05 -4.9850514e-05
-3.810916e-05 2.5867725e-05 -6.954318e-05 1.5096528e-05 8.7711596e-05 0.00013488278 -0.00012113634 4.9712515e-05
2.6795783e-06 0.00019374689 -0.00043804455 0.00020537878 1.1085478e-05 -2.0686664e-05 2.0607964e-05 5.921022e-05
-5.079792e-05 -1.1036514e-05 -3.6071974e-06 0.00029052582 0.0002264286 4.1511914e-05 9.681351e-06 7.957694e-05
0.00012179589 -8.410793e-05 -4.6803812e-05 0.00025975917 -5.738243e-06 -3.437998e-05 1.7618538e-06 0.00015059987
-6.327243e-05 -6.6379784e-05 2.1889866e-05 5.8269543e-05 -2.6538568e-05 -0.000110152134 -1.0364358e-06 0.00014153463
00000000: 21c0 c838 0f26 a5b8 1b7f 96b9 5556 b637
00000010: 90c6 0cb9 dea9 ad38 f678 9237 d058 6338
00000020: eaae eab7 5014 4238 ce2f efb7 a6c0 f9b8
00000030: 66c4 a238 b042 36b9 7c60 3fb8 4ca4 38b8
00000040: cf15 39b8 0942 1039 d09b 8c37 a81b 5ab9
00000050: d462 bcb6 b82e 0fb5 0b27 e8b8 1aa4 1737
00000060: aa8e 00b9 d957 e1b8 8fc0 b237 4878 5239
00000070: 59b1 87b7 fae2 8fb8 a247 7538 1bdd ebb8
00000080: ef77 5638 30e5 2338 63bf 5e38 9dbf 69b8
00000090: b4b5 9e36 cf0c a337 558e 4138 3ecf fab7
000000a0: 6ef1 7938 0b50 bbb7 f8b1 9738 3885 5237
000000b0: 7c5b a135 3907 5b38 5a1e d1b9 1ef0 81b8
000000c0: 3e1e 5838 5192 3eb8 eaa4 3fb8 7ff5 5738
000000d0: e45f abb8 61b8 8836 0622 cb38 fd45 c638
000000e0: 52e9 a9b8 7df4 acb8 15a9 2c37 dafe 96b9
000000f0: bf25 4fb8 12db 94b8 e0be 2eb5 4593 9138
00000100: 0a76 5637 fb9c b8b9 c4af d1b7 250b c838
00000110: 51cc 4838 583b 7137 b8dc b436 cc9a d838
00000120: 0e93 86b8 da1d 2038 80c7 76b8 8542 bdb8
00000130: 4bf0 e2b8 d471 70b8 7035 30b8 bf64 96b8
00000140: 8b0a 9637 ee52 c338 b15d 43b8 381c 3638
00000150: e010 37b4 6273 1038 39ab 62b7 9516 51b8
00000160: 66d7 1fb8 84fe d837 b6d7 91b8 1847 7d37
00000170: cef1 b738 526f 0d39 940a feb8 6882 5038
00000180: ced2 3336 8928 4b39 58a9 e5b9 f25a 5739
00000190: c4fb 3937 4688 adb7 44df ac37 7d58 7838
000001a0: da0f 55b8 7729 39b7 2e13 72b6 b751 9839
000001b0: 776d 6d39 141d 2e38 166d 2237 8be2 a638
000001c0: ac6c ff38 1a63 b0b8 364f 44b8 4930 8839
000001d0: 228b c0b6 3933 10b8 d678 ec35 58ea 1d39
000001e0: 21b1 84b8 6035 8bb8 21a0 b737 7266 7438
000001f0: 249f deb7 7a01 e7b8 aa1b 8bb5 ea68 1439

cnn.layer4.1.weight f4 [128]
1.0530294 1.0260423 1.0613431 1.010228 1.0541103 1.0782366 0.9826281 1.0249467
1.043819 1.0206571 1.0405542 1.0264257 1.0232673 1.0207661 0.9872641 1.0609497
1.0418334 1.0302161 0.9804418 1.0477277 1.0380622 1.0561017 1.0665538 1.0229292
1.0111258 1.0035576 1.0255334 1.0659912 1.0390223 1.0630311 1.070998 1.050652
1.078732 1.0528727 0.98924255 1.0320038 1.0142828 1.0105299 1.0282162 1.032414
1.0172592 1.050551 0.99094504 1.0261801 1.0147797 1.0224267 1.0594091 1.023869
1.0262002 1.0694561 1.0028735 1.0438532 1.0142552 1.0247476 1.019377 1.0355675
1.0160887 1.0602678 1.0429345 1.0534675 1.0326337 1.0544925 1.01465 1.0363427
1.0292575 1.0495025 1.0501746 1.0861454 1.0700842 1.0698006 1.041387 1.034787
1.0220011 1.0210102 1.0069667 1.0133023 1.0506089 1.0317321 1.0590132 1.014594
1.03431 1.0163518 1.0273352 1.013821 1.0134101 1.0609319 1.0697378 1.0279531
1.028777 1.0572857 1.0394533 1.0114958 1.017753 1.0117822 1.0531721 1.0172336
1.0882207 1.030666 0.99397427 1.0209905 1.075068 1.014447 0.9782165 1.0333915
1.0317764 1.0808758 1.0631514 1.0346369 1.0357066 1.052574 0.9884175 1.0373918
1.0501287 1.0310991 1.0259691 1.0839391 0.9722193 1.0327616 0.99359083 1.038395
1.0822845 1.0440027 1.0242493 0.9861209 1.0445691 1.0341419 1.0000639 1.0046957
00000000: abc9 863f 5b55 833f 17da 873f 274f 813f
00000010: 16ed 863f a803 8a3f 848d 7b3f 7431 833f
00000020: dc9b 853f e4a4 823f e130 853f eb61 833f
00000030: 6cfa 823f 77a8 823f 57bd 7c3f 33cd 873f
00000040: cc5a 853f 1fde 833f 3cfe 7a3f f11b 863f
00000050: 39df 843f 572e 873f d684 883f 58ef 823f
00000060: 926c 813f 9374 803f ae44 833f 6672 883f
00000070: affe 843f 6711 883f 7616 893f c47b 863f
00000080: e413 8a3f 88c4 863f 003f 7d3f b318 843f
00000090: 05d4 813f 0b59 813f 979c 833f 2426 843f
000000a0: 8d35 823f 7578 863f 93ae 7d3f df59 833f
000000b0: 4de4 813f e1de 823f b89a 873f 240e 833f
000000c0: 875a 833f f0e3 883f 295e 803f fb9c 853f
000000d0: 1dd3 813f ee2a 833f f27a 823f 7a8d 843f
000000e0: 320f 823f dbb6 873f e17e 853f 06d8 863f
000000f0: 572d 843f 9cf9 863f 0de0 813f e1a6 843f
00000100: b6be 833f 1956 863f 1f6c 863f d006 8b3f
00000110: 85f8 883f 3aef 883f 2b4c 853f e773 843f
00000120: efd0 823f 76b0 823f 49e4 803f e4b3 813f
00000130: 5a7a 863f cc0f 843f bf8d 873f 37de 813f
00000140: 4564 843f d117 823f b87f 833f e3c4 813f
00000150: 6cb7 813f 9ecc 873f 2bed 883f f893 833f
00000160: f7ae 833f 2355 873f ce0c 853f b278 813f
00000170: bb45 823f 1482 813f 58ce 863f b634 823f
00000180: d14a 8b3f ddec 833f 1975 7e3f d1af 823f
00000190: d49b 893f 66d9 813f 666c 7a3f 2c46 843f
000001a0: 4011 843f 235a 8a3f 5815 883f fb6e 843f
000001b0: 0992 843f bfba 863f ee08 7d3f 41c9 843f
000001c0: 9e6a 863f 0efb 833f f552 833f 84be 8a3f
000001d0: 5de3 783f 8831 843f f85b 7e3f 21ea 843f
000001e0: 4c88 8a3f e1a1 853f 9a1a 833f 6b72 7c3f
000001f0: 71b4 853f c35e 843f 1802 803f de99 803f

cnn.layer4.1.bias f4 [128]
-0.03756908 -0.009452037 -0.027178895 -0.025621373 0.042884212 -0.018288773 -0.031895347 0.017949954
-0.02086851 0.005855479 -0.022150785 0.009683373 -0.010738279 -0.017461982 -0.03215852 -0.011014332
-0.012102341 0.010529777 -0.041903924 0.018266954 0.028966319 0.026505375 0.011796073 0.02021826
-0.032123473 0.0031301666 0.006320783 0.017754514 -0.017788371 -0.0029171905 -0.04406746 0.04075337
-0.024632268 0.04393281 -0.026505377 0.025551816 -0.011835675 -0.0013531796 -0.031241462 0.02219669
-0.008884035 -0.010746252 -0.01340125 0.0054582567 -0.03950315 0.019089991 0.027326966 0.023098236
-0.015176922 0.012966376 -0.03457414 -0.034082208 0.0018922678 -0.00055658456 0.03324549 0.011105674
-0.025400389 0.0021244725 0.008788333 -0.0030617602 -0.030243918 -0.036028147 -0.034732044 -0.018749885
0.035940766 -0.004492797 0.01438163 0.016654817 -0.048112832 0.013765327 -0.03990166 0.00538684
-0.009545897 -0.0020112349 0.00880522 0.0057781986 -0.034869667 0.031518925 0.014271178 -0.054627817
-0.015272685 -0.04524352 -0.022428596 0.009508555 0.015917981 -0.01467883 -0.025979334 0.04192133
-0.04778359 0.049993485 0.016169854 -0.0371894 -0.023564827 -0.022494884 -0.061083227 -0.06163783
-0.025635928 -0.014858163 -0.028667647 -0.0013257139 -0.0052097435 -0.006354007 -0.025844 0.0055999374
-0.04598747 0.014789096 -0.027062379 0.05165788 -0.03645124 -0.036205467 -0.020557424 0.041609425
0.027069338 0.009797689 -0.06615397 -0.033830892 -0.033633243 -0.054041777 -0.02556717 -0.052095633
0.017258676 0.013743855 6.4722306e-05 -0.020195188 0.04568669 -0.018833868 -0.0021349194 -0.048375353
00000000: 09e2 19bd b7dc 1abc 46a6 debc eae3 d1bc
00000010: 5ba7 2f3d 56d2 95bc b2a4 02bd c80b 933c
00000020: 70f4 aabc 51df bf3b 9075 b5bc 03a7 1e3c
00000030: 9bef 2fbc 6e0c 8fbc a7b8 03bd 7575 34bc
00000040: e648 46bc 1685 2c3c 73a3 2bbd 94a4 953c
00000050: c64a ed3c cd21 d93c 5144 413c c4a0 a53c
00000060: e793 03bd 7b23 4d3b 921e cf3b ea71 913c
00000070: ebb8 91bc 562e 3fbb 1580 34bd 01ed 263d
00000080: 9cc9 c9bc e4f2 333d ce21 d9bc 0b52 d13c
00000090: 6bea 41bc 2c5d b1ba 18ee ffbc d5d5 b53c
000000a0: 588e 11bc 0c11 30bc eb90 5bbc 2ddb b23b
000000b0: 0ece 21bd 9d62 9c3c cddc df3c 8338 bd3c
000000c0: a0a8 78bc ec70 543c 9d9d 0dbd c999 0bbd
000000d0: f905 f83a c2e7 11ba 6c2c 083d 93f4 353c
000000e0: 7a14 d0bc bc3a 0b3b f1fc 0f3c d0a7 48bb
000000f0: 18c2 f7bc 4092 13bd 3043 0ebd 5c99 99bc
00000100: a036 133d 5038 93bb eea0 6b3c af6f 883c
00000110: f611 45bd f787 613c ec6f 23bd 1784 b03b
00000120: 6566 1cbc ecce 03bb c543 103c 0b57 bd3b
00000130: 7fd3 0ebd fd19 013d a9d1 693c 6bc1 5fbd
00000140: 493a 7abc 4551 39bd 2dbc b7bc c5c9 1b3c
00000150: 6d66 823c 7a7f 70bc 9dd2 d4bc b3b5 2b3d
00000160: bab8 43bd f8c5 4c3d a476 843c ea53 18bd
00000170: 060b c1bc 3147 b8bc 6832 7abd f377 7cbd
00000180: 7002 d2bc a76f 73bc 6ad8 eabc 94c3 adba
00000190: 7fb6 aabb 4635 d0bb ccb6 d3bc ae7f b73b
000001a0: 5b5d 3cbd f74d 723c ecb1 ddbc 3797 533d
000001b0: e54d 15bd 2f4c 14bd 0b68 a8bc a56e 2a3d
000001c0: 84c0 dd3c 7c86 203c bc7b 87bd 4392 0abd
000001d0: 03c3 09bd e95a 5dbd 3e72 d1bc 3b62 55bd
000001e0: 1162 8d3c e82d 613c 86bb 8738 6170 a5bc
000001f0: f721 3b3d 7c49 9abc 01ea 0bbb 3c25 46bd

cnn.layer4.1.running_mean f4 [128]
0.77064615 -0.2498836 0.18792042 -0.08445416 -0.48050305 0.4213748 -0.3410712 0.4650523
0.46730053 -0.05996708 0.4499934 -0.1523147 0.5392013 0.36199826 -0.12593038 0.33042887
0.34284672 -0.6671664 -0.6089087 -0.45346186 -0.46400476 -0.40877083 -0.20309876 -0.41770548
-0.4115698 -0.121277265 0.006426576 0.3370669 0.10607187 0.44516164 0.3499161 -0.39969248
0.4417096 -0.39451915 0.30086437 -0.27589694 -0.45735455 -0.23816298 0.64679635 -0.34751678
0.2382848 0.62661684 -0.61679465 0.49861446 -0.03084891 -0.4133654 -0.47398025 -0.6718865
-0.033178054 -0.1530275 0.2900085 0.4758055 -0.8105333 -0.08827862 -0.33215532 0.37293658
-0.07110295 -0.26985967 0.50418615 0.19774508 0.9429625 0.6040671 0.5032612 0.34676853
-0.17480268 0.5081768 0.6504626 0.12181474 0.16670622 -0.053417843 0.75634027 0.37953973
0.015934987 -0.16437006 -0.14441222 -0.49960738 0.30420345 0.18954615 0.084368184 0.66572034
-0.035630647 0.22228922 0.12775826 -0.890916 -0.5024602 1.0237668 0.29100043 -0.7494801
0.7164582 0.0939368 0.24772349 0.63900435 -0.21988773 0.49259007 0.3420635 0.6161845
0.73967844 0.1360327 -0.19672701 -0.45712084 -0.20460758 -0.27171046 -0.359742 0.5000865
0.23686653 0.09894581 0.32029772 -0.3169336 0.28851104 0.07828391 0.31594235 -0.27261254
-0.21857001 0.1926318 0.46322513 0.052647155 -0.7559842 0.34281516 0.52877355 0.5799839
-0.17336212 0.43399385 -0.14918606 -0.43815675 -0.43383542 0.39727387 -0.6619498 0.2582799
00000000: 1149 453f 7de1 7fbe 366e 403e 4df6 acbd
00000010: 7f04 f6be 70be d73e e2a0 aebe 561b ee3e
00000020: 0442 ef3e 0aa0 75bd 8965 e63e 62f8 1bbe
00000030: 1909 0a3f d657 b93e e5f3 00be f92d a93e
00000040: 9b89 af3e 6bcb 2abf 71e1 1bbf 272c e8be
00000050: 0892 edbe 694a d1be 1ff9 4fbe 7edd d5be
00000060: 47b9 d2be 3760 f8bd 0796 d23b 0894 ac3e
00000070: 353c d93d 3aec e33e 3428 b33e 7ea4 ccbe
00000080: c327 e23e 6afe c9be e50a 9a3e 5d42 8dbe
00000090: 602a eabe ffe0 73be 7294 253f b8ed b1be
000000a0: ee00 743e f669 203f 41e6 1dbf 654a ff3e
000000b0: dab6 fcbc a1a4 d3be 8aad f2be c100 2cbf
000000c0: b6e5 07bd 3eb3 1cbe fe7b 943e c79c f33e
000000d0: 1c7f 4fbf 6ccb b4bd 4310 aabe 8bf1 be3e
000000e0: 6c9e 91bd 0c2b 8abe 5812 013f b07d 4a3e
000000f0: fe65 713f 24a4 1a3f bad5 003f a58b b13e
00000100: 79ff 32be e017 023f b884 263f 027a f93d
00000110: 09b5 2a3e abcc 5abd 849f 413f 0853 c23e
00000120: 178a 823c a050 28be cce0 13be 8acc ffbe
00000130: 8ec0 9b3e 6318 423e 3ac9 ac3d a66c 2a3f
00000140: 71f1 11bd c99f 633e 10d3 023e 1213 64bf
00000150: 3ba1 00bf ca0a 833f 02fe 943e eedd 3fbf
00000160: ce69 373f f061 c03d 3aab 7d3e ca95 233f
00000170: 402a 61be c434 fc3e f222 af3e 44be 1d3f
00000180: 915b 3d3f 284c 0b3e ce72 49be be0b eabe
00000190: a684 51be a21d 8bbe 1a30 b8be ab05 003f
000001a0: 248d 723e 1aa4 ca3d 10fe a33e 1f45 a2be
000001b0: b8b7 933e 5153 a03d 32c3 a13e df93 8bbe
000001c0: d1d0 5fbe 4541 453e d82b ed3e 8ba4 573d
000001d0: 2e88 41bf 7885 af3e b45d 073f d379 143f
000001e0: d785 31be 7134 de3e 3bc4 18be 1556 e0be
000001f0: ad1f debe 7b67 cb3e 8b75 29bf 433d 843e

cnn.layer4.1.running_var f4 [128]
0.20079184 0.12672102 0.15694985 0.17798825 0.14987293 0.14040548 0.218703 0.11533425
0.15507773 0.12944151 0.14946012 0.16840848 0.13886654 0.15588745 0.18441279 0.124150254
0.14338154 0.16129868 0.36028522 0.12920284 0.14318264 0.1283165 0.25141376 0.60138345
0.234818 0.20618525 0.20297018 0.21597284 0.18702205 0.17617805 0.16658755 0.10467455
0.20460485 0.16584969 0.23051344 0.42574483 0.13852622 0.16571945 0.23469281 0.18027663
0.1259731 0.19453809 0.28381532 0.20587568 0.14829354 0.19143073 0.12019007 0.1109773
0.118337154 0.12954363 0.12541412 0.14941588 0.6127284 0.13203205 0.15563492 0.1405733
0.17719084 0.23299114 0.26557449 0.44246498 0.30197555 0.19406931 0.26797923 0.14333503
0.13169573 0.1718666 0.41968974 0.28516072 0.20906387 0.5193477 0.21154922 0.18690816
0.18093373 0.28726572 0.18539341 0.15445195 0.15766734 0.19113322 0.13108425 0.13597368
0.14967227 0.07287117 0.19409378 0.40862417 0.17720766 0.23713256 0.12762846 0.17007925
0.20401505 0.09850222 0.2372901 0.2735298 0.1402821 0.20700864 0.07683161 0.1475787
0.3100062 0.20505626 0.12860899 0.101776764 0.13291138 0.44098464 0.6762278 0.13455077
0.19111517 0.10989765 0.107886024 0.11035333 0.14901744 0.13336638 0.424734 0.14889696
0.31038055 0.18420899 0.25055417 0.11773101 0.45547524 0.19364725 0.3630108 0.16095386
0.26133558 0.21054068 0.16990054 0.71654046 0.14880744 0.28047392 0.23670763 0.14033714
00000000: 609c 4d3e 28c3 013e 76b7 203e 8d42 363e
00000010: 4a78 193e 74c6 0f3e aef3 5f3e 5d34 ec3d
00000020: b2cc 1e3e 518c 043e 130c 193e 4673 2c3e
00000030: 0833 0e3e f6a0 1f3e b5d6 3c3e 7d42 fe3d
00000040: 9cd2 123e 7b2b 253e 4e77 b83e c04d 043e
00000050: 789e 123e 6765 033e 4eb9 803e 44f4 193f
00000060: 2174 703e 3a22 533e 6ad7 4f3e fc27 5d3e
00000070: b582 3f3e 0568 343e ed95 2a3e 9c5f d63d
00000080: ef83 513e 80d4 293e b70b 6c3e 3afb d93e
00000090: d1d9 0d3e 5cb2 293e 5053 703e 709a 383e
000000a0: 18ff 003e fe34 473e 3e50 913e 13d1 523e
000000b0: 43da 173e 6b06 443e 3626 f63d 1148 e33d
000000c0: c05a f23d 16a7 043e 8f6c 003e 7a00 193e
000000d0: c5db 1c3f 6933 073e c35e 1f3e 72f2 0f3e
000000e0: 8471 353e 3b95 6e3e 61f9 873e c58a e23e
000000f0: 8a9c 9a3e 1bba 463e 9334 893e 6bc6 123e
00000100: 3fdb 063e ccfd 2f3e 93e1 d63e 9600 923e
00000110: d714 563e f9f3 043f 5ca0 583e da64 3f3e
00000120: b146 393e 7e14 933e c5d7 3d3e a728 1e3e
00000130: 8c73 213e 6db8 433e f33a 063e af3c 0b3e
00000140: b043 193e 7b3d 953d 85c0 463e 3037 d13e
00000150: ed75 353e e1d2 723e 09b1 023e 4129 2e3e
00000160: 52e9 503e 88bb c93d 2dfc 723e 190c 8c3e
00000170: 1ca6 0f3e 13fa 533e e459 9d3d df1e 173e
00000180: 22b9 9e3e 45fa 513e 13b2 033e 5670 d03d
00000190: ec19 083e bdc8 e13e 441d 2d3f adc7 093e
000001a0: b2b3 433e 0512 e13d 59f3 dc3d ed00 e23d
000001b0: 0798 183e 3291 083e bc76 d93e 7278 183e
000001c0: 33ea 9e3e 48a1 3c3e a348 803e f51c f13d
000001d0: 0d34 e93e 774b 463e 8ddc b93e 17d1 243e
000001e0: c7cd 853e fa97 573e 68fa 2d3e 326f 373f
000001f0: fa60 183e 479a 8f3e 7c63 723e 8ab4 0f3e
