checkpoint/transfer_cnn_features_1d_sa_spinel5v_to_nmc_1210/best_model.pth (torch, 906722 bytes, 37 tensors)

model_cnn.conv_layers.0.0.weight f4 [16, 21, 15]
0	0xbcd56d9e	-0.026053246
1	0xbc84017c	-0.016113989
2	0xbcfc3db6	-0.030791145
3	0x3d4df6a9	0.05028406
4	0x3d09e54b	0.033665936
5	0x3ca5baac	0.020230614
6	0xbd472ac4	-0.04862477
7	0x3d1130f0	0.03544706
8	0x3c1564af	0.009118243
9	0x3d022ff5	0.031784017
10	0xbcdf9f68	-0.02729769
11	0x3b4c2af9	0.0031153543
12	0x3d272281	0.04080439
13	0x3cc7e2ab	0.024400076
14	0x3bebd131	0.0071965684
15	0xbc0ac585	-0.008469944
16	0x3d4edeef	0.050505575
17	0xbce466cf	-0.027881054
18	0x3c74ca2a	0.014940778
19	0xbc4d7326	-0.012539661
20	0x3a7cea5d	0.000964796
21	0xbad82580	-0.0016490668
22	0x3c8cb75f	0.017177282
23	0x3d835290	0.06412232
24	0x3d347f79	0.04406688
25	0x3c679a42	0.014135899
26	0x3d759f02	0.059966095
27	0xbc8eba7f	-0.017422913
28	0x3d0fc871	0.035103265
29	0x3c2cd50a	0.010548839
30	0xbc5c3f15	-0.013442774
31	0x3c230f46	0.009952372
32	0xbd10ba86	-0.035334133
33	0x3c31d757	0.010854564
34	0x3d053051	0.03251678
35	0x3d62926a	0.055315413
36	0xbbec88aa	-0.00721844
37	0x3cd32860	0.025776088
38	0x3d801c86	0.062554404
39	0xbc930272	-0.017945502
40	0x3d6ba37b	0.057528954
41	0xbc928e62	-0.017890159
42	0x3ce0c163	0.027435964
43	0x3ca36a5e	0.01994818
44	0x3cac60b0	0.021042198
45	0x3d475d31	0.04867286
46	0xbc32a35f	-0.0109032085
47	0x3cff2174	0.031143881
48	0x3c502844	0.012704913
49	0xbcb605f4	-0.022219636
50	0x3b2b183d	0.0026106976
51	0xbcda034d	-0.026612902
52	0x3d0e76cf	0.034781273
53	0x3c8a9174	0.01691506
54	0x3c855306	0.01627494
55	0xbbe880d2	-0.0070954347
56	0x3c3ba5a1	0.011453063
57	0xbc241a22	-0.010015996
58	0x3c9d1f4c	0.019179963
59	0x3d843c18	0.064567745
60	0x3b60a271	0.003427651
61	0xbc9f6411	-0.019456895
62	0xbcea2e1b	-0.028586438
63	0x3c161898	0.009161137
64	0xbcee7146	-0.029106747
65	0xbd11e490	-0.035618365
66	0xbce70904	-0.028202541
67	0xbc85fe22	-0.016356532
68	0x3c15e263	0.009148213
69	0x3d20ec8b	0.039288085
70	0x3cad552d	0.021158779
71	0x3d3d15ba	0.0461633
72	0xbd11e1e5	-0.03561582
73	0xbae24d93	-0.001726555
74	0xbd4b08ad	-0.04956882
75	0x3d0cb92f	0.034356292
76	0x3c587d1d	0.013213423
77	0x3d67c5b6	0.056585036
78	0xbd1c1821	-0.03810895
79	0x3d427545	0.04747512
80	0x3d4a15e6	0.04933729
81	0x3d3f7473	0.046741914
82	0x3c16ee8d	0.009212148
83	0x3d57d245	0.052690763
84	0x3d20e3f8	0.039279908
85	0x3d335cdd	0.043789733
86	0xbb0a89f8	-0.0021139365
87	0xbd2ac1f4	-0.041688874
88	0x3a5e2529	0.0008474165
89	0x3c364d9d	0.011126903
90	0xbd30e460	-0.043186545
91	0xbcbc5d98	-0.022993848
92	0xbd560204	-0.052248016
93	0xbc311930	-0.010809228
94	0x3d69b34f	0.057055768
95	0x3bee4597	0.0072714793
96	0xbbdc2698	-0.006718468
97	0xbbfc7c99	-0.007705283
98	0x3ccabcc7	0.02474822
99	0xbd7899d9	-0.060693596
100	0xbd65d5fa	-0.056112267
101	0xbce9614f	-0.028488783
102	0xbd29e86b	-0.041481417
103	0x3cb20dcd	0.021735096
104	0x3d0d1e50	0.034452736
105	0xbd958ef0	-0.07302654
106	0xbd449a5c	-0.04799877
107	0xbd7e122b	-0.062029045
108	0x3c579bf0	0.013159737
109	0x3d4ab455	0.049488384
110	0xbd3fd970	-0.046838224
111	0xbce7495a	-0.028233219
112	0x3c7245b5	0.014787127
113	0xbd1c6bf7	-0.0381889
114	0x3d24f7c3	0.040275346
115	0x3bacc9e1	0.0052730893
116	0xbce1ff1b	-0.027587464
117	0xbc298dc7	-0.010348744
118	0xba52270c	-0.00080166827
119	0xbd0a9db3	-0.0338418
120	0xbd78eae3	-0.06077088
121	0x3aa43cce	0.0012530328
122	0xbb6befef	-0.0036001166
123	0xbb8f1903	-0.0043669953
124	0xbb2e09e3	-0.0026556186
125	0x3d10cede	0.035353534
126	0xbc7a2140	-0.0152667165
127	0xbc096cb5	-0.008387734
128	0x3cb964ee	0.022631135
129	0xbd2a437d	-0.041568268
130	0x3c0be5cc	0.008538675
131	0xbcbf0b64	-0.023320861
132	0x3c6e92ad	0.014561337
133	0xbd418459	-0.047245357
134	0xbc273f69	-0.010207989
135	0x3ccf1557	0.02527873
136	0xbd075fde	-0.03305041
137	0xbd114942	-0.035470255
138	0x3cc33ff9	0.023834215
139	0xbc32d8ba	-0.010915929
140	0x3cafe427	0.021471096
141	0xbd5d13dc	-0.053974018
142	0xbd25f200	-0.040513992
143	0xbd44491e	-0.047921292
144	0x3c40e12b	0.011772434
145	0xbc32ec17	-0.010920546
146	0xbc8f65a7	-0.017504526
147	0xbc91a4a4	-0.017778702
148	0xbd5629d8	-0.052286
149	0x3c1187ba	0.008882457
150	0x3cb6c53f	0.022310851
151	0xbce53d4f	-0.027983336
152	0x3cdd2d4c	0.026999138
153	0x38a095f8	7.6573284e-05
154	0xbd4cfb3e	-0.05004429
155	0x3c9ea624	0.019366331
156	0x3ceb86a6	0.028750729
157	0xbcaa8856	-0.020816963
158	0xbd2116f5	-0.039328534
159	0xbbd8d4d9	-0.0066171703
160	0x3d0f262d	0.034948517
161	0x3d397068	0.045273215
162	0xbd4aa981	-0.049478058
163	0xbd0691a0	-0.032853723
164	0x3d1ee4d0	0.03879243
165	0x3d24c355	0.040225346
166	0x3d5c11d3	0.053727936
167	0xbd1b9757	-0.037986126
168	0x3d697887	0.05699971
169	0xbd613f97	-0.054992285
170	0xbc5040bd	-0.012710747
171	0xbafe8f84	-0.0019421433
172	0xbb5e5910	-0.0033927597
173	0xbd5149b5	-0.051095683
174	0x3d2f3b24	0.04278101
175	0x3d3c7d4f	0.04601794
176	0xbd36f3e0	-0.04466617
177	0xbba64438	-0.0050740503
178	0xbd1390a4	-0.036026612
179	0x3d4b5432	0.04964084
180	0x3ce5b0da	0.028038431
181	0x3d0ddb80	0.03463316
182	0x3ca35334	0.019937135
183	0xbb96f615	-0.004606972
184	0x3d151f30	0.036406696
185	0x3c244973	0.010027277
186	0xbc2cc4ac	-0.010544937
187	0x3d1631bf	0.036668535
188	0x3cd8c9a1	0.026463332
189	0xbbd20e92	-0.0064104283
190	0xbbfcdc01	-0.007716656
191	0xbd2ad1dd	-0.041704047
192	0xbc04da4b	-0.008108686
193	0xbc892184	-0.016739614
194	0xbcca8b6c	-0.024724685
195	0xbd0b157a	-0.03395603
196	0x3d5ca659	0.05386958
197	0xbd1e12d5	-0.03859218
198	0x3da9057c	0.08252999
199	0xbc20286f	-0.009775265
200	0x3c4173cf	0.011807396
201	0x3d6d1bfb	0.057888012
202	0x3cf711a3	0.030159777
203	0xbc429620	-0.011876613
204	0xbd2a5fda	-0.041595317
205	0xbc9aced9	-0.01889746
206	0x3d4a7f3b	0.049437743
207	0xbc87dde9	-0.016585307
208	0x3d57c674	0.052679494
209	0xbb859075	-0.0040760585
210	0xbb858815	-0.00407506
211	0x3d00f096	0.03147944
212	0x3ad841e0	0.0016499124
213	0x3c18f0f3	0.0093347905
214	0x3d5c2005	0.053741474
215	0x3d16a600	0.036779404
216	0x3c88f1d9	0.016716884
217	0x3d1accc2	0.03779293
218	0x3d846291	0.064641126
219	0x3ceff03d	0.02928936
220	0xbaed3da5	-0.0018100037
221	0x3d0a0f9f	0.033706304
222	0x3c33ced4	0.010974605
223	0xbcf45ab8	-0.029828414
224	0xbbfae134	-0.007656241
225	0x3d2d4bef	0.042308744
226	0x3c3b8618	0.011445545
227	0x3d03933c	0.032122836
228	0xbbdc0f53	-0.006715694
229	0x3d959a01	0.073047645
230	0xbbe53958	-0.0069953613
231	0x3cd04bf1	0.025426837
232	0xbc76b0d2	-0.015056806
233	0xbcb3c099	-0.021942424
234	0x3cf6b3d7	0.030115051
235	0xbc2c24b6	-0.010506799
236	0xbcfb20a4	-0.030655213
237	0xbc8b0310	-0.016969234
238	0x3d45d0be	0.048294775
239	0x3d281185	0.041032333
240	0x3d035dea	0.032071985
241	0xbd5534db	-0.05205236
242	0x3cb92c85	0.022604236
243	0x3c5c726c	0.013455015
244	0xbd047836	-0.032341205
245	0x3c6923ef	0.014229759
246	0x3cd4afce	0.025962736
247	0xbc7ec31e	-0.015549449
248	0xbc349865	-0.011022662
249	0x3d5a43f3	0.053287458
250	0xb9e7c989	-0.0004420991
251	0x3b1d518c	0.0024004905
252	0xbd00ed93	-0.03147657
253	0xbcf8be26	-0.030364107
254	0x3d69f76f	0.057120737
255	0x3d12525e	0.035723083

model_cnn.conv_layers.0.0.bias f4 [16]
0	0x3b924d54	0.0044647846
1	0x39cc66ba	0.0003898645
2	0x3b010e8b	0.0019692506
3	0x3a4ceca7	0.00078172464
4	0x396ea91f	0.00022760451
5	0x3aa58e1e	0.0012630855
6	0xb9ebdda5	-0.0004498783
7	0x3c3aaa39	0.011393123
8	0x3a87eac9	0.0010369654
9	0xbab7ebe9	-0.0014032099
10	0xb97b1438	-0.00023944757
11	0x3afbbd54	0.0019206204
12	0x3bd92767	0.0066270116
13	0xbbbdce98	-0.00579245
14	0xb870335d	-5.7268295e-05
15	0xba5c9119	-0.0008413955

model_cnn.conv_layers.0.1.weight f4 [16]
0	0x3f7da7f6	0.99084413
1	0x3f7aeea1	0.9802037
2	0x3f80b648	1.0055628
3	0x3f7b73ef	0.98223776
4	0x3f81a1da	1.0127518
5	0x3f80ea1a	1.0071442
6	0x3f7fa928	0.99867487
7	0x3f80d97d	1.0066372
8	0x3f7ccecb	0.9875304
9	0x3f800886	1.0002601
10	0x3f7e3ab2	0.9930831
11	0x3f813593	1.0094475
12	0x3f82e363	1.0225643
13	0x3f7e2868	0.99280405
14	0x3f8054d1	1.0025884
15	0x3f81bba3	1.0135387

model_cnn.conv_layers.0.1.bias f4 [16]
0	0xbc7d30b7	-0.015453509
1	0x3b18fb33	0.0023343086
2	0xb90c6484	-0.00013388885
3	0xbc42c6ff	-0.011888265
4	0x3c2e4dbe	0.010638652
5	0xb9617523	-0.00021501309
6	0xbbdbe275	-0.0067103454
7	0x3c685fbb	0.01418298
8	0xbbf3aa57	-0.0074360776
9	0x3b6ad25e	0.0035830955
10	0x3c3c06df	0.011476248
11	0xbc063369	-0.008190968
12	0x3c5e04ba	0.013550932
13	0xbc2ba1b5	-0.010475566
14	0x3bda89c1	0.0066692536
15	0x3cb7a3ce	0.022416975

model_cnn.conv_layers.0.1.running_mean f4 [16]
0	0x3edfc6b5	0.4370629
1	0xbe464ca9	-0.19365181
2	0xbe3de668	-0.18544924
3	0xbe006834	-0.1253975
4	0x3f074ffa	0.5285641
5	0x3c8ab022	0.01692969
6	0x3ea556a6	0.3229267
7	0x3e85b139	0.26111773
8	0x3c8d7b18	0.01727061
9	0xbe425c14	-0.18980438
10	0x3ed64867	0.41852114
11	0x3f09df20	0.53856087
12	0xbccabe46	-0.024748933
13	0x3ed585b0	0.41703558
14	0xbeba8875	-0.36432233
15	0xbf1288c1	-0.5723992

model_cnn.conv_layers.0.1.running_var f4 [16]
0	0x3fac31f6	1.3452747
1	0x3fad5e03	1.3544315
2	0x3f40427a	0.75101435
3	0x40cdc471	6.4302297
4	0x3f304633	0.68857116
5	0x3f2b4d33	0.6691467
6	0x3f58b858	0.84656286
7	0x3eb4b729	0.3529599
8	0x3f38693b	0.7203557
9	0x3fcfef36	1.6244876
10	0x3f858bac	1.043325
11	0x40161ccc	2.3455076
12	0x3f677a54	0.9042103
13	0x40b02ab5	5.5052133
14	0x3fcc388c	1.5954757
15	0x3efcc802	0.49371344

model_cnn.conv_layers.1.0.weight f4 [32, 16, 3]
0	0xbc4e3f1a	-0.012588287
1	0x3dc9df1c	0.09857008
2	0xbd8846ef	-0.066541545
3	0xbd57dc6e	-0.052700453
4	0xbdf2c194	-0.11853328
5	0x3d80e12f	0.0629295
6	0x3db7919b	0.08963319
7	0xbd53d78b	-0.05171923
8	0xbdb15ad6	-0.08659904
9	0xbc8922a7	-0.016740156
10	0xbc1aa772	-0.009439336
11	0x3cd838d5	0.026394287
12	0xbe01c1eb	-0.1267163
13	0x3da61c74	0.08110896
14	0x3e00f54e	0.12593576
15	0x3d59dbd1	0.05318815
16	0xbc9c316f	-0.01906654
17	0xbaa02972	-0.0012219383
18	0xbcb00611	-0.021487268
19	0x3d1f3439	0.038868163
20	0x3e0049fe	0.12528226
21	0xbdd006d0	-0.101575494
22	0xbcf8375f	-0.03029984
23	0x3dc6629d	0.09686778
24	0x3c47008a	0.012146125
25	0x3df47636	0.119366094
26	0xbe1e5fae	-0.15466186
27	0x3d146936	0.03623315
28	0x3c058733	0.00814991
29	0xbd5a4cf9	-0.053296063
30	0xbdfcf216	-0.12350862
31	0x3c0eb03d	0.008709011
32	0x3e0746ae	0.13210556
33	0x3dd50dbc	0.1040301
34	0xbdef4231	-0.11682547
35	0x3daa044a	0.08301599
36	0xbdd62247	-0.10455757
37	0x3dec59c6	0.115405604
38	0x3abc2570	0.0014354419
39	0x3adf5a17	0.0017040399
40	0x3e118250	0.14209867
41	0xbdde3038	-0.10849041
42	0xbe0bdec1	-0.13659193
43	0xbd87934e	-0.06619893
44	0xbd420cf2	-0.047375627
45	0xbdd3d181	-0.10342694
46	0xbbd140bf	-0.006385892
47	0xbdea42ec	-0.114385456
48	0x3d3d6c59	0.046245907
49	0xbd2bd8ba	-0.041954733
50	0x3d9d29b1	0.07673968
51	0x3d934010	0.07189953
52	0x3e061c9a	0.13096848
53	0xbdc3ff8d	-0.09570227
54	0xbd220cd6	-0.039563023
55	0xbcc31e07	-0.02381803
56	0xbe09ec08	-0.13468945
57	0x3de282e3	0.11060121
58	0x3da50e66	0.08059387
59	0x3dbe6609	0.092968054
60	0xbccef513	-0.025263345
61	0xbd6ddcc8	-0.05807188
62	0x3dacdb12	0.08440222
63	0x3cfb6595	0.030688087
64	0x3d1644fb	0.03668688
65	0xbbf1c559	-0.007378262
66	0xbe0a6a77	-0.13517176
67	0x3dac6d3a	0.08419271
68	0xbdc71577	-0.09720891
69	0x3df88ba7	0.121360116
70	0xbbc23680	-0.005926907
71	0xbc95c063	-0.018280214
72	0x3cd5ff1f	0.026122628
73	0x3d14c753	0.036322903
74	0x3e010536	0.12599644
75	0xbd2d2aed	-0.042277265
76	0x3d9f4e8a	0.07778652
77	0x3d93f5a7	0.07224589
78	0xbc622860	-0.013803571
79	0xbe0547a1	-0.13015606
80	0xbce7c6ba	-0.028293002
81	0x3dc9513c	0.09829947
82	0xbe08bd97	-0.13353573
83	0x3c61762c	0.0137610845
84	0xbd86231e	-0.06549667
85	0xbd5ae6aa	-0.053442635
86	0x3e03e162	0.12878945
87	0xbc99309d	-0.018699938
88	0x3d48d960	0.04903543
89	0x3cc08f73	0.023505902
90	0xbde270a8	-0.11056644
91	0xbe1f915c	-0.15582794
92	0xbdc673fc	-0.09690091
93	0xbcd48f7e	-0.025947329
94	0xbd6b2cea	-0.05741588
95	0xbca76bd0	-0.020437151
96	0x3d8d1bdf	0.068900816
97	0x3a732a24	0.0009275994
98	0x3cc9494e	0.024571087
99	0xbda1d8f8	-0.07902712
100	0x3dc2677b	0.094923936
101	0xbd87341c	-0.06601736
102	0xbc70b0b8	-0.0146905705
103	0x3d96e612	0.07368101
104	0x3dfce45f	0.12348246
105	0xbda7608b	-0.08172711
106	0xbe0a9246	-0.13532361
107	0xbe029199	-0.12750854
108	0x3cbf0987	0.023319973
109	0x3d76e459	0.060276363
110	0xbd85f332	-0.065405264
111	0xbde8432b	-0.11340936
112	0xbcab4c78	-0.020910487
113	0xbcfae108	-0.030624881
114	0xbdbd8b9e	-0.092551455
115	0xbe0d4bec	-0.13798493
116	0xbdc47a20	-0.09593606
117	0x3c696e9b	0.014247562
118	0x3dbad266	0.091221616
119	0xbdc4e763	-0.09614446
120	0xbd7bd511	-0.061482493
121	0xbdf2f37d	-0.11862848
122	0x3d6c47ed	0.05768578
123	0x3b705a1e	0.0036674808
124	0x3dc2d3a4	0.095130235
125	0x3ceeb608	0.029139534
126	0xbce28b4d	-0.027654314
127	0x3e00127f	0.12507056
128	0x3db96773	0.090529345
129	0x3e10ecb6	0.14152798
130	0xbdc6bb38	-0.09703678
131	0x3d92c6a8	0.07166797
132	0xbde3db52	-0.111258164
133	0xbdde7a9d	-0.108632304
134	0x3db81d2f	0.08989941
135	0x3d8fd4f2	0.07023038
136	0xbdadc34f	-0.08484518
137	0xbdb682b8	-0.089116514
138	0xbdabbed1	-0.08386005
139	0x3dd35a38	0.10319942
140	0x3d15cd34	0.03657265
141	0x3c3721f8	0.011177532
142	0xbdc9516c	-0.09829983
143	0x3d39a9f7	0.045328107
144	0xbd2c6666	-0.042089842
145	0x3d952445	0.072823085
146	0x3c518705	0.012788539
147	0x3d9a2dfe	0.075283036
148	0xbd1f3118	-0.03886518
149	0x3b858025	0.004074114
150	0xbdbff309	-0.09372527
151	0x3d1c409c	0.038147554
152	0x3b7d856f	0.003868427
153	0xbe03c16c	-0.12866753
154	0x3d7a65a3	0.061132085
155	0x3d1a9e87	0.03774884
156	0x3dc34c86	0.0953608
157	0x3d85eed6	0.06539695
158	0x3c91a5bc	0.017779224
159	0x3de0d39b	0.109778605
160	0xbdf327d2	-0.118728295
161	0x3d35a108	0.044343024
162	0x3df7a2e3	0.12091615
163	0x3ae83e76	0.001771881
164	0x3df42932	0.1192192
165	0x3d3abc0b	0.045589488
166	0x3dd81736	0.10551302
167	0x3de7b344	0.11313489
168	0x3d9868e6	0.07441883
169	0x3c828b4b	0.01593556
170	0xbdfa3cfe	-0.122186646
171	0xbd52cc3c	-0.051464304
172	0xbdffb080	-0.124848366
173	0xbcc0d41c	-0.023538642
174	0x3dcea48f	0.10089981
175	0x3db58dd0	0.08864939
176	0x3cbe04ee	0.02319571
177	0xbe0c0956	-0.13675436
178	0x3da6009f	0.08105587
179	0x3d64da25	0.0558721
180	0xbdadbfd5	-0.08483855
181	0xbe0acc27	-0.1355444
182	0xbdac94ff	-0.08426856
183	0x3d0314f1	0.032002393
184	0xbdb82721	-0.08991838
185	0xbde04c72	-0.10952081
186	0xbde703b4	-0.11280003
187	0xbd9a7282	-0.07541372
188	0xbc97c510	-0.018526584
189	0x3e01372c	0.12618703
190	0xbdb3a17b	-0.08771034
191	0xbe022c06	-0.12712106
192	0x3e01f815	0.12692292
193	0x3db3c09d	0.087769724
194	0x3d260aa5	0.040537495
195	0xbdc647e1	-0.096816786
196	0x3dcb6b04	0.09932521
197	0x3d4ff40a	0.050769843
198	0x3c89fa43	0.016842967
199	0x3db894b5	0.090127386
200	0x3d13e2e2	0.036105044
201	0x3dbc57d1	0.09196437
202	0xbd1f1b25	-0.038844246
203	0x3dbd458a	0.09241779
204	0xbd910042	-0.07080127
205	0x3d02e9da	0.0319613
206	0xbdab7eef	-0.0837382
207	0xbe0ec297	-0.13941418
208	0xbe13f79c	-0.14449924
209	0xbdedde92	-0.116147175
210	0x3da82f14	0.082121044
211	0x3e25eff9	0.16204824
212	0x3dcec233	0.10095634
213	0x3c71f040	0.014766753
214	0x3b25238d	0.0025198192
215	0x3d15f9a4	0.03661503
216	0x3e0c6514	0.13710433
217	0x3d9cad11	0.07650197
218	0xbdacf464	-0.08445051
219	0xbda36dee	-0.07979952
220	0x3df93cc2	0.12169792
221	0x3da52601	0.08063889
222	0xbe01d190	-0.12677598
223	0xbde8f228	-0.11374313
224	0x3db27dc3	0.087153934
225	0xbd930138	-0.07177967
226	0x3de0ee4e	0.10982953
227	0x3da77c00	0.08177948
228	0xbddcd08d	-0.107819654
229	0x3d2b88c4	0.041878477
230	0xbc80b991	-0.015713485
231	0xbe08a71c	-0.13344997
232	0x3d292c92	0.04130227
233	0x3cd43ff4	0.025909401
234	0x3cf40ef6	0.02979229
235	0xbdf3bf24	-0.119016916
236	0xbd08adcc	-0.03336887
237	0xbca763bf	-0.020433305
238	0xbdcf774f	-0.10130178
239	0x3dc174db	0.094461165
240	0xbd415a5e	-0.04720532
241	0x3d62d6b5	0.05538054
242	0xbd34f0f3	-0.0441751
243	0xbdce396e	-0.100695476
244	0xbd0136f6	-0.031546555
245	0x3cff768b	0.031184455
246	0x3dd910d4	0.10598913
247	0x3cb8a5ae	0.02253994
248	0x3dce6d04	0.10079387
249	0x3d933a49	0.071888514
250	0xbdc1bd67	-0.09459954
251	0x3ba07cae	0.0048976755
252	0x3e0d9c03	0.13829045
253	0xbd2689bd	-0.0406587
254	0x3d85b46a	0.06528552
255	0x3e0e91d5	0.13922818

model_cnn.conv_layers.1.0.bias f4 [32]
0	0xbb184f73	-0.0023240715
1	0x3d854c9f	0.06508755
2	0xbd3e21ea	-0.04641906
3	0xbceaaf37	-0.028648002
4	0xbae01a9e	-0.0017097776
5	0x3d8ff1aa	0.07028516
6	0xbd3d4038	-0.046203822
7	0x3a247442	0.0006273427
8	0x3a0008de	0.0004884134
9	0x3d19f713	0.037589144
10	0xbd3c2b8a	-0.04593996
11	0xbdb72a26	-0.08943586
12	0xbaf27b3c	-0.0018499861
13	0xbd086814	-0.03330238
14	0xbc80fb5f	-0.015744863
15	0x3d225a27	0.039636757
16	0x3aea62cc	0.0017882227
17	0xb99dcc60	-0.00030097645
18	0x3d5f272e	0.054480724
19	0xbd9813c5	-0.07425646
20	0xbd74849a	-0.05969677
21	0x3d746da5	0.059674878
22	0x3acc805d	0.001560222
23	0x3db441a6	0.08801584
24	0x3caab354	0.020837463
25	0xbbad5c39	-0.005290535
26	0xbd509f2a	-0.05093304
27	0x3d8083cb	0.062751375
28	0xbd6132f1	-0.054980222
29	0x3d8cd0aa	0.06875737
30	0xb8ff2d66	-0.00012167804
31	0xbd0330d4	-0.032028988

model_cnn.conv_layers.1.1.weight f4 [32]
0	0x3f7df3ed	0.99200326
1	0x3f7f2fe6	0.9968246
2	0x3f825d15	1.0184656
3	0x3f7e1c6d	0.99262124
4	0x3f811ed6	1.0087535
5	0x3f82f321	1.0230447
6	0x3f810bf3	1.0081772
7	0x3f78adfc	0.9714048
8	0x3f8051e6	1.0024993
9	0x3f800884	1.0002599
10	0x3f8164c7	1.010888
11	0x3f8418c8	1.0320063
12	0x3f82c563	1.0216488
13	0x3f7ceb93	0.9879696
14	0x3f812803	1.0090336
15	0x3f7fa123	0.9985525
16	0x3f820800	1.0158691
17	0x3f81f5cb	1.0153135
18	0x3f7d345c	0.9890802
19	0x3f7db0c1	0.9909783
20	0x3f80cca5	1.0062453
21	0x3f7d3452	0.9890796
22	0x3f7eed63	0.99580973
23	0x3f807cbb	1.0038065
24	0x3f81297c	1.0090785
25	0x3f8032d5	1.0015513
26	0x3f7c176a	0.9847323
27	0x3f7fbaf3	0.99894637
28	0x3f783e6e	0.9697026
29	0x3f7f1110	0.9963541
30	0x3f809a73	1.0047134
31	0x3f7ffd2e	0.99995697

model_cnn.conv_layers.1.1.bias f4 [32]
0	0xbcb347ad	-0.021884764
1	0x3ba771d7	0.0051100063
2	0x3bf53759	0.0074834046
3	0xbd183581	-0.0371604
4	0xbb3b1b70	-0.002855029
5	0x3a62dab6	0.0008653806
6	0xbbffbc43	-0.007804425
7	0xbad7a760	-0.001645308
8	0xbb76261b	-0.0037559334
9	0x3ca950bd	0.020668382
10	0x3c9175fa	0.01775645
11	0x3c3b05f8	0.011414997
12	0x3c7873ec	0.015164357
13	0x3c2602ab	0.010132472
14	0x3ba84182	0.0051347623
15	0x3c93f482	0.018060926
16	0x3cb4e68c	0.02208259
17	0x3b8a202a	0.00421526
18	0xbb7ac40e	-0.003826383
19	0xbcb01a1d	-0.021496827
20	0xbbaf60ea	-0.005352129
21	0x3c3e9399	0.01163187
22	0xbc86b14a	-0.01644196
23	0xbbd30f85	-0.006441059
24	0x3c0b7839	0.00851255
25	0x3b548f8d	0.0032434196
26	0xbb815967	-0.003947425
27	0xbb8de313	-0.004330048
28	0xbc7e396b	-0.015516619
29	0x3cb95a78	0.022626147
30	0x3bb3ad82	0.00548333
31	0xbc12523c	-0.008930739

model_cnn.conv_layers.1.1.running_mean f4 [32]
0	0xbdd61bf6	-0.10454552
1	0x3d9a5312	0.07535376
2	0xbe7697e8	-0.24081385
3	0xbcf1659b	-0.029467395
4	0x3df4e50f	0.11957752
5	0x3ea06156	0.3132426
6	0xbee5e5c0	-0.44901848
7	0x3e1bd634	0.15218431
8	0x3d37278f	0.04471546
9	0x3d348158	0.044068664
10	0xbe13797e	-0.14401814
11	0xbe3a442c	-0.18190068
12	0xbea6d46b	-0.32583937
13	0xbcf8a8b8	-0.030353889
14	0x3d814328	0.06311637
15	0x3dc27c17	0.094963245
16	0xbca4f919	-0.02013831
17	0xbef282c1	-0.47365382
18	0x3e62947e	0.22126958
19	0xbcbcdf8a	-0.02305581
20	0x3d471fbc	0.04861425
21	0x3d9fc53a	0.0780129
22	0x3e0c5020	0.1370244
23	0x3e9e2d48	0.30893922
24	0xbe3749e5	-0.17899282
25	0xbe646208	-0.22303021
26	0x3b4ed0f4	0.0031557651
27	0x3c79993d	0.015234289
28	0x3ca36dd3	0.01994983
29	0x3e1fc10c	0.15600985
30	0xbeba1938	-0.36347365
31	0x3e92f8f6	0.28705567

model_cnn.conv_layers.1.1.running_var f4 [32]
0	0x3db3385e	0.087509856
1	0x3d2e2011	0.04251105
2	0x3d4beca1	0.049786214
3	0x3debcfed	0.11514268
4	0x3e6435b8	0.22286117
5	0x3dd6986f	0.10478293
6	0x3e0d0ca9	0.1377436
7	0x3e2645ce	0.16237566
8	0x3dac89b7	0.084247045
9	0x3d3c8d8f	0.04603344
10	0x3e103b43	0.14085107
11	0x3d54825a	0.051882125
12	0x3da691ee	0.08133303
13	0x3d54bb4d	0.051936436
14	0x3d60e3d7	0.054904785
15	0x3d285ae6	0.041102313
16	0x3d96f2b8	0.07370514
17	0x3e397792	0.18112019
18	0x3dc6bda7	0.09704142
19	0x3e49b971	0.19699647
20	0x3d902b21	0.07039476
21	0x3d280524	0.041020527
22	0x3d926e8e	0.07149993
23	0x3e3f2a18	0.18668401
24	0x3d80c81a	0.06288166
25	0x3dafbe37	0.085812025
26	0x3d6f62bd	0.058443774
27	0x3cdbe395	0.026841918
28	0x3da8a807	0.08235174
29	0x3db3c76b	0.0877827
30	0x3dd57ba8	0.10423976
31	0x3e6f85f8	0.23390949

model_cnn.conv_layers.3.0.weight f4 [64, 32, 3]
0	0x3da7d738	0.081953466
1	0x3d56cdd8	0.0524424
2	0xbd5e266b	-0.054235857
3	0x3da7b4ad	0.08188758
4	0xbda6e49c	-0.081490725
5	0x3d162e20	0.036665082
6	0x3d5fffe8	0.05468741
7	0xbc191a26	-0.009344613
8	0xbd9a95e1	-0.075481184
9	0x3d4d56af	0.050131496
10	0xbdb7608b	-0.08953961
11	0x3ceb6be4	0.02873797
12	0x3db05f1b	0.0861189
13	0x3df4b840	0.119492054
14	0x3c804f29	0.015662747
15	0x3da56597	0.08076017
16	0x3dd328ef	0.10310542
17	0xbcfb2a10	-0.030659705
18	0xbc2a76f2	-0.010404335
19	0xbd9343ce	-0.07190667
20	0xbdaf93c3	-0.08573105
21	0x3dbe9d54	0.09307352
22	0xbd2507a1	-0.04029048
23	0x3afffe45	0.0019530734
24	0x3d242dc2	0.0400827
25	0xbd8e21e2	-0.069400564
26	0xbd8772e7	-0.06613713
27	0x3d52a17a	0.051423527
28	0x3c714a16	0.014727136
29	0xbd09fd8d	-0.03368907
30	0xbc04e7a2	-0.008111866
31	0xbcac0520	-0.020998538
32	0xbbd022f2	-0.006351822
33	0xbd8057c9	-0.06266744
34	0x3b02e754	0.0019974308
35	0x3d928efe	0.0715618
36	0xbdef02db	-0.116704665
37	0xbdb373ff	-0.08762359
38	0xbde68741	-0.112562664
39	0x3c9edf4c	0.019393586
40	0xbd05ff39	-0.032714102
41	0x3c2938fd	0.0103285285
42	0x3d20b634	0.039236262
43	0x3d8e06d7	0.06934898
44	0xbce45fae	-0.027877655
45	0xbc2a3fea	-0.010391215
46	0xbdb9afbd	-0.090667225
47	0xbd7ba98e	-0.061440997
48	0xbd020221	-0.03174031
49	0xbce3000e	-0.027709987
50	0xbd26b93d	-0.040704
51	0x3cf5ff32	0.030028913
52	0xbb69e1c3	-0.0035687543
53	0x3d091d06	0.033474945
54	0x3b2534fa	0.0025208578
55	0x3db5b948	0.0887323
56	0xbd3b93f0	-0.04579538
57	0x3d548e91	0.051893774
58	0xbd2ddcce	-0.042446904
59	0xbc4149ed	-0.01179741
60	0x3da65873	0.08122339
61	0xbc8422f2	-0.016129944
62	0x3ca30893	0.01990155
63	0x3cd4d98a	0.025982637
64	0x3d88366d	0.06651006
65	0x3d18699f	0.037210103
66	0xbd8eeb02	-0.06978418
67	0xbd9480ff	-0.072511666
68	0xbb316b72	-0.00270721
69	0xbc2a6368	-0.010399677
70	0x3d9df42b	0.07712587
71	0xbc8b6df8	-0.01702021
72	0x3dc9ff9d	0.098632075
73	0x3dcea673	0.100903414
74	0x3df24723	0.118299745
75	0x3b76407c	0.0037575057
76	0xba93783e	-0.0011251045
77	0x3d425a1c	0.047449216
78	0xbc0e911c	-0.008701589
79	0xbd6c838d	-0.057742644
80	0xbda3b15a	-0.079928115
81	0xbbcd31af	-0.0062620263
82	0x3ced9bde	0.029004987
83	0x3dcd2e4b	0.10018595
84	0x3d832926	0.06404333
85	0xbd9004b6	-0.070321485
86	0xbdae8f0c	-0.08523378
87	0xbc06600e	-0.008201612
88	0xbd215ddb	-0.03939615
89	0x3c0bc00f	0.008529677
90	0xbdf492c0	-0.11942053
91	0xbddbc93d	-0.107317425
92	0x3afa2e17	0.0019087222
93	0xbce96917	-0.028492494
94	0xbd4c8b76	-0.049937688
95	0x3cd487fe	0.025943752
96	0xbce02321	-0.0273605
97	0xbd651ea2	-0.055937417
98	0x3da6c5ec	0.08143219
99	0xbd89a5ea	-0.06721099
100	0xbdd1bac1	-0.102406986
101	0x3c369517	0.011143944
102	0x3cefa795	0.029254714
103	0x3baaa545	0.00520769
104	0xbd9552e1	-0.072911985
105	0xbc347925	-0.011015211
106	0xbc5a3524	-0.013318334
107	0x3cd32eba	0.025779117
108	0xbd8caf6c	-0.068693966
109	0x3d0d0d4d	0.034436513
110	0x3bec435d	0.0072101788
111	0x3dc43f6d	0.0958241
112	0x3d4eba18	0.05047044
113	0x3d094da2	0.033521302
114	0x3d3e46ca	0.04645423
115	0xbdad6ed6	-0.08468406
116	0x3d3ab66f	0.04558414
117	0x3dacf322	0.084448114
118	0xbc9601a1	-0.018311324
119	0xbd8f3bdd	-0.0699384
120	0x3d188d0f	0.0372439
121	0x3dc8e049	0.09808404
122	0x3db3a278	0.08771223
123	0xbc08e028	-0.008354224
124	0x3d979ace	0.074025735
125	0x3c647711	0.013944403
126	0x3c12c4bf	0.008958041
127	0xbdbac4ee	-0.091195926
128	0xbd6794cd	-0.05653839
129	0x3d3e34ea	0.04643718
130	0x3dd4ebf5	0.10396568
131	0xbda143ca	-0.07874258
132	0xbd0510bd	-0.032486666
133	0x3dca05d8	0.09864396
134	0x3cd64c69	0.026159482
135	0x3ba1e856	0.0049410267
136	0xbda81493	-0.08207049
137	0x3dab3ed8	0.08361596
138	0x3cb5605e	0.022140678
139	0xbb0cfb6e	-0.0021512168
140	0x3db61a22	0.08891703
141	0xbc8031b3	-0.015648698
142	0xbc467d73	-0.01211487
143	0xbd233957	-0.039849605
144	0xbdac8d04	-0.08425334
145	0x3d83f7d7	0.06443756
146	0xbe017207	-0.12641154
147	0x3daa120d	0.08304224
148	0xbcacb188	-0.021080747
149	0x3daa26e2	0.083081976
150	0x3d2f9dc1	0.042875055
151	0xbd6b6de3	-0.057477843
152	0xb99640dc	-0.00028658553
153	0x3d207341	0.039172415
154	0xbdb3711c	-0.08761808
155	0xbdac3bf3	-0.08409872
156	0x3d88d8ec	0.066819996
157	0xbd92de58	-0.07171315
158	0x3bbe6eca	0.005811547
159	0x3be74368	0.007057596
160	0xbdb470cb	-0.08810576
161	0xbdd83870	-0.105576396
162	0x3c8bfe40	0.01708901
163	0xbd91c9b4	-0.0711855
164	0xbc4a3393	-0.012341398
165	0x3da7336f	0.08164107
166	0x3ca8a360	0.020585716
167	0xbc939198	-0.01801376
168	0xbdc42db7	-0.09579032
169	0xbbdef5ba	-0.006804195
170	0x3d77b12a	0.06047169
171	0xbd3fe30a	-0.04684738
172	0x3d9d26a8	0.07673389
173	0xbd0c027c	-0.034182057
174	0xbd088aa6	-0.03333535
175	0x3da6ef2f	0.081510894
176	0x3bc1134b	0.0058921925
177	0xbd4ebb2a	-0.050471462
178	0x3c246a1d	0.010035065
179	0xbd96f071	-0.07370079
180	0xbc24d976	-0.010061612
181	0x3d4d13ba	0.05006764
182	0x3d8a5593	0.06754603
183	0xbd30f2b5	-0.043200213
184	0xbd3cbb83	-0.046077263
185	0xbdb0da62	-0.08635403
186	0x3c4c9454	0.012486536
187	0xbdbc5290	-0.09195435
188	0xbd3bfcd8	-0.045895427
189	0xbda58da0	-0.080836535
190	0x3d958ba9	0.07302029
191	0xbdbba2dd	-0.09161923
192	0x3dbe6c42	0.09297992
193	0x3d691b8f	0.056911048
194	0xbd9cbb93	-0.076529644
195	0x3da7f584	0.08201125
196	0xbd42683a	-0.04746268
197	0xbd69246a	-0.056919493
198	0x3d09fd28	0.033688694
199	0x3dbdadf1	0.09261692
200	0x3dbe2c39	0.092857786
201	0x3b58eb31	0.003309917
202	0x3bdee3cd	0.0068020583
203	0xbd90cf1c	-0.07070753
204	0xbc90da60	-0.017682254
205	0x3db8872f	0.09010159
206	0xbda6e25a	-0.08148642
207	0xbca03df2	-0.019560788
208	0xbd63bd4c	-0.05560045
209	0x3ad6259a	0.001633811
210	0x3d5b862a	0.053594746
211	0xbc54303f	-0.012950956
212	0xbc8efb75	-0.017453888
213	0xbd79cde0	-0.060987353
214	0xb996bd7e	-0.00028751412
215	0xbc91b0ef	-0.017784564
216	0x3d1537c4	0.036430135
217	0x3dd4be0f	0.10387813
218	0xbd56df2d	-0.05245893
219	0x3cd80740	0.026370645
220	0x3ddb7d34	0.1071724
221	0x3d2a5270	0.041582525
222	0x3ddf4a49	0.10902841
223	0xbcb9aaf4	-0.022664525
224	0xbd0ced30	-0.034405887
225	0x3d8d3c26	0.06896238
226	0x3d90d612	0.07072081
227	0xbd88d327	-0.06680899
228	0x3a4667cc	0.00075685675
229	0x3dc0b2a5	0.09409074
230	0x3d545e83	0.051847946
231	0xbd3df815	-0.046379168
232	0xbc15b616	-0.009137651
233	0x3dadbb7d	0.08483026
234	0xbd943b7e	-0.0723791
235	0x3da14dac	0.07876143
236	0x3d9686eb	0.07349952
237	0x3d298bb9	0.041393016
238	0xbc017594	-0.007901568
239	0xbd14d3bd	-0.03633474
240	0xbd96ab35	-0.07356874
241	0x3d0496ef	0.032370504
242	0x3dc750b7	0.09732192
243	0xbb41a9e8	-0.0029550735
244	0xbda7c6ed	-0.08192239
245	0xbd496f6c	-0.049178526
246	0xbd1ce162	-0.03830088
247	0xbd2c4c63	-0.042065036
248	0xbd633f64	-0.055480376
249	0x3c0a4cb8	0.008441143
250	0x3d344a5d	0.04401623
251	0x3cc0c5fe	0.02353191
252	0x3dc8397a	0.09776588
253	0x3d8cf3b8	0.06882423
254	0xbc07a75f	-0.0082796505
255	0x3df411a3	0.119174264

model_cnn.conv_layers.3.0.bias f4 [64]
0	0xbad8d938	-0.0016544228
1	0x3c974633	0.01846609
2	0x3a8fc7ff	0.0010969638
3	0xbd206817	-0.039161768
4	0x3b98bfb2	0.0046615237
5	0x3bbfd76e	0.0058545386
6	0x3a2e0fbd	0.00066399184
7	0xbd515601	-0.05110741
8	0xbd5bacc4	-0.05363156
9	0x3d60a72b	0.054846924
10	0xb99e46b6	-0.00030188792
11	0x3cc9603f	0.024582027
12	0x3a9ed6ac	0.001211842
13	0x3a1b125b	0.0005915516
14	0xbcb20c12	-0.021734271
15	0xbd570b55	-0.05250104
16	0x38b7b2b2	8.7594046e-05
17	0xb6717ace	-3.598328e-06
18	0x3bc3ff3d	0.0059813545
19	0x39fe99dc	0.0004856129
20	0xbcce5266	-0.025185775
21	0xbd01e7fc	-0.03171538
22	0x3c98b928	0.018642977
23	0xbb38702c	-0.0028143032
24	0x3ca96525	0.020678112
25	0x3aee3087	0.0018172421
26	0x3a4266bc	0.00074158213
27	0x38caa049	9.661966e-05
28	0x3cb2a4b7	0.021807058
29	0xba14d5c1	-0.0005677604
30	0xbd0d8c05	-0.03455736
31	0xbd469ce9	-0.048489485
32	0x3b5dfdb5	0.0033873145
33	0xbd6a6164	-0.057221785
34	0x3aed3dd0	0.0018100087
35	0xbd26c5bc	-0.040715918
36	0xbc44c65a	-0.012010181
37	0xbd63a9ce	-0.05558186
38	0xbc05f759	-0.008176648
39	0xbd26e69f	-0.04074728
40	0xbca2b5d4	-0.019862093
41	0xbd5838d0	-0.052788556
42	0xbabcd003	-0.0014405254
43	0xbcf972a1	-0.030450167
44	0x39fd1e80	0.00048278645
45	0xbd5c028e	-0.053713374
46	0x3c8dd919	0.017315434
47	0xbd090002	-0.033447273
48	0xbca12673	-0.019671654
49	0x388f8b96	6.844771e-05
50	0xba039a53	-0.00050202495
51	0xbba7e651	-0.0051238914
52	0xbd445ba7	-0.04793897
53	0xbb4eef2f	-0.003157567
54	0x3d344e13	0.04401977
55	0xbd6b1bd7	-0.057399597
56	0xb9fc3867	-0.0004810721
57	0x3785b7a8	1.5940357e-05
58	0xb827a807	-3.997239e-05
59	0xbd4b705b	-0.049667697
60	0x3a1a3b89	0.0005883505
61	0x3d1fe71a	0.039038755
62	0x3c52943d	0.012852726
63	0x39034d6b	0.00012521974

model_cnn.conv_layers.3.1.weight f4 [64]
0	0x3f7e6f37	0.9938845
1	0x3f837783	1.0270847
2	0x3f77952d	0.96712
3	0x3f82dba7	1.0223283
4	0x3f83195d	1.0242115
5	0x3f83828e	1.0274217
6	0x3f829ec3	1.02047
7	0x3f825ffe	1.0185544
8	0x3f7af62d	0.98031884
9	0x3f7ad2a8	0.97977686
10	0x3f7f6cfe	0.99775684
11	0x3f7e38cd	0.9930542
12	0x3f8024bf	1.0011214
13	0x3f8280b5	1.0195528
14	0x3f7a2b51	0.97722346
15	0x3f7af077	0.9802317
16	0x3f804418	1.002078
17	0x3f7be0df	0.9839
18	0x3f74f965	0.95693046
19	0x3f7c3ad3	0.9852726
20	0x3f7c2dca	0.9850737
21	0x3f805d1c	1.0028415
22	0x3f80a638	1.0050726
23	0x3f80034d	1.0001007
24	0x3f80ca88	1.0061808
25	0x3f845d16	1.0340908
26	0x3f81e709	1.0148631
27	0x3f822f9b	1.0170778
28	0x3f7d179c	0.9886415
29	0x3f7aa077	0.979011
30	0x3f7b7168	0.9821992
31	0x3f811e50	1.0087376
32	0x3f83e078	1.0302877
33	0x3f8266f9	1.0187675
34	0x3f7ca2ab	0.9868571
35	0x3f8510d1	1.0395757
36	0x3f767bd4	0.96282697
37	0x3f832d6e	1.0248239
38	0x3f7abf23	0.979479
39	0x3f7a9a95	0.97892123
40	0x3f81e7a9	1.0148822
41	0x3f7b13f3	0.98077315
42	0x3f83bfef	1.0292948
43	0x3f7a369a	0.97739565
44	0x3f86b0d6	1.0522716
45	0x3f76a49b	0.9634492
46	0x3f7879af	0.97060674
47	0x3f81d552	1.0143225
48	0x3f7a5a48	0.9779401
49	0x3f775ae5	0.9662307
50	0x3f7ad6b6	0.9798387
51	0x3f7ef57f	0.9959335
52	0x3f812a4d	1.0091034
53	0x3f83eac6	1.0306022
54	0x3f82cf4b	1.0219511
55	0x3f7ec6ab	0.99521893
56	0x3f7d94dd	0.9905527
57	0x3f7f5ba5	0.99749213
58	0x3f818234	1.011786
59	0x3f7eb3a4	0.9949286
60	0x3f7a1ea9	0.97703034
61	0x3f7d4644	0.9893534
62	0x3f76cd1d	0.9640673
63	0x3f8371ce	1.0269105

model_cnn.conv_layers.3.1.bias f4 [64]
0	0x3b590524	0.0033114636
1	0x3bb09928	0.0053893514
2	0xbcb92842	-0.022602204
3	0x3cc01658	0.023448154
4	0x3cbec4c2	0.02328718
5	0x3c390542	0.0112927575
6	0x3c5a071c	0.013307359
7	0x3ca73316	0.020410102
8	0xbbb0d0e6	-0.0053959964
9	0xbb6169f7	-0.0034395435
10	0xba87b88b	-0.0010354681
11	0xbc003f94	-0.007827658
12	0xbc927446	-0.01787771
13	0xbc6cdd3b	-0.014457042
14	0xbcdbd7af	-0.026836244
15	0xbc916edd	-0.017753059
16	0xbaf7e7ac	-0.0018913648
17	0x3b68561a	0.003545171
18	0x3aefd81a	0.0018298656
19	0xbc46ae9e	-0.012126593
20	0xbcb31500	-0.0218606
21	0x3ba76c88	0.0051093735
22	0xbc8d6c15	-0.017263452
23	0xbc8a0163	-0.016846364
24	0x3c4fd6d1	0.012685494
25	0x3cb52721	0.022113385
26	0x3ccceb8a	0.025014658
27	0x3beb3362	0.007177756
28	0x3c62f5ec	0.013852578
29	0xbc43fe1c	-0.01196244
30	0xbba2c0ea	-0.004966845
31	0x3c17f7a1	0.009275348
32	0xbc7c64f3	-0.015404928
33	0xbc54073f	-0.012941181
34	0xbce41daa	-0.027846176
35	0x3cda1d1a	0.026625205
36	0xbbe2f266	-0.006925869
37	0x3c3f0af5	0.011660327
38	0xbc05e726	-0.008172786
39	0xbcba16d7	-0.022715969
40	0x3c4af2c5	0.012386982
41	0xbb650be2	-0.003494971
42	0x3c3ece06	0.0116457995
43	0xbd24be66	-0.04022064
44	0x3d07d328	0.03316036
45	0xbbcd4bf5	-0.0062651583
46	0xbc1e38cd	-0.009657097
47	0x3b2124f6	0.002458868
48	0x3bbdbd4b	0.0057903877
49	0xbc54501c	-0.012958553
50	0xbd0a3f29	-0.03375164
51	0x3c02c38a	0.00798119
52	0xbb79c32e	-0.003811072
53	0x3bd9dad2	0.0066484
54	0x3bfa94ea	0.0076471465
55	0xbbf130b9	-0.0073605445
56	0x3ccec6c8	0.02524127
57	0xbcc377f1	-0.023860903
58	0x3c868e6f	0.01642534
59	0x3c1422b5	0.009041478
60	0xbcad0be9	-0.021123843
61	0xbc6bed97	-0.014399908
62	0xbb6215b1	-0.0034497792
63	0x3cfd782e	0.030941095

model_cnn.conv_layers.3.1.running_mean f4 [64]
0	0xbd27d5ed	-0.0409755
1	0xbe5aedb9	-0.21379746
2	0x3ef2f771	0.47454408
3	0xbdb3def2	-0.08782758
4	0xbf39b05b	-0.7253472
5	0xbe5283ca	-0.20558086
6	0xbecce5df	-0.40019128
7	0xbf1a2a99	-0.6022125
8	0xbe994996	-0.29938954
9	0x3f7b57e4	0.98180985
10	0x3dc53404	0.09629062
11	0x3d52f41b	0.05150233
12	0x3e8c398a	0.2738765
13	0x3db1df24	0.08685139
14	0x3e8b2bbc	0.27181804
15	0x3f37d37c	0.71807075
16	0xbdfea917	-0.12434595
17	0x3f056007	0.5209965
18	0x3eba2a6d	0.36360493
19	0xbdf09fc4	-0.11749223
20	0x3e70c14b	0.23511235
21	0x3ed92f88	0.42419076
22	0xbe44fb06	-0.19236383
23	0x3daf0586	0.085459754
24	0xbe4a1224	-0.19733483
25	0xbecca031	-0.39965966
26	0xbe276833	-0.16348343
27	0xbca422ca	-0.02003612
28	0x3daf7e03	0.08568957
29	0x3e5b2d19	0.21403922
30	0xbe7b06f5	-0.24514373
31	0x3dface63	0.122463964
32	0xbe0a18bb	-0.13485996
33	0xbea121c3	-0.3147107
34	0x3e6de9d4	0.2323373
35	0xbe03ce80	-0.12871742
36	0x3eb4211c	0.3518151
37	0xbe21dba3	-0.15806441
38	0xbeaf1a22	-0.34199625
39	0x3e83d2ea	0.25746852
40	0xbe4053a8	-0.18781912
41	0x3d10dd4a	0.035367288
42	0xbe8d29e3	-0.2757102
43	0x3eb06738	0.3445375
44	0x3dec4014	0.115356594
45	0x3f021973	0.5082008
46	0x3eb2d8f6	0.34931153
47	0xbf207160	-0.62672997
48	0x3f20e861	0.6285458
49	0xbec28085	-0.37988678
50	0x3d19cecc	0.037550732
51	0xbe3ffd5e	-0.18748996
52	0xbd1e40bc	-0.038635954
53	0xbe772e40	-0.24138737
54	0x3e02478a	0.12722602
55	0xbca1bcd8	-0.019743368
56	0x3d5eb99c	0.05437623
57	0xbeecf8e4	-0.46283638
58	0xbdd6f7a8	-0.104964554
59	0x3e78e057	0.24304329
60	0x3e523c4a	0.20530811
61	0x3cd289fa	0.025700558
62	0x3eb1fc8e	0.34762996
63	0xbe7628ae	-0.24038956

model_cnn.conv_layers.3.1.running_var f4 [64]
0	0x3e990efb	0.29894242
1	0x3e908834	0.28228915
2	0x3e19f8a0	0.15036249
3	0x3e73b044	0.23797709
4	0x3e6546f0	0.22390342
5	0x3e15a172	0.14612368
6	0x3e3d7e1a	0.18505135
7	0x3da45056	0.08023135
8	0x3d8a1f93	0.067443036
9	0x3e8997c1	0.26873592
10	0x3dad75c4	0.08469728
11	0x3d97752d	0.073953964
12	0x3e4d540b	0.20051591
13	0x3dfc5346	0.12320571
14	0x3e819663	0.25310048
15	0x3eb2241d	0.34793177
16	0x3e673f3f	0.2258272
17	0x3f37366c	0.71567416
18	0x3ee58a92	0.44832283
19	0x3e30f1e6	0.17279777
20	0x3dd77685	0.10520653
21	0x3db4e7a5	0.08833245
22	0x3e1233d3	0.14277582
23	0x3e0ed617	0.13948856
24	0x3e039be0	0.1285243
25	0x3d9dce80	0.077054024
26	0x3ea8b491	0.3295026
27	0x3e39eb50	0.18156171
28	0x3d6db416	0.05803307
29	0x3e4eed53	0.2020772
30	0x3da502b9	0.0805716
31	0x3e013e74	0.1262148
32	0x3d841dba	0.064509824
33	0x3da7995e	0.08183549
34	0x3dd063e6	0.10175304
35	0x3d8d17e8	0.068893254
36	0x3ea4f0a8	0.32214856
37	0x3d80cd2e	0.06289135
38	0x3df11e27	0.11773329
39	0x3e611da5	0.21983965
40	0x3e641bba	0.22276202
41	0x3da66034	0.08123818
42	0x3dfecb3a	0.12441106
43	0x3e087fe0	0.1333003
44	0x3d890b37	0.06691592
45	0x3ebc4541	0.36771587
46	0x3eab4394	0.33449996
47	0x3dd0bc81	0.10192204
48	0x3e916240	0.2839527
49	0x3e724bd5	0.2366174
50	0x3dd20b36	0.102560446
51	0x3e1c1fd6	0.1524652
52	0x3d835b2b	0.06413873
53	0x3e04728d	0.12934323
54	0x3e813479	0.25235346
55	0x3daebef6	0.08532517
56	0x3e25e156	0.1619924
57	0x3e30f5c7	0.17281257
58	0x3e010aa3	0.12601714
59	0x3d975acf	0.07390367
60	0x3e0e421a	0.13892403
61	0x3e2d7d57	0.16942345
62	0x3e89b09c	0.26892555
63	0x3e157e0f	0.14598869

model_cnn.conv_layers.4.0.weight f4 [128, 64, 3]
0	0xbd05cea4	-0.03266777
1	0x3d082168	0.033234984
2	0x3d6efdc7	0.05834749
3	0x3c5ec06f	0.013595684
4	0x3cc54142	0.024078969
5	0xbc478174	-0.01217686
6	0xbd587484	-0.052845493
7	0xbca5d3bf	-0.02024257
8	0x3d467467	0.048450854
9	0xbd73a44f	-0.05948287
10	0x3c651305	0.013981585
11	0x3ce0e0ec	0.027451001
12	0x3d9ff359	0.07810087
13	0xbba97ae8	-0.0051721223
14	0xbcf0bd22	-0.02938706
15	0x3a8b2a92	0.0010617545
16	0xbd3ebc62	-0.046566375
17	0xbd56b843	-0.05242182
18	0x3d13f8e2	0.036126025
19	0xbd11b653	-0.03557427
20	0x3c1fd0ef	0.0097544035
21	0xbd86fcb3	-0.06591167
22	0xbdcbb461	-0.09946514
23	0xbd3239cf	-0.04351216
24	0x3d64dbe4	0.055873767
25	0xbcb7e66a	-0.022448737
26	0xbd0c299c	-0.03421937
27	0x3d27a1c7	0.040925767
28	0xbc3645aa	-0.011125008
29	0x3d0ea8e5	0.03482904
30	0xbd8b34f0	-0.067972064
31	0x3c6da369	0.014504292
32	0x3cd5de2c	0.026106916
33	0xbc9c1429	-0.019052582
34	0x3c6b4f86	0.014362222
35	0x3d0ed3a9	0.034869824
36	0xbcbe8596	-0.023257058
37	0xbbb8ff28	-0.0056456514
38	0xbc8fbe92	-0.017546926
39	0x3db1c260	0.08679652
40	0x3c62b3a4	0.013836775
41	0xbd97cc68	-0.07412034
42	0x3d3d842f	0.04626864
43	0x3c35217c	0.011055347
44	0x3b7c7109	0.0038519523
45	0x3cf9b364	0.030481048
46	0xbd2f1074	-0.0427403
47	0xba8dcc96	-0.0010818418
48	0xbc81fbc6	-0.015867125
49	0xbd5b016e	-0.05346816
50	0xbd809efb	-0.06280323
51	0x3d487583	0.048940193
52	0x3d418dc5	0.047254343
53	0x3d381145	0.044938345
54	0x3d8b8bea	0.06813796
55	0x3d3f7d8b	0.046750586
56	0x3d2557c0	0.040366888
57	0xbd075800	-0.033042908
58	0xbdab7ae0	-0.08373046
59	0xbd37bd6b	-0.044858377
60	0x3d26354c	0.04057817
61	0xbd70d1c9	-0.058793817
62	0x3c9452bb	0.018105855
63	0xbbf33bd2	-0.0074229026
64	0xbdb4d1cb	-0.08829077
65	0xbcd4e78c	-0.025989316
66	0xbc748fd0	-0.014926866
67	0xbc8f12ca	-0.017465014
68	0x3d321bdb	0.043483596
69	0x3cf9993e	0.03046858
70	0xbd81042f	-0.06299626
71	0xbd3c0a88	-0.04590848
72	0x3d2d9498	0.04237804
73	0x3c8b6f8e	0.017020967
74	0xbd7b6b88	-0.061381847
75	0x3b47e248	0.0030499864
76	0xbc51c8a3	-0.012804183
77	0xbd607e01	-0.054807667
78	0xbd8e4842	-0.06947376
79	0xbd7953f7	-0.06087109
80	0xbcdcc211	-0.026948007
81	0x3cf9f802	0.030513767
82	0xbcdb55ae	-0.026774254
83	0xbcf0f70a	-0.029414672
84	0xbd690a12	-0.05689437
85	0xbcdcc75c	-0.02695053
86	0xbd8bb2b0	-0.06821191
87	0x3d91c8dd	0.0711839
88	0x3c5cad56	0.013469061
89	0x3b6f6fcf	0.003653515
90	0xbd2919b2	-0.04128427
91	0xbd6518d5	-0.055931885
92	0x3c19187c	0.009344216
93	0xbce33497	-0.027735038
94	0x3b2c7f25	0.0026320901
95	0xbd18ba24	-0.037286893
96	0x3d892e16	0.06698243
97	0x3cbb27b4	0.02284608
98	0x3d64128f	0.05568176
99	0x3db0ce0d	0.08633051
100	0xbd14c96f	-0.036324915
101	0xbca09b99	-0.019605445
102	0xba30f1fd	-0.0006749926
103	0x3d5fb688	0.054617435
104	0xbd5097f8	-0.05092618
105	0x3d6f1200	0.058366776
106	0x3d499466	0.04921379
107	0xbd724065	-0.059143443
108	0xbd6ae8e3	-0.057351004
109	0x3d95fd44	0.07323697
110	0xbc2e55d6	-0.010640582
111	0x3d4109cf	0.047128495
112	0xbd67ee39	-0.05662367
113	0xbd50d559	-0.050984714
114	0x3d4cfdb0	0.050046623
115	0xbc5f1098	-0.013614796
116	0xbd16c3e6	-0.036807917
117	0xbb7b655f	-0.0038359982
118	0xbd888ef8	-0.06667894
119	0x3b877690	0.004134007
120	0xbc871ddc	-0.01649373
121	0x3d0ba6de	0.034094684
122	0xbd6e6799	-0.058204267
123	0x3cfe310d	0.031029249
124	0xbc0cd91b	-0.008596684
125	0x3bb1431e	0.0054096123
126	0xbc232cb5	-0.009959389
127	0xbc843b58	-0.016141579
128	0x3d95fac9	0.07323224
129	0x3d044c24	0.032299176
130	0xbcf46ceb	-0.029837092
131	0x3cd8e37a	0.026475657
132	0x3c527e43	0.012847486
133	0xbd87944a	-0.06620081
134	0x3ce86710	0.028369457
135	0x3cbd4254	0.023102917
136	0xba304d03	-0.0006725343
137	0x3d3e29d4	0.04642661
138	0x3d222384	0.03958465
139	0xbd5adeaa	-0.053435005
140	0xbd9c58a4	-0.07634094
141	0x3d801bda	0.06255312
142	0x3c26e456	0.0101862755
143	0xbc0273b7	-0.007962159
144	0x3b985840	0.004649192
145	0x3d11d11f	0.035599824
146	0xbd25e809	-0.04050449
147	0x3d124a17	0.03571519
148	0x3cff66de	0.03117698
149	0xbd3085b4	-0.04309626
150	0xbd8d7cfe	-0.06908606
151	0x3d473629	0.048635636
152	0xbcb4d439	-0.022073852
153	0x3ceba926	0.02876718
154	0xbd60efd2	-0.05491621
155	0xbba6c834	-0.005089784
156	0xbd302070	-0.042999685
157	0x3c5a9a29	0.013342419
158	0x3ccabc6c	0.02474805
159	0xbd5d665e	-0.054052703
160	0xbc9b2363	-0.018937772
161	0x3db5496e	0.08851896
162	0x3c8855c5	0.01664246
163	0xbd56f10f	-0.052475985
164	0x3bccb2b8	0.006246891
165	0x3dac3f57	0.084105186
166	0x3d860af9	0.065450616
167	0x3daa32b4	0.08310452
168	0x3c8e0a07	0.017338766
169	0xbdb48467	-0.08814316
170	0xbd990ae4	-0.0747278
171	0x3d9b5f56	0.07586543
172	0x3cfc31bb	0.030785432
173	0xbc5b7348	-0.013394184
174	0x3d8fc287	0.07019525
175	0x3c9f898d	0.019474769
176	0x3d09886a	0.03357736
177	0x3d3d47a3	0.046210896
178	0x3c829d31	0.015944095
179	0x3d34abec	0.04410927
180	0x3d9f1d1c	0.07769224
181	0xbd4d66c9	-0.05014685
182	0xbce724a1	-0.028215708
183	0x3d2b964a	0.041891374
184	0xbc4c5461	-0.012471289
185	0x3cc4dff5	0.024032572
186	0x3d097205	0.033556003
187	0xbd78cbf0	-0.060741365
188	0xbce0c683	-0.027438408
189	0x3cfe15f1	0.031016322
190	0xbcf1a06c	-0.02949544
191	0xbd57fa99	-0.052729223
192	0xbcd5eb95	-0.02611331
193	0x3d86615b	0.06561538
194	0x3d76b654	0.060232475
195	0x3d9900e8	0.07470876
196	0x3ca98b19	0.02069621
197	0xbc99d885	-0.018780002
198	0xbd15abb5	-0.036540706
199	0xbbc4ee8a	-0.0060098814
200	0xbd82ce4f	-0.063870065
201	0xbd9d1e5e	-0.07671808
202	0xbcc3689c	-0.023853593
203	0x3d8ef7fc	0.06980893
204	0x3cf04c45	0.029333243
205	0xbdab2651	-0.08356918
206	0x3d6b9609	0.05751613
207	0x3db21347	0.08695083
208	0xbd5d7fec	-0.054077074
209	0xbd57ea31	-0.052713577
210	0xbd41fb2b	-0.047358673
211	0xbd839461	-0.064247854
212	0x3c5252bf	0.012837111
213	0x3d2c14e3	0.042012107
214	0xbbdca7bf	-0.006733864
215	0xbceb2354	-0.02870337
216	0x3cdd5be2	0.027021352
217	0x3c7be97a	0.015375489
218	0xbd8e0e77	-0.06936353
219	0xbd45e115	-0.048310358
220	0x3d70ebd1	0.058818642
221	0xbd73b8d2	-0.05950243
222	0xbc1e570c	-0.009664308
223	0xbd93f943	-0.07225277
224	0x3d91d675	0.071209826
225	0xbd8ba0d8	-0.06817788
226	0xbc8bbe57	-0.017058535
227	0xbd2f6b1d	-0.04282676
228	0xbd9b264a	-0.075756624
229	0x3c03bf00	0.008041143
230	0x3d81be63	0.063351415
231	0x3d3148e9	0.043282423
232	0x3cb2f142	0.021843556
233	0x3d5de47c	0.054172978
234	0x3d1096b1	0.03529996
235	0x3cf98258	0.03045766
236	0xbd028363	-0.03186358
237	0xbd6ea8b8	-0.05826637
238	0x3d36388e	0.04448753
239	0xbc8401be	-0.016114112
240	0xbd23c61e	-0.03998386
241	0xbd1da984	-0.03849174
242	0xbd80262d	-0.062572815
243	0xbd2c286e	-0.042030744
244	0x3ce98108	0.02850391
245	0xbd7c9eed	-0.061675
246	0x3c0c0edf	0.008548467
247	0x3d83f7ed	0.064437725
248	0xbc49f43f	-0.012326299
249	0x3db0eaba	0.086385205
250	0x3b908de2	0.004411445
251	0xbc0d7ef8	-0.008636229
252	0xbc9c04e4	-0.0190453
253	0xbd146ff6	-0.036239587
254	0xbd3206f2	-0.043463655
255	0xbd808357	-0.06275051

model_cnn.conv_layers.4.0.bias f4 [128]
0	0xb8473566	-4.749503e-05
1	0x3bbae332	0.0057033533
2	0xbcd95953	-0.02653185
3	0xbc1ccf90	-0.009570971
4	0x3756a7df	1.27944795e-05
5	0xbb3a6fae	-0.0028447914
6	0x3cd1b857	0.025600595
7	0x39773f89	0.00023579424
8	0xba9c60bf	-0.0011930688
9	0x3c16ac74	0.0091963895
10	0x3cc75ee2	0.024337236
11	0x39a7805b	0.00031948354
12	0xb8925123	-6.9769354e-05
13	0xbc7fd70b	-0.015615235
14	0x3cea2ece	0.028586771
15	0x3c79eb6d	0.015253884
16	0x3c932e5b	0.01796644
17	0x3cdf4600	0.027255058
18	0xbbf6da96	-0.0075333817
19	0x399273e7	0.00027933644
20	0xbc99a1fc	-0.018753998
21	0x3c56d038	0.013111167
22	0x3ce2249e	0.027605351
23	0x3ca722fc	0.020402424
24	0xbafb621f	-0.0019179023
25	0x3af08caa	0.0018352468
26	0x3b60972d	0.0034269795
27	0x3ba160b0	0.004924856
28	0xbacb4308	-0.0015507648
29	0x39f2dd98	0.00046322937
30	0xb866bbac	-5.5011056e-05
31	0x3aec6f49	0.0018038537
32	0xb9ab5cf7	-0.00032684926
33	0xbc965d81	-0.018355133
34	0xb96e0265	-0.00022698341
35	0xba391287	-0.0007059951
36	0xb7aa5cea	-2.0308846e-05
37	0x3888849c	6.509686e-05
38	0x3c41d89f	0.011831432
39	0x3a1f8ce9	0.0006086366
40	0xb72f34fc	-1.0443149e-05
41	0x3c68631f	0.014183789
42	0x3c5a980a	0.013341913
43	0xba0b80d6	-0.0005321627
44	0x39a6de74	0.00031827728
45	0xbccc27d1	-0.02492133
46	0xbaebeff9	-0.0018000595
47	0x3b06babb	0.0020558077
48	0x3af8d830	0.0018985327
49	0x3a34cb7f	0.00068967784
50	0xb8dd713c	-0.00010559193
51	0xbbff124a	-0.0077841626
52	0x3ce5d2bb	0.028054586
53	0x3ae79f33	0.0017671346
54	0x3c8c62d5	0.01713697
55	0x3c867e11	0.016417535
56	0x3cebb1de	0.028771337
57	0x38e86f8b	0.000110833986
58	0xbca8f247	-0.02062334
59	0x3a3c07a9	0.00071727723
60	0xbaf0b81c	-0.0018365416
61	0xb9a539ca	-0.0003151431
62	0x3c75dd81	0.015006424
63	0x3be2c324	0.006920235
64	0xb9e61e11	-0.0004389142
65	0xb9e235f4	-0.00043146277
66	0xbaa525d6	-0.0012599777
67	0xbc17798e	-0.0092452895
68	0x3b5bed19	0.003355807
69	0xbcade4c7	-0.021227254
70	0xbc8a3648	-0.016871586
71	0xbb10dd43	-0.0022104539
72	0xbca6764e	-0.020320084
73	0xbab7f707	-0.0014035412
74	0x3929cccb	0.00016193387
75	0x39229656	0.00015505528
76	0x3c0d2538	0.008614831
77	0x3bf47eca	0.0074614035
78	0xbb2eabd2	-0.0026652706
79	0x3928d373	0.000161005
80	0xbac43b97	-0.0014971372
81	0x3c781ae8	0.015143134
82	0x3a0313fa	0.000500023
83	0x3c21aa4f	0.009867265
84	0xbcb4ffd8	-0.022094652
85	0x3a32d286	0.00068215316
86	0xbce61efd	-0.028090948
87	0xbae5036a	-0.0017472331
88	0xbafacdd7	-0.0019134831
89	0xb9395ec0	-0.00017678272
90	0xb9997ab2	-0.0002927385
91	0x3ca8d737	0.020610435
92	0x3c88e875	0.016712407
93	0xbac70d24	-0.0015186411
94	0x3b8cf7ef	0.004302017
95	0xbc71aaff	-0.014750241
96	0xbc58a8bd	-0.013223824
97	0xb9881dbf	-0.00025962104
98	0x3aea2278	0.0017863056
99	0x3ac871dd	0.0015292723
100	0x3c468738	0.0121172
101	0x3901431e	0.00012327402
102	0xba6c0d63	-0.00090046803
103	0x3bea1320	0.007143393
104	0x3bebe200	0.007198572
105	0x3c3158c5	0.010824387
106	0x3b52cab9	0.003216429
107	0xbb1ba536	-0.0023749596
108	0x3bf983cc	0.0076145884
109	0x3a9df7b7	0.0012051974
110	0xbbef4b6f	-0.0073026936
111	0xbc45d774	-0.012075294
112	0x3cb34837	0.02188502
113	0xb836c00b	-4.3571035e-05
114	0xb90852bb	-0.0001300079
115	0x3ceaff4f	0.028686194
116	0x3c3dec00	0.011591911
117	0x39007437	0.00012250325
118	0xbcc7633b	-0.024339309
119	0x3bb0170c	0.005373841
120	0x3c56860b	0.013093482
121	0x3a3e620e	0.0007262536
122	0xbc048d48	-0.008090325
123	0x3c72fa3b	0.014830167
124	0x3a876a95	0.0010331447
125	0x3ae33c22	0.0017336647
126	0x3abcb647	0.0014397585
127	0x3cb30d8a	0.021857042

model_cnn.conv_layers.4.1.weight f4 [128]
0	0x3f85ffa9	1.0468646
1	0x3f8570d5	1.0425059
2	0x3f881ddf	1.0634116
3	0x3f87c017	1.0605496
4	0x3f884893	1.0647148
5	0x3f8950ac	1.0727744
6	0x3f876e04	1.0580449
7	0x3f85eac7	1.0462273
8	0x3f85b973	1.044722
9	0x3f8869f0	1.065733
10	0x3f88a02a	1.0673878
11	0x3f85e6ce	1.0461061
12	0x3f858372	1.0430739
13	0x3f86b85c	1.0525012
14	0x3f88255f	1.0636405
15	0x3f87d852	1.0612891
16	0x3f8a4ce9	1.0804721
17	0x3f872d98	1.0560789
18	0x3f892b90	1.0716419
19	0x3f886c59	1.0658065
20	0x3f876b77	1.0579671
21	0x3f8857a9	1.0651752
22	0x3f84be86	1.0370643
23	0x3f88d2bb	1.068931
24	0x3f84e250	1.0381565
25	0x3f8694b1	1.0514127
26	0x3f8bc2dc	1.0918841
27	0x3f876e45	1.0580527
28	0x3f85edd1	1.0463201
29	0x3f861b67	1.0477113
30	0x3f875b3b	1.0574716
31	0x3f877cb6	1.0584934
32	0x3f875ee5	1.0575835
33	0x3f89201b	1.0712923
34	0x3f8bf5fe	1.0934446
35	0x3f89fa15	1.0779444
36	0x3f86b602	1.0524294
37	0x3f873e3f	1.0565871
38	0x3f88cdbd	1.0687786
39	0x3f869867	1.051526
40	0x3f8a401b	1.0800813
41	0x3f85e409	1.0460216
42	0x3f869d91	1.0516835
43	0x3f8a28b5	1.0793673
44	0x3f879cd5	1.0594736
45	0x3f899701	1.0749208
46	0x3f890276	1.0703876
47	0x3f88bc5e	1.0682485
48	0x3f865cf2	1.0497115
49	0x3f896f39	1.0737067
50	0x3f885989	1.0652324
51	0x3f8a1d33	1.0790161
52	0x3f860b31	1.0472165
53	0x3f85ecbd	1.0462872
54	0x3f86d78d	1.0534531
55	0x3f884d5d	1.0648609
56	0x3f867c19	1.0506622
57	0x3f864697	1.0490292
58	0x3f872972	1.0559523
59	0x3f86a4e5	1.0519072
60	0x3f864d97	1.0492429
61	0x3f86dd3b	1.0536264
62	0x3f854ad4	1.0413461
63	0x3f8693d4	1.0513864
64	0x3f86d2d0	1.0533085
65	0x3f87e40f	1.0616473
66	0x3f874db9	1.0570594
67	0x3f8a2ebd	1.0795513
68	0x3f85b42d	1.044561
69	0x3f8573c3	1.0425953
70	0x3f86f03f	1.0542067
71	0x3f87ba01	1.0603639
72	0x3f872725	1.0558821
73	0x3f8a3adc	1.0799212
74	0x3f867afb	1.0506281
75	0x3f888554	1.0665689
76	0x3f88904d	1.0669037
77	0x3f86ac00	1.052124
78	0x3f885a31	1.0652524
79	0x3f869756	1.0514934
80	0x3f895f60	1.0732231
81	0x3f88d539	1.069007
82	0x3f89adfd	1.0756222
83	0x3f89d80d	1.0769058
84	0x3f873c30	1.0565243
85	0x3f86d7d0	1.0534611
86	0x3f86a3d5	1.0518748
87	0x3f876915	1.0578943
88	0x3f887409	1.0660411
89	0x3f8535b4	1.0407014
90	0x3f8aab43	1.0833515
91	0x3f8796b5	1.0592867
92	0x3f865458	1.049449
93	0x3f869f65	1.0517393
94	0x3f861b80	1.0477142
95	0x3f8b1f57	1.0868939
96	0x3f88195d	1.063274
97	0x3f8864a9	1.0655719
98	0x3f871941	1.0554582
99	0x3f86a8bd	1.0520245
100	0x3f873c1f	1.0565223
101	0x3f873f85	1.056626
102	0x3f840908	1.0315256
103	0x3f88bc66	1.0682495
104	0x3f83cb35	1.0296389
105	0x3f8c0582	1.0939181
106	0x3f87cae7	1.0608796
107	0x3f84dcfb	1.0379938
108	0x3f856c50	1.0423679
109	0x3f86b9c5	1.0525442
110	0x3f893328	1.0718737
111	0x3f87c5d0	1.0607243
112	0x3f868bce	1.0511415
113	0x3f898267	1.0742921
114	0x3f872427	1.0557908
115	0x3f85bec4	1.0448842
116	0x3f888f7e	1.066879
117	0x3f85337b	1.0406336
118	0x3f860a9d	1.0471989
119	0x3f88352e	1.0641229
120	0x3f89276d	1.0715157
121	0x3f87956a	1.0592473
122	0x3f881381	1.0630952
123	0x3f88ec1a	1.0697052
124	0x3f86cb97	1.0530881
125	0x3f866fda	1.0502884
126	0x3f88c0f0	1.068388
127	0x3f863cc4	1.0487294
