checkpoint/pretrain_cnn_features_1d_fcg_1122/best_model.pth (torch, 110818 bytes, 10 tensors)

model_cnn.conv1.weight f4 [32, 21, 3]
00000000: 43d2 d9bd d430 bf3d 7a7e b9bd 7a17 cbbd
00000010: 6efe a0bd 7ecf 6d3d 5b94 3abd 3735 453d
00000020: c0f1 d8bd 4980 9abd 6162 39bd 94a2 c2bc
00000030: f4c9 c2bd e4ff aa3d 4c35 ebbc 898c 213d
00000040: 0282 b83d 3e7a c83c a635 113d 901b fb3d
00000050: 97d6 6cbd ff8d 273d 7980 61bd cf71 ba3d
00000060: cd1e d03d bdd7 ebbd 134f de3d 1f84 7a3d
00000070: cec7 5c3d 0959 503d fb8a d83d 2578 90bc
00000080: 1f42 dcbd b8fb 0fbd 7ec4 b7bd 4725 f03b
00000090: 0882 b8bc 205a 88bd 8c4b 2bbc 2b80 f63d
000000a0: 0c6e 12bc e79d 443b 30c6 98bc ce71 aa3c
000000b0: 4ff3 e73d e3d3 9f3d e345 3b3d dd17 d83c
000000c0: 748d fb3c 5776 4b3d 9d5b 7abc f5c2 edbd
000000d0: 6284 9dbd 8832 da3d 8bc4 0b3c 5ef8 cebd
000000e0: 54fb aa3c e53e d73d cbc8 f1bd eba9 abbd
000000f0: 906d 49bd 9878 c63b 2ae8 f8bc db73 52bc
00000100: c197 fdbd e98e 6d3d 3e6e e03d 81aa 9b3d
00000110: caaa b4bd b20a d2bd a531 523d a4f6 7a3b
00000120: a872 4f3d 1f2d febd 3b61 d5bb f2eb b33d
00000130: e94d 6b3d 4286 b73b 1a1f d33c 52d2 53bc
00000140: 09eb 8fbd 261c 47bd e12d 9fbd 695d d83d
00000150: 66f0 8b3d a560 303d 7ad1 c3bd 7c0c c53d
00000160: f9b4 1d3d 1e8c b43d 9b1a 4fbd 289c d23c
00000170: 53fa fd3d 9983 ab3d f0e2 cc3d 4288 d0bc
00000180: cf88 c23d 660b c8bd dce9 423c 5754 93bd
00000190: 6ae4 f8bc 2241 08bd 9a0e 0a3c 27ca e83d
000001a0: 99ca 813d 6105 c9ba e91b b53d 1146 86bd
000001b0: 19ee 823d 43cd 4fbc 6067 abbc 3147 613c
000001c0: 19b8 c7bd 0026 5e3c 366b 293d 728b da3d
000001d0: 6392 1cbd 03b2 353d 8fd9 ff3d c545 59bd
000001e0: 3a3a f33d 9c27 82bd 2491 673d d210 463d
000001f0: f10c 0c3d 0d18 ce3d ffa9 54bd f987 033d
00000200: b495 99b9 4f1e c4bd 4766 01bd ba5c aebd
00000210: c113 603d a22d 293c 62d5 393c 51a6 20bd
00000220: b4a9 ceb9 e99b 24bd dd2e 103d 6e89 f83d
00000230: d923 943c b1a9 68bd f9a7 9fbd 9266 0d3c
00000240: ae5d bdbd 46e5 bfbd cae4 a5bd 6b5e 33bd
00000250: f266 083c 52a1 af3d 1dca 433d faa0 c33d
00000260: 790f a4bd be93 3e3c e84d e3bd b010 963d
00000270: 6f4a df3c c49c fb3d 2c76 b5bd 06f7 d03d
00000280: e4e0 db3d 2caa d23d 2915 8b3c 5291 e83d
00000290: f044 aa3d df8d c23d bc79 16bc 0f0e c8bd
000002a0: 7648 28bb 815d b93c 48ce b1bd ebf6 91bd
000002b0: 666d f9bd befe 38bd 56b5 de3d c94a a83c
000002c0: 0677 0ebc 3c8e c63b 06f0 a23d a9cd e1bd
000002d0: ee22 c9bd a1aa 2fbd 9c8b 96bd 6c09 833d
000002e0: 6e44 b43d a963 fcbd 77ee d8bd 5a38 f9bd
000002f0: f7c6 463d a39f cd3d aa1a cabd e500 73bd
00000300: f51e 203d a288 aabd df3b dd3d da73 e83c
00000310: 51c1 13bd 4c74 163c 99ca 1c3d c193 3abd
00000320: 1be2 c5bd 1097 20b9 9ab8 a93a ef08 683b
00000330: 4dce 9ebc 489f a33d 911a 14bd b42e 58bc
00000340: a918 503d 9d5c a0bd 8514 063d 8667 ecbc
00000350: 5ba1 7b3d 4604 8ebd cc9e 6f3b 7c52 5a3c
00000360: 2ba7 d1bd 6d92 b9bd cf01 4a3d 824b 1abd
00000370: 9549 9b3d 10d8 fcbd b498 81bd f279 d2bd
00000380: 033e 523d 8874 98bb 26b3 c8bc e784 a3bc
00000390: 62bb cbbd a140 0e3d d9ab 873b 101d b4bd
000003a0: 1916 3e3d 2cd6 c8ba 5598 fbbd 8abf 883d
000003b0: c40f 8c3d 2ea6 cabc 8c32 b4bd d585 c63b
000003c0: c9a6 c03d 373a ee3d 66b5 c0bd bb2d 6dbd
000003d0: 08db c63d 152a 803d 0aac 9d3d ac79 82bd
000003e0: 2758 e03d 1829 d6bd a9a0 e7bb 73f8 6c3b
000003f0: ff8c b53c 0fa7 c0bd b0c6 ee3d 78a0 ff3d
-0.10635807 0.09335485 -0.090573266 -0.09916587 -0.078610286 0.058059208 -0.04555164 0.048146453
-0.10592985 -0.07544 -0.045259837 -0.023759164 -0.09511176 0.083495885 -0.028711937 0.039440665
0.09009172 0.024472352 0.035451554 0.122611165 -0.057821836 0.040906902 -0.05505416 0.091037385
0.10162125 -0.11515758 0.10854926 0.061161157 0.053901486 0.05086616 0.105733834 -0.017635414
-0.10754799 -0.035152167 -0.08973025 0.0073286626 -0.022522941 -0.06657815 -0.0104550235 0.12036165
-0.00893737 0.0030001344 -0.01864919 0.02080622 0.11325704 0.07804086 0.045720946 0.026378566
0.030707099 0.049673405 -0.015280631 -0.11609451 -0.07691266 0.10654169 0.008530746 -0.10105966
0.020871796 0.10510043 -0.11805876 -0.08382019 -0.049176753 0.0060568564 -0.030384142 -0.012845005
-0.123824604 0.057997618 0.10958527 0.076008804 -0.08821638 -0.10255946 0.051316876 0.0038293982
0.050646454 -0.1241095 -0.006511835 0.08785237 0.057447348 0.0056007216 0.025771666 -0.012928562
-0.07027251 -0.04861083 -0.077724226 0.105646916 0.06832962 0.043060917 -0.09561439 0.09621522
0.038502667 0.08815788 -0.050562482 0.025709227 0.12401261 0.0837471 0.100042224 -0.025455598
0.094987504 -0.09767799 0.011896577 -0.07193821 -0.030382354 -0.03326524 0.008426333 0.113666825
0.063374706 -0.0015336686 0.08843214 -0.06556333 0.0639307 -0.012683216 -0.020923316 0.0137498835
-0.09751911 0.013558865 0.04136201 0.10671128 -0.038225543 0.04435922 0.12492668 -0.053045053
0.1187634 -0.06355211 0.0565349 0.048355885 0.03419203 0.10063181 -0.051919933 0.032112096
-0.00029293972 -0.095760934 -0.03159168 -0.0851378 0.05470634 0.010325821 0.011342378 -0.03922111
-0.0003941782 -0.04018775 0.035200942 0.12135588 0.0180835 -0.056802455 -0.0779571 0.008630412
-0.092463836 -0.09369902 -0.08100279 -0.043791216 0.008325325 0.08575691 0.047800172 0.09552188
-0.08010764 0.011631904 -0.11098844 0.07327402 0.027257172 0.1228576 -0.0886043 0.10203366
0.10736254 0.10286364 0.016977863 0.11355843 0.0831393 0.09499716 -0.009184297 -0.097683065
-0.0025677956 0.022627594 -0.08681923 -0.07127174 -0.12179069 -0.045164816 0.10874431 0.020543473
-0.00869537 0.006059436 0.07955937 -0.11025555 -0.098211154 -0.042887334 -0.07350847 0.063982815
0.088021144 -0.12323696 -0.105923586 -0.12168951 0.04852959 0.10040214 -0.09868367 -0.059327025
0.039092023 -0.08326842 0.10802435 0.028375555 -0.036073033 0.009183001 0.03827915 -0.045551065
-0.09662267 -0.00015315064 0.0012948692 0.0035405715 -0.019385481 0.07989365 -0.03615815 -0.013194729
0.050804768 -0.078301646 0.032734413 -0.028857958 0.061433177 -0.06934409 0.0036563156 0.01332533
-0.10236963 -0.090611316 0.04931813 -0.037669666 0.07582394 -0.12345898 -0.06327954 -0.102771655
0.05132867 -0.0046525635 -0.024499487 -0.019960834 -0.0994785 0.034729604 0.004140359 -0.08794606
0.046407793 -0.0015322617 -0.122849144 0.06677158 0.068389446 -0.024737444 -0.087987036 0.0060584345
0.09406812 0.11632197 -0.09409599 -0.05790494 0.09709746 0.062580265 0.076988295 -0.06370863
0.10954314 -0.10457057 -0.0070687127 0.003615883 0.022161959 -0.09406864 0.116589904 0.12481779

model_cnn.conv1.bias f4 [32]
00000000: fe65 d5bc fd46 923d 5e10 f93d f328 73bd
00000010: 0a3c ab3d 58c9 a0bd 8a88 abbd 87ab edbd
00000020: 57b4 933c 15ac c53d 1231 f9bd 4777 c4bd
00000030: c4e6 9a3d 42d4 81bd 4145 7f3d 6f11 b7bc
00000040: fc46 b63d 3756 a03c f40e c23d d103 5ebd
00000050: bf25 31bd 1b85 52bd f10c c73d 32b8 313c
00000060: 01d1 b3bd 02ab 8d3d c886 9f3d ff90 a2bd
00000070: 266a a53b a775 f5bd ed7a 8b3c 77a5 393d
-0.02604961 0.07142446 0.12161325 -0.059365224 0.08361061 -0.07850903 -0.08375652 -0.11604982
0.018030329 0.09651963 -0.121675625 -0.09593063 0.07563546 -0.06339313 0.062321905 -0.02234718
0.08900258 0.01957236 0.09475508 -0.05420286 -0.043248888 -0.05139647 0.09719265 0.010847138
-0.08780099 0.06917383 0.07789379 -0.07937812 0.0050480543 -0.11985331 0.017026389 0.045323815

model_cnn.conv2.weight f4 [64, 32, 3]
00000000: 991c bd3d a967 03bd 8de1 1a3d fbfc 07bd
00000010: 25e9 0ebd 6a2a b7bd 43ab b83c 884d 8e3d
00000020: 3076 64bd 1702 2f3d 6574 74bc 025b 92bd
00000030: eeaf 423c 2ca5 c9bd 4332 643d a28b b0bc
00000040: be8d c23d 783a 9c3b 1499 c8bd b640 a43d
00000050: eb09 afbc fb20 8dbd 7709 c33d fb8f 2c3c
00000060: c3a1 0b3d 6ec6 b2bd 6f8b 0fbd 0cc2 a93d
00000070: dc23 8cbd b5ce a6bd ee0f a63d 26fc 87bc
00000080: 6499 ddbb ab4d 963d 8b1f 073d f1c2 51bd
00000090: b590 c5bc 08e9 883d 5b53 02bd f243 a93d
000000a0: a4a3 c03d 1caf 763d 8624 f9bb df68 35bd
000000b0: 6831 61bd 9198 a7bd ed8d d43a ee64 893d
000000c0: 97d7 2d3d 2b27 de3b 411f c2bd 07be 4b3d
000000d0: ad4d b9bc 4fa8 8a3c a4e9 78bd 43a6 813c
000000e0: 9f5b d53c 8d48 cdbc 0b73 0ebd abcc 023d
000000f0: e613 803c 0cef 923d 913f 9abd f301 cf3d
00000100: 6a63 c0bd ddbd 97bd 4d3c 8bbc 9d80 b3bd
00000110: 360a 8f3d c13a 8abc 3b72 a23b 3b66 0b3d
00000120: d581 4d3c e071 b43d 780e 983d 375c 123d
00000130: 8779 c6bd 434f 213d d2c5 81bc 7a4f 963c
00000140: 7a50 a23d c006 41bd 2489 b4bb 2ab1 aabd
00000150: afa5 1b3d 6dd6 aebc 8727 16bd 5347 d93b
00000160: 8305 be3b 117c a03c 3ae5 c33d 032f 9e3d
00000170: 4dc6 ae3d d5c7 6abd 16d9 c3bd 3469 9a3d
00000180: 7412 b63d 0ce3 7f3d b619 9cbd 5741 1cbd
00000190: 3ede c23d 78ee 4fbd d29b 8dbd 2258 993c
000001a0: b118 aa3d 42f4 1cbd c78c fbbc 1ad2 0bbd
000001b0: 07b7 55bd d658 1d3b eb38 30bc 0244 323d
000001c0: 479c 99bd 6af0 e7bc 525c bebd 702d cebd
000001d0: e074 df3c b5be 47bc 34ed b9bd 6708 08bb
000001e0: 9756 033d 0ad4 993d ab72 7f3d 28e4 c4bd
000001f0: 5ed5 e83c eb9f c2bd 6df1 9c3d c94b 8a3d
00000200: 89b4 bebd bceb df3a 2858 063d fcb3 5d3b
00000210: d5a6 babd 50c3 c53d 2fc5 49bd f112 063d
00000220: 6fc3 843d d020 bdbd 8b8f efbc 5920 3dbd
00000230: fdd0 ce3d 915f 25bd fc7f afbd 2e17 bbbd
00000240: 734c 1bbc 86f5 b83d fa01 a4bd 6d8d 78bd
00000250: 3e38 babd bc29 cb3d 4789 653d 6388 333d
00000260: d002 a73d 8375 023d 02a1 8d3d 3ab3 b5bc
00000270: 4174 893c 6273 60bd a7e8 bfbc 0393 343c
00000280: 5b07 3bbd 0f15 56bd 67e9 12bd e81e 843d
00000290: 27b7 553d 9980 09bd 1c7c 0d3c 031e 30bd
000002a0: 7aa8 923d 2357 63bd 4cd1 6fbd 6989 863d
000002b0: fba3 a1bd 704a 0bbd cabd 3a3d c4d6 ddbc
000002c0: 8014 1cbd f7c7 a43d cd0c 81bc a740 c83d
000002d0: 75a2 d1bc 2880 55bd c496 a63d 82a9 92bd
000002e0: c9e7 95bd 0e90 5f3d f6bd 8abd 8153 0d3d
000002f0: 2f37 8fbd 82f3 cb3d 8fc9 a43c ca45 ae3d
00000300: 08e4 c8bd 0359 e53c 1e2e 8bbb 0d5b 523d
00000310: 9b30 ebbc c4d0 d23d 6f56 cb3d 96af 4c3d
00000320: df00 72bd d97a 9e3d d22f c9bd edde 633d
00000330: 7f89 533d fbf5 5a3d 76b7 f73c e6e4 ad3d
00000340: a22f 62bd 2763 9b3d dd07 283d 56f2 703b
00000350: 576a 213d 1612 2bbc eaa5 a63d 7ca5 4e3a
00000360: d309 6d3d e34e bc3d c7ba 0b3d 9513 7a3b
00000370: fad5 c9bb 2f46 a8bd 6c3e a1bd 4792 0f3d
00000380: a8c7 2b3c b2c0 e03c 90c3 babd 4508 663d
00000390: 5395 1cbc 6be4 263d be73 62bd a0da b63c
000003a0: 2645 5b3d 053c 9abd 1479 253c a3a2 0cbd
000003b0: b1a4 ad3d dee3 a6bc 1f77 70bd d8df 83bd
000003c0: d4fb 07bc 7bf8 413d 338c 113d 3708 c03d
000003d0: 69e5 a33d 3a0a 923c 6dc9 ee3c d7d8 30bd
000003e0: 52c4 163d 577e a23d 247e 8eba 2e37 a93c
000003f0: 66c4 a9bd 3491 6e3d be96 b23d b490 c23d
0.0923397 -0.03208128 0.03781276 -0.033200245 -0.034890313 -0.08943637 0.022542601 0.06948382
-0.055776775 0.042726602 -0.014920329 -0.071462646 0.011882765 -0.09845957 0.055711996 -0.021550957
0.094996914 0.004767712 -0.09794822 0.08020155 -0.021367034 -0.06891056 0.0952329 0.0105323745
0.034089815 -0.08729254 -0.035045084 0.08288965 -0.06842777 -0.08144895 0.08108507 -0.016599726
-0.0067626704 0.07339033 0.032989066 -0.0512113 -0.024116853 0.06685072 -0.031817775 0.08264913
0.09406212 0.06022559 -0.007603231 -0.044289466 -0.054978758 -0.081833966 0.0016216614 0.06708704
0.04244193 0.0067795715 -0.094786175 0.04974177 -0.022620047 0.016925959 -0.060769692 0.01582635
0.026044665 -0.025059009 -0.034777682 0.031933468 0.015634488 0.07174501 -0.075316556 0.10107794
-0.09393962 -0.074092604 -0.016996527 -0.087647654 0.069843695 -0.01687372 0.004957465 0.03403304
0.012543161 0.088107824 0.07424635 0.035732474 -0.09691148 0.03938223 -0.015841398 0.018348444
0.07925506 -0.047125578 -0.0055095125 -0.083345726 0.037999805 -0.02134248 -0.03665879 0.006630817
0.005798997 0.01959041 0.09565206 0.077238105 0.085339166 -0.05731948 -0.0956289 0.07539597
0.088902384 0.06247239 -0.076220915 -0.03814825 0.095150456 -0.05076453 -0.06914486 0.018718783
0.08305491 -0.03831888 -0.030706776 -0.034135915 -0.0521765 0.002400925 -0.010755758 0.04352189
-0.07500511 -0.02831288 -0.092949525 -0.1006726 0.02727741 -0.012191464 -0.09078446 -0.0020756961
0.032065 0.07511146 0.062365215 -0.0961383 0.028422054 -0.09503158 0.07663236 0.06752736
-0.09311778 0.0017083804 0.032798916 0.0033829203 -0.09113852 0.096563935 -0.049260315 0.032732908
0.064825885 -0.09234774 -0.029243251 -0.046173427 0.10098455 -0.040374342 -0.08569333 -0.091352805
-0.009478676 0.09031205 -0.080081895 -0.06068175 -0.090927586 0.099200696 0.05603912 0.04383124
0.08154833 0.03185035 0.069154754 -0.022180188 0.016779067 -0.054797538 -0.023426367 0.011021378
-0.04566131 -0.052266177 -0.03586712 0.064512074 0.05217662 -0.033569906 0.008635547 -0.04299737
0.071610406 -0.055503022 -0.05854921 0.06569178 -0.07892605 -0.034006536 0.045591153 -0.027079947
-0.038105488 0.08045953 -0.015753174 0.097779565 -0.02559016 -0.052124172 0.08134225 -0.07161237
-0.073196 0.05458074 -0.067745134 0.034503464 -0.06992947 0.09958555 0.020115642 0.08509405
-0.098091185 0.027996546 -0.004247441 0.051356364 -0.0287097 0.10293725 0.09928595 0.04997214
-0.059082862 0.07738275 -0.09823574 0.05563252 0.0516448 0.05345724 0.030238848 0.084909245
-0.055221207 0.07587271 0.041023124 0.0036765537 0.039408054 -0.010441324 0.08137114 0.00078829355
0.057870697 0.09194734 0.03411367 0.0038158644 -0.006159541 -0.082165115 -0.07873234 0.03505161
0.0104846135 0.027435634 -0.09119332 0.05616023 -0.009557086 0.04074518 -0.05528616 0.022321045
0.053532742 -0.07530979 0.010099668 -0.03433479 0.08478678 -0.020372327 -0.058707353 -0.06439179
-0.008299787 0.04735611 0.035534095 0.09376567 0.08002741 0.017827142 0.029148782 -0.043175545
0.03680832 0.07934254 -0.0010871333 0.020656195 -0.08289413 0.058243945 0.08720158 0.09500256

model_cnn.conv2.bias f4 [64]
00000000: 9de5 e4bc 479a 653d 1a49 923d b4f2 6fba
00000010: d7c8 773b bc67 ca3d 363b 343b e244 cf3d
00000020: 9fa1 fc3c cba2 943c 6e58 5dbc 9a43 bf3d
00000030: 2887 983d 2ff8 0e3d 10c5 ab3d ac9e c83d
00000040: 24d7 a23b 82ae 323c 9bdc 18bd 426c 9abd
00000050: 7fa6 983c f249 cebd ed24 123d 5ea8 683c
00000060: ee95 a33d dad1 ab3d 9a10 913d 22d3 8ebd
00000070: ed2d 143d c4aa aa3d e546 f9bb 3b58 283d
00000080: a350 b4bc e1da d43c 95b6 38bd 23c7 473d
00000090: b6a2 b93d 96cc 7dbc bda0 503d 57c8 2e3d
000000a0: 5256 aeba 72ba 99bd 4612 3ebd 86fc 533c
000000b0: fa99 c6bd 9ea5 c7bd d21a 65bc cc79 afbd
000000c0: 6d68 7cbd 2c92 a13d 8124 f5bc 1a4f b93d
000000d0: 1f10 ccbc a07d c73d a95d 393b ceda 963d
000000e0: 983a 78bd c8ba 9abd 0c6e 9ebd c24c 5cbd
000000f0: 084a 86bd 6b80 233d 46e2 6b3c fa23 7e3c
-0.02794152 0.056055333 0.07142849 -0.0009153292 0.003780892 0.09883067 0.0027501113 0.1012056
0.030838786 0.018144032 -0.013509853 0.09339066 0.07447654 0.034904655 0.08387196 0.09795889
0.0049694944 0.010905864 -0.03731976 -0.0754018 0.018634079 -0.10072698 0.035679746 0.014200298
0.07987581 0.083896354 0.070832446 -0.06973864 0.03617661 0.08333352 -0.0076073282 0.041099768
-0.022011107 0.025983276 -0.045096 0.048773896 0.09064238 -0.015490672 0.050934542 0.042671528
-0.0013300872 -0.07506265 -0.046404146 0.012938624 -0.096973374 -0.09748386 -0.013983445 -0.08568153
-0.061623026 0.07889208 -0.029924633 0.090482906 -0.02491003 0.09740758 0.0028284586 0.073659524
-0.060602754 -0.07555157 -0.077358335 -0.05378414 -0.06557089 0.03991739 0.0143972095 0.015511507

model_cnn.fc1.weight f4 [256, 64]
00000000: a20f 95bc c69a 84bd ff34 ebbd 624a 93bd
00000010: e979 0fbc 35ad 643c ad63 b8bd 2463 8fbd
00000020: 1044 a53d b376 81bd f2de 8bbc fd23 88bd
00000030: a195 cd3d c668 203c 0dac bfbd 683f 6c3d
00000040: cd9f 4cbd 850d ec3d 58b6 e73d 01a6 d5bd
00000050: 8680 f53d 0c63 a53d 3b6d eabc e44d e9bd
00000060: 14ff 6f3d 6029 00bd 988c 81bd 43d4 8bbd
00000070: 9679 d53d c43e 853d b7fb 833c 0410 90bd
00000080: ec1a f43d 20f6 5237 5ec0 1bba 97b3 803d
00000090: aac8 273c 6d8d 9e3d dc5c debd c892 bb3c
000000a0: 9280 e83d e049 f4bb 0a41 853d c4dd 6abb
000000b0: a668 f6bd 8226 efbd 0312 8ebd c046 84bd
000000c0: 551a 873d 4daf 89bd ddc9 dcbd e235 5fbd
000000d0: 052a a63d 4eff a4bd 2faf 943c 3dd5 96bb
000000e0: 1891 2b3d 07ed ccbd f9bb d6bd 8389 ebbd
000000f0: d55f bb3c 5446 0cbd f05a 11bc 6709 b33d
00000100: 98b6 63ba 92d5 6abd d611 483d a530 d83d
00000110: be80 01bd f26c ad3a c555 efbc 3935 f13d
00000120: d26b d9bb 055d eb3d a776 d0bd d340 7b3d
00000130: e73f d5bd 611a 2d3d b4e7 9c3c 7e9f f9bd
00000140: cd97 883d 1f7d a53d 4e35 c8bc 711d 1cbd
00000150: 6621 c5bc 3246 22bb eae6 f6bd 99b2 fa3b
00000160: 64f5 73bc e643 3b3d 2f94 dd3d c946 d93d
00000170: 2c46 963b 2951 cc3d 2d87 c43d de3b cd3d
00000180: 1511 86bc 3144 a33d 6dd6 443d 9f9e ecbc
00000190: 3031 603d ef8d 863d 97e2 953d 33bb e93d
000001a0: c476 82bc b7e3 fbbd 1fa5 f13d adc5 2fbd
000001b0: 3a47 c2bd 6724 c6bd 101c ca3d 2a93 293c
000001c0: d497 94bd 635e 4a3d 770e b9bd ebee 8cbd
000001d0: dc9a b8b9 d833 0ebc 5894 dbbc c07f b0bd
000001e0: 8da8 cb3d a8aa a5bc 5d13 a9bd 2702 d83d
000001f0: 33a3 bfba cb53 d3bd bd6c 9d3d bf4c 4e3d
00000200: aac1 b23d 65d0 263d a0c8 ca3d 12e9 9e3d
00000210: 4117 3abd 6e01 aa3d e865 f4bd ae22 e53c
00000220: e08e ae3d f449 c63d 826c 883d 4eb3 a13d
00000230: f8a7 ed3d fa56 a5bd 014f d83d 7bbc 35bd
00000240: 3c53 d8bd 77d5 f13c cfbf db3c 6369 7bbc
00000250: faad f63c da8c cf3d 2a20 313d ad66 51bd
00000260: 2e32 eebd db3c 6abd 8ec6 e23c 5278 6e3c
00000270: 7d7c 53bd 5252 d53d 471c 7b3d f184 1b3d
00000280: e3e9 10bd 649b ea3d f784 983c eea4 f03d
00000290: 25c7 063d 1ea4 d2bc 2cbc d6bd 6fc2 e23c
000002a0: bf34 ac3c 16b0 dfbd 0d24 393d e9b1 783d
000002b0: 8874 cc3d a0e7 8ebd a29d a03d 8657 debd
000002c0: 7cd8 ae3b d4bb b23d bf3c 5ebd 5197 dc3c
000002d0: f66e b93c 98f0 a0bd 1ebd 45bd 012a 7f3d
000002e0: 6d24 193c de6c d53d 5dbc 093d c6ee e6bd
000002f0: 8845 d53d d9eb 933c ea54 9dbd fa3c b03d
00000300: b69e c43d 70f3 f1bd ed00 43bc efa1 6dbd
00000310: 0605 b5bb bb5e 4e3d 34f3 b23d 14e0 e13d
00000320: 4871 bbbd 91c4 3c3d a654 993c dd07 143d
00000330: d790 ab3c a3d1 04bc 0ada 583c 37bb a73d
00000340: 68fa d8bd 199f c6bc b9cf 24bd bec9 be3d
00000350: a30e 2cbd 72a3 15bc 8270 5cbd c6ee edbd
00000360: bbcb 9bbb 8c00 ec3d b38e 75bc b8d7 813d
00000370: 77c1 97bc e941 113d 629d b0bd 3471 fc3d
00000380: c1bf dd3d ea38 aebd 8a83 e8bd 3a60 d8bd
00000390: 4921 e0bd e207 e03d 12f7 aebc b19b 8f3d
000003a0: 8ec5 b53d 7ec5 a23d 1255 af3d ba41 fc3d
000003b0: 0178 3bbd 149d e83d c47a 3f3d 7ab0 e63d
000003c0: 4e05 2d3c a8c4 5d39 8897 ffbd e685 f7bd
000003d0: 3c1e c5bd ab08 533d e87c 3bbc 1ecd 8f3d
000003e0: c0a9 aa3d ed55 5d3d d954 323d 41c2 cbbc
000003f0: dd42 49bd b87b f23d e574 0a3d 0693 93bd
-0.01819593 -0.06474833 -0.114847176 -0.07191922 -0.008757093 0.013957311 -0.09003387 -0.070013314
0.080696225 -0.06321468 -0.017074082 -0.06647489 0.10038305 0.009790605 -0.09358988 0.057677656
-0.049957085 0.11526016 0.11314076 -0.10432053 0.119874045 0.08075532 -0.028616538 -0.113918096
0.05859287 -0.03128946 -0.06325644 -0.06827595 0.10423581 0.06506112 0.016111238 -0.07034305
0.119191974 1.2574281e-05 -0.00059414457 0.06284254 0.010240713 0.077418186 -0.10857555 0.02289714
0.11352648 -0.0074550956 0.06506546 -0.003583775 -0.12031679 -0.11677267 -0.06937029 -0.06458807
0.06596819 -0.06722889 -0.1078069 -0.054494746 0.08113483 -0.08056508 0.01814994 -0.0046030567
0.04188642 -0.10006147 -0.10485072 -0.11500838 0.022872845 -0.034246758 -0.008871779 0.08742028
-0.00086865714 -0.057332583 0.048845135 0.10556153 -0.03161692 0.0013231321 -0.029215703 0.117777295
-0.0066351676 0.114923514 -0.10178881 0.061341118 -0.10412579 0.042261485 0.019153453 -0.12188624
0.06669579 0.080805056 -0.02443948 -0.038114015 -0.024063777 -0.0024761078 -0.12055762 0.007650685
-0.014890049 0.04571905 0.108192794 0.10609204 0.004586002 0.099764176 0.09596095 0.100211844
-0.016365567 0.07971991 0.048056055 -0.02888423 0.05473441 0.065700404 0.07318609 0.114126585
-0.015925772 -0.122992925 0.117990725 -0.042913128 -0.09486242 -0.09674912 0.09868634 0.010350028
-0.072555214 0.04940642 -0.09035962 -0.068815075 -0.00035210594 -0.008679353 -0.026804134 -0.086181164
0.09944258 -0.020222977 -0.082556464 0.105472855 -0.0014620781 -0.103187166 0.07686756 0.05036616
0.08728345 0.040726084 0.099015474 0.077592984 -0.045432333 0.08301054 -0.119334996 0.027970638
0.08523345 0.09682074 0.06661321 0.07895528 0.11604303 -0.0807323 0.10561944 -0.044369202
-0.10562751 0.029520733 0.02682486 -0.01534495 0.030112255 0.10134287 0.043243565 -0.05112331
-0.11630665 -0.057186943 0.027682569 0.014555054 -0.051632393 0.10416092 0.061306264 0.03796858
-0.0353793 0.1145542 0.01861809 0.11750208 0.032904763 -0.025713023 -0.1048511 0.027680604
0.021021245 -0.109222576 0.045200396 0.060716543 0.09983164 -0.06977773 0.07842566 -0.108565375
0.0053358655 0.087272316 -0.05425715 0.026927622 0.022635918 -0.078583896 -0.04827606 0.062295917
0.0093470635 0.104211554 0.033626903 -0.11276011 0.10413653 0.018056797 -0.07682212 0.0860538
0.09600584 -0.1181401 -0.011902076 -0.05801576 -0.0055242805 0.05038331 0.087377936 0.11029068
-0.09152466 0.046085898 0.018717121 0.03614031 0.020943088 -0.008106622 0.013235578 0.08190005
-0.10594636 -0.024245786 -0.040237162 0.09315823 -0.042006146 -0.009133207 -0.053818233 -0.11617808
-0.004754511 0.11523542 -0.014987635 0.06339973 -0.018524868 0.035463247 -0.086237684 0.12326279
0.1082759 -0.08506949 -0.11353214 -0.10565229 -0.10943849 0.109390035 -0.021358047 0.07012118
0.08875571 0.07947825 0.08561148 0.12317224 -0.04576874 0.11358085 0.046747938 0.11264129
0.010560347 0.00021149463 -0.12480074 -0.12086086 -0.096249074 0.05152194 -0.011443354 0.07021545
0.083331585 0.054037023 0.04353795 -0.0248729 -0.04913603 0.11840004 0.033802886 -0.07205777

model_cnn.fc1.bias f4 [256]
00000000: eb00 b43c a681 f5bd ee00 86bd c438 cd3b
00000010: 82b2 d43d a854 a23d fea9 b63d db6a b8bb
00000020: afb2 aabd e640 803c c998 58bc d9e1 9fbd
00000030: 87d9 5cbd 8cd1 4ebd f8bb bfbd 51c8 c5bc
00000040: 11e2 d4bc a45b aabd acfe b0bd 6651 be3d
00000050: 6ae2 c63d f29d e43d dc03 c4bd b6ed a23d
00000060: 8de6 253d 444b fb3d 2af8 bebd 52e5 dc3d
00000070: 1c85 91bd b889 85bd baef 603d 2537 003e
00000080: 2f94 283d 12ef d03c 7243 683d ac54 d23d
00000090: b1ca 5bbd 6547 0e3d 04eb 1fbc e473 b13b
000000a0: 6772 6c3d b7cb 75bd 0e80 383c 17dd 4dbd
000000b0: 7fcc 2abd 652f 3d3d cda6 973d 2e28 e33d
000000c0: 72d7 873d 8610 c83c d8ca 74bd a689 76bd
000000d0: 2d1b 343d d75b dbbd 210d 4a3d cdae 783d
000000e0: 2dd5 31bd 9563 f03b a72f c2bc 9b4d e4bd
000000f0: 3e73 c9bd 7647 133c 6cc2 afbc d962 973c
00000100: 3816 bb3d 859a 593d 56cd c8bd a4b4 ac3d
00000110: 3c4e 0a3d 5d42 0bbd c3f0 12bc 0de7 7b3d
00000120: f4a1 913d 1ed1 f0bc 1667 f43d 0b16 e0bd
00000130: a034 a0bd fe79 a93c 6236 d13c ce74 dcbd
00000140: eb51 003e 32cf cdbd a23c d9bd 9cb0 9fbb
00000150: 8a9c f13d bc1a f53d d7e0 72bd ec22 cfbd
00000160: 04be c4bc 637c 07bd eac8 cebd d052 cbbd
00000170: 4f82 a53d 89c7 dc3c 4668 ff3d 414e 6fba
00000180: 7c45 823d e659 ebbd ec4f da3d 551b 4c3d
00000190: ce03 483c 3510 67bd cd07 20bd 7284 823c
000001a0: 6ccd 00bc 2476 8d3d d107 9bbc dca5 c93d
000001b0: be40 d93d fe71 eebd 6cb8 01bd 4765 26bd
000001c0: daa7 67bd 0552 a9bb 5abd b93d 9233 d43c
000001d0: be1a c93d f8f8 e93d 45e7 f9bd a068 a43d
000001e0: 589c b23d 14cf a63d ebd0 1e3d 71a1 1b3d
000001f0: 34b2 873d 5ced d4bd 0548 f2bc 79b1 793d
00000200: 3ab9 e0bd e2ef 5b3c 7f78 6fbd 517c 233d
00000210: d625 55bd 678c 91bc 1bcf df3b 5255 b33d
00000220: 5ffb 1b3c 97ab 923c c297 75bd 4241 173c
00000230: 4ac9 18bb 80c4 acb7 3a2b d3bc 4a5a f7bd
00000240: 557b f5bc ab53 0ebd c992 643d 9f36 2f3d
00000250: c57d ddbd 12f8 8f3d dbf1 e7bc 8c08 f0bd
00000260: 77fe 003c 0878 9f3d f97f dbbb 5808 e73d
00000270: 4c44 5d3b e2d3 27bd c5e7 e1bd 0477 07bb
00000280: 94e6 d63d 17b1 733d ad3c 0e3d d296 9bbd
00000290: eb57 693d 79ad 323d 17cc d03c 78af b83d
000002a0: fdd9 ddbd 685e cb3d 51b5 4e3d 8375 0fbd
000002b0: 11ff eebc 9e2a eb3d 1aff a33d 6ae4 3e3d
000002c0: 67a8 8bbd 6e9e bc3d febb 38bc 398b c43c
000002d0: f7c0 e8bd 127b bf3a 0f00 87bd 5f69 2c3d
000002e0: 9474 cd3d 7c5b d53d be9e a53d 005e 8c3d
000002f0: 71c7 d43c d030 93bd d585 383c 08cd 833d
00000300: 5e08 b1bd ccc9 933d f1d6 bd3c a753 d7bd
00000310: e29f 7ebc 34e8 c13d 1c4b f3bb 661e 2fbd
00000320: 3c66 f83d 83f9 bdbd 9b2d 213d 8386 7dbd
00000330: 099f 14bd d126 153d 4189 4e3d 2814 b0bd
00000340: 5151 b4bd e051 07bd b530 5bbd dc41 f43d
00000350: a079 b4bd d5f7 68bd 90e4 a6bd acd8 dc3d
00000360: f813 dabd a46e ed3d 7662 2abb 97b2 753d
00000370: 8815 cabd e8d6 f03d 6d03 52bd a50c b5bd
00000380: 39d0 84bc da6c dd3d 8660 1ebd c83f d03d
00000390: 9007 fc3d ee58 ca3d 66cd 18bd 3a08 cdbd
000003a0: fd60 043d b2dc a2bd 1e04 2f3c 654e 7dbd
000003b0: f966 88bc 156e 09bd 6c90 283d 64f8 1abd
000003c0: 131a 72bd e2aa c03d 6fab 13bd 4c95 d53d
000003d0: 4825 b73d fcd4 ebbd 5e63 8dbd a9a8 f63c
000003e0: 4a70 0d3d fbe4 f23d 0e57 21bd 0469 83bd
000003f0: 9261 85bd 7ebc 71bc 084d a6bd 5b48 24bd
0.021973094 -0.11987619 -0.06543146 0.0062628705 0.1038561 0.07926303 0.08919142 -0.0056279725
-0.083348624 0.015655946 -0.013220021 -0.07806749 -0.053918388 -0.05049281 -0.09362024 -0.02414337
-0.025986703 -0.0831826 -0.08642325 0.09292869 0.09711154 0.11162938 -0.095710486 0.07955496
0.040503073 0.12270215 -0.09324677 0.10785927 -0.07105467 -0.065204084 0.05491612 0.12521036
0.041156944 0.025504623 0.056704946 0.10270056 -0.0536601 0.034736056 -0.009760622 0.0054154266
0.05772629 -0.06000873 0.011260999 -0.050259676 -0.04169893 0.046187777 0.074048616 0.11091648
0.0663289 0.024421941 -0.05976376 -0.060189866 0.04397123 -0.107108764 0.049328927 0.060713578
-0.04341619 0.00733609 -0.023704363 -0.111476146 -0.09836434 0.008989206 -0.021455012 0.018479751
0.09135097 0.053125877 -0.0980479 0.08432892 0.033766016 -0.033998836 -0.008968535 0.061499644
0.07110968 -0.02939659 0.119337246 -0.10941704 -0.078225374 0.020688053 0.025538627 -0.10764466
0.12531249 -0.10049285 -0.10607268 -0.0048733484 0.117974356 0.1196799 -0.059296455 -0.10114083
-0.024016388 -0.03307761 -0.10096915 -0.099279046 0.08081495 0.026950615 0.124710605 -0.0009128787
0.06360909 -0.11491756 0.10659775 0.049830753 0.012207938 -0.05641194 -0.03906994 0.015932295
-0.007861476 0.06907299 -0.018924626 0.09846088 0.10608052 -0.11642836 -0.03167002 -0.04062393
-0.05655656 -0.005167248 0.09069319 0.025903497 0.09819554 0.1142444 -0.12202314 0.08027768
0.087212265 0.08144966 0.03877346 0.03799576 0.066257864 -0.10396835 -0.029575357 0.060960267
-0.10972829 0.013423892 -0.058464523 0.03991348 -0.052038036 -0.017767144 0.006830109 0.08756508
0.009520381 0.017904086 -0.05995918 0.009231867 -0.0023313337 -2.05955e-05 -0.025777448 -0.12077768
-0.029966036 -0.03474776 0.055804048 0.0427767 -0.10815004 0.070297375 -0.028313568 -0.1172038
0.007873169 0.07786566 -0.006698605 0.11280888 0.0033762632 -0.04097355 -0.11030535 -0.0020670304
0.10493198 0.059495058 0.034725834 -0.07597126 0.05696861 0.043622468 0.025487943 0.09017843
-0.108325936 0.09930116 0.050465886 -0.035024177 -0.02917436 0.11482738 0.08007641 0.04660455
-0.068192296 0.092099056 -0.01127529 0.023992168 -0.1136493 0.0014608821 -0.06591808 0.042092677
0.10032001 0.1041784 0.08086918 0.068538666 0.025974007 -0.071870446 0.011262377 0.06435591
-0.08644174 0.07216224 0.023173781 -0.10514002 -0.015541049 0.09468117 -0.007424725 -0.0427536
0.12128875 -0.09276106 0.039350133 -0.06189586 -0.03628448 0.03641397 0.050423864 -0.085975945
-0.088045724 -0.033037066 -0.053513248 0.11926624 -0.08812261 -0.056876976 -0.081490636 0.107835144
-0.1064834 0.11593369 -0.0025998629 0.05998477 -0.09867388 0.1175974 -0.0512728 -0.088403024
-0.01621257 0.108117774 -0.03866627 0.10168415 0.1230613 0.09880243 -0.03730526 -0.10011335
0.032319058 -0.079522505 0.010682134 -0.06184234 -0.016650664 -0.033552248 0.041153356 -0.03783454
-0.059106898 0.09407593 -0.036052164 0.10428867 0.08942658 -0.11515233 -0.069037184 0.03010972
0.034530915 0.11860081 -0.039389662 -0.064165145 -0.06512751 -0.014754413 -0.08120161 -0.040108066

model_cnn.classifier.weight f4 [5, 256]
00000000: 80d5 7b3d 60de 1a3c b0a2 6c3c 6056 9cbc
00000010: 32eb 203d e0fd fdbc 5a65 77bd f0d9 a23b
00000020: 8c50 c43c 42ff 043d f6e1 543d 58c5 3d3c
00000030: 58c5 5fbc 542e b93c 542f 01bd 9472 68bd
00000040: 622f 16bd 5e6d 343d e023 6e3d 4abf 16bd
00000050: 90c2 e63b de8e 46bd 2875 8d3c a815 593d
00000060: 860e 46bd 94e1 443d 9ea7 00bd 9a18 5e3d
00000070: 1cc3 38bd e657 5c3d fabc 1abd 2863 25bd
00000080: ca2e 383d 7880 943c 2ce8 3dbd d07a 08bd
00000090: d098 04bc 2655 053d c8ea 263d 009b 603b
000000a0: 5087 723d a0a2 24bc f832 693d d81d 0c3d
000000b0: 40a3 5a3b 70a9 3dbd 40dc f03a 5013 7cbc
000000c0: cebd 49bd 46f6 1f3d 04f1 1b3d c000 6bbb
000000d0: 2634 4dbd 4481 703d 6cb3 963c 4042 2bbb
000000e0: d8f5 49bd e038 833b 389c 02bd d0bd 343d
000000f0: c0dd 81bc 6ce2 6c3d b8df 8bbc 90e3 213d
00000100: c0a3 38bb a8ff f8bc 80fe a33c 2ca8 9a3c
00000110: 74d6 6cbd 144d 92bc 3c67 e13c 04b5 693d
00000120: e866 19bc 8caf a0bc e2ab 1a3d 6c86 33bd
00000130: c4c0 2cbd 906c f73c 0813 cb3c 7672 053d
00000140: 00ce 34bb bc41 2f3d e05e 5fbb e245 213d
00000150: 28a5 19bc 9ad9 093d c875 71bd 063c 06bd
00000160: bcc2 263d 0092 6f3b 0041 63bc 4867 02bc
00000170: aa97 7b3d acb2 083d b856 80bc 4c5f 58bd
00000180: 6664 663d 40a0 873b 5052 31bd f0d9 fdbb
00000190: 5cae 4c3d a8fd 8bbc a0b1 fdbc 447c b3bc
000001a0: 64b3 8c3c 2254 073d c0dd 61bd 60ec c93c
000001b0: 5cf6 92bc 789c 3a3c ca95 41bd a6a8 2e3d
000001c0: c80c 05bc 5484 363d f022 bc3c e0b3 9d3c
000001d0: 6855 e73c 3c3c 483d b022 503c feb4 753d
000001e0: 9859 55bd cca8 623d 10f6 193d 2c9c 8cbc
000001f0: e813 d93c 0684 04bd 2cef c5bc 0854 3abd
00000200: 30f1 83bb 18e3 933c 20ea 5f3d b839 c6bc
00000210: 0434 62bd 208f aa3b 88c5 173d 94f8 bd3c
00000220: 5c43 36bd cc67 98bc fcc7 c8bc 765f 08bd
00000230: 80f2 0c3b 5eba 753d 6871 3abd 7045 36bc
00000240: c022 0cbb 42ab 4a3d d40e c1bc 1c20 933c
00000250: b03f 84bc 24d3 2b3d 30a2 60bd 4c1d fe3c
00000260: f095 6dbd 7cbb 4dbd 00b2 2a3d 200b e93b
00000270: 4a6b 18bd 408d 80bb 22e0 2dbd a051 28bb
00000280: 2624 0d3d 84a9 94bc f25c 143d 403a 45bb
00000290: 3044 713d b66c 1f3d cc2b cbbc 1ec8 20bd
000002a0: 060b 49bd 30e0 8dbc 7aab 3bbd cef6 78bd
000002b0: ccdc 113d c8a9 5b3d 6a4d 4d3d 403f 76bd
000002c0: 208a 56bd 240a 943c 1217 07bd 942f 89bc
000002d0: a87f a73c b081 f9bb e0d0 f6bc 90b3 e4bb
000002e0: 4006 68bb b89d a2bc 5071 4a3d 80f0 7aba
000002f0: 74bb 21bd 44a9 bdbc e032 313b ba19 2b3d
00000300: f08d 67bd dc3d c03c 9ec3 72bd e26b 14bd
00000310: e618 1abd e0e7 7cbb c872 2a3c 8417 633d
00000320: 6a01 0c3d 08e3 78bc c8df 8fbc 3035 8c3b
00000330: d664 263d 1af3 3d3d bc9d e23c 00e7 f5ba
00000340: a831 283d f461 c93c a8df f33c 9435 793d
00000350: 208b be3b 44ca 7abd 2c07 133d 2e5f 5a3d
00000360: 4a70 0d3d 88e0 113d e0d0 1f3c 24d6 403d
00000370: 10aa 4cbd 104d e7bb 60a3 413c e683 12bd
00000380: e4f4 183d 7455 27bd d02d a7bb 38aa 8abc
00000390: 7282 7ebd fe19 6b3d ccb0 503d 9073 dc3b
000003a0: 24cf ecbc 60ec 8dbc 9405 c03c 9c24 64bd
000003b0: cab9 593d ecdb 01bd 78bb c1bc b685 6dbd
000003c0: a85d 2d3c b6ae 36bd 66f3 4cbd bce7 d03c
000003d0: 404e db3b 7021 27bc 4ac9 743d 3223 44bd
000003e0: 0e74 373d 24a2 a83c d033 1dbc 2c68 843c
000003f0: 38dc b93c 60da 2dbc 8cb0 7c3d f063 28bc
0.061482906 0.009452432 0.014443085 -0.019084156 0.0392868 -0.031004846 -0.06039939 0.004969828
0.023964189 0.032469995 0.051973306 0.011582695 -0.01365789 0.022605099 -0.031539276 -0.056749895
-0.03666628 0.044049613 0.05813968 -0.03680352 0.0070422366 -0.048476093 0.017267779 0.05299917
-0.048353694 0.04806669 -0.031409852 0.05422268 -0.045107946 0.053794764 -0.03777788 -0.040377766
0.044966497 0.018127665 -0.046363994 -0.033320248 -0.008093074 0.032551907 0.04075125 0.0034272075
0.059211075 -0.010048538 0.056933373 0.03420815 0.0033361465 -0.046304166 0.0018376186 -0.015385464
-0.049253277 0.039053224 0.038071647 -0.0035858601 -0.05009856 0.058717027 0.018396102 -0.0026132017
-0.04930672 0.0040045828 -0.031887263 0.04412633 -0.015852809 0.05783312 -0.01707445 0.03952366
-0.0028173774 -0.030395344 0.020018816 0.018879019 -0.057821706 -0.01785902 0.027515046 0.057057396
-0.009362914 -0.019614957 0.037761576 -0.043829367 -0.042176023 0.030203134 0.024789348 0.03257986
-0.0027588606 0.0427873 -0.003408365 0.039373286 -0.009377755 0.033654787 -0.058950216 -0.032772087
0.040713057 0.0036555529 -0.013870478 -0.0079591945 0.061423935 0.03337352 -0.01566635 -0.052825257
0.05624809 0.0041389763 -0.04329139 -0.0077469274 0.04997097 -0.017088726 -0.030968487 -0.02190984
0.017175384 0.03303922 -0.055143118 0.024648845 -0.017939739 0.011389844 -0.04726199 0.042641304
-0.008120723 0.04455979 0.022965878 0.01925081 0.028238967 0.04888557 0.012703583 0.05998706
-0.052087396 0.05533676 0.03758818 -0.017164312 0.02649875 -0.03235247 -0.024161898 -0.045490295
-0.0040265545 0.018052623 0.05466664 -0.024197444 -0.055225387 0.00520505 0.037053615 0.02318982
-0.044497833 -0.018604182 -0.024509422 -0.033294164 0.0021506846 0.059992187 -0.04551831 -0.011124954
-0.0021383017 0.04947973 -0.02356664 0.017959647 -0.01614365 0.041949406 -0.054842174 0.03101983
-0.05800432 -0.050227627 0.04167366 0.007111922 -0.037211694 -0.0039230883 -0.042450078 -0.0025683418
0.034458302 -0.018147238 0.036221452 -0.0030094534 0.05890292 0.038922034 -0.024801157 -0.039253347
-0.04908278 -0.017318815 -0.04581783 -0.060782246 0.03561096 0.053628713 0.050122656 -0.060118914
-0.05237782 0.018071242 -0.032980986 -0.01674632 0.020446613 -0.007614337 -0.030128896 -0.0069794133
-0.0035404116 -0.019850597 0.04942447 -0.00095725805 -0.03948541 -0.023152001 0.002703838 0.04177258
-0.056531847 0.023466997 -0.059268586 -0.036235698 -0.0376214 -0.0038590357 0.010403343 0.055442348
0.034181036 -0.015190847 -0.017562762 0.0042788014 0.04062351 0.046374418 0.027663104 -0.001876086
0.04106298 0.02458284 0.029769734 0.06084211 0.005814925 -0.06122805 0.03589551 0.053313427
0.034530915 0.03561452 0.0097543895 0.04707922 -0.04996687 -0.007058747 0.011818737 -0.03577032
0.03734292 -0.04085298 -0.005101897 -0.01692687 -0.06213612 0.057397835 0.050949857 0.0067276433
-0.028907366 -0.017324626 0.02344016 -0.055698976 0.053155698 -0.031703874 -0.023648962 -0.057988845
0.010581411 -0.04460021 -0.05003681 0.025501125 0.0066926777 -0.010200843 0.059762277 -0.047885127
0.044788413 0.020585127 -0.009594873 0.016162954 0.022688016 -0.010611147 0.061691806 -0.010277733

model_cnn.classifier.bias f4 [5]
00000000: 9e19 41bd 48eb 563c 8897 adbc 2e52 6f3d
00000010: 0e0b 193d
-0.04714357 0.013117619 -0.02119042 0.058427982 0.03736406

model_cnn.domain_classifier.weight f4 [2, 256]
00000000: f030 59bc c41a cc3c dcc8 9cbc ced1 3a3d
00000010: 30f4 6abd 7818 013c 1cf4 2dbd 74f9 b2bc
00000020: e48a 273d 2485 903c 804c 4f3c 5cbd 5d3d
00000030: 0882 07bc 00c2 823b 34b5 77bd 4cb5 cf3c
00000040: 0074 dc3b 508c e83b 58c7 103c 08c8 0bbc
00000050: 0c20 45bd c87c 523d 4873 16bd 00b0 1939
00000060: 8824 f9bc b008 52bd 364e 723d 6cc2 ebbc
00000070: 2c8f 85bc 80aa 54ba 0043 6c3d a431 653d
00000080: 6ada 173d 7027 d5bc a611 5bbd 1423 fa3c
00000090: b4c5 a6bc 7a30 5cbd 1c25 cdbc 98d7 71bc
000000a0: e2be 6dbd 7cf6 9cbc 1cb9 7e3d e838 72bc
000000b0: 30c7 02bd ce95 7c3d 5679 43bd 96d8 583d
000000c0: f8e5 4c3c 7656 163d a8bd 433d 1828 663c
000000d0: d4ad 743d 326d 443d 80df 043c 98e8 b43c
000000e0: 5069 33bc 5053 8c3b 7205 653d 98ea 0bbc
000000f0: 70c3 b0bc 402f bcbb d617 1b3d d093 343c
00000100: 048e 9d3c 222d 68bd fc6c 7dbd e611 273d
00000110: c0fc 50bc 4477 0a3d c8b3 4b3c 14db a9bc
00000120: 3210 57bd 1c96 4a3d 6836 673d 9065 7b3d
00000130: 905c 913b 00ff 5dbb ea05 403d 7e9f 66bd
00000140: d407 48bd c2d2 323d 1070 6ebc 2459 1e3d
00000150: 78c9 bdbc 00e0 3cb8 c0c2 0e3c 2239 383d
00000160: 00b7 f139 5ce5 83bc b0d8 2bbd a497 9b3c
00000170: 9068 053c 740d b1bc 0005 6ebb 22ea 72bd
00000180: 76af 323d 1ee0 02bd 7e48 683d 1e84 673d
00000190: da52 7b3d c8f2 4dbd d8ba 383d 606d 0abd
000001a0: 94bb 69bd a869 51bc e4c7 23bd 52ae 45bd
000001b0: 58df 343d 16df 7c3d 1c91 9dbc 6474 12bd
000001c0: 8e3f 123d b493 d13c a065 9ebc 9868 e3bc
000001d0: 58e7 b1bc 24fe 4b3d 00c2 b7bc a04b 3b3d
000001e0: 32f5 43bd 74d7 4abd 002f 943c 7812 e03c
000001f0: 7048 1c3c eeab 403d 1cff 913c d601 633d
00000200: 1208 76bd 2409 8cbc 2eab 743d fc45 bb3c
00000210: 7655 67bd 5077 dfbc bc5d 34bd 607d a13b
00000220: 8047 143a 5456 b0bc ceb5 7cbd b817 403c
00000230: b8fc 87bc bcad 263d 5efa 0b3d 98aa 333d
00000240: aa9d 51bd 0ca6 7fbd 58ba 6a3c 88ab f03c
00000250: 0042 5d39 b4c2 003d 9cbe 51bd a0ed 2e3c
00000260: dcd4 553d 9491 613d 0411 62bd 7806 58bc
00000270: 6099 ae3c fe51 01bd e087 013c 1874 6dbd
00000280: 7e3c 5abd 4cc3 83bc ec25 29bd 401a 22bb
00000290: 00f6 4a3d 18de 7f3d c0c7 77bb 9419 913c
000002a0: c001 153b 6662 333d 5c4e 433d 1ab8 4e3d
000002b0: b0d9 613d a8e7 193c 540c ca3c 6052 67bd
000002c0: 1a49 023d a824 cb3c 708a 45bd 8ec1 33bd
000002d0: 80ca 8d3a 8012 013a dafd 6f3d 5c7c b9bc
000002e0: 64a2 933c a430 83bc d044 8fbc 008f 7f3b
000002f0: ec6d 7dbd 0092 ce39 10a2 403c 92ba 7bbd
00000300: 1002 97bb a8e2 33bd e009 b5bb 44a1 e9bc
00000310: 845a 233d b0e6 e5bc 22ca 78bd bae5 043d
00000320: 003d 3dbb c681 5b3d cc64 69bd 7a70 4fbd
00000330: d693 6ebd 2c19 e03c 3208 513d 76e8 16bd
00000340: 1048 3d3c 761d 5abd 80c4 4dbc f6f9 0b3d
00000350: 6074 463b 122f 213d c02d ce3c d0bf cbbb
00000360: 80f7 2c3a 4e5e 69bd 3278 01bd 90b9 b4bc
00000370: 765c 1a3d b8f8 fc3c bc7f 85bc c027 883a
00000380: 026d 493d d84a 3fbd f2a1 753d c02e 35bc
00000390: be2a 523d 9c45 f43c ce2e 65bd 9cd1 f53c
000003a0: c020 3dbc f622 433d 9867 1a3c f84f bbbc
000003b0: 1cc7 ed3c 22b3 7e3d b4dc 6bbd 2ac8 4cbd
000003c0: c4d5 ddbc ac71 843c 50b7 983c ca54 6e3d
000003d0: 2098 2b3d 3cd8 753d f007 78bd c455 96bc
000003e0: e4e1 e1bc 903a 023c b2d2 4d3d dcfb bd3c
000003f0: b468 a03c 44ab a2bc a01a 953b 381b 5e3d
-0.0132562965 0.024915107 -0.019138746 0.04561024 -0.05736178 0.007879369 -0.04246913 -0.021847464
0.04090394 0.017641611 0.012652516 0.054135665 -0.008270748 0.0039904118 -0.060475543 0.025355004
0.0067276955 0.0070968047 0.00883659 -0.008531578 -0.048126265 0.051388532 -0.036731035 0.00014656782
-0.030412927 -0.051277816 0.05915662 -0.028779231 -0.016303621 -0.00081125647 0.057681084 0.055955544
0.03707353 -0.026019782 -0.053483628 0.030534305 -0.020357944 -0.05375717 -0.02504211 -0.014760874
-0.05804337 -0.019160502 0.062188253 -0.014784075 -0.03192824 0.061666302 -0.047723137 0.052940927
0.012506001 0.03670355 0.047788292 0.014047645 0.059736088 0.0479557 0.008109927 0.022083566
-0.010950401 0.0042823926 0.055913396 -0.008539818 -0.021577567 -0.0057429373 0.03786453 0.011021569
0.019232757 -0.056683667 -0.061871514 0.040788554 -0.012755573 0.033805147 0.012433 -0.020734347
-0.05250568 0.04945956 0.05644837 0.061376154 0.004436083 -0.0033873916 0.04688064 -0.056304447
-0.04883559 0.043658026 -0.014553085 0.03865923 -0.023167357 -4.503131e-05 0.008713424 0.04497636
0.00046103448 -0.016100578 -0.041954696 0.018993206 0.008142605 -0.02161286 -0.0036318898 -0.059305318
0.043624364 -0.031952016 0.05670976 0.05652248 0.06135831 -0.050280362 0.045100063 -0.033795714
-0.057063654 -0.012781538 -0.039985552 -0.048261948 0.04415831 0.06173619 -0.019234233 -0.03575553
0.03570514 0.025583126 -0.019335568 -0.027759835 -0.021716759 0.049802914 -0.022431374 0.04572642
-0.04784126 -0.04952188 0.018088818 0.027352557 0.009538755 0.047038965 0.017821841 0.055421673
-0.06006629 -0.017094202 0.059733562 0.02286052 -0.056477986 -0.027278572 -0.044034705 0.004928276
0.0005656406 -0.02152554 -0.06169682 0.011724405 -0.016599998 0.04069303 0.034174316 0.043863863
-0.05117575 -0.062414214 0.014326654 0.029378667 0.0002110079 0.031435683 -0.05120717 0.010676771
0.05220495 0.055070475 -0.05519201 -0.013185136 0.02131337 -0.031572334 0.00790593 -0.057972044
-0.053280346 -0.016084336 -0.04129593 -0.0024734885 0.04955101 0.062467664 -0.003780827 0.017712392
0.0022736639 0.043795012 0.04768215 0.05046854 0.055139244 0.00939361 0.024664082 -0.056475043
0.031807996 0.024797752 -0.048227727 -0.04388576 0.0010817796 0.0004923716 0.0585917 -0.022642307
0.01802177 -0.016014405 -0.017488867 0.0038995147 -0.061872408 0.0003940016 0.011757389 -0.061457224
-0.0046084 -0.043917328 -0.005524859 -0.02851928 0.039881244 -0.028064102 -0.060739644 0.032445647
-0.002887547 0.05359056 -0.056980893 -0.050644375 -0.058246456 0.027355753 0.051033206 -0.036842786
0.011552826 -0.053250752 -0.012559056 0.03417393 0.0030281767 0.03935153 0.0251683 -0.006217934
0.00065981597 -0.0569747 -0.031608768 -0.02206114 0.037685834 0.030880317 -0.01629626 0.0010387823
0.049176224 -0.046702236 0.059968896 -0.011058509 0.051310293 0.029818349 -0.05595284 0.030007176
-0.011543453 0.047640763 0.009424113 -0.02286528 0.029025607 0.062182553 -0.057583526 -0.04999558
-0.02707947 0.016167484 0.018642098 0.05818633 0.041893125 0.06002067 -0.060554445 -0.018351443
-0.027573533 0.007948533 0.050249763 0.023191385 0.019581176 -0.019857056 0.004550293 0.054225177

model_cnn.domain_classifier.bias f4 [2]
00000000: e4d7 be3c f419 753d
0.023296304 0.059839204
