checkpoint/pretrain_cnn_openmax_3_1210/best_model.pth (torch, 886690 bytes, 39 tensors)

cnn.layer1.0.weight f4 [16, 1, 3]
000000 8e e0 11 3f 65 dd 65 3d b2 65 fd 3e b5 6d 16 3e
       0.5698327 0.05611934 0.4949165 0.14690287
000010 7f df 9e 3e 7d a8 01 bf cc 03 dc bd 0a 98 d0 3e
       0.3102989 -0.5064772 -0.10742912 0.40740997
000020 a1 9b 3e bd 5b 46 f5 be e4 19 a5 3d f8 50 9e 3d
       -0.046535138 -0.4790524 0.08061579 0.07730287
000030 56 63 42 bd a0 cc 8f 3e f8 16 7f 3e 4f 40 91 be
       -0.047458015 0.28085804 0.24911106 -0.28369376
000040 ef ce a9 bd dd c5 bb be 0f 4c 8f 3e 5c 4f b1 be
       -0.082914226 -0.36674395 0.27987716 -0.3463086
000050 76 5f 91 be 30 56 8f ba 70 36 c6 3e f6 14 df 3e
       -0.28393143 -0.001093572 0.38713408 0.4357068
000060 e0 dd fa be 6f 94 0d bf 51 39 e8 3e 71 46 9a be
       -0.48997402 -0.55304617 0.4535623 -0.30131868
000070 df c7 05 bf d5 67 03 bd dd 49 cd 3e 51 b2 99 bd
       -0.52258104 -0.032081444 0.40095416 -0.07504714
000080 62 ef 0e 3e a7 6e 11 bf 8b fd ef 3e 88 21 c0 3e
       0.13958505 -0.5680947 0.46873125 0.37525582
000090 ff e7 ca 3e 6b 21 99 3e ac 87 98 be 1c ab f8 be
       0.39630124 0.29908308 -0.2979101 -0.48568046
0000a0 52 3f 10 bb 5f e4 9d 3e 85 56 76 be 60 aa 0f 3e
       -0.0022010398 0.30838296 -0.24056442 0.14029837
0000b0 70 83 b4 bd 6f cf 82 bd 1f 7e 18 3e 46 0e d6 3e
       -0.08814132 -0.06387221 0.14891861 0.41807765

cnn.layer1.0.bias f4 [16]
000000 00 1a 15 3d bd 9d 3e 3a b5 82 99 3c 7f f5 00 3d
       0.03640175 0.00072714296 0.018739084 0.031484123
000010 c4 89 be bd 46 18 b1 ba 21 f8 4f 3d ae 17 b4 be
       -0.093036205 -0.0013511262 0.050773744 -0.35174316
000020 a4 2f 1b bb b0 4d dc be 71 eb db be 2d e1 ff bb
       -0.002367952 -0.4302802 -0.42953065 -0.0078088255
000030 39 6a 16 3c 51 69 dd 3c 27 f5 f2 bd 43 ad 7c ba
       0.009180599 0.027027758 -0.11863165 -0.0009638855

cnn.layer1.1.weight f4 [16]
000000 0d 3c 81 3f eb 57 80 3f c2 0e 7f 3f be 9c 7e 3f
       1.0096451 1.002683 0.99631894 0.9945792
000010 dc 4f 7c 3f 94 47 82 3f db ac 7f 3f 40 bb 81 3f
       0.98559356 1.0178094 0.9987313 1.0135269
000020 4a 3a 7d 3f 7c 54 7c 3f 10 4a 81 3f 71 1a 7f 3f
       0.9891707 0.9856641 1.0100727 0.9964972
000030 5b ed 7d 3f de 86 7d 3f dd f0 82 3f 0e 9c 7e 3f
       0.991903 0.99033916 1.0229756 0.9945687

cnn.layer1.1.bias f4 [16]
000000 ad be be bc 6e 65 47 bc 1f 03 15 bb 47 05 28 bc
       -0.02328428 -0.012170179 -0.0022737456 -0.0102551645
000010 4c e7 ab bb 2e 75 ba 3c b0 ac 4b 3a b3 94 b1 3c
       -0.0052460786 0.022760954 0.0007769568 0.02167735
000020 b0 c0 d8 bc 65 e6 b6 bc 6b 16 c9 ba 0f c8 74 3b
       -0.026459068 -0.022326658 -0.0015341764 0.003735069
000030 a1 3b 31 bc b0 d9 f7 3c 7a 37 25 3c cc 7f 3c 3c
       -0.010817439 0.030255169 0.010084027 0.0115050785

cnn.layer1.1.running_mean f4 [16]
000000 18 20 2c 3d a6 8a 91 b9 1f 73 b5 3c 59 1f 16 3d
       0.042022794 -0.00027759856 0.02214962 0.03665099
000010 5a 1a ce bd cf a3 ab bb b7 8e 6a 3d ea ba b8 be
       -0.1006362 -0.0052380334 0.05726501 -0.36080104
000020 06 d5 22 bb e4 04 e1 be bf a2 e0 be 87 09 f4 bb
       -0.002484621 -0.43949044 -0.43874165 -0.007447425
000030 c8 9b 4b 3c a5 c0 03 3d 0a e4 00 be 4d 8a 2e bb
       0.012427278 0.032166142 -0.1258699 -0.0026632727

cnn.layer1.1.running_var f4 [16]
000000 2b c1 c0 3e 80 1b bc 3e f9 40 0d 3e 41 4c 80 3e
       0.37647375 0.3673973 0.13794316 0.25058177
000010 bb 63 3a 3e 5c 90 2a 3e 28 75 ae 3e 01 93 db 3e
       0.18202107 0.16656631 0.34073758 0.42885593
000020 79 fd 6d 3f 5c de e5 3e f4 73 ef 3d 58 09 4b 3f
       0.92964894 0.4489621 0.11692038 0.7931113
000030 b9 43 e2 3e 1c fd e3 3e a6 74 2d 3d 28 c0 7e 3e
       0.44192293 0.44529045 0.042347573 0.2487799

cnn.layer2.0.weight f4 [32, 16, 3]
000000 88 7d b8 bb 86 ec a6 bb 92 e6 b0 bd 95 44 15 3d
       -0.005630199 -0.0050941138 -0.08637728 0.036442358
000010 a5 91 43 3d 52 8f aa 3b 40 d1 67 bc c1 d3 a4 3d
       0.04774632 0.0052050734 -0.01414901 0.08048201
000020 5a 74 c3 3d ab 2b c3 bc 41 19 d5 bd ba 60 d7 bd
       0.09543677 -0.023824533 -0.104052074 -0.10516496
000030 06 c7 32 bb 38 b4 02 be 65 23 e4 bd c2 44 64 bd
       -0.0027279272 -0.1276406 -0.111395635 -0.055729635
000040 c9 f1 6e bd f9 25 e0 bc 88 66 f2 3c fa bb cc 3d
       -0.058336053 -0.027361857 0.029589906 0.09996791
000050 90 b8 16 3e c7 25 5f bd 70 0e 0e be 1b 5a bf 3d
       0.14718843 -0.054479387 -0.13872695 0.09343358
000060 df 4e 03 3e 26 c8 0a 3e ca 71 fc 3c ed 92 be 3d
       0.12823056 0.13552913 0.030815978 0.093053676
000070 a0 21 89 bb d1 89 d8 bd b3 46 d9 bd 54 d6 9d bd
       -0.0041849166 -0.105731614 -0.10609188 -0.077068955
000080 3b a2 ec 3c c3 da 53 bd 19 35 2e 3d 68 b2 3d 3d
       0.028885951 -0.0517223 0.042531107 0.04631272
000090 b9 f4 ae bd 21 b7 69 3c 93 15 12 3e f9 96 aa 3d
       -0.08542771 0.014264853 0.14266042 0.08329577
0000a0 c5 75 7c bc 4a 30 06 bd d0 df a7 bd 21 49 77 3d
       -0.015408938 -0.032760896 -0.08196986 0.060372476
0000b0 40 6d ba bd d7 35 12 3e cc ae e0 3a 44 a6 c6 bd
       -0.09102869 0.14278351 0.0017141937 -0.096996814
0000c0 03 a0 63 bd 39 54 94 bd 71 82 05 be ce b1 40 bd
       -0.05557252 -0.07242627 -0.1303804 -0.047044568
0000d0 3f cd 01 be da e8 72 3d 23 95 4f bd 29 52 2b 3d
       -0.12675951 0.059304096 -0.050679337 0.0418264
0000e0 98 68 a2 bd f0 1d 5f bd 9c 5c 84 bd ff 60 3d bc
       -0.07930106 -0.05447191 -0.06462976 -0.01155877
0000f0 94 d0 df bd 77 c5 00 be 6a f9 df 3c ab c1 17 be
       -0.10928455 -0.12575327 0.02734061 -0.14819972
000100 e4 d2 e6 3d f0 4a d3 3d c9 08 b3 3d 35 1c bf 3d
       0.11270693 0.103170276 0.0874191 0.09331552
000110 a1 90 8e bd 82 18 c5 3c a2 1b ee 3c 9f df fd 3d
       -0.069611795 0.024059538 0.02906591 0.12396168
000120 a1 f9 ed bd c4 7f 24 bd 65 7b 9a 3d 06 31 a1 3d
       -0.116198786 -0.04016091 0.07543067 0.078706786
000130 af fd 17 be 4e a0 00 3e ef 75 ec 3d b0 9d f1 3d
       -0.14842866 0.12561151 0.115459315 0.11797655
000140 4f 01 5b bd ee ed 8a bd 14 5b 35 3d fd 04 d4 3d
       -0.053468045 -0.06783663 0.044276312 0.10352514
000150 b0 24 0c 3e 27 dc b2 bd da 9e cb 3d 4d 2d 18 bc
       0.1368587 -0.08733397 0.09942408 -0.009288144
000160 83 44 71 bd 93 2b a4 3d b4 e3 7a 3d c8 cb 18 3d
       -0.05890323 0.080161236 0.06125231 0.037303716
000170 76 40 d2 bd 4b 9e 0d 3e 9a 6b 1d bd a9 fb 78 3b
       -0.10266201 0.13829915 -0.038432695 0.0037991798
000180 ba 27 1d bd 0f ca 06 be 2e dd b5 bc 48 31 23 3d
       -0.038367964 -0.13163017 -0.022200193 0.03984192
000190 29 c5 16 3c df b6 65 bd 6b 3c c3 3d 51 06 0a bd
       0.00920228 -0.056082603 0.09533008 -0.03369743
0001a0 af cc f8 bd e3 89 7d bd dc 77 35 bd c8 44 ab 3d
       -0.12148415 -0.061899077 -0.04430376 0.08362728
0001b0 bb ec cc 3d 7d e7 0a 3d 7f 08 06 3e c7 d5 16 3e
       0.1000609 0.03391217 0.13089179 0.14729987
0001c0 a8 ff 3a 3d c8 2b ce 3d 3f a6 2a 3d 2f 50 1e 3d
       0.04565397 0.10066944 0.04166245 0.038650688
0001d0 60 e0 f4 3d d1 35 50 bd 0a b0 06 be e8 9a 08 be
       0.11956859 -0.050832573 -0.13153091 -0.13340342
0001e0 4f 21 aa 3d 20 31 f7 bd 50 ac 93 3d 96 e5 e8 bb
       0.08307134 -0.12069917 0.072106004 -0.007107447
0001f0 a7 24 1c be 73 c4 f6 bc f9 7b 95 3d d4 a5 4c 3c
       -0.15248357 -0.030122971 0.072990365 0.012490708
000200 a7 67 43 3d 7a 10 8a bd 6a 5b 9c bd df fe e5 bc
       0.047706272 -0.06741424 -0.07634623 -0.028075634
000210 4d 40 e6 bd 21 d1 17 bd d0 6f 52 bc 2b 97 4a 3d
       -0.11242733 -0.037064675 -0.012844041 0.04946057
000220 83 c5 63 bd 98 56 af 3d 99 21 dc bb 00 4a 14 bd
       -0.055608284 0.08561438 -0.0067178723 -0.036203384
000230 40 6b 6c bd 2b a0 ac 3d cb 89 79 bb ab e1 ae bd
       -0.05771947 0.08428987 -0.0038076516 -0.085391365
000240 6e 12 ae bd 55 b9 02 bc 58 c7 33 3d 20 7f c2 bd
       -0.08499609 -0.007978757 0.04389128 -0.094969034
000250 6b b0 02 be 2e 34 47 3d 96 8d 49 3d 64 32 9e bd
       -0.1276261 0.048633747 0.049207292 -0.07724455
000260 60 ed 8d bd 9f 91 da 3d 77 d4 c2 bd 93 ff c1 3d
       -0.06930041 0.10672306 -0.09513181 0.09472575
000270 9c 16 b2 bd 34 e7 87 3d 14 80 88 3b bd d4 0e 3d
       -0.08695719 0.06635895 0.0041656587 0.03487085
000280 fd 7b 19 3d 23 ef da bd d0 f9 03 be 72 d6 eb bb
       0.03747176 -0.10690143 -0.12888265 -0.0071971947
000290 5d 27 1c 3c e4 aa 35 bc 76 fe 84 3d 57 0c 1e 3e
       0.009530869 -0.011088107 0.06493847 0.15434395
0002a0 5e 19 84 bd eb d5 49 3d f4 20 1f 3d 15 44 8e 3d
       -0.06450151 0.049276274 0.038849786 0.06946579
0002b0 0a c4 8c bd 0b 24 21 be c5 20 a6 bd e6 4c a1 3b
       -0.06873329 -0.15736406 -0.08111719 0.004922497
0002c0 78 88 07 be d2 76 fe 3d 00 5e fe 3d 91 fd 1a 3d
       -0.13235652 0.12425007 0.12420273 0.037839476
0002d0 6e 1e de bd ac 51 02 be 63 8a ab 3d 5f fa c8 bd
       -0.10845648 -0.12726468 0.083760045 -0.098133795
0002e0 14 25 5d 3d eb 51 07 3e 60 ae c6 bd d7 11 47 3d
       0.05399044 0.13214843 -0.09701228 0.048600998
0002f0 0e a9 79 bc 3d 98 79 3d 62 1a aa 3d f0 41 8b 3b
       -0.01523806 0.0609362 0.08305813 0.0042498037
000300 90 45 e0 3c 37 ff 53 bd 3f d3 18 3d 8e b5 1d 3d
       0.02737692 -0.051757064 0.037310835 0.038503222
000310 cd ef b0 3d 1a 6d ea 3d ca e8 b5 3c 13 56 fa 3d
       0.08639488 0.11446591 0.022205729 0.122234486
000320 3f 4e 1d be e9 11 5c bd cf cf f8 bd fd 57 57 bd
       -0.1536188 -0.053728018 -0.12149011 -0.052574147
000330 7e eb d0 3d 74 da fb bd bf ee a1 3d 61 73 9f bc
       0.102011666 -0.12297526 0.07906865 -0.019464197
000340 43 e9 38 3c 80 a5 ea bd 0b 51 a8 bd e9 bc 7c 3b
       0.011286083 -0.11457348 -0.08218583 0.0038564748
000350 d6 04 09 3c 7e d6 02 be d1 bf 04 bb 4f 68 6b bd
       0.008362969 -0.12777135 -0.0020255933 -0.057472523
000360 ff 4b a8 bd 10 c1 ee bd cd 9a 2a 3d a4 a3 19 3d
       -0.0821762 -0.116579175 0.041651536 0.037509575
000370 49 d3 ba 3d 81 84 e0 3d a3 c1 39 3d bd 2b 8f bd
       0.09122331 0.10962773 0.045350682 -0.06990764
000380 ac 00 c9 3d 4d 88 32 3d a0 95 e0 3d 19 26 99 3d
       0.09814581 0.043587018 0.10966039 0.0747797
000390 fc ed 0b 3d 0a 33 69 3d f2 f2 13 be bf 94 b3 3d
       0.034162506 0.05693344 -0.14448145 0.087686054
0003a0 bd 1e c8 3d e2 a5 80 bc ea d5 00 be 26 10 d0 3d
       0.09771488 -0.0157041 -0.12581602 0.1015933
0003b0 9e d5 db 3b 9a 87 18 bd 1f b5 ed bc 03 75 e0 3d
       0.0067088148 -0.037238695 -0.02901703 0.10959818
0003c0 0d 10 45 bd 26 c6 2b 3e f3 80 d3 3d 54 78 5a 3d
       -0.04811101 0.16774806 0.103273295 0.05333741
0003d0 62 5e c7 3d 82 ea d8 bd 7f 95 a4 bd 21 b1 d5 3d
       0.09734799 -0.10591604 -0.080363266 0.10434175
0003e0 a6 a5 d9 3d 2d 3a e4 bd 48 17 ac bd b8 57 85 3d
       0.10627298 -0.11143909 -0.08402878 0.06510872
0003f0 a7 c5 8b 3d 5a 62 b2 3d 10 8a c8 bd 95 e6 cc 3d
       0.068248086 0.08710165 -0.09791958 0.100049175

cnn.layer2.0.bias f4 [32]
000000 9a 85 0e 3a 6f 51 82 ba fe 9f 7b 3b 6c f3 3c 3a
       0.00054367783 -0.0009942482 0.0038394923 0.00072079035
000010 08 f6 6c 3c bc a6 a7 bb ca 2b 07 3d fd c9 e6 3b
       0.014462955 -0.005116312 0.033000745 0.007043122
000020 2f 3e d9 bc 7b b3 f8 bc 3f b1 ef 3c bd 16 7f 3a
       -0.02651891 -0.03035902 0.029259322 0.00097308663
000030 b9 03 ab 38 62 73 43 bd 73 c7 07 bd 1b f5 98 bc
       8.154609e-05 -0.04771746 -0.033149194 -0.018671563
000040 3f db 8b bc ab 92 19 bb 3f 19 42 3d 0c 3d b9 bc
       -0.017072318 -0.0023433368 0.047387358 -0.022612117
000050 49 59 89 3c 75 dd d5 bb 16 9f d2 3c f4 8d fe bb
       0.016766207 -0.006526644 0.025710624 -0.007768387
000060 9d 88 e0 bb 6e c5 8a 3b 24 61 09 3d 71 81 30 bc
       -0.006852223 0.0042349612 0.033539906 -0.010773049
000070 7c 4e bf 3a f1 a3 b1 3b 30 20 45 3d cc 01 3e ba
       0.0014595534 0.0054211547 0.0481264 -0.00072481926

cnn.layer2.1.weight f4 [32]
000000 84 18 7f 3f 8d c4 80 3f 38 18 7e 3f 02 1d 80 3f
       0.9964678 1.0059983 0.99255705 1.0008852
000010 69 20 81 3f 4f fd 82 3f 38 73 7d 3f b2 76 7f 3f
       1.0088016 1.0233554 0.99003935 0.9979049
000020 df 1a 7d 3f 26 2b 81 3f fd d5 7f 3f 23 fd 7c 3f
       0.9886913 1.0091293 0.99935895 0.98823756
000030 a3 36 7f 3f 12 1d 7f 3f 14 b0 7e 3f 1f 5e 81 3f
       0.99692744 0.9965373 0.99487424 1.0106848
000040 c6 1a 80 3f d0 2b 81 3f 41 51 81 3f ff c2 7e 3f
       1.0008171 1.0091496 1.0102922 0.9951629
000050 d8 3b 81 3f 10 1d 81 3f ea 7c 7e 3f 09 0b 7e 3f
       1.0096388 1.0086994 0.99409354 0.9923559
000060 4f 43 82 3f ee c8 80 3f d8 03 82 3f 73 62 7f 3f
       1.0176791 1.0061319 1.0157423 0.99759597
000070 1c 82 7c 3f 76 2f 7e 3f 5e 38 7c 3f 95 1c 86 3f
       0.9863603 0.9929117 0.9852351 1.0477473

cnn.layer2.1.bias f4 [32]
000000 69 3c 8b bb c2 1c 08 bd 43 97 9c 3c 5a 21 b9 3b
       -0.004249145 -0.03323055 0.019115096 0.005649728
000010 5b 55 ac bc e5 9f 83 b9 1a f2 d2 bc 81 f9 73 bc
       -0.021036794 -0.00025105398 -0.025750209 -0.014891029
000020 62 32 cd bc 0e ee 99 3c a2 be e5 bc 27 5f 1d bc
       -0.025048438 0.018790271 -0.028045002 -0.009605206
000030 4f b4 ca bc 94 80 07 bd a7 22 84 bc 78 38 4f bc
       -0.024744181 -0.033081606 -0.016129805 -0.012647741
000040 e2 1d f4 3b 75 b0 e3 bc f0 54 8f bb 3c 64 a6 3a
       0.0074498514 -0.027794102 -0.004374139 0.0012694667
000050 d0 11 98 ba 35 e1 0e bc 54 74 c6 3a 26 57 61 3c
       -0.0011601988 -0.008720686 0.001514087 0.013753688
000060 dd d5 09 bc 10 8d ba bb b8 d9 bc bb 89 5f 8b ba
       -0.008412805 -0.0056930855 -0.005763259 -0.001063333
000070 25 b8 40 bd 9e a7 07 3c a2 70 3a bc c4 ac 1f 3d
       -0.047050614 0.008279709 -0.011379393 0.03898312

cnn.layer2.1.running_mean f4 [32]
000000 73 ba 42 bd d5 7e 14 3d f3 89 a4 bd f1 d4 94 bd
       -0.047541093 0.03625377 -0.08034124 -0.07267178
000010 00 2a b8 3d 13 80 ca bd dc cc 7b 3d b3 f7 a7 bc
       0.08992386 -0.098877095 0.061474666 -0.020503854
000020 de cb 77 3e 26 88 3b be 21 30 14 3d c0 e1 8f 3d
       0.24198863 -0.18313655 0.03617871 0.0702548
000030 cc fd ef bd 95 ab d6 3d eb 17 8a 3e 68 40 62 3e
       -0.1171833 0.104819454 0.26971373 0.22094882
000040 90 89 85 be 5f 17 81 3e a4 24 bb bd 10 e7 b7 3d
       -0.26081514 0.25213143 -0.09137848 0.089796185
000050 ef d0 0c be 71 61 fe 3d 60 1b ca be 6b 7c 14 be
       -0.13751577 0.12420929 -0.3947401 -0.14500587
000060 18 db 1c be f3 ca 84 3e 54 d2 ab 3d 5f f3 dc 3e
       -0.15317953 0.25936088 0.08389726 0.43154427
000070 f2 23 ac 3e e5 19 14 be 3d a8 00 3d ae 2b 03 bf
       0.33621174 -0.14463003 0.031410445 -0.51238525

cnn.layer2.1.running_var f4 [32]
000000 40 6d 09 3e b4 a0 fd 3d fc c6 28 3e 8f 0f 3e 3e
       0.13420582 0.12384167 0.16482157 0.18560623
000010 fb 5b 10 3d 6e 0a 4f 3d 67 2f 85 3d 91 65 02 3e
       0.03524397 0.050547056 0.06503182 0.12734057
000020 64 a1 08 3e 7d 80 e7 3d 5a 1d ae 3d 9f 88 d3 3d
       0.13342816 0.11303804 0.08501692 0.10328793
000030 72 a0 4f 3e 10 bb 91 3e f6 fc 31 3e 4f 13 48 3e
       0.20276049 0.2846303 0.17381653 0.19538616
000040 c3 70 4e 3d 99 dc ec 3d 4f 4c d8 3d d8 c0 a8 3d
       0.050400507 0.11565513 0.1056143 0.08239907
000050 6e a9 9b 3e d4 04 86 3d da ad e4 3d fb 3a 04 3e
       0.30402702 0.0654389 0.11165972 0.12913124
000060 5f ec ad 3d cb 7a 9a 3e 55 ce 01 3e 3f 9c 85 3e
       0.0849235 0.3017181 0.12676366 0.2609577
000070 1b dc 13 3e 77 d2 ef 3e 75 b6 17 3e 6f d4 2b 3e
       0.14439432 0.4684026 0.14815696 0.16780256

cnn.layer3.0.weight f4 [64, 32, 3]
000000 48 e5 d2 bd 48 3c c0 3d 5a fe 11 bd 7d 9a 17 bd
       -0.10297638 0.09386498 -0.03564296 -0.037012566
000010 29 b3 36 3d fc 7d cc 3d c7 09 20 bd ed a6 36 bd
       0.044604454 0.09984967 -0.039071824 -0.044592787
000020 88 7e 64 bd 34 07 13 bd ef 19 c7 bd 0c 72 22 bd
       -0.055784732 -0.03589554 -0.09721743 -0.039659545
000030 c8 18 b5 3c 84 05 bb 3d fb d5 a8 3d a3 a2 a3 bd
       0.022106543 0.091319114 0.082439385 -0.07990005
000040 59 33 a5 bd 16 0e b3 3c d8 07 c5 3d de 36 92 bd
       -0.080664344 0.021857303 0.09620637 -0.07139371
000050 8c 1d 82 3c c1 0d 12 3d 2e 47 aa 3d 3d 2e 37 bc
       0.01588323 0.035657648 0.08314358 -0.011180458
000060 3d 21 3d 3d ac 3e 84 bc 9d dc a8 3d d0 dd ad bd
       0.046174277 -0.016143166 0.08245204 -0.08489573
000070 92 4c e5 bc 98 bf b2 bb 45 c2 0d bc 74 c7 b2 3d
       -0.027990613 -0.0054549687 -0.0086522745 0.08729449
000080 de 4a b4 3c c5 6b 19 3d e6 34 28 bd 0e a9 8a 3d
       0.022008356 0.037456293 -0.041066073 0.06770526
000090 99 05 87 3d d9 59 66 bd 0d 16 cd 3d f6 8c bd bc
       0.065928645 -0.05623803 0.100139715 -0.023138504
0000a0 b9 9b 56 3d 69 0f ce 3d b7 ac 8d 3c 44 66 14 bd
       0.052394602 0.10061533 0.01729427 -0.03623034
0000b0 a0 58 88 3d cf ea d4 bc 7d f0 99 bd f6 19 0a 3d
       0.06657529 -0.025990872 -0.075165726 0.033716165
0000c0 7f 82 9b bd e7 6a a4 3d 65 a1 3a bd fd 9f d2 3d
       -0.075932495 0.080282025 -0.045564074 0.102844216
0000d0 15 3a 4b bd b1 06 8a bd 6f 54 16 3d d5 43 ca bd
       -0.04961594 -0.067395575 0.036701616 -0.09876219
0000e0 43 bc 0c 3d 12 a4 dc bd 47 f8 dd bc 36 45 c3 3c
       0.034359228 -0.107734814 -0.027095927 0.023836713
0000f0 57 99 61 bd 53 0d 9b bc 13 fd a6 3d 65 dd c1 bb
       -0.055077877 -0.018927252 0.08153739 -0.005916285
000100 08 3f b4 3b c9 3b ac bd cc ed b8 bd 36 aa 60 bd
       0.005500678 -0.084098406 -0.09029731 -0.054849826
000110 94 fe 9b bc 63 bc a3 3d 66 a7 8a 3d 6d 17 bc bc
       -0.01904229 0.07994916 0.0677021 -0.022960389
000120 d2 f9 f0 3b 3b 2f 80 3d ed ad a7 3d de 52 6e bd
       0.0073539997 0.062590085 0.081874706 -0.058184497
000130 a7 02 32 bd eb 87 54 bd 5b 02 22 3d e0 ea 86 3d
       -0.04345956 -0.051887434 0.039553028 0.065877676
000140 92 8a 47 bd a3 6d 8f 3d b0 af 05 bd 35 ad 09 3d
       -0.048716135 0.070033334 -0.03263825 0.03361245
000150 77 6a c1 3d 8d 9a 26 bc e4 eb 6a 3d b2 bf ad bd
       0.09444135 -0.010168684 0.05735387 -0.084838286
000160 85 08 1c bd 46 97 57 3d 96 d2 34 bd 7b f2 15 bd
       -0.038094062 0.0526345 -0.044146143 -0.0366082
000170 46 53 93 3d c7 19 cb 3d 2a 12 28 3d f5 77 5c bd
       0.071936175 0.09917026 0.041032948 -0.053825337
000180 ba f6 4e bd 48 ce a9 bc 82 1e ad 3d 3a 60 e9 3c
       -0.050528266 -0.020728245 0.084530845 0.028488267
000190 2b 5b 95 3d 34 8f 7f 3d 3f 89 16 bd dc e4 84 3d
       0.072927795 0.06239243 -0.03675198 0.06488964
0001a0 46 ac 41 bd 00 da d6 bd df 62 d5 3c b1 15 cc bd
       -0.047283433 -0.10490799 0.026048122 -0.09965075
0001b0 95 ea 4b 3d af df fc 3b 43 42 3a bd 9f 70 65 bb
       0.04978426 0.007717095 -0.04547335 -0.0035009754
0001c0 c0 1c d2 bc bb 70 e7 3d 6d 3e 07 bd ab da 09 bd
       -0.025648475 0.113007985 -0.03301852 -0.033655804
0001d0 8d 97 ba bd 83 8c ca bc a6 d8 cf bd e8 2a 91 3d
       -0.09110937 -0.024725204 -0.10148744 0.07088262
0001e0 a1 d2 85 3d 0f 73 b8 3d 04 da af bd 78 79 cc 3b
       0.06534315 0.09006321 -0.08586505 0.006240066
0001f0 6c e5 f5 bc ec fc 67 3d 9f 85 a1 bd 6d 1c 98 bd
       -0.030016623 0.05663769 -0.07886814 -0.07427297
000200 e9 1e 56 bd 9d f5 34 3d 34 ac a9 3d 1c 22 34 bd
       -0.052275572 0.044179548 0.08284798 -0.04397784
000210 a6 1b 20 3d 70 5d 7d 3d 15 d0 e6 3c 5d 2f 61 bd
       0.039088868 0.061856687 0.028175393 -0.05497681
000220 00 7a 33 bd c3 e5 b3 3c 05 fb 2c 3d b0 0e d9 3d
       -0.04381752 0.021960145 0.04223158 0.105985045
000230 c6 51 9c bc 71 0f a4 3c d7 10 83 bc 7d f4 a3 3d
       -0.019081961 0.020026894 -0.01599924 0.08005617
000240 f1 f4 fa bd 1c d7 7a 3d 42 09 d2 bd de c2 26 bb
       -0.1225375 0.0612403 -0.10255672 -0.002544574
000250 97 69 a2 3c b1 e9 af 3d 07 a9 d7 bc de 59 89 3b
       0.01982574 0.08589495 -0.026325716 0.004191621
000260 0d e3 12 3d c9 31 ac 3d 7b 35 05 bd 60 0f 83 3c
       0.035861064 0.08407933 -0.032521706 0.015998542
000270 94 11 a0 bd 45 d8 b8 3d 5e 11 bc bd c1 62 67 3c
       -0.07815853 0.09025625 -0.09183 0.014122666
000280 53 eb 8b 3c a3 89 3a bc e8 83 b6 3d 36 69 7e bd
       0.017079985 -0.011385354 0.08911878 -0.062112056
000290 40 c4 c3 3d b1 b8 d4 3c 19 51 0d 3c 7a 31 18 3d
       0.09558916 0.025966974 0.008625292 0.03715656
0002a0 f8 c1 1e 3c 99 8b 32 3d be 63 83 bd ea be bf bd
       0.0096898 0.043590162 -0.06415509 -0.09362586
0002b0 c5 6d 57 3d 35 06 ef 3c a4 d6 44 3d 2c bf 96 bd
       0.05259492 0.029177764 0.04805626 -0.07360682
0002c0 4c 55 74 3c ff 4f 1e bc 44 29 6a bd 6c 6e 2f bc
       0.0149129145 -0.009662627 -0.05716826 -0.010707479
0002d0 a0 b8 62 bb 71 1d 9d bd 4c 9a 14 3d e9 fb 7b bd
       -0.0034594908 -0.07671631 0.03627996 -0.061519537
0002e0 b0 4e d9 bd 19 cb c9 bd 1f fc c4 3a 14 7f df bc
       -0.106107116 -0.09853191 0.0015028751 -0.027282275
0002f0 7d 0f 59 3c 90 a7 df 3d 81 82 8a 3d 3a d0 4e bd
       0.013248322 0.10920632 0.06763173 -0.05049155
000300 27 85 a1 bc 4e 5b cf bd 1b 59 b6 bd 39 89 a0 bd
       -0.019716812 -0.10124837 -0.08903714 -0.07838673
000310 14 01 19 3d ce 26 db bd 41 4b 7c 3d 4a c0 7c bc
       0.037354544 -0.10700761 0.061595205 -0.015426705
000320 e4 d4 e9 bd 30 68 44 bd f3 4a 78 3d 9e 3e b1 bc
       -0.11417559 -0.047950923 0.060618352 -0.021636304
000330 23 f2 86 bd 7c 86 89 bd 64 9d fa 3c b5 9b 9f bd
       -0.06589153 -0.06715104 0.030592628 -0.07793371
000340 1f 21 5c 3c d1 84 c6 3d c4 ec e2 3c 3e 93 1a bd
       0.013435631 0.096933015 0.02770079 -0.037738077
000350 c1 fc b7 3d b2 5b d4 bc 21 58 8f bc 84 32 01 bc
       0.08983756 -0.02592263 -0.017498078 -0.007885579
000360 0d b7 5b 3c 70 6a b0 3c af 92 a0 3d 20 47 7c bc
       0.013410342 0.021535128 0.07840478 -0.015397817
000370 74 6a c9 bc 19 01 ca 3c 9b c3 ac bd 77 c9 b7 bc
       -0.024586894 0.024658727 -0.08435746 -0.022434933
000380 e5 c6 d1 bb f4 7c 92 bd 18 e7 01 3d b8 1b 67 3d
       -0.006401884 -0.07152739 0.03171453 0.05642292
000390 69 c8 46 3c ca 6d 78 bd e7 49 6c bd ec 4f cb 3c
       0.012132742 -0.060651578 -0.057687666 0.024818383
0003a0 95 82 c3 bd e5 de 74 3c 86 0b 9b 3d 20 04 90 bd
       -0.09546391 0.01494572 0.07570557 -0.07032037
0003b0 f2 b1 cb bd e5 c6 b6 3c 0b de ab bd 2a ad 9d 3d
       -0.0994605 0.022311637 -0.08391961 0.07699044
0003c0 92 ba ae bd d5 84 9c 3c b8 04 bc 3d d0 ee 3a bd
       -0.08531679 0.019106308 0.091805875 -0.045637906
0003d0 7c 71 64 3d 04 58 3b bd 63 25 06 be 46 67 da bd
       0.05577229 -0.045738235 -0.131002 -0.10664229
0003e0 23 3f 93 bd 6f 74 0e 3c cf 7a 45 bd 36 5e a7 bc
       -0.07189777 0.008694752 -0.048212823 -0.020430665
0003f0 60 07 85 bd 94 5b 9f 3d ed bd dd bd d0 b4 90 bd
       -0.06495547 0.07781139 -0.10827241 -0.07065737

cnn.layer3.0.bias f4 [64]
000000 7e 69 6c b9 88 f2 db 38 91 1d b6 b8 02 f8 82 bc
       -0.00022546013 0.00010487909 -8.6839435e-05 -0.0159874
000010 a6 f5 0b 3a 82 f5 a1 bc 38 92 51 3a 69 9f 21 bc
       0.00053390337 -0.019770388 0.00079945056 -0.0098646665
000020 26 f1 77 b8 94 0a 7e 38 1a 2e 0d ba e6 2c 6a 3c
       -5.9113976e-05 6.056817e-05 -0.0005385593 0.014292931
000030 85 a1 16 39 8d 04 92 3b 22 7c 56 b9 c9 98 00 ba
       0.00014365285 0.004456109 -0.00020454873 -0.0004905579
000040 35 1a 43 ba 1f 1f 8e bb 0c 5b 71 b9 3c 63 38 3c
       -0.0007442565 -0.004337206 -0.00023017469 0.011254128
000050 1e d0 77 bc c1 23 fa 39 35 f1 e9 3a a6 36 22 bb
       -0.015125303 0.00047710355 0.0017848375 -0.0024751811
000060 ec 8f 3d ba 36 4d a5 3b 13 ce 10 3c ff 55 47 b9
       -0.0007231224 0.0050446047 0.008838194 -0.00019010155
000070 9d 79 d7 bb f2 41 aa 38 a1 9b 98 bc f1 ef 1f 3a
       -0.0065757767 8.118515e-05 -0.018628897 0.00061011227
000080 44 24 f5 39 f3 ca 63 3b 86 6e 37 3b 4f 12 f3 ba
       0.00046757062 0.0034758418 0.002798946 -0.0018544885
000090 8e e9 29 bc 97 15 21 3a a4 f5 36 39 d3 dc 64 3c
       -0.010370625 0.000614488 0.00017448381 0.013968664
0000a0 17 f7 f5 38 f2 21 42 39 11 00 f2 3b 36 97 c3 39
       0.000117285344 0.00018513927 0.007385262 0.0003730596
0000b0 b4 5d ee bb 08 7e 97 39 a1 98 fd 39 7c e9 6e 3c
       -0.007274354 0.00028894865 0.00048369638 0.014582034
0000c0 b2 e5 1a b8 d6 77 ba ba a8 4a 0b bb f4 72 4c 39
       -3.693038e-05 -0.0014226388 -0.0021254215 0.0001949778
0000d0 cc 86 58 bb ea bb 23 3b b2 89 18 3a ac 36 61 ba
       -0.003303933 0.0024983832 0.0005818858 -0.00085912156
0000e0 24 70 fb 3a 91 65 89 ba 3d f2 95 b9 ac e4 1b 37
       0.0019183201 -0.001048254 -0.00028599976 9.291962e-06
0000f0 61 fa 16 39 6f 41 14 bb dd 7b 83 3c 90 1d e3 3a
       0.00014398388 -0.002262201 0.016050274 0.0017327536

cnn.layer3.1.weight f4 [64]
000000 0d ed 80 3f 16 5e 7a 3f a0 54 83 3f 8f 9c 7b 3f
       1.0072342 0.97799814 1.02602 0.98285764
000010 6c 25 83 3f 09 a1 80 3f fe 84 81 3f 06 40 80 3f
       1.0245795 1.0049144 1.0118711 1.0019538
000020 55 da 79 3f d8 fe 7d 3f 3d ea 7a 3f 22 56 7b 3f
       0.97598773 0.99216986 0.9801367 0.98178303
000030 f0 18 81 3f 26 71 82 3f 6f c9 81 3f 90 a2 7c 3f
       1.0085735 1.019078 1.0139598 0.9868555
000040 01 b6 7b 3f 1b 07 7e 3f 79 b9 7c 3f b8 2b 81 3f
       0.9832459 0.9922959 0.9872051 1.0091467
000050 ac 81 7f 3f c3 69 7c 3f 88 36 7b 3f b8 4c 81 3f
       0.9980724 0.9859888 0.98130083 1.0101538
000060 c8 20 7f 3f 7f b5 7f 3f 4e b8 7a 3f 31 1d 7d 3f
       0.99659395 0.99886316 0.97937477 0.9887267
000070 ad d4 7f 3f e7 b2 82 3f 5f 47 80 3f e2 0c 7e 3f
       0.9993389 1.0210847 1.0021781 0.9923841
000080 5b 4d 7c 3f 5a 80 7c 3f fe 7b 7b 3f a5 3d 81 3f
       0.98555535 0.9863335 0.9823607 1.0096937
000090 3b 80 7d 3f 06 4e 81 3f 5a c3 81 3f f7 1b 80 3f
       0.9902379 1.0101936 1.0137742 1.0008534
0000a0 3b 4f 80 3f b5 90 80 3f 99 f7 83 3f 43 4b 7e 3f
       1.0024179 1.0044161 1.0309936 0.9933359
0000b0 1f 25 7e 3f af bf 7c 3f b9 5e 7e 3f 27 b2 7e 3f
       0.9927539 0.98729986 0.99363285 0.9949059
0000c0 63 35 80 3f 4f 03 7b 3f 98 2e 81 3f a0 52 82 3f
       1.0016292 0.98051924 1.0092344 1.0181465
0000d0 d7 ad 7f 3f 5e 3d 7a 3f e9 64 80 3f ae 57 81 3f
       0.99874634 0.9774989 1.0030795 1.0104883
0000e0 8f 35 82 3f ea 56 7d 3f 74 57 80 3f b7 f2 80 3f
       1.0172595 0.98960745 1.0026689 1.0074071
0000f0 ee d8 80 3f 52 90 7c 3f 0e 2b 7e 3f 74 90 81 3f
       1.0066202 0.98657715 0.99284446 1.0122209

cnn.layer3.1.bias f4 [64]
000000 71 a3 f6 bc 85 97 a9 bc 04 61 2b 3d 0c 05 40 bc
       -0.030107232 -0.020702133 0.04184057 -0.011719953
000010 53 10 16 bc bd 2c aa bc d6 80 b2 bc b8 ce 00 3d
       -0.009159165 -0.020773286 -0.02178995 0.031447142
000020 64 3e 39 bc 37 25 64 bc 1a dd a6 bc 84 5b a7 bb
       -0.011306379 -0.013924888 -0.020369101 -0.005107345
000030 e6 d2 9c bc c4 2a 17 3c f7 d7 02 3d 9d 14 ef bc
       -0.019143533 0.009226505 0.03194424 -0.029184634
000040 9e 7c b6 bc bb ef 5e bc 1f 92 3c 3b 04 ff 2e bb
       -0.022276219 -0.013606961 0.0028773618 -0.0026702294
000050 28 24 1e bd 7c 82 95 bb 0a a1 b2 bc 3d 92 91 bc
       -0.0386087 -0.004562674 -0.021805305 -0.017769927
000060 d5 81 31 bd ab cf d0 bc d6 5c 0f bd 97 c2 69 bc
       -0.043336708 -0.025489649 -0.035000645 -0.014267585
000070 82 4f 51 bc f1 36 ff 3c f8 5a a6 bc 5b ed bd bb
       -0.012775304 0.031154128 -0.02030705 -0.0057961172
000080 d2 34 06 bd 79 d1 42 bc 74 9c 1d 3c d9 fb da bc
       -0.032765217 -0.0118907625 0.009619821 -0.026731418
000090 d9 60 dc bc f9 0b 87 bc e0 0d f8 bc 4f 47 37 bd
       -0.02690165 -0.016485201 -0.030280054 -0.04474574
0000a0 64 b9 09 bb d5 68 68 3c 13 00 77 3c e2 b2 00 3c
       -0.0021015042 0.01418515 0.015075701 0.007855149
0000b0 f4 e2 e6 bc f0 9c 17 bd 16 c0 e4 37 80 08 36 3c
       -0.028184392 -0.0370149 2.7269165e-05 0.011110425
0000c0 b5 c1 03 bd 95 c2 bf bc c6 a7 8f 3b dc 99 cb bc
       -0.032167155 -0.023408214 0.004384014 -0.02485364
0000d0 cf 55 1e bd cb a8 91 bc 77 c5 ed bc e7 51 83 bc
       -0.038656052 -0.017780682 -0.029024823 -0.016030265
0000e0 2a 1e f8 bb 6d 48 0f bd b6 c4 91 bc cd 86 11 bc
       -0.007571955 -0.03498118 -0.017793994 -0.008882237
0000f0 d2 fc b8 b9 28 c7 2e bb 77 17 44 bb 19 0c 7d 3c
       -0.0003528358 -0.0026669 -0.0029921213 0.015444779

cnn.layer3.1.running_mean f4 [64]
000000 9d c4 29 3e d8 c8 3c bd 55 d1 23 bf 21 be 20 3c
       0.16578908 -0.046089977 -0.6399129 0.009810955
000010 39 63 c8 3e 87 ac c9 3e 65 11 ac be a9 68 b5 be
       0.391382 0.3938944 -0.3360702 -0.35431412
000020 99 86 e9 be 8c 66 a3 bb 70 4d e9 be c7 0c 34 be
       -0.45610502 -0.00498659 -0.45566893 -0.17582999
000030 21 13 40 3e 86 cf 37 3e 12 f1 0f bf 00 ec ac 3d
       0.18757297 0.17950258 -0.5622722 0.08443451
000040 25 ea ae 3e 27 c8 25 be a6 72 f9 be eb 7e 90 be
       0.34163013 -0.16189633 -0.48720282 -0.2822183
000050 98 13 94 3e ae 25 a9 be bb 7a 04 3e 7b 30 c2 be
       0.289212 -0.3303656 0.12937443 -0.37927613
000060 00 e7 ad 3d 18 3a a3 3e 10 9e ba be a4 9d de 3d
       0.084913254 0.3188026 -0.36448717 0.10869911
000070 18 ac 84 3d d6 b3 07 bf 08 07 6c 3e 98 a4 6f 3d
       0.06478137 -0.5300878 0.23049557 0.05850658
000080 58 17 19 3e 48 33 84 3e 00 63 5d 3d 86 34 1d 3e
       0.14950311 0.25820374 0.054049492 0.15352067
000090 10 23 8f 3e 6e e7 20 be ed f7 57 bd 21 62 8c 3e
       0.27956438 -0.15713283 -0.052726675 0.27418616
0000a0 33 23 75 be 3d ce 65 bf e4 46 7a bd 1c 2e 90 be
       -0.23939209 -0.8976782 -0.061102763 -0.2816018
0000b0 94 87 c0 be 07 a0 59 3e 2e 41 1e 3f 00 69 51 be
       -0.37603438 0.21252452 0.61818206 -0.2045021
0000c0 12 de 81 3e 22 64 e2 3d ba 46 86 3e 4b 27 91 3d
       0.2536474 0.11054255 0.26225835 0.07087573
0000d0 68 e9 80 3f 39 d0 35 bd 1a fa 34 3f 39 d1 ee 3d
       1.007123 -0.04438803 0.70694125 0.11661
0000e0 d8 3c 20 3e bf fc 83 3e 2a b7 df 3e bb 43 3c bf
       0.1564821 0.25778767 0.4369443 -0.7354085
0000f0 83 a3 88 be 6a 81 9c bd d4 0c 2e be 10 37 01 3e
       -0.2668725 -0.07641871 -0.16997081 0.12618661

cnn.layer3.1.running_var f4 [64]
000000 53 3d a5 3e 2e 29 07 3e d7 e0 a8 3e 86 fd 81 3e
       0.3227335 0.13199303 0.3298404 0.25388736
000010 76 0c 03 3e d4 5f 55 3e 2d 16 41 3e 0b 68 4a 3e
       0.12797722 0.20837337 0.18856116 0.19766252
000020 59 4e 87 3e da 23 13 3e 46 39 24 3e 5a 82 f2 3d
       0.26426962 0.14369145 0.16037473 0.11841269
000030 08 fb c2 3e 7b dd 02 3e 18 77 8e 3e 19 7a 13 3e
       0.38082147 0.127798 0.27825236 0.14402045
000040 72 3c 87 3e 85 a6 d2 3e 03 ca 9c 3e da f7 8c 3e
       0.26413304 0.4114267 0.30622873 0.27532846
000050 9c d0 94 3e e7 42 6b 3e 44 f7 36 3e 1c a8 b6 3e
       0.29065406 0.2297474 0.17867762 0.35675132
000060 99 1e 03 3e a6 95 88 3e 90 2c 7d 3e e4 d4 11 3e
       0.12804641 0.26676673 0.2472403 0.14241368
000070 f1 2b 6b 3e 84 fb fc 3e c8 23 1c 3e 5c 98 3e 3e
       0.22965981 0.4941064 0.15248024 0.18612808
000080 65 37 c2 3d 1f 34 8b 3e b7 d9 f1 3d 2a e5 44 3e
       0.09483222 0.27188203 0.11809104 0.19228044
000090 14 fe 05 3e 5e 0e f7 3d 07 cd 23 3e c3 9c 30 3e
       0.13085204 0.12063287 0.1599618 0.172473
0000a0 d2 30 85 3e 0f 46 ad 3e eb d0 01 3e ae 35 f1 3d
       0.2601381 0.33842513 0.12677352 0.11777817
0000b0 6f 0d 02 3e a6 9d 3e 3e b7 93 87 3e e8 5d 60 3e
       0.12700437 0.18614826 0.26479885 0.21910822
0000c0 3e 06 43 3e 63 da 46 3e 06 7a 77 3e c1 51 16 3e
       0.1904535 0.19419245 0.24167642 0.14679624
0000d0 b1 20 69 3f b7 b3 fe 3d b6 71 b3 3e 33 1a ab 3e
       0.9106551 0.12436622 0.35047692 0.33418426
0000e0 de 82 25 3e 55 a5 14 3e 7a 24 58 3e a6 9a c1 3e
       0.16163203 0.14516194 0.21107665 0.378133
0000f0 f8 35 f7 3d 59 0d 98 3e 84 13 86 3e c1 bd 34 3e
       0.120708406 0.29697683 0.26186764 0.1765051

cnn.layer4.0.weight f4 [128, 64, 3]
000000 09 c9 85 3b 19 8b 02 3c b0 78 58 bc 7c 7a 5f bb
       0.004082803 0.007967734 -0.013212368 -0.0034100106
000010 95 c6 78 bd 18 e2 da bc b7 0f 48 ba 67 03 72 3d
       -0.060736258 -0.026719138 -0.0007631736 0.059085276
000020 2d 86 90 3c 39 ef 7e 3a 98 9b 44 bc af d6 92 3d
       0.017642105 0.0009724978 -0.011999987 0.07169854
000030 24 eb 70 3d d9 99 04 bc 10 4b 94 3d 98 b1 73 3d
       0.058817998 -0.008093321 0.072408795 0.05949554
000040 ab 48 ec ba 28 15 bf 3c ad 4c e2 3c 07 21 4b bd
       -0.0018027028 0.023325518 0.027624452 -0.049592044
000050 db bb fa 3c a1 14 20 bd 9b 3c e7 3c 2e 90 f4 bc
       0.030607155 -0.039082173 0.028227141 -0.029853906
000060 aa ee 0b 3d 26 d3 bf bc db 4a ca bd 04 53 81 3b
       0.034163155 -0.023416113 -0.09877559 0.003946664
000070 e0 64 ef bc c6 61 56 bd 34 81 ed 3c b3 b9 be bc
       -0.029222906 -0.052339338 0.028992273 -0.023281908
000080 75 c3 76 bd 25 fb ef 3b 09 a5 5a 3d 73 25 ba 3c
       -0.060244996 0.00732364 0.053380046 0.022722935
000090 1c f7 b7 bc 55 0d a2 bc 07 47 fa bc db 3b 7a 3d
       -0.022456698 -0.019781748 -0.030551447 0.06109224
0000a0 89 7f 42 3d 69 55 a7 bc d1 fb c0 b9 39 62 87 3c
       0.04748491 -0.020426469 -0.00036808712 0.016526328
0000b0 9c fc 8c bc fe 17 83 bd 37 da f1 bc c6 20 35 3c
       -0.017210297 -0.064010605 -0.029522998 0.011055177
0000c0 ce 5a 4d 3c e9 e6 7c bb b8 77 79 bd 6b 98 4e 3d
       0.012533857 -0.0038589782 -0.06090519 0.050438326
0000d0 a3 4d 91 3d bc f1 e7 3c 36 6e 5e bd 55 43 a9 3c
       0.07094886 0.02831351 -0.054304324 0.02066199
0000e0 c3 0a 93 3c 93 f1 38 bd d9 75 fe 3c d0 37 94 bd
       0.017949468 -0.045152258 0.031062054 -0.07237208
0000f0 3a 71 72 bb ec 50 69 3d e5 5b a6 bd c6 88 c0 3c
       -0.0036993758 0.05696194 -0.08122996 0.023502719
000100 5a ff 27 bd 0b 82 5e 3d 20 13 27 bb 7b 2a 85 3c
       -0.041015007 0.054323237 -0.0025493577 0.016255608
000110 61 90 2a 3c 1b 95 47 bd 64 4f 3b bd 9b 9d a6 bc
       0.010410399 -0.048726182 -0.04573001 -0.020338824
000120 8e 4a 09 bd 77 13 a8 bd 92 7f 03 3d 9e 9d 44 bd
       -0.033518367 -0.082068376 0.032104082 -0.048001878
000130 39 7a 18 3d 6a aa 71 bd 93 f4 71 3a 9f 60 0f bb
       0.037225936 -0.05900041 0.0009229865 -0.002187766
000140 02 be 02 3d 71 f0 e9 3b ce 70 ba bc 63 37 98 3c
       0.031919487 0.0071392586 -0.022758868 0.018581098
000150 c6 98 50 bc 81 3c 20 3d fa 56 58 bd bd 2a 15 3d
       -0.0127317365 0.0391202 -0.052817322 0.03641771
000160 6e 02 62 bb f3 28 d8 3c e9 7e 08 bb 0c 4b 6c bd
       -0.0034486311 0.026386714 -0.0020827597 -0.057688758
000170 95 de 24 3d 38 a6 9a 3d 66 f2 60 bd 71 6f 9f 3c
       0.040251333 0.07551235 -0.05491867 0.01946232
000180 d4 40 69 3d 32 51 72 3d 47 1c 9f bc da a3 35 3d
       0.05694659 0.059159465 -0.019422663 0.044345714
000190 14 34 4d 3c a6 bb 43 3d f6 70 37 bc 92 e2 76 bd
       0.012524623 0.047786377 -0.011196366 -0.060274668
0001a0 83 83 1f bd 22 e4 51 bd ed a2 81 3d 9c b1 7d 3d
       -0.03894378 -0.051242955 0.06329904 0.06193696
0001b0 d7 53 5f 3c 26 05 d0 3c 55 33 39 bd e6 41 d8 bc
       0.013630829 0.02539308 -0.04521497 -0.02639861
0001c0 f2 48 1a 3c 54 a6 c3 3c 59 ad 2d 3c eb bc 95 3c
       0.009416806 0.023883022 0.010600411 0.01827856
0001d0 9b 6e af 3d 9b 3a 60 bd ae 22 33 ba 4a a8 a2 3b
       0.08566018 -0.05474339 -0.0006833476 0.0049639093
0001e0 1f 7b 74 bd 58 83 5d bd 5d f8 99 bb a2 75 30 3d
       -0.05968773 -0.054080337 -0.0046987967 0.043080933
0001f0 5c a4 cf bd 95 89 39 bc 18 9a ab 3b 8b d5 f4 3c
       -0.10138771 -0.011324306 0.0052368753 0.029886981
000200 c6 f3 b2 3d 89 35 1c bc c2 f9 ff 3c df ad 3c bd
       0.08737902 -0.009534248 0.031247023 -0.046064254
000210 7f dd 21 bd bc f2 57 bc ba aa b1 bc f9 1d 61 bb
       -0.039517876 -0.013180431 -0.021687854 -0.003435014
000220 68 13 9e 3c e9 1e 2a bd 86 6d 37 3d 08 3d 02 3d
       0.019296363 -0.041533384 0.044782184 0.031796485
000230 b9 ff 7d 3d 04 7a 82 3c 74 3b 92 3d e2 ce 70 bd
       0.062011454 0.015927322 0.07140246 -0.05879105
000240 a5 8b 6f bd 9f f0 1d bd f8 4b db bc b7 f3 fd 3a
       -0.058482785 -0.038559552 -0.026769623 0.0019375001
000250 e5 e3 eb bc da 50 8b 3d b1 bc 8e 3d 3c 38 94 3d
       -0.028795192 0.068025306 0.06969584 0.07237288
000260 8b 34 7b 3c 7e fe cf 3d 2c 56 59 bd 8d c5 85 3d
       0.015332351 0.101559624 -0.053060696 0.065318204
000270 f7 fd c4 bb 8a ce 1a bd ba ee 2d bd a6 ca e7 3c
       -0.0060117203 -0.037794627 -0.042463996 0.028294872
000280 60 14 64 3d 7f dc a2 3d fc 7f 25 3c 39 4c 4e 3d
       0.055683494 0.079522125 0.010101315 0.05036566
000290 09 a7 08 bd fd 5d 75 3b 2b fb a6 bc c9 f5 e0 3c
       -0.033362422 0.0037440055 -0.020383438 0.02746095
0002a0 92 86 5b 3c 91 24 56 3d 9a e6 45 bd d2 f5 f7 3b
       0.013398783 0.052280966 -0.048315622 0.007567146
0002b0 57 71 35 3b 7e 48 b3 bc 20 6f 23 bd 66 69 89 3c
       0.0027685964 -0.021885153 -0.0399009 0.01677389
0002c0 da a4 01 3d ff bf 05 bd b4 2c a9 bc c9 16 b1 3c
       0.031651355 -0.032653805 -0.020651199 0.02161731
0002d0 ad 42 af 3c 32 0f 4c 3d c8 7c 97 3d 5a 1f cf bc
       0.021394098 0.04981918 0.07396847 -0.025283504
0002e0 c0 ba 34 3d 92 9f e9 3c e2 a1 64 3b cd 6b 5d bc
       0.04412341 0.028518472 0.0034886529 -0.013514471
0002f0 5c d6 86 3d 0a 31 0e bd 1e 70 85 bd 06 97 70 bc
       0.065838546 -0.034714736 -0.06515525 -0.014684444
000300 c7 e9 97 3d 6f 1e 86 bc c2 6f c3 3c ca 3e 3d bd
       0.07417636 -0.016371934 0.023857001 -0.04620246
000310 6c 9f 5a bd 17 9a a6 3d 72 b7 dc bc 04 bd 36 bd
       -0.053374693 0.08134859 -0.026942942 -0.044613853
000320 8c b5 8c 3d ea 50 cd 3c 52 01 7e bb 1a d7 21 bd
       0.06870565 0.025062997 -0.0038758111 -0.039511777
000330 12 b3 1b bd 45 a2 af bb 59 4f 0b bd 22 13 2f 3d
       -0.03801257 -0.00535992 -0.03401122 0.042742856
000340 30 f8 6e 3d 0e 5b 13 3d db 31 1c 3d f7 71 54 3d
       0.05834216 0.03597551 0.038133483 0.051866498
000350 68 cd 5d 3d 1c 8f 96 3c 1a c4 d2 ba ec 47 a7 3d
       0.05415097 0.018378787 -0.0016080171 0.08168015
000360 dd 6e 26 bc 4a 08 80 bd 3b 78 61 bd 14 8a 0a 3d
       -0.010158268 -0.06251581 -0.0550463 0.033823088
000370 2a fa 54 bc a1 27 07 3d 6a 94 61 3c 95 0e 58 bd
       -0.012999097 0.032996777 0.013768295 -0.05274828
000380 1f 07 20 3d 06 80 06 3d 82 84 73 bd a3 25 3f 3d
       0.03906929 0.032836936 -0.05945254 0.046666753
000390 64 ac 0a bc 09 05 7f bd 23 8d 8a 3d f9 cb cc 3c
       -0.008463953 -0.06226066 0.06765201 0.024999605
0003a0 f0 33 19 3d 32 98 ea bc ac 41 bb bc 20 d8 21 3c
       0.037403047 -0.028637026 -0.022858463 0.009878188
0003b0 73 55 90 3d 10 07 53 bc b3 80 56 3d 82 24 8a 3d
       0.07047548 -0.012880102 0.05236883 0.067452446
0003c0 3d bf d0 bc 91 4d 04 bc 51 0a 08 3c 48 38 eb 3c
       -0.025481815 -0.008075134 0.008303241 0.02871336
0003d0 74 19 3c bd 00 69 bb bc 41 c7 57 3d a6 88 75 3d
       -0.04592271 -0.022877216 0.052680258 0.05994477
0003e0 29 08 00 3d ef e4 69 3d 74 60 14 3d 67 6e 68 3d
       0.031257782 0.057103094 0.036224797 0.056745913
0003f0 67 ba f6 3c 44 9c 1a 3d 69 dd 44 bc a0 33 fe bc
       0.03011818 0.037746683 -0.012015679 -0.031030476

cnn.layer4.0.bias f4 [128]
000000 2d ed 19 b9 77 22 08 b9 d7 d4 e1 b9 6e 80 e1 b9
       -0.00014679572 -0.0001298281 -0.00043073922 -0.00043011032
000010 ae e1 2e b8 ee 94 30 b8 e8 06 6b 39 c2 45 1a 3a
       -4.1695013e-05 -4.210037e-05 0.00022413919 0.00058850285
000020 54 77 35 b9 10 65 99 b9 a8 e7 72 39 bd 1c 17 39
       -0.00017305958 -0.00029257732 0.00023165217 0.00014411188
000030 4b 53 55 3a 65 b9 00 ba 44 89 cf 3a e2 62 87 b9
       0.0008137717 -0.00049104384 0.0015833755 -0.0002582288
000040 1b b7 ba b9 8b 4c 05 3a 3f bb d0 ba 13 80 b6 39
       -0.0003561311 0.0005084953 -0.0015924944 0.00034809168
000050 27 16 49 b9 63 e0 f9 ba 6d de b1 ba 4d de e7 39
       -0.00019177106 -0.0019064065 -0.0013570316 0.0004422538
000060 8f 3d 27 bb c3 09 1b b9 d0 a2 c2 39 b7 91 79 ba
       -0.002551887 -0.00014785588 0.00037123868 -0.00095203094
000070 23 07 67 39 48 6a 03 3a 27 84 28 39 92 d0 9e 39
       0.00022032535 0.00050130906 0.00016070959 0.00030291505
000080 0e b7 48 3a 0e 7b d9 b9 46 cb 18 b9 64 87 16 bb
       0.0007656672 -0.00041481148 -0.00014571575 -0.0022968883
000090 68 05 71 3a 63 6d 29 ba dc 8c 23 bb ec 4a e4 ba
       0.0009194226 -0.0006463138 -0.0024955785 -0.0017417348
0000a0 59 26 38 3b 4b 4b d0 ba 29 f1 01 3b 9c 08 26 38
       0.002809903 -0.001589158 0.001982758 3.9585502e-05
0000b0 7c 3f 0e ba 72 08 ae b9 3c 6b ea b9 77 85 e3 ba
       -0.000542633 -0.00033194158 -0.00044711854 -0.0017358501
0000c0 34 44 93 b7 cc 52 6a 39 bd 34 a0 38 8c d2 94 39
       -1.7555525e-05 0.00022346823 7.639218e-05 0.0002838563
0000d0 0e f1 ae 36 8e f0 e5 ba cf 20 8f 3a ec b4 18 3a
       5.2136666e-06 -0.0017543004 0.0010919812 0.00058252993
0000e0 1e 6e 06 3b cb 87 a1 39 46 fb e9 b9 f4 08 fd 38
       0.0020512412 0.00030809487 -0.00044628436 0.00012065648
0000f0 b2 be 29 3b 0c 4e 7d b8 2f ad 57 37 c7 ec bb ba
       0.0025901017 -6.0392587e-05 1.2855321e-05 -0.0014337533
000100 0a 41 39 3a 17 d3 02 3b 3c 8c 1e 3b 13 9e 10 39
       0.00070668815 0.0019962245 0.0024192473 0.00013791797
000110 40 4e 00 ba 5e 47 82 3a 88 82 0b b8 24 0b 25 3a
       -0.00048944727 0.0009939482 -3.326175e-05 0.00062959106
000120 c9 7c 45 39 03 0c 4f 39 80 9a bc b9 56 8a b6 b9
       0.0001883387 0.00019745533 -0.00035973266 -0.00034816813
000130 5e 2f f3 39 a3 3a 90 b9 cb e0 8f 38 40 a9 d7 39
       0.00046383863 -0.00027509508 6.860642e-05 0.00041134097
000140 8a d3 41 39 74 9c 86 39 9a 17 b5 37 00 31 7b b5
       0.00018484719 0.00025675038 2.1587872e-05 -9.357609e-07
000150 a8 93 05 39 c2 ca eb b8 e0 7d 2a ba 2e c3 88 ba
       0.00012738875 -0.0001124344 -0.0006503742 -0.0010434145
000160 fe c8 38 b8 3e a8 2b b9 c2 54 c5 b9 71 2d e2 b8
       -4.4056207e-05 -0.00016370506 -0.00037637918 -0.00010784984
000170 a5 a8 03 3a b3 f1 2b b9 dd 36 50 3a 79 5d b7 b8
       0.00050223834 -0.00016397871 0.00079427456 -8.7435306e-05
000180 70 ff 32 3a 26 40 94 39 40 f8 81 b9 5b 42 d8 39
       0.0006828224 0.00028276554 -0.00024789758 0.0004124817
000190 f4 c1 01 39 f0 f2 2a 3a 9b 0e b8 b9 37 8f bd 39
       0.00012374652 0.0006521186 -0.00035106097 0.00036155593
0001a0 3f 41 7f 39 da e7 eb b9 c0 81 06 3b 3a 87 d4 b9
       0.00024343001 -0.00044995436 0.0020524114 -0.00040536543
0001b0 f4 96 83 ba 32 09 dc b9 d8 79 96 b9 fa 34 29 ba
       -0.0010039494 -0.0004196852 -0.0002870101 -0.00064547325
0001c0 63 a6 32 b8 82 69 fa 39 0a 12 63 3b 75 fc e0 39
       -4.2593467e-05 0.00047762325 0.0034648203 0.00042912705
0001d0 2a 1f bc 39 79 25 10 39 e9 f9 23 bb 78 b0 09 b9
       0.00035881373 0.0001374687 -0.0025020784 -0.00013131078
0001e0 22 bc 96 39 36 17 11 ba 56 10 56 bb 52 6d 25 39
       0.000287504 -0.000553477 -0.0032663546 0.00015776351
0001f0 90 6e 1d 39 c7 19 f6 3a 07 fc e1 b8 d4 e3 16 b9
       0.00015013875 0.0018775993 -0.0001077578 -0.00014389987

cnn.layer4.1.weight f4 [128]
000000 6d c0 82 3f a3 4d 83 3f 68 bf 82 3f aa 64 83 3f
       1.0214974 1.0258068 1.0214663 1.0265095
000010 f2 fd 80 3f 99 dc 7d 3f a4 65 80 3f 6c f1 80 3f
       1.0077498 0.9916473 1.0031018 1.0073676
000020 39 7c 82 3f a3 c0 7f 3f e9 26 80 3f c3 a0 7f 3f
       1.019416 0.99903315 1.0011874 0.9985468
000030 cb 37 80 3f e8 04 80 3f 07 94 82 3f 34 7e 81 3f
       1.0017027 1.0001497 1.0201424 1.0116639
000040 53 73 7f 3f ed aa 80 3f 8c 2d 83 3f 7f 32 83 3f
       0.99785346 1.0052162 1.0248275 1.0249785
000050 8d 22 81 3f 40 4a 84 3f ef 84 80 3f 53 34 81 3f
       1.0088669 1.0335159 1.0040568 1.0094093
000060 66 f7 80 3f 86 63 81 3f 3b 3c 81 3f 0b 8f 81 3f
       1.00755 1.0108497 1.0096506 1.0121778
000070 19 50 81 3f 9b 9e 82 3f ee fb 7f 3f e6 82 81 3f
       1.0102569 1.0204653 0.9999379 1.0118072
000080 05 8f 82 3f cb d7 82 3f 12 8a 83 3f c6 12 84 3f
       1.0199896 1.0222105 1.0276511 1.0318229
000090 60 4c 83 3f 15 10 81 3f c9 2c 82 3f 5c d9 80 3f
       1.0257683 1.0083033 1.0169917 1.0066333
0000a0 df 2f 81 3f db e0 81 3f a4 84 81 3f 68 c6 81 3f
       1.0092734 1.0146745 1.0118604 1.0138674
0000b0 93 36 84 3f 61 31 83 3f c3 00 80 3f 94 7a 80 3f
       1.0329155 1.0249444 1.0000232 1.0037408
0000c0 84 57 83 3f d2 b1 7f 3f 78 d0 85 3f c8 d7 81 3f
       1.0261083 0.9988071 1.0454245 1.0143976
0000d0 0e 80 84 3f 37 64 83 3f 85 16 82 3f e0 6b 7d 3f
       1.0351579 1.0264958 1.0163122 0.9899273
0000e0 fb db 80 3f f7 a8 83 3f 40 50 81 3f cf 1b 82 3f
       1.0067133 1.0285939 1.0102615 1.0164737
0000f0 bc 98 82 3f e3 68 83 3f 64 68 80 3f 98 e4 82 3f
       1.0202861 1.0266384 1.0031857 1.0226011
000100 64 aa 7f 3f 8c 7d 85 3f 9e 57 83 3f 18 26 83 3f
       0.9986937 1.0428939 1.0261114 1.0246
000110 de 41 80 3f 1c bb 7f 3f 48 62 7f 3f fb b0 7f 3f
       1.0020101 0.9989488 0.9975934 0.99879426
000120 89 60 84 3f 6a 26 86 3f 20 f0 80 3f 0b 44 81 3f
       1.034196 1.0480473 1.007328 1.009889
000130 3e 82 80 3f 6e c9 84 3f e5 aa 81 3f 6b 08 82 3f
       1.0039747 1.0373971 1.0130278 1.0158819
000140 a2 48 81 3f 89 cf 82 3f df c0 7d 3f fa ee 80 3f
       1.0100291 1.0219585 0.9912242 1.007293
000150 a6 7d 81 3f e6 2e 86 3f 51 40 82 3f 38 a8 80 3f
       1.011647 1.0483062 1.0175878 1.0051336
000160 36 42 7f 3f 16 33 85 3f f9 90 82 3f 09 de 81 3f
       0.99710405 1.0406215 1.0200492 1.0145885
000170 59 19 80 3f 94 ea 7e 3f 39 3a 83 3f e1 bd 84 3f
       1.0007735 0.9957669 1.0252143 1.0370446
000180 b6 f0 7f 3f bd c5 81 3f 00 59 84 3f 9b 74 80 3f
       0.9997667 1.013847 1.0339661 1.0035585
000190 35 2a 84 3f 5b 11 7c 3f be 02 80 3f 70 b7 85 3f
       1.032538 0.9846398 1.0000837 1.0446606
0001a0 f3 65 81 3f 13 e3 7c 3f 84 c7 7f 3f b0 7f 86 3f
       1.0109237 0.9878399 0.9991381 1.0507717
0001b0 5b e9 81 3f 8d 44 81 3f 23 df 7e 3f 1e 0a 85 3f
       1.014934 1.0099045 0.9955923 1.0393713
0001c0 2a d5 80 3f a7 d0 83 3f de 31 7e 3f 14 51 86 3f
       1.0065053 1.0298051 0.9929484 1.0493493
0001d0 e5 0e 85 3f f7 7d 81 3f 34 ae 81 3f ca 2e 83 3f
       1.039517 1.0116566 1.0131288 1.0248654
0001e0 20 1a 7b 3f 44 86 83 3f 61 e3 7d 3f 76 fb 80 3f
       0.9808674 1.027535 0.9917508 1.007674
0001f0 f8 83 82 3f c9 09 83 3f 9c 3d 80 3f 18 e0 80 3f
       1.0196524 1.0237361 1.0018802 1.0068388

cnn.layer4.1.bias f4 [128]
000000 79 a5 aa bc a2 89 62 bc 51 c7 88 3c 53 7c 0b 3c
       -0.020830857 -0.0138267595 0.016696604 0.008513528
000010 4b 31 9b 3b 7d e0 06 bc d9 ed 1c bc 7e 83 8e bb
       0.004736101 -0.008232233 -0.009578192 -0.004349171
000020 e1 e4 ad 3c 43 36 20 bb 1b 5b 84 3b 38 14 e7 bb
       0.021227302 -0.0024446405 0.004039181 -0.007051971
000030 a9 46 9f 3b 0a 66 8e bc 19 d6 87 bc 6d 40 ee 3b
       0.0048607183 -0.01738264 -0.016581582 0.0072708637
000040 3f 15 1d bc 7f f1 15 bc 2b dc ba 3c b5 59 93 3b
       -0.009587585 -0.009151815 0.022810062 0.004496778
000050 86 87 32 3c de c6 3f 3c 82 1e 93 bb 10 65 fc 3b
       0.010896569 0.0117051285 -0.004489721 0.0077024773
000060 e8 ee bc bb b6 1f 04 3b 26 93 d4 bb 75 86 8b bc
       -0.0057657845 0.0020160503 -0.006487268 -0.017031888
000070 9f aa 7c 3c ed 71 9f bc 47 aa 13 bc a5 a7 fe 3a
       0.015421539 -0.019463504 -0.009012765 0.0019428624
000080 e5 01 7a bc c5 f0 14 bb 29 e7 e5 3c 51 a2 6d bc
       -0.015259241 -0.0022726518 0.028064327 -0.014504031
000090 8f 8a a4 3c a7 44 1b bc 23 58 fd 3a 85 b3 ab bc
       0.020085601 -0.009476817 0.0019328635 -0.020959625
0000a0 44 15 09 3b 54 91 f8 3b 8e 33 df bb 5c c7 b9 37
       0.0020917216 0.007585684 -0.0068115657 2.2146553e-05
0000b0 7a a0 06 bb 75 f7 8e 3c c5 f1 90 bc 45 68 32 bc
       -0.0020542429 0.017451981 -0.01769341 -0.010889118
0000c0 91 75 3d 3c 08 ed 66 bc 12 2c b7 3c 94 aa 06 3c
       0.011563675 -0.014094599 0.022359882 0.00821938
0000d0 7b af f4 3c 1a 86 da bc e1 89 ee 39 23 e4 b1 bb
       0.029868832 -0.026675273 0.00045497625 -0.0054288073
0000e0 16 d5 29 3c b3 d9 62 3c fd 00 ab 3b 77 d5 3c 3c
       0.010365745 0.013845849 0.0052186237 0.011525503
0000f0 c7 9d 62 bc 4e 3a bf bb 02 8d 4d ba c8 0c 6e bc
       -0.013831562 -0.005835808 -0.0007841141 -0.0145294145
000100 55 ee 28 bc 66 10 cd 3c ad 35 81 bc 7b 9e 9a 3c
       -0.010310729 0.025032233 -0.015772665 0.018874398
000110 b8 ab 4a bc 41 1e b4 ba f1 dc 11 bc aa 27 a0 3b
       -0.0123700425 -0.0013741927 -0.008902774 0.004887541
000120 9c 96 a2 3b bf 2d ae 3b 15 c2 8c bc 63 9b ba bc
       0.0049618017 0.005315512 -0.01718239 -0.022779172
000130 e8 b5 d5 bc b8 a7 a2 3b fa 2c 77 3c be fb 36 3b
       -0.026087716 0.0049638413 0.015086407 0.0027921046
000140 99 94 d1 bc a7 33 42 3c 08 d3 73 bc 46 f4 e6 bb
       -0.025583552 0.011853135 -0.014881857 -0.0070481626
000150 c8 48 99 3b 30 92 e7 3c 54 f6 81 bc f1 39 f0 3b
       0.0046778657 0.02826795 -0.015864529 0.007331126
000160 fa bb 11 bd c0 8b dc 3c 05 d5 0a 3b dd 34 e0 39
       -0.03557966 0.026922107 0.0021184098 0.00042763996
000170 bb 5c 23 bc 80 fa 89 bc 93 2c 3d bc d7 12 56 3c
       -0.009970839 -0.01684308 -0.011546272 0.013066015
000180 7f 0d 97 bc 35 b0 6f 3b 9a 01 99 3b 01 59 a9 ba
       -0.018439053 0.0036573533 0.0046693804 -0.0012920202
000190 c1 5f 15 bc 5c a7 d0 bc e3 12 96 bc 3b 8d c0 3c
       -0.009117068 -0.025470428 -0.018319553 0.023504844
0001a0 66 d6 1b bc e6 1f e1 bb 7f da c0 bc bd 84 c9 3c
       -0.009511566 -0.0068702577 -0.023541687 0.024599427
0001b0 96 f4 90 bc 69 f1 43 3b b3 b0 0c bc 05 ac 2f 3b
       -0.017694753 0.002989853 -0.00858705 0.0026805412
0001c0 ca b6 28 bc 16 20 29 3a 75 e4 ad bc 75 dd 27 3d
       -0.010297487 0.00064516196 -0.0212271 0.040982682
0001d0 f9 20 99 3c b3 8d ee 39 cc de 69 3c 77 82 9a 3c
       0.01869248 0.00045500472 0.01427431 0.018861039
0001e0 4d 79 c2 bc 7e 53 36 3c 12 4b 69 ba 4b c7 18 3c
       -0.023739481 0.0111283045 -0.0008899431 0.009324859
0001f0 f5 27 9d 39 ff f8 e8 bb 55 30 89 bb e8 44 55 ba
       0.00029975144 -0.007109761 -0.00418667 -0.0008135573
