checkpoint/transfer_cnn_features_1d_sa_spinel5v_to_nmc_1114/retry_target_focus/best_model.pth (torch, 907682 bytes, 37 tensors)

model_cnn.conv_layers.0.0.weight f4 [16, 22, 15]
00000000: ff8b 8ebd 025d b3bd c6ee 28bd d693 43bc
00000010: abeb 85bd 3dd7 e3bc 5392 3bbd a2bf 3ebd
00000020: 6f41 dfbc 5f81 a8ba 1348 f5bc a192 19bd
00000030: 544c 05bd c051 00bd 0ada 72bd a084 64bb
00000040: 9d86 2f3d b3fa e8bc e894 103c 47ae 42bd
00000050: f6ee 1ebd 38ed a93b 87b3 cb3c 6d06 ec3c
00000060: e8d8 053c db70 e73b 44eb fb3b 96ca 343c
00000070: e3b6 bfbc 341c 8e3c 45c1 9d3c b393 e93c
00000080: acc1 613c 1bd7 093d 44e5 453d 6e0d 703c
00000090: c6d5 fcbc af0d 5ebc 7ee6 9b3c e1b5 93bc
000000a0: a03c cfbc 66f8 173c 405d 22bb 9b2d 193c
000000b0: 47fc d33c 6f6e 1b3d 3e99 9a3d 8f74 d6bc
000000c0: d78b 67bd 0278 043d c13a 7f3d 71e7 433d
000000d0: d8ce b13c 163b 2c3d 9838 853c e3e5 1fbd
000000e0: d139 26bd 6000 03bd 8f67 093c 033d a4bc
000000f0: 99ea b83c 805d 453d 6c28 e5bc 7848 4a3c
00000100: 2454 853d d601 873d 7413 4c3b 8190 3f3c
00000110: e207 60bb 2936 4a3d f870 a5bc 7c7e 9c3d
00000120: 752c 913c 877b a9bc 2307 77bc b8b5 11bd
00000130: f7c0 6fbd 6e99 5abd 4688 b8bd 4ba8 a3bc
00000140: b15e 2ebd d733 63bc 3bae 47bd 6735 32bd
00000150: e3c9 35bd b504 9abc a4ed 78bd 1f24 88bd
00000160: e7bb e7bb 2439 8bbd ce1f e03c 6b25 143d
00000170: 6353 1b3d 594d 023d a6b1 00bc 4852 21bc
00000180: da32 5b3d 808b 553d 325a b9bc f0d7 a4bc
00000190: fcda dcbb bed9 f13c bcaf d2bd b92d 55ba
000001a0: a976 97bc 988a b73d 3b4c de3c 0c7f c03c
000001b0: 4e29 903d 3958 cb3d adbb e13d c8a8 f03c
000001c0: c84e d43d 8ddc 7f3d 2a9c 443d 2399 de3d
000001d0: 3ee2 d53d 42c5 be3d 3bc9 4d3d 01c2 0d3e
000001e0: 0822 eb3b 3880 d33c 85ed c2bc 7ba8 8bbd
000001f0: 91ea 6bbb ae92 833c c83f b9bb 55ac 68bc
00000200: 24fa 3d3c 4021 4dbb 8bfd 94bd ee3a b1bc
00000210: 2e33 07bd 1a3c 643c ede6 d93c 2800 ed3c
00000220: 3af4 8b3d 3a91 1a3d 3c4f 8fbc 7394 0d3d
00000230: e4de 9e3c 9bdd 30bc 1738 183d e697 48bd
00000240: 58dd 55bd 5d18 b7bd e681 ba3c b084 94bd
00000250: e15f 5fbc fb75 17bd dc42 57bd d604 ca3c
00000260: 3e80 84bc b92b 093d 7eae 163c 4b4f 23bc
00000270: 3b59 69bd d9bb bc3c 6a40 80bd 5a8a 213c
00000280: 2654 4bbc 1760 b53c 8806 0abd aa6d 453c
00000290: 2504 553a 70fe 60bc 8d96 e73c 30a4 163b
000002a0: eefa 1b3d fae5 2cbd e682 bfbc facc e5bc
000002b0: 00bf 1f3d 53e0 45bd 78ea f9bc a0df e93b
000002c0: 57e7 6a3c 8fb1 44bd 962e 5dbd fc39 303d
000002d0: 0e18 afbb c6ae 483d 484e f3bc f77d 913b
000002e0: 4866 f23c 36b8 8dbc 894d 9a3d 486c 4abd
000002f0: 60f9 08bd f445 40bc 8e6d bdbb 9883 ac3b
00000300: 1ca1 dcba ca56 103d 60c2 25bd a9f0 0d3d
00000310: ed4c 153d 26b8 503d 691d 31bb 3a90 1dbd
00000320: 08fc 2dbc 2aa3 6b3c 327c 29bd 6f1e 7f3d
00000330: 2598 8a3d fab2 f13c 846a a4bc 8c8f 0abd
00000340: bab9 523d 59b2 9dbc e784 bc3c 64c9 0a3d
00000350: be13 30bd a0a6 783c 8181 a9bb 5b47 1d3b
00000360: f1d5 253d 6b17 353c 4f8e c13c 32c8 8ebc
00000370: 3057 bf3c 1a2b 2e3c d03d 143d 107f 353d
00000380: e6b4 4b3c 715c 4e3d 79b8 2fbd 90ad 63bc
00000390: 71e3 1cbd 76e8 9fbc 11af 4a3d e313 5fbd
000003a0: 4fee e63c 206e 90bc a946 163c 94c1 0bbd
000003b0: aa93 d8bc 7332 f03b 933a f23b 3f98 3dbd
000003c0: 38b0 28bb 9fa3 2bbd 969e 52bd 2ef8 56bd
000003d0: 5c96 323c 6f05 5bbc 82b0 343d 2fa6 553d
000003e0: e048 fc3c bf31 cbbc 9523 283d 3445 5d3c
000003f0: 7c60 293d f57b c23c 1718 1e3c 0572 da3a
-0.06960296 -0.08757974 -0.041243337 -0.011937102 -0.06539091 -0.027812595 -0.045793843 -0.046569474
-0.02725288 -0.0012855938 -0.029941594 -0.03749335 -0.032543495 -0.031327963 -0.05928997 -0.003486909
0.042852987 -0.028439855 0.0088245645 -0.047529485 -0.03880211 0.0051857494 0.024865879 0.028811658
0.00816939 0.007063014 0.007687958 0.011034628 -0.023402637 0.017347433 0.019257197 0.028512811
0.013779085 0.033652406 0.048314348 0.014651639 -0.030863654 -0.013553067 0.019030806 -0.018031063
-0.025297463 0.009275531 -0.002477482 0.009349252 0.025877131 0.037947115 0.0754876 -0.026178626
-0.056529846 0.03234101 0.06231189 0.04782814 0.021705076 0.042048536 0.016262338 -0.039037596
-0.04058248 -0.03198278 0.008386507 -0.020048624 0.022572802 0.04818487 -0.027973376 0.012346379
0.06510189 0.06592147 0.0031139525 0.011692167 -0.0034184386 0.049368057 -0.02019547 0.076413125
0.017721394 -0.020688785 -0.015077385 -0.03557369 -0.058533635 -0.05336898 -0.09010367 -0.01997771
-0.042570774 -0.01386734 -0.048750143 -0.04350796 -0.044381987 -0.018801073 -0.060773507 -0.066475146
-0.0070719603 -0.06798008 0.027358916 0.036168497 0.03792132 0.031812046 -0.007854855 -0.009846278
0.053515293 0.05213499 -0.022626016 -0.020122498 -0.006739972 0.029522773 -0.10287425 -0.00081321184
-0.018489199 0.089619815 0.027135959 0.02349808 0.07039128 0.099289365 0.110221244 0.029377356
0.10366589 0.062466193 0.048000492 0.10869052 0.10443543 0.09314968 0.050240736 0.13843538
0.0071756877 0.025817975 -0.023794899 -0.068192445 -0.0035997967 0.016061153 -0.0056533553 -0.014201243
0.011595283 -0.0031300336 -0.07274922 -0.021634545 -0.033007793 0.013930345 0.026599372 0.028930739
0.06833692 0.037736155 -0.017493837 0.0345654 0.019393392 -0.010795022 0.037162866 -0.048972987
-0.052213043 -0.08940194 0.022767019 -0.07251871 -0.013633699 -0.03697775 -0.052553996 0.02466051
-0.016174432 0.033488963 0.009196876 -0.009967635 -0.056969862 0.023038791 -0.06262286 0.009859646
-0.012410199 0.022140546 -0.033697635 0.012050072 0.0008125923 -0.013732538 0.02827003 0.0022986047
0.038081102 -0.04221151 -0.023377847 -0.028051842 0.03900051 -0.048309635 -0.030507311 0.007137254
0.014337382 -0.048020896 -0.053999506 0.04302405 -0.0053434437 0.048994802 -0.029700413 0.004440065
0.029589787 -0.017299753 0.0753432 -0.04941967 -0.033440948 -0.011735428 -0.005780882 0.0052647106
-0.0016832682 0.03523902 -0.040468574 0.03465334 0.036450315 0.050956868 -0.0027025586 -0.038467623
-0.010619171 0.014382163 -0.041378208 0.062284883 0.067673005 0.029504288 -0.020070322 -0.033828303
0.051446654 -0.019250082 0.023012592 0.033883467 -0.042987578 0.015176445 -0.005172909 0.002399883
0.040487234 0.011052947 0.023627428 -0.017429445 0.023357004 0.010630393 0.03619176 0.04431063
0.012433266 0.050381128 -0.042900536 -0.013896361 -0.038302843 -0.019520026 0.049483363 -0.054462325
0.028189806 -0.017630637 0.00917212 -0.034120157 -0.0264376 0.0073302328 0.0073922365 -0.04628777
-0.00257398 -0.041904088 -0.05142077 -0.052482776 0.010900106 -0.013367995 0.044113643 0.05216044
0.030796468 -0.024803994 0.04104956 0.013505269 0.04135178 0.023740748 0.009649298 0.001666606

model_cnn.conv_layers.0.0.bias f4 [16]
00000000: 878b acb8 1d6a e638 3083 70b9 caa0 aaba
00000010: aeb0 f6b9 acbf cdb7 d633 48b9 21fd 59bb
00000020: 305e b437 b4a8 c4b9 ad97 89ba b40f 28b8
00000030: 38f4 77b9 2ce2 2237 8061 9cb9 1aee cc39
-8.227588e-05 0.0001098702 -0.00022937055 -0.001301789 -0.00047052413 -2.4527159e-05 -0.00019092797 -0.003326245
2.1501532e-05 -0.00037509727 -0.0010497473 -4.0068946e-05 -0.00023646734 9.708612e-06 -0.00029827282 0.00039087312

model_cnn.conv_layers.0.1.weight f4 [16]
00000000: d57b 7e3f 3963 813f ada3 803f eb35 7f3f
00000010: 30f3 833f e4b9 783f c6e4 853f 11c5 853f
00000020: e191 843f 040c 723f 8a14 7d3f a27c 803f
00000030: e14b 783f b64f 6b3f c9ca 803f 6364 813f
0.994077 1.0108405 1.004995 0.9969165 1.030859 0.97158647 1.0460441 1.0450765
1.0357019 0.94549584 0.98859465 1.0038035 0.9699078 0.91918504 1.0061885 1.010876

model_cnn.conv_layers.0.1.bias f4 [16]
00000000: 27d0 243d 368b c53c b97b d6bb 9368 213d
00000010: bae1 19ba 4d16 86bb ea3c 263d 3667 70bd
00000020: 9c02 8aba 5d16 05bd 61ad 87bb 8b8b 013d
00000030: b711 9bbc cefa 9cbd c66c 47bd bc93 3bbc
0.040237572 0.024114233 -0.0065455106 0.03940637 -0.00058701227 -0.004092014 0.040585436 -0.05869218
-0.0010529342 -0.03249203 -0.0041405414 0.03162722 -0.018929346 -0.07665025 -0.04868772 -0.011448797

model_cnn.conv_layers.0.1.running_mean f4 [16]
00000000: af20 b93d c004 e83d 60dd d1bd e204 bf3d
00000010: c137 f7bd 293b 23be b0f7 18bd 9257 efbd
00000020: b13c 26bd 9025 f23b b43b 983e 3cd0 5d3e
00000030: 1afb 38bc 2cab 6f3c e760 0fbd 6fa7 7b3d
0.09039437 0.11329031 -0.10247302 0.09327103 -0.12071181 -0.15940537 -0.03734559 -0.116866246
-0.040585224 0.0073897317 0.2973305 0.21661466 -0.011290336 0.014628213 -0.035004523 0.061438974

model_cnn.conv_layers.0.1.running_var f4 [16]
00000000: 74f3 0c40 accf 0740 956e 4240 f2d0 5a40
00000010: 5fd1 3040 b5a5 4340 dbbb fc3f 1fce 6a40
00000020: 0c1b e33f 5dd4 f33f a334 1e41 2166 9640
00000030: 3c69 4640 e89c 9640 aff6 4240 08d6 0f40
2.2023592 2.1220503 3.0379994 3.419003 2.762779 3.056989 1.9744829 3.6688306
1.7742629 1.9049183 9.887851 4.699967 3.100173 4.7066536 3.0463064 2.2474384

model_cnn.conv_layers.1.0.weight f4 [32, 16, 3]
00000000: 06c0 dcbb e061 233e 0d5c 963d 15f6 91bd
00000010: dbf2 7f3c f430 df3d 53c6 f0bd cd75 0cbe
00000020: ed4d 8e3d f3e0 8bbd 4071 84bc 8581 323d
00000030: 839e e0bd ecca 2fbe c15d 80bd 4d02 fdbd
00000040: 041e 07bd bc51 983d e4c6 19bd 381e d0bd
00000050: 3e49 1cbe b763 b8bc 32a5 6b3c 7b95 cdbd
00000060: c1d5 e53d a32a c1bc a052 453c 75a4 1b3e
00000070: 7ba9 2c3c b420 083c 0be3 7e3d 58ef b0bd
00000080: 24a3 0c3b e9be e53d 8e32 e63d 4177 67bd
00000090: 913b 85bc 7d34 89bd 2c24 7f3c 8dc1 cdbd
000000a0: adef 78bd ac68 96bd 25aa 5b3d 6776 2cbe
000000b0: aeda 6a3d a4f7 823d 2a91 efbd 4f64 013e
000000c0: f3a8 bbbc baab e23b f23f e33c 40dc a83d
000000d0: 555f e73d 1b68 a53c 1376 b7bc 4161 15be
000000e0: 1d9a aebc 6796 f03d 659c b9bd f367 91bd
000000f0: 3fd0 dfbd 0a42 88bc 8fe9 893d 96f7 b9bc
00000100: bb47 bd3c 311e d1bd d8d1 f1bb 3801 a5bd
00000110: 4520 873d 74ea b13d ff0a 67bd 6de3 36ba
00000120: 2aaa 0f3e d817 cb3d bc0f 263e ea31 6cbd
00000130: 8f3a 36bd 1d7f 923d a30e 813d 1a38 f2bd
00000140: 71e7 bd3a 0490 003e 8d82 dd3d f1df a0bd
00000150: d105 4bbd 0871 aa3d 6845 6dbd e526 023e
00000160: 6cec bd3d d26e 143d 132b b3bd fff6 b5bd
00000170: 381d 32be c331 393d 7199 093e 2868 4cbc
00000180: a1e5 f2bd a9ae 8abd 761f 6dbd 866d f8bd
00000190: 6400 27be 1c82 adbc 0dde 713d 07af cd3d
000001a0: 79ab 0f3e 17f8 d13d 8cc6 dbbc 53dc 353e
000001b0: 5491 05be 2a5d 69bd 34d9 aabd 1529 d1bd
000001c0: 411e 6abd bac1 853d 87cf 913d 7935 013e
000001d0: d12e b33c 79e7 583c 1c0f b9bd 391a d13d
000001e0: f5d8 12bd 989d ddbd 5dae 133e 33c5 8ebd
000001f0: c6f9 0abd 5a54 a2bd 0d22 cabb 46cd 50bc
00000200: 336a f0bb 72ce 8e3d 29a7 d4bd 2ef4 f73d
00000210: d9ef a23d 34a6 943d b092 8dbc 1958 b43d
00000220: 93e6 c23c 5700 7a3d 8317 503d a510 a4bd
00000230: aa03 08be f277 913d 70d1 febd 998a b8bd
00000240: 4876 493d cbe5 003e 1757 473d 1141 24bc
00000250: 303d 3f3c 182f 843c 2109 4abd 8ac1 fdbd
00000260: dd0f e73d f02b 60ba bed2 bdbd 101b 953c
00000270: d2b8 463d ba5d 16be b1ae e53d 90bc 9dbd
00000280: ec62 763d 3920 a1bc 5f3a dcbd f4d0 f33d
00000290: bef7 c6bd 5bea 143d 7f95 56bd 11e2 0e3d
000002a0: 08ab 033e d21f bb3c 1041 c9b7 09c1 463d
000002b0: 10f1 e63d 4b81 423d 0f9d 66be 493d 8b3d
000002c0: 725f 6dbe 4f4e f5bc 6afb ccbc 1ba8 47bd
000002d0: 24d8 cb3d e4d7 213c e1c1 18ba 0990 823d
000002e0: e3cf 0d3c 6286 d43d 65f5 643d 744e 8b3d
000002f0: b7d9 0abe f410 9ebd 5d17 fb3d f852 cbbd
00000300: 29c2 1dbe 3bf8 8a3d 1c12 ffbd cc0b 903d
00000310: 3ab1 91bd 8be7 9c3d 64d4 b8bd 31bd 49bd
00000320: 3d8c e33c 131a 1e3e 7799 8abd 3c24 d83d
00000330: 533f 24be 2d30 923d 552c b7bd 38ac d2bd
00000340: 6181 1fbe 5614 293e b0aa 19be 50e6 663d
00000350: b366 d8bd afea 2a3d 9f83 1d3c cab9 38be
00000360: fcaa ab3b cdf0 bc3d ef9a 503c 4ffc 00be
00000370: 386d 873d eea7 b33d ffbf 42bb 7206 e13d
00000380: 8607 f1bc 66bc e63d a9e1 953d 2434 5cbc
00000390: 2877 aebd dd25 b33c 88a9 fdbb a52d a43d
000003a0: 063f cf3d f94a d3bd 8fd0 753d dc7a 2abe
000003b0: 7d01 21be 25d8 30bd 79bf b4bd f1bc 893d
000003c0: bba9 73bd 505b b13d e0aa 33be 4221 b3bd
000003d0: 7d65 ffbd 54ec 81bc c777 91bd c65f d13d
000003e0: 7dae 53bd 04d0 7b3d a397 d0bc b990 e83d
000003f0: 2502 a3bb 89ba 933d 3991 1dbe 890d f23d
-0.006736758 0.15955305 0.07341776 -0.071270145 0.015621866 0.10898009 -0.11756577 -0.13716812
0.06948457 -0.06830015 -0.016167283 0.04358055 -0.10967734 -0.17167252 -0.06267882 -0.123539545
-0.03298761 0.074374646 -0.037543193 -0.10162014 -0.15262315 -0.022508485 0.014382647 -0.10038277
0.11222411 -0.023579901 0.012043625 0.15199454 0.010538454 0.008308578 0.062228244 -0.08639401
0.0021459544 0.11218054 0.11240111 -0.056510214 -0.016263755 -0.066994645 0.015572589 -0.100466825
-0.060775448 -0.07344183 0.05362906 -0.16842042 0.057337455 0.0639489 -0.1169761 0.12635921
-0.02290771 0.006917444 0.027740452 0.08245134 0.1129748 0.020191243 -0.02239517 -0.1458788
-0.021313721 0.11747437 -0.09063033 -0.07099905 -0.10928392 -0.016633052 0.06734001 -0.022701066
0.023105493 -0.10210837 -0.0073797517 -0.08056873 0.06597952 0.086872965 -0.05640697 -0.0006976638
0.14029756 0.09916657 0.1621694 -0.05766479 -0.04448944 0.07153151 0.0630162 -0.11827107
0.001448853 0.12554938 0.10815916 -0.078552134 -0.049566094 0.0832234 -0.05792752 0.1271015
0.092736095 0.0362385 -0.0874845 -0.088850014 -0.17393959 0.045213472 0.1343744 -0.012476005
-0.118602045 -0.06771595 -0.05789133 -0.12130265 -0.16308743 -0.021180205 0.059049655 0.100431494
0.14030255 0.102523975 -0.026828073 0.17759828 -0.1304372 -0.056973614 -0.083422095 -0.10212914
-0.05715776 0.06531091 0.07119661 0.12618054 0.02187291 0.013238781 -0.09036085 0.1021008
-0.035851438 -0.10821074 0.14421983 -0.069712065 -0.03392961 -0.07926245 -0.00616861 -0.0127442535
-0.0073368787 0.0697297 -0.10383446 0.121071205 0.079559036 0.07258263 -0.01728186 0.08805866
0.023791587 0.06103548 0.050803673 -0.08010987 -0.13282648 0.07102956 -0.12442291 -0.090108104
0.049185067 0.12587659 0.04866704 -0.010025279 0.011672303 0.016135737 -0.049325112 -0.1239043
0.112823226 -0.0008551469 -0.092687115 0.018201381 0.048516102 -0.14684191 0.1121496 -0.07701981
0.060152933 -0.019668685 -0.10753321 0.11905089 -0.09715222 0.03635631 -0.052388664 0.034883562
0.12858212 0.022842322 -2.3991364e-05 0.048523936 0.11276448 0.047486585 -0.2252085 0.067987986
-0.23180941 -0.029944567 -0.025022227 -0.048744302 0.09953335 0.0098781325 -0.000582723 0.06375129
0.008655521 0.10377194 0.05589809 0.06802073 -0.13559614 -0.07718077 0.122603156 -0.099279344
-0.15406097 0.067856275 -0.12454626 0.070335 -0.071138814 0.07661351 -0.09024885 -0.049252693
0.027776832 0.15439634 -0.06767552 0.10553786 -0.16039781 0.07138095 -0.089440025 -0.10286754
-0.15576698 0.16511664 -0.15006518 0.056371987 -0.10566463 0.041727718 0.0096139 -0.18039623
0.005238889 0.092256166 0.012732252 -0.12596248 0.06612629 0.087722644 -0.002971649 0.109875575
-0.029422533 0.11266403 0.07318432 -0.013440166 -0.08518821 0.02186864 -0.007741157 0.080165185
0.10119443 -0.10317034 0.06001335 -0.1664843 -0.15723224 -0.04317488 -0.08825583 0.06725491
-0.05948804 0.086599946 -0.17545652 -0.08746578 -0.12470529 -0.01585976 -0.07102924 0.102233455
-0.051680077 0.061477676 -0.025462931 0.11355729 -0.004974621 0.07213313 -0.1538743 0.11818988

model_cnn.conv_layers.1.0.bias f4 [32]
00000000: a0d1 4c39 e127 983b 3ea9 d7bc 2cdc 713a
00000010: e24a c93b 440c 403c 9d85 07ba fcb7 723b
00000020: a2ee b73c 584e 94bb 0fc2 803c 0750 29b9
00000030: 7127 8cbc d750 38ba 7bc1 feb9 818c 2339
00000040: 824a 8fb9 9316 573c 84d0 acb8 b07f 18b9
00000050: 53f5 babc ea1e f636 e0e9 aeb9 c076 f539
00000060: 1a07 3339 d7f2 823c 8864 1237 346b e5b8
00000070: 38a0 e1b6 fd48 bc3c cb95 b7b9 bf70 cc3c
0.00019533047 0.004643426 -0.026325818 0.00092262286 0.00614296 0.011721674 -0.0005169751 0.0037035933
0.022452656 -0.004525941 0.015717534 -0.00016146908 -0.01710865 -0.0007031089 -0.0004859081 0.00015597233
-0.00027330598 0.013127941 -8.240438e-05 -0.00014543417 -0.022822058 7.33497e-06 -0.00033362117 0.00046818517
0.00017073416 0.015984936 8.725685e-06 -0.00010939539 -6.7241745e-06 0.022984022 -0.00035016084 0.024956105

model_cnn.conv_layers.1.1.weight f4 [32]
00000000: 9b1c 833f 327b 803f f79e 843f bd7a 743f
00000010: fb72 673f 7b7a 7e3f 53f4 813f fd80 853f
00000020: 4f1a 833f 0270 743f 8c46 7d3f 5e1a 803f
00000030: 95c1 803f e069 863f 52b7 7f3f 3dc4 703f
00000040: ec60 723f e6fb 863f cd86 753f aa3c 793f
00000050: f917 743f 7e81 813f a76f 843f d013 833f
00000060: f836 6c3f 4e20 853f ce2a 823f 73fe 763f
00000070: 7979 793f cd96 7c3f 28e2 783f 6499 863f
1.0243105 1.0037596 1.0361012 0.95499784 0.9040982 0.9940564 1.0152687 1.0429989
1.0242404 0.9548341 0.9893577 1.0008047 1.0059077 1.050106 0.998891 0.94049436
0.9467914 1.0545623 0.95908815 0.9735819 0.9534908 1.0117643 1.0346574 1.0240421
0.92271376 1.0400484 1.0169313 0.9648201 0.9745098 0.98667604 0.9722009 1.0515561

model_cnn.conv_layers.1.1.bias f4 [32]
00000000: ef68 31bc 863a 5bbc a673 02bc f601 103b
00000010: 5f72 f8bc a6cf e43c ad4b 84bb b689 89bc
00000020: 4613 533c 24d9 acbc fdc6 0a3c e6a5 2cbb
00000030: 75c4 043c 4677 143d ec23 92bc 174b c1bc
00000040: 40b3 8abd 0ff6 c43b d921 67bd ed32 2fbc
00000050: df14 a3bd 3542 51bc 32f0 51bd 264d 1b3d
00000060: 8b8f 7d39 c798 59bc a1b7 4d3b 8fa0 86bd
00000070: 43a2 c93c 3bae 92bc 2e50 c73c 8dd8 bdbb
-0.010828241 -0.013380652 -0.007962143 0.0021973825 -0.030327974 0.027931046 -0.0040373416 -0.016789299
0.012883013 -0.021099634 0.008470294 -0.0026344 0.00810348 0.03624656 -0.017839395 -0.023595376
-0.067724705 0.006010778 -0.056428764 -0.010693294 -0.07962965 -0.012772133 -0.05125446 0.03791537
0.00024181434 -0.013281054 0.003138997 -0.06573593 0.024613505 -0.017905345 0.024330225 -0.005793637

model_cnn.conv_layers.1.1.running_mean f4 [32]
00000000: 0c36 7ebe f507 263e f0da 0fbe c0c3 423d
00000010: 7da9 78be 4106 1abe a0fe 41bf 85ea cd3d
00000020: ec71 053d efab d63d a2d6 43bf e5e2 97be
00000030: 865f 263e 20ce 89be 0fd4 a23d 3882 ab3e
00000040: d08f d43e 5866 5a3e 5bd2 753d 358a 6ebe
00000050: c046 473e 550e 8abe cc3f f93e 44eb 84be
00000060: 8d61 71be 2ec3 c13e dfff a73e ca78 9f3e
00000070: e755 953e 121d 5fbe 9494 e2be 26f1 103f
-0.24825305 0.16213973 -0.14048362 0.047549963 -0.24283405 -0.15041448 -0.7577915 0.10054497
0.032579347 0.104820125 -0.7649938 -0.29665294 0.16247377 -0.26915073 0.07950603 0.33497787
0.4151597 0.21328104 0.060015064 -0.2329491 0.19460583 -0.2696406 0.48681486 -0.25960743
-0.23572369 0.37844223 0.32812402 0.31146842 0.291671 -0.21788433 -0.4425398 0.56617963

model_cnn.conv_layers.1.1.running_var f4 [32]
00000000: bc2e b43e 72f5 683e 868f 0e3e eb9e df3d
00000010: d7f3 083e 925c ef3d 70fd 8a3e e72a 563e
00000020: eee6 a53e 4460 463e c370 883e a6a8 693e
00000030: f608 013e 980f 623e 77f8 903e 19b1 a83d
00000040: c54f 8a3e bfbb 883e bd01 243e 158b 323e
00000050: 6a37 993d 9e51 ef3d 553a 7e3e d26c a03e
00000060: b5ed 133e 458a 1d3e c58d f73e 313a 9f3d
00000070: b4ad 223e cb42 4a3e 263b 2a3e 9664 c03e
0.35191905 0.2274988 0.13921937 0.10918983 0.13374268 0.11687578 0.27146482 0.20914803
0.32402748 0.1937266 0.2664853 0.2281824 0.12601075 0.22076261 0.28314564 0.08236904
0.27013984 0.2670574 0.16016288 0.17435868 0.074812725 0.11685489 0.2482694 0.31333023
0.14446147 0.15384777 0.4835035 0.07774771 0.15886575 0.19752042 0.16624126 0.3757674

model_cnn.conv_layers.3.0.weight f4 [64, 32, 3]
00000000: 6626 b03c 520f 46bd 3ddd d8bd 88b3 033d
00000010: 744d d03a a524 eebd cf71 5b3d 80ba 9c3d
00000020: e166 093e 9191 90bd 3e1c 143d 1d2b 01be
00000030: fe13 a73c b470 893d 6c4e 0bbd 6b45 353d
00000040: 4360 f53c 93b2 81bd 2c19 adbd 90a1 793d
00000050: 4780 0a3d e0e3 cf3d 2832 c63c 03b2 dabd
00000060: b7c9 af3d 23a2 213c cfeb e8bd 5d49 da3d
00000070: 86ae 9d3d f64f 8cbd e348 87bd 8928 5bbd
00000080: 6913 3b3b a41d 113d 3782 b73d 9745 c53d
00000090: 809f d1bd b810 58bb 9d5a bebc 6c27 c03b
000000a0: cfb3 283c 65e5 f7bb eee3 f33c 66d1 963d
000000b0: 56a6 aebd 733c 0abd e0af 96bd c60d 1c3d
000000c0: d480 e9bc 022a c9bc 7b65 e7bd 7cbb 92bd
000000d0: 0c68 ffbc 37ad 653d 1591 5c3d 99c4 f83d
000000e0: b5db be3b c556 0a3c 12f5 e2bd e825 183d
000000f0: c38e 5c3d 109a abbd 80bb 03be 3e48 1cbd
00000100: 3b12 4ebd 171c ec3d b0ea 87bd 59e4 603b
00000110: 0baa ce3a 20ea 923c ff73 c33c 52a4 b93d
00000120: 7d38 423b c056 b43d 7f93 5d3d e80f d03d
00000130: 0dbd 9a3b 78b8 cebc c8b8 e0bd 1c79 fbbd
00000140: 2306 1abe d467 0b3d 6277 f5bc 82b8 253d
00000150: 2294 9e3d 9c10 2a3d 74a7 243c 0f1f afbc
00000160: 9541 46bd a932 a03d bb01 a73c 5745 2abd
00000170: 1317 8a3c 5291 05bc 5c50 c6bc 84f3 e33c
00000180: 2da5 8c3d 6416 af3d 4fa1 c83d 7b19 4a3d
00000190: 49e6 7fbd 0b15 c33d 72e9 93bc c15f cabd
000001a0: e11b 4abd a396 81bd 3ce0 f5bc 7c55 503d
000001b0: 090e 00be 2ff3 b7bd 7fb8 a13d f62f 64bc
000001c0: 66ac 02bd ea20 523d ceff 04bd 4fd3 0d3e
000001d0: ded3 1b3e f5e2 9dbd eb08 04bd 8e8c d4bc
000001e0: 9e50 b83d 97af a9bd 3ada b6bc 7411 963c
000001f0: e190 853d fe80 cfbd bc2c 6cbd fb0c 9ebd
00000200: 1447 e63d 00fc 9abd a0ab aebd 1c80 103d
00000210: 3897 b7bc 5ec3 803d 868b 73bd 9356 18bd
00000220: d6e5 223e 10c7 7d3b 8e0b 7d3d a74f aa3c
00000230: 4b83 fbbc b87c b0bd 70eb af3d 4f1d 83bd
00000240: f8a4 8ebd f965 c9bc d6dc c5bd 8379 723c
00000250: 7a42 f9bc f688 823c 2369 61bd fbe6 ca3d
00000260: 6bb3 873d 9a07 0abc 0062 7f3d d098 c23d
00000270: 64cc c7bd 8242 d7bc f9c7 9abd f16c 9d3d
00000280: c5dc b63d b4fd f83c 7613 903d 3b6e eebc
00000290: 68b7 99bc d729 b53d c83e 24bd dfe6 db3d
000002a0: 3b6e a13c 9968 a1bd 1718 b23c 7373 8ebd
000002b0: 31d0 aabd 83cc c9bd 86b2 c13a cd19 e0bc
000002c0: 3cdf 133d fa22 86bd 4287 9a3d 18ef b5bc
000002d0: 9e00 e6bd 9935 e8bd 528f 89bd fc90 0ebd
000002e0: f882 ac3d f59e c13c 3c43 3cbd 91bd ecbc
000002f0: 103b 9d3d e133 483d 03ed 653d 4398 b2bc
00000300: 5073 50bd 02a1 613d 200f cfbd 48a4 72bc
00000310: 571e 72bd c3ec d33c ea7d 3cbd 86f9 42bd
00000320: 684c d13d 871a d63d 0610 da3d a674 01bd
00000330: 23a2 6e3d e668 35bd c1ac a5bd 78b6 f2bd
00000340: ef4f b23d 9f09 063d 6762 07bd bddb ddbd
00000350: 5b5e 453c ed62 d8bb 396a d5bd 9a73 b9bd
00000360: bd32 a73d fa18 90bc 2600 49bd 5b4d 07bc
00000370: 0742 033d 4474 ee3b 020b 903c 6934 27bc
00000380: f02e cb3d 3db7 1b3d 043d 963d 04a0 93bd
00000390: e700 02bd 09a6 14bd 9955 38bd 45c1 19bd
000003a0: 8218 adbd 5149 523d 273b 853d f009 b93d
000003b0: dea6 8d3b 14ca 8a3d e99b 0d3c 7dac 95bd
000003c0: d424 38bc e634 8c3d ef0b 15bd c9a7 a43c
000003d0: 7d88 25bd da65 f6bd 652a 1e3d b0e3 973d
000003e0: a81f de3c 0157 edbc eb4b 083d d944 ad3c
000003f0: 2635 623c 202f df3c 4601 003d 9b0e 04bd
0.021502685 -0.048354454 -0.10589073 0.032153636 0.0015892223 -0.11628083 0.053575333 0.076527596
0.13418151 -0.070590146 0.036159746 -0.12614103 0.020395275 0.067109495 -0.034010336 0.044255655
0.029953128 -0.063328885 -0.08452067 0.060945094 0.03381374 0.101508856 0.024193838 -0.10678484
0.08583396 0.009865317 -0.11373102 0.10658524 0.07699303 -0.06851189 -0.06605699 -0.053505454
0.0028545505 0.035428658 0.089603834 0.09632414 -0.102355 -0.003296895 -0.023236567 0.0058640745
0.010296776 -0.0075651878 0.029771771 0.07364158 -0.0852782 -0.033749055 -0.07357764 0.038099073
-0.028503813 -0.024556164 -0.11298653 -0.07164666 -0.031177543 0.056073394 0.0538493 0.12146873
0.005824531 0.008443539 -0.110819 0.037145525 0.053847086 -0.083789945 -0.12864494 -0.038154833
-0.050310355 0.11528795 -0.0663656 0.0034315793 0.001576723 0.017933905 0.023859022 0.09064545
0.002963572 0.08805609 0.05409574 0.10159284 0.0047222436 -0.025234446 -0.10972744 -0.12278959
-0.15041403 0.034034565 -0.029964153 0.040459163 0.07743098 0.041519746 0.01004969 -0.021377115
-0.048402388 0.07822163 0.020386567 -0.041570034 0.016856706 -0.008152323 -0.02420824 0.027826078
0.06867442 0.085491925 0.09796392 0.049340706 -0.062475476 0.09525498 -0.018055651 -0.09881545
-0.049342994 -0.0632756 -0.03001415 0.050862774 -0.12505354 -0.089819305 0.07896518 -0.01392745
-0.031902693 0.05130092 -0.032470517 0.13850139 0.1521754 -0.07709304 -0.032235067 -0.025945928
0.089997515 -0.08285444 -0.022320855 0.01831887 0.06521774 -0.10132025 -0.05765985 -0.077173196
0.11244026 -0.075675964 -0.085288286 0.035278425 -0.022410974 0.06287263 -0.05945923 -0.03719194
0.15907988 0.0038723387 0.061778598 0.020789934 -0.030702254 -0.08617538 0.08589828 -0.064020745
-0.06965059 -0.024584757 -0.09661262 0.014799478 -0.030427206 0.015934449 -0.055031907 0.09907337
0.06626018 -0.008424664 0.06234932 0.09501803 -0.09755781 -0.02627683 -0.07557673 0.076867945
0.08928827 0.030394413 0.07034962 -0.029105296 -0.018764213 0.08845871 -0.040098935 0.107373945
0.019705882 -0.078812785 0.021740003 -0.06955614 -0.083404906 -0.09853461 0.0014777936 -0.027356053
0.036101565 -0.0654964 0.0754533 -0.022208735 -0.112305865 -0.11338348 -0.06716789 -0.034806237
0.08423418 0.023635367 -0.045962557 -0.028898986 0.07677281 0.0488776 0.056134235 -0.02180112
-0.05089122 0.05508519 -0.10110307 -0.0148096755 -0.059110966 0.025869733 -0.04601852 -0.047601245
0.102196515 0.104542784 0.106475875 -0.031605385 0.058260094 -0.044289492 -0.08089591 -0.118512094
0.087066524 0.03272402 -0.03305283 -0.108329274 0.012046422 -0.0066035897 -0.10420651 -0.090552524
0.081639744 -0.017590035 -0.049072407 -0.008258189 0.03204539 0.0072770435 0.017583374 -0.010205367
0.09921062 0.038016547 0.073358566 -0.07208255 -0.03173914 -0.036291156 -0.045003507 -0.03753783
-0.0845194 0.05133945 0.06505423 0.090350986 0.0043228706 0.067768246 0.008643129 -0.0730829
-0.011239249 0.06846027 -0.036388334 0.020099537 -0.04041337 -0.120311454 0.03861465 0.07416475
0.027114704 -0.02897215 0.033275526 0.021150993 0.013806617 0.02724415 0.031251214 -0.03224049

model_cnn.conv_layers.3.0.bias f4 [64]
00000000: 23eb babb 2904 adb8 6d08 7fb8 e055 96ba
00000010: e5e3 be39 deee 8936 cb03 edb7 bd0f a337
00000020: f512 9438 7814 d3b7 fbe2 9fb8 ea6a 93b7
00000030: aabb fcb6 972c 9ab7 a26e 1ab8 28be c0b7
00000040: 5217 4a3a 7f09 5fbb 3835 b437 b153 e5bb
00000050: ccd9 68bb 073b c538 99f6 c0b8 b9b3 f8b8
00000060: 86da 5bb7 29e4 aab8 19e4 b536 2f3f 90bb
00000070: 415d 7139 1cbe ccb8 853e 9db9 2532 d439
00000080: 1f96 d8bb 7813 c638 1ff9 debb dd8c 37b8
00000090: 11d9 70b9 8c55 cfbb 1029 1939 82dc 5538
000000a0: 2c8d ab38 6606 afb7 908f 59ba b611 9e37
000000b0: cc84 c6b7 f5a5 8d38 3e31 2abb 701a 6839
000000c0: ce5e 81ba 0804 01bb d3a5 1a3b d89b e5b9
000000d0: ca0d 1d38 ecf8 f0b7 2e73 25b8 6022 8aba
000000e0: 6c64 a03b 3a3d 2638 ad18 32b9 2421 72b6
000000f0: 7588 0a37 9c54 9c3b b85d d438 c65c f9b8
-0.0057043 -8.250058e-05 -6.0804585e-05 -0.0011469685 0.0003640942 4.110726e-06 -2.8254368e-05 1.9438443e-05
7.060721e-05 -2.5162692e-05 -7.623989e-05 -1.7573551e-05 -7.532032e-06 -1.8378994e-05 -3.6819496e-05 -2.2976732e-05
0.00077091635 -0.003403276 2.1482454e-05 -0.006998502 -0.0035530208 9.404687e-05 -9.201206e-05 -0.000118590375
-1.3104296e-05 -8.14873e-05 5.4207744e-06 -0.0044020633 0.00023018291 -9.762889e-05 -0.00029991954 0.00040473152
-0.0066096927 9.445002e-05 -0.0068046 -4.376179e-05 -0.00022969047 -0.0063273367 0.00014606514 5.098852e-05
8.180211e-05 -2.0864605e-05 -0.00082992855 1.8843315e-05 -2.3665278e-05 6.754316e-05 -0.0025969292 0.00022135093
-0.0009870173 -0.001968624 0.0023597374 -0.00043794396 3.744456e-05 -2.8726143e-05 -3.9446335e-05 -0.0010538809
0.0048947837 3.9634506e-05 -0.00016984595 -3.60801e-06 8.257212e-06 0.0047708284 0.00010126404 -0.00011890526

model_cnn.conv_layers.3.1.weight f4 [64]
00000000: b74f 7b3f 639d 7e3f 9b4d 7a3f 1366 7f3f
00000010: 0c51 833f b3ba 803f 31ea 7e3f 1048 833f
00000020: 8fbd 7e3f 9612 7e3f 471c 843f 0967 783f
00000030: 3f08 853f 66f9 7c3f b570 803f 916b 7b3f
00000040: 1d28 793f 5963 803f d341 7b3f 9c60 823f
00000050: 4a9e 7a3f 7b13 7a3f c2c4 813f a276 7c3f
00000060: 053f 833f 5601 703f 47a0 753f 2d57 803f
00000070: 2433 763f b0e3 7f3f 4209 6e3f 6f4f 863f
00000080: e713 843f e580 843f 6c3e 763f c30b 7e3f
00000090: 5404 833f e2cd 793f 0287 8a3f 944a 713f
000000a0: 203c 763f a7cf 773f c49a 6d3f 8579 893f
000000b0: da54 823f 4987 763f 68c5 783f 838a 813f
000000c0: 685f 723f ab68 7b3f f833 793f 83c7 813f
000000d0: 4ef8 833f f25d 823f 6e67 823f a209 7b3f
000000e0: 21d7 823f 9e86 743f ed2d 823f 17ca 883f
000000f0: 2398 733f 9f6b 763f 54cd 733f 0bda 833f
0.9816851 0.99458903 0.97774667 0.9976513 1.0259109 1.0056976 0.995761 1.0256367
0.99507993 0.9924711 1.032113 0.9703222 1.0393142 0.9881805 1.0034395 0.9821101
0.97326833 1.0030318 0.98147315 1.0185733 0.9789778 0.97685975 1.0138171 0.9861852
1.0253607 0.9375204 0.9594769 1.0026604 0.96171784 0.999568 0.92982876 1.0492991
1.0318574 1.0351835 0.96189 0.99236697 1.0235696 0.9757978 1.0822451 0.9425442
0.96185493 0.9680123 0.9281428 1.074021 1.0182145 0.9630018 0.9717622 1.0120395
0.9467683 0.98206586 0.97344923 1.0139011 1.0310152 1.018492 1.0187814 0.98061574
1.0221902 0.9551791 1.0170265 1.0686673 0.9515402 0.96257967 0.9523518 1.0300916

model_cnn.conv_layers.3.1.bias f4 [64]
00000000: 2fa0 893c e466 f6bc b2a2 fa3c f241 573d
00000010: 810f c03b d07d 7e39 f97b 323c 238e 35bd
00000020: 1ab5 813c 05a6 dfbc 6978 a43c 4e5c 15bc
00000030: 9d87 4abc 73c9 67bc 6dab 9bbc e0ba 7dbd
00000040: 6530 41bc c58e 7c3c 78b1 10bc 3d0d d239
00000050: ddf5 023d 9b02 41bd 7491 4cbc feda 3abc
00000060: 4cd7 173d 3a5b 02bd f09e 83bc ffa2 9ebc
00000070: 353c 19bd 89a0 983c 637c 50bd ccb9 41ba
00000080: b7ec 803c b9fe abbc 516e 11bc 6e88 853c
00000090: 76d8 14bb 1bb9 a0bd 2c2c fa3c e91b 84bd
000000a0: a0f7 babc 6297 30bc c227 5abd b31a 8ebc
000000b0: 9c46 ae3c 4225 97bd bd84 763d ff76 163d
000000c0: 90e8 12bc 15f4 d63b aba8 22bc 278f b3ba
000000d0: 041b 433c 419f ea3c 4266 fcbc a0d1 11bd
000000e0: ce22 ec3b 94a0 90bb 3a08 893c 2be4 59bb
000000f0: 885d 1abd b570 7dbc ae2f 013d bbd7 bbbb
0.016800014 -0.030078359 0.030595157 0.052553125 0.005861223 0.00024270196 0.010893815 -0.044325005
0.015833426 -0.027300844 0.020076947 -0.009116245 -0.012361434 -0.01414715 -0.01900264 -0.061945796
-0.011791323 0.015414898 -0.008831374 0.00040064185 0.031972755 -0.047121625 -0.012485851 -0.011404751
0.037070557 -0.03182528 -0.016066998 -0.019364832 -0.037410934 0.018631237 -0.050899874 -0.00073900516
0.015737874 -0.020995485 -0.008876399 0.016300406 -0.0022712029 -0.07847806 0.03053864 -0.06450636
-0.022823155 -0.01077828 -0.053260572 -0.017346716 0.021273904 -0.07380153 0.060185183 0.036734577
-0.00896658 0.0065598586 -0.009927909 -0.0013699279 0.0119082965 0.028640391 -0.03081048 -0.035600305
0.0072062975 -0.0044136737 0.016727556 -0.003324757 -0.037686855 -0.015468766 0.03153961 -0.005732504

model_cnn.conv_layers.3.1.running_mean f4 [64]
00000000: cbea 453d 8ddf cabd 5f13 16be 016c 57bf
00000010: ceeb 823c 9353 48bf fea7 9e3e 266d eabd
00000020: 4b30 743d 8b74 10bf ff49 a93e 0c7c 563d
00000030: 8ca7 bb3e baae 41be d8b0 c6bd 1c9c 9fbe
00000040: e00d debe 7155 1fbf ad99 33bf 0148 adbd
00000050: 4a69 ffbe 35a5 853e 4c4a d33e 3ec4 1abf
00000060: 238b 3abf 0018 283f 6161 0f3f 011b e33e
00000070: 45a1 4e3d 132e 6fbf 59b0 723f 3db0 87bf
00000080: f62f 35bf 663b 8f3e 830e d4be 6425 05be
00000090: 734c 74be 4ed4 aebe c318 903e 6f98 6cbe
000000a0: 3ffc 3dbd 47cc a53e 9c41 36be b3d0 dc3e
000000b0: 64d9 923d a5be 323e c992 89bf b1b2 16bf
000000c0: 483b cd3d 83d7 2abf 3967 a0be 5733 183f
000000d0: d483 9c3d 49fa ec3e 388e 1c3e 7eb1 18bf
000000e0: d473 b1be b235 89be fc85 303b 30b4 883d
000000f0: 4c02 433e 99be bdbe 7516 5cbf 3327 d4be
0.04831962 -0.0990592 -0.14655827 -0.84149176 0.015981581 -0.78252524 0.30987543 -0.114466
0.05961637 -0.5642783 0.33064267 0.052364394 0.36651266 -0.18914309 -0.09701699 -0.3117379
-0.4336996 -0.6223975 -0.70156366 -0.08460999 -0.49885017 0.26102605 0.41267622 -0.6045569
-0.72868556 0.6566162 0.56007963 0.4435654 0.050446767 -0.9342968 0.94800335 -1.0600659
-0.7077631 0.27975005 -0.41417322 -0.13002545 -0.23857288 -0.3414635 0.28143892 -0.23105024
-0.04638314 0.32382414 -0.17798465 0.43127975 0.0717037 0.17455538 -1.074792 -0.5886641
0.100210726 -0.66735095 -0.31328753 0.5945334 0.07642332 0.46284702 0.15288627 -0.5964583
-0.34658682 -0.2679878 0.002693533 0.06674993 0.19043845 -0.37059477 -0.85971767 -0.41436157

model_cnn.conv_layers.3.1.running_var f4 [64]
00000000: 0731 9c3e 9410 dc3e 824a 1a3e 2bbe 283f
00000010: 4eb6 873f f3ca 133f 456e bb3e 80f3 d43e
00000020: 65e8 193f a817 413f c6ce 5b3f 1f0a f23e
00000030: ea3b 473f 2f1b 023f afff b73e ebb5 0a3f
00000040: 41f5 c73e e00e 123e 2751 963e c5db 413f
00000050: 7a8d c13e 9517 0d3f b01a 2b3e fd35 3e3e
00000060: 8234 823f 78a8 a83e b855 493e b36f 833e
00000070: d2b6 6e3e 59c8 003f 0c37 5f3e 2ee2 f73e
00000080: 8e52 d53e 0b55 323f c0a0 2e3f 16b9 9f3e
00000090: fe2a f53e 31ad f43d d6da 513e 7c37 563e
000000a0: 2def 093f 538e 163f ccee 903e b22a 173f
000000b0: a9c1 223f 401e de3e e464 513f f174 1a3f
000000c0: ceb9 673e 56ca b23e 085d 603e 7236 233f
000000d0: 9b71 ef3e 8a40 593e 8e30 7a3f 6f7b 863e
000000e0: fb19 f53e 2279 363f 5a0c 393e 6bae d03e
000000f0: 9bfc 993e 0010 d33e 966c cf3e 4ac2 0a3f
0.30506155 0.42981398 0.15067485 0.65915173 1.060251 0.5773155 0.36607566 0.41592026
0.6012023 0.7542672 0.85862386 0.47273347 0.77825797 0.5082273 0.3593726 0.54183835
0.390543 0.14263487 0.2935879 0.75725967 0.3780325 0.5511411 0.16709399 0.18575282
1.0172274 0.3294103 0.19661605 0.25671157 0.23311928 0.50305706 0.21798342 0.4841475
0.41664547 0.69661015 0.68214035 0.31195897 0.47884363 0.11947096 0.20493636 0.20919603
0.5388058 0.5881092 0.28307188 0.5904952 0.6357675 0.43382454 0.8179457 0.6033469
0.22629473 0.34919995 0.21910489 0.6375495 0.46766362 0.21216026 0.9773034 0.26266047
0.47871384 0.71278584 0.18071118 0.4075807 0.30075535 0.41223145 0.40512532 0.5420271

model_cnn.conv_layers.4.0.weight f4 [128, 64, 3]
00000000: f900 993d 7a4b 3f3d 6e08 5c3d 20ce b4bc
00000010: 6b0d 9abd c797 953d 67c9 4cbd 2d9b 123d
00000020: 9b88 10bc 1f70 cd3c 3e16 123d 0bbf a03d
00000030: 9ad8 f43c da2f dabc 77f8 f1bc 071a 8bbd
00000040: b0b1 a0ba a9f4 263d 83ed 05ba 8ce1 9abc
00000050: 5377 37bd 7c14 c4bc d53d bebc cb06 c7bd
00000060: af53 18bd 7029 533d e929 523c 21b8 97bd
00000070: 4cb5 5bbd 4e7b de3c 0495 a4bd f6da 19bd
00000080: 6f6e 6dbd a080 12bd 0332 bbbd b613 53bd
00000090: 5d6a 41bd 46f4 e63a 1fc3 cabd 805a 83bd
000000a0: 5d35 ddbc e7e2 c7bb 5e25 333d 2aa2 ab3d
000000b0: c167 8ebb f664 7f3a 4a8a 4f3d c3ec 00bd
000000c0: 4a10 143d e207 a03c a034 7b3d 6681 c63c
000000d0: 13d1 093d b014 a3bb 59b3 83bd e7af 7d3d
000000e0: 1bba 543d 5354 22bb 3ffb 47bd 66f1 17bd
000000f0: d1e7 da3a fbb8 0f3c 4caa 2a3d 7908 8ebc
00000100: f6d5 e3bc 20e4 8ebd f3d6 4d3d 9989 c3bc
00000110: b772 adbc 5256 babb 0781 8abc a27a da3d
00000120: c3d8 233d 92e0 2dbd 5459 913d 702b 10bd
00000130: 2432 8c3d 2c8e 08bd dba5 883b f6d7 94bb
00000140: 16ce 99bb ad8d 8ebd 3941 91bd f3d5 c0bd
00000150: 34e9 89bd d9a0 353c 4fbc 21bc dcb2 94bb
00000160: 52e6 8f3d df31 e73c ab24 b83d f94d 9e3d
00000170: 4667 d53c 4284 493d 393e a73d 8e99 b03d
00000180: 4ac3 ab3c 5c1b 90bc 3b40 84bd 530e c13c
00000190: 4f20 a2bd 060b b039 d365 84bd 6364 c23c
000001a0: 4450 7bbd 5d63 aa3c 99ba 993d 9aeb 1a3d
000001b0: 3698 f3bc fb7d 93bd 9f70 063d f2da 26bd
000001c0: 903c 7bbd 9f94 ca3c b794 e33c 1cc0 8b3a
000001d0: 7a43 bc3d 2e75 d1bc d053 0dba 6496 063c
000001e0: d785 aebd 7560 d7bc 7646 19bd 449b c53d
000001f0: 7581 ee3c fbea edbc 748f 363d f458 06b9
00000200: e3b6 42bd f0d8 d13c b222 ea3c f5e1 25bc
00000210: 413a 47bd 129a 4dbd 6459 b4bc e14f 683b
00000220: 3e65 0fbd cecd c9bd e118 3cbd 549b ea3b
00000230: b960 2fbd 83a6 3fbc a151 65bc 3c00 19bd
00000240: 33a5 dcbb 9c22 b23c 44d4 9c3c 9983 b3bd
00000250: f86f b9bd 507c c23c 6e0f 733c 60af 96bc
00000260: 79c1 fabc 64c4 193d b601 a9bd 6f30 85bd
00000270: 1323 6ebd 7ff6 f83c dbad 85bc 7b43 103c
00000280: 5ad5 3d3c 70cd 9c3d a193 063d a2a0 02bd
00000290: 5440 99bb 8abe c1bd 85d9 843a ce98 9abd
000002a0: e552 073d 7e0b 0c3c 9f12 c13d 936d 8dbc
000002b0: c9c6 31bd 80c0 bd3d d708 ea3b 4d24 cc3c
000002c0: 4f89 d83d 02a7 033d dd29 43bd 5553 1abd
000002d0: 5534 ed3c 862a 28bc 8e16 94bd 8194 d43c
000002e0: aeb8 06bd 3e0f 84bd 67e6 9c3b 2f66 37bd
000002f0: 06e0 963d fb86 74bc 4798 92bc 234d c4bd
00000300: 2858 d5bc 29df 173d 422b a13b ee2c 91bc
00000310: db40 80bd 04ad 8b3d 7b0a 523a 0835 853d
00000320: ef26 873d 5e40 3fbd 54df abbc fc44 163c
00000330: 4af5 5a3d 9278 fb3c 15fd bf3d 53a0 74bd
00000340: c584 2fbd 14bf 99bd 6431 5bbd 5924 3dbd
00000350: 9c48 d0bd eff0 13bd e2ca f33c 6bba 8d3d
00000360: b723 28bd 4acf 15be babe 58bd ddcc a93d
00000370: 41b3 523d 53aa 62bd 4316 70bd 4d1b 983b
00000380: e27b 88bc 0cee 4b3d 9829 9b3d 73ab 94ba
00000390: 72cd 28bc 1b31 3f3d 66e9 cbbc f0ef ad3c
000003a0: 3e73 9abc aca3 ae3c c31b 14bd 2d46 20bd
000003b0: ad66 55bd ef1f 943d 41a3 813d f079 c0bc
000003c0: efd4 e7bd b6fe 0a3c 6328 08be 6360 883d
000003d0: 94fe 1abd 1810 a3b9 1c27 163d 1858 b83c
000003e0: 795d 783d 0774 fbbc b62e 3cbb 1276 b7bd
000003f0: 029a 6b3d a4a5 0b3d 0581 293d f629 c9bb
0.07470889 0.04670284 0.053718977 -0.022070944 -0.075220905 0.0730434 -0.04999676 0.03579252
-0.008821632 0.025077878 0.035665743 0.078489386 0.02988844 -0.026634146 -0.029537423 -0.06792074
-0.0012259986 0.04076067 -0.00051089394 -0.018906377 -0.04479153 -0.023935549 -0.023222843 -0.097180925
-0.037189182 0.05155319 0.012827375 -0.07408167 -0.053639695 0.027158406 -0.08036235 -0.037562333
-0.057966646 -0.035767198 -0.09140398 -0.05153247 -0.047220577 0.0017620407 -0.09900498 -0.06413746
-0.027002985 -0.006100047 0.043736808 0.0838054 -0.0043458645 0.00097425224 0.050668992 -0.031475794
0.036148347 0.019535009 0.061329484 0.024231624 0.033646654 -0.0049768314 -0.06430692 0.06193533
0.051935297 -0.00247695 -0.04882359 -0.03709545 0.0016701167 0.00877213 0.041666314 -0.017338024
-0.027811985 -0.06977105 0.05025382 -0.023869323 -0.021172864 -0.0056865597 -0.016907228 0.106679216
0.040001642 -0.042450495 0.07097116 -0.035197675 0.06845501 -0.03333871 0.004170162 -0.004542346
-0.004693757 -0.06960616 -0.07092518 -0.094158076 -0.06733933 0.011085712 -0.009871556 -0.0045379233
0.07026352 0.028222023 0.08991369 0.07729716 0.026050221 0.049198397 0.08166165 0.08623038
0.020967145 -0.017591171 -0.064575635 0.0235664 -0.079163186 0.0003357755 -0.06464734 0.023729509
-0.061355844 0.020799333 0.07506294 0.037822343 -0.029735666 -0.07201763 0.032822248 -0.040736146
-0.061337054 0.024729071 0.027780874 0.0010662111 0.09192558 -0.025568571 -0.0005391212 0.008214567
-0.08521622 -0.026291111 -0.037420712 0.09648755 0.029114464 -0.029042711 0.0445704 -0.00012812373
-0.047537696 0.02561614 0.028580997 -0.010124673 -0.04863954 -0.05019576 -0.022015281 0.0035448002
-0.03500866 -0.09853707 -0.045922164 0.00715963 -0.04281685 -0.011697414 -0.013996513 -0.03735374
-0.0067335605 0.021745019 0.019144185 -0.08765335 -0.090545595 0.023740917 0.014835222 -0.018394172
-0.030609833 0.03754081 -0.082522795 -0.065033786 -0.058138918 0.030390976 -0.016318252 0.008805151
0.0115865115 0.076563716 0.032855634 -0.031891473 -0.004676858 -0.094601706 0.0010135627 -0.075486764
0.03303804 0.008547662 0.0942738 -0.017264163 -0.043402467 0.09265232 0.007142167 0.024919653
0.105730645 0.032141693 -0.047647346 -0.037677128 0.028955618 -0.010264045 -0.072308645 0.025949718
-0.032890968 -0.0644822 0.0047882083 -0.044775184 0.07366948 -0.01492476 -0.017894877 -0.09585025
-0.026043013 0.037078056 0.004918487 -0.01772162 -0.0626237 0.068201095 0.0008012426 0.065042555
0.06599223 -0.046692245 -0.020980515 0.009171721 0.053456582 0.03069714 0.093744434 -0.05972321
-0.04285123 -0.075071484 -0.0535139 -0.046177242 -0.10170099 -0.036118444 0.029759828 0.06920322
-0.041049685 -0.14629856 -0.052916266 0.08291028 0.05144048 -0.055338215 -0.05861498 0.0046419264
-0.016660634 0.049787566 0.07576293 -0.00113426 -0.010302888 0.04667769 -0.024891566 0.021232575
-0.01885378 0.02131828 -0.03615929 -0.039129425 -0.052099872 0.07232653 0.06329966 -0.023495644
-0.11319911 0.008483579 -0.13296656 0.06659009 -0.03784044 -0.00031101773 0.03665839 0.022502944
0.060636017 -0.030694975 -0.0028714365 -0.08958067 0.05751992 0.034093514 0.04138281 -0.0061390353

model_cnn.conv_layers.4.0.bias f4 [128]
00000000: 9412 d837 b6c5 41b7 483c 7e38 1e04 22b6
00000010: b806 2338 2688 4537 1694 a1b6 c129 9837
00000020: 9f86 24b8 e21d 12b8 7854 2738 0f3a b938
00000030: d8bc 7637 e123 51b9 ad9a 76b7 146c bc37
00000040: a36d 1f37 5b01 42b7 4193 b938 2b35 1838
00000050: 767d 0139 df55 7cb7 7df8 e437 60ca 3838
00000060: 7386 4037 e4bc 95b6 b40d cdb6 6691 c837
00000070: 368a 7337 ab5f 8eb7 91f9 4738 efc3 a1b6
00000080: 2c97 cfb6 bb7a a7b7 581b e135 72bc 6c36
00000090: 0f6f 7c36 e24b d336 ae7a 6536 305d aa36
000000a0: 0695 71b6 c519 8137 a944 33b7 481d 0336
000000b0: 5b18 dcb7 6102 5f38 a810 7cb8 2084 ab37
000000c0: 4868 4637 e2b9 1f38 eb9b 87b8 3753 4838
000000d0: 242f 1538 07bd f837 977e 6038 87b3 a6b8
000000e0: fc2d 08b8 327b 9138 aafb 8336 654e 62b7
000000f0: 2bf1 fa37 001d a8b8 8af2 21b7 353f 2e36
00000100: a72e da37 742d b5b8 8841 2db7 aec4 5fb6
00000110: d20d bcb7 9753 8f38 8edd 91b7 3ed0 6936
00000120: ea52 57b7 5241 2d37 7515 6437 1c31 c737
00000130: 1059 6838 64ec a7b7 47cb a7b8 1ab5 0eb8
00000140: 7aa1 15b8 9c5f f0b6 14a1 80b7 3e9f 9638
00000150: c6ad bab5 c8d8 9fb7 8c75 6bb7 04fd 9336
00000160: cf41 37b6 5faa 4db7 4a5c 93b7 a05e f136
00000170: e37e b2b8 ab15 70b7 7423 62b7 609d 9a37
00000180: b8ad a737 f8eb 8138 9cdf 2db6 2042 90b6
00000190: 3afc 9737 c968 b936 9d8e dc37 f4e3 8cb8
000001a0: a8b3 c637 7f1d 78b7 9035 d2b7 8cdb d138
000001b0: 78c0 bf36 a95e f5b7 9e5c 11b7 a4ac 4d36
000001c0: 787a af37 f69c 2138 b277 3438 c68b 8837
000001d0: 5454 03b8 6022 5ab7 18b4 6136 5830 79b7
000001e0: 5f80 9638 5f4e a1b8 c331 62b7 22bd 1339
000001f0: 7dc0 79b9 71de 1137 6b81 1837 49b0 5338
2.5757858e-05 -1.154973e-05 6.061446e-05 -2.4142278e-06 3.8868486e-05 1.1773815e-05 -4.8154134e-06 1.8139255e-05
-3.9226023e-05 -3.4836943e-05 3.989457e-05 8.832302e-05 1.4706711e-05 -0.00019945159 -1.4698756e-05 2.2461674e-05
9.502665e-06 -1.1563617e-05 8.8489156e-05 3.628914e-05 0.00012349137 -1.5040364e-05 2.729543e-05 4.4057495e-05
1.1475396e-05 -4.462536e-06 -6.1110713e-06 2.3909564e-05 1.4516108e-05 -1.6972268e-05 4.7677724e-05 -4.8209836e-06
-6.1866795e-06 -1.9965102e-05 1.6771764e-06 3.527643e-06 3.761557e-06 6.297124e-06 3.4195068e-06 5.0772433e-06
-3.5998542e-06 1.5389998e-05 -1.0685218e-05 1.9537565e-06 -2.6237385e-05 5.316956e-05 -6.0096994e-05 2.0446314e-05
1.18259995e-05 3.808167e-05 -6.4663436e-05 4.7761216e-05 3.556827e-05 2.9651927e-05 5.3523658e-05 -7.9489364e-05
-3.2467753e-05 6.937086e-05 3.933402e-06 -1.3488902e-05 2.9914625e-05 -8.016266e-05 -9.652818e-06 2.5964812e-06
2.600935e-05 -8.639219e-05 -1.0326861e-05 -3.3344072e-06 -2.2417782e-05 6.834341e-05 -1.7388516e-05 3.4840918e-06
-1.2834304e-05 1.0326812e-05 1.3594855e-05 2.3745517e-05 5.5396056e-05 -2.001803e-05 -8.001044e-05 -3.4024102e-05
-3.5674755e-05 -7.1636878e-06 -1.5333797e-05 7.1822185e-05 -1.3908655e-06 -1.9055224e-05 -1.403446e-05 4.4103963e-06
-2.730743e-06 -1.225862e-05 -1.7566741e-05 7.1933755e-06 -8.511336e-05 -1.431016e-05 -1.3478904e-05 1.8431514e-05
1.9988845e-05 6.195152e-05 -2.5909167e-06 -4.2992324e-06 1.8118055e-05 5.5256282e-06 2.6292453e-05 -6.71818e-05
2.3687098e-05 -1.47888195e-05 -2.5058893e-05 0.000100067904 5.71465e-06 -2.9250356e-05 -8.664238e-06 3.064787e-06
2.0918655e-05 3.8531572e-05 4.302682e-05 1.627755e-05 -3.131137e-05 -1.3001816e-05 3.363244e-06 -1.48528125e-05
7.176468e-05 -7.691676e-05 -1.3482236e-05 0.0001408947 -0.00023818198 8.694465e-06 9.0900385e-06 5.04705e-05

model_cnn.conv_layers.4.1.weight f4 [128]
00000000: bb68 8b3f 815f 8b3f 0949 883f f21f 863f
00000010: dca5 8b3f 07ee 8c3f 86aa 8e3f 94e9 843f
00000020: 27f3 893f 5b71 873f 39a8 8d3f 710e 8a3f
00000030: 7227 8a3f 1c33 893f 5a8c 8a3f 0e53 8a3f
00000040: 5bcd 8b3f eed3 8e3f 9432 893f 1556 863f
00000050: 2cd5 843f 4b42 8c3f 8b55 8a3f 616d 8b3f
00000060: 8c8f 893f 0682 873f 6133 943f 1712 893f
00000070: a9c2 893f cb3d 873f bc06 8c3f 5ef5 8b3f
00000080: 1049 8b3f f8d7 8b3f a784 853f 7d62 8b3f
00000090: 2000 8d3f 46b7 8b3f d25f 893f c47d 8d3f
000000a0: d368 8b3f 28ef 883f c3d7 873f 2fd1 883f
000000b0: 9ded 893f 449b 8b3f b3f9 8c3f 3f5d 8b3f
000000c0: 4485 8b3f 390e 8a3f de32 893f c613 843f
000000d0: d66e 883f f4e9 853f a580 8b3f d9c0 883f
000000e0: 9880 8b3f 9ef8 8b3f 963e 863f 2b0b 8c3f
000000f0: 82bf 873f c46a 8c3f edff 893f 5bf4 8c3f
00000100: 5266 8c3f 3f22 873f 1347 883f 1871 8e3f
00000110: be24 8b3f c45e 8d3f 6ca1 8e3f f241 873f
00000120: ed07 883f 6ad9 8f3f e168 8c3f 9c1f 8c3f
00000130: 2129 883f 62c3 863f f450 8a3f a808 8b3f
00000140: cbd3 8b3f c845 8b3f 92cc 893f 84f1 8e3f
00000150: 2137 8c3f 6ffc 8c3f a0cf 903f dc83 8c3f
00000160: c67d 8a3f e5ce 8d3f 0c35 873f 5346 8b3f
00000170: 6086 8b3f 03d4 893f 07fe 893f 5c40 8b3f
00000180: 5488 8d3f 5ff1 8e3f e662 8c3f 4254 8c3f
00000190: c4e9 8d3f ce5f 8b3f ee5c 893f 903b 8c3f
000001a0: 507d 883f f03a 8d3f 2f4d 8c3f 5815 8c3f
000001b0: af29 8d3f 773b 8a3f feb2 8b3f f1ff 883f
000001c0: e16d 8b3f 1e88 843f 0637 873f adac 8a3f
000001d0: 14a9 883f 5abb 8d3f d667 8b3f e4c6 883f
000001e0: 4290 843f a8e1 863f d04f 883f 837c 873f
000001f0: 796d 8a3f eddd 893f 65c4 8a3f 6202 8a3f
1.0891336 1.088852 1.0647289 1.0478499 1.0909991 1.101014 1.114579 1.0383782
1.0777329 1.0581468 1.1066962 1.0785657 1.0793288 1.0718722 1.0824082 1.0806596
1.0922045 1.1158426 1.071856 1.049502 1.0377555 1.0957731 1.0807356 1.0892755
1.0746932 1.0586555 1.157818 1.0708646 1.076253 1.0565733 1.0939555 1.0934255
1.0881672 1.0925283 1.0431107 1.0889431 1.1015663 1.0915306 1.0732367 1.1054006
1.0891365 1.0697985 1.061272 1.0688838 1.0775639 1.0906758 1.1013702 1.0887831
1.0900044 1.078559 1.0718648 1.0318534 1.0658824 1.0462022 1.0898634 1.0683852
1.0898619 1.0935247 1.048785 1.0940908 1.0605319 1.0970082 1.0781227 1.1012071
1.0968726 1.0557326 1.064669 1.1128263 1.0870588 1.1044545 1.1143012 1.0567
1.0627419 1.1238225 1.0969507 1.0947146 1.0637552 1.0528376 1.0805955 1.0862017
1.0924009 1.088067 1.0765555 1.1167455 1.0954324 1.1014537 1.1313362 1.097774
1.0819633 1.1078764 1.0563064 1.0880836 1.0900383 1.0767826 1.0780648 1.0879016
1.1057229 1.1167411 1.0967681 1.0963213 1.1086965 1.0888612 1.0731485 1.0955677
1.0663242 1.1033611 1.0961055 1.0944014 1.1028346 1.0799397 1.0913999 1.0703107
1.0892907 1.035404 1.0563667 1.0833946 1.0676599 1.10728 1.0891063 1.0685697
1.0356524 1.0537615 1.0649357 1.0584873 1.0814658 1.0770851 1.0841185 1.0781977

model_cnn.conv_layers.4.1.bias f4 [128]
00000000: 3f2f a03d f0ed b13d fdf8 953d c3f0 0f3d
00000010: 24d9 b23d 1921 903d e6c2 b53d 059a 2e3d
00000020: 8302 8d3d d323 573d 1b44 a03d 4baa 7e3d
00000030: 0dbd 6f3d db79 a13d dc95 813d 41a0 783d
00000040: 19fa 923d 9d80 a63d 4538 803d 70e3 203d
00000050: 9279 fe3c 0a28 a53d 5e5d 893d bc33 883d
00000060: 4c12 7b3d 1ce6 fc3c c094 023e 9744 5a3d
00000070: 4c04 8c3d 8140 4f3d 0723 8b3d 2d6d a53d
00000080: f7bc 963d b981 933d 15f8 423d ee96 a13d
00000090: 04a1 893d 8a29 983d b69d 993d 02c7 913d
000000a0: e3ee 983d 820a 833d 56db 513d dfb8 573d
000000b0: 90d3 7f3d 5d25 a23d 39d7 8f3d aad8 8e3d
000000c0: 0d9a 983d f403 643d e34b 7d3d bdb8 373d
000000d0: 5c71 833d c1a5 5a3d 139f 923d ced3 ce3d
000000e0: ab84 8b3d 4b60 9f3d 195b 0d3d 435b 5e3d
000000f0: 0cb0 183d 9d27 963d 6d6a 363d f140 963d
00000100: bf5f 9f3d 8f56 363d 0640 713d d41b a53d
00000110: f55d 9c3d 4fa7 b43d ba47 943d 833d 663d
00000120: f878 213d c79a 823d f9f8 933d 9294 7c3d
00000130: f3ab 103d e56f 723d 131a b03d 24f3 963d
00000140: 9a40 9a3d f03e 933d 3bad 9c3d c63c af3d
00000150: 9e67 8d3d 1368 993d 4202 813d cee0 963d
00000160: c090 6e3d 2ea4 a63d 6549 413d 1c50 b03d
00000170: 2545 a33d d394 873d 5a62 ab3d e03a 5f3d
00000180: 4f1f 823d 2952 9e3d 001a a23d 7eb5 8d3d
00000190: beee c73d f286 9c3d 97cf 583d 627c 9e3d
000001a0: 407d 3b3d d43d 8e3d e18c b63d adb5 923d
000001b0: 3a5d a03d 168f 863d 4254 bc3d f945 883d
000001c0: 6baa 8b3d 1fde fe3c f9ea 263d 31da 8c3d
000001d0: 341f 4c3d 5e88 853d b16e 853d 2d5b f63c
000001e0: c843 103d c80b 083d 433b 453d e09d 2a3d
000001f0: 5a20 7e3d fd85 a03d 34da 933d 8b82 963d
0.078215115 0.08687961 0.07322881 0.035141718 0.087328225 0.07037563 0.088750646 0.042627353
0.06885245 0.0525244 0.0782549 0.062174123 0.058529902 0.0788457 0.063274115 0.060699705
0.071766086 0.0813 0.062607326 0.0392794 0.031063829 0.080642775 0.067072615 0.066504925
0.061296746 0.030871443 0.12752056 0.05328807 0.06836757 0.050598625 0.0679379 0.08077464
0.07360261 0.07202477 0.04759987 0.07890116 0.067201644 0.07429798 0.07500784 0.07118036
0.07467439 0.063984886 0.051234566 0.05266654 0.06245762 0.07917283 0.07023472 0.06974919
0.07451258 0.055667832 0.06183995 0.044853915 0.06418106 0.05338073 0.07159247 0.10098992
0.06812414 0.07782038 0.034510706 0.054286253 0.037277266 0.073317744 0.04453509 0.07336605
0.07781934 0.044516142 0.058898948 0.080619484 0.076351084 0.08820974 0.07240243 0.056211006
0.039422005 0.06377178 0.07225222 0.061665125 0.035320234 0.059188742 0.08598723 0.07370594
0.07531853 0.07189739 0.076502286 0.085565135 0.06904529 0.07490554 0.06299259 0.07367097
0.058243513 0.081367835 0.047189135 0.0860903 0.07972173 0.06620183 0.083683684 0.054499507
0.06353628 0.077305146 0.07915115 0.069193825 0.09762333 0.07642926 0.052932348 0.07738568
0.045773745 0.069453865 0.08913589 0.07163558 0.078302816 0.0657026 0.091957584 0.06653971
0.06819614 0.031111775 0.04075143 0.06877554 0.049834445 0.065201506 0.06515253 0.030072773
0.03522089 0.03321436 0.04815222 0.041654468 0.06204257 0.07838056 0.07219353 0.07349118
