checkpoint/transfer_cnn_features_1d_spinel5v_to_nmc_1212/target_boost/best_model.pth (torch, 110818 bytes, 10 tensors)

model_cnn.conv1.weight f4 [32, 21, 3]
00000000: 825d ffbc 2ae7 5cbb a5c5 edbc 50bc 213e
00000010: e287 023e 6cef c83d d141 32bd 8768 1d3e
00000020: b2ae b43d df01 cc3d 4ebd f8bc cbc1 413d
00000030: 0ba9 2f3e cd72 0c3e b5e0 1d3e 1315 23be
00000040: e7e7 fdbc 8120 61be 73ab cebc a7e2 d4bd
00000050: 5f9e 87bd d8f4 38bd f711 543d 0b3c 0b3e
00000060: 393f 543d 5653 2d3d dbc0 e43d ec2c 0bbe
00000070: 7485 adbc b875 06be 23ea b9bd 3924 8ebd
00000080: c8dc 58be 6b5d 353d c1d4 643d fcf7 e53d
00000090: 2822 9b3a 50d4 be3d 7f45 333e dfba 353c
000000a0: a09d 3e3e 546d 57bc 946a 653d a92d 723d
000000b0: b399 413d 16b9 213e b8fa 183c 9757 9f3d
000000c0: fd70 a5bd 62a0 2ebe 61d4 d5bd b513 97bd
000000d0: a947 813d c5f9 e43b f45f 0cbc 23bc 8dbd
000000e0: 5642 c13d 744e 7dbd 0887 ba3b 9c38 5d3e
000000f0: b286 9d3d db4b 9dbd 3a35 cabd fa5f bb3d
00000100: 9f72 9abb fd15 1739 4acd d1bd eae2 87bd
00000110: 0958 a5bb ce9b 9d3d 4a2f 123d d58e be3d
00000120: a118 d9bd 06bc b2bc 2345 0ebe d429 563d
00000130: 9cbb d239 6957 ce3d 082e f7bc 38f6 2a3e
00000140: e901 353e fe23 103e d29d 5d3d 8609 063e
00000150: 95a7 4a3e 4e6c 543e 767f 003e 9a62 163c
00000160: 2372 d93d 9be7 193e af5d c0bd 90d5 dfbd
00000170: d653 15be 7828 38bd 823f a23d 1db4 4e3b
00000180: c6f4 d03d ed14 ca3d 118b 233e 4610 f2bd
00000190: 8532 d1bd c775 44bd f0c5 08be c6ea 743c
000001a0: b6df 0b3d b3d0 0ebe f4a7 f9bd d5cb 0dbe
000001b0: f2f2 14bc 77ac 633d 8969 17be 80cb 13be
000001c0: cc66 57bd f56b 38be 3ff0 0c3e 313e 5a3d
000001d0: 03d6 81bc c1b1 1ebd 1c4f 103e c25e aabd
000001e0: cc58 12be 90c3 d23d 17f6 13bd f606 0abd
000001f0: 1f36 69bd 1942 693c 22b3 1bbc 426b 773c
00000200: 5f20 9c3d 48fb e2bd c61a 4dbc f00a 90bd
00000210: cfc0 803c bac3 01be 9409 54bd 9e3f 27bd
00000220: 71bd 26be b821 21be 9f40 0fbc a8b4 cfbd
00000230: aaeb cd3b 552c 70be 152a 32be 09f6 63be
00000240: 1f96 c4bd a4c5 0dbe 31cb 27be 190e 5abd
00000250: 7772 1dbe 061d 00bd 2321 f7bc c6e2 12be
00000260: 0577 adbc 2b50 993d 45de fabc 23be 1c3e
00000270: 5f8b 0d3e f343 723d ec69 15bc 7dba 1dbd
00000280: 1568 7f3d 0411 833d b15c 07be 8323 cebd
00000290: 1b44 383d 650c 0d3d 00aa 5b3d 39f6 a0bd
000002a0: 8145 9e3d 4674 10be bb2f 5abd 4469 d7bc
000002b0: 87fb b1bb 0066 e9bd 5fcb c53a 78a9 d53b
000002c0: 851e 56be ae59 6b3d 4efd 87bb 5005 393e
000002d0: c092 7b3c 1d3f 623c 74a8 89bb 1fe0 8abd
000002e0: 19ed 253c c2e5 2fbd 3177 86bd 22b2 7f3d
000002f0: abf1 1c3b 013a 833c f5b5 013d c960 f0bc
00000300: 98ef d5bd 8e34 ddbd 32c5 02be a2e3 30be
00000310: b918 593d 2347 24be 732b 893d 4649 e6bd
00000320: 72c9 6fbd 6fb2 5d3d b7c2 903b 8f1d 9abd
00000330: 90d6 69bc 011b 553d f840 613e c5d0 23bd
00000340: fd75 f43d 8ffe f7bc 5f99 1c3d 82df e83d
00000350: 7569 1b3d 6dd8 293d 63ad 0f3e ae1e b33d
00000360: 385d 0abd fe5c 503c 39f6 743d 6125 613b
00000370: 1082 92bd ea25 02bc 9eca 0dbd 9c4d e0bd
00000380: 8305 b3bd b33c 8b3c 1fa8 d7bc 3862 b53c
00000390: eee6 eebd b2ae 763d 6a59 07be c0cc bfbc
000003a0: e8c2 d0bd 2bd8 c2bd 6233 433c 076b c2bd
000003b0: 9344 24be 363a 88bd c573 993d 7b66 523d
000003c0: df3e ce3c 9cf6 1fbe 6c69 87bc 3b3c 103e
000003d0: 5eba e8bd b20b cabc 8e26 0a3e dccc c5bd
000003e0: 76a1 a5bd 7f04 a23d 112b d9bc ef9f a1bc
000003f0: 72f0 64bd 68f2 39bd e9b4 183e 6157 b63d
-0.031172518 -0.003370712 -0.029024908 0.15794492 0.12747148 0.09811291 -0.0435198 0.15371905
0.08822383 0.099612944 -0.030363705 0.047303956 0.17154329 0.13715668 0.1541775 -0.15926008
-0.030994369 -0.21985056 -0.025228238 -0.10394793 -0.06622004 -0.045155376 0.051774945 0.13597123
0.051818106 0.042315803 0.11169597 -0.13591355 -0.0211818 -0.13130844 -0.09077861 -0.06940503
-0.21177971 0.044278543 0.05586696 0.1122894 0.0011835741 0.09317839 0.1750698 0.011091917
0.18614817 -0.013148624 0.056009844 0.059125576 0.04726572 0.15793261 0.00933712 0.07780378
-0.080781914 -0.17053369 -0.10440899 -0.07376806 0.06312496 0.0069877827 -0.008567799 -0.0692065
0.09436481 -0.061842397 0.0056923665 0.21603626 0.07691707 -0.07680484 -0.098734334 0.091491655
-0.004713371 0.00014408673 -0.10244234 -0.06635077 -0.005045895 0.07695733 0.03568963 0.09304587
-0.10600401 -0.021818172 -0.13893561 0.052285984 0.000401941 0.10075266 -0.030173317 0.16695487
0.1767651 0.1407623 0.054105587 0.1308957 0.1979049 0.2074444 0.12548622 0.009178782
0.10617473 0.15029757 -0.09392869 -0.10929406 -0.14582762 -0.04496047 0.079222694 0.0031540461
0.10202937 0.098672725 0.15971018 -0.1181951 -0.10214714 -0.047963884 -0.13356757 0.0149485525
0.034148894 -0.139468 -0.12190238 -0.13847287 -0.009091126 0.055584397 -0.14786352 -0.14433098
-0.05258827 -0.18009932 0.13763522 0.053281967 -0.015849119 -0.038743738 0.14092678 -0.08318855
-0.14291686 0.10291207 -0.03612336 -0.033698045 -0.05693638 0.01423695 -0.009503158 0.015101256
0.07623362 -0.11083084 -0.01251859 -0.07033336 0.015716938 -0.1267232 -0.051766947 -0.040832154
-0.16283204 -0.15735519 -0.008743434 -0.10141879 0.006284197 -0.23454411 -0.17398866 -0.22261824
-0.09598946 -0.13844925 -0.16386105 -0.0532361 -0.15375696 -0.03127768 -0.030167168 -0.1434432
-0.021174917 0.07485994 -0.030623564 0.15306906 0.13822697 0.059146833 -0.009119492 -0.038507927
0.06235512 0.0639973 -0.13218953 -0.10065367 0.044986825 0.03443565 0.05362892 -0.07859463
0.077281006 -0.14106855 -0.053268176 -0.026295312 -0.0054315957 -0.11396408 0.0015090517 0.0065204464
-0.2091008 0.057458572 -0.0041500693 0.18068433 0.015354812 0.013808993 -0.0042009894 -0.06781029
0.010127329 -0.042943723 -0.06565703 0.06242574 0.0023947756 0.01601887 0.03166767 -0.029343026
-0.104460895 -0.1080104 -0.12770537 -0.17274335 0.053002093 -0.16042762 0.066977404 -0.112444445
-0.058541723 0.054125246 0.004417743 -0.07525169 -0.014272347 0.052027706 0.2199744 -0.03999402
0.11936567 -0.03027275 0.038232204 0.11370756 0.03794237 0.041466165 0.14030986 0.08746086
-0.033780307 0.012717484 0.05980513 0.0034354555 -0.07153714 -0.00794361 -0.03461706 -0.10952303
-0.08741286 0.016996717 -0.026325284 0.02214156 -0.1166514 0.060225196 -0.13217703 -0.023413062
-0.101934254 -0.09513887 0.011914106 -0.0949307 -0.16041784 -0.06651728 0.074927844 0.051367264
0.025176464 -0.15621418 -0.016529761 0.14085476 -0.11363672 -0.02466378 0.1349127 -0.096582144
-0.08087437 0.07911014 -0.026509793 -0.019729583 -0.05589337 -0.045397192 0.14912762 0.08903385

model_cnn.conv1.bias f4 [32]
00000000: 999d ec3d daed f13d 055f cdbd ea96 243e
00000010: 8f89 dd3c d918 173e 6c98 a83c 2b71 a03d
00000020: d760 3c3d 86f5 503d 4263 e13d 5320 3d3e
00000030: 74c7 ef3d 7d72 273e 4f32 52bd b91e 4c3e
00000040: dfbf 95bd d1e6 0bbd 4a97 c43d 4abe 4ebc
00000050: 568d de3d a199 e03b 1b07 9f3d ebb5 063e
00000060: 1ac7 4b3d 4034 1b3e c503 263e 62e2 2a3d
00000070: dce9 08bd 16b9 1a3e 9c15 b23d 6d9d 933d
0.11553497 0.11812945 -0.10027889 0.16073194 0.027043132 0.14755572 0.020580493 0.07834085
0.04599079 0.0510154 0.1100526 0.18469362 0.117079645 0.16352268 -0.05131751 0.19933595
-0.07311987 -0.03415567 0.095991686 -0.012618611 0.108668014 0.0068542515 0.07765027 0.13155334
0.049750425 0.1515665 0.16212375 0.0417198 -0.03342615 0.15109667 0.08695528 0.07207761

model_cnn.conv2.weight f4 [64, 32, 3]
00000000: 2c36 453d 561d a0bd f95f 17bd 86c9 e2bd
00000010: 64a3 2a3c 20c3 46bd 381f d8bc 4328 8c3c
00000020: 2430 f23c ee2d 733b 5a20 a23d d429 793d
00000030: bc75 a73d 66b8 76bd b721 c5bd 77b0 f23c
00000040: 4bd8 2a3d 468a 9a3c 3c39 00be 8543 b3bd
00000050: 0d99 3b3d 1b2e bdbd 61d1 e3bd 4023 c5bc
00000060: 1f0c 823d 0dbb 6abd 9d1c 41bd 9d6c c1bd
00000070: 44a3 e6bd e76f 6ebd cf19 b9bd 1b59 16bd
00000080: 6b2c 1ebe 7308 dcbd 23a7 30be e4ad 38be
00000090: 1b68 19bb a7fa 37bd 66ac fcbd c7f1 fabc
000000a0: e277 7f3b 532c 463d 4bc3 503d a5bc dcbd
000000b0: 735d cd3c 0810 14be 365f db3c 922f 933c
000000c0: 1867 c4bd 0605 26ba 5578 fa3c 348c 42bd
000000d0: 6317 13be 4e27 473d 566f d2bd f025 acbc
000000e0: 9f6f 313c 7333 12be 3035 a5bd 0aec c7bd
000000f0: 28ed b83d e200 4ebd 6f0f bfbd ab40 97bd
00000100: b983 0e3c 024e f33d 2ad3 0fbe e276 fabd
00000110: f32c 1cbe b7ed cc3c f554 9bbc b272 fbbc
00000120: bbf8 8c3d 977d 9c3c 2568 673d 91d8 94bd
00000130: d548 0dbd 8d07 d9bd 53bc 27bd 3bbd d5bb
00000140: 8b2d 7fbd 82c6 6bbd 76cb 28bd 09f3 743d
00000150: d86b d73b add6 a2bd 924b 1bbd 1c1c f6bd
00000160: c435 dbbb fc82 08be 2298 b7bd fea1 0a3d
00000170: 873d e2bd 35e7 40bd c02a 033d 3a90 25bd
00000180: 5963 cebc 58f5 be3d b419 1ebb 686a d83d
00000190: 9198 8dbc 3c03 35bd f41e ab3d f236 8ebd
000001a0: 2245 a6bd 1d13 463d 6070 96bd bd81 e83c
000001b0: cf70 dfbd ca4b 733d 7d01 bbbc dd3b 293e
000001c0: a5eb 84bc f567 db3d 2e70 313d e959 cb3d
000001d0: 7c23 a03c 6058 c53d 9ad0 be3d ad14 373d
000001e0: f5d8 a9bd b413 583d ba98 00be 5fc4 7e3d
000001f0: 0e50 6e3d 7de8 753d e02e eb3d c1fa 2c3e
00000200: 372c f13c a3d1 f73d a755 b03d 4232 493d
00000210: a629 3f3d 5a0d 17bb 51d8 b63d 4856 1c3d
00000220: cdc8 bd3d 678e 003e b1e2 2c3d 2236 413c
00000230: f453 9cbb bc10 45bd e9ee 36bd 4e41 8d3d
00000240: b362 b33a fe5d 8f3c 30ba cebd 4a96 a33d
00000250: f2a2 553c 1640 723d e8bc 9d3c 8953 c93d
00000260: ee72 043e a948 47bd 6de8 193d 121c dcbb
00000270: 9629 ba3d 0830 73bc 4727 62bd 4ce1 b0bd
00000280: 0829 01bd 3d2f 7a3c c616 613d b8b2 e83d
00000290: 75b8 cc3d f6c6 733d 4941 923d 6233 91ba
000002a0: fd78 003d c1ad 963d 1019 e2bb a9bb 273d
000002b0: 19e7 7bbd 81ee a33d 1c2f c73d dce3 d63d
000002c0: 5240 5a3d 8639 67bd 2267 5bbc 1233 81bd
000002d0: b3df ed3b 8a25 1a3e 422c 7d3d 752c c4bc
000002e0: ade2 043d ebd6 c33d 712f 23bd aae8 313d
000002f0: 7e70 e03c 08f1 cbbd dcdf 15bd 83a3 883c
00000300: bdc3 2b3d b0e1 093e 613f e53d 0059 02be
00000310: f6fa 32bd ce80 f7bd 4f53 a4bd bfb9 b7bd
00000320: 8b96 a1bb ffc6 2bbd 45e2 cdbd 1f20 b5bd
00000330: 21c3 db3d a4f2 ec3d 2fd6 41bb 7728 6a3d
00000340: 104a 3d3e 3492 9b3d 9b99 033e a6ee c23d
00000350: d380 a13d ccf6 8f3d bedd e73d 8bdf 8b3d
00000360: 617d 913d ad10 ac3b 476b 6e3d e2f3 f3bd
00000370: 8509 ce3c b878 463b 4a52 793c 6082 073e
00000380: 6a17 df3d 2a26 1abd 6799 9abd f3ed b73c
00000390: ad6e 87bd afcd 00be 9148 1bbe 7d8c 12bd
000003a0: f0f4 bf3c 7398 9c3d 8074 833d 4b65 64bd
000003b0: e87e a23d 2a1a c2bd 13d5 07be 6e8c 00be
000003c0: d846 9bbc 8886 debd 70b5 983b 281d 35bd
000003d0: 2884 2f3c 7160 99bd 1f32 743e d167 393e
000003e0: 6f22 7f3e 82a5 96bd 86a3 a13c d421 c63d
000003f0: 16ae 023d 8e77 1abd b3f0 16bd 0234 aabd
0.048147365 -0.078180954 -0.03695676 -0.11073594 0.010414932 -0.04852593 -0.026382074 0.017109042
0.02956397 0.0037106234 0.07916327 0.060830906 0.08176753 -0.06023445 -0.09625571 0.02962516
0.04171018 0.018864762 -0.12521833 -0.08753113 0.045800257 -0.092373095 -0.1112392 -0.02406466
0.06349968 -0.05730729 -0.04714643 -0.094445445 -0.11261609 -0.058212187 -0.09038126 -0.03670607
-0.15446632 -0.10743799 -0.17251258 -0.18035084 -0.0023408 -0.044916775 -0.1233757 -0.030632867
0.0038981368 0.048382115 0.050967496 -0.107781686 0.025068974 -0.1445924 0.026778799 0.01796702
-0.09589976 -0.0006333146 0.030574957 -0.04749699 -0.1436439 0.04862147 -0.10275142 -0.021014184
0.010829835 -0.14277439 -0.08066785 -0.09761818 0.09029609 -0.05029381 -0.093291156 -0.07385381
0.008698397 0.11880113 -0.14045396 -0.12229706 -0.15251522 0.025015695 -0.01896141 -0.03069434
0.06883379 0.019102855 0.056495804 -0.07267869 -0.034493286 -0.10597143 -0.040951084 -0.006522802
-0.062299293 -0.05756236 -0.04120966 0.05980209 0.0065741353 -0.079511024 -0.037913866 -0.1201708
-0.006689759 -0.13331217 -0.08964564 0.033845894 -0.11046892 -0.047095496 0.03202319 -0.04042075
-0.025193857 0.09324139 -0.0024124207 0.105671704 -0.017284663 -0.044192538 0.08355513 -0.06944074
-0.08118655 0.04835807 -0.073456526 0.028382177 -0.109101884 0.05939845 -0.022827858 0.16526742
-0.016225645 0.107131876 0.043319874 0.099292584 0.01954817 0.09635997 0.09317131 0.044697452
-0.082933344 0.052753165 -0.1255826 0.062198993 0.058181815 0.06003617 0.1148355 0.1689253
0.029440029 0.12100532 0.08610087 0.049120195 0.04667058 -0.002304873 0.08927978 0.03816822
0.09266815 0.12554322 0.042208377 0.011792691 -0.00477075 -0.048111662 -0.044661436 0.068972215
0.0013686031 0.017500874 -0.10094106 0.0798765 0.0130393375 0.05914315 0.019255117 0.09830386
0.12934467 -0.04865328 0.037575174 -0.0067172134 0.09089963 -0.0148429945 -0.05521324 -0.08636722
-0.03153327 0.015270052 0.05495336 0.11362213 0.0999612 0.059515916 0.071413584 -0.0011077935
0.031365383 0.0735736 -0.0068999603 0.04095045 -0.06149969 0.080044754 0.09725782 0.104926795
0.053283997 -0.056451343 -0.013391288 -0.06308569 0.007259333 0.15053383 0.061809786 -0.02394698
0.032442737 0.09562477 -0.039840166 0.043434776 0.02739739 -0.099580824 -0.036590442 0.016679531
0.041934717 0.13464999 0.11193729 -0.12729263 -0.043696366 -0.120851144 -0.08023702 -0.08970975
-0.004931276 -0.041937824 -0.10052923 -0.08844017 0.10730577 0.115697175 -0.0029577126 0.057167497
0.18485284 0.075962454 0.12851565 0.09518175 0.078858994 0.07029495 0.11321591 0.06829747
0.07103992 0.0052510113 0.058207776 -0.11911751 0.025151024 0.0030284356 0.015217373 0.13233328
0.10893138 -0.037634052 -0.075487904 0.02245233 -0.066129066 -0.12578462 -0.151644 -0.03577851
0.023432225 0.07646265 0.06418705 -0.055760663 0.07934362 -0.09477647 -0.13264875 -0.1255357
-0.01895468 -0.108655035 0.004660301 -0.04421726 0.010712661 -0.07489098 0.23847245 0.18106009
0.24915479 -0.07355787 0.019731294 0.09674421 0.031904303 -0.037711672 -0.036850642 -0.08310701

model_cnn.conv2.bias f4 [64]
00000000: 1178 fcbd 85ef 223e 3758 293e f866 87bd
00000010: 35a5 dd3d b0cb 3b3d 46af 2d3c 85a3 c5bd
00000020: 49cb db3d 68e2 0cbd 3791 f3bd c1e9 efbd
00000030: 140c e03d 61c3 bb3c 0b34 873d dfa6 44bd
00000040: 4d9c d53d 0f85 6cbc ac59 c63c 2d42 683c
00000050: 4106 57bc ce5e c83d 5002 d7bd fa14 843c
00000060: 3403 1b3e cf5e acbc 9c1b ae3d 611a c53a
00000070: d453 80bd 9aa2 e2bd fe55 71bd 612e d0bd
00000080: a213 a13c c0f2 b6bd f488 fcbd f2a4 453d
00000090: cefa e23c 38ec ccbd d258 713d 4c90 783c
000000a0: 61ee 363d 3b24 03be ee6a 24be abd0 babd
000000b0: 2ac6 2f3d bb5b 1bbd ca02 c4bc afa8 e53d
000000c0: 71a7 ab3c c395 8ebd 49b1 653c bb1c 623d
000000d0: 0047 a3bd 2b31 e83c 4c45 39bd 38b0 0b3e
000000e0: 1c7b 77bd 93d7 133e bac9 90bd a959 773d
000000f0: d4e7 a4bd c171 6a3d 2d75 47bc 653c 71bd
-0.12327588 0.15911682 0.16537558 -0.066114366 0.10822526 0.04584855 0.0106008705 -0.096503295
0.10732133 -0.034395605 -0.11892932 -0.11714507 0.10939804 0.022920312 0.06601723 -0.048010703
0.10430203 -0.0144360205 0.02421268 0.014175934 -0.01312405 0.097837076 -0.10498488 0.016123284
0.1513794 -0.021041302 0.0850136 0.0015037769 -0.06265989 -0.1106617 -0.0589199 -0.10165096
0.019662682 -0.0893302 -0.12330809 0.048253007 0.027707484 -0.10005993 0.058922596 0.015171122
0.04466093 -0.1280679 -0.16056415 -0.091218315 0.042913593 -0.037929278 -0.023927111 0.112138145
0.020953866 -0.069621585 0.014019319 0.05520318 -0.079725266 0.028343758 -0.045232102 0.13641441
-0.06042014 0.14437704 -0.07069726 0.06038824 -0.0805203 0.05723739 -0.012173933 -0.058895487

model_cnn.fc1.weight f4 [256, 64]
00000000: 8f39 b23c 5a2d e73d 1408 09bd 71d8 05bd
00000010: 1037 9a3c cb1c 24bd fc01 0abe ca94 ab3d
00000020: 4ca2 8c3c 79fb 3cbc 50fb b83d c546 743d
00000030: 01d1 34bd 7740 3f3d 260d 113e 118b da3d
00000040: 3b9e ec3c 9ba3 eb3c 8a4e ae3d 2184 c1bd
00000050: 5ec6 d53c fdab d33d 0c7b b53d 0530 4d3e
00000060: 664a 8f3c 1e8f 1fbe e6eb 2d3e 6a93 80bc
00000070: 45e3 dcbd 8210 a5bd 003a 3c3d 3128 c0ba
00000080: f356 3ebd 6d0b acbc 5227 e2bd 4ac3 c9bc
00000090: fc16 3f3d e696 afbc bd64 763b 6c59 66bd
000000a0: 4cec f53d d3f0 cfbd 9a9f 21be 7884 0a3e
000000b0: b120 da3d 8e27 c9bd bebd 3e3d fe55 a53d
000000c0: e1ac c03c 35d1 483b 66f5 023d a782 7d3d
000000d0: 425f b3bd aa76 d93d 852f 29be 4c04 f83d
000000e0: e0f4 0c3d 8231 0d3e eb63 c73d 4fdd 8e3d
000000f0: 32ec ed3d c222 22bd 66df e03d 5346 eabd
00000100: 03af 01be 5b39 663d 4f03 183d 72c9 ea3c
00000110: 648e 85bc 2aa3 a03d 4604 303d 1f07 87bd
00000120: b40c 6fbd 1e82 58bd 80e7 b5bc 47a9 ecbc
00000130: 2bc1 d1bc 1228 ad3d 7124 993d e8d2 443d
00000140: edd7 f2bb 1120 ad3d 7bf8 253c 3c83 f13d
00000150: 5c2b 073c 1f9f e13c df6f f8bd 3a51 2abc
00000160: 3783 473d a622 08be 71ea 743d b0fd 8b3d
00000170: 174f b53d a560 aabd 4151 0a3d 5b6b ccbd
00000180: 218c 9abd 8dcd 8c3d dde6 92bd d215 583d
00000190: fc73 42bb 5ca5 f1bd ac4a 783c 9d72 b53d
000001a0: f5da 09bd 37bf a33d 8253 4e3c 9571 03be
000001b0: 8970 ab3c 8c24 cabc 817b c9bd ca8a e33d
000001c0: 32f8 c43d 74e7 fcbd 770c 2c3d 51c2 afbd
000001d0: b56d f3bc f7c9 693d 90fd 513d 6d7e e33d
000001e0: cb6e ccbd b51d 8a3d 8e03 d33c 2b6c 4f3c
000001f0: b9f3 c8bb 027c cf3c 2be0 da3c ab00 e03d
00000200: e75b 01be 38ce 2cbb f20b f7bd c589 2b3e
00000210: 653d a9bd f7a5 5f3d 40ca 9fbc 54d3 0fbe
00000220: cded 25bd c1fb 243e 033b babc 2101 ab3d
00000230: 466f 233d 5b4c b63c 0732 69bd 8d0f 1e3e
00000240: 7a5b 093e 8fb9 b9bd e46a b8bd 01ea d0bd
00000250: 9bd8 18be 4059 943d 43a0 95bd b7e1 ba3d
00000260: 92bc 9c3d c6b6 893d e725 993d a6e1 243e
00000270: 347a 5ebd 8abe 653d 6fd9 31bc 337f be3d
00000280: ec3b 843b 841a da3b 97cb 29be aff0 bcbd
00000290: b1f9 abbd 92d3 9a3c 3720 013d 42d3 d93d
000002a0: b8f4 2e3e a263 953d d1b5 953b c7e8 b9bd
000002b0: 2e4d 3abd 3258 453e daaa 09bd fb29 b2bd
000002c0: 8001 c03c cdfd d2bc 25c1 433d 8b9b 043d
000002d0: 64eb 9d3c 061a b43d fde0 643b 325b aa3d
000002e0: 57c0 20bd 4a5e 023e 7ab2 903d 5852 ffbd
000002f0: 8ad4 16bd c1d7 6ebd 0020 c43b 6115 3d3d
00000300: baa2 c4bd 7583 12be 1ca9 683d d542 adbc
00000310: 8001 b8bd 3568 953d 1daf 04be ccf3 e93d
00000320: f669 b83d c0bf 6abd 43bc 1dbd 7139 7a3c
00000330: e553 c13d b3ff 76bd 9f9c 78bd 9c18 873d
00000340: ca7d 133e 0469 77bd 562d 0cbe fbdd d9bd
00000350: 3c28 d53d 7772 cdbd f350 82bd 53c2 ac3d
00000360: 2775 76bd b725 b63d 1341 ffbd 258e 7fbd
00000370: e5c2 953d ed6c 4bbd af92 cc3d 0bba a43d
00000380: 6fa4 4f3d 4d7a afbd 8eb8 023e 826f 6bbd
00000390: 0e2b 8cbd 8368 413c 1e33 d6bd 70b9 5fbc
000003a0: 63a2 0fbb 7e28 65bd 7c82 87bd f733 ca3d
000003b0: 0823 d93d 4187 06bd 7054 843d a945 a93d
000003c0: a92a c3bd 5e46 e8bb bb5f 89bd b158 0a3d
000003d0: d51f a23d 72f1 b5ba 4d98 823d 6d58 8d3b
000003e0: 0382 89bc 15ad b93d 2a1c 8fbd 2a2a be3d
000003f0: ef86 a03d c8e7 0dbe b8d0 f63d c813 77ba
0.021755962 0.11287947 -0.03345497 -0.032677118 0.018825084 -0.04006652 -0.1347732 0.08377989
0.017167233 -0.011534565 0.09032309 0.059637804 -0.044144634 0.046692338 0.14165172 0.10671056
0.028884044 0.028764537 0.08511074 -0.0944903 0.026095565 0.103355385 0.0886136 0.20037849
0.01749153 -0.15581939 0.1698452 -0.015695293 -0.10785536 -0.08059789 0.04595375 -0.0014660415
-0.04646964 -0.021001542 -0.11042656 -0.024629254 0.04665278 -0.021434259 0.0037596666 -0.056237623
0.12007961 -0.101533554 -0.1578354 0.13527095 0.10650767 -0.098219976 0.04656767 0.08073042
0.023519935 0.0030642275 0.03197231 0.061892178 -0.08758403 0.106183365 -0.16522034 0.121101946
0.03441322 0.13788417 0.09735855 0.06975805 0.11617316 -0.03958393 0.1098011 -0.114391945
-0.12664418 0.056207042 0.03711253 0.02866051 -0.016303249 0.07843621 0.042972825 -0.06593155
-0.058361724 -0.052858464 -0.022205114 -0.028889311 -0.025604805 0.084549084 0.07477654 0.0480527
-0.0074109943 0.08453382 0.010130043 0.11792609 0.008250084 0.027541695 -0.12130713 -0.0103953425
0.04870912 -0.13294467 0.059793893 0.068354964 0.08852976 -0.08319215 0.033768896 -0.09981414
-0.07546259 0.06875143 -0.0717294 0.052755184 -0.0029671183 -0.11799118 0.015154522 0.088597514
-0.03365608 0.07995456 0.012593152 -0.12836297 0.020927684 -0.02467563 -0.098380096 0.11110456
0.09617652 -0.12348834 0.042004075 -0.08581985 -0.029715398 0.057077374 0.051267207 0.11108098
-0.099820696 0.067439474 0.025758531 0.012660067 -0.0061325696 0.025327686 0.02671822 0.109376274
-0.12632714 -0.0026368033 -0.12062825 0.16751774 -0.08263663 0.054601636 -0.01950562 -0.14045459
-0.040509988 0.16111661 -0.022733217 0.08349825 0.03990104 0.022253206 -0.056932475 0.1543562
0.13413802 -0.090685956 -0.09004763 -0.10200883 -0.14926378 0.072435856 -0.07305958 0.09125083
0.076531544 0.067243144 0.074779324 0.16101703 -0.05431576 0.056089915 -0.010855063 0.09301605
0.0040354636 0.006655993 -0.1658157 -0.09225594 -0.08397234 0.018899713 0.031524863 0.10635997
0.1708554 0.07294394 0.0045687933 -0.09077602 -0.04548376 0.19271925 -0.033610202 -0.086994134
0.023438215 -0.025755787 0.04779162 0.0323749 0.019277282 0.08794026 0.0034924143 0.083181754
-0.03924593 0.12731281 0.07065292 -0.12466878 -0.036823787 -0.058311228 0.00598526 0.046162967
-0.0960135 -0.1430796 0.0568019 -0.021150032 -0.08984661 0.072952665 -0.12957425 0.11423454
0.090045854 -0.057311773 -0.03850962 0.015272484 0.0943983 -0.060302448 -0.06069624 0.06596491
0.14403453 -0.060402885 -0.1368917 -0.106380425 0.10408065 -0.10031598 -0.06363096 0.08435502
-0.06017032 0.08893912 -0.12463584 -0.06239142 0.07312564 -0.049664427 0.09988915 0.080432974
0.050693925 -0.08568249 0.12765715 -0.05747939 -0.068441495 0.011804703 -0.104589686 -0.013655052
-0.0021916858 -0.05594682 -0.06616685 0.09873193 0.10602385 -0.032843832 0.06461418 0.0826524
-0.09529621 -0.0070884665 -0.06707712 0.03377599 0.07916228 -0.001388116 0.06376705 0.0043135197
-0.016785627 0.09066216 -0.06987794 0.09285386 0.078382365 -0.13857949 0.12051529 -0.000942525

model_cnn.fc1.bias f4 [256]
00000000: 187f 213e 5767 13bd 5a82 e2bd abb2 e1bb
00000010: 0ea5 093e 51d8 223e 1cb8 59bd 5ecb 00be
00000020: bafd 563c b4c9 3dbd ac51 86bd 8081 35bd
00000030: 349a 983d 3e5c 123d ced6 233e 0def d93c
00000040: f3ee f83c 14fa ffbd 3972 da3d ada4 1f3d
00000050: b1c6 563c 4720 c4bc bd02 b2bc 970a efb9
00000060: 131e 423c 9af1 9a3d 5bf9 303c 1eab 013e
00000070: 0434 153e 9870 96bd 9e45 25bd 896c 2cbd
00000080: 8b67 663d e338 773d 556e 903d 459b 0e3d
00000090: 7164 e03d ce01 f33d eb96 e7bd 7c4a 103d
000000a0: 1448 013e 10d1 973d a929 1e3d 0746 703d
000000b0: 4b8d 933c 42f7 9ebd ad00 13bd 4500 c13d
000000c0: 4969 9dbd 9c53 163c 821f 98bd 665c 853d
000000d0: 25af 1cbd 09fe 5b3c 927f c3bb d0d6 cd3d
000000e0: 8e8b fe3c 4fdc bd3c b670 e3bc 4814 e03b
000000f0: d16f 8a3c 230e 0e3d 6ecc 12bd c14d e7bd
00000100: 12bc febc 1efc a2bc f439 7b3d 10b1 513d
00000110: 3385 94bd 06cd d53d 3e15 31bb 88ff eabd
00000120: 9845 a4bb f2dc 8b3d bc5c 1cbd 30a4 1e3e
00000130: 99e3 fa3b 51dd 173c 70b9 03be c008 763c
00000140: 14cf 0f3e 3050 6d3d e5bb d63b a3aa a9bd
00000150: 3cf4 af3d 7dd4 563d 6d45 4c3d c8c0 d93d
00000160: f785 b7bd 1a39 7e3d 0da8 db3d 8146 c6bc
00000170: c506 d43c cb30 b63d 16df b93d 9fe5 a73d
00000180: 4782 c3bd 0d64 e73d 0eb7 2cb9 1bce 563d
00000190: eacb 0abe a3f0 a33b 4416 8cbc 5fc7 863d
000001a0: 4a2e ba3d d2be b13d 5a44 fa3d 3dfb 8d3d
000001b0: 89d0 be3c a0ff aabd 7fad 6a3c 1a6b cd3d
000001c0: 4bba 99bc ae33 653d 105d 7a3d 5d16 d5bd
000001d0: c4bd c339 502b b63d d7bc 9bbc 1f4a 35bd
000001e0: ac66 083e 2350 8ebd a972 973d e582 61bd
000001f0: 172c 5ebc 6f29 ce3d 67dd ef3c caf1 56bd
00000200: b11e dfbd a646 33bd e0d5 023c 3b1c a23d
00000210: 0ad3 98bd 9933 84bd 9252 b2bd 89bf fa3d
00000220: f737 91bd 4749 f83d db2c 5f3c 546f 893d
00000230: d693 e1bd f351 083e 20dc 28bd 7771 60bd
00000240: 8232 e2bc c4e2 093e e105 dc3b 9a90 b73d
00000250: e890 023e 598f ef3d cb45 25bd 515c a7bd
00000260: 324f 593d 5e5a 80bd cf0e 2c3d 7d3f 69bd
00000270: 7fe5 813c 134c 1cbb 3552 723d 4a71 66bd
00000280: 2e5c bebc 1c4e 093e d925 8cbd b8ed 123e
00000290: 1e21 0a3e f376 14be 52bb dabc 8f9c 053d
000002a0: 1796 5e3d 3c60 1b3e b6c0 f33a 5553 61bd
000002b0: c35f dcbc 4c21 8b3b dfa4 37bd e66a 813c
000002c0: 7a29 f23d 00a5 ae3b 0818 8a3d a449 8bbc
000002d0: 5799 c33d cc69 3abc 9317 f4bd 7e8b 94bb
000002e0: c34f 353d b745 873d b13b d43d 5e88 9439
000002f0: ed67 e7ba d10d ae3d ba21 94bd 1edb d2bd
00000300: 4e48 8bbd 0bc2 d83d 6608 f13d c8ef a6bd
00000310: fc6d 0d3d 4b30 a2bd c24a cdbc 392f c03d
00000320: 62f6 dbbd 90a3 143e 272c 5cbd 6dad f43d
00000330: f008 f6bc 138f c43d 3937 09bd a339 7abc
00000340: 3ab1 033e 29a3 f83c 5e58 68bd 626b 19bd
00000350: ff58 14bd e09b 7c3d 1014 b43d 41d2 d73b
00000360: 0334 1c3e a5fe 41ba 7eb9 243e 5bc8 b63d
00000370: 17af 2b39 6a47 98bd 3177 c83c 0491 b1bb
00000380: 2ba5 b0bd b721 f63d f46e 0b3e bd12 00bb
00000390: 84b5 98bd 7e99 d93d db80 383d 0fbb 803b
000003a0: e691 c4bd a0e9 783b f2bb f2bc a302 1a3e
000003b0: f9f2 83bb 1d47 0d3e 0533 34bd b13e fb3d
000003c0: 9d3a b83c ea65 f23b 739c a93d 42cb 5e3d
000003d0: a768 f9bd 7a76 78bc ecb7 503d 26a6 153e
000003e0: 768e b1bc 8f1b c8bc b91c 5f3d 4714 85bd
000003f0: 4fa0 bdbd fa0a b13d 9266 913d 2e0a 6d3d
0.15771139 -0.035987224 -0.11060019 -0.006887754 0.1344187 0.1590283 -0.053154096 -0.12577578
0.013122017 -0.046334937 -0.065585464 -0.044312954 0.07451287 0.0357325 0.1599991 0.026603246
0.030387377 -0.124988705 0.106663175 0.038975406 0.013108895 -0.023941172 -0.021729821 -0.00045593522
0.011847991 0.07565613 0.0108016385 0.12662932 0.14570624 -0.07345694 -0.040349595 -0.042095695
0.05625109 0.060356986 0.07052294 0.034816045 0.10956658 0.118655786 -0.11308082 0.035227284
0.12625152 0.074129224 0.03861395 0.058660533 0.01801171 -0.077620044 -0.035889316 0.094238795
-0.07686097 0.0091752075 -0.07427885 0.06511764 -0.03825297 0.013427266 -0.0059661353 0.10050738
0.031072404 0.02317634 -0.027763706 0.006838355 0.016899021 0.03468145 -0.03583949 -0.11294127
-0.031095538 -0.01989561 0.061334565 0.05119425 -0.07251968 0.10439496 -0.0027020718 -0.1147452
-0.005013179 0.06829251 -0.038174376 0.1549232 0.0076565263 0.009269075 -0.12863708 0.015016735
0.14043838 0.0579378 0.0065531605 -0.082844995 0.08591506 0.05244874 0.049870897 0.10632473
-0.08961099 0.062066175 0.107254125 -0.02420354 0.025882134 0.08896025 0.090757534 0.081980936
-0.09546333 0.1129838 -0.00016471391 0.05244265 -0.1355435 0.0050030514 -0.01710046 0.06580996
0.0909086 0.08678974 0.12220068 0.069326855 0.023292797 -0.08349538 0.014323591 0.100301936
-0.01876559 0.05595749 0.061123908 -0.10404656 0.00037334685 0.0889498 -0.019010944 -0.04426014
0.13320416 -0.069488786 0.073949166 -0.05505647 -0.0135603165 0.100664966 0.029280378 -0.05247668
-0.10894526 -0.043768547 0.007985562 0.07915541 -0.074621275 -0.06455154 -0.08707155 0.12243564
-0.070907526 0.121233515 0.013621534 0.06710687 -0.110145256 0.13312511 -0.041225553 -0.05479571
-0.027611975 0.1346541 0.006714568 0.089631274 0.1275059 0.11697263 -0.040349763 -0.08171905
0.053054042 -0.06267236 0.04200631 -0.056945313 0.015856503 -0.0023849055 0.05916043 -0.056260385
-0.023237314 0.13408703 -0.06843156 0.14348495 0.13489196 -0.144985 -0.02670065 0.03262001
0.054342356 0.15173429 0.0018596861 -0.055011112 -0.026901131 0.0042459127 -0.044834968 0.015798043
0.11824317 0.005329728 0.06742865 -0.017002888 0.09550732 -0.011377763 -0.11918559 -0.0045332303
0.04426552 0.06605094 0.10362948 0.0002833036 -0.0017654874 0.08498729 -0.07232995 -0.102956995
-0.068009004 0.10583886 0.1176918 -0.081512034 0.034528717 -0.079193674 -0.025060061 0.09384007
-0.10740353 0.14515519 -0.053753044 0.11947141 -0.030033559 0.09597602 -0.03349993 -0.015272531
0.12860575 0.030351238 -0.0567249 -0.037455924 -0.036217686 0.06167209 0.08792889 0.0065863435
0.15254216 -0.0007400311 0.16086385 0.089249335 0.00016373057 -0.07435496 0.024470897 -0.0054188985
-0.08625253 0.12018149 0.13616544 -0.001954242 -0.07456496 0.106249794 0.04504476 0.003928549
-0.095981404 0.0037981048 -0.029630635 0.15040068 -0.0040267673 0.13796659 -0.04399397 0.12267817
0.022488886 0.007397403 0.082817934 0.05439306 -0.12178164 -0.015164966 0.05095665 0.14614162
-0.021674376 -0.024427203 0.05447075 -0.06498008 -0.09259092 0.08644672 0.07099642 0.057871036

model_cnn.classifier.weight f4 [5, 256]
00000000: ebe8 33bb e262 2e3d fabb 60bb 6778 203d
00000010: 1ee0 18bc f129 093d 5842 70bd 6d91 05bd
00000020: 6fee 253d e360 6e3b 8f1f 62bc 32c1 01bc
00000030: 3957 7a3d a205 083d c666 7fbc 6f4f 57bd
00000040: f73e 653d 09d8 863b 7970 30bd ab96 fcbb
00000050: efa8 4b3d 5c4b 8bbc 8f6e fcbc aa97 b2bc
00000060: 3ebe 8b3c daa7 063d 1fbe 60bd 48e6 c83c
00000070: 853a 92bc bfae 393c 64a0 40bd 5ac6 2d3d
00000080: 5363 04bc f39b 353d 3e33 bb3c f5ea 9c3c
00000090: a905 e63c 113d 473d 8719 4f3c b372 743d
000000a0: f151 54bd e085 613d e131 193d 15e9 8bbc
000000b0: 56ff d73c 27db 03bd 6f15 c5bc 0466 39bd
000000c0: 2449 83bb be26 933c f1cc 5e3d 3f8c c5bc
000000d0: b318 61bd cea5 a93b 3e04 173d f61c bd3c
000000e0: 114b 35bd bda5 97bc 44c8 c7bc 15b2 07bd
000000f0: 1b30 0c3b d46f 743d 0084 39bd 4e5d 35bc
00000100: 4370 0bbb 22a9 493d 0119 c0bc ef64 923c
00000110: 4097 83bc 70f5 2a3d 1784 5fbd 9bd9 fc3c
00000120: 016f 6cbd 8db4 4cbd b4d2 293d 6be0 e73b
00000130: c7b0 17bd 1ed3 7fbb ae02 2dbd 1571 27bb
00000140: 4c70 0c3d f2ed 93bc fc9f 133d 0e3f 44bb
00000150: e810 703d b598 1e3d 4625 cabc 72fb 1fbd
00000160: 060b 48bd 7e2b 8dbc f7e5 3abd cfb9 77bd
00000170: e518 113d 7496 5a3d b24f 4c3d 5405 75bd
00000180: f778 55bd c04d 933c 036b 06bd d879 88bc
00000190: 43aa a63c 168e f8bb 8696 f5bc 3590 e3bb
000001a0: d1de 66bb efdd a1bc 716f 493d 708e 7aba
000001b0: 78ed 20bd b5b7 bcbc 2351 303b b23f 2a3d
000001c0: 0b67 66bd f7f7 be3c 728e 71bd d3c1 13bd
000001d0: a354 19bd c5a5 7bbb de96 293c 90b1 613d
000001e0: c950 0b3d 0ba6 77bc 8a28 8fbc b182 8b3b
000001f0: 9492 253d 1001 3d3d 1c7d e13c d0ad f4ba
00000200: a959 273d 7761 c83c 0ea9 f23c abe8 773d
00000210: 4498 bd3b e38a 79bd d646 123d 3e44 593d
00000220: 26bc 0c3d a526 113d 3d05 1f3c 76e0 3f3d
00000230: 66a5 4bbd 083d e6bb b7ac 403c 4bc9 11bd
00000240: f931 183d b795 26bd ec59 a6bb 78f9 89bc
00000250: 4434 7dbd 9bee 693d eaa6 4f3d ca5a db3b
00000260: 9fa1 ebbc d737 8dbc 650f bf3c 162a 63bd
00000270: 21aa 583d 0737 01bd a4c4 c0bc 5181 6cbd
00000280: c380 2c3c 69cb 35bd 5eee 4bbd 67dd cf3c
00000290: 9872 da3b 9c4c 26bc 8591 733d 950c 43bd
000002a0: 7d8c 363d 66cb a73c b06c 1cbc 76bf 833c
000002b0: bae6 b83c 8900 2dbc b76e 7b3d d98d 27bc
000002c0: 09ca a53a 7242 acbc 7e3a 173d b03a 433d
000002d0: 884b 1fbd cec6 00bd 1d0c e43c e7cc 30bd
000002e0: 3a31 0e3d 64f0 873b 50ad 8b3c 8a9f 7b3d
000002f0: 406d 573d 305d 50bc b752 bfbc 7bfe b3ba
00000300: 9c1b fd3b 9ad2 35bd 5e07 883c 2b4d 263d
00000310: 35a2 9f3c ec6f 37bd fc74 e7bb 7044 053c
00000320: efc0 0dbc d26d 193d e8b2 093c 43fd 6bbd
00000330: 6c14 af3c 9f8b a7bc 04c4 62bd fa4b 423d
00000340: 68a7 a8bc d04b 45bd 6c7a 283d 25d2 783d
00000350: 9505 78bc 4234 4c3d 093a ae3c be03 d6bc
00000360: 995d 773c e44a 173b 8dd6 65bc 64ac 613c
00000370: 9cf9 1cbc 2421 74bd 8a57 3ebc 48a2 b83c
00000380: 9839 60bd 2cc2 603d 5274 46bd 167e ae3b
00000390: 5d88 f8bc 5034 283d 6617 7a3d 8d56 903c
000003a0: ec7c 36bc 2c67 61bc 5a31 da3c be41 85bb
000003b0: 2201 b73c bf5c 01bd 78b0 3fbb 8254 88bc
000003c0: dcec 5fbd 1f82 5bbd eecc d83b 92c4 2fbd
000003d0: 664e 70bd ca8e b33c ffee 46bc 3c91 ea3c
000003e0: c721 86bb 23fb 7fbb da97 babb 95d7 c4bc
000003f0: 9798 b4bb 39e2 47bd 4e93 49bd a2ac 0f3d
-0.0027452062 0.04257477 -0.003429173 0.039177325 -0.009330777 0.033487264 -0.05865702 -0.032609392
0.04051059 0.0036373667 -0.0138014695 -0.0079195965 0.06111834 0.033208497 -0.015588468 -0.05256599
0.05596825 0.004115109 -0.043076012 -0.0077083907 0.049721655 -0.017003708 -0.030814437 -0.021800835
0.017058488 0.03287492 -0.054868814 0.02452387 -0.01785017 0.011333167 -0.04702796 0.04242549
-0.008080321 0.044338178 0.022851583 0.019155005 0.02807887 0.04864222 0.012640364 0.0596797
-0.051835958 0.055059314 0.037401084 -0.017078916 0.02636687 -0.03219142 -0.024058072 -0.045263305
-0.004006522 0.01796281 0.054394666 -0.024114726 -0.054955196 0.005177236 0.03686928 0.023085099
-0.044261042 -0.018511647 -0.024387486 -0.033128817 0.0021390978 0.05967696 -0.0452919 -0.011069609
-0.002127663 0.049233563 -0.023449423 0.017870395 -0.016063333 0.041737974 -0.05456933 0.030865481
-0.05772305 -0.049976874 0.041460708 0.0070763133 -0.037033822 -0.0039035748 -0.042238884 -0.002554958
0.034286782 -0.018057797 0.036041245 -0.002994481 0.058609873 0.03871985 -0.024675976 -0.039058156
-0.048838638 -0.017232653 -0.045629468 -0.060479935 0.035424132 0.05336614 0.04988069 -0.059819534
-0.052117314 0.01798141 -0.032816898 -0.016659662 0.020344859 -0.0075852973 -0.029979002 -0.006944681
-0.0035228024 -0.019759146 0.049178544 -0.0009557968 -0.039288968 -0.023036817 0.002690383 0.04156465
-0.056250613 0.023311598 -0.058973737 -0.036073517 -0.03743423 -0.0038398367 0.010350911 0.055100977
0.03401259 -0.015115271 -0.017475385 0.004257523 0.04042299 0.04614359 0.027525477 -0.0018667523
0.04085699 0.024460537 0.029621627 0.060524624 0.0057859737 -0.06092347 0.035712086 0.053043596
0.03435912 0.035437245 0.009705839 0.046844922 -0.049718283 -0.0070263185 0.011759928 -0.03559236
0.037157033 -0.040670123 -0.0050766375 -0.016842589 -0.061817423 0.057112318 0.05069629 0.0066941725
-0.02876359 -0.01723854 0.02332277 -0.05546006 0.052896623 -0.03154662 -0.023531266 -0.057740513
0.010528746 -0.04438344 -0.04978787 0.025374128 0.0066664927 -0.010150101 0.05946495 -0.04761942
0.044567574 0.02048273 -0.0095473975 0.016082507 0.022570956 -0.01055921 0.061384883 -0.01022669
0.0012648712 -0.021027777 0.036921017 0.04766339 -0.03889039 -0.031439595 0.027837807 -0.04316416
0.034714915 0.00414853 0.017050415 0.061431445 0.052594423 -0.01271753 -0.023354871 -0.0013732457
0.0077242386 -0.0443903 0.016605075 0.040600937 0.019486526 -0.04478447 -0.007063506 0.008133993
-0.008651956 0.03745825 0.008404471 -0.057614576 0.021372043 -0.020452319 -0.055362716 0.04743574
-0.020587638 -0.048168004 0.041132376 0.060747284 -0.01513805 0.049854524 0.021267908 -0.026124831
0.015097999 0.002308541 -0.014028204 0.013774011 -0.009580996 -0.059601918 -0.011617551 0.02253832
-0.054742426 0.054872677 -0.048450775 0.005325089 -0.03033846 0.041065514 0.06105747 0.017619396
-0.011138182 -0.013757508 0.02663486 -0.004066675 0.022339407 -0.03158259 -0.002924947 -0.016641859
-0.054669246 -0.05359089 0.0066162264 -0.042912073 -0.058668517 0.021918673 -0.012141942 0.028633706
-0.004093382 -0.0039059601 -0.0056943716 -0.024028579 -0.005511354 -0.048799727 -0.049212746 0.035076745

model_cnn.classifier.bias f4 [5]
00000000: 7fe6 7a3d 704d 913b c9ee 54bb b9f8 3b3d
00000010: d4de 64bd
0.061254974 0.00443428 -0.003249096 0.045891497 -0.055876568

model_cnn.domain_classifier.weight f4 [2, 256]
00000000: 1109 47bd 01ef 313d 6040 6dbc 768f 1d3d
00000010: c0d7 bcbc 71ef 3bb8 eb0c 0e3c 804e 373d
00000020: 2583 f039 603d 83bc d1fd 2abd 79d1 9a3c
00000030: a6be 043c f52b b0bc dad5 6cbb bfb4 71bd
00000040: e2cb 313d 6e39 02bd a720 673d 415d 663d
00000050: c212 7a3d 7aec 4cbd 92cf 373d 12bd 09bd
00000060: e491 68bd f25e 50bc 4bf7 22bd 8bb2 44bd
00000070: faf8 333d 059d 7b3d 6ec8 9cbc ddb9 11bd
00000080: 4a85 113d c888 d03c e49b 9dbc f546 e2bc
00000090: c104 b1bc 54fa 4a3d f5d7 b6bc 135d 3a3d
000000a0: 9efb 42bd 1cd5 49bd 4472 933c 15f5 de3c
000000b0: 6481 1b3c 88b6 3f3d 2c45 913c b7e0 613d
000000c0: b7ce 74bd ca56 8bbc 8f73 733d 7757 ba3c
000000d0: d32e 66bd b35a debc 0478 33bd b2af a03b
000000e0: a68a 133a bd75 afbc f273 7bbd 1023 3f3c
000000f0: 854f 87bc 73d9 253d 1348 0b3d c4c5 323d
00000100: b392 50bd 7260 7ebd 638f 693c 0079 ef3c
00000110: 3328 5c39 b51e 003d 79b3 50bd d40e 2e3c
00000120: 84c4 543d 4a72 603d 18f1 60bd 56f3 56bc
00000130: 00bb ad3c 48ad 00bd e9e2 003c ab45 6cbd
00000140: 8a26 59bd 7b1b 83bc 7e4e 28bd cb4b 21bb
00000150: 80f3 493d 3698 7e3d 2c8c 76bb c760 903c
00000160: f743 143b ec7d 323d 9c55 423d d2b0 4d3d
00000170: 09ba 603d a323 193c ff0a c93c c12b 66bd
00000180: 2aa3 013d f021 ca3c d78e 44bd 9ddc 32bd
00000190: e815 8d3a 1d6e 003a 31cc 6e3d 1e90 b8bc
000001a0: 5be6 923c 8e89 82bc 578e 8ebc 8249 7e3b
000001b0: 252b 7cbd e88a cd39 baac 3f3c f779 7abd
000001c0: bc41 96bb 8dfd 32bd 4d23 b4bb b577 e8bc
000001d0: 768a 223d e0c1 e4bc 468d 77bd 773c 043d
000001e0: fa4b 3cbb 346a 5a3d 8a3b 68bd 4768 4ebd
000001f0: fa63 6dbd c1fb de3c f7fd 4f3d 4428 16bd
00000200: fc56 3c3c aa07 59bd 6dbe 4cbc b047 0b3d
00000210: 9e77 453b c861 203d 2927 cd3c 4fbc cabb
00000220: 351b 2c3a 1435 68bd 4cd3 00bd 64d3 b3bc
00000230: dd97 193d 86b6 fb3c b5d5 84bc 557a 873a
00000240: 776c 483d 3657 3ebd 1969 743d ff47 34bc
00000250: 111f 513d 810e f33c e90a 64bd 8598 f43c
00000260: e02f 3cbc 6f2a 423d f1a2 193c 6861 babc
00000270: 4598 ec3c bd6e 7d3d 4fb0 6abd 59c3 4bbd
00000280: 3bbb dcbc fdc8 833c cef4 973c 3e25 6d3d
00000290: 94bd 2a3d 1e9f 743d 09cc 76bd 4c96 95bc
000002a0: 33c2 e0bc b494 013c 8ccc 4c3d e409 bd3c
000002b0: 679c 9f3c 17dc a1bc b95c 943b 5600 5d3d
000002c0: e53f c93b 403a 36bc 5336 b23b 25d0 1d3d
000002d0: 84a5 ec3c 8766 1bbd 955a b4bb bad5 9f3c
000002e0: 076a d6bc cea4 813b 6279 72bb 30bc e3bc
000002f0: 91ec 24bd 1354 5abc 8c41 403d 36d6 423d
00000300: 952f 673c dc96 34bd 4e04 20bb 8c7c c73c
00000310: e01e 263d 23c5 d1bc 4aad babc 8e5a 033c
00000320: 0611 083d 24d2 36bc cf38 2dbd 3e25 4d3d
00000330: 04fa 483d 95a4 553d 23cf e4bc e17e 3fb9
00000340: 99a5 673d 1511 d3ba b384 413d 79f9 683d
00000350: 58ed 043d b29d 0bbc 9a54 6ebd f305 ed3c
00000360: 6ecb 74bd db11 60bd 8faf 77bc 82b2 dc3a
00000370: b4c7 df3c b7a3 313d d261 3a3d b643 1e3d
00000380: fa6d 5c3b a5b8 27bd 9432 07bd 8f03 293d
00000390: 3cf2 9e3b db19 09bd a350 4ebd d544 3cbd
000003a0: edbf 593d 2911 f6bb 2bef f0bc d839 283d
000003b0: 2462 813c 2a01 eb3c 3b54 5cbc 51cf 02bd
000003c0: a7d1 583d 64eb 56bd aaaf 3dbd 302e ddbc
000003d0: 9bc0 82bc 0b19 673d 9d96 65bd 7273 f23c
000003e0: df34 693d 54c1 b63b 87a6 eabc edf8 2cbd
000003f0: 7df9 42bd f0d8 223d 16d8 143d 44c7 f1bc
-0.04859263 0.043440823 -0.01448068 0.038466893 -0.023052096 -4.480727e-05 0.008670072 0.044752598
0.00045874077 -0.016020477 -0.041745964 0.018898712 0.008102095 -0.021505335 -0.0036138208 -0.059010264
0.04340733 -0.03179305 0.056427624 0.056241278 0.061053045 -0.05003021 0.04487569 -0.033627577
-0.056779757 -0.012717949 -0.03978662 -0.048021834 0.043938614 0.061429042 -0.019138541 -0.035577644
0.035527505 0.025455847 -0.019239374 -0.027621726 -0.021608712 0.049555138 -0.022319773 0.04549892
-0.047603242 -0.049275503 0.017998822 0.027216474 0.009491298 0.046804935 0.017733179 0.055145945
-0.05976745 -0.017009158 0.059436377 0.022746785 -0.056197 -0.027142858 -0.043815628 0.004903757
0.0005628265 -0.021418447 -0.06138987 0.011666074 -0.01651741 0.04049058 0.034004282 0.043645635
-0.050921153 -0.062103696 0.014255377 0.029232502 0.0002099581 0.031279285 -0.05095241 0.0106236525
0.051945224 0.054796495 -0.054917425 -0.013119539 0.021207333 -0.031415254 0.0078666 -0.057683628
-0.05301527 -0.016004315 -0.04109048 -0.0024611827 0.049304485 0.06215688 -0.003762017 0.017624272
0.0022623518 0.04357712 0.047444925 0.050217457 0.054864917 0.009346875 0.024541376 -0.05619407
0.031649746 0.024674386 -0.047987785 -0.043667424 0.0010763975 0.00048992207 0.0583002 -0.022529658
0.017932108 -0.015934732 -0.017401857 0.0038801138 -0.061564583 0.0003920414 0.011698896 -0.06115147
-0.004585473 -0.043698836 -0.0054973722 -0.028377393 0.039682828 -0.027924478 -0.060437463 0.032284226
-0.002873181 0.05332394 -0.056697406 -0.050392415 -0.057956673 0.027219655 0.05077931 -0.036659494
0.011495348 -0.052985825 -0.012496573 0.034003913 0.0030131112 0.03915575 0.025043087 -0.006186999
0.00065653335 -0.056691244 -0.03145151 -0.021951385 0.037498344 0.030726682 -0.016215185 0.001033614
0.048931565 -0.04646989 0.05967054 -0.011003493 0.051055018 0.029670002 -0.055674467 0.029857883
-0.011486024 0.04740375 0.009377227 -0.022751525 0.028881202 0.061873186 -0.057297047 -0.049746845
-0.026944747 0.01608705 0.01854935 0.057896845 0.041684702 0.05972206 -0.060253177 -0.018260144
-0.027436351 0.007908989 0.04999976 0.023076005 0.019483758 -0.019758267 0.004527655 0.0539554
0.00614165 -0.011122286 0.005438605 0.03852858 0.028887518 -0.037939575 -0.0055039623 0.019511092
-0.026173605 0.003956414 -0.003699862 -0.027799696 -0.04026467 -0.013325709 0.04693751 0.04756757
0.0141104655 -0.044089183 -0.0024416628 0.02435138 0.04055679 -0.025606697 -0.022787709 0.008017195
0.03321936 -0.0111585 -0.042290505 0.050084345 0.04906656 0.05215891 -0.027930802 -0.00018262446
0.05655441 -0.0016103113 0.047245692 0.05687854 0.03245291 -0.008521484 -0.05818615 0.0289335
-0.05976432 -0.05470453 -0.01511754 0.0016837867 0.027316906 0.04336902 0.045503445 0.038638793
0.0033634887 -0.040947575 -0.03300722 0.04126316 0.004850654 -0.033471923 -0.05036987 -0.04596408
0.05316155 -0.00750937 -0.02941092 0.04107079 0.015793867 0.028687079 -0.0134478165 -0.031935994
0.052934315 -0.05247058 -0.046310104 -0.026999563 -0.015960982 0.056420367 -0.05605184 0.029596064
0.056935187 0.0055772457 -0.02864386 -0.04222958 -0.04760121 0.03975767 0.036338888 -0.029513963

model_cnn.domain_classifier.bias f4 [2]
00000000: 7bf8 7b3c 9115 46bd
0.015379067 -0.04836041
