checkpoint/transfer_cnn_features_1d_0_to_3_1210/best_model.pth (torch, 103138 bytes, 10 tensors)

model_cnn.conv1.weight f4 [32, 1, 3]
0	0xbd774e36	-0.060377322
1	0x3e843fc8	0.2582991
2	0xbea67a5d	-0.3251523
3	0x3e112662	0.14174798
4	0x3e9de1f6	0.30836457
5	0xbee43203	-0.44569406
6	0x3dabb541	0.08384181
7	0xbe6bf737	-0.23043524
8	0x3ef1d102	0.47229773
9	0xbe3b03f6	-0.1826323
10	0xbeb06ce6	-0.34458083
11	0xbec492ce	-0.38393253
12	0xbc8f9f28	-0.017531946
13	0x3e85d35e	0.26137823
14	0x3e49f490	0.197222
15	0x3f077b36	0.5292238
16	0x3ee96b57	0.45589706
17	0x3df74a04	0.12074664
18	0x3e608dc2	0.21929076
19	0xbe88d63c	-0.26725948
20	0x3e66caa8	0.22538245
21	0x3ee01be1	0.4377127
22	0xbb3b68a1	-0.00285963
23	0x3e11aa2a	0.14225069
24	0xbef9fc7f	-0.48825452
25	0x3ea6e52c	0.3259672
26	0x3efae504	0.4900285
27	0x3f0a8b1d	0.5411852
28	0x3e83529d	0.25648966
29	0xbe637df1	-0.22216012
30	0x3bc24e22	0.0059297243
31	0xbe8a6070	-0.270267
32	0xbe98d9bf	-0.29853627
33	0x3f0df9a5	0.5545905
34	0x3d88dc13	0.06682601
35	0xbed99746	-0.42498225
36	0xbe01af11	-0.12664439
37	0x3e8c5de1	0.27415374
38	0xbe1755a1	-0.14778759
39	0x3ec205d2	0.37895066
40	0x3e89f38e	0.2694363
41	0xbf069464	-0.52570176
42	0xbe14065e	-0.14455554
43	0x3dbdcbf1	0.09267414
44	0xbda16a71	-0.0788163
45	0x3ec886b7	0.3916528
46	0x3e856a8f	0.2605786
47	0xbecd8df3	-0.4014736
48	0x3d5b94c0	0.053608656
49	0xbeb5a54d	-0.35477677
50	0xbefb075a	-0.49029046
51	0xbf09972d	-0.537463
52	0xbcec0503	-0.028810984
53	0x3e140e83	0.14458661
54	0xbe3d8764	-0.18508679
55	0xbe127b63	-0.14304881
56	0x3f038512	0.51374924
57	0x3f1273f1	0.5720816
58	0xbdce1c31	-0.10063971
59	0xbe48cadb	-0.19608633
60	0x3f18af4d	0.5964249
61	0xbd84a8af	-0.06477486
62	0x3f1b34f5	0.6062768
63	0x3ebb4d3f	0.36582372
64	0x3e920047	0.28515837
65	0x3c10d92f	0.008840843
66	0x3eaf8a35	0.3428513
67	0x3c790b3d	0.015200433
68	0x3ef2b180	0.47401047
69	0x3da24b3f	0.07924508
70	0x3ed3192d	0.41230145
71	0xbed1d5ef	-0.4098353
72	0x3ed17234	0.40907443
73	0x3e8a232d	0.26979962
74	0xbedabe54	-0.42723334
75	0x3e8a55e6	0.2701866
76	0x3e134f33	0.14385681
77	0xbe8c8631	-0.2744613
78	0xbef8a5b5	-0.48563924
79	0x3e37dcd4	0.17955333
80	0x3d77e212	0.06051833
81	0xbea4edd3	-0.32212695
82	0xbeea1e19	-0.45726088
83	0xbe83f066	-0.25769347
84	0x3e3a4119	0.18188895
85	0x3eed87fa	0.46392804
86	0x3ee4755d	0.4462079
87	0xbecb72dd	-0.3973607
88	0x3f164482	0.58698285
89	0xbecf7932	-0.40522152
90	0xbf0a0ba9	-0.5392404
91	0xbefebd60	-0.49753857
92	0x3e565e73	0.20934467
93	0xbecc673c	-0.39922512
94	0x3eaea2ea	0.3410867
95	0xbed26365	-0.41091457

model_cnn.conv1.bias f4 [32]
0	0xbd8891e7	-0.06668454
1	0xbf054dd7	-0.520719
2	0x3e899b72	0.26876408
3	0xbd82fcfe	-0.06395911
4	0x3eaca047	0.33716032
5	0xbee90f2b	-0.45519385
6	0x3d4a06f1	0.049323026
7	0x3efe6ba1	0.4969149
8	0x3d0d4c6e	0.034496717
9	0xbeaaf783	-0.3339196
10	0xbe9d4a7e	-0.30720896
11	0xbefd4289	-0.49464825
12	0x3da37133	0.079805754
13	0x3ec03607	0.3754122
14	0x3e48771c	0.19576687
15	0x3e38dacd	0.18052216
16	0xbedb0243	-0.42775163
17	0xbc4c2e7b	-0.012462254
18	0xbe84ebbd	-0.25961104
19	0xbf0555f1	-0.5208426
20	0x3e5fd1dd	0.218574
21	0x3f12891f	0.5724048
22	0xbba413d5	-0.005007247
23	0x3f014d84	0.50508904
24	0x3e9b7d4e	0.30369037
25	0xbe526038	-0.20544517
26	0xbdd17ec8	-0.1022926
27	0xbeee2b3a	-0.46517354
28	0xbec31115	-0.3809897
29	0xbecdda93	-0.4020582
30	0xbd2d1c1d	-0.04226314
31	0x3e389e3a	0.18029109

model_cnn.conv2.weight f4 [64, 32, 3]
0	0x3d8b2197	0.06793516
1	0x3b22e6dd	0.0024856844
2	0x3d3995e0	0.045308948
3	0x3d9fdb5b	0.078055106
4	0x3da83645	0.08213476
5	0x3d26ecca	0.040753163
6	0x3d525ae8	0.051356226
7	0x3d3ee04e	0.046600632
8	0xbb360c0a	-0.0027778172
9	0xbd094920	-0.033517003
10	0xbd494f34	-0.0491478
11	0xbd4ddc9d	-0.05025922
12	0x3dc69f28	0.096983254
13	0x3d338778	0.043830365
14	0xbcdf8c00	-0.027288437
15	0xbcc9589a	-0.024578381
16	0x3d91d629	0.07120926
17	0x3b811239	0.00393894
18	0xbde2030f	-0.1103574
19	0x3dae4433	0.08509102
20	0x3b5cf799	0.0033716916
21	0xbd266e9d	-0.040632833
22	0x3ccdc59c	0.025118642
23	0x3bb2115c	0.0054341983
24	0xbd449e83	-0.04800273
25	0x3d164048	0.036682397
26	0x3d75f812	0.06005103
27	0xbb282375	-0.00256559
28	0xbce913e2	-0.028451864
29	0x3ccac253	0.024750864
30	0xbd4162f2	-0.047213502
31	0x3dc24218	0.09485263
32	0x3d55d72e	0.052207164
33	0xbd48472a	-0.048895992
34	0xbd3158c0	-0.04329753
35	0x3dbced06	0.09224896
36	0x3dbc85ce	0.09205209
37	0x3cd3709a	0.025810529
38	0xbdcada47	-0.09904914
39	0xbcbb28f6	-0.02284668
40	0x3c2cb368	0.010540821
41	0x3d98c25a	0.074589446
42	0x3da9350a	0.082620695
43	0x3cb12ef8	0.021628842
44	0x3dbac10a	0.091188505
45	0x3db7b97a	0.08970924
46	0x3d670206	0.056398414
47	0x3d8c1a0a	0.06840904
48	0xbd8bc270	-0.068241954
49	0x3cf037ef	0.029323546
50	0xbd1bbef6	-0.03802391
51	0x3d9bd336	0.07608645
52	0xbdcb7d40	-0.09935999
53	0xbca70187	-0.02038647
54	0xbd85eb9c	-0.065390795
55	0x3cfa0417	0.030519528
56	0x3d59d310	0.0531798
57	0x3d2e0085	0.042480964
58	0x3db8a81a	0.09016438
59	0xbda75032	-0.08169593
60	0x3c49a669	0.012307742
61	0xbd0d07e0	-0.03443134
62	0x3d2ab056	0.041672073
63	0xbc211e74	-0.009833921
64	0xbd519077	-0.051163163
65	0xbd7aa544	-0.061192766
66	0x3cc90866	0.024540137
67	0xbd3269fd	-0.04355811
68	0xbd86193a	-0.0654778
69	0x3d8ce566	0.06879692
70	0xbdaa2201	-0.08307267
71	0xbdce0fed	-0.10061631
72	0xbdb5fee3	-0.088865064
73	0xbd85bc85	-0.06530098
74	0xbdc2b464	-0.09507063
75	0xbb51818b	-0.0031968083
76	0xbd8c6ed6	-0.06857078
77	0xbc1e1738	-0.0096490905
78	0xbda79614	-0.08182922
79	0x3b99568c	0.0046795066
80	0xbd6fb61e	-0.05852329
81	0x3d660c2e	0.05616396
82	0x3dee2f43	0.11630108
83	0xbd035d89	-0.032071624
84	0xbb2deb1c	-0.0026537841
85	0x3deb8e7f	0.11501788
86	0x3d5ed64d	0.054403592
87	0xbdba6611	-0.09101499
88	0xbd5e367c	-0.05425118
89	0xbde06aa9	-0.10957844
90	0x3d9bed6c	0.07613644
91	0xbc446727	-0.011987484
92	0x3d586121	0.052827004
93	0x3db3c644	0.087780505
94	0xbd532931	-0.051552955
95	0xbdc46a84	-0.09590629
96	0x3de1f808	0.11033636
97	0x3ddac4e8	0.10682088
98	0x3dfe98b3	0.12431469
99	0x3d7fb4e3	0.062428366
100	0xbcf126ad	-0.029437387
101	0x3da38bca	0.07985647
102	0x3d69e714	0.05710514
103	0x3bb3a83d	0.005482702
104	0x3dad09c4	0.08449128
105	0x3d03c86f	0.03217357
106	0xbdbe8332	-0.09302367
107	0x3d82143a	0.06351514
108	0xbd7714f7	-0.060322728
109	0xbd893148	-0.06698853
110	0xbd961f8d	-0.073302366
111	0x3c11db33	0.008902359
112	0x3c168ead	0.00918929
113	0xbcf02de5	-0.02931876
114	0xbd86222c	-0.065494865
115	0x3d5d726c	0.0540642
116	0x3d920bca	0.07131155
117	0x3b32c4ee	0.0027278024
118	0xbcf80447	-0.030275477
119	0x3d273bda	0.040828563
120	0xbd508c7b	-0.050915223
121	0x3d9d6331	0.07684935
122	0x3dcf4833	0.10121193
123	0xbd6788cd	-0.056526948
124	0x3db1ccaf	0.086816184
125	0xbd9a84d2	-0.07544865
126	0xbc386d06	-0.011256462
127	0x3cc7e748	0.024402276
128	0xbd9c03ee	-0.07617937
129	0x3d965c5e	0.073418364
130	0x3a758ad1	0.00093666936
131	0x3d6acb67	0.057322886
132	0xbcbba697	-0.022906585
133	0x3dc28a41	0.09499026
134	0xbce820b6	-0.02833591
135	0xbcaf93fa	-0.021432865
136	0xbda383c0	-0.07984114
137	0xbd916c0b	-0.07100686
138	0x3d8b5a80	0.06804371
139	0x3d1c65e6	0.038183115
140	0xbc7b3c97	-0.01533427
141	0x3d07bfaf	0.033141788
142	0x3c4dc8c5	0.012560074
143	0xbd7f60da	-0.062348224
144	0xbd107543	-0.03526808
145	0xbdd7737b	-0.10520073
146	0xbdc64378	-0.096808374
147	0x3db9f998	0.09080809
148	0xbdbd4ed4	-0.09243551
149	0x3d8e3f6a	0.06945689
150	0x3d9b8382	0.075934425
151	0xbc075930	-0.00826101
152	0x3dc0e244	0.09418157
153	0xbd99c9cd	-0.075091936
154	0xbdad75f0	-0.084697604
155	0x3d8ae7f0	0.0678252
156	0x3db8a9a8	0.09016734
157	0x3d08ae68	0.03336945
158	0xbdce2fc9	-0.10067708
159	0xbddf0198	-0.10888976
160	0xbdad6e30	-0.08468282
161	0xbd545655	-0.051840145
162	0x3dabd57b	0.083903275
163	0xbd95be86	-0.0731173
164	0xbd4a1663	-0.049337756
165	0xbda98158	-0.082766235
166	0x3d85f69d	0.065411784
167	0x3d6ec1e7	0.05829039
168	0x3daaf155	0.08346812
169	0x3d9eb5b2	0.077494994
170	0x3c8510bc	0.016243331
171	0x3b92d3bd	0.0044808076
172	0xbcd021fe	-0.025406834
173	0xbcd88314	-0.02642969
174	0x3db52532	0.08844985
175	0x3d247ca0	0.040157914
176	0xbd7e7695	-0.062124807
177	0xbe0180ac	-0.1264674
178	0xbc25bdd2	-0.0101160575
179	0x3cb14f50	0.021644264
180	0xbdbbe55c	-0.09174606
181	0x3d3ce27e	0.046114437
182	0x3cb72306	0.022355568
183	0x3da3350d	0.07969103
184	0x3b663a7a	0.003513007
185	0xbd74a55a	-0.059728004
186	0x3dbb2a6f	0.09138953
187	0x3d4da0c1	0.050202135
188	0xbcba5943	-0.022747641
189	0xbdb2dc83	-0.087334655
190	0x3cb2ad03	0.021811014
191	0xbc8bd1a5	-0.01706774
192	0xbdbfb133	-0.0935997
193	0x3d0c04b9	0.03418419
194	0x3cad0b5c	0.02112358
195	0x3c3d3471	0.011548148
196	0xbdf8f6fd	-0.12156484
197	0x3d13a25f	0.03604352
198	0xbd71f46c	-0.05907099
199	0x3cec2ddb	0.02883046
200	0x3d8b08e9	0.06788809
201	0x3dace39a	0.08441849
202	0xbd3203bd	-0.043460596
203	0x3e04c37a	0.12965193
204	0xbc78930b	-0.0151717765
205	0xbaab5b01	-0.0013073386
206	0xbdaad39d	-0.08341143
207	0x3dd78a38	0.1052441
208	0xbda5c7e1	-0.080947645
209	0x3d8aff4e	0.06786977
210	0xbc72dc2d	-0.014823002
211	0xbdbcf24e	-0.092259035
212	0x3c4cf88e	0.012510432
213	0xbd9b0f76	-0.07571308
214	0x3d9f21c4	0.07770112
215	0x3d36e6db	0.044653755
216	0x3d914618	0.070934474
217	0xbcef16e7	-0.029185725
218	0xbd2ca953	-0.042153668
219	0x3d4f2404	0.050571457
220	0x3cf65235	0.030068496
221	0xbda1ebff	-0.07906341
222	0x3d1a0599	0.037602995
223	0x3da9b63f	0.08286714
224	0xbc958988	-0.018254057
225	0xbd98eda6	-0.07467203
226	0x3c8bcc63	0.017065233
227	0xbdc35dd7	-0.09539383
228	0x3d2e9c23	0.042629372
229	0x3d572ffc	0.052535996
230	0xbc0d14aa	-0.008610884
231	0x3d865f23	0.06561115
232	0x3d94a7a9	0.07258541
233	0x3dcf9083	0.10134985
234	0xbd6a41ea	-0.057191767
235	0x3ce295ea	0.027659375
236	0x3d335e03	0.04379083
237	0xbd38d68a	-0.045126475
238	0x3ccb490b	0.024815103
239	0xbce2f10f	-0.027702836
240	0xbc0918b0	-0.008367702
241	0xbd104bf1	-0.035228673
242	0xbda237d9	-0.07920808
243	0x3d7602f0	0.060061395
244	0x3ba8ca7b	0.0051510907
245	0xbd1610a4	-0.036636963
246	0xbd4dddd2	-0.050260372
247	0xbcb46cc7	-0.022024525
248	0x3d42c6e1	0.047552947
249	0x3be2a2a4	0.006916361
250	0x3cbee11a	0.023300696
251	0xbdadd3c1	-0.084876545
252	0x3cc2f06e	0.023796286
253	0x3df4b86b	0.119492374
254	0xbd472791	-0.048621718
255	0x3d091d7a	0.033475377

model_cnn.conv2.bias f4 [64]
0	0x3da391c4	0.07986787
1	0xbd96dbf4	-0.073661715
2	0xbd3c255f	-0.045934077
3	0x3d5294c4	0.051411405
4	0xbd3add93	-0.045621466
5	0x3d8e9fc1	0.069640644
6	0xbdb61dfe	-0.08892439
7	0xbd871632	-0.0659603
8	0x3dae2f74	0.08505145
9	0xbce23e28	-0.027617529
10	0x3dcfc92c	0.10145792
11	0x3d44c285	0.04803707
12	0x3c386d7a	0.01125657
13	0xbd9a799f	-0.07542729
14	0x3db629e7	0.08894711
15	0xbc939287	-0.018014206
16	0xbd9b67c8	-0.07588154
17	0x3b39d6d6	0.0028356812
18	0xbd9e7c6a	-0.07738574
19	0xbcabb1e5	-0.02095885
20	0xbd623760	-0.05522859
21	0xbcec4c6f	-0.02884504
22	0xbcb3584b	-0.021892687
23	0x3d9d92db	0.07694026
24	0x3d6e0f27	0.05811992
25	0xbd12beba	-0.035826422
26	0x3d76d135	0.06025811
27	0x3da28c97	0.07936972
28	0xbda37f7f	-0.07983302
29	0x3c8a3f55	0.016875902
30	0xbd5f2d27	-0.05448642
31	0x3ca3335e	0.019921955
32	0x3d5a8ac1	0.053354982
33	0x3c803847	0.015651835
34	0x3d9a8444	0.07544759
35	0xbc061fdb	-0.008186306
36	0xbcc496c3	-0.02399767
37	0x3dbf38d2	0.093370095
38	0xbce6eb7f	-0.028188465
39	0x3d97c14a	0.07409914
40	0x3d922854	0.07136598
41	0xbda41881	-0.08012486
42	0x3daa4d9e	0.083155856
43	0x3c55321b	0.013012434
44	0xbcedeee2	-0.029044572
45	0xbd56dc1f	-0.052456018
46	0x3d3170f3	0.043320607
47	0x3ba3d738	0.0050000213
48	0x3d8d2837	0.06892436
49	0xbcb4c88c	-0.022068284
50	0x3d6ed5da	0.058309413
51	0x3cad33bb	0.021142831
52	0xbd925564	-0.07145193
53	0xbdb4ac15	-0.088218845
54	0xbd894571	-0.06702698
55	0xbd8460f3	-0.06463804
56	0x3d75515f	0.059892055
57	0xbd5178ec	-0.05114071
58	0xbb9f18b2	-0.004855239
59	0xbcaa120d	-0.02076056
60	0x3dae681f	0.08515953
61	0x3d915890	0.0709697
62	0x3d1fb01d	0.038986314
63	0xbd453950	-0.04815036

model_cnn.fc1.weight f4 [256, 64]
0	0xbdc19187	-0.09451585
1	0x3dff9b66	0.12480812
2	0xbde4fa83	-0.11180594
3	0x3c1f78c7	0.009733385
4	0xbd2dcbf2	-0.042430826
5	0x3d116794	0.03549917
6	0xbdab5eb0	-0.083676696
7	0xbdba4b11	-0.09096349
8	0x3df34c1e	0.118797526
9	0x3d8dc203	0.069217704
10	0x3de03f01	0.10949517
11	0xbccdbeea	-0.025115449
12	0x3dee8685	0.11646751
13	0xbcaa66ed	-0.020801032
14	0xbdedbaa2	-0.11607863
15	0xbdd9b033	-0.106293105
16	0x3deffa15	0.11717621
17	0x3d6954bc	0.056965575
18	0x3b9ee022	0.004848496
19	0xbda0468b	-0.07825955
20	0x3cfc6793	0.030811107
21	0x3d6159a5	0.055017132
22	0xbddb8e30	-0.107204795
23	0xbd48605d	-0.048920024
24	0x3db1a7d7	0.08674591
25	0xbc8b0ddb	-0.01697438
26	0xbcac4ac6	-0.021031749
27	0x3c115f3e	0.008872805
28	0x3d6e9973	0.05825181
29	0x3d0da012	0.034576483
30	0x3d121139	0.035660956
31	0xbcfcad9b	-0.0308445
32	0x3dcb8c1c	0.09938833
33	0x3ccb7db7	0.024840219
34	0x3ca3795e	0.019955333
35	0xbd71b9c7	-0.05901506
36	0xbdda6a00	-0.10664749
37	0xbdc17170	-0.094454646
38	0xbcba6c24	-0.022756644
39	0xbd3166cc	-0.043310925
40	0xbd8443d8	-0.06458253
41	0x3d9ff4bd	0.07810352
42	0x3d7b2a47	0.061319616
43	0x3dabb150	0.08383429
44	0xbb67a599	-0.0035346507
45	0x3d4d2588	0.05008462
46	0xbd8a3ac1	-0.06749488
47	0xbde5544a	-0.111977175
48	0xbca4face	-0.020139124
49	0x3d878e34	0.0661892
50	0xbc5d8fe5	-0.013523077
51	0x3d8a9f0a	0.067686155
52	0xbace6cf6	-0.0015749026
53	0xbde242e6	-0.11047916
54	0x3d2c2ecc	0.042036816
55	0x3dbfdc97	0.09368246
56	0xb9a5f3df	-0.0003165295
57	0x3d6e3cef	0.05816358
58	0x3d724539	0.059148047
59	0x3cfa23a2	0.03053457
60	0x3d777888	0.060417682
61	0x3d65c964	0.056100264
62	0x3d36c2e1	0.044619445
63	0xbad212c7	-0.0016027325
64	0xbac29139	-0.0014844305
65	0xb76bb409	-1.4049009e-05
66	0xbbdba82c	-0.0067033973
67	0xbae526c3	-0.0017482865
68	0xbb5ad959	-0.003339371
69	0x3a04733d	0.0005052572
70	0xa29d4110	-4.2623823e-18
71	0xb623601f	-2.4344843e-06
72	0x3bda7554	0.0066668186
73	0x327866cc	1.4458873e-08
74	0xba6a0469	-0.0008927049
75	0x28a05cf4	1.780388e-14
76	0x2638b66a	6.408504e-16
77	0xb7affebc	-2.0980246e-05
78	0x3bcb0862	0.0061960677
79	0xb1ed79f8	-6.911474e-09
80	0x3acb7bd4	0.0015524575
81	0x349f2ea2	2.9649988e-07
82	0x3aefa0d5	0.0018282185
83	0xb3cfa29b	-9.6687664e-08
84	0x398e1631	0.00027100884
85	0xb096b8bb	-1.096644e-09
86	0x3c148b3c	0.009066399
87	0xb9120df6	-0.00013928846
88	0xbc0d1ece	-0.008613301
89	0x3bc5931f	0.006029501
90	0x3bf64733	0.007515812
91	0xac6d19e1	-3.3694091e-12
92	0x22c4b039	5.331249e-18
93	0x395a8d52	0.00020842746
94	0xa910b051	-3.2127353e-14
95	0xa121da6c	-5.4838e-19
96	0xbc13a300	-0.00901103
97	0x323f8fb9	1.1150342e-08
98	0xa39d7c76	-1.7074685e-17
99	0xa297cd56	-4.114604e-18
100	0xbbcf83b3	-0.0063328384
101	0x32a8de10	1.9658756e-08
102	0x3961915c	0.00021511823
103	0xa25990c0	-2.9485614e-18
104	0xa3c27a1f	-2.1085242e-17
105	0x3625b916	2.469465e-06
106	0xba499427	-0.0007689618
107	0x3aafb8d3	0.0013406522
108	0xa484f02c	-5.765274e-17
109	0x37a691b2	1.9856587e-05
110	0xa5280019	-1.457171e-16
111	0x3acc13a9	0.0015569824
112	0x283717fc	1.01637415e-14
113	0x26e5d182	1.5946854e-15
114	0x36fd56c6	7.5500893e-06
115	0x3bf83c30	0.0075755343
116	0x3b9afbf4	0.004729742
117	0x222f50a8	2.3759622e-18
118	0xb64cd164	-3.052025e-06
119	0x36e68084	6.8694953e-06
120	0x3c11759a	0.008878136
121	0xbc1d5469	-0.0096026445
122	0x2848dabd	1.11496616e-14
123	0x383a7ff6	4.446503e-05
124	0x386d89d6	5.6633573e-05
125	0x3b508969	0.0031820184
126	0x34ecf2be	4.4135044e-07
127	0xbc105eca	-0.008811662
128	0x39ae53d2	0.00033250317
129	0x3b9ce6a3	0.004788236
130	0x3b35544d	0.0027668655
131	0x3baef00c	0.0053386744
132	0xbc3adc9c	-0.011405136
133	0xbbad7242	-0.0052931616
134	0x3bfd5523	0.0077310964
135	0x3c282383	0.010262373
136	0x3b366787	0.0027832703
137	0x3b948418	0.0045323484
138	0x3b9ee23c	0.0048487466
139	0xbba4fcc5	-0.0050350153
140	0xbc3c753b	-0.011502559
141	0x3aeddd2c	0.0018147579
142	0x39c0f0c9	0.00036800493
143	0x3b65d57c	0.0035069874
144	0xbb8fab8e	-0.0043844646
145	0x3badea35	0.0053074607
146	0xb977157d	-0.0002356376
147	0xbbe18c9f	-0.0068832184
148	0xbc14b622	-0.009076627
149	0x3b534764	0.0032238597
150	0xba3a600c	-0.0007109649
151	0xbba84cbf	-0.005136102
152	0xbbcf4276	-0.0063250614
153	0x3c13bf85	0.00901783
154	0x3b928b66	0.004472184
155	0x3bb19b42	0.0054201195
156	0xbb0fcf7f	-0.0021943746
157	0x3baa1f4d	0.0051917196
158	0xba350f81	-0.00069069123
159	0x3c212b8e	0.009837044
160	0x3acd1e7f	0.0015649347
161	0xbbda6ef9	-0.006666061
162	0xbae9e3f0	-0.001784442
163	0xbb6a29e6	-0.003573054
164	0xbba9afe0	-0.0051784366
165	0x3b154123	0.002277442
166	0x3ba08e92	0.004899808
167	0xbb4d606e	-0.0031337994
168	0x3b4a1104	0.0030832896
169	0x3bb73ad7	0.005591731
170	0xbb78be42	-0.00379552
171	0xbb3b775e	-0.0028605084
172	0xbbae068d	-0.0053108395
173	0xbb556663	-0.0032562248
174	0xba7a01d8	-0.0009537018
175	0xbc8cf284	-0.017205484
176	0xbbaea796	-0.0053300364
177	0x3bb79e4a	0.0056035863
178	0xb9def6ca	-0.00042527012
179	0x3ba836e2	0.0051334957
180	0x3b281639	0.0025648011
181	0x3a683072	0.00088573166
182	0xb8c44ac4	-9.3599345e-05
183	0x3a0c82fc	0.00053600944
184	0xbb973040	-0.004613906
185	0x3b088ab3	0.0020834624
186	0x3aff3aa8	0.0019472437
187	0xba46e687	-0.0007587452
188	0xbb84577b	-0.004038749
189	0xbc565ef9	-0.013084167
190	0x3b09fa7e	0.0021053846
191	0xbb96da4d	-0.00460366
192	0x2a10ace1	1.2849749e-13
193	0xbaf600c4	-0.0018768539
194	0x2055a718	1.8097088e-19
195	0x3baf9821	0.0053587114
196	0xb8ee4a1b	-0.000113625276
197	0xba594fa8	-0.0008289763
198	0x31dd0fa0	6.433723e-09
199	0x3abb73c9	0.0014301474
200	0xade3b05f	-2.5885237e-11
201	0xb6d1a528	-6.247912e-06
202	0xb719de13	-9.171216e-06
203	0x335b0d11	5.1001795e-08
204	0xbaf8b40e	-0.0018974559
205	0xb370ffd8	-5.6112043e-08
206	0xa8981704	-1.6885371e-14
207	0xba37708d	-0.00069976674
208	0x3c097ac6	0.008391088
209	0x23f8cbe5	2.6974567e-17
210	0x3abcbbd1	0.0014399235
211	0xa280a1f0	-3.4865928e-18
212	0xb9ec46d0	-0.00045066187
213	0xb7db0314	-2.6108268e-05
214	0xb8dd37b6	-0.00010548478
215	0x39e3669e	0.0004337327
216	0xb6531cfb	-3.145832e-06
217	0xa5a91fe3	-2.9338434e-16
218	0x38de6641	0.00010604831
219	0xbb049312	-0.0020229262
220	0x2d9deb81	1.7953418e-11
221	0xa936fedb	-4.063317e-14
222	0x35fef96c	1.8997066e-06
223	0x388275de	6.2208375e-05
224	0xa7b52b89	-5.0284793e-15
225	0x389d91e3	7.513517e-05
226	0x345b67f3	2.0433781e-07
227	0x3606f18f	2.0108162e-06
228	0x1f075e57	2.8665398e-20
229	0x21e01e06	1.5186778e-18
230	0xba2bdef2	-0.0006556354
231	0x267bb7b2	8.733207e-16
232	0xb9934953	-0.00028092656
233	0xac3f9a72	-2.7228467e-12
234	0x21fdc666	1.7196462e-18
235	0xbae3e491	-0.0017386844
236	0xba5c9a6d	-0.0008415345
237	0x384027e0	4.5813504e-05
238	0xb3951511	-6.942185e-08
239	0xaddfb603	-2.5432994e-11
240	0x3aac5f10	0.001315089
241	0x3ad724d1	0.001641417
242	0xa52e66d6	-1.5126936e-16
243	0x292dc644	3.8585685e-14
244	0xadf68cc1	-2.802947e-11
245	0xbabb8fe4	-0.001430985
246	0x2baf229d	1.2444105e-12
247	0x39017ab5	0.0001234811
248	0x2205002f	1.8024958e-18
249	0x3c1b44c0	0.0094768405
250	0x2cab611c	4.8708936e-12
251	0xa5f1faf6	-4.1976894e-16
252	0xb79e0a18	-1.8839768e-05
253	0xb4662cc8	-2.143671e-07
254	0x20daed22	3.7087558e-19
255	0x35aa6c4c	1.2697506e-06

model_cnn.fc1.bias f4 [256]
0	0x3dc35e62	0.095394865
1	0xa9f1398a	-1.07125314e-13
2	0xbbbf55bf	-0.005839079
3	0xb3460b0c	-4.6110515e-08
4	0x3d1530af	0.03642338
5	0x3d75ed87	0.060040977
6	0xbbaf8263	-0.0053561195
7	0x3d3aa090	0.04556328
8	0xbce2db06	-0.02769233
9	0x3c9561b3	0.018235063
10	0xbb0a7349	-0.0021125844
11	0x3db4604b	0.08807429
12	0xbb9906ac	-0.004669985
13	0x3db6e9df	0.08931326
14	0xbbaf833f	-0.005356222
15	0x3cb6316f	0.022240369
16	0x3d43085e	0.0476154
17	0x3dbfea4b	0.0937086
18	0xbb8b92a1	-0.004259423
19	0x3de43464	0.11142805
20	0xbb7ea9d9	-0.0038858561
21	0x3d90c3b4	0.070685774
22	0x3d940adc	0.07228634
23	0x2b0b844a	4.956631e-13
24	0x3d73f8fc	0.059563622
25	0xbd898616	-0.06715028
26	0xbc70a8b9	-0.014688664
27	0xbdb7de7c	-0.089779824
28	0xbc4b900f	-0.012424483
29	0x3cdd4e33	0.027014827
30	0x3dd2e9b4	0.102984816
31	0xbb9fe891	-0.004880019
32	0xbbb0ee19	-0.005399477
33	0x3bebd7c5	0.0071973526
34	0x3d5a68a4	0.05332245
35	0x3d1b6a0a	0.037942924
36	0xbd76190f	-0.06008249
37	0x2dbed651	2.1695675e-11
38	0xbd33f45f	-0.043934222
39	0xbc251a47	-0.010077066
40	0x3bf68b32	0.0075239176
41	0x3e02643b	0.12733547
42	0xbad5a79e	-0.0016300564
43	0x25cca8a1	3.5502626e-16
44	0xbad6eb92	-0.001639711
45	0x3dd560ae	0.10418831
46	0xbd428838	-0.04749319
47	0xbbe0fcbc	-0.006866066
48	0xbc7c9876	-0.015417209
49	0x3da8fbcf	0.08251154
50	0xbbaa5dfe	-0.005199193
51	0x3d5cfe98	0.053953737
52	0xbbe4b79a	-0.006979895
53	0xbdba0f8a	-0.09084995
54	0x3cd4b32f	0.025964348
55	0x3c9e8426	0.019350123
56	0xbc0fb7e9	-0.008771875
57	0xbc4744d3	-0.012162405
58	0xba7dc430	-0.00096804183
59	0x22389968	2.5017863e-18
60	0x3d8ae1f6	0.0678138
61	0x2dd8819e	2.4613919e-11
62	0x3d9f71a0	0.07785344
63	0xbc4fe47f	-0.012688755
64	0x3de32ab8	0.11092132
65	0x3da79c9c	0.08184168
66	0xbd495d13	-0.049161028
67	0xbda97f3d	-0.08276222
68	0xbdb6e07f	-0.08929538
69	0x2c2048d3	2.2777793e-12
70	0xbda3c56b	-0.07996639
71	0xbc0fe19a	-0.008781815
72	0x3d880102	0.06640817
73	0x3ddcff75	0.10790912
74	0x3dd18864	0.102310926
75	0xbc088185	-0.008331661
76	0xbdd9dd5b	-0.10637923
77	0x3d120873	0.03565259
78	0xbd948ce1	-0.07253433
79	0xbcffc432	-0.031221483
80	0x3d1b2843	0.037880193
81	0xbc9bb8df	-0.019009052
82	0xbd3e2748	-0.04642418
83	0xa3415796	-1.0481098e-17
84	0xbc2ad8c0	-0.010427654
85	0xbc0f17e7	-0.008733726
86	0x3daf4d83	0.08559706
87	0xbb00fde8	-0.001968259
88	0xbd90e686	-0.07075219
89	0xbb8a7306	-0.0042251376
90	0xa22d9a8c	-2.3527688e-18
91	0x3dac8e8b	0.084256254
92	0xbbc85c52	-0.006114521
93	0x3d21f3ec	0.039539263
94	0xbbfeb2a8	-0.0077727623
95	0xbb03d89c	-0.0020118123
96	0xbb21f3bb	-0.0024711925
97	0x22de81b6	6.0310557e-18
98	0x3c7a6060	0.015281767
99	0x3dc86bcb	0.09786185
100	0x3d8d0081	0.06884862
101	0x29fe6609	1.1297566e-13
102	0xbd1d968b	-0.038473647
103	0x3bb52652	0.00552825
104	0x3d9ebd6a	0.077509716
105	0x3dbaba5e	0.09117578
106	0x3d3b42d9	0.045718048
107	0xbbc81a5e	-0.006106659
108	0x3d99449e	0.07483791
109	0x3d401afb	0.04690073
110	0x3d6bc941	0.057564978
111	0x3df5c672	0.12000741
112	0x3c49b718	0.012311719
113	0xbdd3de1d	-0.10345099
114	0x39610d60	0.00021462655
115	0x3dce3196	0.100680515
116	0x3d82c440	0.06385088
117	0x3d7a2f3a	0.061080195
118	0xa51d5a44	-1.3648162e-16
119	0x3b06e30b	0.0020582105
120	0xbb46427d	-0.0030252032
121	0xbc0711d3	-0.008243996
122	0x3cca4699	0.024691867
123	0xbd8fc211	-0.07019437
124	0x3d6683ea	0.056278147
125	0xba3a07db	-0.00070965075
126	0xbc8757ee	-0.01652142
127	0xbbcbbbb8	-0.006217446
128	0xbdeb695b	-0.11494704
129	0x3deafc55	0.1147391
130	0x3db981ef	0.09057986
131	0x3c1019c5	0.008795206
132	0xbd610e82	-0.054945476
133	0x2c261d11	2.3606154e-12
134	0x3d335332	0.043780513
135	0xbbb93c12	-0.005652913
136	0x3dd02f99	0.101653285
137	0xbcefe405	-0.029283533
138	0xba408240	-0.00073436275
139	0xbdd21647	-0.10258155
140	0x3b4ff9a9	0.0031734502
141	0xbab884b6	-0.0014077637
142	0xbb47fbfe	-0.003051519
143	0x3d2a7a59	0.041620586
144	0x3bfe6ea9	0.0077646566
145	0xbc5099b2	-0.012731956
146	0x3dc141c4	0.09436372
147	0xbb170c7c	-0.0023048213
148	0x3da55eca	0.0807472
149	0x31c4adb5	5.724099e-09
150	0xbceb8256	-0.028748672
151	0x3d104ed5	0.03523143
152	0x3d342b5d	0.043986667
153	0xbb8ea3fb	-0.004353044
154	0x3df29961	0.11845661
155	0xbcc01df7	-0.023451788
156	0xbb642e96	-0.0034817806
157	0xbcc078b6	-0.02349506
158	0x3d924b86	0.07143311
159	0x3db322e1	0.08746887
160	0xbc8794de	-0.016550478
161	0xbd8d9e5a	-0.06914969
162	0x3d53c41b	0.051700693
163	0xba960b83	-0.0011447523
164	0x3d77f823	0.060539376
165	0x3b954fde	0.00455664
166	0x3c19ebcf	0.0093946
167	0x3dc22889	0.09480388
168	0x3dc6a6a4	0.09699753
169	0xbca86a49	-0.020558493
170	0xbc9972fe	-0.01873159
171	0xbbc5d20e	-0.0060370034
172	0x3c668e2f	0.014071985
173	0xbab8e134	-0.0014105202
174	0x3d05bf0f	0.03265291
175	0x3da04cab	0.07827123
176	0x3d037668	0.032095343
177	0xbdba8f79	-0.091093965
178	0xbc417bc2	-0.011809291
179	0xbb2d5027	-0.002644548
180	0xbcb52411	-0.022111924
181	0x3d7758e5	0.06038751
182	0xa4706524	-5.2127374e-17
183	0xbbe2b0cd	-0.006918049
184	0x3ce05e2b	0.027388653
185	0xbb25aa19	-0.0025278388
186	0xbbb82dce	-0.0056206947
187	0x3dbda82b	0.09260591
188	0xbc896a6d	-0.01677438
189	0xbdbb5ca1	-0.09148527
190	0x3a4d156c	0.00078233215
191	0x3dec6c9a	0.115441516
192	0xbc2ce908	-0.010553606
193	0x3dd3393b	0.1031365
194	0x3d1f1e7e	0.03884744
195	0xbac6b0db	-0.0015158908
196	0xa9f7f6b3	-1.1011799e-13
197	0x223c418e	2.5513455e-18
198	0xbd11bcc3	-0.035580408
199	0x284ac6cf	1.1256362e-14
200	0x24c463f0	8.517075e-17
201	0xbc05bb38	-0.008162312
202	0xbc02d484	-0.007985238
203	0x3d44a6a9	0.048010502
204	0xbbad5445	-0.0052895867
205	0x3dceafb4	0.100921065
206	0xbb286c9b	-0.00256995
207	0xa3465763	-1.0752106e-17
208	0xbd4e19d1	-0.05031759
209	0x3da7bd7f	0.081904404
210	0x3e02942f	0.1275184
211	0x3cec42cb	0.028840443
212	0xbbf11f12	-0.00735844
213	0xa83ad5e4	-1.0371454e-14
214	0x368cc159	4.1948338e-06
215	0x3b66ce1d	0.0035218068
216	0x3c962190	0.01832655
217	0xb85e37ad	-5.2980777e-05
218	0xbb95082e	-0.0045480942
219	0xbc24e983	-0.010065439
220	0xbbac1276	-0.005251224
221	0xbb9a2bf3	-0.004704946
222	0x3ab2d169	0.0013642731
223	0xbda29909	-0.079393454
224	0xbbf82d01	-0.0075737243
225	0x3d26e388	0.040744334
226	0xa6edeb91	-1.6509029e-15
227	0x3d684e2e	0.056715183
228	0xbc396db3	-0.011317658
229	0x22bb26d5	5.0727567e-18
230	0xbcb42498	-0.021990106
231	0xbd0a098a	-0.033700503
232	0xbc13236a	-0.008980611
233	0xbc4e2320	-0.012581617
234	0xbc93c53e	-0.018038388
235	0x3d76246b	0.060093325
236	0x3d79b928	0.060967594
237	0x3d02b739	0.031913016
238	0xbd4b0410	-0.04956442
239	0xb393c20c	-6.880518e-08
240	0xbd40b56d	-0.04704802
241	0x3df18920	0.11793733
242	0x3dab2373	0.08356371
243	0x3bdde034	0.006771112
244	0xbb7b4ca2	-0.0038345237
245	0x3ca2d78d	0.019878173
246	0x3b0d4eea	0.002156193
247	0xbc898750	-0.016788155
248	0x3b01d392	0.0019809944
249	0xbbdbd0ff	-0.006708264
250	0xb9ad476f	-0.00033050354
251	0xbd2c1a67	-0.042017367
252	0x3dd7bbe7	0.105338864
253	0x3d355358	0.044268936
254	0xbbd1850e	-0.006394035
255	0xb738d50a	-1.1016857e-05

model_cnn.classifier.weight f4 [5, 256]
0	0xbb6f9a80	-0.0036560595
1	0xbcd229c4	-0.025654681
2	0x3d253338	0.04033205
3	0xbcc9269c	-0.024554543
4	0xbd39f562	-0.04540003
5	0x3c909930	0.01765117
6	0xbc415ec8	-0.011802383
7	0xbca7cf78	-0.020484671
8	0x3d19326c	0.0374016
9	0xbd6f9434	-0.058490947
10	0x3c9a836c	0.018861495
11	0xbd3bce3e	-0.045850985
12	0xbcea2acc	-0.02858486
13	0xbd202202	-0.039094932
14	0x3d3a65e6	0.045507334
15	0xbbc752e0	-0.0060828775
16	0xbb08e2c0	-0.0020887107
17	0x3d700ccc	0.058605954
18	0xbd3ebc32	-0.046566196
19	0x3d5e4b2c	0.05427091
20	0x3d6cf52e	0.05785101
21	0xbc9098a4	-0.01765091
22	0x3d4acdf4	0.04951282
23	0xbcb280d8	-0.021789953
24	0xbd2f5696	-0.042807184
25	0x3c34d3e8	0.0110368505
26	0x3ce8c248	0.028412953
27	0x3d5caca8	0.053875595
28	0x3bc4ab90	0.006001897
29	0x3b4ff0c0	0.0031729192
30	0x3c9848c4	0.018589385
31	0xbcb240c8	-0.021759406
32	0xbc8435e8	-0.016138986
33	0x3b3189c0	0.0027090162
34	0x3d176a46	0.036966585
35	0xbc3da8e0	-0.0115759075
36	0x3d536366	0.051608466
37	0x3d07e704	0.033179298
38	0xbd6c0a64	-0.057627097
39	0xbd140d6a	-0.036145605
40	0xbcead144	-0.028664239
41	0x3ceec5b8	0.029147014
42	0x3c85f7b8	0.016353473
43	0x3cf43674	0.029811122
44	0xbca7b264	-0.020470805
45	0xbd1bb45c	-0.0380138
46	0xbd15e580	-0.03659582
47	0x3d14d26a	0.03633348
48	0x3c9a6564	0.018847175
49	0xbc9bb5e8	-0.019007638
50	0x3c96b25c	0.018395595
51	0xbd65c772	-0.05609841
52	0xbd71663c	-0.05893539
53	0x3d7abee8	0.06121722
54	0xbc21ffa0	-0.009887606
55	0x3d3590a4	0.044327393
56	0x3d1d70a8	0.038437515
57	0x3d3d6f34	0.04624863
58	0x3ab90240	0.001411505
59	0xbd27181e	-0.040794484
60	0xbd438c68	-0.047741324
61	0xbd4bab2c	-0.04972379
62	0xbcd272e8	-0.025689557
63	0xbd0170ee	-0.03160184
64	0x3d7d759a	0.06187973
65	0x3d2ebdca	0.042661466
66	0x3ca3b2e8	0.01998277
67	0xbd7abf3a	-0.061217524
68	0xbc42d970	-0.011892661
69	0x3d52f226	0.051500462
70	0xbd0ec382	-0.03485442
71	0xbd039338	-0.03212282
72	0x3bb6cda0	0.0055787116
73	0xbd09575a	-0.03353057
74	0xbb7d0860	-0.0038609728
75	0x3c942358	0.01808326
76	0x3d3531e0	0.044237018
77	0x3c102a40	0.008799136
78	0x3ccb2dec	0.02480217
79	0x3d512f80	0.05107069
80	0x3d009e90	0.031401217
81	0xbd791342	-0.06080938
82	0xbd496df2	-0.049177118
83	0xbd698522	-0.05701173
84	0xbcb4c6c4	-0.022067435
85	0x3d7e55f8	0.062093705
86	0xbd770118	-0.060303777
87	0x3c0368a0	0.00802055
88	0xbd622862	-0.055214293
89	0xbd01b6e0	-0.031668544
90	0x3d755fa6	0.05990567
91	0x3d6f21ac	0.05838172
92	0xbd112108	-0.03543189
93	0x3a6f3580	0.00091250986
94	0xbcdff770	-0.027339667
95	0xbc9557a0	-0.01823026
96	0xbc5816b0	-0.013189003
97	0x3c9c0184	0.019043691
98	0x3d474c4e	0.048656754
99	0xbc4fe3f0	-0.012688622
100	0xbd29b406	-0.04143145
101	0xbd56e33c	-0.0524628
102	0xbcc679b0	-0.024227947
103	0xbce03e2c	-0.027373396
104	0xbd795c64	-0.060879126
105	0xbcbdccb0	-0.023168892
106	0xbcd26ae4	-0.025685735
107	0x3d7c4902	0.061593063
108	0x3cdc64cc	0.026903532
109	0xbd311ebe	-0.04324221
110	0xbd13e87e	-0.036110394
111	0x3caeaeb8	0.021323547
112	0x3d1d2372	0.03836388
113	0xbb87fa70	-0.0041497275
114	0xb83ea800	-4.5455992e-05
115	0x3ce435dc	0.027857713
116	0xbcaf2ba4	-0.021383114
117	0xbd7c44b4	-0.061588958
118	0x3cbc7bf8	0.023008332
119	0x3d6f19f4	0.05837436
120	0xbcdfb4bc	-0.02730786
121	0x3d580150	0.052735627
122	0xbc22bb30	-0.009932324
123	0x3d34f4ba	0.044178702
124	0x3d08bd78	0.033383816
125	0x3d49547e	0.049152844
126	0xbd55990e	-0.052147917
127	0x3cfa47f8	0.030551895
128	0x3d1ad7ae	0.037803344
129	0x3c112d68	0.008860923
130	0xbc507f28	-0.012725629
131	0xbd1ce4b4	-0.038304046
132	0x3cc48048	0.02398695
133	0x3b8ed1c0	0.0043585002
134	0xbccd1510	-0.025034457
135	0x3d071792	0.032981463
136	0x3c8aa5e4	0.016924806
137	0x3d7a9bf4	0.061183885
138	0x3d3625ea	0.04446975
139	0x3d0c35be	0.03423094
140	0x3c828344	0.015931733
141	0x3d2068a4	0.039162293
142	0xba992dc0	-0.0011686608
143	0xbcb5f728	-0.02221258
144	0xbd0adbb6	-0.03390094
145	0xbc969150	-0.018379837
146	0x3c8b5410	0.017007858
147	0x3bbfd410	0.0058541372
148	0x3ccd8188	0.02508618
149	0x3cfbe790	0.030750066
150	0x3d131834	0.035911754
151	0xbc3e8ef8	-0.011630766
152	0x3c6fba78	0.01463186
153	0x3d47a85e	0.04874455
154	0x3c1b7650	0.009488657
155	0xbcec524c	-0.028847836
156	0xbd108c58	-0.035290092
157	0xb995d500	-0.00028578192
158	0x3c3673f0	0.01113604
159	0xbd11c798	-0.035590738
160	0xbabb2340	-0.0014277473
161	0x3d33ad04	0.043866172
162	0xbcf86d3c	-0.030325525
163	0x3d6e7fa2	0.05822719
164	0xbd75c32a	-0.060000576
165	0x3c919c0c	0.017774604
166	0xbd627b6e	-0.055293493
167	0xbd2a04bc	-0.04150842
168	0xbd5395f8	-0.051656693
169	0xbb8d7ea0	-0.0043180734
170	0x3d20cd2c	0.039258167
171	0x3b29f380	0.002593249
172	0xbd47936e	-0.048724584
173	0x3b00a120	0.0019627288
174	0x3c9829d0	0.018574625
175	0x3d6bf2a6	0.057604454
176	0xbd484bc6	-0.04890039
177	0x3d76cfdc	0.060256824
178	0xbcab1d40	-0.02088797
179	0xbc50ac68	-0.012736417
180	0xbc0fc940	-0.008776009
181	0x3ce2f048	0.027702466
182	0xbc84795c	-0.01617115
183	0xbb098ee0	-0.00209897
184	0xbd2ec448	-0.042667657
185	0xbb84a960	-0.0040485114
186	0x3d3e75c6	0.046499036
187	0x3d3d37b0	0.046195686
188	0x3d22a036	0.03970357
189	0xbcfc5e74	-0.030806758
190	0xbc849c44	-0.016187795
191	0xbcccb6e4	-0.024989553
192	0x3d1def18	0.038558096
193	0x3d6e3aa0	0.058161378
194	0x3d72bd40	0.059262514
195	0x3c3fcae8	0.011706091
196	0xbd637350	-0.055529892
197	0xbba2d860	-0.0049696416
198	0x3b75aee0	0.0037488267
199	0x3d216ad8	0.039408535
200	0xbcae2364	-0.02125711
201	0x3d30bdee	0.04314988
202	0x3d0f561a	0.034994222
203	0xbd4fe2fa	-0.05075357
204	0x3d5ec978	0.054391354
205	0x3cd4cb74	0.02597592
206	0xbd56e52c	-0.05246465
207	0x3d1689ea	0.03675262
208	0xbd37cd1e	-0.04487335
209	0xbca28d2c	-0.019842707
210	0x3c763c88	0.01502908
211	0xbc072c80	-0.008250356
212	0xbc723370	-0.0147827715
213	0x3d2e4cd4	0.042553738
214	0x3d2c6ef2	0.042097993
215	0x3d1c33f8	0.0381355
216	0xbc6d1be0	-0.014471978
217	0x3d634634	0.055486873
218	0xbd1b3e04	-0.03790094
219	0xbc86ba1c	-0.016446166
220	0x3d587d58	0.052853912
221	0x3d3c98d0	0.04604417
222	0xbd6af8e4	-0.057366267
223	0xbcb35eac	-0.021895729
224	0x3d3aa40e	0.04556661
225	0xbd71d08a	-0.05903677
226	0xbb3abee0	-0.0028495118
227	0xbd6db152	-0.058030434
228	0x3a87ef00	0.001037091
229	0xbb958890	-0.0045633987
230	0x3d3e3446	0.04643657
231	0xbd7c1e62	-0.061552413
232	0xbd136d9c	-0.035993204
233	0x3c9b6278	0.018967852
234	0xbd7e8b26	-0.06214442
235	0x3cdb479c	0.026767544
236	0x3ce38c4c	0.02777686
237	0xbd72c9f4	-0.05927463
238	0xbd3e917c	-0.046525463
239	0x3b03da60	0.0020119175
240	0xbd5f79a8	-0.05455938
241	0xbaa87640	-0.0012852624
242	0xbd6b99fc	-0.057519898
243	0xbcb61678	-0.02222751
244	0xbc49c4d8	-0.012314998
245	0xbd1d6e08	-0.038435012
246	0xbb479560	-0.0030454025
247	0xbd489c82	-0.048977382
248	0x3d54f824	0.051994458
249	0xbca71510	-0.020395786
250	0xbd37b120	-0.044846654
251	0xbd11726c	-0.03550951
252	0x3ca2ce18	0.019873664
253	0x3d527052	0.05137665
254	0xbd3bbf14	-0.045836523
255	0x3c05e140	0.00817138

model_cnn.classifier.bias f4 [5]
0	0xbcdce594	-0.02696494
1	0xbccb3f80	-0.024810553
2	0xbc771528	-0.015080728
3	0xbcf4fad4	-0.02990476
4	0xbcfd9050	-0.030952603

model_cnn.domain_classifier.weight f4 [2, 256]
0	0xbbc340e0	-0.0059586614
1	0x3cc60ed8	0.024177
2	0x3c97a710	0.018512279
3	0xbd6a15aa	-0.057149567
4	0xbd42fe08	-0.047605544
5	0xbd2ba890	-0.0419088
6	0xbd5c390a	-0.053765334
7	0x3d043db4	0.032285407
8	0x3c0da400	0.008645058
9	0x3c8db6c8	0.017299071
10	0x3d799508	0.060933143
11	0x3d0f022c	0.03491418
12	0x3d720b8e	0.05909305
13	0x3c0f4238	0.008743815
14	0xbb25ebc0	-0.002531752
15	0x3c511b90	0.012762919
16	0xbd4c984e	-0.049949937
17	0x3d58b9f6	0.05291172
18	0x3d3c6c7c	0.046001896
19	0xbd320d70	-0.043469846
20	0xbd192e50	-0.037397683
21	0x3d7d7798	0.06188163
22	0x3d1d2c1c	0.038372144
23	0x3c6302d8	0.0138556585
24	0xbcf68888	-0.0300944
25	0x3c828074	0.015930392
26	0xbcf1aed4	-0.02950231
27	0xbd5f17c4	-0.054466024
28	0xbd324936	-0.04352685
29	0x3d09b84c	0.033623025
30	0xbd1e6c2c	-0.03867738
31	0xbd30d9fc	-0.043176636
32	0x3c8dfd24	0.01733262
33	0xbd5e9e0c	-0.054349944
34	0xbcb21610	-0.021739036
35	0x3d73fb22	0.05956567
36	0x3d57aa0c	0.052652404
37	0xbd3f1fa4	-0.046661034
38	0xbb8fdca0	-0.004390314
39	0x3b831670	0.0040004775
40	0xbb90b590	-0.004416175
41	0x3c0b6788	0.0085085705
42	0x3c7183e8	0.014740922
43	0x3d405a64	0.046961203
44	0xbc086290	-0.00832428
45	0xbceb2eb0	-0.028708786
46	0xbcce7494	-0.025202073
47	0xbd64d2f2	-0.055865236
48	0xbd47d8ee	-0.048790865
49	0x3d58244c	0.05276899
50	0xbd06adc8	-0.032880574
51	0x3ab973c0	0.0014148876
52	0x3d4870c2	0.04893566
53	0xbd57e124	-0.052704945
54	0x3ced33a4	0.028955288
55	0x3c610150	0.013733223
56	0x3c28f930	0.010313317
57	0x3cef2f48	0.02919735
58	0xbc127048	-0.008937903
59	0x3d2e94aa	0.042622246
60	0xbd121862	-0.035667785
61	0x3d039196	0.032121263
62	0x3d60387c	0.054741368
63	0x3d418c4c	0.04725294
64	0xbd2f14c2	-0.042744406
65	0x3c4e0b38	0.012575917
66	0xbd287c12	-0.041133948
67	0x3b5b0e20	0.0033425167
68	0x3bc74020	0.0060806423
69	0xbd1979a4	-0.03746952
70	0x3d2f51c4	0.042802587
71	0x3d5c7302	0.053820617
72	0x3d518fb2	0.05116243
73	0xbd60b9f4	-0.05486484
74	0x3d1b0006	0.03784182
75	0xbd1bbd68	-0.03802243
76	0x3d0e5efc	0.034758553
77	0x3d3568d2	0.044289418
78	0x3c848f9c	0.01618176
79	0x3d133f0c	0.035948798
80	0x3c216cf0	0.009852633
81	0x3cc25b08	0.023725048
82	0x3d6d996a	0.058007635
83	0xbd6f7374	-0.058459714
84	0x3c929f1c	0.017898135
85	0x3c3540f8	0.011062853
86	0x3b9ed5a0	0.0048472434
87	0xbd68150a	-0.05666069
88	0xbd2dabb0	-0.042400062
89	0xbcc97ecc	-0.024596594
90	0xbb995b40	-0.0046800673
91	0x3cdaf02c	0.026725851
92	0x3cd2742c	0.02569016
93	0x3bf185e0	0.0073706955
94	0xbd11f546	-0.0356343
95	0x3aab0d00	0.0013050139
96	0xbcc47b74	-0.023984648
97	0x3cf98348	0.030458108
98	0xbb8b4a60	-0.0042508096
99	0x3d70dcb4	0.05880423
100	0xbd47f472	-0.048817106
101	0xbd4d5c36	-0.050136767
102	0xbd10e0f2	-0.035370775
103	0xbd094a2e	-0.03351801
104	0x3c7484d0	0.014924243
105	0x3c1e4dc8	0.009662099
106	0x3d2d0ff2	0.042251535
107	0xbd5f2f5c	-0.054488525
108	0xbc517f10	-0.012786642
109	0x3d4bcac4	0.04975392
110	0xbd049db8	-0.032376975
111	0xbb907140	-0.0044080317
112	0x3d1817ae	0.037131958
113	0x3cf4baf8	0.02987431
114	0x3d18dd62	0.037320502
115	0xbd38b4b0	-0.045094192
116	0x3bb00d60	0.005372688
117	0x3bb89c40	0.005633861
118	0xbc9f68d4	-0.019459166
119	0x379bc000	1.8566847e-05
120	0x3c9a0c48	0.018804684
121	0x3cc534ac	0.024072967
122	0x3cbd0f54	0.023078598
123	0xbd27db8c	-0.04098086
124	0xbd0814ae	-0.033222847
125	0x3d2d509e	0.04231321
126	0xbd64104a	-0.055679597
127	0xbae0d8c0	-0.001715444
128	0xbca81944	-0.02051986
129	0x3d1fbb72	0.03899712
130	0x3ca23918	0.019802615
131	0x3bee0700	0.007264018
132	0x3ba607d0	0.0050668493
133	0x3d13b604	0.036062256
134	0x3c8f3d80	0.01748538
135	0xbc773878	-0.015089147
136	0xbd7f1d5e	-0.062283866
137	0xbbbb4a20	-0.0057156235
138	0xbd1af050	-0.037826836
139	0xbbb920d0	-0.0056496635
140	0x3ccf1b78	0.025281653
141	0xbd25ff40	-0.04052663
142	0x3c932014	0.017959632
143	0xbd5a7cec	-0.05334179
144	0xbbe364e0	-0.0069395155
145	0xbd3304f6	-0.043705903
146	0xbc6d6340	-0.014488995
147	0xbd5c5cbe	-0.053799383
148	0xbd3694a4	-0.04457535
149	0x3cf98640	0.030459523
150	0xbd09f8d4	-0.033684567
151	0x3b4eb940	0.0031543523
152	0xbd63a762	-0.05557955
153	0xbbea30d0	-0.007146932
154	0xbd67f626	-0.05663123
155	0x3b696380	0.0035612285
156	0x3cbed7e4	0.023296304
157	0x3d7519f4	0.059839204
158	0xbce73be0	-0.028226793
159	0xbcf48a00	-0.02985096
160	0x3d66b38c	0.056323573
161	0xbc2e1898	-0.010625981
162	0x3bee0720	0.007264033
163	0xbc8ced20	-0.017202914
164	0xbb426c60	-0.0029666647
165	0x3bad8890	0.0052958205
166	0x3d49f628	0.04930702
167	0xbc5bbcf8	-0.013411753
168	0xbd02fc16	-0.03197869
169	0x3c98f674	0.018672206
170	0xbcccdb70	-0.02500698
171	0xbc83eac0	-0.016103148
172	0xbd70434c	-0.05865793
173	0x3d6c6438	0.057712764
174	0xbd77f640	-0.060537577
175	0x3d231fca	0.03982524
176	0x3d3526c2	0.044226415
177	0xbcb7e060	-0.022445858
178	0x3c9b9350	0.018991143
179	0xbc9a9270	-0.018868655
180	0xbbebe840	-0.007199317
181	0x3c736eb8	0.01485794
182	0xbd6eade4	-0.058271304
183	0x3d65f5b2	0.056142516
184	0xbb7581c0	-0.003746137
185	0x3c4f0a40	0.012636721
186	0x3c6db5d0	0.0145086795
187	0xbb6555e0	-0.0034993812
188	0xbd3dc634	-0.0463316
189	0x3c852218	0.016251609
190	0x3c548c98	0.012972973
191	0x3d6cb20c	0.057786986
192	0xbc974434	-0.018465139
193	0xbc969dc8	-0.018385783
194	0x3c3e0b08	0.01159931
195	0x3cda1644	0.026621945
196	0xbd6da9ca	-0.05802325
197	0x3d7bc50e	0.061467223
198	0xbd501c0a	-0.05080799
199	0x3c74bc30	0.0149374455
200	0x3bcfa7d0	0.0063371435
201	0x3d772074	0.060333684
202	0x3d0eba4c	0.034845635
203	0x3cb56190	0.022141248
204	0x3cc7d700	0.024394512
205	0xbd482300	-0.048861504
206	0x3d42e8bc	0.047585234
207	0xbcad8ae4	-0.021184392
208	0x3cca5a64	0.024701305
209	0x3aaf0400	0.0013352633
210	0xbc099860	-0.008398145
211	0x3d7b83ca	0.06140498
212	0xbc24dbd8	-0.01006218
213	0xbd6645fa	-0.05621908
214	0x3b9a2350	0.0047039166
215	0x3d63ccd0	0.055615246
216	0xbc586e10	-0.013209835
217	0xbd78d720	-0.060752034
218	0x3ba7a410	0.0051159933
219	0x3cdb375c	0.026759796
220	0xbd19b8d2	-0.037529774
221	0xbc011440	-0.007878363
222	0x3c9e4a8c	0.019322656
223	0xbc56ab70	-0.013102397
224	0x3ab9e800	0.0014183521
225	0x3d018c04	0.03162767
226	0xbca496c0	-0.020091414
227	0x3d0b906c	0.03407328
228	0x3c8ae80c	0.016956352
229	0xbd333b58	-0.043757766
230	0x3bbd63a0	0.0057796985
231	0xbd368aa2	-0.044565804
232	0xbd5f521e	-0.054521672
233	0x3d714514	0.05890377
234	0xbd2fc4e2	-0.04291237
235	0xbd5ef9b2	-0.054437347
236	0x3c7d3b00	0.015455961
237	0xbd47131e	-0.048602216
238	0xbcd49fe0	-0.02595514
239	0xbd228a08	-0.039682418
240	0x3d0a2e5e	0.033735625
241	0xbcfc41a0	-0.030793011
242	0x3c5cb3e8	0.013470627
243	0x3d35145e	0.044208877
244	0xbd62c8be	-0.055367224
245	0x3d65126a	0.055925764
246	0xbcdac764	-0.026706405
247	0xbd76b4b8	-0.06023094
248	0xbb8b70e0	-0.004255399
249	0xbd5da742	-0.054114588
250	0x3d0dd46e	0.034626417
251	0xbbbfe900	-0.005856633
252	0x3bc156e0	0.005900249
253	0xbd593bda	-0.053035595
254	0x3b0e99c0	0.0021759123
255	0xbd463f62	-0.04840029

model_cnn.domain_classifier.bias f4 [2]
0	0x3aab76c0	0.0013081655
1	0xbbd7b160	-0.006582424
