checkpoint/pretrain_WideResNet_sa_fcg_1116/best_model.pth (torch, 331746 bytes, 78 tensors)

conv1.weight f4 [16, 21, 3]
0	0x3cc7a244	0.024369366
1	0xbe206ef8	-0.15667331
2	0x3cff12f4	0.031136967
3	0xbe03ba43	-0.12864022
4	0x3e8bbb33	0.2729126
5	0x3d659cd1	0.056057755
6	0x3c66aaf2	0.0140788425
7	0x3d9e3064	0.077240735
8	0x3e88133a	0.2657717
9	0xbdda8f5c	-0.10671875
10	0xbecab888	-0.3959391
11	0x3e603e2f	0.21898721
12	0x3ee6f916	0.45111912
13	0x3d7981ed	0.060914923
14	0x3da04bdb	0.07826968
15	0xbeb8f9d6	-0.3612811
16	0xbd16ff0c	-0.036864325
17	0xbe255daa	-0.16149011
18	0x3e58ffb7	0.21191297
19	0x3e1b3405	0.15156563
20	0xbd1fb057	-0.03898653
21	0x3de02e1f	0.10946297
22	0xbd41f978	-0.047357053
23	0x3c934ac9	0.017979996
24	0x3bdae494	0.0066800807
25	0xbe8acac9	-0.27107838
26	0x3e51758d	0.20454998
27	0xbe1c9379	-0.15290631
28	0xbed5cc6d	-0.41757527
29	0xbe631bf2	-0.22178629
30	0x3d837ead	0.06420646
31	0xbe39136e	-0.18073818
32	0xbebb8337	-0.36623546
33	0x3e9b10e8	0.30286336
34	0xbd330e36	-0.043714724
35	0x3e989706	0.29802722
36	0xbe5595bd	-0.20857902
37	0x3e6cfd35	0.23143466
38	0x3eefe261	0.468524
39	0xbda35a82	-0.07976247
40	0xbd45051c	-0.048100576
41	0xbe1a00fd	-0.1503944
42	0x3d25acff	0.040448185
43	0x3e1594e9	0.14607586
44	0x3e74ae84	0.23894697
45	0x3d82a459	0.06379003
46	0xbdf34879	-0.118790574
47	0xbddabad3	-0.10680165
48	0xbe5cf45c	-0.2157759
49	0x3e90f2a9	0.28310135
50	0x3e35e898	0.17764509
51	0xbdb65bc4	-0.08904222
52	0x3e8f8e44	0.28038228
53	0xbe8f2ca2	-0.2796374
54	0xbe84d20f	-0.25941512
55	0xbe57d12a	-0.21075884
56	0xbec143c5	-0.37747017
57	0xbd940f3c	-0.07229468
58	0xbec37522	-0.38175303
59	0xbe017022	-0.12640432
60	0x3d91ecae	0.07125221
61	0x3dd0a97b	0.10188576
62	0x3e0bd57f	0.13655661
63	0x3ea61229	0.3243573
64	0xbece4b61	-0.40291885
65	0xbe30e97f	-0.17276572
66	0xbd041a35	-0.032251555
67	0xbd857992	-0.06517328
68	0xbeab4d51	-0.33457425
69	0x3e1b6d0f	0.15178321
70	0x3e93ce82	0.2886849
71	0x3e7fd94c	0.24985236
72	0xbd438c22	-0.047741063
73	0xbd138af1	-0.036021177
74	0x3e81a819	0.2532356
75	0xbd7ba374	-0.061435178
76	0xbd87ee91	-0.066373
77	0xbe798b82	-0.24369624
78	0xbd076fd6	-0.03306564
79	0x3e1854ac	0.1487605
80	0x3e265cba	0.1624631
81	0x3d32aa0c	0.0436192
82	0xbd1c3657	-0.03813776
83	0xbd0a6c1e	-0.033794515
84	0x3e357b4a	0.17722812
85	0xbe5d1494	-0.21589881
86	0x3d937140	0.07199335
87	0xbe1bce24	-0.15215355
88	0x3dd3b9fd	0.10338209
89	0xbe898dbb	-0.26865944
90	0x3d9aa71c	0.07551405
91	0xbc7cdb86	-0.015433198
92	0x3e2602ed	0.16212054
93	0x3e00e837	0.12588583
94	0xbe11e5d2	-0.14247826
95	0xbe156d17	-0.14592396
96	0x3e742f34	0.23846132
97	0x3e3d0145	0.18457516
98	0x3e9a275e	0.3010816
99	0x3ea8e2cc	0.32985532
100	0x3e85782d	0.2606825
101	0xbd16d7d9	-0.036826942
102	0xbe6e0877	-0.23245417
103	0x3e051630	0.12996745
104	0xbe84100d	-0.25793496
105	0xbea5bd2c	-0.3237089
106	0x3eb5ace0	0.35483456
107	0x3e37e060	0.17956686
108	0x3d62cd6b	0.055371683
109	0xbd81546f	-0.063149326
110	0x3e91d935	0.28486028
111	0xbef4b11a	-0.47791368
112	0xbe0ee7a7	-0.13955556
113	0x3eabff3e	0.33593172
114	0xbd1fad54	-0.038983658
115	0xbe685f84	-0.22692686
116	0xbc2de55c	-0.010613766
117	0x3cfc1247	0.030770434
118	0xbe989ee7	-0.29808733
119	0xbe2052ad	-0.15656538
120	0xbd225a4f	-0.039636906
121	0x3de18089	0.11010844
122	0x3dfad7cf	0.122481935
123	0xbe659b89	-0.22422613
124	0xbe38647c	-0.18007082
125	0xbe8a3bc5	-0.26998726
126	0xbe90dba3	-0.2829257
127	0xbec0c571	-0.37650636
128	0xbe10d48c	-0.1414358
129	0xbe51dd2b	-0.20494525
130	0xbe0f3246	-0.13984022
131	0xbf108957	-0.56459564
132	0xbe55bef4	-0.20873624
133	0xbe5491f2	-0.20758799
134	0xbe65a845	-0.22427471
135	0xbd55b61e	-0.052175634
136	0x3b7caadc	0.0038553989
137	0xbe209c40	-0.15684605
138	0x3d86aca2	0.06575896
139	0x3dc27e6a	0.09496768
140	0x3e909745	0.2824041
141	0xbe8768ba	-0.26447088
142	0xbeb664a0	-0.35623646
143	0x3ea1f2d6	0.31630582
144	0x3dace0d6	0.084413216
145	0x3c7df000	0.015499115
146	0xbd8663bb	-0.06561991
147	0xbc886767	-0.016650869
148	0xbe8ffe85	-0.2812387
149	0xbe395704	-0.180996
150	0xbe33f705	-0.17574699
151	0xbe0171e6	-0.12641105
152	0xbeae741c	-0.3407296
153	0xbe3a4e5e	-0.18193957
154	0xbbfc80db	-0.0077057905
155	0xbedd1a8a	-0.4318431
156	0x3e5253b4	0.20539743
157	0xbdd97b0a	-0.10619171
158	0x3d33aa4e	0.043863587
159	0x3df8c977	0.12147801
160	0x3dd63815	0.104599155
161	0xbe2522c5	-0.16126545
162	0x3ea7f472	0.32803684
163	0x3e09d0e1	0.13458587
164	0xbe16a76e	-0.14712307
165	0xbe8f952f	-0.28043506
166	0xbc8494dd	-0.016184265
167	0xbdffa142	-0.12481929
168	0xbc03cbb2	-0.00804417
169	0x3e64f4d6	0.22359022
170	0x3c70f10c	0.014705908
171	0x3e8fe7dc	0.28106582
172	0xbe305722	-0.17220739
173	0xbe550bec	-0.20805329
174	0x3e3d1c18	0.18467748
175	0xbe84fc41	-0.25973704
176	0x3d838162	0.06421162
177	0xbd859640	-0.065227985
178	0x3dcc1133	0.09964218
179	0x3e4aa358	0.19788873
180	0xbe10383e	-0.14083955
181	0xbd96da98	-0.07365912
182	0xbac38b02	-0.0014918747
183	0xbd818703	-0.063245796
184	0xbe2b2f50	-0.16717267
185	0x3da0bd2b	0.07848581
186	0x3d887348	0.06662613
187	0xbe551c18	-0.20811498
188	0x3e79f065	0.2440811
189	0xbdcb5c0e	-0.099296674
190	0xbe091771	-0.13387848
191	0xbe5d4427	-0.2160803
192	0x3e1d433a	0.15357676
193	0x3d8f67af	0.07002198
194	0xbe53f04f	-0.20697139
195	0x3da1c885	0.07899574
196	0xbd68db16	-0.05684956
197	0x3d186e9e	0.037214868
198	0x3d1fabbe	0.038982145
199	0x3e516cfd	0.20451732
200	0x3db5165b	0.088421546
201	0x3df7f0c0	0.12106466
202	0xbe4846fe	-0.19558331
203	0x3ddf974e	0.10917531
204	0xbd006894	-0.031349733
205	0xbeacce34	-0.3375107
206	0x3dfc2674	0.12312022
207	0xbe134f22	-0.14385656
208	0x3e0591b7	0.13043867
209	0xbd06e234	-0.032930568
210	0x3ef185f1	0.47172502
211	0xbe982963	-0.29719076
212	0xbd49b564	-0.049245253
213	0x3e175d66	0.14781722
214	0xbe802dcc	-0.2503494
215	0x3daf2538	0.08552021
216	0x3da3deea	0.08001502
217	0xbe8372d6	-0.2567355
218	0x3d147f5a	0.036254264
219	0xbd20314b	-0.03910951
220	0xbe31784a	-0.17331043
221	0xbeae5d09	-0.34055355
222	0x3d583bb2	0.052791305
223	0x3e867e5f	0.26268288
224	0x3e16ef4a	0.14739719
225	0x3ea7c2ba	0.32765752
226	0xbcb7cac0	-0.022435546
227	0xbdb7a2ff	-0.08966636
228	0x3e6beb05	0.23038872
229	0x3aaf0ad6	0.001335467
230	0x3ee668d7	0.4500186
231	0xbe77f290	-0.24213624
232	0xbe2d34d9	-0.16914691
233	0xbf082369	-0.5317903
234	0x3d8b40d4	0.06799474
235	0x3dca282d	0.09870944
236	0x3c3ceb88	0.011530764
237	0x3dc63fb7	0.096801214
238	0x3e4f7f45	0.20263393
239	0xbd93bd40	-0.07213831
240	0xbe0ff85d	-0.14059587
241	0x3e9a1276	0.3009221
242	0x3edcc71c	0.43120658
243	0xbe66e567	-0.22548448
244	0xbdbefe1a	-0.0932581
245	0xbd7e3229	-0.062059555
246	0x3eb4e3bc	0.35329998
247	0x3d312215	0.043245394
248	0xbe11a845	-0.14224346
249	0xbd303731	-0.043021385
250	0x3bf1b210	0.007375963
251	0xbec2d7e4	-0.38055336
252	0x3e1b1a8a	0.15146843
253	0xbde39e9b	-0.11114236
254	0x3e61351e	0.21992919
255	0x3eab60e5	0.33472362

block1.layer.0.bn1.weight f4 [16]
0	0x3f8020c5	1.001
1	0x3f7fbe77	0.999
2	0x3f7fbe77	0.999
3	0x3f8020c5	1.001
4	0x3f7fbe77	0.999
5	0x3f8020c5	1.001
6	0x3f8020c5	1.001
7	0x3f7fbe77	0.999
8	0x3f8020c5	1.001
9	0x3f8020c4	1.0009999
10	0x3f8020c5	1.001
11	0x3f8020c5	1.001
12	0x3f8020c5	1.001
13	0x3f7fbe77	0.999
14	0x3f7fbe77	0.999
15	0x3f8020c5	1.001

block1.layer.0.bn1.bias f4 [16]
0	0x3a83126b	0.0009999996
1	0xba83126c	-0.0009999997
2	0xba83126d	-0.0009999998
3	0x3a8311cb	0.000999981
4	0xba83126a	-0.0009999995
5	0x3a83126c	0.0009999997
6	0x3a83126c	0.0009999997
7	0x3a83126a	0.0009999995
8	0x3a83126b	0.0009999996
9	0xba83126c	-0.0009999997
10	0x3a831268	0.0009999992
11	0x3a83126c	0.0009999997
12	0xba83125f	-0.0009999982
13	0x3a83126a	0.0009999995
14	0xba83126b	-0.0009999996
15	0x3a83126b	0.0009999996

block1.layer.0.bn1.running_mean f4 [16]
0	0x3c63aafd	0.013895747
1	0x3b7d4500	0.0038645864
2	0xbc894dd8	-0.016760752
3	0xbc931fca	-0.017959494
4	0x3b4e64a3	0.003149309
5	0xbc814824	-0.01578147
6	0x3bbdb04f	0.00578884
7	0xbbbb66a0	-0.005719021
8	0xbc2dc537	-0.010606102
9	0x3af1b307	0.0018440195
10	0x3bdc60c3	0.006725402
11	0x3c3a746b	0.011380295
12	0xbbc8223f	-0.006107598
13	0xbb6147cb	-0.0034375067
14	0xbc04843d	-0.008088169
15	0xbc0eaec3	-0.008708659

block1.layer.0.bn1.running_var f4 [16]
0	0x3fc15cc8	1.510644
1	0x3f88210f	1.0635089
2	0x3fa458a1	1.2839547
3	0x3f8f8a4f	1.1214083
4	0x3f999885	1.199967
5	0x3f8d9d77	1.106368
6	0x3f844108	1.0332346
7	0x3f924f61	1.1430475
8	0x3f88a7c4	1.0676198
9	0x3f7145a2	0.94246876
10	0x3f8175a0	1.0114021
11	0x3fa95d9f	1.3231696
12	0x3f7fe004	0.99951196
13	0x3f803875	1.0017229
14	0x3f912977	1.1340779
15	0x3fa0fe23	1.2577556

block1.layer.0.conv1.weight f4 [16, 16, 3]
0	0x3d4f83b8	0.050662726
1	0x3db0219a	0.08600159
2	0x3e1d0115	0.15332444
3	0xbe4af97a	-0.1982173
4	0xbf0781ee	-0.5293263
5	0x3e97ad14	0.29624236
6	0xbda94bdc	-0.08266422
7	0xbd8a0e79	-0.06741042
8	0xbe229435	-0.15876849
9	0xbb83d55a	-0.004023236
10	0xbd6c54d9	-0.057698105
11	0xbe8cfda8	-0.27537274
12	0x3e8b2e5f	0.27183816
13	0x3ed0329a	0.40663606
14	0xbe2516dc	-0.16122001
15	0x3e2e0ca2	0.16997007
16	0x3d6200a0	0.055176377
17	0xbe804884	-0.25055325
18	0x3e218c2c	0.15776128
19	0x3dcf86ea	0.10133155
20	0xbe656073	-0.22400074
21	0xbe1fc632	-0.1560295
22	0x3e8da0ec	0.27661836
23	0xbd86bf44	-0.0657945
24	0xbda9f15d	-0.082979895
25	0xbd6adb4f	-0.057338055
26	0x3e386fa8	0.18011343
27	0xbe86626b	-0.26246962
28	0x3dde752e	0.10862194
29	0xbe2a0c75	-0.16606314
30	0x3ed71938	0.42011428
31	0xbd6d33df	-0.057910796
32	0xbe93a4b7	-0.28836605
33	0x3e9d9db0	0.3078437
34	0xbe3cdc50	-0.18443418
35	0x3db566e6	0.08857517
36	0xbddc28df	-0.10749983
37	0xbdd33ddd	-0.10314534
38	0x3eaa1976	0.3322255
39	0x3d5636bf	0.052298304
40	0xbe050f67	-0.12994157
41	0x3dfc8dde	0.123317465
42	0xbd5930d6	-0.05302509
43	0x3db87c60	0.09008098
44	0x3ed1fa38	0.41011214
45	0x3e64cc9f	0.22343682
46	0x3d92568a	0.07145412
47	0x3b7958a0	0.003804721
48	0xbdbee355	-0.09320704
49	0x3d9d8683	0.07691672
50	0xbd26b42e	-0.040699176
51	0xbeb11ea6	-0.34593695
52	0xbda54e8b	-0.080716215
53	0x3d1d3189	0.03837732
54	0x3e8230a8	0.25427747
55	0xbe0c433f	-0.13697527
56	0x3dc2e6a3	0.09516647
57	0x3d2d6409	0.04233173
58	0xbaf66246	-0.0018797598
59	0xbe0ab1fa	-0.13544455
60	0x3d6ed514	0.058308676
61	0xbe00c92a	-0.12576738
62	0x3d5cceec	0.053908274
63	0x3e1b6bce	0.15177843
64	0xbd45336e	-0.04814475
65	0x3ceebc29	0.029142456
66	0xbe86d46f	-0.2633395
67	0x3de32a09	0.11092002
68	0xbaadb30f	-0.0013252216
69	0xbd9a5c8e	-0.07537185
70	0x3e59bf96	0.2126449
71	0x3caf31ac	0.02138599
72	0xbd10170c	-0.03517823
73	0xbe3aa43e	-0.18226716
74	0x3e061630	0.13094401
75	0x3c9d10e1	0.019173088
76	0x3cbcaa15	0.02303032
77	0x3db3f8fa	0.08787723
78	0xbe08e068	-0.13366854
79	0x3de931cd	0.11386452
80	0xbeabf73c	-0.33587062
81	0xbe155a19	-0.14585151
82	0x3d2e5562	0.042561896
83	0xbdad4054	-0.08459535
84	0x3e4e7f0e	0.20165655
85	0xbef43ed9	-0.477042
86	0x3d89a207	0.067203574
87	0x3c17249e	0.009225039
88	0x3d9a8222	0.07544352
89	0x3ebaa2be	0.36452287
90	0xbe8cf8ad	-0.27533475
91	0x3e3c6e3c	0.18401426
92	0xbd8a6233	-0.06757011
93	0xbe1f3cc2	-0.15550521
94	0xbe645ce0	-0.22301054
95	0xbe79b6dd	-0.24386163
96	0x3d124347	0.035708692
97	0xbeb5f0dc	-0.35535324
98	0xbdac4543	-0.08411648
99	0x3aaccdb8	0.0013183868
100	0x3c2171e3	0.009853813
101	0x3ead5871	0.33856538
102	0xbd10547b	-0.035236817
103	0x3e501a0a	0.20322433
104	0x3e681989	0.22665991
105	0xbea4aa68	-0.3216126
106	0xbd61be52	-0.055113144
107	0x3dd5604c	0.10418758
108	0xbe11415f	-0.14185093
109	0x3e148d9a	0.14507142
110	0x3e886535	0.26639715
111	0x3ed7f067	0.421756
112	0xbe2e5ca1	-0.17027523
113	0xbda7f8b8	-0.08201736
114	0xbeb60ef5	-0.35558286
115	0xbe8b2e8f	-0.2718396
116	0xbd8bb335	-0.068212904
117	0x3d9ba318	0.07599467
118	0xbc1ac841	-0.009447158
119	0xbd9578db	-0.07298442
120	0x3e118e28	0.14214385
121	0xbddd00fb	-0.10791203
122	0x3e580fd8	0.21099794
123	0x3d4d20b8	0.05008003
124	0xbe6a0780	-0.22854424
125	0xbd0dbcff	-0.03460407
126	0x3e517f93	0.20458822
127	0xbd2aa7f2	-0.04166407
128	0xbd7dd352	-0.06196911
129	0x3d922141	0.07135249
130	0xbd3c467d	-0.04596566
131	0xbd73acf1	-0.0594911
132	0x3dd3ca18	0.10341281
133	0xbe28819b	-0.1645569
134	0xbe31b3d3	-0.17353754
135	0x3d285a8e	0.041101985
136	0x3de16f12	0.11007513
137	0x3e1cb062	0.1530166
138	0x3dd89574	0.10575381
139	0xbe2ee548	-0.17079651
140	0xbd187eb0	-0.037230194
141	0x3c5851ae	0.013203068
142	0x3e627a34	0.2211693
143	0x3e381ef6	0.1798056
144	0xbe4ccac7	-0.19999228
145	0x3d4eb8d3	0.05046923
146	0xbe1ee0e1	-0.15515472
147	0xbe3a8f5b	-0.18218748
148	0x3bf014d8	0.0073267035
149	0xbd6fc9e6	-0.058542155
150	0x3e6c84e5	0.2309757
151	0xbeabd4ac	-0.33560693
152	0xbd90b151	-0.070650704
153	0xbdd26955	-0.10273997
154	0x3d18c30f	0.037295397
155	0x3dfa1f22	0.12212969
156	0x3e360bb2	0.17777899
157	0x3e0be277	0.13660608
158	0x3e09c46c	0.13453835
159	0xbdaba54f	-0.083811395
160	0x3e0a84b3	0.13527183
161	0xbeb90285	-0.36134735
162	0x3ca302fe	0.019898888
163	0x3e868112	0.26270348
164	0xbcd93dad	-0.026518667
165	0xbe45e226	-0.1932455
166	0xbdaad560	-0.08341479
167	0xbe257be0	-0.16160536
168	0x3d22aca5	0.039715428
169	0x3d771743	0.06032492
170	0x3d950e19	0.072780795
171	0xbe82e529	-0.2556546
172	0xbeb2f1c4	-0.34950078
173	0xbd92295a	-0.071367934
174	0x3d8ebae1	0.06969238
175	0x3e498d3d	0.19682784
176	0xbe889933	-0.26679382
177	0x3dc5edde	0.0966451
178	0x3e16e5ca	0.14736095
179	0x3e08fb1a	0.13377038
180	0xbe3a1488	-0.18171895
181	0x3d910eb0	0.070828795
182	0xbdfefa5f	-0.12450098
183	0xbd0ff274	-0.03514333
184	0xbe543592	-0.2072356
185	0x3e18b102	0.14911273
186	0x3e3bc1f5	0.18335707
187	0x3ce38282	0.027772192
188	0x3e0813c5	0.13288791
189	0x3ddf3f69	0.109007664
190	0x3ecf73e6	0.4051811
191	0x3e05fca5	0.13084657
192	0x3cb1b03b	0.021690479
193	0xbe3e3621	-0.18575336
194	0x3d8a5ba4	0.0675576
195	0xbd03f6b1	-0.032217685
196	0xbd64227d	-0.055696953
197	0xbe4666e3	-0.19375186
198	0x3b5ef75a	0.0034021945
199	0x3db04a98	0.08607978
200	0x3d194396	0.03741797
201	0xbdd23a8b	-0.102650724
202	0x3dc695ae	0.09696518
203	0xbefddf9c	-0.49584663
204	0xbd072222	-0.032991536
205	0x3e83a97e	0.2571525
206	0x3df8dbf6	0.12151329
207	0xbeae9ca4	-0.34103882
208	0xbea55da2	-0.32298
209	0xbe19d8ad	-0.15024062
210	0x3d7f6515	0.06235226
211	0xbd25a443	-0.040439855
212	0xbde2e857	-0.110794716
213	0x3e66e80c	0.22549456
214	0xbe321d04	-0.17393881
215	0x3e57fdae	0.21092865
216	0x3e8fbef7	0.28075382
217	0x3c92e61b	0.017931988
218	0x3da3dc5e	0.08001016
219	0x3e4f2ead	0.20232649
220	0x3e4e73e6	0.20161399
221	0xbed7fdf5	-0.4218594
222	0x3b22e512	0.0024855775
223	0xbe361456	-0.17781195
224	0xbd1e9a80	-0.03872156
225	0x3d9db39a	0.07700272
226	0xbdca19e3	-0.09868219
227	0x3e54565e	0.20736071
228	0xbe04a593	-0.12953787
229	0xbdbeb38b	-0.09311589
230	0x3ea94d86	0.33066958
231	0xbcdcbbd3	-0.02694503
232	0x3ec0b854	0.3764063
233	0xbe8682fc	-0.26271808
234	0x3e56455b	0.20924895
235	0xbe87470a	-0.26421386
236	0x3d23e731	0.040015403
237	0xbe0ecaff	-0.13944624
238	0xbd94c5f9	-0.07264323
239	0xbecb86c0	-0.39751244
240	0xbe7199b8	-0.23593795
241	0xbe6e757d	-0.23287006
242	0x3ceb1395	0.02869586
243	0x3d2b97eb	0.041892927
244	0xbc343db0	-0.011001036
245	0xbd9704a0	-0.07373929
246	0xbe42090f	-0.18948768
247	0x3e8a0d80	0.26963425
248	0x3dff491e	0.12465118
249	0x3cf26c34	0.02959261
250	0xbdc15608	-0.09440237
251	0xbe1c11c9	-0.1524116
252	0xbe5dd6c3	-0.21663956
253	0x3e609113	0.21930341
254	0xbdb1cbc2	-0.08681442
255	0x3d53ccf8	0.051709145

block1.layer.0.bn2.weight f4 [16]
0	0x3f8020c5	1.001
1	0x3f7fbe77	0.999
2	0x3f7fbe77	0.999
3	0x3f8020c5	1.001
4	0x3f8020c5	1.001
5	0x3f7fbe77	0.999
6	0x3f8020c5	1.001
7	0x3f7fbe77	0.999
8	0x3f7fbe77	0.999
9	0x3f7fbe77	0.999
10	0x3f7fbe77	0.999
11	0x3f8020c5	1.001
12	0x3f7fbe77	0.999
13	0x3f8020c5	1.001
14	0x3f8020c5	1.001
15	0x3f7fbe77	0.999

block1.layer.0.bn2.bias f4 [16]
0	0x3a83126c	0.0009999997
1	0xba83126b	-0.0009999996
2	0xba83126a	-0.0009999995
3	0x3a831268	0.0009999992
4	0x3a831269	0.0009999993
5	0xba831265	-0.0009999989
6	0x3a83126b	0.0009999996
7	0x3a831263	0.0009999987
8	0xba831268	-0.0009999992
9	0xba83126a	-0.0009999995
10	0x3a831268	0.0009999992
11	0x3a83126a	0.0009999995
12	0x3a83126b	0.0009999996
13	0x3a83124c	0.000999996
14	0x3a83126b	0.0009999996
15	0xba83126b	-0.0009999996

block1.layer.0.bn2.running_mean f4 [16]
0	0x3ccc8388	0.024965063
1	0xbd492332	-0.04910583
2	0x3ba13045	0.0049190843
3	0xbc48cbf2	-0.012255656
4	0xbd303172	-0.043015905
5	0xbcd748cb	-0.026279828
6	0x3d9c3297	0.07626837
7	0x3e120117	0.14258228
8	0x3ce55c5d	0.027998144
9	0xbd5a037a	-0.05322597
10	0x3d2682f3	0.040652227
11	0x3ba4094d	0.0050059916
12	0x3c79866f	0.015229805
13	0x3cbb86f7	0.022891505
14	0x3c5a4035	0.013320972
15	0xbcab943f	-0.020944713

block1.layer.0.bn2.running_var f4 [16]
0	0x3f7361af	0.9507093
1	0x3f6db7a8	0.9285836
2	0x3f7a07fb	0.9766843
3	0x3f6a75fd	0.91586286
4	0x3f78cd5b	0.9718835
5	0x3f6a2d40	0.91475296
6	0x3f7260e2	0.9467908
7	0x3f8237d3	1.0173286
8	0x3f755946	0.95839345
9	0x3f73d466	0.9524597
10	0x3f77418a	0.9658438
11	0x3f7504ad	0.9571026
12	0x3f7c7cea	0.98628104
13	0x3f6dc1fa	0.9287411
14	0x3f72097e	0.94545734
15	0x3f7e80d8	0.9941535

block1.layer.0.conv2.weight f4 [16, 16, 3]
0	0xbce4d910	-0.027935535
1	0xbe65d435	-0.22444232
2	0x3ec2184a	0.37909156
3	0xbe53c9ea	-0.20682493
4	0x3e293a86	0.16526231
5	0xbdd25c7e	-0.10271548
6	0x3e26e9e7	0.16300164
7	0xbeca9617	-0.39567634
8	0x3ea47724	0.32122147
9	0x3e4cef03	0.2001305
10	0xbdd82196	-0.10553281
11	0xbe7a30b2	-0.24432638
12	0xbe503bdc	-0.20335335
13	0xbe65cb6e	-0.22440884
14	0x3e390111	0.18066813
15	0xbe75f628	-0.24019682
16	0xbe38b3a3	-0.18037276
17	0x3dd29126	0.10281591
18	0xbea0345f	-0.31289956
19	0x3dda499f	0.10658573
20	0xbd6151fc	-0.055009827
21	0x3e6af74e	0.22945902
22	0x3c83d99a	0.016094971
23	0x3dcdc032	0.10046424
24	0x3bfb4f9a	0.0076694014
25	0xbd3807e7	-0.04492941
26	0x3d5ef08a	0.054428615
27	0xbd8673e9	-0.06565077
28	0xbdb4dd00	-0.08831215
29	0x3d0ac27f	0.033876892
30	0x3deb52ec	0.114904255
31	0x3e0ad781	0.1355877
32	0xbe17c73f	-0.148221
33	0xbe968144	-0.29395497
34	0xbd6a8435	-0.05725499
35	0x3dc5cce1	0.09658218
36	0xbe02d789	-0.12777533
37	0xbbdfc813	-0.0068292706
38	0xbe93efbd	-0.28893843
39	0xbcbc4882	-0.022983793
40	0x3e93f42e	0.28897232
41	0x3e4f7686	0.20260057
42	0xbe4487e7	-0.19192468
43	0x3d5fd6a0	0.05464804
44	0x3e816b41	0.2527714
45	0xbdc761fc	-0.09735486
46	0x3eaf6e51	0.34263852
47	0x3e9d1982	0.30683523
48	0xbebbaca5	-0.36655155
49	0xbf06d1ea	-0.52664053
50	0x3e6403ab	0.22267024
51	0x3e7182af	0.23585008
52	0xbd4390c4	-0.04774548
53	0xbeea3445	-0.45743003
54	0xbd1a20b1	-0.037628833
55	0x3e194ee7	0.14971505
56	0xbe53d24b	-0.20685689
57	0xbe31667d	-0.17324252
58	0xbdc82867	-0.09773331
59	0xbe2eb043	-0.17059426
60	0x3d98ff35	0.07470552
61	0xbebd2d59	-0.3694866
62	0xbbcdb72d	-0.00627794
63	0xbe295494	-0.1653617
64	0x3c3d8a66	0.011568641
65	0x3e3b7f1b	0.18310206
66	0x3e7a0176	0.2441462
67	0x3d4dd68a	0.05025343
68	0xbdf033d5	-0.11728636
69	0x3ea35a38	0.3190477
70	0x3c3047bc	0.01075929
71	0x3e778d2a	0.24174944
72	0xbdd10762	-0.10206486
73	0xbe0191b8	-0.12653244
74	0x3dcdc72b	0.10047754
75	0x3ea77d28	0.32712674
76	0xbe9901d9	-0.29884222
77	0x3b7604ff	0.00375396
78	0x3e91f6f9	0.28508738
79	0xbdf6716b	-0.120333515
80	0x3ee34735	0.44390264
81	0xbec3d9b5	-0.38252035
82	0x3d593bca	0.053035535
83	0x3eab0954	0.33405554
84	0xbde4957e	-0.11161326
85	0xbf038165	-0.51369315
86	0x3ea8d97a	0.3297842
87	0xbe87115b	-0.2638043
88	0xbcaa3ae4	-0.020780034
89	0xbe4b1f9b	-0.19836275
90	0x3d8aa2d3	0.067693375
91	0xbe854a21	-0.26033118
92	0x3e0983ac	0.13429135
93	0x3eab1058	0.33410907
94	0xbdcd3ad8	-0.10020989
95	0xbd9ce75d	-0.076613165
96	0x3c958117	0.018250031
97	0xbc8ce362	-0.017198268
98	0x3e8c1d94	0.27366316
99	0xbe50197f	-0.20322226
100	0x3e2bf797	0.16793667
101	0xbd91cc61	-0.0711906
102	0x3e1f751e	0.1557202
103	0x3ac0d26b	0.0014711147
104	0x3d8799fd	0.06621168
105	0x3ba46a5f	0.0050175632
106	0x3e160022	0.14648488
107	0xbdabf9c0	-0.083972454
108	0xbdd90006	-0.105957076
109	0xbc03be49	-0.008040973
110	0x3c3b3af3	0.011427629
111	0x3e2c7635	0.16841967
112	0xbe13cd27	-0.14433728
113	0xbd24517b	-0.04011677
114	0x3e44e453	0.19227724
115	0x3daac12f	0.08337628
116	0xbd2410d6	-0.04005512
117	0x3cb3a7eb	0.021930655
118	0xbe80e561	-0.25175002
119	0x3e7112d0	0.23542333
120	0x3d0d5b82	0.034511097
121	0xbf0e6db2	-0.5563613
122	0x3ca81af0	0.020520657
123	0x3d2f2a17	0.04276475
124	0x3dc8da21	0.0980723
125	0xbe6a58f8	-0.22885501
126	0x3e28ba40	0.16477299
127	0x3eb873c2	0.36025816
128	0x3eb36067	0.35034487
129	0x3d79d283	0.060991775
130	0xbd3f0515	-0.046635706
131	0xbe619fd3	-0.22033624
132	0xbc888ab2	-0.016667698
133	0xbcf1e734	-0.029529192
134	0xbcd4aa65	-0.025960157
135	0x3e073155	0.13202412
136	0x3ddec9af	0.10878312
137	0xbdb6ba54	-0.08922258
138	0xbdabb8d8	-0.083848655
139	0x3db37da7	0.08764201
140	0x3d408f0a	0.047011413
141	0x3d927352	0.07150902
142	0x3b2ee224	0.0026685083
143	0xbe50067c	-0.20314974
144	0x3e60a333	0.21937256
145	0x39651848	0.00021848187
146	0x3d7454b1	0.05965108
147	0xbe48055b	-0.19533293
148	0xbe593d4c	-0.21214789
149	0x3e38f9d8	0.18064058
150	0xbd8616e3	-0.06547334
151	0x3d02ad66	0.031903647
152	0x3ede1b4f	0.4338021
153	0xbce180f0	-0.027527303
154	0x3d93d9c2	0.072192684
155	0xbe1d5e39	-0.15367974
156	0x3eb51020	0.35363865
157	0x3cfd8d90	0.030951291
158	0x3e057f71	0.13036896
159	0x3eca6601	0.39530948
160	0x3e269e50	0.16271329
161	0xbe693a58	-0.22776163
162	0xbe2bb5ed	-0.16768618
163	0x3e9f6c35	0.31137243
164	0xbea1c2b3	-0.31593856
165	0xbe14da56	-0.14536414
166	0x3e040677	0.12893091
167	0x3e6dbbdb	0.23216192
168	0x3df5cf19	0.12002391
169	0x3ea15390	0.31509066
170	0x3d59c014	0.053161696
171	0x3e1d5fc1	0.15368558
172	0xbe059868	-0.1304642
173	0xbd780747	-0.060553815
174	0xbae0aef6	-0.0017141986
175	0xbee26258	-0.44215655
176	0x3b380b26	0.0028082817
177	0x3cf4cae9	0.029881911
178	0xbdd21768	-0.10258371
179	0x3cac95c6	0.021067511
180	0xbe10958a	-0.14119545
181	0xbc6071ce	-0.013699008
182	0x3d7351fb	0.059404355
183	0x3dc9cb18	0.0985319
184	0x3e817119	0.252816
185	0x3e71e46f	0.23622297
186	0x3da4ab07	0.080404334
187	0xbdd39a0c	-0.103321165
188	0xbe2bf170	-0.1679132
189	0x3e924463	0.285678
190	0x3e29593a	0.16537943
191	0xbc3c3da0	-0.011489302
192	0xbea98fd2	-0.3311754
193	0x3ec7e428	0.39041257
194	0xbe2d1dfe	-0.16905972
195	0x3dfae377	0.12250417
196	0x3d8d2a9b	0.06892892
197	0xbd23d471	-0.03999752
198	0x3cab7bf8	0.020933136
199	0xbe31a615	-0.17348512
200	0x3e360f01	0.17779161
201	0x3e80c90b	0.25153384
202	0x3e481ddf	0.19542645
203	0x3e47630f	0.19471382
204	0xbe96eb95	-0.2947661
205	0x3d2cc356	0.042178474
206	0x3e1f01bf	0.1552801
207	0x3e9e9c24	0.309785
208	0x3e0dc6d3	0.13845377
209	0xbe1ceaf8	-0.15324008
210	0xbdcc065e	-0.09962152
211	0xbcc1e16a	-0.023667056
212	0x3c688cc8	0.014193721
213	0xbe7d643c	-0.24745268
214	0xbda95d8c	-0.08269796
215	0x3e6eec32	0.23332289
216	0xbc9ad322	-0.018899504
217	0x3e433f00	0.19067001
218	0xbcebffbf	-0.028808473
219	0xbdedfb2f	-0.11620175
220	0xbf10a81b	-0.5650651
221	0xbe397fac	-0.18115109
222	0xbdd835b5	-0.10557119
223	0xbd5488cd	-0.051888276
224	0x3d1f5c27	0.038906243
225	0xbe6a964b	-0.22908895
226	0xbe97690f	-0.2957234
227	0x3dfcba1c	0.12340185
228	0x3dcce627	0.100048356
229	0x3ef91ac3	0.4865323
230	0x3e9e4c6d	0.30917683
231	0x3c00baab	0.007857005
232	0xbdc0933a	-0.09403081
233	0x3de6bcdd	0.112664916
234	0x3b302d2e	0.0026882398
235	0x3e58bdff	0.21166228
236	0x3dd1eff3	0.10250845
237	0x3d20f95c	0.039300308
238	0x3e1d0bea	0.15336576
239	0xbe6d0668	-0.23146975
240	0xbc9b1ded	-0.018935168
241	0x3c02f208	0.007992275
242	0x3d7f376f	0.062308725
243	0xbbf818b9	-0.0075713065
244	0x3f04c4c5	0.51862746
245	0x3eb05fec	0.34448183
246	0x3ebc526e	0.3678164
247	0x3ea896df	0.32927606
248	0x3ec2db89	0.38058117
249	0x3dc3ee35	0.09566919
250	0x3ea47afb	0.32125077
251	0x3d25ce94	0.04048021
252	0xbe8a1e8a	-0.26976424
253	0xbea2d772	-0.31804997
254	0x3e6c159e	0.23055121
255	0xbe5e88d4	-0.21731883

block1.layer.1.bn1.weight f4 [16]
0	0x3f8020c5	1.001
1	0x3f8020c5	1.001
2	0x3f8020c5	1.001
3	0x3f7fbe77	0.999
4	0x3f8020c5	1.001
5	0x3f7fbe77	0.999
6	0x3f7fbe77	0.999
7	0x3f8020c5	1.001
8	0x3f7fbe77	0.999
9	0x3f8020c5	1.001
10	0x3f8020c5	1.001
11	0x3f8020c5	1.001
12	0x3f7fbe77	0.999
13	0x3f8020c4	1.0009999
14	0x3f7fbe77	0.999
15	0x3f7fbe77	0.999

block1.layer.1.bn1.bias f4 [16]
0	0x3a83125a	0.0009999976
1	0xba831261	-0.0009999984
2	0x3a83126b	0.0009999996
3	0xba83126c	-0.0009999997
4	0xba83126b	-0.0009999996
5	0x3a83125e	0.0009999981
6	0xba831176	-0.0009999711
7	0xba831265	-0.0009999989
8	0xba83126b	-0.0009999996
9	0x3a83124a	0.0009999957
10	0x3a831268	0.0009999992
11	0x3a83126c	0.0009999997
12	0xba831266	-0.000999999
13	0xba831268	-0.0009999992
14	0x3a831237	0.0009999935
15	0xba831264	-0.0009999988

block1.layer.1.bn1.running_mean f4 [16]
0	0x3be604a3	0.0070195957
1	0xbd428af2	-0.04749579
2	0x3c1d082b	0.009584467
3	0x3d63b2d5	0.05559047
4	0x3d122cd3	0.03568728
5	0x3cf58ccd	0.029974366
6	0xbd3bbed3	-0.04583628
7	0x3ca0c05f	0.01962298
8	0x3cb65797	0.022258563
9	0x3d3d96cc	0.04628639
10	0xbd55f6e8	-0.05223742
11	0xbc0e1f35	-0.0086744325
12	0xbc167103	-0.0091822175
13	0xbcf5038d	-0.02990892
14	0xbd897baa	-0.0671304
15	0xbcc15100	-0.023598194

block1.layer.1.bn1.running_var f4 [16]
0	0x3fce0ddc	1.609798
1	0x3f9e12e2	1.2349513
2	0x3fc231f3	1.5171493
3	0x3fa2634c	1.2686553
4	0x3f9dbd23	1.2323345
5	0x3fbc4192	1.470751
6	0x3f94397b	1.1580042
7	0x3f93df1f	1.1552466
8	0x3f8dd98e	1.1082017
9	0x3f7dd1cb	0.99148244
10	0x3f8d2dc9	1.1029598
11	0x3fc31095	1.5239435
12	0x3f945148	1.1587305
13	0x3f8ac22a	1.0840504
14	0x3f9168a1	1.1360055
15	0x3fdfb014	1.747561

block1.layer.1.conv1.weight f4 [16, 16, 3]
0	0xbcef6098	-0.029220864
1	0x3a44e298	0.0007510572
2	0x3e52178b	0.20516793
3	0xbd9cc17f	-0.07654094
4	0xbdb048b7	-0.08607619
5	0xbdc4461a	-0.09583683
6	0x3ba71ad1	0.0050996323
7	0xbd7312a5	-0.059343953
8	0x395da380	0.00021137111
9	0xbe1d7879	-0.15377988
10	0xbd9db5fc	-0.077007264
11	0xbecdfe63	-0.40233144
12	0xbd9b77bc	-0.07591197
13	0x3e94f9fe	0.2909698
14	0x3d2fc71e	0.042914502
15	0xbd95090c	-0.07277116
16	0xbeb7303f	-0.35778996
17	0xbedac271	-0.42726472
18	0xbbac0a4e	-0.005250252
19	0x3e15f37a	0.1464366
20	0x3df97d01	0.12182046
21	0xbebb5b97	-0.36593315
22	0x3ce39cb1	0.027784677
23	0xbdf214c6	-0.118203685
24	0x3e6e48b3	0.2326992
25	0x3ba5a911	0.0050555547
26	0xbdb1484d	-0.086563684
27	0x3e43dba9	0.19126762
28	0xbee7ea68	-0.45296025
29	0x3b705e52	0.0036677313
30	0x3d410bc8	0.047130376
31	0x3de51706	0.11186032
32	0x3cdf1a03	0.027234083
33	0x3e6887e3	0.22708087
34	0x3e0a118a	0.13483253
35	0xbd2ac7e7	-0.041694548
36	0x3d22fdbb	0.039792757
37	0x3e3c3efb	0.183834
38	0xbebd4ce0	-0.36972713
39	0x3e4dbefc	0.20092386
40	0x3c6094ec	0.013707381
41	0x3d5cd36b	0.05391256
42	0xbd954354	-0.072882324
43	0x3e6b4b9d	0.22978063
44	0xbcff9d43	-0.031202918
45	0xbe4ec50b	-0.20192353
46	0xbed198f2	-0.40937
47	0x3c8443e3	0.016145652
48	0x3eb9e509	0.36307552
49	0xbe1ab4e9	-0.15108074
50	0x3e66addc	0.2252726
51	0x3e72e789	0.23721136
52	0xbd6f2726	-0.058386944
53	0xbc895808	-0.01676561
54	0x3efbd2e8	0.49184346
55	0xbc3888d2	-0.011263089
56	0xbb7537b8	-0.0037417244
57	0xbe419232	-0.18903425
58	0xbdb135b4	-0.08652821
59	0x3e179863	0.14804225
60	0x3dd63c5d	0.10460732
61	0xbe5d1af6	-0.21592316
62	0x3e508c84	0.20366102
63	0xbdef0643	-0.11671116
64	0x3e5e71c9	0.21723093
65	0x3de390a4	0.111115724
66	0xbe119929	-0.14218582
67	0x3ca5854a	0.020205159
68	0xbd6b8b07	-0.057505634
69	0xbe9c4473	-0.30520973
70	0x3df00537	0.11719745
71	0xbe92dfd6	-0.28686398
72	0x3e8e025d	0.27736178
73	0x3dec7030	0.115448356
74	0xbe029c53	-0.12754945
75	0xbb29ae49	-0.0025891236
76	0xbdf91b34	-0.12163392
77	0xbe0e2785	-0.13882263
78	0xbdbeff61	-0.093260534
79	0x3e83da93	0.25752696
80	0x3e98989b	0.2980393
81	0x3e33f0a8	0.17572272
82	0x3e6088a9	0.21927132
83	0x3deb2f3a	0.11483617
84	0xbdeb17d3	-0.114791535
85	0x3e31f3b3	0.1737812
86	0xbe12286a	-0.14273229
87	0xbdba4f9d	-0.09097216
88	0x3e7dc535	0.2478226
89	0x3e35a82a	0.17739931
90	0x3b8104d4	0.003937343
91	0xbdae7025	-0.085174836
92	0x3dfe89f2	0.12428655
93	0x3dd1a228	0.10236007
94	0x3e6fed2f	0.23430322
95	0xbd89e822	-0.06733729
96	0x3d95475f	0.072890036
97	0xbec5b7b7	-0.38616726
98	0x3e3e80e9	0.18603863
99	0x3dc5409e	0.096314654
100	0xbe846088	-0.25854897
101	0x3dcd4a0f	0.10023891
102	0xbd3d3f69	-0.04620305
103	0xbeb0ade9	-0.34507683
104	0xbdb703d5	-0.08936278
105	0xbe01ae73	-0.12664203
106	0x3b4a709d	0.0030889877
107	0x3d941e3a	0.07232328
108	0x3bf1b866	0.0073767183
109	0x3e99a3c2	0.3000775
110	0xbe2a843b	-0.16652004
111	0x3ebbbb71	0.36666444
112	0xbe6f3ec4	-0.23363787
113	0xbe14b7ac	-0.1452319
114	0xbe8c5dbc	-0.27415264
115	0xbe102f7c	-0.14080614
116	0x3e2a4708	0.16628659
117	0x3dddb7ca	0.108260706
118	0xbd31ad7c	-0.04337834
119	0xbd918e54	-0.07107225
120	0xbda57a23	-0.08079936
121	0x3c638ee6	0.01388905
122	0x3cb20dd5	0.021735111
123	0xbd617dcc	-0.05505161
124	0xbe704f75	-0.2346781
125	0x3da92f1b	0.08260938
126	0xbe87ac74	-0.2649876
127	0x3e34b222	0.17646077
128	0xbe4f3c59	-0.20237865
129	0xbe52433e	-0.20533463
130	0x3e8ef495	0.27920976
131	0xbe5db4be	-0.21650979
132	0x3e4efea3	0.20214324
133	0x3dcbb758	0.099470794
134	0xbe145c1c	-0.14488262
135	0xbe3d521b	-0.18488352
136	0xbe3975a4	-0.18111283
137	0x3d4094c4	0.047016874
138	0x3d87200e	0.06597911
139	0xbe14d1e8	-0.14533198
140	0xbe38b576	-0.18037972
141	0x3c9d533c	0.019204728
142	0x3e8d6729	0.27617767
143	0x3d993b00	0.074819565
144	0xbe12c5cd	-0.14333268
145	0xbe3a3d4e	-0.18187448
146	0x3e466d07	0.19377528
147	0x3e29729e	0.16547629
148	0x3ed73db1	0.42039254
149	0x3d1f977d	0.03896283
150	0x3c1d9fff	0.009620666
151	0x3e64a667	0.22329102
152	0xbdea889e	-0.11451839
153	0x3e2513c4	0.16120821
154	0x3e37c390	0.17945695
155	0x3e464544	0.1936236
156	0x3e09950f	0.13435768
157	0x3ed31e3b	0.41234002
158	0xbbb0a40c	-0.0053906497
159	0xbe03dc2f	-0.12876962
160	0xbe1c649c	-0.15272754
161	0xbe86496e	-0.26227897
162	0xbdc9fbe2	-0.09862496
163	0x3e837446	0.25674647
164	0xbed850c0	-0.42249107
165	0xbd1ca591	-0.038243834
166	0xbe042238	-0.12903678
167	0xbe87b7d0	-0.26507425
168	0x3e4782b0	0.19483447
169	0x3e0ba7a6	0.13638172
170	0x3e35a7aa	0.1773974
171	0xbd2f2047	-0.04275539
172	0xbdb1073d	-0.08643959
173	0x3dfa0e6c	0.12209782
174	0x3e172a70	0.14762282
175	0xbea8a130	-0.32935476
176	0xbe6fb747	-0.23409759
177	0x3e323032	0.17401198
178	0x3dad97ce	0.0847622
179	0x3e2d1e48	0.16906083
180	0x3df41453	0.11917939
181	0x3e3d67d2	0.18496636
182	0xba5ea682	-0.00084934395
183	0x3e2152b9	0.15754212
184	0xbe1b1aab	-0.15146892
185	0x3eecbaac	0.4623617
186	0xbe2e8fba	-0.17047015
187	0xbea8af0d	-0.32946053
188	0xbd2d6125	-0.042328972
189	0x3c23fc02	0.010008814
190	0x3e68e900	0.22745132
191	0x3e4afaea	0.19822279
192	0xbd6a6a44	-0.05723025
193	0xbd9cd0a4	-0.076569825
194	0xbe1f09bc	-0.15531057
195	0xbe6e7deb	-0.23290221
196	0x3e3ea64d	0.18618126
197	0xbcaded2d	-0.021231258
198	0x3d8dcc50	0.06923735
199	0x3df8d3e7	0.12149792
200	0x3eb7be76	0.35887498
201	0xbd981452	-0.07425751
202	0x3ebaeda7	0.3650944
203	0x3e73d636	0.23812184
204	0x3eeda7fc	0.46417224
205	0x3eb7553d	0.3580722
206	0x3bf99296	0.0076163514
207	0x3d9b0b73	0.07570543
208	0xbe2e5b6e	-0.17027065
209	0xbdce6b22	-0.10079028
210	0x3e905414	0.28189147
211	0x3eed8f36	0.46398324
212	0x3c32eef5	0.01092123
213	0xbea38817	-0.31939766
214	0xbd79e218	-0.061006635
215	0xbca40373	-0.020021176
216	0xbebb4fdd	-0.36584368
217	0x3e91f321	0.28505805
218	0x3e503d2b	0.20335834
219	0xbda83b62	-0.082144514
220	0x3d735dfd	0.059415806
221	0xbde50926	-0.111833856
222	0x3c8a3d47	0.016874922
223	0x3e0bfb3a	0.13670054
224	0x3e3b463d	0.18288513
225	0x3ee87cc8	0.454077
226	0x3cfef6b6	0.0311235
227	0xbd239830	-0.03994006
228	0x3e20a26c	0.15686959
229	0xbda56094	-0.080750614
230	0x3db9791b	0.09056302
231	0xbe71235d	-0.23548646
232	0xbdcdb29a	-0.10043831
233	0xbe0bc74f	-0.13650249
234	0x3e662259	0.2247404
235	0x3eb8a151	0.36060575
236	0xbec8ea45	-0.39241233
237	0xbd367070	-0.044540823
238	0x3d5d8723	0.054083955
239	0xbdcb5ae2	-0.09929444
240	0xbcd99902	-0.026562218
241	0xbef323ff	-0.474884
242	0x3e9d0227	0.30665705
243	0x3e172887	0.14761554
244	0x3e887b8d	0.26656762
245	0x3dfc58bb	0.123216115
246	0x3e748636	0.23879322
247	0xbd3c9a3d	-0.04604553
248	0xbb3c0986	-0.00286922
249	0x3f0fa68b	0.561135
250	0x3e8e14e3	0.2775031
251	0xbe79a7f7	-0.2438048
252	0x3e52d6df	0.2058978
253	0x3b6bd112	0.003598277
254	0x3e13ed6c	0.14446038
255	0xbd55f919	-0.05223951

block1.layer.1.bn2.weight f4 [16]
0	0x3f7fbe77	0.999
1	0x3f7fbe77	0.999
2	0x3f8020c5	1.001
3	0x3f8020c5	1.001
4	0x3f8020c5	1.001
5	0x3f7fbe77	0.999
6	0x3f8020c5	1.001
7	0x3f7fbe77	0.999
8	0x3f8020c5	1.001
9	0x3f7fbe77	0.999
10	0x3f8020c5	1.001
11	0x3f7fbe77	0.999
12	0x3f7fbe77	0.999
13	0x3f7fbe77	0.999
14	0x3f8020c3	1.0009998
15	0x3f8020c5	1.001

block1.layer.1.bn2.bias f4 [16]
0	0xba831264	-0.0009999988
1	0x3a8311fe	0.0009999869
2	0x3a831269	0.0009999993
3	0x3a831268	0.0009999992
4	0xba83126b	-0.0009999996
5	0xba83126a	-0.0009999995
6	0xba831265	-0.0009999989
7	0xba83126d	-0.0009999998
8	0x3a83125c	0.0009999978
9	0xba83126b	-0.0009999996
10	0x3a83126c	0.0009999997
11	0x3a831257	0.0009999973
12	0xba83126c	-0.0009999997
13	0x3a831264	0.0009999988
14	0xba83125a	-0.0009999976
15	0x3a831261	0.0009999984

block1.layer.1.bn2.running_mean f4 [16]
0	0xbd6ba79f	-0.057532903
1	0x3d9c777d	0.07639978
2	0xbd760f6f	-0.060073312
3	0x3d5b9f75	0.053618867
4	0x3db5c595	0.088755764
5	0x3ceca55d	0.028887445
6	0xbd9a2073	-0.075257204
7	0x3dac7d7c	0.08422372
8	0x3d032656	0.032018982
9	0xbd2428ff	-0.04007816
10	0x3d832601	0.06403733
11	0xbdd9f8df	-0.106431715
12	0x3b8dba7f	0.0043252106
13	0x3ca43e46	0.020049226
14	0xbe173602	-0.14766696
15	0xbddd39ca	-0.10802038

block1.layer.1.bn2.running_var f4 [16]
0	0x3f910bf1	1.1331769
1	0x3f771d83	0.96529406
2	0x3f6da695	0.9283231
3	0x3f79267e	0.9732436
4	0x3f7254fd	0.9466093
5	0x3f78d64a	0.9720198
6	0x3f75a353	0.9595234
7	0x3f77caa4	0.9679358
8	0x3f74f9f9	0.9569393
9	0x3f7db497	0.99103683
10	0x3f71e1e5	0.9448531
11	0x3f76fa32	0.9647552
12	0x3f827c04	1.0194097
13	0x3f834677	1.0255879
14	0x3f8401d3	1.0313057
15	0x3f79f807	0.97644085

block1.layer.1.conv2.weight f4 [16, 16, 3]
0	0x3e8fab68	0.2806046
1	0x3e3b8509	0.18312468
2	0xbdf099cb	-0.11748084
3	0x3eab70c4	0.3348447
4	0xbd917224	-0.07101849
5	0x3da20d6c	0.07912716
6	0xbd802e05	-0.062587775
7	0x3d2598ce	0.04042893
8	0xbe58ee38	-0.21184623
9	0xbd4e1529	-0.05031315
10	0x3e401d31	0.18761136
11	0x3ddd22bb	0.1079764
12	0xbc236b57	-0.009974322
13	0xbd21d319	-0.03950796
14	0x3e001faf	0.12512086
15	0xbdb6089b	-0.0888836
16	0xbd9127c2	-0.07087661
17	0x3e4e95d1	0.20174338
18	0x3ee0f3ed	0.439361
19	0x3d98dc8c	0.07463941
20	0xbdfe1cc5	-0.12407831
21	0xbdc1035f	-0.09424471
22	0x3e4f9113	0.20270185
23	0x3dd042e5	0.10169009
24	0xbdaf2ebc	-0.08553836
25	0x3d87a7d7	0.0662381
26	0x3d306dbd	0.043073405
27	0x3e8f7999	0.2802246
28	0xbe721f9c	-0.2364487
29	0x3e7b562a	0.24544588
30	0x3e2835e9	0.16426815
31	0x3dddef1e	0.108366236
32	0x3e110381	0.14161493
33	0x3e904fc8	0.28185868
34	0x3df610e5	0.12014941
35	0x3d99937b	0.07498833
36	0xbceeeb96	-0.02916507
37	0x3d8e2fac	0.069426864
38	0x3de73414	0.1128923
39	0xbee34562	-0.44388872
40	0xbec03e88	-0.37547708
41	0xbd880622	-0.06641795
42	0x3dd21aea	0.1025904
43	0xbe6ed3a0	-0.23322916
44	0x3e1ff912	0.15622357
45	0xbe535c17	-0.20640598
46	0x3e15c728	0.14626753
47	0xbe5a90dd	-0.21344323
48	0x3d417ed2	0.047240086
49	0xbc7ba581	-0.015359283
50	0x3ecd4dcb	0.40098414
51	0xbe7c88b1	-0.24661519
52	0xbd9d1891	-0.07670701
53	0xbe510557	-0.20412193
54	0xbe47929c	-0.19489521
55	0x3c8d71a4	0.017266102
56	0xbdea0872	-0.11427392
57	0xbdc54ad1	-0.09633411
58	0x3d8b16ca	0.06791456
59	0xbec4ab8c	-0.3841213
60	0xbe019dce	-0.12657854
61	0xbeaf966a	-0.34294444
62	0xbe4f7c12	-0.20262173
63	0x3bf1bb2e	0.00737705
64	0xbe8a9cb2	-0.27072674
65	0x3d426f96	0.047469698
66	0x3e0dd4bd	0.13850684
67	0x3e61b66f	0.22042249
68	0xbc3f6f56	-0.011684259
69	0xbebf10e0	-0.37317562
70	0xbe2952e4	-0.16535527
71	0x3dc03b2f	0.093862884
72	0xbd3602b8	-0.044436187
73	0x3c749068	0.014927007
74	0xbe00f0a7	-0.12591802
75	0xbe5c1d87	-0.21495639
76	0x3d60b5c6	0.054860853
77	0x3da331ea	0.07968505
78	0x3e0b77df	0.13619946
79	0xbd2d4f2b	-0.04231183
80	0x3e9b6f92	0.3035856
81	0x3d549761	0.05190218
82	0xbe88c34b	-0.26711497
83	0xbe03246c	-0.12806863
84	0xbe8e08e4	-0.27741158
85	0xbe404539	-0.18776406
86	0x3d7f6ba4	0.062358513
87	0xbe2f94b4	-0.1714657
88	0x3d401ea5	0.046904225
89	0xbe89701c	-0.26843345
90	0xbe0e420f	-0.13892387
91	0xbe33dfd6	-0.17565855
92	0x3e1d4046	0.1535655
93	0x3d6c5270	0.057695806
94	0x3e16197f	0.14658163
95	0xbe77e214	-0.24207336
96	0x3e63648c	0.22206324
97	0xbda02a86	-0.07820611
98	0x3e24e38b	0.16102426
99	0x3e03350e	0.12813208
100	0xbe0c7ec6	-0.13720235
101	0xbd0eb7bd	-0.034843195
102	0x3e4f1e4b	0.202264
103	0xbe4f4435	-0.20240863
104	0xbddd5080	-0.1080637
105	0x3d6e89d0	0.058236897
106	0xbe393a01	-0.18088533
107	0x3d498ed8	0.049208492
108	0x3e640ed9	0.22271289
109	0x3d55d3df	0.05220401
110	0xbdbddae5	-0.092702664
111	0x3e22037c	0.15821642
112	0xbe023126	-0.12714061
113	0xbedb58dc	-0.42841232
114	0xbebad45e	-0.36490148
115	0x3ed6449d	0.41849223
116	0x3ed1d44b	0.4098228
117	0xbe80199f	-0.25019547
118	0xbdf52a0f	-0.11970913
119	0x3e44a685	0.19204147
120	0xbe3f9b1e	-0.18711516
121	0x3c9b7dc9	0.018980877
122	0x3e2b2b18	0.16715658
123	0xbe91930e	-0.28432506
124	0xbe8a3500	-0.2699356
125	0xbde42b3a	-0.11141057
126	0x3e242073	0.16028003
127	0x3dab5259	0.08365316
128	0xbe8d75d3	-0.27628955
129	0xbdada7fa	-0.084793046
130	0x3e88ff8a	0.2675746
131	0xbed48779	-0.41509607
132	0xbe21aff6	-0.1578978
133	0x3e9daa85	0.3079416
134	0xbdca4fb3	-0.09878483
135	0x3e62b44f	0.22139095
136	0xbe3d5e53	-0.18493013
137	0xbe785d8f	-0.2425444
138	0x3e48addb	0.1959757
139	0x3dd841ed	0.10559449
140	0xbdee9f1d	-0.11651442
141	0x3e6c4bc8	0.23075783
142	0xbe3ed5ee	-0.18636295
143	0xbeab66d2	-0.33476883
144	0xbf0607ae	-0.5235547
145	0x3e9ea726	0.309869
146	0xbdf3a4eb	-0.1189669
147	0x3e15550b	0.14583223
148	0x3ddb06fb	0.10694691
149	0xbe1699ed	-0.14707156
150	0xbdac67c3	-0.084182285
151	0x3e0ae800	0.13565063
152	0x3e41d72e	0.18929741
153	0xbe403188	-0.18768895
154	0xbd81e8d9	-0.0634324
155	0x3df8e776	0.12153523
156	0x3dec8ec0	0.11550665
157	0x3ebfb3d2	0.3744188
158	0x3e1b5458	0.15168893
159	0x3e5f498d	0.21805401
160	0xbe5b85e3	-0.21437792
161	0xbd7aeba0	-0.061259866
162	0xbea7eb69	-0.3279679
163	0xbdc68b8d	-0.09694586
164	0xbd51ec5e	-0.051250808
165	0x3ed9a08f	0.4250531
166	0x3dd60082	0.104493156
167	0x3eab868c	0.3350109
168	0xbe073984	-0.13205534
169	0x3b9dd717	0.0048169005
170	0xbd8ceaad	-0.06880698
171	0xbec103a9	-0.37698105
172	0x3ef150d5	0.47131982
173	0x3e834e81	0.2564583
174	0x3e455193	0.192694
175	0x3e532c59	0.20622386
176	0xbe30f6aa	-0.17281595
177	0xbecdbbdc	-0.40182388
178	0x3d250722	0.040290006
179	0xbdb7d94e	-0.089769945
180	0xbe1f3b6e	-0.15550014
181	0x3df91fe0	0.12164283
182	0x3e008238	0.12549675
183	0xbd3f774f	-0.04674464
184	0x3d91e2e4	0.07123354
185	0x3eb6c4c2	0.3569699
186	0x3dd9b85d	0.10630868
187	0xbe91cbdd	-0.28475848
188	0x3e01f3f6	0.1269072
189	0xbe962c71	-0.2933078
190	0xbc903cc5	-0.017607102
191	0x3daa8e21	0.0832789
192	0xbe9e85d4	-0.30961478
193	0x3e8e2ad3	0.27767047
194	0x3d3c0420	0.04590237
195	0xbe847627	-0.25871393
196	0x3d6ea378	0.058261365
197	0x3e5f2de1	0.21794845
198	0x3d17edd5	0.03709205
199	0x3e887851	0.26654294
200	0x3e4163de	0.18885753
201	0xbdb2ae06	-0.087245986
202	0xbe17b358	-0.14814508
203	0xbe912b60	-0.28353405
204	0xbdd85dff	-0.10564803
205	0x3ca6d6d0	0.020366102
206	0x3de0db3b	0.10979315
207	0xbe22fa82	-0.15915874
208	0xbc701c05	-0.014655118
209	0xbeb781b7	-0.35841152
210	0xbe922ead	-0.28551236
211	0x3e2b2176	0.16711983
212	0xbede4e4c	-0.4341911
213	0x3d9c5892	0.07634081
214	0x3d10b0fb	0.03532503
215	0x3e37e517	0.17958485
216	0x3e6123ad	0.21986265
217	0x3dc11d49	0.09429414
218	0xbe1fdd26	-0.15611705
219	0xbe015470	-0.12629867
220	0xbdb09bf8	-0.08623499
221	0x3e99f5a4	0.3007022
222	0x3c424512	0.011857288
223	0xbeef33ab	-0.46719107
224	0x3ce18649	0.027529852
225	0xbdbc3ad1	-0.09190906
226	0x3e5f78a4	0.21823364
227	0x3dab9adf	0.08379149
228	0x3c82b905	0.015957365
229	0x3dbe9f7b	0.09307762
230	0x3ecca2cc	0.39967954
231	0x3d5767b5	0.052589137
232	0x3d459419	0.04823694
233	0xbe6b2045	-0.22961529
234	0x3d8714a1	0.065957315
235	0x3ecacf8e	0.39611477
236	0xbdc6628f	-0.09686767
237	0x3de0d702	0.109785095
238	0xbe65d92b	-0.22446124
239	0xbd56e47d	-0.052463997
240	0x3e260c9f	0.16215752
241	0x3ea418b9	0.32050112
242	0xbddc42fd	-0.107549645
243	0x3ea55d9c	0.3229798
244	0x3e897768	0.26848912
245	0xbdf310b0	-0.11868417
246	0x3d86d1ee	0.0658301
247	0x3e2331cb	0.15936963
248	0xbe1d72d1	-0.1537583
249	0x3d633646	0.05547168
250	0x3e564d4b	0.20927922
251	0x3df8b187	0.12143236
252	0x3e3bc14b	0.18335454
253	0xbe797827	-0.2436224
254	0x3ed6c01e	0.4194345
255	0xbe974319	-0.2954338

block2.layer.0.bn1.weight f4 [16]
0	0x3f8020c5	1.001
1	0x3f7fbe77	0.999
2	0x3f7fbe77	0.999
3	0x3f8020c5	1.001
4	0x3f7fbe77	0.999
5	0x3f8020c5	1.001
6	0x3f7fbe77	0.999
7	0x3f8020c5	1.001
8	0x3f8020c5	1.001
9	0x3f8020c5	1.001
10	0x3f7fbe77	0.999
11	0x3f8020c5	1.001
12	0x3f8020c5	1.001
13	0x3f7fbe77	0.999
14	0x3f7fbe77	0.999
15	0x3f7fbe77	0.999

block2.layer.0.bn1.bias f4 [16]
0	0x3a831261	0.0009999984
1	0xba83126a	-0.0009999995
2	0xba83126c	-0.0009999997
3	0x3a83126d	0.0009999998
4	0xba83126a	-0.0009999995
5	0xba831210	-0.000999989
6	0xba83126a	-0.0009999995
7	0x3a83126b	0.0009999996
8	0x3a83126a	0.0009999995
9	0x3a83126a	0.0009999995
10	0x3a83126b	0.0009999996
11	0x3a831267	0.0009999991
12	0x3a831266	0.000999999
13	0xba83126a	-0.0009999995
14	0xba831254	-0.0009999969
15	0xba831216	-0.0009999897

block2.layer.0.bn1.running_mean f4 [16]
0	0x3d869d69	0.06572992
1	0xbe1e37cd	-0.15450974
2	0xbcb9b3b3	-0.022668695
3	0x3db7dcc1	0.08977652
4	0x3d018217	0.031618204
5	0x3ce1851d	0.027529294
6	0xbc8b3afb	-0.016995898
7	0x3d638d67	0.055554774
8	0x3cc2c3ed	0.023775065
9	0x3de32d7a	0.11092658
10	0xbde273bb	-0.1105723
11	0x3d6c858a	0.05774454
12	0xbd2d87bf	-0.042365786
13	0xbdccba53	-0.09996476
14	0xbd9ee423	-0.077583574
15	0xbc1ec905	-0.0096914815

block2.layer.0.bn1.running_var f4 [16]
0	0x3fc9db79	1.5770103
1	0x3f9f1b69	1.243024
2	0x3fba6e65	1.456494
3	0x3fcca825	1.5988814
4	0x3faf9d81	1.3719941
5	0x3fe1e78a	1.7648785
6	0x3fa1e66d	1.2648445
7	0x3f949c1e	1.1610143
8	0x3f91cf6e	1.1391428
9	0x3f81a9f6	1.0129993
10	0x3fa82437	1.3136052
11	0x3fc925a3	1.5714611
12	0x3f9d6c27	1.229863
13	0x3f98e4af	1.1944789
14	0x3fa71bae	1.3055322
15	0x3fd9abae	1.7005517

block2.layer.0.conv1.weight f4 [32, 16, 3]
0	0x3e62ac91	0.22136141
1	0xbc96e737	-0.018420799
2	0xbe8ceb36	-0.27523202
3	0x3c284fec	0.010272961
4	0xbd8374df	-0.06418776
5	0x3d897171	0.0671109
6	0xbcc90e47	-0.02454294
7	0xbe544089	-0.20727743
8	0xbd11b9cb	-0.035577577
9	0xbe71176b	-0.2354409
10	0x3bbdbd2a	0.0057903724
11	0xbe802bd4	-0.25033438
12	0xbdee2206	-0.11627583
13	0x3e905b44	0.2819463
14	0x3d02352f	0.031789
15	0xbde4bab9	-0.11168427
16	0xbd37247f	-0.04471254
17	0x3dfe3bf4	0.12413779
18	0xbd2d32bd	-0.042284716
19	0x3e3ce056	0.18444952
20	0x3c58f572	0.0132421125
21	0x3e181adb	0.14853995
22	0xbe5aa896	-0.21353373
23	0xbe0fb94b	-0.14035527
24	0x3db8f4ac	0.090310425
25	0xbe609581	-0.21932031
26	0xbe839ad6	-0.25704068
27	0x3d1fee67	0.039045718
28	0xbbd340fe	-0.0064469567
29	0x3db4f1fe	0.08835219
30	0xbd34a4be	-0.044102423
31	0xbd779077	-0.060440507
32	0x3e96a7e3	0.29424962
33	0x3e892311	0.26784566
34	0x3de01d78	0.10943121
35	0xbe7b0399	-0.24513091
36	0x3d19756d	0.0374655
37	0xbe48c01d	-0.19604535
38	0x3dddef33	0.10836639
39	0x3e828a45	0.25496116
40	0xbe064faa	-0.13116327
41	0xbb91fd84	-0.0044552702
42	0x3d4e583f	0.050377127
43	0xbe1a5e6e	-0.15075085
44	0xbe30cc11	-0.17265345
45	0xbd8ff085	-0.07028297
46	0xbd6a9476	-0.05727049
47	0xbdbbd46c	-0.09171376
48	0x3e05e636	0.130761
49	0xbe73aecf	-0.23797153
50	0x3db56b89	0.08858401
51	0xbe31a5c9	-0.17348398
52	0x3cf31657	0.029673738
53	0x3dc53768	0.096297085
54	0xbe31938e	-0.17341444
55	0xbd6fd19a	-0.0585495
56	0xbe59c3ab	-0.21266048
57	0xbe853f8c	-0.26025045
58	0x3e500dc9	0.20317759
59	0xbc817add	-0.015805656
60	0x3d36aeb3	0.0446002
61	0xbe9b8f13	-0.30382594
62	0xbdcc3364	-0.099707395
63	0xbe4ae70f	-0.19814704
64	0xbcb058de	-0.02152675
65	0xbd45c1e6	-0.04828062
66	0x3adc639e	0.0016814356
67	0x3e998d83	0.29990777
68	0xbe3159c5	-0.173194
69	0x3d75c34a	0.060000695
70	0xbd63c0f3	-0.055603933
71	0xbe2c5b2a	-0.16831651
72	0xbd8326db	-0.064038955
73	0xbdb1897f	-0.086688034
74	0xbeb13592	-0.34611183
75	0x3bb19c60	0.0054202527
76	0x3a2706ca	0.0006371556
77	0xbd92c5ee	-0.07166658
78	0xbdbc54a7	-0.09195834
79	0xbe2c753f	-0.16841601
80	0xbe44851e	-0.19191405
81	0xbcc393cc	-0.023874186
82	0xbd8118e9	-0.06303579
83	0x3e94c118	0.2905357
84	0xbe34560f	-0.17610954
85	0x3d43594b	0.04769258
86	0xbe0a1b1d	-0.13486905
87	0xbd837471	-0.06418694
88	0xbd1afc36	-0.037838183
89	0xbd90d9fb	-0.070728265
90	0x3d8222b3	0.063542746
91	0xbe43ba0d	-0.19113941
92	0xbde1459f	-0.10999607
93	0xbe23e4a0	-0.16005182
94	0xbe90da8f	-0.28291747
95	0xbe4925c5	-0.19643314
96	0xbe78031f	-0.2421994
97	0x3d8792e0	0.06619811
98	0x3e2de1e7	0.16980706
99	0xbdb8bc4c	-0.0902029
100	0xbc8f560a	-0.017497081
101	0x3d6dc87c	0.058052525
102	0xbe135cee	-0.14390919
103	0xbe6f632c	-0.23377675
104	0x3d818efe	0.06326102
105	0xbe1c9055	-0.15289433
106	0x3d676532	0.05649299
107	0xbe3f2d13	-0.18669538
108	0xbe6aad5a	-0.22917691
109	0xbe829520	-0.25504398
110	0xbdabd69c	-0.08390543
111	0x3e8a5888	0.2702067
112	0xbdeff4cd	-0.11716614
113	0xbe2f5988	-0.17123997
114	0x3d7ec00d	0.062194873
115	0xbe342428	-0.17591918
116	0x3e6b190f	0.22958778
117	0x3ded17e3	0.11576822
118	0x3df67b89	0.12035281
119	0x3e5a74c6	0.21333608
120	0xbd291d8e	-0.04128795
121	0x3e1bf76a	0.152311
122	0x3d1aeace	0.037821583
123	0xbe7d6b79	-0.24748029
124	0xbd2c9fcd	-0.042144585
125	0xbe847472	-0.2587009
126	0xbe56f40d	-0.20991535
127	0x3d335e89	0.043791328
128	0xbe5972a4	-0.21235138
129	0xbe5d1535	-0.21590121
130	0x3d39307a	0.045212246
131	0x3cd236c2	0.025660876
132	0xbe1754c5	-0.14778431
133	0xbf020789	-0.5079275
134	0xbe11e85e	-0.14248797
135	0xbe3187aa	-0.17336908
136	0x3c07a082	0.008278014
137	0xbd8b3265	-0.06796721
138	0x3d4840b3	0.048889827
139	0xbe82f95a	-0.25580865
140	0xbc17976b	-0.009252409
141	0x3e222ddc	0.15837806
142	0x3e1fab8b	0.15592782
143	0xbd11e5a0	-0.035619378
144	0xbe1fbc44	-0.15599161
145	0x3c988b99	0.018621253
146	0xbdd99da7	-0.10625773
147	0x3ddaf7f2	0.10691823
148	0xbd44525a	-0.0479301
149	0xbd147a52	-0.036249466
150	0xbc235b30	-0.009970471
151	0x3c51282d	0.012765926
152	0xbe5a04c7	-0.21290885
153	0x3e368b55	0.17826588
154	0x3c8e2828	0.017353132
155	0xbda529ed	-0.08064637
156	0x3acfb34c	0.0015846281
157	0xbe8574f2	-0.26065785
158	0x3e2e4e52	0.17022064
159	0x3d81dc77	0.063408785
160	0x3e0624df	0.13100003
161	0xbda82290	-0.08209717
162	0xbd8a7f31	-0.06762541
163	0xbe3aac63	-0.18229823
164	0x3e235585	0.15950592
165	0x3d619da3	0.055081975
166	0x3e44e6a2	0.19228604
167	0xbe80d92a	-0.25165683
168	0xbca5d7ec	-0.020244561
169	0x3dd863b7	0.10565894
170	0x3e00f5fe	0.12593839
171	0x3e910098	0.28320765
172	0x3d2fe02b	0.042938393
173	0x3e2045f3	0.15651684
174	0xbd020d65	-0.031751055
175	0xbe23c8fc	-0.15994638
176	0xbe7b8b13	-0.24564771
177	0x3e302741	0.17202474
178	0x3d3a1bb3	0.045436572
179	0x3da15a4c	0.07878551
180	0x3e6ebce9	0.23314251
181	0xbe453911	-0.1926005
182	0x3d729e1d	0.05923282
183	0xbda19886	-0.0789042
184	0xbe2d6f53	-0.16936998
185	0x3d97741f	0.07395195
186	0x3e1fb041	0.1559458
187	0x3d08ed4c	0.03342943
188	0xbd8d1c34	-0.06890145
189	0x3e5c7e8e	0.21532652
190	0xbe45aeff	-0.19305037
191	0x3d02ec51	0.03196365
192	0x3d410819	0.047126863
193	0xbdbca4b3	-0.092111014
194	0x3dd9d94c	0.10637149
195	0x3d6c0ebf	0.05763125
196	0x3d4bdc94	0.049770907
197	0xbe553b93	-0.20823507
198	0x3e35b95e	0.17746493
199	0x3ced0d20	0.028936923
200	0xbe426551	-0.18983962
201	0xbdd63a55	-0.10460345
202	0x3ce8c11b	0.028412392
203	0x3d7efbb6	0.06225177
204	0xbe092edd	-0.13396783
205	0xbd4ab9be	-0.049493544
206	0xbce13e17	-0.027495427
207	0xbe05eaf4	-0.13077909
208	0xbe1ea47a	-0.1549243
209	0x3d8f249f	0.06989407
210	0xbe446426	-0.19178829
211	0xbdb5e15e	-0.08880876
212	0x3e022e99	0.12713088
213	0xbe3f2905	-0.18667991
214	0xbd5e7c8d	-0.054318
215	0xbe304bb3	-0.17216377
216	0xbdbc68ba	-0.091996625
217	0xbcf9c3e0	-0.030488908
218	0xbe125d7b	-0.14293472
219	0xbc07d93b	-0.008291538
220	0x3dcfdbf0	0.101493716
221	0xbdeabebf	-0.11462163
222	0xbd6dc944	-0.05805327
223	0xbc21dfc7	-0.009880013
224	0xbdcff3dc	-0.10153934
225	0xbd87ca28	-0.06630355
226	0x3db3b30d	0.087743856
227	0xbb99dcef	-0.004695527
228	0xbe6c6613	-0.23085813
229	0xbd64d773	-0.05586953
230	0xbdcab9ee	-0.098987445
231	0x3de87413	0.113502644
232	0xbe572398	-0.21009672
233	0x3dec0096	0.11523549
234	0x3cd55976	0.026043635
235	0xbe15f18a	-0.14642921
236	0xbcc6c06c	-0.024261676
237	0xbe237ce4	-0.1596561
238	0x3d766e5f	0.06016385
239	0x3e175b6e	0.14780971
240	0xbda599ac	-0.08085951
241	0xbd32dcd5	-0.043667633
242	0xbe5ec772	-0.2175577
243	0x3e64c6ba	0.22341433
244	0xbcba575e	-0.022746738
245	0xbd0eda20	-0.03487599
246	0x3e13c23e	0.14429566
247	0xbd0e8b33	-0.03480072
248	0xbe48b2f6	-0.19599518
249	0x3e0705fa	0.13185874
250	0xbd4ef808	-0.05052951
251	0xbdfb7d49	-0.122797556
252	0x3e919b82	0.28438956
253	0xbdbf9d7b	-0.09356209
254	0x3d2cd914	0.04219921
255	0x3e1862c0	0.1488142

block2.layer.0.bn2.weight f4 [32]
0	0x3f7fbe77	0.999
1	0x3f7fbe77	0.999
2	0x3f8020c5	1.001
3	0x3f8020c5	1.001
4	0x3f8020c5	1.001
5	0x3f8020c5	1.001
6	0x3f7fbe77	0.999
7	0x3f8020c5	1.001
8	0x3f8020c5	1.001
9	0x3f7fbe77	0.999
10	0x3f8020c5	1.001
11	0x3f8020c5	1.001
12	0x3f7fbe77	0.999
13	0x3f8020c5	1.001
14	0x3f8020c5	1.001
15	0x3f7fbe77	0.999
16	0x3f7fbe77	0.999
17	0x3f7fbe77	0.999
18	0x3f8020c5	1.001
19	0x3f7fbe77	0.999
20	0x3f8020c5	1.001
21	0x3f8020c5	1.001
22	0x3f8020c5	1.001
23	0x3f7fbe77	0.999
24	0x3f7fbe77	0.999
25	0x3f8020c5	1.001
26	0x3f8020c5	1.001
27	0x3f8020c5	1.001
28	0x3f7fbe77	0.999
29	0x3f8020c5	1.001
30	0x3f8020c5	1.001
31	0x3f7fbe77	0.999

block2.layer.0.bn2.bias f4 [32]
0	0xba831263	-0.0009999987
1	0xba83126b	-0.0009999996
2	0x3a831269	0.0009999993
3	0x3a831247	0.0009999954
4	0xba83126b	-0.0009999996
5	0x3a831267	0.0009999991
6	0xba83126b	-0.0009999996
7	0x3a831263	0.0009999987
8	0x3a831265	0.0009999989
9	0xba83123a	-0.0009999939
10	0xba831260	-0.0009999983
11	0x3a83126b	0.0009999996
12	0x3a83125d	0.000999998
13	0x3a83126c	0.0009999997
14	0x3a83126a	0.0009999995
15	0xba831262	-0.0009999985
16	0xba831269	-0.0009999993
17	0xba83126b	-0.0009999996
18	0x3a831261	0.0009999984
19	0xba83125f	-0.0009999982
20	0xba83123e	-0.0009999943
21	0x3a831269	0.0009999993
22	0x3a83126b	0.0009999996
23	0x3a83122a	0.000999992
24	0xba83126a	-0.0009999995
25	0x3a83125b	0.0009999977
26	0x3a831269	0.0009999993
27	0x3a83126c	0.0009999997
28	0xba83126c	-0.0009999997
29	0x3a83126a	0.0009999995
30	0x3a831217	0.0009999898
31	0xba831266	-0.000999999
