checkpoint/transfer_cnn_features_1d_sa_lirich_to_spinel5v_1210/retry_target_focus/best_model.pth (torch, 906722 bytes, 37 tensors)

model_cnn.conv_layers.0.0.weight f4 [16, 21, 15]
00000000: d144 3abd a8c9 313d 6756 1fbd 3b6c 2cbd
00000010: 55f3 07bd 3ee1 ec3c a773 92bc 2b69 c03c
00000020: 9ba3 37bd bbc6 fcbc a8ff 97bc 8f9b 18bc
00000030: 6ec2 28bd 1d8b 0e3d d273 3abc 1ba0 ac3c
00000040: 3ed8 223d c72c ca3b 6242 163c 0cd1 533d
00000050: 0ce8 b5bc fd72 6d3c 2429 bcbc 1205 263d
00000060: a060 393d 262f 54bd f230 4d3d b11d e23c
00000070: 8159 ca3c fa76 bc3c 72b9 4b3d a281 f2bb
00000080: d3bb 53bd 4414 abbc 5915 27bd e0f2 fa3b
00000090: bda3 2dbc ddd6 e9bc a412 83bb 60d6 5b3d
000000a0: 8223 8cbb 4cf7 9d3b b395 c8bb c66c 253c
000000b0: 3dea 4f3d 732a 063d 9e5f a43c 895a 1e3c
000000c0: 470c f53b c613 c03c 1aeb 28bb a19b 53bd
000000d0: 5f1f 02bd ef4b 513d b6f7 d83b 006f 34bd
000000e0: 62f4 4d3c e5eb 483d f44e 4ebd 3b50 13bd
000000f0: 565a cabc 8c70 b93a 524f 86bc 9b0a 38bc
00000100: 2d5d 5fbd 977b ef3c e04d 473d fa16 103d
00000110: da5d 1bbd e570 37bd 449d c63c b3d5 813b
00000120: 264d d03c e4b4 59bd 11c6 79ba 4ec4 2b3d
00000130: 5845 e13c 4d64 313b 096d 2e3c ecf2 75bb
00000140: d9bc eebc 4177 a1bc 6f5b 0ebd c29a 3e3d
00000150: bb1b f53c a095 853c dbaa 3abd 4ebf 283d
00000160: 136b 5b3c fc4b 113d 684f e0bc 39b1 f33b
00000170: 12f7 493d 1c0a 0d3d a499 3e3d 1f3d 28bc
00000180: cf49 353d 80a5 30bd bd22 b73b 4010 00bd
00000190: 36e3 5fbc 7ae6 6fbc 9a40 783b 5757 523d
000001a0: 46e9 e33c 0fd6 bbba 477a 243d 0833 05bd
000001b0: 7569 ba3c 593f 97bb 5d6d a9bb 19ca b73b
000001c0: c02d 29bd 76f1 e73b 4221 a43c da00 4d3d
000001d0: 8511 82bc 4e9e b03c 1082 6a3d 2351 bfbc
000001e0: 735d 543d 2db2 debc 4efe b33c 74ac 7b3c
000001f0: 685d 8d3c aa61 453d 0448 c2bc 707a 873c
00000200: 089c 163b b388 25bd ca78 5ebc 8e08 10bd
00000210: 6384 d63c f7e9 db3b c0db d03b 94a3 9cbc
00000220: 7fad 923b 0518 91bc bf86 7a3c d1d7 6e3d
00000230: 5dbc 4f3c e530 dbbc d37d fdbc 7c24 eb3b
00000240: 15b8 1dbd de1d 24bd f6a0 05bd a3a3 86bc
00000250: c43c f33b a791 2a3d eb0c 983c 73a8 3c3d
00000260: 79eb 15bd 4cb9 443b 2751 42bd 0b1a 123d
00000270: 3496 113c 5857 6b3d 2a94 15bd c5fb 483d
00000280: 4906 4e3d 7928 4f3d c927 3f3c 67b6 603d
00000290: d88a 283d fe2f 1b3d 5a17 98bb 9963 37bd
000002a0: 3e0a e0b9 e260 633c bbe8 0cbd f6c4 00bd
000002b0: b025 56bd aad7 94bc 7ff0 533d 8feb 5c3c
000002c0: b04f b6ba dd81 aa3b b828 133d 5137 40bd
000002d0: 7177 37bd 2047 9fbc 08ed 08bd 0855 e03c
000002e0: 5181 1a3d 9a80 63bd 9f79 4bbd b67f 6dbd
000002f0: cf66 b63c 4d35 3e3d 85e4 32bd a6e5 c6bc
00000300: 66cb 993c 8420 11bd 8e31 493d ba71 5c3c
00000310: 877e 9cbc 8e60 bd3a dab2 a63c 4e20 88bc
00000320: d854 22bd f521 803b 3cfd 2b3b c625 0b3b
00000330: 383f fcbb 529c 163d 24aa 82bc aba7 b8bb
00000340: e9ee c43c 1d62 0cbd a9c9 4e3c 1aa3 56bc
00000350: 5b4f cb3c 1c31 0dbd 32ae 04bb 6542 193b
00000360: 4098 4abd 08e6 33bd e9f3 ae3c b977 91bc
00000370: b295 063d a532 60bd 0967 e3bc 86ed 39bd
00000380: 08cc b23c f307 efba 0305 5fbc 9fde 42bc
00000390: cc86 26bd e45f ab3c 4bb1 9d3b cfcf 09bd
000003a0: a596 cc3c 94dc 083b d792 52bd 7d8c 0c3d
000003b0: 705f 023d 3ecd 06bc 7147 15bd c2b0 ad3b
000003c0: f461 1b3d 3857 413d c511 41bd 0efc f5bc
000003d0: 6fc3 333d b583 dd3c 5a16 0d3d f701 e1bc
000003e0: 8348 4a3d a8fc 3cbd f594 78bb 0eda fd39
000003f0: 74ca 233c 7323 2dbd 8104 503d f747 503d
-0.045475785 0.043405205 -0.03890076 -0.042095404 -0.033191044 0.028915998 -0.017877413 0.023487648
-0.04483376 -0.03085648 -0.018554524 -0.009314432 -0.041201048 0.034800638 -0.011380153 0.021072438
0.039757006 0.0061698887 0.0091711 0.051713035 -0.022205375 0.014492747 -0.022968836 0.04053218
0.045258164 -0.051802777 0.050095506 0.027602049 0.024700882 0.023005951 0.0497374 -0.0074007073
-0.051692795 -0.020883687 -0.040791843 0.0076583475 -0.01059812 -0.028544838 -0.004000025 0.05367124
-0.004276694 0.00482074 -0.006121361 0.010096734 0.050760496 0.032755326 0.020065125 0.00966514
0.00747827 0.023446929 -0.0025774897 -0.05166209 -0.0317682 0.051097807 0.0066213263 -0.04405117
0.012570472 0.04905309 -0.050368264 -0.035965186 -0.024701279 0.0014147921 -0.016395245 -0.011232997
-0.05453222 0.029233737 0.04865825 0.035178162 -0.0379313 -0.0447854 0.024244912 0.0039622425
0.025427412 -0.053151026 -0.00095281104 0.041935258 0.027498886 0.002706784 0.010646113 -0.0037528826
-0.029142784 -0.019710185 -0.034755167 0.046534307 0.02992045 0.016306698 -0.045573097 0.041198067
0.013392228 0.035472855 -0.027381614 0.007436898 0.04930789 0.03443347 0.046533242 -0.010268479
0.044259842 -0.043126583 0.005588858 -0.031265497 -0.013665011 -0.014642352 0.0037880302 0.051352825
0.027821194 -0.0014330762 0.040155675 -0.03251937 0.022755364 -0.004615706 -0.005170508 0.0056088087
-0.041303396 0.007078345 0.02003539 0.05004964 -0.015877495 0.02155986 0.057252944 -0.023354119
0.051846933 -0.02718457 0.021971848 0.01536094 0.017256454 0.048188843 -0.02371598 0.016537875
0.0022981185 -0.04041357 -0.013578603 -0.03516441 0.026186174 0.0067112404 0.0063738525 -0.019120969
0.0044762488 -0.017711649 0.015290915 0.058311287 0.012679187 -0.026756713 -0.030943787 0.00717598
-0.038505632 -0.040067546 -0.032624207 -0.01643545 0.0074230153 0.04164281 0.018560847 0.046059083
-0.036601517 0.0030017672 -0.047440674 0.035669368 0.008885909 0.057456344 -0.036518253 0.04906823
0.050298963 0.050575707 0.0116672 0.054861452 0.041148037 0.037887566 -0.0046414556 -0.044772718
-0.0004273224 0.013878079 -0.034401637 -0.031437837 -0.052282035 -0.018169243 0.051743027 0.013483896
-0.0013909247 0.005203469 0.035927504 -0.046927754 -0.044791643 -0.019443095 -0.033429176 0.027384296
0.037720982 -0.055542566 -0.049676534 -0.057983123 0.02226582 0.04643755 -0.043674964 -0.024279427
0.018773746 -0.0354314 0.049119525 0.013454849 -0.019103302 0.0014448331 0.020348955 -0.016616967
-0.039631695 0.003910298 0.0026243469 0.0021232232 -0.007697966 0.036770172 -0.01595027 -0.005635222
0.024039702 -0.034273256 0.012621322 -0.01310041 0.024818113 -0.034470662 -0.002024543 0.0023385521
-0.049461603 -0.043920547 0.02135654 -0.017757284 0.032857604 -0.0547358 -0.027759092 -0.045392536
0.021825805 -0.0018236622 -0.013612035 -0.011893897 -0.040655896 0.020919748 0.0048123947 -0.033645447
0.024974177 0.0020883428 -0.05140957 0.034313668 0.031829298 -0.0082276445 -0.036445085 0.005300612
0.037935212 0.04720232 -0.047136087 -0.030027416 0.043887552 0.027040342 0.034445144 -0.027466757
0.04938556 -0.04613939 -0.0037930582 0.00048418384 0.009996999 -0.042270135 0.050785545 0.05084988

model_cnn.conv_layers.0.0.bias f4 [16]
00000000: 646f 8dbb f588 16bd 29b1 18bd 520c 703c
00000010: 1231 38bd 0821 5abd a34a 39bd b772 763c
00000020: 7397 29bc 505e c93c c4fd 24bc 95c4 443d
00000030: 95ba 3cbd 4129 3cbd bf79 363d e549 773a
-0.0043162573 -0.036751706 -0.037278328 0.014651375 -0.044968672 -0.053254157 -0.045237195 0.015041999
-0.01035105 0.024581105 -0.010070268 0.048039038 -0.046076376 -0.04593778 0.0445497 0.00094333134

model_cnn.conv_layers.0.1.weight f4 [16]
00000000: 0441 803f 7bad 7f3f 8261 803f cadf 7f3f
00000010: d01e 803f 5104 7f3f 1f8e 7e3f 5855 7f3f
00000020: 57b9 7e3f f94a 803f 1eef 7f3f 6758 803f
00000030: 58c7 7f3f e570 803f 421a 803f 7833 803f
1.0019841 0.99874085 1.0029757 0.9995085 1.0009403 0.9961596 0.9943561 0.997396
0.99501556 1.002288 0.9997424 1.0026978 0.9991355 1.0034453 1.0008013 1.0015707

model_cnn.conv_layers.0.1.bias f4 [16]
00000000: e010 933a 3e03 3ebb 38cf 58ba 8057 973a
00000010: 8066 3ab9 002e 053b 3f15 1639 46a4 35b9
00000020: 926b 72bb 296a 433b ff88 e4ba e62b 07bb
00000030: cddc 95bb b571 433b 34bd 133b 1267 d63a
0.0011220239 -0.0028993632 -0.0008270624 0.0011546463 -0.00017776527 0.0020321608 0.0001431303 -0.00017322702
-0.0036990386 0.0029817915 -0.0017435848 -0.002062553 -0.0045734406 0.0029822413 0.0022543194 0.0016357622

model_cnn.conv_layers.0.1.running_mean f4 [16]
00000000: 3ff6 07bd 0ed3 bdbc a12e 813e d6b8 ab3e
00000010: f7ce debd 3d77 46be 88a6 3d3d ccd0 30be
00000020: d71e 9ebd 50b6 a23c 58bf a23d 87b7 5d3e
00000030: 3a85 acbe 79ad 85bd c5c3 3c3e 926c 79be
-0.033193823 -0.023171928 0.25230888 0.33539456 -0.10879319 -0.19381423 0.046301395 -0.1726715
-0.07720726 0.019862324 0.07946652 0.21652041 -0.33695394 -0.06527228 0.18434055 -0.24357823

model_cnn.conv_layers.0.1.running_var f4 [16]
00000000: 381d 8f3e efcf d93e 5b74 f13e 9966 6a3e
00000010: 3bfe ab3e 59a0 e53e 6720 8c3e 3f20 e03e
00000020: 58ad 9e3e e43b e53e fc8e 943e ba39 c03e
00000030: d231 da3e 91fe a23e 6785 c53e 6b83 e53e
0.2795198 0.42541453 0.47159085 0.228907 0.335924 0.44848898 0.2736847 0.43774602
0.30991626 0.44772255 0.29015338 0.37544042 0.42616135 0.31834844 0.3857834 0.44826826

model_cnn.conv_layers.1.0.weight f4 [32, 16, 3]
00000000: 7ef5 133e 3f97 5d3d b59a 56bd 4e24 06bd
00000010: 689f 0e3e bc89 263c 6929 0a3c c4e8 873d
00000020: 7cf6 573c 3756 673c 35ba 08be d4ce acbc
00000030: db19 e6bc 4fc6 d03d 82a2 6d3d 94c7 11be
00000040: 02ce f9bd e9f6 5d3d e976 e5bd ee45 9e3d
00000050: 7195 96bd e636 52bc cba6 cb3d 2d0f 44bd
00000060: f6f4 ebbd a6bc ffbd 6924 bb3c a11f d83c
00000070: 6736 a6bc f921 523c bdf6 e9bd 263b 083e
00000080: 6de4 ba3d 0f8f 62bc 7ed5 123e 1235 0b3e
00000090: b906 fabd b08d 603d 021a 103e 32f1 0d3e
000000a0: fa60 223d 7268 783c 4d1f 253d 87fb 383d
000000b0: 379f e73d ca5d aebd 5377 103e 880f bfbd
000000c0: 3381 6b3d cf94 e43d bf31 3f3d 721c d13d
000000d0: fe86 523d ba84 6a3d 0a76 053e 690c 57bb
000000e0: f497 d8bb e0c2 993d db59 87bd ac91 013e
000000f0: bbb0 a43d 4ae1 ed3d 7b9e b8bd 9ffb 643d
00000100: 5e7a d93d a052 25bd 12a1 85bd 7eb2 093d
00000110: dc5b aabd 786e 9dbd 7742 e2bc 9636 033e
00000120: 492a 3abd 98bb 4f3d 52f0 41bc cfdc 7ebd
00000130: ab83 f03d ca5d e3bd c454 033c 5317 333d
00000140: 305a f4bb febe cf3d 7e52 87bd 650b e3bc
00000150: 7af5 d3bd 5d67 9d3d c553 7b3d e913 58bd
00000160: 290e b9bd 90cd 5cbc 50a4 fc3b 0994 f13c
00000170: aa1c e4bd 3855 b83d 3719 0e3e d06e b33d
00000180: 006a af39 d717 ac3c 5c5b a7bb f4a8 2a3d
00000190: ef7a 093e 336c bebd 10a8 68bc 4e9a c03d
000001a0: 1fbb 243d dab3 0a3e 3ede 0fbe fc69 313d
000001b0: 11b2 783c 2bc0 ecbc 71f0 fdbd cc32 b33c
000001c0: 897c 0c3e 58f6 bf3d 3032 05be 5d37 833d
000001d0: 5b0b dcbd 7b63 e53d 5b5d 2b3c 3fc3 583c
000001e0: 1d11 103e 79ba dabd 80f1 01be 6fb4 80bd
000001f0: 7b13 1abd 5daa c1bd b08a 2abc a048 b3bd
00000200: 757a 563d 8b71 14bd bbe3 af3d 2b1c 8d3d
00000210: ea0c 093e 8a0c bdbd 5df0 1fbc 4ed3 eebb
00000220: 7d7c 01be 254e ea3d 76f1 b93d 379c cd3d
00000230: 43b8 3bbd 3ec9 95bd 2410 9c3d c2bf cb3c
00000240: d801 853c 623b ccbc 51e9 06be ce8c b83d
00000250: 9d5d abbd ad6d c43d ae20 17bd 84f3 11bd
00000260: c86a 2b3d c88f 3d3d 790c fa3d 1fdf 54bd
00000270: 11f9 7e3d d00f 833d cfae 0ebc 8acf 09be
00000280: 3520 babc a472 e53d 36c1 ffbd 512b 733c
00000290: 0f1a 9ebd c7aa 8abd 1841 ed3d d5cf 14bc
000002a0: 65f9 503d e7f9 003d aeff d4bd 6221 13be
000002b0: 05cf bdbd 0ddf ffbc 6a0c 85bd 4a36 20bd
000002c0: 7f9a 6f3d 2a68 40bc 49e5 6e3c 3aa8 8abd
000002d0: 83e7 c43d 9de4 90bd def9 45bc c261 b03d
000002e0: 7e8e 053e f853 9dbd c4fa 07be 8522 f4bd
000002f0: 3c65 f63c 992e 7f3d 55d3 8cbd 8253 f0bd
00000300: 4f96 f0bc dcde 28bd 2a4c c3bd 24d9 09be
00000310: 0a20 d2bd 41d2 31bb 84d4 933d 0c51 eabd
00000320: dd19 5fbd c288 e2bd 824d 903d 3eee 39bc
00000330: 5414 c63d 9a46 b43c 8331 c2bc 2ce0 ff3d
00000340: f5e5 b93d 42d3 033e 700e c9bd ee21 813d
00000350: 3de1 babd a342 b1bd b493 da3d cd9a 8a3d
00000360: dc45 a7bd 281c c3bd b90e 9abd fda4 e83d
00000370: 5c20 413d 0535 103c 5746 c9bd 3b2a 3b3d
00000380: 0c2b 05bd 0fe8 b13d 5c05 fb3c d791 7c3d
00000390: 2c9e 47bd 9198 2ebb c414 aabd 490f f83c
000003a0: b84f 3fbc 7045 02be 0b09 a43d 7831 5f3d
000003b0: b525 ae3d dabd 7f3d 2816 413c 8705 d93d
000003c0: 655e fabd ef2a 303d b1ac ea3d 8175 c5bc
000003d0: 2292 e33d 29e3 763d 9fff 003e bdf4 013e
000003e0: 0189 883d 3ea5 863c 5cb7 fabd 0004 54bd
000003f0: d410 04be 5972 bbbc e61d b53d 301a 9b3d
0.14449117 0.054099318 -0.052393634 -0.032749467 0.13927996 0.010164674 0.0084327245 0.066361934
0.013181325 0.014119676 -0.13352282 -0.021094717 -0.0280885 0.10194074 0.058016308 -0.1423629
-0.12197496 0.05419055 -0.11204321 0.07728182 -0.073527224 -0.012830472 0.099439226 -0.047866035
-0.11521332 -0.12487154 0.02284451 0.02638227 -0.020289613 0.0128254825 -0.11424015 0.13303813
0.091256 -0.013828053 0.14339253 0.13594463 -0.122083135 0.054822624 0.14072421 0.1386154
0.039643265 0.01516162 0.040313054 0.04516175 0.11309665 -0.085139826 0.14108019 -0.09329134
0.05749626 0.111611955 0.0466783 0.10210504 0.05139827 0.057255484 0.1303331 -0.0032813794
-0.006609911 0.075078726 -0.066089354 0.12653226 0.08041521 0.11615236 -0.09014603 0.055904027
0.10619043 -0.040362 -0.06524862 0.03361749 -0.08318302 -0.07687086 -0.027619584 0.12813792
-0.045450483 0.050716013 -0.011837082 -0.0622223 0.11743864 -0.11101873 0.008015815 0.043723416
-0.0074570403 0.10143851 -0.06607531 -0.027715394 -0.10349555 0.076857306 0.061359186 -0.052753363
-0.09035904 -0.013476744 0.0077100173 0.029489534 -0.1113828 0.09000629 0.13876806 0.0876137
0.00033457577 0.021007461 -0.0051073264 0.041665033 0.13425802 -0.09297981 -0.0142002255 0.09404431
0.040217515 0.1354517 -0.14049622 0.043313965 0.015179173 -0.028900227 -0.12399376 0.021874808
0.13719381 0.09373158 -0.13007426 0.06407044 -0.107443534 0.11200615 0.010459269 0.013230144
0.14069028 -0.10680098 -0.12689781 -0.06284415 -0.037616234 -0.09456322 -0.010409042 -0.087540865
0.052362878 -0.036241096 0.08588358 0.06890138 0.13383833 -0.09230907 -0.009761897 -0.007288373
-0.12645145 0.11440686 0.09079258 0.10039561 -0.045830023 -0.073137745 0.07620266 0.02487171
0.01623623 -0.02493066 -0.1317494 0.09011231 -0.08367465 0.095912315 -0.0368964 -0.035632625
0.04184988 0.0462797 0.1220941 -0.051970597 0.062249247 0.063995 -0.00870867 -0.13458076
-0.022720436 0.112035066 -0.12488024 0.01484187 -0.07719814 -0.067708544 0.11584681 -0.009082754
0.05101909 0.031488325 -0.104003295 -0.14368203 -0.092680015 -0.031234289 -0.064965084 -0.039114274
0.05849695 -0.011743585 0.014581033 -0.06770368 0.0961447 -0.070748545 -0.012083499 0.08612396
0.13042638 -0.076820314 -0.13279253 -0.119206466 0.03007757 0.0623003 -0.06876246 -0.11734678
-0.029368548 -0.04122816 -0.095360115 -0.13461739 -0.10260017 -0.0027133378 0.072182685 -0.1144124
-0.054468025 -0.11061241 0.070460334 -0.011348305 0.09671846 0.022006322 -0.02370525 0.12493929
0.09077064 0.12873557 -0.09817207 0.063053 -0.09124992 -0.08655288 0.106727034 0.06767807
-0.081676215 -0.09526855 -0.075223394 0.11359594 0.04715 0.008801703 -0.098278694 0.04569457
-0.032511756 0.0868684 0.030642204 0.06166252 -0.04873483 -0.002664123 -0.08304742 0.030280726
-0.011676721 -0.12721801 0.08009537 0.054490536 0.08503286 0.062436916 0.011785068 0.105967574
-0.122250356 0.043009695 0.114587195 -0.024103882 0.11111857 0.06027523 0.12597512 0.12691016
0.066667564 0.016436215 -0.12242004 -0.051761627 -0.12897044 -0.022881674 0.08843593 0.07573354

model_cnn.conv_layers.1.0.bias f4 [32]
00000000: a88a 1fbd 00b6 57bc 764a 98bb df7d 9d3d
00000010: 4703 773d 760e 04be fd2e 7d3d 0d92 073e
00000020: d59b d6bd 7abf b63d a327 dfbd bf73 1bbc
00000030: e59d 913d 1e57 f43d 30a2 bbbd 2028 03be
00000040: 6b37 92bd 3428 0a3e e579 273d 899f 93bd
00000050: 1836 97bd 10aa 85bd e941 cdbd 675c b9bd
00000060: bfa5 7ebd be2e e63d 1d3c 8abc a197 043d
00000070: f7dd 8d3d c4b9 093d 5f50 95bd 8f0a afbd
-0.038950592 -0.013165951 -0.0046475483 0.07690024 0.06030586 -0.12896141 0.06181239 0.13239308
-0.10478941 0.0892324 -0.10896232 -0.009488045 0.07110194 0.11930679 -0.09161794 -0.12808275
-0.071394764 0.13491899 0.040887732 -0.07208163 -0.073833644 -0.065265775 -0.10022337 -0.090508275
-0.062169787 0.11239384 -0.016874367 0.032371167 0.06927102 0.033624426 -0.0729072 -0.08546936

model_cnn.conv_layers.1.1.weight f4 [32]
00000000: dc1f 803f 4e55 803f 183c 803f 59ff 7e3f
00000010: 4687 7f3f 8e49 803f 25a3 7e3f 4803 803f
00000020: bb29 803f af05 803f 6976 7f3f 24f5 7f3f
00000030: 763d 803f 6796 7f3f 98d1 7e3f e75a 803f
00000040: d39f 7f3f 292a 7f3f 01d1 803f 7342 803f
00000050: c359 803f 78be 7f3f 2780 7f3f adc5 803f
00000060: 37de 7f3f cc82 7f3f 0e00 803f 24ba 7f3f
00000070: 4259 7f3f 5078 7f3f 7c2a 803f 73d1 7e3f
1.0009723 1.0026033 1.0018339 0.9960838 0.99815786 1.0022447 0.9946769 1.0001001
1.0012735 1.0001734 0.99790055 0.9998343 1.0018756 0.9983887 0.99538565 1.0027741
0.9985325 0.99673706 1.0063783 1.0020279 1.0027393 0.9990001 0.9980492 1.0060326
0.9994845 0.99808955 1.0000017 0.99893403 0.9974557 0.9979296 1.0012965 0.99538344

model_cnn.conv_layers.1.1.bias f4 [32]
00000000: e292 ec3a 0c9b 6a3b 1612 ed3a 1d8e f6b9
00000010: d0c8 b0bb f939 ed39 695c 8d3a 6136 89bb
00000020: 88a4 be3a f226 0d3b 903b 89ba ac34 5f3a
00000030: e5fb 3b3b f338 54bb 1246 c93a 88c5 b3ba
00000040: 7abf dd39 8e1b 98bb 61c8 843b 1703 f6ba
00000050: fb89 2a3b 86bb 273b 8930 4abb 28d1 763b
00000060: 41eb b13a 6537 bfb9 96e6 c83a 11d0 0e39
00000070: 5648 5bba 7440 e13a f2d5 853b e1a0 c5ba
0.0018049146 0.0035797982 0.0018087055 -0.0004702666 -0.0053950325 0.00045247356 0.0010784987 -0.0041873907
0.0014544884 0.0021538106 -0.0010470022 0.00085146236 0.0028684076 -0.0032382577 0.0015355966 -0.0013715485
0.00042295066 -0.0046419566 0.0040522073 -0.0018769231 0.0026022184 0.002559395 -0.0030851683 0.0037661288
0.001357414 -0.0003647163 0.0015327509 0.00013619686 -0.0008364966 0.0017185346 0.004084342 -0.0015077853

model_cnn.conv_layers.1.1.running_mean f4 [32]
00000000: 5f67 3a3e 6b55 ad3e 3eb1 1e3e 1b3d 31be
00000010: 964b 8f3d 9991 e5bd 9717 2f3e 828d 4f3e
00000020: 0252 04bf 6874 8d3e c971 6cbd 853f 703e
00000030: f732 bb3d 8ddd c4bd 2f23 21be 0329 993c
00000040: 4af6 58bb dbfe 5e3e b0e7 7f3d e11e 00bf
00000050: b8d7 c43d 6e4f 91be 3211 ef3b 2493 53bd
00000060: 24cd f53c 3e9f 673e bcd5 77bd a687 d2bd
00000070: fd95 c2bd 26c6 6a3e ac00 28bd 62eb 03be
0.18203495 0.3385423 0.154973 -0.17308466 0.06996839 -0.11209411 0.17098843 0.20268825
-0.51687634 0.27627873 -0.0577257 0.23461731 0.0914058 -0.0961257 -0.15736078 0.018696314
-0.0033105784 0.21776907 0.062476814 -0.5004712 0.096114576 -0.28380913 0.007295751 -0.051653996
0.030005045 0.2261934 -0.060506567 -0.10279779 -0.09501264 0.2292715 -0.041016266 -0.1288276

model_cnn.conv_layers.1.1.running_var f4 [32]
00000000: 4620 2c3e c0b0 ac3d ce26 c53d b7f8 b33d
00000010: ee42 c93d 7281 073e 1fa2 c43d 13fd a73d
00000020: 18f9 143e 84e7 e83d 52e3 c23d 2b98 b03d
00000030: caf2 c03d ffb9 2b3e 84ac af3d af90 b73d
00000040: d496 ce3d 516d d83d 66f4 dd3d 35b1 1e3e
00000050: dec6 a83d df5b 163e 72cf 443e dd03 ea3d
00000060: bb9e e83d 340a b73d 7808 d63d c2d2 ce3d
00000070: 2b15 a03d 84a3 bd3d 8cb7 b53d a25f 0f3e
0.16809186 0.0843215 0.09626542 0.08787673 0.09827219 0.13232973 0.09601235 0.08202567
0.14548147 0.11372283 0.09516014 0.08622774 0.09421308 0.1677017 0.085778266 0.08963143
0.10087362 0.105677254 0.10837631 0.15497287 0.08241056 0.14683484 0.19219759 0.11426518
0.113584004 0.08937493 0.10450834 0.100987926 0.078165375 0.09259704 0.088728994 0.14001325

model_cnn.conv_layers.3.0.weight f4 [64, 32, 3]
00000000: 2d54 6ebd 2cdd a5bc 2e37 69bc 0c79 463d
00000010: bd68 133d 498e 633d bd27 53bd 1300 bfbd
00000020: 7e8e 023d f613 cebd 57a3 9f3d 2cd4 0fbd
00000030: cd39 a03c 1a6a fc3c a717 58bd 5383 7fbd
00000040: 9e54 983d 5b70 af3d 79a7 7b3c b317 a93d
00000050: 4fc2 4d3d a755 e2bb feee 14bd 5cb6 84bd
00000060: 09da d33c 2067 5b3d 063b a43d 0586 00bb
00000070: 7197 a13d 49de 6c3d 2bf9 683d 2c18 543d
00000080: b2d5 4b3d 4f9b f23c 4b56 763d c0ef a93d
00000090: c9fc 963d 8ae5 a33d 9894 51bd e86d c0bc
000000a0: d110 c03d 323e 523d 8fe1 933d 4312 2c3d
000000b0: 6f77 6fbd a2b0 3e3d 5577 6bbd 73e7 5b3d
000000c0: 2659 cabc 83f7 a13d c7bb 80bd 3836 58bd
000000d0: f18f 983c 0d7c a23d 4638 8dbd c3bc ad3b
000000e0: c076 d6bb 4e02 7b3d 519b 71bd 7939 bbbd
000000f0: b85c 9f3c 4a79 5bbd 8a90 30bd aa50 783d
00000100: 5206 68bb 8bde cabc dc27 963d 41a2 abbd
00000110: 1d7f 93bd df5f 9c3d 1d3b 90bc 5e0d c53d
00000120: b603 373d 366a f0bc e67e 88bd d71f 9e3d
00000130: 2a2a 90bd 30f1 a33d 0244 d13c b8a8 48bd
00000140: a46a 963d 4ce1 2d3d ce6e 49bd 3d3c a03d
00000150: a5a0 c6bd 7d8f b23c 2393 7b3d 03aa 1f3c
00000160: dc01 8cbd dddd 483d ead7 b5bd a2da cf3c
00000170: a9e9 b93d 941a c73d 23ef 003b 8243 9b3d
00000180: 3ff8 bd3d e2fd 39bd 5e0c 64ba 257c 3abd
00000190: 8057 8fbd 5702 a53d 525a 66bd 1d3b 7abb
000001a0: c265 243d defd acbd 038b a1bd 69c3 6f3d
000001b0: ef30 153c ec46 31bd 0399 8dbc eca0 43bd
000001c0: d85f a4bc 99c8 90bd fb60 86bc 24d5 5f3d
000001d0: 884e c3bd be56 84bd b697 adbd 9c92 5c3c
000001e0: d7ae 10bd 7c8f bb3b fa77 053d 2855 073d
000001f0: a8c2 6fbd afe8 02bc 5574 d0bd de36 96bd
00000200: 188c 3bbd 4849 44bd 2bd1 89bd 5b4a 143d
00000210: 4411 713b 6edb 163d 18e4 63bc ed51 8d3d
00000220: 5f69 76bd f9b6 183d d0a9 70bd eeca 2abd
00000230: fee1 be3d 41b1 d2bc b381 153c 1d55 e63c
00000240: 8f60 8a3d 5535 173d 01a7 94bd 59e2 aabd
00000250: ab86 baba 376b 14bc fcb1 803d b9ce d9bc
00000260: 90d8 cc3d a678 b13d 8521 ca3d de86 2b3b
00000270: f59c cebb 635c 7e3d 5369 80bc 799d 88bd
00000280: cf6d bfbd 9a19 a1bc fc09 193c b4c1 bf3d
00000290: 0c2b 9c3d 8d4f 9cbd 26b2 c3bd a27e 88bb
000002a0: bdd4 2cbd e4d5 2abc 230e babd 8cfa cebd
000002b0: f243 c1bb 9bf2 f4bc 1ae1 6dbd 0e18 e63c
000002c0: c1ed d0bc cb6e 65bd 7287 873d aed4 b2bd
000002d0: 8043 c3bd e8ee a2ba aa54 eb3c 2264 e2bb
000002e0: e5e2 6bbd 5c35 8fbc d33b 92bc c0d6 073d
000002f0: 6856 91bd c127 123d 23c1 c63c d61c a63d
00000300: 0145 453d da77 e23c 5360 0b3d ee08 b6bd
00000310: ada4 5f3d 63d3 c23d e713 8bbc c4f5 99bd
00000320: 4571 db3c 0e04 af3d 219c a63d 2267 14bc
00000330: 4b8e 8d3d 74ae a63b bd1c 3d3b 336f ccbd
00000340: 290f 56bd 32d8 f63c 5c17 a13d aa3c c8bd
00000350: 096c f4bc 479b b13d 7f33 cc3c a1c8 1cbc
00000360: ed58 adbd dfa4 b33d 4b4a 1a3d 32ef 443c
00000370: 8e70 a83d df96 c0bc ee36 403b 7908 1bbd
00000380: d441 aebd fcd6 bf3d 51bb cfbd b01f 893d
00000390: 0903 1bbd 5b5e be3d 0228 1d3d d1f8 79bd
000003a0: b7f4 75bb 9e90 9a3d cc13 76bd 1042 7cbd
000003b0: d139 c03d c070 88bd c64d 8f3b 708b 513c
000003c0: 11ad 84bd 4ec1 c7bd aab3 863c e0a0 9fbd
000003d0: e141 82bc fc5b a73d 23c2 723c 1b1b 13bd
000003e0: bfc7 95bd 49e1 763c 5edc 883d 5886 1cbd
000003f0: e7f6 963d 60df 0cbd 2a8d cbbc 087b 9f3d
-0.058185745 -0.020247065 -0.014234347 0.048455283 0.035988558 0.055555616 -0.05155157 -0.09326186
0.031874172 -0.10062401 0.077948265 -0.035114452 0.019558812 0.030812312 -0.05275693 -0.0623811
0.074380144 0.08566352 0.015359753 0.082564734 0.050234135 -0.006907183 -0.036360733 -0.06480095
0.025860803 0.053565145 0.0801907 -0.0019611132 0.07890213 0.057829175 0.05687825 0.051780865
0.049764343 0.029615073 0.06014089 0.08297682 0.07372434 0.080027655 -0.0511671 -0.023489907
0.093782075 0.051328845 0.07220756 0.042009603 -0.05846351 0.04655517 -0.05748685 0.053687524
-0.024700712 0.07908537 -0.06285816 -0.052786082 0.018623324 0.07933817 -0.06895499 0.005302043
-0.006544918 0.061281495 -0.058986012 -0.091418214 0.019453391 -0.053582467 -0.043106593 0.060623802
-0.0035404158 -0.02476432 0.07331821 -0.08380557 -0.07201979 0.076354735 -0.017606312 0.0962169
0.044681273 -0.02934752 -0.06664829 0.07720917 -0.07039292 0.08004987 0.025545124 -0.048989028
0.07344559 0.042451188 -0.049177937 0.078239895 -0.09698609 0.021796936 0.061419617 0.009745124
-0.06836292 0.04903971 -0.08879073 0.025372807 0.0907777 0.09721866 0.0019673787 0.075812355
0.09275865 -0.045408137 -0.00086993526 -0.04552855 -0.06999111 0.08057087 -0.05623848 -0.0038182207
0.040136106 -0.08446859 -0.078878425 0.058535967 0.009105905 -0.043280527 -0.017284876 -0.04776089
-0.020065233 -0.07069511 -0.016403666 0.054646626 -0.09536463 -0.06461857 -0.08476202 0.013462689
-0.03532299 0.005723892 0.03258512 0.033040196 -0.058535248 -0.007990046 -0.101784386 -0.07334684
-0.0457879 -0.04792145 -0.06729349 0.036203723 0.0036783973 0.03683036 -0.013909362 0.06900392
-0.060159083 0.03728387 -0.058755696 -0.041697435 0.09320448 -0.025719287 0.009125161 0.028116757
0.06756698 0.036916096 -0.07258416 -0.08343954 -0.0014230808 -0.009058765 0.06283948 -0.02658783
0.100022435 0.0866559 0.098696746 0.0026172916 -0.006305332 0.062099826 -0.015675223 -0.066706605
-0.09347116 -0.019665528 0.009340759 0.09363118 0.07625398 -0.076323606 -0.095554635 -0.0041654864
-0.04219507 -0.010426972 -0.090847276 -0.10106382 -0.0058979923 -0.02990084 -0.058076 0.028087642
-0.025503995 -0.056013864 0.06617631 -0.08731972 -0.09534359 -0.0012430819 0.028726894 -0.0069089094
-0.05758943 -0.017481498 -0.017850792 0.033163786 -0.07096559 0.035682444 0.024262017 0.08110969
0.04816151 0.02764504 0.03402741 -0.08888422 0.054600406 0.09512975 -0.016977264 -0.07517579
0.02678741 0.08545695 0.08135248 -0.009057792 0.06911906 0.0050867144 0.002885624 -0.09982147
-0.05226055 0.030132387 0.078657836 -0.09777196 -0.029836671 0.08672195 0.024926899 -0.009569318
-0.08464227 0.08771681 0.037668508 0.012019919 0.08224593 -0.023509441 0.0029329616 -0.037849877
-0.085086495 0.09367177 -0.1014315 0.06695497 -0.03784469 0.092953406 0.038368233 -0.061028305
-0.0037529895 0.07547115 -0.060077474 -0.06158644 0.093860276 -0.0666213 0.004373285 0.012789592
-0.06478322 -0.09753667 0.016443092 -0.07794356 -0.015900554 0.081718415 0.014816794 -0.03591452
-0.07313489 0.015068361 0.06682657 -0.038214058 0.07371312 -0.034392715 -0.024847586 0.07787138

model_cnn.conv_layers.3.0.bias f4 [64]
00000000: b032 b1bc 8179 88bd 26f8 8b3c 829a b73d
00000010: 6ac1 b63c d7c9 bdbd 9795 203d de2d 86bb
00000020: d528 b63c 6a0e 8fb7 81ec a43c 4140 94bd
00000030: 8611 8cbd 6400 cabd adba 6d3d bd05 2bbd
00000040: 6387 5dbc 0c74 2c3d e648 0d3d cf55 943d
00000050: 11c1 173d 34ff 33bd 0c64 5ebc da34 563d
00000060: 0a94 14bd dbe9 c63d 97c8 53bd d3cb fd3c
00000070: d3da 4ebd b71c 9ebd 2b3d 323c 91d3 19bd
00000080: 4a1f 3d3d d670 bfbc c947 c13d 0ce0 b33c
00000090: 4839 c63d 8729 babc a538 87bd 595b b5bc
000000a0: 9343 34bd 97af 713d 3656 50bd 1c1c 8bbd
000000b0: 08b2 7ebd 5052 9f3d 6648 8dbd 6615 523c
000000c0: eb8d 833d 9164 81bd 18be 4fbc 51d1 44bd
000000d0: 1a03 bd3d 954b febc fc9f ab3c 722e 893c
000000e0: 4b6a bcbd 5807 313d 5635 3dbd 34d5 a93d
000000f0: 14e9 933d aa04 013d c144 acbc 299a 61bd
-0.021630615 -0.066638 0.0170861 0.08965017 0.022309024 -0.092670135 0.03920516 -0.0040948233
0.022236267 -1.705364e-05 0.020132305 -0.07238818 -0.0683928 -0.09863356 0.058039356 -0.04175352
-0.013521048 0.04210286 0.03449335 0.07242929 0.037049357 -0.043944553 -0.013573658 0.052296497
-0.036273994 0.09712573 -0.05170497 0.03098098 -0.050501656 -0.07720321 0.010878841 -0.03755528
0.046172418 -0.023369234 0.0943752 0.02195742 0.09678894 -0.02272488 -0.06602601 -0.022138285
-0.044009756 0.059005346 -0.050863467 -0.06792471 -0.062181503 0.07779372 -0.068985745 0.012822485
0.06423553 -0.0631801 -0.012679599 -0.048051182 0.09229107 -0.0310419 0.02095031 0.01674578
-0.09199961 0.043219894 -0.046193443 0.082926184 0.072221905 0.03149859 -0.021028878 -0.05507866

model_cnn.conv_layers.3.1.weight f4 [64]
00000000: 5e12 803f 4873 803f abfa 7f3f f305 803f
00000010: 8b7f 803f 169c 7f3f e16a 7f3f 7244 803f
00000020: 6dd2 7e3f ec63 803f d02e 7f3f 159a 7e3f
00000030: 03bc 803f e32e 7f3f fdaf 7e3f 8edf 7f3f
00000040: f996 803f b5ea 7e3f f2ce 803f c64c 803f
00000050: 6658 803f ef3c 7e3f 7404 803f 6897 803f
00000060: d096 7f3f 93cf 7f3f 4220 803f 6e44 7f3f
00000070: 6d7e 803f f824 803f 98d3 7e3f 21df 803f
00000080: f2c4 7f3f 513f 803f f90d 803f 9305 803f
00000090: 0a1b 803f 18a1 803f f372 7f3f 6ec4 7e3f
000000a0: d8f3 7f3f d901 803f e42e 803f 4e94 7f3f
000000b0: ade2 7f3f 7179 7f3f 3d3b 803f b2fb 7f3f
000000c0: b40a 803f badb 7f3f 455b 803f 4172 7f3f
000000d0: 650d 803f dd12 803f 763b 803f 7f73 803f
000000e0: d9f9 7f3f f7dd 7f3f c225 7f3f 16fc 7e3f
000000f0: 87c6 7f3f 2d6f 7f3f 305a 7f3f b727 803f
1.0005605 1.0035181 0.99991864 1.0001816 1.0038923 0.99847543 0.9977246 1.0020888
0.99539834 1.0030494 0.99680805 0.9945386 1.0057377 0.9968092 0.99487287 0.9995049
1.0046073 0.99576885 1.0063155 1.0023429 1.0026977 0.9931173 1.0001359 1.0046206
0.99839497 0.9992611 1.0009844 0.9971379 1.0038582 1.0011282 0.99541616 1.0068094
0.9990989 1.0019323 1.0004264 1.0001701 1.0008252 1.0049162 0.99784774 0.9951848
0.9998145 1.0000564 1.001431 0.9983567 0.99955255 0.9979468 1.0018078 0.9999343
1.0003266 0.9994465 1.0027853 0.9978371 1.0004088 1.0005757 1.0018146 1.0035247
0.9999061 0.99948066 0.9966699 0.996034 0.99912304 0.99779016 0.9974699 1.001212

model_cnn.conv_layers.3.1.bias f4 [64]
00000000: b320 823b 425b 413b bf1e a3ba fd8f 383b
00000010: 96c8 bd3b 232d 2ebb 9669 f1ba 10a7 253b
00000020: f9c0 e73a 0c3e b63b b804 cfba b2dc 473a
00000030: 6ab7 883b 1364 0dbb f39f 7f3a 2c0d 41ba
00000040: bda6 da3b 9008 64bb 8bfe ff3a ea9e 363b
00000050: 0586 8e3b e6c6 9ebb 37b7 bdb9 8c44 f63a
00000060: fc84 d03a 7a3a 3cbb 6f10 be3a 54fc b4ba
00000070: 0624 c139 ad97 4b38 06bf a7bb 6555 bc3b
00000080: 2050 7fba fd81 a038 72e3 833b 08fc a33b
00000090: 5212 9c3a 294e a33b 4a83 bd3a 8700 e437
000000a0: 386f afba daf7 de39 cebc 04ba 504b 5fba
000000b0: 61b3 bc3b 9d93 f9ba 524b 4c3a 1854 583b
000000c0: b9bc de3a 68d1 5f3a b0bc 433b 3779 cbb9
000000d0: c8b6 7539 2afe 30ba 5747 c6ba 8762 e03b
000000e0: 4f1d 313b 889b fd3a 4c69 0abb 3a1f 8fbb
000000f0: 603a 463b 434d b3ba 389d 96ba 82e6 bbba
0.003971183 0.0029503857 -0.0012445076 0.0028161996 0.005791734 -0.0026577197 -0.0018418308 0.002527658
0.0017681412 0.005561596 -0.0015794253 0.0007624134 0.0041722553 -0.0021574541 0.00097513123 -0.00073643285
0.006672709 -0.0034795143 0.0019530816 0.0027865716 0.0043494725 -0.004845488 -0.00036185395 0.0018788739
0.0015908773 -0.0028721378 0.0014500747 -0.001380811 0.00036838668 4.854023e-05 -0.0051192073 0.0057474845
-0.00097394176 7.653607e-05 0.0040249163 0.0050044097 0.0011907315 0.0049836827 0.0014458683 2.7179964e-05
-0.0013384586 0.00042527803 -0.00050635345 -0.00085179973 0.0057586883 -0.0019041185 0.0007793206 0.0033009108
0.00169935 0.0008537979 0.0029867105 -0.0003880949 0.00023433112 -0.00067517406 -0.0015127462 0.006847683
0.0027025526 0.001934872 -0.002111989 -0.004367736 0.0030247197 -0.0013679642 -0.0011490947 -0.0014335664

model_cnn.conv_layers.3.1.running_mean f4 [64]
00000000: 998d 1e3f 5610 4bbf 3a1c f9bc 250a 023e
00000010: 1358 bf3c e9db 6ebf f9cb fcbd e40b 97be
00000020: 02d8 223e 5d05 c6be acd4 0c3f 9a0d 153e
00000030: 14bb 443d e422 973c 668a 723e 0672 9a3e
00000040: 5126 d23e e8d4 1dbe 8881 273f 3a3b e23e
00000050: 2881 353e 6756 df3e 7657 4a3d ab97 03bf
00000060: 3a56 04be 26a0 bb3e 9aae 19bf 8f89 8fbd
00000070: 3a50 f13c 888b 343d 416b d63e f19c 92be
00000080: fac8 29be e501 103e 4c35 fdbe 20f8 f63d
00000090: 21b5 01bd 7cf3 6c3e 1018 d1be 326f 05bd
000000a0: 612a 253d fe7a a23d d3e1 503c 2c8b 17bf
000000b0: c3b7 1b3f 5ca4 ee3e c8b1 e93e 2a37 c73e
000000c0: bd36 d4be 94b2 d13e 12f5 cabe 6a0e b4bd
000000d0: 21db ac3d 1032 34bc a8fb 50be bd07 df3e
000000e0: 7105 be3d bece 623e 5158 47be 5e62 893d
000000f0: 2d4c 323f 322b 0e3e 8791 953e 59c9 c0be
0.6193481 -0.793218 -0.030408967 0.12699182 0.023357427 -0.93304306 -0.12343592 -0.2950126
0.15902713 -0.38675967 0.5501201 0.1455597 0.048029974 0.018449254 0.23685607 0.30165118
0.41044858 -0.15413249 0.65432024 0.4418581 0.1772505 0.43620607 0.049399815 -0.514033
-0.12923518 0.3664562 -0.60032046 -0.07008659 0.0294572 0.04407838 0.41878703 -0.28635362
-0.16580573 0.14063223 -0.49454725 0.12059045 -0.03166688 0.23139757 -0.4083867 -0.032576747
0.04032362 0.07933615 0.012749153 -0.59196734 0.60827273 0.4660977 0.4564345 0.38909274
-0.41448012 0.40956557 -0.396401 -0.08791812 0.08440233 -0.010998264 -0.20408499 0.4356059
0.092783816 0.22149178 -0.19467284 0.06708215 0.69647485 0.13883665 0.2921259 -0.37653616

model_cnn.conv_layers.3.1.running_var f4 [64]
00000000: af39 4f3e 96be 673e 1875 143e a54b 1e3e
00000010: 8e84 323e 41c2 873e 571e 813e d7ef 323e
00000020: 1558 0f3e 7df5 033e caf9 fc3d e902 193e
00000030: 9ed1 cb3d 54ed 533e 9363 153e ded8 333e
00000040: 9fd6 6f3e bb3f 383e 1780 4d3e bb61 ff3d
00000050: 10a5 443e 4065 893e 1b63 673e d878 393e
00000060: c078 143e 0aa0 313e 1350 2c3e 9291 0b3e
00000070: 44a1 1e3e 5f1d 2a3e 16d2 623e a920 0c3e
00000080: 4a68 0c3e 0394 1d3e b347 563e a3ed d13d
00000090: 27ba 043e 3426 ef3d 05fd fe3d de58 d33d
000000a0: 14e9 103e 2c94 dd3d 6b48 bc3d 3bcf 203e
000000b0: fc06 473e 6535 783e dfaa 5b3e 85f9 733e
000000c0: 41aa 723e a976 483e 6a1f 5e3e 16f7 053e
000000d0: b569 083e a4f4 283e 9a43 0f3e ccf6 3a3e
000000e0: 0963 133e cbe5 263e a493 1d3e 6f47 1d3e
000000f0: e99d 7c3e 1159 303e 9a19 003e a50f 353e
0.20236848 0.22631297 0.14497793 0.15458544 0.17433378 0.2651539 0.2521846 0.17474304
0.13998444 0.12886615 0.12352331 0.14942516 0.09952091 0.20696002 0.14588766 0.17563197
0.23421715 0.17993061 0.20068394 0.124698125 0.19203591 0.2683506 0.225964 0.18112504
0.14499187 0.17346206 0.16827421 0.1362975 0.15491205 0.16612767 0.22150454 0.13684334
0.13711658 0.15388493 0.20925789 0.10250404 0.12961636 0.116772085 0.124506034 0.103196844
0.14151412 0.10819277 0.091935 0.15704052 0.19436258 0.24239118 0.21451901 0.23825653
0.23697759 0.19576515 0.21691671 0.13082537 0.13321574 0.16499573 0.13990632 0.18258208
0.14393248 0.16298597 0.15388352 0.15359281 0.24669613 0.17221476 0.12509766 0.17681749

model_cnn.conv_layers.4.0.weight f4 [128, 64, 3]
00000000: 0c14 6e3d 439a 0c3c c80c 883d 89b3 bdbb
00000010: c34a 5dbd 01bf 8d3d 5771 053d c4f6 803d
00000020: 721a 56bd e13e 813c 45c8 72bd ad66 cb3c
00000030: 41cb 693d bfd5 d73c 63e4 e1bc 29a0 5bbd
00000040: 95c3 a93c 1042 233d 4953 a0bc 6270 79bd
00000050: 88e3 e33c ec34 e13c 33fa d1bc 450e 8ebd
00000060: ab25 8cbd a006 913d 204e 863b d8cf 363d
00000070: fde8 ee3c 91ec 58bc ceaa 4ebd d4db 8bbd
00000080: 0f78 a13c 76c1 00bc 41b2 e73c c52a 3fbc
00000090: 5a93 4fbd 83b2 67bd 13bf 1e3d 4e4d c3bc
000000a0: 1a4a 2e3d b8de 9cbc 1ec1 9dbc 8085 46bc
000000b0: 716e 2c3d 6c06 c7bc 580e 5cbd 29d6 89bd
000000c0: da6e f53c 5eed 98bd ed85 9cbc 5696 68bd
000000d0: 5a8f 2abd 7243 8fbd c648 05bd f3df 75bd
000000e0: f86d 45bd 42ec 8abd e63b 263c 28e6 65bd
000000f0: 6390 a3bc 2a8e 8ebd c55a 1d3d 7984 6bbd
00000100: 69bf 35bd 2680 cbbc b68a e33b 10b3 fdbc
00000110: ebc8 8cbd e6ad e5bc 9853 773d 84b2 8cbd
00000120: b65a 613c d70f 08bc 6a73 ebba 92b7 8fbd
00000130: 4544 0a3c dd88 5b3d 4c75 143d be82 01ba
00000140: 2ace 4bbd 7ad9 293c 0388 673d bb58 9c3c
00000150: dcf1 b53c c80b a63b cb50 79bd 4abc c9bc
00000160: 5c46 533d c146 79bd d59b e2bb 8639 0a3d
00000170: 6d56 803d ec87 48bc f223 36bd f729 a2bc
00000180: 17a7 3cbd da11 23bd d070 123d 3e49 49bc
00000190: c6b3 c83c 35db 9cbc 7792 92bd 08f4 ecbc
000001a0: 7eb7 1e3d 47e8 a7bc cb79 17bd face 683d
000001b0: 764c 0abd 0fe3 0a3d 748e 4dbd 72b3 bc3c
000001c0: 4979 733d c833 ecbc 8e19 d03c c190 663d
000001d0: 4bce 59bc 52b3 fdba 5a1d f5bc 55d9 293d
000001e0: be78 bc3b e42a 34bd 47ac 073d 31b7 ec3b
000001f0: 3591 0c3d 2e43 b43c f4bc 3dbd b3ed adbc
00000200: 89de 03bc e08f 70bd 0851 91bd 5291 513d
00000210: ca95 0a3d a4f8 323d c584 883d d168 353d
00000220: bf70 1c3d 5cb7 a9bc 16cc 7cbd 451b e9bc
00000230: 663b da3c 0103 8ebd 088a df3c 8caf 9e3c
00000240: 75a7 72bd c620 e3bc c919 70bb dc4f bdbc
00000250: 4e6e fb3c 1846 163c 360d 86bd f800 42bd
00000260: fea8 3e3d c3cb b73c 9eb8 90bd a794 cabc
00000270: 3734 8bbc f715 69bd 1d0d 90bd f7e8 8abd
00000280: 4e78 39bd d52a d23b d6d9 3cbd c1b9 11bd
00000290: 2ef5 8bbd c6f0 47bd 7db7 6ebd 17b8 7e3d
000002a0: 5e2a 1a3c 67b5 d43c 76d9 77bd 0fac 8abd
000002b0: 6108 1a3d 79fe 4fbd a86b d8ba 13b8 73bd
000002c0: dc17 1b3d 0a18 b83b 8b93 893d dd41 8e3d
000002d0: d367 4bbd 3ec3 21bd 888f 103c b7d2 343d
000002e0: d881 47bd 9414 633d 0910 de3c 5aa3 8dbd
000002f0: b8f2 6bbd 2fb1 8f3d 0847 94ba 8e8b 213d
00000300: 6f98 4ebd 2561 84bd 1da5 623d fb2c 4a3c
00000310: 7d67 b53c a88e 0c38 9ecd 37bd 7eef a93c
00000320: b092 d4bc 47ca b83b 47c5 35bd 2bc6 803d
00000330: 9f29 4a3b c5c3 e03c e8c1 97bc d18c 6ebc
00000340: 1e1f 833d 154f 2b3b 619c 49bc 99b9 703d
00000350: 906f cd3c b7d0 95bd bdfa f33c babf b73c
00000360: 0bf9 4dba 8431 5e3d 9049 db3c 83e2 19bd
00000370: 20ae 92bd a848 533d af8f 203a 1939 f6bc
00000380: 7ba3 1f3c b77c 443d 3819 efbc 5909 be3c
00000390: 5c1a 743c 878f 6cbd e473 82bd bcb1 203d
000003a0: 3ad1 20bc 8277 883c a030 59bd b4ef 9d3b
000003b0: 3313 d0bc 47bb 8f3c b21f 0b3d 9333 58bd
000003c0: 58ac 4dbd ffd7 823d 0d73 3ebb 1a3f 3ebd
000003d0: 706e 8b3c 06d2 4f3d 960a fe3c d9e2 7e3d
000003e0: 5cb0 ed3b f2d4 84bd d803 95bd 4dc1 863d
000003f0: c71f 4d3d eee7 983c 3ceb 5e3d 5cb2 91bb
0.058124587 0.008581701 0.06643063 -0.0057892245 -0.054026376 0.06921197 0.032578792 0.06297067
-0.052271314 0.015777053 -0.059273023 0.024829233 0.057078604 0.02634704 -0.027574724 -0.053619538
0.020723144 0.039857924 -0.019570963 -0.060898192 0.027818456 0.027491055 -0.025632 -0.069363154
-0.06843122 0.07081342 0.0040986687 0.04463181 0.029163832 -0.013239996 -0.05045586 -0.06829038
0.019710569 -0.007858625 0.02828324 -0.011667912 -0.050677635 -0.056566726 0.03875644 -0.023840573
0.042551138 -0.01914917 -0.019257125 -0.01211679 0.042097513 -0.024295054 -0.053724617 -0.06730301
0.029960085 -0.07467149 -0.01910683 -0.056783997 -0.041640617 -0.06995286 -0.032540105 -0.060028028
-0.048200577 -0.06783344 0.010146117 -0.056127697 -0.01996631 -0.069607094 0.038416643 -0.057499383
-0.044371996 -0.02484138 0.006944026 -0.030969173 -0.068742596 -0.028037023 0.060382456 -0.06869987
0.013754537 -0.008304558 -0.0017963473 -0.07017435 0.008439128 0.05359732 0.036244676 -0.00049404416
-0.04975716 0.010366792 0.056526195 0.019085279 0.022210054 0.0050673224 -0.060868066 -0.024625916
0.05158077 -0.06085849 -0.0069155493 0.033746265 0.062664844 -0.012239438 -0.044467874 -0.019795401
-0.046057787 -0.039811946 0.035752118 -0.012285529 0.024499785 -0.019147495 -0.07156842 -0.028924957
0.03874921 -0.0204965 -0.036981385 0.056838013 -0.033764325 0.033907946 -0.050184682 0.023034785
0.05944184 -0.028833285 0.02540281 0.05629039 -0.013293813 -0.001935581 -0.029921222 0.04146703
0.0057516983 -0.043986216 0.03312328 0.0072239866 0.034318168 0.02200469 -0.046322778 -0.021231508
-0.008048662 -0.05873096 -0.070955336 0.05116398 0.033834256 0.043694153 0.06665949 0.044289414
0.03819346 -0.020717315 -0.06171807 -0.028455386 0.026639652 -0.06934167 0.027287498 0.019370817
-0.05924173 -0.027725589 -0.0036636463 -0.023109369 0.030692246 0.009171985 -0.065454885 -0.047364205
0.046547882 0.022436028 -0.07066463 -0.024729086 -0.016992671 -0.056905713 -0.07033751 -0.06782716
-0.045280747 0.0064137974 -0.046106182 -0.03557754 -0.06833874 -0.048813604 -0.058280457 0.06218728
0.009409515 0.025965406 -0.06051012 -0.06771099 0.037605647 -0.050779793 -0.0016511576 -0.05950172
0.03786455 0.0056181 0.06717595 0.06946156 -0.04965956 -0.039492838 0.008823283 0.044146266
-0.048707813 0.055439547 0.027107256 -0.069159225 -0.05760452 0.07016217 -0.0011312673 0.03943973
-0.05043834 -0.06463841 0.055333246 0.012339826 0.022144074 3.351146e-05 -0.044873826 0.020744082
-0.025948852 0.0056393477 -0.04437759 0.062877975 0.0030847562 0.0274371 -0.018525079 -0.01455994
0.064024195 0.0026139666 -0.01230535 0.05877075 0.025077611 -0.073152 0.029782647 0.02243029
-0.00078572397 0.05424644 0.026768476 -0.037569534 -0.07162118 0.051582962 0.0006124926 -0.030056523
0.009743567 0.0479705 -0.02918683 0.023197817 0.014898863 -0.057754066 -0.06369761 0.039232
-0.0098155085 0.016658548 -0.053024888 0.0048198346 -0.02539978 0.017545355 0.033965774 -0.05278356
-0.050213188 0.06388854 -0.0029060275 -0.046446897 0.017020434 0.050737403 0.031010907 0.062228058
0.0072536897 -0.064859286 -0.07276124 0.06579838 0.050079133 0.01866528 0.054423556 -0.004446311

model_cnn.conv_layers.4.0.bias f4 [128]
00000000: be59 563d 72ab 39bd 953a 3d3d 0974 253c
00000010: cd5c 7e3c 3911 d6bc 6a35 0a3d 1c3d 5bbd
00000020: 9729 7d3d c697 29bd dc9b 5a3d c02b aabc
00000030: e7f2 50b9 1f02 a3bc 6115 353c 70b3 61bd
00000040: dc71 033d 2591 15bd bd05 ff3c fa93 3cb8
00000050: f428 6abd 2ebd 23bb 93bd 803d e2a1 a9bc
00000060: 0751 67bc 9fb3 1ebd 676f 20bb 82b6 23bd
00000070: 1ec2 2cbd 5573 6ebd 0e66 383d 03dc 083d
00000080: 14c5 433c 0f0a ae3c 2c18 7f3d 5140 a93c
00000090: 4666 773d bc7b 32bd fd6d 97ba 2729 5e3d
000000a0: f5ff c33c db56 0e3d 5c2a 1a3d 2e06 013d
000000b0: 402e d13c ef3a 4cbc 3098 cbbc 452b 8e3d
000000c0: d62e 78bd 2227 703d 9cf2 033d 6210 8abd
000000d0: 2d6b cd3a c50d e03b 837a 39bd dd96 85bc
000000e0: 8c63 603d 85c9 703d 4609 4c3c c7e2 8d3c
000000f0: 5108 f1bc 1dcc 23bd b166 cebc b90b 793c
00000100: 9134 be3b 75ea f73c 696f 3a3c 4f50 8bbd
00000110: b897 2dbd 0e72 683c 5e9a 55bd 175a 6c3d
00000120: 2968 3bbd 2184 143c a3a7 47bd 8bb4 283c
00000130: 8c01 8dbd 3509 473d 6684 6f3d d282 713d
00000140: b8d2 01bb a297 263d 895f 87bd 0254 3cbd
00000150: 1a26 d239 c546 14bd 193c 853d bbdb 9abb
00000160: 4e76 8c3c d262 3a3d 1554 823d 9c8f 90bb
00000170: 2dff 4dba 4041 5bbd a90c 8c3d 6d7a 593d
00000180: a7a9 663d 0d05 893d 9434 31bd 8158 5abb
00000190: 9874 6abd cdc1 4e3d 4dd1 893d 5048 723d
000001a0: 389b b53c a102 c5bc 1e4c 183d 9ae6 213d
000001b0: ea58 d33c 8fad f23b 600c c2bb a0af a4bc
000001c0: 3524 e4bb 178b 68bd a2d3 4cbc ed17 7d3c
000001d0: daa2 1b3b a405 5bbc 7c3a 483d 804d 313c
000001e0: f4bb 5a3c c126 543d cbee 4f3d 7a1d f03c
000001f0: aca8 473c 74ad 83bd c9c9 0cbd 6daa 0e3d
0.05233168 -0.04532952 0.046198446 0.010098466 0.015525055 -0.02613126 0.033742346 -0.053525075
0.06180724 -0.041404508 0.053371295 -0.020772815 -0.00019926914 -0.019898472 0.01105246 -0.055102766
0.032091007 -0.036515374 0.031130666 -4.4960507e-05 -0.057167962 -0.0024984586 0.062861584 -0.020707075
-0.0141184395 -0.03874552 -0.0024480463 -0.039968975 -0.042177312 -0.058215458 0.045019202 0.033412945
0.011948843 0.02124503 0.06227891 0.020660551 0.06040027 -0.043575034 -0.0011553165 0.054238465
0.02392576 0.0347508 0.037638053 0.031500034 0.025534749 -0.012465223 -0.024852842 0.06941847
-0.06059154 0.05863107 0.032213792 -0.06741406 0.00156722 0.006837579 -0.045282852 -0.016307289
0.054782435 0.058785934 0.012453383 0.01732005 -0.02942291 -0.03998958 -0.025195451 0.015200549
0.0058046062 0.030263165 0.011379101 -0.06802427 -0.04238102 0.014187349 -0.05214917 0.057703104
-0.04575363 0.009064705 -0.048743855 0.010296951 -0.06885061 0.048592765 0.058475874 0.05896265
-0.0019809436 0.040671952 -0.06610019 -0.045978554 0.0004008271 -0.036200304 0.06505603 -0.004725901
0.017146256 0.0455044 0.063636936 -0.004411651 -0.00078581535 -0.053529024 0.06838352 0.05309527
0.056314137 0.066904165 -0.043263033 -0.0033316913 -0.0572401 0.05047779 0.06729374 0.059150994
0.02216874 -0.024049105 0.037181966 0.03952656 0.025799233 0.0074059437 -0.0059218854 -0.020103276
-0.006962324 -0.05677327 -0.012501629 0.015447599 0.002374819 -0.013368044 0.0488839 0.0108217
0.013350476 0.05179477 0.05076484 0.02931093 0.012186211 -0.06429568 -0.034372125 0.0348305

model_cnn.conv_layers.4.1.weight f4 [128]
00000000: 3627 803f 7cea 803f 9896 803f ba7b 803f
00000010: a62c 813f bb1a 813f cb03 813f 2cff 803f
00000020: fd10 813f 9990 803f 7c56 803f b524 803f
00000030: 0722 813f de97 803f 27da 7f3f b89d 803f
00000040: e188 803f d6a1 803f dc11 813f 1f94 803f
00000050: 2280 803f 37b7 803f d4ac 803f 508c 803f
00000060: 9e1b 803f 14e0 803f 08d2 803f 25c2 803f
00000070: ad9f 803f 3cbf 803f 2e09 803f d69f 7f3f
00000080: 0c0f 813f 1d9e 803f 5a2d 803f ae90 803f
00000090: 3b60 803f 5f5d 803f 3ee4 7f3f 309d 803f
000000a0: 9e04 803f a896 803f c2d3 803f 1a34 803f
000000b0: 8fd8 803f 0ef5 803f d9f2 803f a2b2 803f
000000c0: 7bfa 803f c00f 813f 20a1 803f 2ddb 803f
000000d0: 4727 813f 4fa0 803f 1b07 803f fcc3 803f
000000e0: 45fd 803f 95da 803f 19ad 803f 0ba6 803f
000000f0: be1d 813f 8fa2 803f cf08 813f 8fc9 803f
00000100: ffa1 803f 54ce 803f aaef 7f3f 1abb 803f
00000110: 4a11 803f 5b22 7f3f 98f9 803f fa01 813f
00000120: c99b 803f cb84 803f 028b 803f 4aae 803f
00000130: 44ca 803f d999 803f bda6 803f b5aa 803f
00000140: 35f3 803f 73d9 803f c25b 803f 05f4 803f
00000150: 7857 803f bca5 803f 65c3 803f 89d1 803f
00000160: 2190 803f 42b4 803f 7882 803f e50c 813f
00000170: b4f3 803f 2893 803f 0715 813f 856f 803f
00000180: 38de 803f 0f86 803f 6996 803f 660f 813f
00000190: ea07 813f fe19 813f 0310 813f e313 813f
000001a0: e25b 803f 9f96 803f 41a4 803f 130b 813f
000001b0: 12db 803f 0c9b 803f 7ceb 803f 838c 803f
000001c0: f68b 803f 2ef7 803f c3df 803f e3a7 803f
000001d0: 57bd 803f fcdb 803f 5eb3 803f f715 813f
000001e0: 2e5d 803f e069 803f 52f4 803f d16e 803f
000001f0: 0c91 803f 3bfd 803f 92e4 803f eb82 803f
1.0011966 1.0071559 1.0045958 1.0037758 1.0091751 1.0086282 1.0079283 1.0077872
1.008331 1.0044128 1.0026393 1.0011202 1.0088509 1.0046346 0.9994225 1.0048132
1.0041772 1.0049388 1.0083575 1.0045203 1.0039103 1.0055913 1.0052743 1.004282
1.0008428 1.0068383 1.0064096 1.0059248 1.0048729 1.005836 1.0002801 0.99853265
1.0082717 1.0048252 1.001384 1.0044153 1.0029367 1.0028495 0.99957645 1.004797
1.0001409 1.0045977 1.0064623 1.00159 1.0066088 1.0074785 1.0074111 1.0054514
1.007644 1.0082932 1.0049171 1.0066887 1.0090111 1.0048922 1.0002168 1.005981
1.0077292 1.0066706 1.0052825 1.0050672 1.0087202 1.0049609 1.0080813 1.0061511
1.0049437 1.0062966 0.99975073 1.0057099 1.0005276 0.996618 1.007617 1.0078728
1.0047542 1.0040525 1.0042422 1.0053189 1.0061727 1.004695 1.0050884 1.0052096
1.0074221 1.006636 1.0028002 1.0074469 1.0026693 1.0050578 1.005963 1.0063945
1.0043985 1.005501 1.0039816 1.008206 1.0074372 1.0044909 1.0084542 1.0034033
1.0067816 1.0040911 1.0045902 1.0082824 1.008054 1.0086057 1.0083011 1.0084194
1.002804 1.0045966 1.0050126 1.0081505 1.0066855 1.0047317 1.0071864 1.0042881
1.0042713 1.0075433 1.0068287 1.0051235 1.0057782 1.0067134 1.0054739 1.0084828
1.0028436 1.003231 1.0074561 1.0033818 1.0044265 1.007728 1.0069754 1.0039953

model_cnn.conv_layers.4.1.bias f4 [128]
00000000: 58b6 003b 1d6f 033c da34 ac3b d1f7 173b
00000010: 8063 0e3c 50a1 0b3c 778f 063c 6030 023c
00000020: 9e60 033c 16d6 a53b cee1 853b 71b1 653b
00000030: 3815 0d3c 302e a83b fbd7 a6ba 052e 3f3b
00000040: a736 803b 4290 803b 3aa9 9b3b 44ab ed3b
00000050: 7b0b a73b 6e3a 603b dc10 cd3a 2ced 9b3b
00000060: 774b 293a 614a 003c c6f4 9e3b 8f4a bc3b
00000070: 920a f03b 27ea 023c 0c0c f538 af7c 593a
00000080: 38c3 e33b a864 a13b 83e5 3a3b e1b6 e33b
00000090: b943 383b 2bdf 9a3b 8321 fb3a 778e 243b
000000a0: 8bde b839 5278 963b 86dd 653b 6c5f c839
000000b0: 1b31 943b 6ed4 b53b 6236 de3b d05f 023c
000000c0: 2c00 f93b 9264 fe3b 99c2 e33b fe5b ff3b
000000d0: 33db 163c 889b b33b 02cd 2c3b 387c 0f3c
000000e0: f6dc 033c f73d e63b 6874 9c3b 9f21 953b
000000f0: 8164 0b3c 0afb af3b 28a4 0b3c 5de1 c13b
00000100: 41bd e23b 86c4 ef3b 010b 2f3b c28b bd3b
00000110: 659e 70b9 5bf8 a9bb 115d 0e3c 597a 0a3c
00000120: 8934 923b 9223 933b 0513 a03b 4b3c a63b
00000130: c8d7 f93b 584d a63b 103f 8c3b e8a8 ab3b
00000140: acf2 063c 58ab d43b 10e3 6c3b 0b52 013c
00000150: 3d3c fc3b 7a73 8c3b df8f ff3b 74c2 e53b
00000160: 0cb8 da3b 580c 9b3b eeaa ef3b d65f b33b
00000170: 2894 023c d490 aa3b 22e5 073c 6d4c 883b
00000180: 936e 023c 358d a23b c6ff 8b3b 8f42 083c
00000190: 86f0 093c b1e9 c73b 74b9 0b3c 887c 9e3b
000001a0: e73b 9d3b 1826 953b 9091 c03b ab80 0c3c
000001b0: 1d48 b93b fb1e a23b a89f e83b 0d88 1a3b
000001c0: 9c65 7e3b 84ae 003c f70d d73b 42b0 a53b
000001d0: 1ea0 653b 0c44 d63b 1c3c 073c 3c92 ff3b
000001e0: 82b4 113b 9bb0 6a3b c949 073c 8ddc 463b
000001f0: bca8 b63b e8ce f73b 32b2 d63b d644 8e3b
0.0019639935 0.008022097 0.005255324 0.0023188482 0.008690715 0.008522347 0.008212916 0.007946104
0.008018641 0.0050609214 0.004085756 0.003504839 0.008611016 0.005132459 -0.0012729162 0.0029171717
0.003912765 0.003923447 0.004750398 0.0072530825 0.005097804 0.0034214514 0.0015645283 0.0047584977
0.00064580835 0.007830233 0.0048509566 0.0057461928 0.007325479 0.007990397 0.00011684754 0.00082964724
0.006950762 0.0049253292 0.0028518147 0.006949291 0.0028116538 0.0047263107 0.0019159768 0.002510933
0.00035261022 0.00459198 0.0035074665 0.00038218067 0.0045224554 0.005549005 0.0067813853 0.007957414
0.0075988974 0.0077634538 0.006950688 0.0077929487 0.009207535 0.0054811873 0.0026367311 0.008757643
0.008048287 0.0070264298 0.004774619 0.004551127 0.008507849 0.0053705024 0.008523025 0.005916758
0.0069195335 0.0073171286 0.002670944 0.0057844827 -0.0002294719 -0.005187077 0.008689181 0.0084520215
0.004461829 0.0044903243 0.00488508 0.0050731055 0.0076246 0.005075138 0.0042799786 0.005238641
0.008236568 0.0064901523 0.0036146082 0.007893096 0.0076976107 0.004286227 0.007799133 0.007011706
0.006674772 0.004731696 0.0073140776 0.005474071 0.0079698935 0.005205253 0.008294376 0.0041595013
0.007960933 0.004960681 0.004272434 0.00831665 0.008419162 0.0061008562 0.008528102 0.0048366226
0.0047984007 0.0045516603 0.0058767274 0.008575599 0.0056543485 0.004947541 0.0070991106 0.0023579628
0.0038817888 0.007854108 0.006562944 0.005056412 0.0035038064 0.0065388735 0.008254077 0.007799415
0.0022232835 0.0035810831 0.008257338 0.003034386 0.005574314 0.007562507 0.0065520043 0.004341702
