checkpoint/transfer_WideResNet_sa_nmc_to_spinel5v_1210/target_boost/best_model.pth (torch, 331746 bytes, 78 tensors)

conv1.weight f4 [16, 21, 3]
0	0x3e91a04a	0.28442603
1	0xbeadbb0b	-0.33931765
2	0xbb5ab243	-0.0033370412
3	0xbc6d9b5b	-0.014502372
4	0x3e4258b9	0.18979158
5	0xbcc6547b	-0.024210205
6	0x3e59b22c	0.21259373
7	0x3e524d23	0.20537238
8	0x3e5989c3	0.21243958
9	0xbdedb948	-0.11607605
10	0x3c9e9e58	0.019362614
11	0xbe9ab49c	-0.3021592
12	0xbe70d0c2	-0.23517135
13	0xbd0bad99	-0.034101103
14	0x3d455df2	0.048185296
15	0xbe135e58	-0.14391458
16	0xbbd60e41	-0.006532461
17	0x3e5d9c0b	0.21641557
18	0x3e296ef9	0.16546239
19	0x3d111c2b	0.035427254
20	0x3e5eebe9	0.2176968
21	0x3dce0046	0.10058646
22	0xbeac7ed7	-0.3369052
23	0xbe767d28	-0.24071181
24	0x3f2f7708	0.68541
25	0x3e624d6a	0.22099844
26	0xbdcbb63e	-0.09946869
27	0xbea76ad1	-0.32698682
28	0x3e17af27	0.14812909
29	0xbeae1c2b	-0.34005865
30	0xbc934513	-0.017977273
31	0xbe01fb59	-0.12693538
32	0x3e4886d2	0.1958268
33	0x3e7a6170	0.24451232
34	0xbe7ab0bd	-0.24481483
35	0x3d410edb	0.047133308
36	0x3aae3ce2	0.0013293291
37	0xbd8d5d2e	-0.06902538
38	0x3e61d6dd	0.2205462
39	0xbeab1482	-0.33414084
40	0xbd07eecd	-0.033186723
41	0xbe58c974	-0.21170598
42	0xbc94375b	-0.018092802
43	0x3e33ba88	0.17551625
44	0xbe8a9ea8	-0.2707417
45	0xbc9c7185	-0.0190971
46	0xbdc4d073	-0.09610071
47	0xbeb0eaa6	-0.34554023
48	0xbe005cdd	-0.12535425
49	0xbe45a390	-0.19300675
50	0x3eddb661	0.43303207
51	0xbe9a3dea	-0.30125362
52	0x3d48fa51	0.049066845
53	0xbc4bd367	-0.012440539
54	0xbc1f3b49	-0.0097187245
55	0x3d989e29	0.07452042
56	0xbd990551	-0.07471717
57	0xbd9e12d2	-0.077184334
58	0x3e79bd96	0.24388728
59	0xbe3e3bf3	-0.18577556
60	0x3eb54f65	0.35412136
61	0x3c7a25b6	0.01526778
62	0x3bef3bdd	0.0073008374
63	0x3d512aae	0.051066093
64	0x3d66ea2f	0.05637568
65	0x3e44956a	0.19197622
66	0x3ec6bbda	0.38815194
67	0xbc069038	-0.008213095
68	0xbe90cb1b	-0.28279957
69	0x3e2f9206	0.17145547
70	0x3eea0a4a	0.45710975
71	0xbc0d1768	-0.0086115375
72	0xbe7ad567	-0.24495469
73	0xbd889eca	-0.066709116
74	0x3e32f00f	0.17474388
75	0xbe385c60	-0.18003988
76	0xbd47b4c6	-0.048756383
77	0x3cba96f5	0.02277706
78	0x3e1288da	0.14310017
79	0x3d8bd396	0.06827466
80	0x3e1c14d5	0.15242322
81	0x3e6f23b9	0.23353471
82	0x3d95e3f2	0.07318868
83	0x3c3ebe28	0.0116420165
84	0x3ee03d26	0.43796653
85	0xbe212cff	-0.15739821
86	0x3d1a11eb	0.037614744
87	0xbc37a1e3	-0.01120803
88	0xbef8a9ba	-0.4856699
89	0xbde3c109	-0.11120803
90	0x3f28ba12	0.6590892
91	0x3d0c9d08	0.034329444
92	0x3d48c95f	0.049020167
93	0xbca599ed	-0.020215
94	0x3e720d75	0.23637946
95	0xbc64c099	-0.0139619345
96	0x3eb6b89a	0.35687715
97	0xbe1bcd0c	-0.15214938
98	0xbd3bb255	-0.045824368
99	0x3e526177	0.20544992
100	0xbd7050ca	-0.058670796
101	0x3d4c9ae2	0.049952395
102	0xbd8c747a	-0.06858154
103	0xbe11ffdd	-0.1425776
104	0xbf0ea294	-0.55716825
105	0x3e17b20d	0.14814015
106	0xbe4dd9ab	-0.20102565
107	0xbd923299	-0.07138557
108	0x3dd7d040	0.105377674
109	0x3d5f7feb	0.05456535
110	0x3d3591e9	0.044328604
111	0xbd32e00b	-0.043670695
112	0xbe39418a	-0.18091407
113	0xbdcbcf63	-0.09951665
114	0xbda35b71	-0.079764254
115	0xbe15907f	-0.14605902
116	0x3d4dfc1a	0.05028925
117	0xbd8f4d7c	-0.06997201
118	0x3e5d766a	0.21627203
119	0xbdfb540e	-0.122718915
120	0xbe1d01cb	-0.15332715
121	0xbd9693e6	-0.07352428
122	0xbdfb1efc	-0.12261769
123	0xbea0462b	-0.31303534
124	0xbdd613da	-0.10453005
125	0xbd8f44ca	-0.06995542
126	0x3da49bce	0.0803753
127	0x3e6895b6	0.2271336
128	0x3cca348c	0.02468326
129	0xbdb488b9	-0.0881514
130	0xbd7b80d6	-0.061402164
131	0xbe3be225	-0.18347986
132	0xbeaccbf1	-0.33749345
133	0x3e04c398	0.12965238
134	0xbe2c7127	-0.16840039
135	0xbe040a38	-0.12894523
136	0xbbd9861f	-0.006638303
137	0x3d1a4d3d	0.037671316
138	0xbe6eec49	-0.23332323
139	0x3ef83a00	0.4848175
140	0xbdc96ecd	-0.09835587
141	0x3e6d7247	0.23188125
142	0x3e17f613	0.14839964
143	0xbd557ff0	-0.052123964
144	0x3dfde71f	0.123975985
145	0xbe57c652	-0.21071747
146	0xbd1a88b9	-0.037728045
147	0xbd938fd7	-0.0720517
148	0x3e004267	0.1252533
149	0x3eb7e677	0.35918018
150	0xbe1ff4a5	-0.15620668
151	0xbe5b308f	-0.21405242
152	0xbee6f7c3	-0.45110902
153	0xbdcd9ea8	-0.10040027
154	0x3e9f2ddf	0.31089684
155	0x3dd10d00	0.10207558
156	0xbea7c614	-0.3276831
157	0xbe3ca86e	-0.18423626
158	0x3e65a2c7	0.22425376
159	0xbe2293ea	-0.15876737
160	0x3e84955d	0.25895205
161	0x3e12d2b8	0.14338195
162	0xbe9586ec	-0.292045
163	0x3e47a9a0	0.194983
164	0x3e1e26d3	0.15444498
165	0x3e5352a9	0.20637001
166	0xbeb3a36e	-0.35085624
167	0xbdaafcc5	-0.08348993
168	0x3e8f9e5c	0.28050506
169	0xbdbdb12d	-0.09262309
170	0xbe7329d7	-0.2374643
171	0x3d40ec5c	0.04710041
172	0xbe614a55	-0.22001012
173	0x3e0f2768	0.13979876
174	0x3f352d52	0.7077228
175	0x3cffc609	0.03122236
176	0x3e3555fa	0.17708579
177	0xbe68fa6b	-0.22751777
178	0xbe25fbfe	-0.16209409
179	0x3e91e3af	0.2849402
180	0xbdfc38e3	-0.12315538
181	0x3de0e57a	0.10981269
182	0xbe8d29b3	-0.27570876
183	0xbdec3829	-0.11534149
184	0xbb0695cc	-0.0020536063
185	0xbdd2ec4a	-0.10298975
186	0xbc4f20bc	-0.012642082
187	0xbe1f705f	-0.1557021
188	0x3e9e21e5	0.30885234
189	0x3d78522a	0.060625233
190	0xbe2c7e4e	-0.16845056
191	0x3eac441a	0.33645707
192	0x3dbdd6bb	0.09269472
193	0xbe91d806	-0.28485125
194	0xbea30b85	-0.31844726
195	0xbe2fdfa4	-0.17175156
196	0xbe2c138f	-0.16804336
197	0x3cdce40d	0.026964212
198	0xbd8e9267	-0.06961518
199	0x3e8dd19b	0.2769898
200	0x3d997fec	0.07495102
201	0x3d95ec92	0.07320513
202	0xbdc8533a	-0.09781499
203	0xbd78a4e5	-0.06070413
204	0xbe7a62ad	-0.24451704
205	0xbb348ad1	-0.0027548561
206	0xbe31da27	-0.17368375
207	0x3e6c4b94	0.23075706
208	0xbc8ff8f9	-0.017574774
209	0xbdc417d0	-0.095748544
210	0xbd13ada6	-0.036054276
211	0x3e091fa8	0.13390982
212	0xbdd57394	-0.104224354
213	0xbeb1ecd7	-0.34751007
214	0x3e5ac5b5	0.21364482
215	0x3e36464e	0.17800257
216	0xbc883b99	-0.01662998
217	0xbd3eadd0	-0.04655248
218	0xbeb56d77	-0.35435078
219	0xbe29888a	-0.16555992
220	0x3e41831c	0.1889767
221	0x3e3532db	0.17695181
222	0x3e279a0f	0.16367362
223	0xbe5af475	-0.21382315
224	0x3b289f90	0.0025729872
225	0xbe045933	-0.12924652
226	0xbd92a7a8	-0.07160884
227	0xbeaf1819	-0.34198073
228	0xbe55a86a	-0.20865026
229	0xbd5b999b	-0.053613286
230	0xbdbd6dbf	-0.09249448
231	0xbd97dc5b	-0.07415076
232	0xbdf00d7a	-0.117213205
233	0xbe44efc7	-0.19232093
234	0x3e0e9141	0.13922597
235	0x3eaf78bf	0.3427181
236	0x3e02d7df	0.12777661
237	0xbdc3cf43	-0.095610164
238	0x3daf8e4f	0.08572065
239	0xbe53df9d	-0.2069077
240	0x3e47d0ae	0.19513199
241	0xbb846f66	-0.0040416
242	0xbe8b080a	-0.2715457
243	0x3e066271	0.1312349
244	0xbd771f23	-0.06033243
245	0xbcb02ce2	-0.021505777
246	0x3e962ed7	0.2933261
247	0xbd6bb45a	-0.057545044
248	0xbec884d9	-0.39163855
249	0x3e6b3936	0.22971043
250	0xbe0f9dfc	-0.1402511
251	0xbd8c590e	-0.06852923
252	0x3e60dc3c	0.21959013
253	0xbe2fa58b	-0.17152993
254	0x3db68057	0.08911198
255	0xbdff432f	-0.12463986

block1.layer.0.bn1.weight f4 [16]
0	0x3f817425	1.011357
1	0x3f7ee971	0.99574953
2	0x3f7fbb54	0.99895215
3	0x3f7e0af9	0.9923549
4	0x3f832788	1.0246439
5	0x3f820623	1.0158123
6	0x3f7e5987	0.9935536
7	0x3f83eb13	1.0306114
8	0x3f7d3809	0.9891363
9	0x3f7eb19e	0.9948977
10	0x3f7bed71	0.9840918
11	0x3f80a3f7	1.0050038
12	0x3f8007d1	1.0002385
13	0x3f7a078b	0.9766776
14	0x3f8093da	1.0045121
15	0x3f7f2c75	0.9967721

block1.layer.0.bn1.bias f4 [16]
0	0x3cbf32db	0.02333968
1	0x3afc7928	0.0019262182
2	0xbc91aa0f	-0.017781286
3	0xbc321631	-0.010869549
4	0x3bd77251	0.006574907
5	0x3b098cdd	0.0020988502
6	0x3c5c331b	0.013439919
7	0x3caae89d	0.020862872
8	0xb9b3cd3f	-0.0003429446
9	0x3cad53c3	0.021158105
10	0xbc9d412b	-0.019196114
11	0x3c465636	0.012105515
12	0x3cdc458a	0.026888628
13	0xbb4f4d28	-0.0031631682
14	0x3ad17310	0.0015979726
15	0x3c05dbf2	0.008170115

block1.layer.0.bn1.running_mean f4 [16]
0	0xbe0faa71	-0.14029862
1	0x3ef5de81	0.4802132
2	0x3ddb64c9	0.107125826
3	0x3d078c42	0.033092745
4	0x3d5bb936	0.053643428
5	0x3efe1ac2	0.4962979
6	0xbe3d58e4	-0.1849094
7	0x3db493d7	0.08817261
8	0xbd26a274	-0.04068227
9	0xbba3da30	-0.005000375
10	0x3d779fdc	0.06045519
11	0x3e697a31	0.22800519
12	0xbe598b7f	-0.2124462
13	0xbeb2bff4	-0.34912074
14	0xbf1c340a	-0.61016905
15	0xbf1add11	-0.6049357

block1.layer.0.bn1.running_var f4 [16]
0	0x3fc1cff5	1.5141588
1	0x3ff88060	1.9414177
2	0x3fcfea8c	1.6243453
3	0x3ffb3d14	1.9628015
4	0x3f9e7caf	1.23818
5	0x405bcc14	3.434331
6	0x401f66f2	2.4906583
7	0x3fd4575c	1.658916
8	0x3fc2e4e6	1.5226104
9	0x4033a2d3	2.806813
10	0x3f9672ae	1.1753747
11	0x3f32fbae	0.6991528
12	0x3f791971	0.97304446
13	0x401aeb9d	2.4206307
14	0x3ff2d071	1.8969861
15	0x40119967	2.274988

block1.layer.0.conv1.weight f4 [16, 16, 3]
0	0x3e4728bc	0.19449133
1	0x3decb065	0.11557082
2	0xbf1b69f3	-0.6070854
3	0xbe21ecef	-0.15813039
4	0x3cd349f9	0.025792109
5	0x3e1125c2	0.1417456
6	0xbc364231	-0.01112418
7	0x3e3aba94	0.18235236
8	0x3e6e8b33	0.23295288
9	0xbd1bf39a	-0.038074113
10	0x3cc4ee9d	0.02403956
11	0x3df36966	0.118853375
12	0x3d6c5983	0.057702553
13	0xbdb49aca	-0.08818586
14	0xbebf3d3b	-0.37351403
15	0x3e18f9ad	0.14938994
16	0x3de0ff81	0.109862335
17	0x3db760a4	0.089539796
18	0xbc582089	-0.013191351
19	0x3e376aac	0.17911786
20	0x3e42d6d2	0.1902726
21	0x3d5737f4	0.052543595
22	0xbe99b236	-0.30018777
23	0xbe0a2442	-0.13490394
24	0xbe7bd0fc	-0.2459144
25	0x3d9a0140	0.0751977
26	0x3e110f9b	0.1416611
27	0xbe0df61e	-0.13863418
28	0x3e6fdb2e	0.23423454
29	0xbcae12e0	-0.021249235
30	0xbee29a0a	-0.44258147
31	0x3e173856	0.14767584
32	0xbccb6d62	-0.024832431
33	0xbe859122	-0.2608729
34	0x3df4db99	0.119559474
35	0xbd5da590	-0.05411297
36	0xbe0bc7c3	-0.13650422
37	0x3ddd7e26	0.108150765
38	0xbe0142f6	-0.126232
39	0x3e84a629	0.2590802
40	0x3e1bd9b1	0.15219761
41	0xbd0171bb	-0.031602602
42	0xbeef5050	-0.4674096
43	0x3e0fe601	0.14052583
44	0x3e0a5441	0.13508703
45	0xbdb9ec24	-0.090782434
46	0xbebc05a5	-0.36723056
47	0xbdf106ca	-0.11768873
48	0x3d1d17c5	0.038352747
49	0x3e303216	0.17206606
50	0x3d08484e	0.03327208
51	0x3dcf3b01	0.10118676
52	0x3ce023be	0.027360793
53	0x3e4eccdf	0.2019534
54	0xbe3ca424	-0.1842199
55	0xbdc2b29b	-0.095067225
56	0xbddc9182	-0.10769941
57	0x3f078eb6	0.52952135
58	0xbdcf34b7	-0.101174764
59	0xbe3659c5	-0.17807682
60	0x3cca4ee9	0.02469583
61	0xbccc469b	-0.024936011
62	0x3e9f5a74	0.31123698
63	0x3d049272	0.032366224
64	0x3ee43dc2	0.44578367
65	0xbe4c87df	-0.19973706
66	0x3e944188	0.28956246
67	0xbd11ab88	-0.035563976
68	0x3ec891fc	0.39173877
69	0x3e171bb5	0.14756663
70	0xbe1607e5	-0.14651449
71	0xbe2e3932	-0.17014006
72	0x3e14180d	0.144623
73	0xbcf1e89b	-0.02952986
74	0xbddda43e	-0.10822342
75	0x3e642fa6	0.22283801
76	0xbd48d344	-0.049029604
77	0xbd918b57	-0.07106655
78	0x3e02706d	0.127382
79	0xbe872b7d	-0.26400366
80	0xbeadbd83	-0.33933648
81	0x3daddfb1	0.084899314
82	0x3c80845b	0.015688112
83	0xbe6bc85e	-0.23025653
84	0x3e8e493d	0.2779025
85	0xbd665fba	-0.056243636
86	0x3e0e0883	0.13870434
87	0xbce662ec	-0.028123342
88	0x3e12dc77	0.14341913
89	0xbdee9c51	-0.11650909
90	0x3d8f85b0	0.07007921
91	0xbcaeabe5	-0.0213222
92	0x3def9ebf	0.117002
93	0xbefbe7c0	-0.4920025
94	0xbdfd1e8e	-0.123593435
95	0x3dec18f5	0.11528198
96	0xbeda6311	-0.42653707
97	0xbc5ebb77	-0.0135945
98	0x3d8951f0	0.067050815
99	0x3e393ffd	0.18090816
100	0x3e03dc03	0.12876897
101	0x37b075e0	2.1035725e-05
102	0x3d1da249	0.038484845
103	0xbd78c9ed	-0.060739446
104	0xbe0a5e2e	-0.13512489
105	0x3d631b0b	0.055445712
106	0xbd48768c	-0.04894118
107	0x3d0c2cba	0.034222342
108	0xbeb45278	-0.3521917
109	0xbe4473db	-0.1918482
110	0x3e521355	0.20515187
111	0x3dd17ca4	0.102288514
112	0xbe84a39a	-0.25906068
113	0x3e280fe3	0.1641231
114	0xbdff7540	-0.124735355
115	0xbe7d7326	-0.24750957
116	0x3e32ff43	0.17480187
117	0x3de4e4fa	0.11176486
118	0x3e523e75	0.20531638
119	0x3e845ce0	0.25852108
120	0xbe10f782	-0.14156917
121	0xbd08f968	-0.033440977
122	0xbd4c9761	-0.049949054
123	0x3d223c8b	0.03960852
124	0x3e331ab4	0.17490655
125	0x3db66f75	0.089079775
126	0xbe266141	-0.16248037
127	0xbec02725	-0.37529865
128	0xbe885a10	-0.26631212
129	0xbe88c4d0	-0.26712656
130	0xbe02ce81	-0.12774087
131	0xbdf65f0a	-0.12029846
132	0x3dc1e3af	0.09467255
133	0x3d8cb55f	0.06870531
134	0xbd0b3832	-0.03398914
135	0x3ddd21dc	0.10797474
136	0xbd47a355	-0.04873975
137	0xbdc80b56	-0.09767787
138	0x3e6b63c5	0.22987278
139	0x3e4e657e	0.20155904
140	0xbd4e779c	-0.050407037
141	0x3d4d3f93	0.050109457
142	0x3e399c18	0.18125951
143	0x3e7ed351	0.24885298
144	0xbe05e358	-0.13075006
145	0x3deab37a	0.11460014
146	0xbcef5e15	-0.029219666
147	0xbe844443	-0.2583333
148	0x3e733195	0.23749383
149	0x3db627b2	0.0889429
150	0x3dec2369	0.115301915
151	0x3d8071e6	0.062717244
152	0xbbc66738	-0.006054785
153	0x3ed6b2c3	0.4193326
154	0xbe1ddf5f	-0.1541724
155	0x3ecd1381	0.40053943
156	0xbe4a9e17	-0.19786869
157	0xbdd588c2	-0.10426475
158	0xbe69f85d	-0.2284865
159	0xbdf0858c	-0.11744222
160	0xbea03c55	-0.3129603
161	0xbdc0c92b	-0.0941337
162	0xbe860907	-0.26178762
163	0xbda9fc89	-0.083001204
164	0xbe27f51d	-0.16402097
165	0x3ee78ad4	0.45223105
166	0x3d9ad727	0.07560568
167	0xbd784498	-0.06061229
168	0x3e3229c2	0.17398742
169	0x3dd8899f	0.10573124
170	0x3e5f5cff	0.21812819
171	0xbc6a747d	-0.0143099995
172	0xbe1486bb	-0.1450452
173	0x3e2cfb5c	0.16892761
174	0xbdef4d8b	-0.11684712
175	0x3e83a312	0.2571035
176	0x3c9d7fb7	0.019225938
177	0xbc9b23b6	-0.018937927
178	0x3e3015e1	0.17195846
179	0x3d6c7d08	0.057736427
180	0xbc21f940	-0.009886086
181	0xbd825144	-0.063631564
182	0x3e87de3e	0.26536745
183	0x3df497ce	0.11943017
184	0xbe410010	-0.1884768
185	0x3e33eae0	0.17570066
186	0x3db0fbf6	0.08641808
187	0x3dbbadf0	0.09164035
188	0x3dc356a8	0.09538013
189	0xbeac2f67	-0.33629915
190	0xbe481f98	-0.19543302
191	0xbd720120	-0.059083104
192	0xbe5925ce	-0.21205828
193	0xbe286a84	-0.16446882
194	0x3d85b8a7	0.0652936
195	0x3e2bc27d	0.1677341
196	0x3e612410	0.21986413
197	0x3e1ba8d8	0.15201128
198	0x3d9b0ef7	0.07571214
199	0xbd817462	-0.063210264
200	0xbec61d71	-0.38694337
201	0xbeb949b4	-0.36189044
202	0xbea7bd66	-0.32761687
203	0x3c10e7b9	0.0088443095
204	0xbd478bb9	-0.048717234
205	0xbe26de3f	-0.16295718
206	0x3e0dd7c7	0.13851844
207	0xbe13230c	-0.14368838
208	0x3dc0b919	0.094103046
209	0xbedcde60	-0.4313841
210	0x39dd1c5b	0.0004217353
211	0x3e0d1501	0.13777544
212	0xbe44fc00	-0.19236755
213	0xbec04ab5	-0.37556997
214	0xbeace557	-0.33768722
215	0x3e40c275	0.1882418
216	0xbe03e51e	-0.1288037
217	0xbc554f0a	-0.013019333
218	0xbb9487d7	-0.004532795
219	0xbe22028c	-0.15821284
220	0x3b34aabe	0.002756759
221	0x3d8f4d5e	0.069971785
222	0xbd3ad7eb	-0.04561607
223	0xbe6232b1	-0.2208965
224	0x3de3b265	0.111180104
225	0xbe51d1b0	-0.20490146
226	0xbde0cc03	-0.10976412
227	0x3d82cb8f	0.06386482
228	0xbe2b180c	-0.16708392
229	0xbe2833b0	-0.16425967
230	0xbd03ced4	-0.03217967
231	0xbea86b77	-0.3289449
232	0x3e189b4d	0.14902993
233	0x3cfc99e5	0.030835101
234	0xbe032e2d	-0.12810583
235	0x3d302768	0.04300633
236	0x3cc42514	0.023943461
237	0x3e97795b	0.29584774
238	0x3dd0e2d3	0.10199513
239	0xbd003eb2	-0.03130979
240	0xbb1d2604	-0.0023978958
241	0xbe5d909f	-0.216372
242	0xbe340cc5	-0.17582996
243	0xbe1a5428	-0.15071166
244	0x3dcaace1	0.09896255
245	0xbf157c60	-0.58392906
246	0x3d5b7b5f	0.053584453
247	0xbeeeb091	-0.46619084
248	0x3e57c0c1	0.21069624
249	0xbde36e23	-0.11104991
250	0x3e2c3e77	0.16820703
251	0x3e9dc6f1	0.30815843
252	0xbe44249b	-0.19154589
253	0xbe5689f9	-0.2095107
254	0x3e09bad0	0.1345017
255	0xbecf3104	-0.40467083

block1.layer.0.bn2.weight f4 [16]
0	0x3f805dc0	1.002861
1	0x3f7f14d6	0.9964117
2	0x3f791270	0.9729376
3	0x3f80a222	1.0049479
4	0x3f7c5330	0.98564434
5	0x3f7d58be	0.98963535
6	0x3f7dbc27	0.9911522
7	0x3f8012ed	1.0005776
8	0x3f818023	1.0117229
9	0x3f7eaa4b	0.99478596
10	0x3f815655	1.0104471
11	0x3f7fa2ba	0.99857676
12	0x3f80d170	1.0063915
13	0x3f7eb2b2	0.9949142
14	0x3f7ea8a9	0.99476105
15	0x3f8354d6	1.0260265

block1.layer.0.bn2.bias f4 [16]
0	0x3b78e621	0.0037978964
1	0xbc58a09e	-0.013221888
2	0xbcf83ba1	-0.03030187
3	0x3c8d9925	0.017284939
4	0xbcbfe732	-0.023425672
5	0xbd573af2	-0.05254645
6	0xbca3f0ad	-0.020012224
7	0xbc27b308	-0.0102355555
8	0xbc877df0	-0.016539544
9	0xbce2366e	-0.027613845
10	0xbc291fa8	-0.010322489
11	0xbbd5c586	-0.006523791
12	0x3bf02e21	0.0073297177
13	0xbcf57a28	-0.029965475
14	0x3c05df57	0.008170924
15	0x3d0d8226	0.034547947

block1.layer.0.bn2.running_mean f4 [16]
0	0xbe825da7	-0.25462076
1	0x3ebb5cbd	0.3659419
2	0xbdc025f7	-0.09382241
3	0x3e3327fa	0.17495719
4	0xbf7b0657	-0.9805655
5	0xbf946dea	-1.1596043
6	0x3eb1aba1	0.34701255
7	0x3d3d9366	0.04628315
8	0xbd1185a7	-0.03552785
9	0xbe9c7a96	-0.30562276
10	0xbf3d14a7	-0.7385964
11	0x3fa52f01	1.290497
12	0x3ec1f333	0.3788086
13	0xbec0daf2	-0.37667042
14	0x3f08d217	0.5344557
15	0x3f19e0fe	0.60108936

block1.layer.0.bn2.running_var f4 [16]
0	0x3f23af00	0.63938904
1	0x3f05c3d0	0.5225191
2	0x3f40d758	0.7532859
3	0x3f10d536	0.56575334
4	0x3f555f5b	0.83348626
5	0x3f3b01a9	0.7304941
6	0x3ed50959	0.41608694
7	0x3f13d945	0.577534
8	0x3fb4592e	1.4089715
9	0x3ec1577f	0.37762067
10	0x3fa48a4b	1.2854704
11	0x3f8eb005	1.1147467
12	0x3f3e8685	0.7442401
13	0x3f047871	0.5174628
14	0x3f268ed9	0.6506172
15	0x40107fdd	2.2578042

block1.layer.0.conv2.weight f4 [16, 16, 3]
0	0xbdb986b4	-0.09058896
1	0x3e74cc8f	0.23906158
2	0xbeaeac5e	-0.3411588
3	0x3dfc9781	0.123335846
4	0x3e0ff03a	0.14056483
5	0xbe8959f7	-0.2682645
6	0xbea6b2f8	-0.32558417
7	0x3e8377fb	0.25677475
8	0xbebfbafb	-0.37447342
9	0xbe68e7a8	-0.2274462
10	0xbe220b91	-0.15824725
11	0x3e86d790	0.26336336
12	0xbe8d40ef	-0.27588603
13	0x3dad7160	0.0846889
14	0x3d70a552	0.05875141
15	0xbee7997c	-0.45234287
16	0xbe0b2646	-0.13588819
17	0xbdc06143	-0.09393551
18	0xbddbb767	-0.107283406
19	0x3e11c985	0.1423703
20	0xbe9915f0	-0.2989955
21	0xbd5fdd63	-0.05465449
22	0xbdfe68bd	-0.12422321
23	0x3d34255c	0.04398094
24	0xbc2a577b	-0.0103968335
25	0x3d5bab4d	0.053630162
26	0xbd4c0709	-0.049811397
27	0xbdf45015	-0.11929337
28	0x3e56d82a	0.20980898
29	0x3edd2d11	0.43198445
30	0xbe066665	-0.13124998
31	0xbe38dcf5	-0.18053038
32	0x3ea57c96	0.32321614
33	0x3e21e6c9	0.15810694
34	0xbe60d1b0	-0.2195499
35	0xbeae9170	-0.34095335
36	0x3e21c31c	0.15797085
37	0xbe155f03	-0.14587025
38	0xbc9410d0	-0.018074423
39	0x3e46b20d	0.19403858
40	0xbe2c8c16	-0.16850314
41	0x3d04b44f	0.03239852
42	0xbdec74d9	-0.115457244
43	0xbe255cbe	-0.1614866
44	0xbd58b64c	-0.052908227
45	0xbcf6632c	-0.030076586
46	0xbe02f978	-0.12790477
47	0xbe4b9e8e	-0.19884703
48	0x3ea7432f	0.32668445
49	0xbd8f8db6	-0.07009451
50	0x3d99f2b9	0.07516999
51	0xbc7f2005	-0.015571599
52	0xbdd90c86	-0.10598092
53	0x3e93f492	0.2889753
54	0xbe541d6b	-0.20714347
55	0x3dc6df7c	0.09710595
56	0x3deb57aa	0.1149133
57	0xbe7e36f0	-0.24825644
58	0x3e56ec51	0.20988585
59	0x3d9e2614	0.077221066
60	0xbdb25d5e	-0.08709215
61	0x3e251980	0.16123009
62	0xbe52345b	-0.20527785
63	0x3c76a8fc	0.015054937
64	0x3d8395d3	0.06425061
65	0xbdb22bcd	-0.086997606
66	0xbd5fbad4	-0.054621533
67	0x3d395b21	0.045252923
68	0xbeb67e4e	-0.35643238
69	0xbdddac23	-0.10823848
70	0xbe9bdb82	-0.3044091
71	0xbdcd618b	-0.100283705
72	0x3d27b14f	0.04094058
73	0x3bf13a7e	0.007361709
74	0x3e90fb63	0.28316793
75	0x3e82fd78	0.25584006
76	0xbe91c5a7	-0.2847111
77	0xbceb407d	-0.028717274
78	0x3aa3724e	0.0012469979
79	0xbd861e96	-0.065488026
80	0xbcccb508	-0.024988666
81	0xbe09cedc	-0.13457817
82	0xbe3a8347	-0.18214141
83	0x3bb332b7	0.005468692
84	0xbe52e525	-0.20595224
85	0x3d8e1d88	0.069392264
86	0xbe2d37a7	-0.16915761
87	0xbde9d647	-0.11417823
88	0x3e752102	0.23938373
89	0x3cdd2969	0.026997285
90	0x3ad01de1	0.0015878045
91	0x3e0d67ea	0.13809171
92	0xbe3cfa5d	-0.18454881
93	0xbdca39f7	-0.09874337
94	0x3c05f6f9	0.008176559
95	0x3dcdb597	0.10044401
96	0xbaacf4bc	-0.0013195495
97	0x3d89886a	0.06715472
98	0x3ecff2ce	0.40614933
99	0x3e8b59be	0.27216905
100	0xbdb19e6a	-0.08672793
101	0xbeda2c37	-0.42611858
102	0x3cfe7abd	0.031064386
103	0xbd8f83d4	-0.07007566
104	0x3d998b33	0.07497253
105	0xbe53d18c	-0.20685405
106	0xbc378fab	-0.011203687
107	0x3da42a75	0.080159105
108	0xbea89b0b	-0.32930788
109	0x3d96f79f	0.07371449
110	0xbd498766	-0.04920139
111	0x3d94f35c	0.072729796
112	0xbdc7c050	-0.097534776
113	0x3e4fc879	0.20291318
114	0x3d666b3a	0.056254603
115	0xbe2f1c9e	-0.1710076
116	0xbdade688	-0.08491236
117	0x3bc2d613	0.00594593
118	0x3e87a450	0.26492548
119	0xbd2e2831	-0.0425188
120	0xbc396d0a	-0.011317501
121	0xbdcef6e9	-0.10105688
122	0x3bcac53e	0.006188064
123	0x3eb9b4b6	0.36270684
124	0xb9dfc2a2	-0.00042678887
125	0x3edd5f06	0.4323656
126	0x3e014658	0.1262449
127	0x3dd18fc9	0.10232503
128	0x3e442a86	0.19156846
129	0xbd37e69e	-0.044897668
130	0x3e0393bc	0.12849325
131	0xbe0591c6	-0.1304389
132	0xbe58eede	-0.2118487
133	0x3d6458d9	0.055748794
134	0xbe32375a	-0.17403927
135	0xbe6a3c79	-0.22874631
136	0xbdd9175c	-0.106001586
137	0x3da0d4c6	0.07853083
138	0x3dfc7458	0.12326878
139	0xbeed18c1	-0.46307948
140	0x3dfc8083	0.12329199
141	0x3e221aa5	0.15830477
142	0xbdd75888	-0.10514933
143	0x3dd09de1	0.10186363
144	0xbee2bab2	-0.44283062
145	0x3de08345	0.10962538
146	0x3e7ba045	0.24572857
147	0x3e04c224	0.12964684
148	0xbe595b42	-0.21226218
149	0x3e188b5b	0.1489691
150	0x3dd144b1	0.1021818
151	0xbd5f35b8	-0.05449459
152	0xbecef848	-0.404238
153	0xbe3d8812	-0.18508938
154	0x39d4c352	0.00040581316
155	0xbe99dfe9	-0.30053642
156	0xbdd3fcf5	-0.10350982
157	0xbdf241b5	-0.11828939
158	0xbe244462	-0.16041711
159	0xbcbdb635	-0.023158172
160	0xbe75df39	-0.24010934
161	0x3e895805	0.26824966
162	0x3e689961	0.2271476
163	0xbe60ecfe	-0.21965405
164	0xbd483413	-0.048877787
165	0xbe5af1d9	-0.2138132
166	0x3ecdff3d	0.40233794
167	0xbe2fea99	-0.17179336
168	0x3d6bf322	0.057604916
169	0xbd585a2c	-0.05282037
170	0xbddd4a43	-0.1080518
171	0x3e6b7de6	0.22997245
172	0xbed08368	-0.40725255
173	0xbefa9af1	-0.48946336
174	0x3ed2aff1	0.41149858
175	0xbd50a9a2	-0.050943024
176	0xbd118566	-0.03552761
177	0xbdc9b978	-0.098498285
178	0xbe4b1ef9	-0.19836034
179	0x3dbb9a4a	0.09160288
180	0x3eb2605f	0.3483915
181	0x3da334f2	0.07969083
182	0xbd9060c0	-0.070497036
183	0xbe5f9a8d	-0.218363
184	0x3e2b7f2e	0.16747734
185	0xbe7166de	-0.23574397
186	0x3da83fdf	0.082153074
187	0x3e31a0f4	0.17346555
188	0x3ea25bbc	0.31710613
189	0x3d6b4468	0.057438284
190	0xbe174ed5	-0.14776166
191	0xbe7ae65b	-0.24501936
192	0xbd9ac6b6	-0.07557432
193	0x3de82756	0.11335628
194	0xbec93191	-0.3929563
195	0x3e516f53	0.20452623
196	0x3dd11be7	0.102104
197	0x3eaed6fb	0.34148392
198	0x3dc332e5	0.09531192
199	0xbeb13624	-0.3461162
200	0xbe877563	-0.26456746
201	0x3e768ed8	0.24077928
202	0x3e285fb3	0.16442756
203	0x3e613648	0.21993363
204	0x3cac0c0b	0.021001836
205	0xbd2bc982	-0.04194022
206	0x3f02492b	0.50892895
207	0x3ea35764	0.3190261
208	0xbbf6ecf8	-0.007535573
209	0x3d205410	0.03914267
210	0x3bc444be	0.00598964
211	0x3ed13b36	0.40865487
212	0x3e1ffdc1	0.15624143
213	0xbe172db9	-0.14763536
214	0x3df17cf0	0.11791408
215	0xbd3f58dc	-0.046715602
216	0x3df0991f	0.117479555
217	0x3cf08451	0.029359968
218	0x3c3654e3	0.011128637
219	0x3e4fb06a	0.2028214
220	0xbe8f698d	-0.28010216
221	0x3e8bc1eb	0.27296385
222	0x3e5a8141	0.21338369
223	0xbd5ffe4d	-0.05468588
224	0xbe25451d	-0.16139646
225	0x3de82ed4	0.11337057
226	0xbd7c7e82	-0.061644085
227	0x3e82a123	0.25513563
228	0x3ea8e4c1	0.32987025
229	0x3eadb287	0.33925268
230	0x3d9b8cc6	0.0759521
231	0x3e86ef5f	0.263545
232	0xbeed99dd	-0.4640645
233	0xbe04ccc6	-0.1296874
234	0x3b2ef8e9	0.0026698655
235	0xbe99cc2e	-0.3003859
236	0x3cb253d3	0.021768486
237	0x3f10e411	0.56598
238	0xbecbc33b	-0.39797387
239	0xbda5aca2	-0.08089568
240	0x3e7ef253	0.24897127
241	0xbe2a2867	-0.16616975
242	0x3d5fa23d	0.05459808
243	0xbe61185f	-0.21981953
244	0x3e7498b9	0.23886384
245	0x3e63ad36	0.22234043
246	0xbe9ce002	-0.30639654
247	0xbe17b487	-0.1481496
248	0x3e24cbf9	0.16093434
249	0x3d88bcc9	0.06676633
250	0xbdee0d6d	-0.116236545
251	0xbdb817b6	-0.089888975
252	0x3de33200	0.11093521
253	0x3dcc02ff	0.09961509
254	0x3cfed278	0.031106219
255	0x3f031375	0.51201564

block1.layer.1.bn1.weight f4 [16]
0	0x3f7baa35	0.9830659
1	0x3f822fbb	1.0170816
2	0x3f828dd0	1.0199528
3	0x3f80ee47	1.0072716
4	0x3f81b9bc	1.0134807
5	0x3f7d1730	0.98863506
6	0x3f7ebc9d	0.9950655
7	0x3f8035bc	1.0016398
8	0x3f80a7d9	1.0051223
9	0x3f805e1b	1.0028719
10	0x3f81bc28	1.0135546
11	0x3f79f067	0.9763245
12	0x3f808ad4	1.0042367
13	0x3f7e4604	0.99325585
14	0x3f7a2db8	0.9772601
15	0x3f7e29c0	0.99282455

block1.layer.1.bn1.bias f4 [16]
0	0xbc3dc00b	-0.011581431
1	0x3c1ac1dd	0.009445635
2	0x3c165bd0	0.009177163
3	0xbac0234b	-0.0014658956
4	0xbc61d317	-0.013783238
5	0x3a855ee8	0.0010175379
6	0x3bb4a53f	0.005512863
7	0x3c6070d4	0.013698775
8	0xbb1c9818	-0.0023894366
9	0x3c5f6fe8	0.01363752
10	0xbc98c8fe	-0.018650528
11	0xbbbacdd4	-0.005700806
12	0xbb9cdbfe	-0.0047869673
13	0x3c030ea6	0.007999098
14	0xbc96940a	-0.018381137
15	0xbc226612	-0.009912031

block1.layer.1.bn1.running_mean f4 [16]
0	0xbf6d9db7	-0.9281878
1	0x3e446e30	0.19182658
2	0x3e882134	0.26587832
3	0xbef0599c	-0.46943367
4	0x3f6bafca	0.9206511
5	0x3f6dfff0	0.92968655
6	0x3de6dec7	0.1127296
7	0xbe61f10c	-0.22064608
8	0xbf25d9b2	-0.647853
9	0x3f17fa42	0.5936624
10	0x3d2b030e	0.04175096
11	0xbf01ab03	-0.5065157
12	0xbf53fa9a	-0.8280426
13	0xbe980b2c	-0.29696023
14	0xbd382e49	-0.044966016
15	0xbe3fb763	-0.187223

block1.layer.1.bn1.running_var f4 [16]
0	0x4043f376	3.0617347
1	0x40624937	3.5357187
2	0x402fc101	2.746155
3	0x407bba0d	3.9332306
4	0x405ec946	3.4810348
5	0x4070dca8	3.7634678
6	0x408f4630	4.477318
7	0x4068003e	3.6250148
8	0x4039285f	2.893089
9	0x4045fd9a	3.0936036
10	0x403cda45	2.950822
11	0x3fee5f47	1.8622826
12	0x3fead53d	1.8346325
13	0x409c62a9	4.8870435
14	0x406ee18a	3.7325158
15	0x40481f7e	3.1269221

block1.layer.1.conv1.weight f4 [16, 16, 3]
0	0x3e20a2a5	0.15687044
1	0xbd9d4e7a	-0.07680984
2	0xbe5fa850	-0.2184155
3	0xbe49dac0	-0.19712353
4	0xbd122df6	-0.035688363
5	0xbe3230dd	-0.17401452
6	0x3d901630	0.07035482
7	0x3e2ae51e	0.16688964
8	0x3dc6cc93	0.09706988
9	0x3ea6de4b	0.3259147
10	0x3cd52703	0.026019579
11	0x3bbec2b7	0.0058215517
12	0xbef07419	-0.46963575
13	0x3e5f5e51	0.21813323
14	0x3ea2f221	0.31825355
15	0x3dfdfcce	0.12401734
16	0xbd627531	-0.055287544
17	0x3df56afb	0.119832955
18	0x3db8cc6e	0.09023367
19	0xbd753322	-0.059863217
20	0xbe6748ea	-0.22586408
21	0xbe1d680b	-0.1537172
22	0xbdff8672	-0.12476815
23	0x3dbbe5b8	0.09174675
24	0x3e091fe9	0.13391079
25	0x3d31871f	0.043341752
26	0x3ddaaf9b	0.10678025
27	0x3e8cfd56	0.2753703
28	0xbc0a2fa6	-0.008434212
29	0x3c8796fc	0.016551487
30	0xbeb011ff	-0.3438873
31	0x3e409d97	0.18810116
32	0xbe98726a	-0.2977479
33	0x3e6fbbc9	0.23411478
34	0x3dc68b09	0.096944876
35	0xbdea7c1c	-0.11449453
36	0xbdc7429c	-0.097295016
37	0xbe0b7da5	-0.13622148
38	0x3d0d504a	0.034500398
39	0x3cabe5eb	0.020983657
40	0xbb51624e	-0.0031949463
41	0xbdfca88b	-0.123368345
42	0xbf2e0ffa	-0.6799313
43	0x3e37fe65	0.17968138
44	0x3e253da9	0.16136803
45	0x3e0e0495	0.13868935
46	0x3b043895	0.0020175327
47	0x3cab7913	0.020931756
48	0xbe8045f2	-0.25053364
49	0xbcc44aea	-0.023961503
50	0x3e2b74e6	0.16743812
51	0x3d0eed1f	0.034894105
52	0x3ede0946	0.4336645
53	0xbd6f8732	-0.05847854
54	0xbdcfeb39	-0.10152287
55	0xbe40975a	-0.18807736
56	0x3eb2b1f0	0.3490138
57	0xbdc2911e	-0.09500335
58	0x3dba5ab8	0.090993345
59	0x3d2f5e29	0.042814407
60	0xbe21f24a	-0.15815082
61	0xbddad02c	-0.10684237
62	0xbdc778af	-0.097398154
63	0x3e1f89f0	0.15579963
64	0x3e71c212	0.23609188
65	0x3e22fc55	0.1591657
66	0x3e3c044c	0.18361014
67	0xbec19b0d	-0.37813607
68	0x3e4f8442	0.20265296
69	0x3cad3074	0.021141268
70	0xbda6c1dd	-0.08142445
71	0xbefc5915	-0.49286714
72	0xbeeca418	-0.46218944
73	0xbe94cbbb	-0.29061684
74	0x3e2828a4	0.16421753
75	0x3e91cbb2	0.2847572
76	0xbddc0c70	-0.1074456
77	0xbc104258	-0.00880488
78	0xbdbc39d0	-0.09190714
79	0xbe367f72	-0.17822054
80	0xbe1c51ac	-0.1526553
81	0xbd2fd8ca	-0.042931356
82	0x3ef9b059	0.48767355
83	0xbcd7066c	-0.02624818
84	0xbdef443c	-0.116829365
85	0xbec0f6f7	-0.3768842
86	0x3e28f4d9	0.16499652
87	0x3e1247d3	0.14285211
88	0x3e534899	0.20633163
89	0xbecd0d11	-0.4004903
90	0xbe6dfdb3	-0.2324131
91	0x3e0ffca5	0.1406122
92	0x3d0cebe6	0.034404658
93	0x3e2e8b7b	0.17045395
94	0x3d639491	0.055561606
95	0x3c8cd5be	0.017191764
96	0xbd1eebac	-0.038798973
97	0x3d8004fd	0.062509514
98	0xbe24b0ee	-0.16083118
99	0x3e96b011	0.29431203
100	0xbc6a4d16	-0.014300605
101	0x3ba04c0b	0.0048918775
102	0x3e101a7b	0.14072601
103	0xbe01e168	-0.12683642
104	0xbcb0d3ce	-0.021585371
105	0xbe334486	-0.17506608
106	0x3e56ed97	0.20989071
107	0xbe96a020	-0.2941904
108	0x3e640234	0.22266465
109	0xbcf54f32	-0.02994499
110	0xbedf607b	-0.43628296
111	0xbdd6564d	-0.10465679
112	0xbd5584ff	-0.052128788
113	0x3dce068d	0.10059843
114	0x3df20938	0.118181646
115	0x3e9e932e	0.30971664
116	0xbd159b56	-0.036525093
117	0x3c275236	0.010212472
118	0x3d9977c6	0.07493548
119	0xbe574938	-0.21024024
120	0xbb438c01	-0.0029838088
121	0xbd47bd3b	-0.04876445
122	0x3d834f0b	0.064115606
123	0x3e6d2681	0.2315922
124	0xbcc7898a	-0.024357576
125	0x3ea67cf7	0.32517216
126	0x3e26736e	0.1625497
127	0xbe19b8c9	-0.15011896
128	0xbea21358	-0.31655383
129	0xbe2933b4	-0.1652363
130	0x3c9473ba	0.018121589
131	0x3debb372	0.11508836
132	0xbe7396e5	-0.2378803
133	0x3c7c527d	0.015400526
134	0x3dd6f140	0.104952335
135	0x3e297ee3	0.1655231
136	0xbd927e1c	-0.0715296
137	0x3e2dea4d	0.1698391
138	0x3e5691d7	0.20954071
139	0xbc778e46	-0.015109604
140	0x3e8fb44e	0.2806725
141	0xbbfb9df8	-0.0076787435
142	0x3dea0cef	0.11428248
143	0x3e22c5fd	0.15895839
144	0x3dfb682c	0.122757286
145	0x3e43fde9	0.19139828
146	0xbdb7e068	-0.08978349
147	0xbd87ebb7	-0.06636756
148	0xbc3e7f65	-0.011627053
149	0x3dd0e97c	0.102007836
150	0x3e098f2c	0.13433522
151	0xbe43222e	-0.19056007
152	0x3e966ddf	0.293807
153	0xbe9ec8e4	-0.31012642
154	0xbe533920	-0.2062726
155	0x3eb7ca74	0.35896647
156	0x3c816ed5	0.01579992
157	0xbe57ab37	-0.21061407
158	0xbe3cbe78	-0.18432033
159	0xbdeefffe	-0.116699204
160	0x3c7e42b2	0.015518831
161	0x3d7b7ecf	0.06140023
162	0xbe30fb49	-0.17283358
163	0xbe761743	-0.24032311
164	0xbd98b1ce	-0.074557886
165	0x3d86c809	0.065811224
166	0xbda78949	-0.08180482
167	0x3cfc8bce	0.030828383
168	0xbdd2a122	-0.1028464
169	0xbd6287ed	-0.05530541
170	0x3d504d7a	0.050855137
171	0xbd87ca38	-0.06630367
172	0x3e6dac9b	0.23210375
173	0x3d0548fe	0.032540314
174	0xbcab2c49	-0.02089514
175	0x3c86634f	0.016404776
176	0x3ed0cf65	0.4078323
177	0xbd241edd	-0.040068496
178	0xbd4574c8	-0.048207074
179	0x3e3df417	0.18550144
180	0xbda4f35e	-0.08054231
181	0x3e3b384b	0.18283193
182	0xbe2ab03e	-0.16668794
183	0x3e80a800	0.25128174
184	0xbea3ebb4	-0.32015765
185	0x3e833535	0.2562653
186	0xbe0ade06	-0.13561258
187	0xbea81e40	-0.3283558
188	0x3d995134	0.074861914
189	0xbe4aadd5	-0.19792874
190	0x3db46ee6	0.08810215
191	0x3e38c621	0.1804433
192	0x3d50c82d	0.050972153
193	0x3e15804c	0.14599723
194	0x3d900af0	0.07033336
195	0xbbaba919	-0.005238664
196	0xbef84800	-0.48492432
197	0x3e30476b	0.17214744
198	0x3c992893	0.018696105
199	0x3e7a5495	0.24446328
200	0x3ebfcc32	0.37460476
201	0xbe309fb7	-0.17248426
202	0xbcbdeb1c	-0.023183398
203	0xbe05144d	-0.12996025
204	0x3e763ec3	0.24047379
205	0x3e0fd076	0.14044365
206	0x3e4e5f25	0.20153482
207	0xbe260aa1	-0.16214992
208	0x3dd78bf8	0.10524744
209	0xbe729eb4	-0.23693353
210	0xbe28b6c6	-0.16475973
211	0xbdcab663	-0.09898069
212	0xbe9a646b	-0.30154738
213	0xbd93eec9	-0.07223279
214	0xbd934ef5	-0.07192794
215	0x3d91871d	0.07105849
216	0x3e13812a	0.14404741
217	0x3c8a9d25	0.016920635
218	0xbe012f2c	-0.12615651
219	0xbe4c3c4c	-0.19944876
220	0x3dcddd49	0.100519724
221	0xbc555d29	-0.013022699
222	0x3e1c3167	0.1525322
223	0xbebabecb	-0.36473688
224	0x3e176390	0.14784074
225	0xbe9f1a32	-0.31074673
226	0xbd82f618	-0.06394595
227	0xbd80b036	-0.062836096
228	0x3c977133	0.018486595
229	0xbc33509e	-0.010944514
230	0xbd95b741	-0.073103435
231	0xbd452da5	-0.048139233
232	0x3e57e819	0.21084632
233	0xbd9cf07c	-0.07663056
234	0x3e59792d	0.21237631
235	0xbe86a843	-0.26300249
236	0x3d90767a	0.070538476
237	0x3e92fa14	0.2870642
238	0xbc26e9c1	-0.010187567
239	0xbe6aadde	-0.22917888
240	0x3e2fece4	0.1718021
241	0xbe83b556	-0.25724286
242	0xbde6310a	-0.11239822
243	0xbe667e61	-0.22509147
244	0x3e2ef200	0.17084503
245	0x3e237a0c	0.15964526
246	0xbdd48f1f	-0.10378861
247	0x3d2643c5	0.040591974
248	0x3e2c20e8	0.16809428
249	0x3cf9b3d9	0.030481266
250	0xbef715ea	-0.48258907
251	0xbd35e6f7	-0.04440972
252	0xbe9cf81a	-0.30658036
253	0xbda11681	-0.078656204
254	0x3eae0bf9	0.3399351
255	0x3c964b4f	0.018346457

block1.layer.1.bn2.weight f4 [16]
0	0x3f7d3390	0.98906803
1	0x3f80d5b2	1.0065215
2	0x3f7c4651	0.98544794
3	0x3f7b0b1d	0.9806383
4	0x3f7d18bf	0.98865885
5	0x3f7f8853	0.9981739
6	0x3f7d6dbe	0.9899558
7	0x3f7b5eeb	0.9819171
8	0x3f7c5ae1	0.9857617
9	0x3f817b92	1.0115836
10	0x3f823f11	1.0175496
11	0x3f7f878e	0.99816215
12	0x3f7af390	0.98027897
13	0x3f7d837a	0.9902874
14	0x3f821696	1.0163143
15	0x3f7e6e3a	0.9938694

block1.layer.1.bn2.bias f4 [16]
0	0xbc902969	-0.01759787
1	0x3b395d47	0.0028284357
2	0x3a97dbd5	0.0011585901
3	0xbcb33fc7	-0.021880997
4	0xbc1ed488	-0.009694226
5	0xbcc107c8	-0.02356328
6	0xbc3f991d	-0.01169422
7	0xbc791ff3	-0.015205371
8	0xbc666f9d	-0.014064697
9	0xbc3aa2c2	-0.011391344
10	0x3cdf9a9e	0.027295407
11	0x3baa1251	0.0051901718
12	0xbc3caa06	-0.011515146
13	0xbcdd61a9	-0.027024107
14	0xbc7ad522	-0.015309604
15	0xb9735b38	-0.00023208268

block1.layer.1.bn2.running_mean f4 [16]
0	0xbc30d8ba	-0.010793859
1	0xbe102c44	-0.14079386
2	0x3ea9755e	0.33097357
3	0xbdcad997	-0.09904783
4	0xbe635658	-0.22200906
5	0x3dd52cf2	0.10408963
6	0xbe58bfbe	-0.21166894
7	0x3f02ac59	0.5104423
8	0x3dd269d3	0.102740906
9	0x3e969c5c	0.29416168
10	0xbe2637e7	-0.16232263
11	0xbf09634b	-0.53667134
12	0x3cae243f	0.021257518
13	0x3e64ffca	0.22363201
14	0xbf8a12a2	-1.0786936
15	0x3f751bf2	0.95745766

block1.layer.1.bn2.running_var f4 [16]
0	0x3f09794c	0.5370071
1	0x3f461813	0.77380484
2	0x3f4a3454	0.78986096
3	0x3ec28a49	0.37996128
4	0x3ed477ac	0.41497552
5	0x3f229a1a	0.6351639
6	0x3f03df6f	0.5151281
7	0x3f42d634	0.761081
8	0x3ee09b33	0.43868408
9	0x3f0a5280	0.54032135
10	0x3f606baf	0.8766431
11	0x3f02a7cb	0.5103728
12	0x3e9cd8b5	0.30634084
13	0x3f5733b9	0.840633
14	0x3f40a39a	0.75249636
15	0x3f37b926	0.7176689

block1.layer.1.conv2.weight f4 [16, 16, 3]
0	0xbe1bcc0c	-0.15214556
1	0x3d69b542	0.057057627
2	0xbc05cea6	-0.008166945
3	0xbd985847	-0.074387126
4	0xbeba6508	-0.36405206
5	0xbebe8aad	-0.37215176
6	0x3e955055	0.2916285
7	0xbecc7d28	-0.39939237
8	0xbcc345df	-0.023837028
9	0x3e86f8a1	0.26361564
10	0xbda7372f	-0.08164822
11	0x3bbe48de	0.0058070263
12	0xbea5c045	-0.32373253
13	0x3e7bd15d	0.24591585
14	0xbd700842	-0.058601625
15	0x3e8f8843	0.28033647
16	0xbe2e1dd3	-0.17003565
17	0xbe1d42b0	-0.1535747
18	0xbd36f823	-0.044670235
19	0xbf3450bd	-0.70435697
20	0x3e2ac996	0.16678461
21	0x3c369eae	0.011146231
22	0xbd88f4db	-0.066873275
23	0x3ea478da	0.32123452
24	0x3f1e168d	0.6175316
25	0x3d877a54	0.06615129
26	0x3e38a421	0.1803136
27	0x3d2298ed	0.039696623
28	0x3dc27a77	0.094960146
29	0xbd5b4db9	-0.05354092
30	0x3e4fd5ce	0.20296404
31	0xbe08e415	-0.13368256
32	0x3e8032f4	0.25038874
33	0xbd30cfa1	-0.04316676
34	0xbd70a21a	-0.058748342
35	0xbd33f195	-0.043931562
36	0x3d55b356	0.05217298
37	0x3dceef92	0.10104288
38	0xbddc19eb	-0.10747131
39	0x3b93d4c9	0.00451145
40	0xbe34f874	-0.17672902
41	0x3d6a5bea	0.057216562
42	0xbcc13463	-0.02358455
43	0x3dfc7dc1	0.12328673
44	0x3e4e95f9	0.20174398
45	0x3e72fdc9	0.23729624
46	0x3e430181	0.19043542
47	0xbd230883	-0.03980304
48	0x3e27b8c1	0.16379072
49	0xbd9848c5	-0.07435755
50	0xbe26311c	-0.16229671
51	0x3e4b7852	0.19870117
52	0x3e18af52	0.1491063
53	0xbdcff28a	-0.101536825
54	0xbe1054e2	-0.1409488
55	0x3ed9352b	0.42423376
56	0x3e273724	0.16329628
57	0xbe33edff	-0.17571257
58	0x3e9b35a0	0.3031435
59	0x3ebb2978	0.36555076
60	0xbe1c9a65	-0.15293272
61	0xbe1796da	-0.14803639
62	0xbda9f2ae	-0.082982406
63	0xbd8b77a6	-0.068099305
64	0xbdc2d6a6	-0.09513597
65	0xbe242567	-0.16029893
66	0xbdd3d529	-0.103433914
67	0xbd937c0b	-0.07201394
68	0x3de19074	0.1101388
69	0x3e481e38	0.19542778
70	0x3cb3a7d6	0.021930616
71	0xbc803487	-0.015650047
72	0x3e70411f	0.23462342
73	0x3ea2d399	0.3180206
74	0x3ecb3c76	0.39694566
75	0x3d88e821	0.066849
76	0xbdd4f14b	-0.103975855
77	0x3d8ccb41	0.06874705
78	0xbe5f1f26	-0.21789226
79	0xbeb0b645	-0.3451406
80	0x3e406bc0	0.18791103
81	0x3eb57b1a	0.35445482
82	0xbb22d47b	-0.0024845887
83	0x3e06a3ef	0.13148473
84	0x3e75c987	0.24002658
85	0x3d0a395a	0.0337461
86	0xbd6bc329	-0.057559166
87	0xbe8166e3	-0.2527381
88	0x3cdb52b6	0.026772838
89	0xbe6b7032	-0.22992018
90	0x3c599f8d	0.013282669
91	0x3c350abf	0.011049925
92	0x3eaf2f0d	0.34215584
93	0x3db801e0	0.08984733
94	0x3d99cfc0	0.07510328
95	0xbe980b8e	-0.29696316
96	0x3eafa770	0.34307432
97	0x3e833895	0.25629106
98	0x3cd7960a	0.026316661
99	0x3eb13770	0.34612608
100	0x3e270ddb	0.16313879
101	0x3ebf80c7	0.37402937
102	0x3e587f54	0.21142322
103	0xbd31a855	-0.043373425
104	0xbe229879	-0.15878476
105	0x3e84493a	0.25837117
106	0x3e393c61	0.18089439
107	0xbb75a25a	-0.0037480802
108	0x3ea74598	0.32670283
109	0x3e75b48a	0.23994651
110	0x3e410196	0.18848261
111	0xbc13b72d	-0.0090158405
112	0x3df31a7b	0.11870285
113	0xbe853441	-0.2601643
114	0x3d171d85	0.036893386
115	0x3d0d0395	0.034427244
116	0xbc7e8650	-0.015534952
117	0xbe785fef	-0.24255346
118	0xbd081f28	-0.033232838
119	0x3d9390ce	0.07205354
120	0x3ecf0206	0.4043123
121	0x3f190ac3	0.59782046
122	0xbed4eaf0	-0.41585493
123	0xbe529789	-0.20565619
124	0xbdf5bdbe	-0.11999081
125	0xbe2ec2bd	-0.17066474
126	0xbea05d0d	-0.31320992
127	0x3e18a1e1	0.14905502
128	0xbdb15f68	-0.086607754
129	0x3df2eac4	0.11861184
130	0x3e13105c	0.1436171
131	0x3b8a11e5	0.004213559
132	0x3e63c203	0.22241978
133	0xba172d34	-0.00057669287
134	0x3dbf5d4c	0.09343967
135	0x3ddc4587	0.10755449
136	0xbdfa6432	-0.12226142
137	0xbe246798	-0.16055143
138	0x3e039593	0.12850027
139	0x3e6d8826	0.23196468
140	0xb94dcc47	-0.00019626423
141	0x3e137a52	0.1440213
142	0xbd4fc3fe	-0.050724022
143	0xbe9d8d2d	-0.3077177
144	0x3e24e0b3	0.16101341
145	0x3e56e416	0.20985445
146	0x3ed77b56	0.42086285
147	0xbd667407	-0.056262996
148	0xbdaa3915	-0.08311669
149	0xbcf88e09	-0.030341165
150	0x3e1db558	0.15401208
151	0xbdd8770a	-0.1056958
152	0x3dc47b16	0.09593789
153	0x3da2853f	0.07935571
154	0xbda60a0c	-0.08107385
155	0x3c78d72b	0.015188019
156	0x3d8a6dc4	0.067592174
157	0x3e9336ed	0.28752843
158	0x3d6a722d	0.057237793
159	0x3eafc44c	0.3432945
160	0xbe0398a5	-0.12851198
161	0x3e2c85f0	0.16847968
162	0x3e948ab3	0.2901207
163	0x3d88831e	0.066656336
164	0x3e8d0f67	0.27550814
165	0xbea9b0e3	-0.33142766
166	0xbc24895a	-0.010042513
167	0xbd9cac44	-0.076500446
168	0xbd71e8e8	-0.059060007
169	0x3f04270e	0.5162209
170	0xbcf85a62	-0.030316535
171	0xbea2d98b	-0.31806597
172	0xbe1c3ce1	-0.15257598
173	0xbc9d2bef	-0.019185988
174	0xbbcb2499	-0.006199431
175	0x3e426344	0.1898318
176	0xbe487714	-0.19576675
177	0x3dd8904e	0.10574399
178	0x3ed5019a	0.41602784
179	0x3dff75cb	0.12473639
180	0xbe465018	-0.19366491
181	0xbd381174	-0.04493852
182	0x3e0e38b4	0.13888818
183	0x3d69df13	0.057097506
184	0x3eb58a1d	0.35456935
185	0xbe801f50	-0.2502389
186	0xbea41224	-0.3204509
187	0xbdd92834	-0.10603371
188	0xbed66467	-0.41873476
189	0xbe211a3f	-0.15732668
190	0xbe281319	-0.16413535
191	0x3ec93eb9	0.39305666
192	0xbe4a704b	-0.19769399
193	0x3dfce106	0.12347607
194	0x3e2ab918	0.1667217
195	0x3e81208e	0.2522015
196	0xbd8b4516	-0.068002865
197	0x3d531a63	0.051538836
198	0x3eb7690f	0.3582234
199	0x3e73f27a	0.23822966
200	0xbd9ebb91	-0.07750619
201	0xbe70ded0	-0.23522496
202	0xbe4914ce	-0.19636843
203	0x3d7bcc69	0.061474238
204	0xbbab4798	-0.0052270405
205	0xbd19f4e2	-0.037587054
206	0xbe470b97	-0.19438015
207	0xbd4c5ea1	-0.049894933
208	0x3d02d616	0.03194245
209	0xbd11099d	-0.03540956
210	0x3ecc11be	0.39857286
211	0x3eb72c89	0.35776165
212	0x3e3c0ce5	0.18364294
213	0xbea4ecbd	-0.32211867
214	0x3e15f2d8	0.14643419
215	0x3dd7aaaf	0.10530602
216	0x3dcf1cc4	0.101129085
217	0x3e384ee4	0.17998844
218	0x3e05db84	0.1307202
219	0x3ebdb6f8	0.37053657
220	0xbe143837	-0.1447457
221	0x3ed709e3	0.4199973
222	0x3e262d0e	0.16228124
223	0x3d4cc75a	0.049994804
224	0xbe431e0f	-0.19054435
225	0x3ec382bd	0.38185683
226	0xbe8117af	-0.25213382
227	0xbdb50bd0	-0.08840144
228	0x3e0f4c61	0.1399398
229	0xbc972814	-0.018451728
230	0xbdae6c09	-0.085167
231	0x3e107beb	0.14109771
232	0x3c40aa10	0.011759296
233	0x3ec7f84c	0.39056623
234	0xbe89801f	-0.2685556
235	0xbea717dd	-0.32635394
236	0xbd62a89d	-0.055336583
237	0x3e422934	0.1896103
238	0x3d1a09c6	0.037606977
239	0xbe20a8d7	-0.15689407
240	0xbecab262	-0.3958922
241	0xbded82f1	-0.11597241
242	0x3dfd8518	0.12378901
243	0x3e74c4a0	0.23903131
244	0x3f359669	0.7093263
245	0x3e1182c2	0.14210036
246	0x3c834ac9	0.016026871
247	0xbe178f67	-0.14800797
248	0x3db1eb79	0.08687491
249	0xbeb90932	-0.36139828
250	0x3dad4f7a	0.084624246
251	0xbe760db0	-0.24028659
252	0x3e9e278e	0.30889553
253	0x3e91ceed	0.28478184
254	0x3eccc7c2	0.39996153
255	0xbd805103	-0.06265452

block2.layer.0.bn1.weight f4 [16]
0	0x3f7a79e1	0.9784222
1	0x3f80a3dc	1.0050006
2	0x3f8130d6	1.0093029
3	0x3f7f2689	0.99668175
4	0x3f7b06ca	0.98057234
5	0x3f81382e	1.009527
6	0x3f83a659	1.028514
7	0x3f83b132	1.0288451
8	0x3f81ed04	1.0150456
9	0x3f830c91	1.023821
10	0x3f814ed8	1.0102186
11	0x3f80da56	1.0066631
12	0x3f7aa526	0.97908247
13	0x3f80df26	1.00681
14	0x3f7f4616	0.9971632
15	0x3f7fb1fc	0.9988096

block2.layer.0.bn1.bias f4 [16]
0	0x3c7da5a0	0.015481383
1	0x3ca0bdb5	0.01962171
2	0x3c78675c	0.015161362
3	0x3cb5a06e	0.022171225
4	0xbbde57ae	-0.0067853546
5	0x3c2e6f78	0.010646693
6	0x3c5905ff	0.0132460585
7	0x3ca8325e	0.02053183
8	0xbb261bbc	-0.002534612
9	0x3d337765	0.043815035
10	0x3b991e9c	0.0046728384
11	0xbc746420	-0.01491645
12	0x3cbb0a1b	0.022831967
13	0x3cb976bc	0.022639625
14	0x3b2cd35b	0.0026371095
15	0x3bc590bb	0.006029216

block2.layer.0.bn1.running_mean f4 [16]
0	0xbf5273b8	-0.8220782
1	0x3f386196	0.72023904
2	0x3f9dadc1	1.231865
3	0x3c06b871	0.008222685
4	0x3fd09a9b	1.6297182
5	0x3fc65eae	1.5497644
6	0xbf29bdb8	-0.6630511
7	0xbee7a21c	-0.45240867
8	0xbf24ede3	-0.64425486
9	0x3db2bb56	0.08727138
10	0xbc8abcb6	-0.016935688
11	0xbff3299b	-1.8997072
12	0xbf9a4564	-1.2052426
13	0xbf254546	-0.6455883
14	0xbf4b76af	-0.7947797
15	0xbed06786	-0.40703982

block2.layer.0.bn1.running_var f4 [16]
0	0x40725dd7	3.7869775
1	0x409afa0c	4.8430233
2	0x407e69ca	3.9752069
3	0x40aa4436	5.3208265
4	0x40e7b9ce	7.241431
5	0x40b2486e	5.5713415
6	0x40954b3e	4.665435
7	0x40cec407	6.461429
8	0x40668f7c	3.6025076
9	0x406dbbf5	3.714597
10	0x40a85fae	5.2616796
11	0x4097292b	4.7237754
12	0x4033ab3c	2.8073263
13	0x409bd047	4.8691745
14	0x40b21819	5.5654416
15	0x407a318b	3.9092739

block2.layer.0.conv1.weight f4 [32, 16, 3]
0	0x3e0dd575	0.13850959
1	0xbd255834	-0.04036732
2	0x3a695511	0.00089009205
3	0x3d2e0fc1	0.042495493
4	0x3e5bb25b	0.21454756
5	0x3dbbbdad	0.09167037
6	0xbe4a43f3	-0.19752483
7	0xbe2c286f	-0.16812299
8	0x3e14b561	0.14522316
9	0x3de18ac9	0.11012799
10	0x3d4e24d4	0.05032809
11	0x3c7d5c1d	0.015463856
12	0xbdce458b	-0.10071858
13	0xbcca6a32	-0.024708841
14	0xbc7f4d19	-0.015582346
15	0x3cfc7b7f	0.030820606
16	0x3e11518c	0.14191264
17	0xbd683aa5	-0.056696553
18	0x3e5fd218	0.21857488
19	0xbdb605ed	-0.08887849
20	0x3df8eeb4	0.12154904
21	0xbe1b25af	-0.15151094
22	0xbe3f4c18	-0.18681371
23	0xbd733974	-0.059380963
24	0x3d562397	0.052280035
25	0x3cb64286	0.022248518
26	0x3e2610ff	0.16217421
27	0x3dbef935	0.09324876
28	0x3dcdd087	0.10049539
29	0x3ab80c11	0.0014041682
30	0x3e1cfc78	0.15330684
31	0xbe429395	-0.1900161
32	0xbdfca85d	-0.123368
33	0xbd03154a	-0.032002725
34	0xbdd9a89e	-0.10627864
35	0x3ebd647e	0.36990732
36	0xbec92589	-0.3928645
37	0xbd4907b1	-0.0490796
38	0x3e52316c	0.20526665
39	0xbd0937e9	-0.033500586
40	0x3dd46ace	0.10371934
41	0x3c9df1dd	0.019280368
42	0x3e18c3a3	0.1491838
43	0xbe32d223	-0.17462973
44	0xbd17a978	-0.037026852
45	0xbc99be35	-0.018767456
46	0x3e57741a	0.21040383
47	0xbd8719db	-0.065967284
48	0xbd4d643b	-0.050144415
49	0xbc7f1b97	-0.015570543
50	0xbe430248	-0.19043839
51	0xbe04752d	-0.12935324
52	0x3e287c1c	0.16453594
53	0x3dc08261	0.09399868
54	0xbe1d00ad	-0.15332289
55	0xbe48d139	-0.19611062
56	0xbe50db29	-0.20396103
57	0xbbb2a35e	-0.005451604
58	0xbe47c46b	-0.19508521
59	0x3db2c1d2	0.087283745
60	0xbe6aafbd	-0.22918601
61	0xbd9e4853	-0.077286385
62	0xbc7a2bea	-0.015269259
63	0xbc71acef	-0.014750703
64	0x3cd8ffba	0.026489127
65	0x3dc06b9f	0.09395527
66	0xbd2b6982	-0.041848667
67	0x3e1716fc	0.14754862
68	0x3da6257f	0.081126206
69	0x3d4ee8c4	0.05051495
70	0x3cbe1a73	0.023205971
71	0xbaea4a91	-0.0017875006
72	0x3d8f6587	0.07001787
73	0xbcda1548	-0.026621476
74	0xbdf1a2cc	-0.11798629
75	0x3d7d9b4c	0.06191568
76	0x3b77bbe9	0.0037801212
77	0xbe05d3f4	-0.13069135
78	0x3d507f07	0.050902393
79	0xbd12f88c	-0.035881564
80	0xbdd50896	-0.10402028
81	0xbd9c6af6	-0.07637589
82	0x3e04dfb2	0.12975958
83	0xbea6c6a2	-0.3257342
84	0x3e195a67	0.14975892
85	0xbe0a3db3	-0.13500099
86	0xbd0035c0	-0.03130126
87	0xbd472fc9	-0.048629556
88	0x3e00d49d	0.12581106
89	0x3cdeccf5	0.02719734
90	0x3e7c15d9	0.24617709
91	0xbdafca8a	-0.08583553
92	0x3d69874b	0.05701379
93	0x3e46c944	0.19412714
94	0x3d93ce28	0.072170556
95	0x3d6e2232	0.05813808
96	0xbd07e26b	-0.033174913
97	0xbd31623f	-0.043306585
98	0x3e83d1c4	0.25745976
99	0xbe07d33b	-0.13264172
100	0xbd2a069b	-0.041510206
101	0x3c19a876	0.009378543
102	0x3e57ed8b	0.21086709
103	0x3ea617ab	0.32439932
104	0x3e5fbc95	0.21849282
105	0x3e0d44e9	0.13795818
106	0xbd8c47c9	-0.068496294
107	0xbe5c614b	-0.2152149
108	0x3dc8f67b	0.098126374
109	0x3e8f5654	0.2799555
110	0x3d4539eb	0.048150938
111	0xbdacac34	-0.08431283
112	0x3e4fc889	0.20291342
113	0xbe9a59c6	-0.30146617
114	0xbdd8aec0	-0.10580206
115	0xbc9689f7	-0.018376334
116	0xbd17deb5	-0.037077624
117	0x3d22dc1e	0.0397607
118	0x3deccfeb	0.11563095
119	0x3dc77b56	0.09740321
120	0x3d53e440	0.051731348
121	0x3e5366aa	0.20644632
122	0xbd9d9d2c	-0.07695994
123	0xbdf47e01	-0.11938096
124	0xbd486b43	-0.048930418
125	0xbd9a276d	-0.07527051
126	0x3d833235	0.064060606
127	0x3e2ca215	0.16858704
128	0xbabda860	-0.0014469735
129	0x3c35d60f	0.011098399
130	0x3d77b963	0.060479533
131	0xbe105287	-0.14093982
132	0x3eb4f860	0.35345745
133	0x3e76277d	0.24038501
134	0xbc13b8c9	-0.009016224
135	0xbe5786ed	-0.21047564
136	0xbe14e306	-0.14539728
137	0x3ddb239e	0.10700153
138	0xbe2fcbe7	-0.17167626
139	0x3e2cc198	0.16870725
140	0xbdc5d4f6	-0.0965976
141	0x3dc40beb	0.09572586
142	0xbc7c2652	-0.015389996
143	0x3a9d47b3	0.0011999517
144	0x3e167e26	0.1469656
145	0x3caa5e63	0.02079696
146	0xbe49f0a8	-0.1972071
147	0x3e044232	0.12915877
148	0xbdf5262b	-0.119701706
149	0xbe2f4049	-0.17114367
150	0x3e46938e	0.19392225
151	0x3d43d0d1	0.047806565
152	0x3e43a6bd	0.19106574
153	0xbde22fae	-0.110442504
154	0xbe395d27	-0.18101941
155	0x3d458530	0.04822272
156	0xbdd89d56	-0.105768844
157	0x3e02ee2a	0.12786165
158	0x3bdec19f	0.006797984
159	0xbe0df274	-0.1386202
160	0xbdcd4918	-0.10023707
161	0xbd57f609	-0.05272487
162	0xbd65d342	-0.056109674
163	0xbe601385	-0.21882446
164	0x3cff5bf0	0.031171769
165	0x3de098c9	0.109666415
166	0xbd8a2e6a	-0.06747134
167	0xbe43a061	-0.19104148
168	0x3e4e05ec	0.20119447
169	0xbdbc69d4	-0.091998726
170	0x3cd9ceea	0.026587922
171	0x3d5dc5e7	0.054143813
172	0x3e3decb6	0.1854733
173	0xbd887c45	-0.066643275
174	0x3c72d9cf	0.014822437
175	0x3e623d9f	0.22093819
176	0xbdf87c06	-0.121330306
177	0xbd5ff2d2	-0.05467493
178	0xbd9e7825	-0.077377595
179	0xbda1e70a	-0.07905395
180	0xbe88f433	-0.2674881
181	0xbe7c8859	-0.24661388
182	0xbdf29952	-0.1184565
183	0xbe11b57d	-0.14229389
184	0x3d8caec5	0.06869272
185	0x3cffecbd	0.031240815
186	0xbe074cb0	-0.13212848
187	0x3d7fa01e	0.06240856
188	0x3dc66352	0.096869126
189	0x3d189982	0.03725577
190	0xbdd4ea50	-0.10396254
191	0xbcaa85c2	-0.020815734
192	0xbdbcd389	-0.09220035
193	0xbc1eefeb	-0.009700756
194	0x3dbc45fa	0.091930345
195	0x3d409244	0.04701449
196	0x3e082fd4	0.13299495
197	0xbd6c868b	-0.057745498
198	0x3c8abc37	0.016935451
199	0x3e629266	0.22126159
200	0xbcdf318c	-0.027245305
201	0xbdc6ed17	-0.0971319
202	0xbdd55b99	-0.104178615
203	0xbc658dfa	-0.014010901
204	0xbeae7cf4	-0.34079707
205	0x3df16171	0.117861636
206	0xbd0db17e	-0.034593098
207	0x3e57219a	0.21008912
208	0x3dbc7b60	0.092032194
209	0xbde795dc	-0.1130788
210	0x3d908aea	0.07057746
211	0x3dfc8624	0.12330273
212	0x3e49ad4c	0.19695014
213	0x3d9d27fd	0.07673643
214	0xbd0cfcf0	-0.034420907
215	0x3e724d19	0.23662223
216	0x3cdbe76b	0.026843747
217	0xbe74c09e	-0.23901603
218	0x3c60e349	0.013726064
219	0xbd61578d	-0.055015136
220	0x3e5553a5	0.20832689
221	0x3a8655bd	0.0010248941
222	0xbd1dbe64	-0.03851165
223	0x3daa168f	0.08305084
224	0x3d9c6dd7	0.07638138
225	0x3de55117	0.11197107
226	0x3e8eff81	0.2792931
227	0xbe18009d	-0.14843984
228	0xbeaa404f	-0.3325219
229	0x3d07d7c4	0.033164755
230	0x3df18744	0.11793378
231	0xbdfb197d	-0.12260721
232	0x3e1768f2	0.14786127
233	0xbe08f2cc	-0.1337387
234	0xbdc3c917	-0.09559839
235	0xbcac756a	-0.021052081
236	0xbde545ea	-0.11194976
237	0xbd4d1959	-0.050073
238	0x3e83c3be	0.25735277
239	0xbde09d1c	-0.10967466
240	0x3cd6d6ca	0.026225466
241	0x3d0bdf52	0.03414852
242	0xbebf4308	-0.37355828
243	0xbe9d0961	-0.30671218
244	0xbe42f53d	-0.19038863
245	0xbe1f35e4	-0.15547901
246	0x3e3d0efb	0.18462746
247	0xbe259ef5	-0.16173919
248	0xbe4aef71	-0.19817902
249	0xbe681b74	-0.22666723
250	0xbd9e45c5	-0.07728151
251	0x3e649bf7	0.22325121
252	0xbe2ba700	-0.16762924
253	0xbebb0525	-0.36527362
254	0x3d841c6a	0.06450732
255	0x3d64dfa2	0.055877335

block2.layer.0.bn2.weight f4 [32]
0	0x3f80bd55	1.005778
1	0x3f7dcf2d	0.9914425
2	0x3f81273e	1.0090101
3	0x3f818d05	1.0121161
4	0x3f8007ba	1.0002358
5	0x3f810c5b	1.0081896
6	0x3f7e2cba	0.99287
7	0x3f81f15a	1.015178
8	0x3f7e511f	0.9934253
9	0x3f8248c1	1.0178453
10	0x3f79bb32	0.9755126
11	0x3f7dc449	0.9912763
12	0x3f81896b	1.0120062
13	0x3f80298b	1.0012678
14	0x3f808826	1.0041549
15	0x3f7b0e30	0.98068523
16	0x3f81a27f	1.0127715
17	0x3f802401	1.0010988
18	0x3f7fd371	0.9993201
19	0x3f82fdf8	1.0233755
20	0x3f8026dd	1.001186
21	0x3f80c16c	1.0059028
22	0x3f7fa3dc	0.99859405
23	0x3f7d3385	0.9890674
24	0x3f7c5742	0.98570645
25	0x3f7abb3a	0.97941935
26	0x3f7bf220	0.9841633
27	0x3f7edeea	0.9955889
28	0x3f800096	1.0000179
29	0x3f7fcc4f	0.99921125
30	0x3f853e2b	1.0409597
31	0x3f7c5b04	0.9857638

block2.layer.0.bn2.bias f4 [32]
0	0x3c9c97d9	0.019115375
1	0xbbf0f8eb	-0.007353892
2	0xbc918dbe	-0.017767783
3	0x3a7553fb	0.00093585224
4	0xb88f2662	-6.825921e-05
5	0x3b62230d	0.0034505755
6	0xbbda0d1c	-0.006654395
7	0x3bf7328a	0.0075438665
8	0xbb3eebfb	-0.0029132355
9	0x3ced1dd8	0.028944895
10	0xbc41cc85	-0.011828546
11	0xbc8863ec	-0.016649209
12	0x3c8c1eca	0.017104525
13	0xbbc8c927	-0.006127495
14	0x3c67e008	0.014152534
15	0xbd0b7fff	-0.034057613
16	0xb9557f0d	-0.00020360593
17	0xbbafc021	-0.0053634797
18	0x3c64ee6e	0.013972862
19	0xb9db6108	-0.0004184323
20	0x3c9b216e	0.018936839
21	0xbb31efb4	-0.002715093
22	0x3b80e45c	0.0039334726
23	0xbc6d8210	-0.014496341
24	0xbc09270c	-0.008371126
25	0xbca043d2	-0.01956359
26	0xb972e567	-0.00023164377
27	0x3c3f368a	0.011670718
28	0xbb6e91c8	-0.003640281
29	0x3c0dbdcb	0.008651207
30	0x3d30c015	0.043151934
31	0xbca46908	-0.020069614
