checkpoint/transfer_WideResNet_sa_spinel5v_to_lirich_1116/retry_target_focus/best_model.pth (torch, 331746 bytes, 78 tensors)

conv1.weight f4 [16, 21, 3]
000000 bc f7 24 3e 21 a5 27 3d d3 40 25 bd a5 f4 03 bd
       0.16110128 0.040928964 -0.040345024 -0.032215733
000010 a5 2d 3c 3e 02 7f 57 be 50 fb 96 3d 6f 08 15 be
       0.18376787 -0.21044543 0.07372153 -0.14553998
000020 67 fe de 3d c2 75 88 be 74 c6 a3 3d ed 29 25 bc
       0.10888367 -0.26652342 0.07996836 -0.010080797
000030 7c 31 28 3e 8a 8f 05 3e a5 44 0c be 04 79 16 be
       0.16425127 0.13043037 -0.13698061 -0.14694601
000040 e8 97 73 3e 1c 32 3c 3e f4 33 99 3e 75 32 a8 3e
       0.23788416 0.1837849 0.2992245 0.32850996
000050 48 62 83 3e 97 9c 07 bd da 03 69 be 3f 8e 08 3e
       0.2566092 -0.03310832 -0.22755376 0.13335513
000060 22 0b 83 be 24 36 a2 be 37 60 b8 3e 4e 5f 39 3e
       -0.2559443 -0.3168193 0.36010906 0.18102762
000070 5f 7e 73 3d 16 62 83 bd e9 96 91 3e 0d aa f2 be
       0.05944669 -0.06415193 0.28435448 -0.47395363
000080 fc 49 10 be 38 c2 ab 3e be cd 24 bd d7 3d 6f be
       -0.14090723 0.33546615 -0.040235274 -0.23363434
000090 a3 b2 56 bc 91 8b 10 3d f0 d7 95 be 43 ba 1e be
       -0.013104114 0.03528935 -0.2926631 -0.1550074
0000a0 87 a5 23 bd f2 e2 da 3d 67 19 fa 3d 75 4b 63 be
       -0.03995278 0.10687818 0.12211876 -0.22196753
0000b0 76 0a 35 be 9e 70 88 be 4b 0c 92 be 65 67 c2 be
       -0.17679772 -0.2664842 -0.28525004 -0.3796951
0000c0 27 7c 0d be 5c cf 4e be be bc 0f be 77 be 10 bf
       -0.13816892 -0.20196289 -0.14036843 -0.56540626
0000d0 82 e2 57 be 41 39 5b be 77 3e 68 be 87 27 56 bd
       -0.210825 -0.2140856 -0.22680078 -0.05228379
0000e0 e7 8a 24 bb 12 36 23 be a2 20 87 3d 32 7d b5 3d
       -0.0025107206 -0.15938595 0.06598021 0.0886177
0000f0 4b 7c 90 3e 1c 1e 8a be b8 80 b9 be 4a 0b a1 3e
       0.28219828 -0.26976097 -0.36231017 0.31453925
000100 c9 f9 a8 3d 95 df 5a 3c 9a 51 87 bd 6d ca 46 bc
       0.08250768 0.01335897 -0.06607361 -0.012133223
000110 36 f3 92 be 4f 01 3a be 3d 7f 2f be a7 66 07 be
       -0.2870118 -0.18164562 -0.17138381 -0.13222753
000120 84 af ae be 28 45 37 be 3e c2 4b bc bf 72 dd be
       -0.34118283 -0.17897475 -0.012436448 -0.43251607
000130 52 9d 55 3e 9c 85 e3 bd 68 b2 2e 3d 46 2b f0 3d
       0.20860794 -0.11109468 0.04265061 0.11727004
000140 ec 80 c8 3d ce c6 24 be d8 47 a5 3e 1d 0c 06 3e
       0.09790215 -0.16091463 0.32281375 0.13090558
000150 a5 56 18 be 86 f2 8b be 86 bb 8a bc a2 fd fe bd
       -0.14876802 -0.27333468 -0.016935121 -0.1245072
000160 bb bb ac bb 67 35 64 3e d2 b0 61 3c ad 56 92 3e
       -0.0052714027 0.22285996 0.013775067 0.28581753
000170 dd 3c 35 be 3f e0 53 be 76 c8 41 3e 66 6b 87 be
       -0.17698999 -0.20691012 0.18924126 -0.26449126
000180 c7 ae 8c 3d ce 9b 8d bd 21 31 d2 3d c5 d7 4b 3e
       0.06869274 -0.06914483 0.10263277 0.19906528
000190 23 7e 0f be fd b6 98 bd c0 f2 05 bb 2c 9b 86 bd
       -0.14012961 -0.07456777 -0.002043888 -0.065725654
0001a0 1c 1f 2e be d0 c0 a7 3d 0f 5c 8a 3d 94 ad 53 be
       -0.17004055 0.08191073 0.0675584 -0.20671684
0001b0 41 6e 79 3e 36 63 d0 bd a7 00 0a be 90 fe 5e be
       0.24358465 -0.10175173 -0.13476811 -0.21776795
0001c0 08 22 18 3e ad f8 88 3d 6f 7f 50 be b5 5f ab 3d
       0.14856732 0.06688056 -0.20361112 0.08367864
0001d0 89 b5 77 bd 3b c2 0a 3d 12 04 15 3d 9a 6f 55 3e
       -0.06047586 0.03387664 0.036380835 0.20843354
0001e0 fc 52 ae 3d ba b4 f2 3d f0 51 44 be f2 4a e0 3d
       0.08511922 0.11850877 -0.19171882 0.10951795
0001f0 b3 9f 0f bd dc 22 ac be 05 61 f7 3d a6 92 16 be
       -0.03506441 -0.33620346 0.12079052 -0.1470438
000200 ee 7d 02 3e bd 90 f5 bc 39 7d f1 3e 17 0a 99 be
       0.12743351 -0.029976243 0.4716585 -0.2989051
000210 d4 f2 34 bd 19 7c 17 3e 8b f2 80 be 82 4b b9 3d
       -0.04417689 0.14793433 -0.25185046 0.09047605
000220 43 56 a0 3d b6 6a 84 be ee 4e 21 3d 3f 75 27 bd
       0.07828953 -0.25862664 0.039381914 -0.0408833
000230 11 57 33 be 86 dd ae be 25 94 4e 3d 3b ee 84 3e
       -0.17513682 -0.34153384 0.05043425 0.25963005
000240 ef b4 16 3e 1f 3a a7 3e f6 96 be bc 4e d4 ad bd
       0.14717458 0.3266153 -0.023265343 -0.084877595
000250 b0 ec 6c 3e b0 49 87 b9 e6 d2 e7 3e 8b de 78 be
       0.23137164 -0.00025804108 0.4527809 -0.24303643
000260 ea d6 30 be f0 36 07 bf 61 51 82 3d 20 2a ca 3d
       -0.17269483 -0.528182 0.06363178 0.09871316
000270 51 fe 55 3c 9d 62 bd 3d 68 7b 4f 3e 05 b5 8d bd
       0.013061122 0.092473246 0.2026192 -0.06919292
000280 2b 6a 12 be 9e 11 9b 3e 38 82 db 3e b4 cf 68 be
       -0.14298312 0.30286878 0.42872787 -0.22735482
000290 dd f2 b9 bd 17 4d 7e bd 82 08 b4 3e 20 1e 20 3d
       -0.090795256 -0.062085237 0.3516274 0.03909123
0002a0 ef 1e 14 be fe 94 29 bd 62 e4 1e 3c b0 d2 c2 be
       -0.14464925 -0.041401856 0.009698005 -0.38051367
0002b0 ae 5e 17 3e db 37 ec bd 92 62 64 3e 4d 7b ac 3e
       0.14782211 -0.11534091 0.22303227 0.3368782
0002c0 0f c3 9f bd 84 c6 a0 be 4e 9c 48 be 25 6f a6 be
       -0.07800876 -0.31401455 -0.19590876 -0.32506672
0002d0 45 08 9a 3d 62 aa 4c 3e 8d 9d 7e be 8d 8c 5d 3e
       0.075211085 0.19986871 -0.24864788 0.21635647
0002e0 ed 4c 63 be 88 f2 52 3d a9 3d c2 3e 92 ad ce 3d
       -0.22197314 0.051500827 0.37937668 0.100917
0002f0 10 29 c6 be 1d 00 97 be 50 bb 17 be 1f 8b 69 be
       -0.38703203 -0.29492274 -0.14817548 -0.22806977
000300 0d 5b 58 3e aa 9d 7d 3c cd 2c 99 3d 7b 7d 68 3d
       0.21128483 0.015479485 0.07479248 0.056760293
000310 28 ff 9a bc ee 08 e4 3c 8a d4 47 3e ea 6d 0b 3d
       -0.018920496 0.02783629 0.19514671 0.03404037
000320 34 d7 19 be f5 9d 31 3e 49 db a8 3e 7f 4d 27 3e
       -0.150235 0.17345412 0.329798 0.16338156
000330 34 f6 1c 3e 99 83 8e be 84 89 fb bd c3 7b 89 bd
       0.15328294 -0.27834776 -0.122820884 -0.06713059
000340 e7 e9 a0 be 3c 8f 65 be 8e cc 0b 3f 45 da ad 3d
       -0.31428453 -0.22417921 0.54609 0.08488897
000350 9d 76 89 3d 00 3f 80 be d1 dc e4 bd 66 52 01 be
       0.06712077 -0.25048065 -0.1117493 -0.12629089
000360 76 18 b8 bc 94 3f de 3e d6 e0 07 3d c0 f4 8d be
       -0.022472601 0.4340788 0.033173405 -0.27725792
000370 18 41 0d be ea 40 b6 3d 8b 32 81 3d 6f 41 75 be
       -0.13794363 0.088991 0.063084684 -0.23950742
000380 72 11 01 bf 5d 29 8a 3c 39 63 45 3e 65 be 80 be
       -0.50417244 0.016865427 0.19276132 -0.2514526
000390 1d 96 a4 be 18 17 12 be 98 6e 08 3d 10 d9 50 3e
       -0.32145777 -0.14266622 0.033308595 0.20395303
0003a0 98 10 48 be 49 14 fb 3e b3 b5 be bc e2 c9 d1 3d
       -0.1953758 0.49038914 -0.02328 0.10243584
0003b0 98 94 89 bc 03 71 20 3e b2 5b 29 bd e1 3d af 3e
       -0.016794488 0.1566811 -0.041347213 0.34226897
0003c0 a2 40 e0 3b 89 8a e0 3d 6f ae 04 3e 4b 5e 1e be
       0.0068436423 0.109639235 0.12957166 -0.15465657
0003d0 59 83 64 be c1 37 80 3e 76 b9 cc be bd 2b bd be
       -0.2231573 0.25042537 -0.39985245 -0.36947432
0003e0 2f 11 a9 bc 1e a6 5e be 6c 8c 8f 3c 97 24 34 be
       -0.020638077 -0.21743056 0.017523013 -0.17592083
0003f0 30 9b d1 be 95 d2 06 3c e4 d3 22 3d bb 1b f9 bd
       -0.4093871 0.008228918 0.039752856 -0.12163492

block1.layer.0.bn1.weight f4 [16]
000000 e3 65 7f 3f 46 99 7f 3f db 0d 80 3f 72 41 7f 3f
       0.9976484 0.9984325 1.0004228 0.99709237
000010 55 c2 7e 3f 3c 51 80 3f 17 3e 7f 3f 2e 83 80 3f
       0.9951528 1.0024791 0.99704117 1.0040033
000020 f8 87 7e 3f bc c1 7e 3f f4 20 7f 3f 5e 6f 80 3f
       0.9942622 0.99514365 0.9965966 1.0033987
000030 e8 0a 7f 3f 45 65 80 3f 1f eb 7f 3f 9a 90 80 3f
       0.99626017 1.0030905 0.9996814 1.0044129

block1.layer.0.bn1.bias f4 [16]
000000 07 d2 65 bb 48 f9 25 3b fe ac 94 39 f9 8b bc bb
       -0.0035067813 0.0025325585 0.0002835765 -0.0057539907
000010 71 c6 a3 bb ee 91 94 ba d6 37 f7 3a b0 31 b9 3b
       -0.0049980213 -0.0011334994 0.0018861245 0.005651675
000020 54 1e 71 3a 85 0f 89 bb c1 25 38 ba db 22 97 3b
       0.00091979397 -0.0041827583 -0.0007024669 0.0046123094
000030 7b eb 04 bb 87 1c 68 3b be 1e 95 3a a3 f7 87 3b
       -0.002028196 0.0035417394 0.001137696 0.0041493936

block1.layer.0.bn1.running_mean f4 [16]
000000 28 5c 09 bf 4a 5d fc be 28 4c 83 be e6 89 f1 3d
       -0.53656244 -0.49289924 -0.2564404 0.1179388
000010 ad 3e 8c 3e 57 20 9b 3e 0e 7a 40 be 7f ba 14 3e
       0.27391568 0.3029811 -0.1879656 0.14524268
000020 61 fa a2 bd 9d b7 6e 3e 04 8a b8 be 52 a0 1c be
       -0.07957912 0.2331223 -0.36042798 -0.15295532
000030 d9 2a 4f 3e d2 17 fb be 85 e4 35 be 14 c5 5b 3c
       0.20231189 -0.4904161 -0.17762955 0.013413686

block1.layer.0.bn1.running_var f4 [16]
000000 ad fc 64 40 83 a1 8f 40 c5 a7 79 40 7b 37 9c 40
       3.577922 4.488466 3.9008648 4.8817725
000010 e9 51 64 40 b1 9c 61 40 df 05 2a 40 12 09 15 40
       3.5674994 3.5251887 2.6566083 2.3286786
000020 f7 8f 12 40 d8 09 5f 40 1a 30 55 40 bc ce 4c 40
       2.290037 3.4849758 3.331061 3.200118
000030 6a 08 28 40 65 0f cb 40 0f b5 9c 40 dc 34 db 3f
       2.6255136 6.345629 4.897102 1.7125506

block1.layer.0.conv1.weight f4 [16, 16, 3]
000000 b3 31 ae be e1 37 16 be 9e e7 20 3d 99 6f b3 bd
       -0.34022292 -0.14669754 0.039283387 -0.0876152
000010 6a 6f 4b 3e c2 88 f5 be ac b8 86 3d 79 32 b9 3b
       0.1986672 -0.479559 0.06578192 0.0056517688
000020 9b 57 9b 3d 84 de b8 3e 18 9c 8d be 22 49 3d 3e
       0.07585069 0.36107266 -0.27658153 0.18484929
000030 cb 49 91 bd 29 48 22 be e9 f0 61 be 76 ee 7b be
       -0.07094153 -0.1584784 -0.22064556 -0.24602684
000040 ce f0 0d 3d e6 d8 b7 be 4c 1d b9 bd 59 ce 11 bb
       0.034653477 -0.35907668 -0.09038791 -0.0022248237
000050 3c 95 11 3c 29 cf ab 3e f5 09 1e bd b7 08 4c 3e
       0.008885678 0.33556488 -0.038583715 0.199252
000060 95 2e 62 3e c5 7c a7 be e0 f0 71 bd ea 09 d3 3d
       0.22088082 -0.3271238 -0.059067607 0.10304625
000070 16 5d 12 be 54 b9 13 3e 8a c4 86 3e 07 5b d5 3e
       -0.14293322 0.14426166 0.26321822 0.4167101
000080 55 55 33 be 39 99 a2 bd c0 c2 b8 be 9e bd 8d be
       -0.1751302 -0.07939381 -0.36086082 -0.2768373
000090 c6 ff 86 bd 3b 10 a4 3d ad fc 14 bc e9 65 9b bd
       -0.06591754 0.08010908 -0.009093446 -0.07587797
0000a0 24 a4 0e 3e 54 ac e0 bd b1 78 55 3e 0d f1 38 3d
       0.13929802 -0.10970369 0.20846821 0.04515176
0000b0 44 21 6e be 6b a1 11 bd 25 5d 50 3e b7 f1 34 bd
       -0.23254877 -0.03555433 0.20348032 -0.04417583
0000c0 aa d8 88 bd 8a 8c 88 3d 3c 87 49 bd 4f 65 6e bd
       -0.066819504 0.06667431 -0.049201235 -0.058202084
0000d0 70 67 de 3d 4c f3 28 be 58 51 31 be 42 0d 32 3d
       0.10859573 -0.1649906 -0.17316186 0.043469675
0000e0 1f 8c d8 3d 55 74 18 3e 3e ae cf 3d 73 d9 32 be
       0.10573601 0.14888127 0.10140656 -0.17465763
0000f0 29 17 17 bd 25 ad 87 3c 9f 62 64 3e f6 40 3d 3e
       -0.03688732 0.016562054 0.22303246 0.18481812
000100 f6 e8 46 be 76 7a 67 3d 5f e4 1d be 4f 38 37 be
       -0.19424805 0.056513272 -0.15419148 -0.17892574
000110 9b 08 16 3b 74 e3 64 bd 24 c7 73 3e e4 52 a9 be
       0.0022893313 -0.05588098 0.23806435 -0.33071053
000120 c5 52 85 bd 08 fd c6 bd 9b 29 2e 3d a7 18 f4 3d
       -0.06509928 -0.09716231 0.042520147 0.119187646
000130 f8 83 32 3e 57 6e 07 3e 57 c4 02 3e fa c8 b4 bd
       0.17433155 0.13225685 0.1277021 -0.08827396
000140 d4 e2 04 3e ce 7e b7 be 4f 81 b1 3c 58 0c 89 3e
       0.12977153 -0.35838932 0.021668104 0.2676723
000150 1b cd aa bc 9d aa 3f be ad 71 9c bd c9 12 1f be
       -0.020849755 -0.18717428 -0.076388694 -0.1553451
000160 1e 62 2e 3d 7e a6 72 3d 3b 6c 9f 3d 70 d2 7e be
       0.04257404 0.05924081 0.07784315 -0.24884963
000170 2e d3 b1 be 5d 58 89 bd 31 4f 96 3d a2 f1 4d 3e
       -0.3473143 -0.06706307 0.07339323 0.20111707
000180 75 0f 86 be 05 44 cb 3d 06 ba 1b 3e ac 35 0d 3e
       -0.26183668 0.09925083 0.15207681 0.13790005
000190 46 4c 37 be 37 7b 9a 3d 7c d8 f3 bd 30 9e 23 bd
       -0.1790019 0.075430326 -0.119065255 -0.03994578
0001a0 fc 72 51 be c8 ac 14 3e 59 9b 39 3e 81 f5 d1 3c
       -0.2045402 0.14519036 0.18125667 0.02562976
0001b0 5b b5 07 3e 1b e9 d4 3d 8c 61 cd 3e 0c a8 06 3e
       0.13252775 0.10396024 0.40113485 0.13150042
0001c0 4d 27 ed 3c 9a 43 3e be 40 2c 8f 3d 27 3f 14 bd
       0.028949404 -0.18580475 0.06990862 -0.03619304
0001d0 95 8c 69 bd f6 f9 44 be 3a 5d 96 3b 5a 68 b7 3d
       -0.057018835 -0.19235978 0.00458875 0.0895545
0001e0 66 58 14 3d 4b f3 c6 bd fd 72 b8 3d 69 01 fc be
       0.036217116 -0.09714373 0.09006307 -0.49219826
0001f0 ef e3 21 bd 3e 6e 83 3e 7e 62 f3 3d 56 ef af be
       -0.039524015 0.25670046 0.1188402 -0.34362286
000200 84 f3 a5 be ba 4e 1d be 94 1a 76 3d ff 6e 2e bd
       -0.3241235 -0.15362063 0.06008394 -0.042586323
000210 25 3a ea bd 49 ae 64 3e 5e ac 33 be fa 95 5a 3e
       -0.114368714 0.2233211 -0.17546222 0.21346274
000220 28 23 92 3e 15 51 83 3c 97 5c a8 3d ff 1b 54 3e
       0.28542447 0.016029874 0.08220785 0.20713805
000230 0a 99 4e 3e 94 b0 d9 be f4 39 d6 3b d6 18 38 be
       0.20175567 -0.4251753 0.0065376703 -0.17978224
000240 21 4a 27 bd 9c 14 99 3d c4 1e cf bd 6e e3 57 3e
       -0.04084218 0.07474634 -0.1011329 0.21082851
000250 98 1e 07 be a8 e8 b8 bd c3 2c a9 3e 1b 53 fb bc
       -0.13195264 -0.09028751 0.33041963 -0.030679276
000260 d4 1a c0 3e 65 a3 88 be 4b ed 52 3e 15 bf 86 be
       0.37520468 -0.2668716 0.20598333 -0.2631766
000270 37 9d 2d 3d a5 58 10 be 18 9b 9b bd 87 25 cd be
       0.04238626 -0.14096315 -0.07597941 -0.40067694
000280 78 8a 6d be e5 0b 69 be 69 ae e6 3c 64 91 11 3d
       -0.23197353 -0.22758444 0.028159337 0.035539046
000290 83 5e 71 bc 35 0d 98 bd ec c8 46 be ea 75 8c 3e
       -0.014732006 -0.07424394 -0.19412583 0.2743371
0002a0 14 c7 f6 3d 25 13 0c 3d b8 1f c3 bd 14 42 1a be
       0.1204969 0.034197945 -0.09527534 -0.1506427
0002b0 c8 45 5b be c5 10 5c 3e 55 43 bf bd 09 da 45 3d
       -0.21413338 0.21490772 -0.093390144 0.048303638
0002c0 f6 b6 79 3d b7 0a c4 bd 35 cf f4 3d 46 09 97 bd
       0.0609655 -0.09572356 0.11953584 -0.07374816
0002d0 a9 81 13 3e df de 06 3e 30 94 1d 3e 8a 5f a5 3d
       0.1440493 0.13170956 0.1538856 0.08074863
0002e0 e3 1c 5d be 6b d2 82 be ef 95 f7 3d 60 25 6d bd
       -0.2159305 -0.2555116 0.120891444 -0.05789697
0002f0 6d 8a 58 bd 03 29 7a be 56 6e 8a 3d 13 18 05 be
       -0.052866388 -0.24429707 0.06759326 -0.12997465
000300 e7 41 86 3d 88 31 5a be 21 a2 e4 bd 0b 9e 81 be
       0.065555386 -0.21307957 -0.11163736 -0.2531589
000310 d6 5b d0 3d 85 3a 75 3e ed 56 2d 3e d6 38 3b be
       0.10173766 0.23948105 0.16927691 -0.182834
000320 18 31 d5 be 08 12 9f bd ad 4d fd bd db bf 28 3d
       -0.41639018 -0.07767111 -0.12368331 0.041198593
000330 7d 3b 94 3e c8 c3 99 3e d1 0b 92 bd b6 99 1a 3e
       0.28951636 0.30032182 -0.0713116 0.15097699
000340 1d 21 8c 3e e9 0d 2b 3e bb b5 74 be 10 55 ef 3d
       0.27369013 0.16704525 -0.2389745 0.11686146
000350 f4 e6 b6 bd aa 47 92 3e b0 c6 e3 3d dc 6a 6f 3e
       -0.089307696 0.285703 0.11121881 0.23380607
000360 b3 10 29 bd 17 3f c2 3d df 41 49 3e 9a 3a c2 3e
       -0.04127569 0.0948469 0.19654034 0.37935334
000370 18 8c 9e be 83 f4 6c 3e b1 ea 0c be 2a 6b 27 3d
       -0.30966258 0.23140149 -0.13761403 0.040873684
000380 79 ed 52 3e 42 f2 37 be 30 4d 70 bc e9 94 26 bd
       0.20598401 -0.17963508 -0.01466684 -0.040669356
000390 b5 e8 46 be 76 88 5c be 83 67 65 bd 25 92 5f bd
       -0.19424708 -0.2153643 -0.05600692 -0.054582734
0003a0 e9 3e 9e bd 6e 4d c3 3e 89 93 b2 be 30 a3 24 bd
       -0.07726843 0.38145012 -0.34878185 -0.04019469
0003b0 2d 2b ce 3d 67 b5 c7 3e 41 a8 21 3e 71 7c 0e bd
       0.10066829 0.39005587 0.1578684 -0.034786645
0003c0 bd 93 ee bd 90 fb 05 3e f6 94 a0 3e 79 e7 91 be
       -0.116492726 0.13084245 0.31363648 -0.28496912
0003d0 1d 85 8d 3e 4f b7 be bd b4 c2 15 3d ef 8e 96 bd
       0.2764062 -0.09312307 0.036562636 -0.07351481
0003e0 72 f7 81 be 61 7b 47 3e 8d bf e1 bc 04 d3 98 3e
       -0.25384098 0.19480659 -0.027557159 0.29848492
0003f0 6d 4e 39 3e 19 d1 be 3e 12 df 50 be 33 2e 8f 3a
       0.18096323 0.37268904 -0.20397595 0.0010923803

block1.layer.0.bn2.weight f4 [16]
000000 48 df 7f 3f 6b ca 80 3f 79 71 7f 3f 08 b5 7e 3f
       0.99950075 1.0061773 0.9978252 0.9949498
000010 17 82 80 3f 33 7f 7e 3f b6 23 80 3f e3 b1 7f 3f
       1.00397 0.9941284 1.0010898 0.9988081
000020 d8 50 80 3f 56 d6 7f 3f c7 b7 7f 3f 8c cd 7f 3f
       1.0024672 0.99936426 0.99889797 0.99923015
000030 39 33 80 3f 02 55 80 3f 7b 43 80 3f 28 45 7f 3f
       1.0015632 1.0025942 1.0020593 0.997149

block1.layer.0.bn2.bias f4 [16]
000000 ae cb 85 3b d3 ee 0e ba 87 3b 77 bb 0e c7 93 bb
       0.0040831184 -0.00054524577 -0.003772469 -0.004509813
000010 28 2c ac 3b cc 8f e5 ba a6 1b 1c b9 ae 95 c8 ba
       0.0052542873 -0.0017514168 -0.00014887619 -0.0015303397
000020 70 28 47 3b 52 50 24 3b 6d f4 37 3a 39 c4 ba bb
       0.0030389093 0.0025072289 0.0007017318 -0.005699661
000030 3d 2f ac 3b 7b 99 33 3b be a0 38 3b 02 2d 45 3b
       0.0052546547 0.0027404714 0.0028171982 0.0030086641

block1.layer.0.bn2.running_mean f4 [16]
000000 fa 98 84 be 62 08 e1 bd 3a ed cf bc ad 61 87 be
       -0.25897962 -0.10987927 -0.025381673 -0.26441708
000010 ce 9a 8d 3e 44 31 48 3f a6 07 b9 3e 45 79 4c bd
       0.2765717 0.78200173 0.36138648 -0.04992034
000020 7d 75 2f 3e a8 93 71 3e 25 ba 2d 3d 22 36 83 3e
       0.17134662 0.23591483 0.04241385 0.25627238
000030 bf f8 0e 3d 26 b2 84 be 29 12 b7 3b ba ac fd bd
       0.03490519 -0.25917166 0.0055868817 -0.123864606

block1.layer.0.bn2.running_var f4 [16]
000000 c4 cc 2e 3f f2 bc 23 3f 96 5c 24 3f 5c d9 35 3f
       0.682812 0.6396018 0.64203775 0.7103479
000010 4e a5 34 3f 8c c7 53 3f 77 98 48 3f e8 6d 34 3f
       0.70564735 0.8272636 0.7835764 0.70480204
000020 fe d5 53 3f df 56 40 3f 67 65 2a 3f df 4c 27 3f
       0.827484 0.75132555 0.6656098 0.6535167
000030 a1 a3 3d 3f ea 48 2a 3f f4 89 29 3f 49 1a 74 3f
       0.740778 0.6651751 0.66226125 0.9535261

block1.layer.0.conv2.weight f4 [16, 16, 3]
000000 f4 b4 e2 3e 43 50 c4 be c6 a3 5d 3d 7f cc aa 3e
       0.4427868 -0.38342485 0.054111265 0.33359143
000010 af d1 ee bd 52 71 04 bf 86 bf a7 3e 4b 50 89 be
       -0.11661088 -0.51735413 0.32763308 -0.2681907
000020 4b 5b 8a bc e3 58 4f be 4b 0c 7f 3d fd 43 86 be
       -0.016889235 -0.20248751 0.062267583 -0.26223746
000030 a7 cb 01 3e 3a c0 a7 3e a7 fa d6 bd b7 44 a2 bd
       0.12675343 0.32763845 -0.10497027 -0.079232626
000040 e1 44 4c 3c 2a ac af bc 62 98 8d 3e 20 d8 51 be
       0.012467594 -0.021444399 0.2765532 -0.20492601
000050 9a ef 2c 3e 24 4e 99 bd 0f 7b 1e 3e f4 e4 55 b8
       0.16888276 -0.07485607 0.1547663 -5.0996387e-05
000060 63 a5 76 3d bc 0a f1 3a fd f7 10 3e 87 ae b5 bd
       0.06021632 0.001839004 0.141571 -0.08871179
000070 f4 9c e5 bd 3d 6a 7f bc e5 f9 17 3c 7b f2 27 3e
       -0.11211577 -0.015589294 0.009275888 0.16401093
000080 e5 5c 11 be 5f 3f 38 bd 65 e4 41 3e 64 70 a7 3d
       -0.14195593 -0.04498231 0.18934782 0.08175734
000090 84 e0 1e bd 50 f6 95 3c 82 67 84 be df 6b 71 3e
       -0.038788334 0.018305928 -0.2586022 0.23576306
0000a0 7e ea ee 3c ef a9 0e bf 78 20 b8 3c 84 f2 44 3d
       0.029164549 -0.5572805 0.02247642 0.048082843
0000b0 5d b6 c1 3d 5b 86 66 be 7e 5f 28 3e 9c 02 b9 3e
       0.09458611 -0.2251219 0.16442677 0.36134803
0000c0 8d 4a b2 3e 8a ad 72 3d 29 6c 3d bd 06 81 5d be
       0.34822503 0.05924753 -0.046245728 -0.2163125
0000d0 55 74 59 bc 1f 71 f8 bc 5d cc d5 bc f7 b2 08 3e
       -0.013272365 -0.030327378 -0.026098425 0.1334952
0000e0 62 63 e7 3d 18 4d b9 bd ff ae b4 bd 76 94 aa 3d
       0.11298253 -0.090479076 -0.0882244 0.08329098
0000f0 d3 2c 49 3d 47 f0 8f 3d 16 38 b0 3b 5c 52 4c be
       0.049115013 0.07028251 0.0053777797 -0.19953293
000100 12 4e 5f 3e ee be fc ba 46 7b 77 3d 90 a6 46 be
       0.21807125 -0.0019282976 0.060420297 -0.19399476
000110 33 15 5f be 2d ec 37 3e b9 09 87 bd 7b 68 fe 3c
       -0.2178543 0.17961188 -0.06593651 0.03105568
000120 d5 ef dc 3e cc 8c c2 bc e9 bc 94 3d 66 0c 21 be
       0.43151727 -0.023748778 0.07262594 -0.15727386
000130 3d 06 b7 3e cb 0c 05 3d 93 a5 09 3e b9 3c ca 3e
       0.35746947 0.032482903 0.13442068 0.39499453
000140 58 a3 29 3e 0a c4 62 be 40 9b 32 be 11 9e a1 3e
       0.16566217 -0.22145095 -0.17442036 0.31565908
000150 6f a8 9e be 94 e2 15 be 7c 7b 04 3e 61 fa 6d 3e
       -0.3098788 -0.14637214 0.1293773 0.23240043
000160 55 52 ed 3d 02 1b a0 3e 41 2c 77 3d b9 1a 20 3e
       0.11587969 0.31270605 0.06034494 0.15635194
000170 8a 92 04 be 80 3a 66 bd 1b a3 c7 bb a6 0c e1 be
       -0.12946525 -0.056208134 -0.0060924417 -0.43954962
000180 b5 7a 70 ba c0 03 ec 3c 57 f9 cf bd fd 64 93 3c
       -0.0009173558 0.028810382 -0.1015498 0.01799249
000190 2d 83 12 be 4e 95 83 bc 28 b3 6d 3d ee 59 c7 3d
       -0.14307852 -0.016062405 0.058032185 0.097339496
0001a0 ff 1b 81 3e 72 d8 75 3e c4 4b a9 3d 6b 93 d4 bd
       0.25216672 0.24008349 0.08266404 -0.1037968
0001b0 62 20 2d be e5 8f 91 3e ad 77 28 3e 6f 50 43 bc
       -0.16906884 0.28430095 0.16451903 -0.011921032
0001c0 30 9f a7 be 04 46 c7 3e 4e 59 2d be ed 94 ff 3d
       -0.32738638 0.38920605 -0.16928598 0.12479577
0001d0 6d 9d 98 3d 71 44 22 bd 57 22 95 3c 18 ea 2f be
       0.074519016 -0.039616052 0.018204851 -0.17179143
0001e0 a6 ad 39 3e 89 0e 81 3e 4c 24 4c 3e 21 17 4b 3e
       0.18132648 0.25206402 0.19935721 0.19833042
0001f0 cc a0 95 be cb e0 48 3d 05 01 1c 3e d2 52 9f 3e
       -0.2922424 0.049042504 0.15234764 0.31117874
000200 32 13 0e 3e 73 b9 17 be 59 78 c0 bd bc da 90 bc
       0.1387451 -0.14816837 -0.093979545 -0.017682426
000210 8a bd 9a 3c ea bd 80 be 7a bf b4 bd 4b be 75 3e
       0.018889207 -0.25144893 -0.08825584 0.23998372
000220 85 e9 99 bc 05 72 42 3e 80 91 01 bd f4 93 ee bd
       -0.018788109 0.18988807 -0.0316329 -0.116493136
000230 27 84 10 bf bb 35 3a be f6 f5 df bd bb ad 5a bd
       -0.5645165 -0.18184559 -0.10935585 -0.05338834
000240 63 d3 0b 3d d9 2b 6f be bd f0 98 be e0 56 03 3e
       0.03413714 -0.2335657 -0.2987117 0.12826109
000250 9e 8e c9 3d ae d0 f9 3e af f0 9b 3e 58 42 50 3c
       0.09841655 0.48792022 0.30457065 0.01271113
000260 55 9b b7 bd b2 03 ec 3d 16 ee 42 3b ad a2 59 3e
       -0.08965174 0.11524142 0.002974396 0.21253462
000270 d1 d2 ce 3d bc 41 38 3d 2a 19 20 3e 60 51 6b be
       0.10098804 0.044984564 0.156346 -0.22980261
000280 7d 58 ae bc 75 46 38 3c 3d 52 88 3d 20 69 88 bb
       -0.021282429 0.011247267 0.06656311 -0.0041629225
000290 65 b3 05 3f 4f 98 b0 3e f5 e9 bd 3e 3f 0e a7 3e
       0.5222686 0.34491202 0.37092558 0.32628056
0002a0 33 10 c6 3e 1b d0 cd 3d 6d 4e a7 3e d7 a1 37 3d
       0.38684234 0.100494586 0.32677022 0.044832077
0002b0 92 6a 88 be 57 8d 9f be 81 82 6a 3e d2 3c 5f be
       -0.26643807 -0.3116252 0.22901346 -0.21800545
0002c0 f2 a9 d5 be b7 f7 d1 bd e4 6d c5 bc be 68 07 be
       -0.4173122 -0.10252326 -0.024100251 -0.1322355
0002d0 c4 d3 dd be 1b 4b 97 3e c1 bb fd bc b5 d6 ca bd
       -0.43325627 0.29549488 -0.030973317 -0.09904233
0002e0 c9 6a fd 3b d1 00 f8 3d 66 0c 6b 3e f4 20 db 3c
       0.007733677 0.12109531 0.22953948 0.026749112
0002f0 b6 d6 8b be 4d 23 b7 3e bb 43 00 ba d3 29 37 be
       -0.2731225 0.3576912 -0.0004892905 -0.17887048
000300 c7 ec 41 3e 77 f1 aa 3e a0 06 ee 3d 19 52 57 3d
       0.1893798 0.33387348 0.11622357 0.05256853
000310 80 f5 b5 bd dc a4 33 3d c1 b5 bc be 61 2d 40 be
       -0.08884716 0.043858394 -0.36857417 -0.1876731
000320 fb af a4 be c8 9b 6b bd d2 fa 49 bd d8 aa 1b 3c
       -0.32165512 -0.05752161 -0.049311467 0.009501182
000330 20 3f e3 bd 8b 62 46 3d c7 46 f0 3d 1f 16 d9 3e
       -0.110960245 0.04843382 0.1173225 0.4239969
000340 2b 07 9b be a8 c7 42 3e 0d dc 39 3e 74 c9 6d ba
       -0.30278906 0.19021475 0.18150349 -0.00090708514
000350 35 06 06 bc d2 a6 c6 3d 9c bd 39 bd 5f 5c 73 3e
       -0.008180191 0.09699787 -0.04534684 0.23765706
000360 c2 1b a9 bd 6c aa 3a be b2 01 89 3e 99 0e d5 be
       -0.082572475 -0.18229073 0.26759106 -0.416127
000370 7f 7b 32 bd 2f 06 0e be 39 a1 55 be 76 bf 7c 3d
       -0.043574806 -0.13869546 -0.20862283 0.06170603
000380 40 ea b6 be 29 14 34 3e 79 b1 fb bc 74 14 22 3d
       -0.35725594 0.17585815 -0.030724274 0.039570287
000390 55 18 89 be 14 81 dd 3d 52 3d 3a 3e ee a0 e6 bc
       -0.26776376 0.10815635 0.18187454 -0.02815291
0003a0 9c fd a8 be 18 60 d1 3c 1a c0 b6 bd 60 e7 41 b9
       -0.3300599 0.025558516 -0.08923359 -0.00018492108
0003b0 84 15 03 3f e4 14 6a bd e7 dd a8 3d 4d b7 22 3e
       0.51204705 -0.05714883 0.082454495 0.15890236
0003c0 be 0c c6 3d 5b 0b 8e bd fb aa 64 3d 96 c5 2a bd
       0.09670399 -0.0693576 0.055827122 -0.04169234
0003d0 50 fb 6b bd c1 4a 0d be 54 9c f9 3c 91 33 e8 3e
       -0.057612717 -0.13798048 0.03047005 0.45351842
0003e0 72 33 3d be aa 51 d7 be be 25 08 be a3 26 93 bd
       -0.18476656 -0.42054492 -0.13295648 -0.07185104
0003f0 20 e6 29 be 59 0b d8 bd 31 64 93 be bb 64 e1 bd
       -0.16591692 -0.105490394 -0.28787377 -0.11005541

block1.layer.1.bn1.weight f4 [16]
000000 18 c5 7e 3f 2c c8 80 3f 06 25 80 3f e5 9e 80 3f
       0.9951949 1.0061088 1.0011299 1.0048491
000010 99 76 80 3f 1f 43 80 3f b5 04 80 3f 44 ac 7f 3f
       1.0036193 1.0020484 1.0001436 0.9987223
000020 6b a1 7f 3f a8 11 80 3f b7 39 80 3f 06 7c 7f 3f
       0.9985568 1.0005388 1.0017613 0.9979862
000030 63 a4 7f 3f 13 8c 7e 3f a3 82 80 3f 1c 4c 80 3f
       0.9986021 0.99432486 1.0039867 1.0023227

block1.layer.1.bn1.bias f4 [16]
000000 22 6b 76 bb aa 85 ad 3a 57 e2 8c 39 c6 dd a4 3b
       -0.0037600477 0.0013238688 0.00026871517 0.0050313203
000010 90 fe d2 3a c2 24 a1 3b 8b f5 46 3a 08 55 83 3b
       0.0016097594 0.004917712 0.00075896893 0.0040079392
000020 70 14 34 bb db 38 ae 3a 9a 2d 09 3b 80 62 16 bb
       -0.0027478002 0.0013292091 0.0020931722 -0.0022946894
000030 4d b6 17 ba 1f 9d c9 bb 0e 82 a1 3a 81 0e 83 3b
       -0.0005787358 -0.0061527635 0.0012322085 0.0039995317

block1.layer.1.bn1.running_mean f4 [16]
000000 1c c8 ee be d6 11 fc bd b6 87 1f be 40 a0 29 3f
       -0.46637046 -0.123080894 -0.15579113 0.6626015
000010 b0 5d 82 3e a6 f4 21 3e f0 62 8c 3c 5a 73 c0 3e
       0.25462103 0.15815982 0.01713702 0.37588006
000020 d9 0f 8e be 1e b9 bd 3d f4 36 13 bf 4a 43 67 be
       -0.27746466 0.09263824 -0.57505727 -0.22584262
000030 e8 69 54 bd 40 64 5a bf 8c b2 fa be a5 13 77 3e
       -0.051858813 -0.8530922 -0.48964345 0.24128588

block1.layer.1.bn1.running_var f4 [16]
000000 c8 57 72 40 43 4a c8 40 f2 80 9b 40 23 9b b4 40
       3.7866077 6.259065 4.8594904 5.6439376
000010 55 0b 72 40 4c de 8d 40 27 d2 48 40 5e 3a 2e 40
       3.7819417 4.433386 3.1378267 2.7223125
000020 b2 6a 86 40 c9 35 87 40 55 60 8d 40 61 01 84 40
       4.2005243 4.2253156 4.4180093 4.1251683
000030 5a 07 5c 40 26 12 ea 40 f5 ce a5 40 05 58 0b 40
       3.4379487 7.3147154 5.1815133 2.1772473

block1.layer.1.conv1.weight f4 [16, 16, 3]
000000 f5 94 97 3e 25 44 2e 3e 98 56 5f 3e c3 9d e4 3d
       0.29605833 0.17018183 0.21810377 0.11162903
000010 7e 8d f3 bd 40 66 2e 3e 2b e3 16 be e4 3b bd bd
       -0.11892222 0.17031193 -0.14735095 -0.09239939
000020 0e 75 76 3e 17 52 3b 3e 23 59 71 3b a4 3f b1 bd
       0.2406809 0.18293034 0.0036826811 -0.086547166
000030 a9 e3 01 3e 2e 62 d3 3d 7d d9 6d 3e dd 9d 87 bd
       0.12684502 0.10321461 0.23227496 -0.06621907
000040 f7 ea 89 3d ee 24 c7 be 13 01 3d 3e 82 83 c5 3d
       0.06734269 -0.38895363 0.18457441 0.09644224
000050 0f e4 82 be 1e 48 c5 3d 9e aa 47 bd f3 8f b2 be
       -0.2556462 0.09632896 -0.048746698 -0.3487545
000060 b3 90 ab bd 3c 5c fe bd bd 4d 78 3a 1c d2 91 3d
       -0.083772086 -0.12419936 0.0009472033 0.07120153
000070 67 5f 13 3c f3 56 99 3e 8d e7 25 be 17 c3 bd 3e
       0.008994914 0.2994915 -0.16201611 0.37062904
000080 b0 c5 6a be 4a 61 12 be d6 1a 8b be c1 ab 12 be
       -0.22926974 -0.14294925 -0.27168912 -0.14323331
000090 8a d7 2a 3e e3 3d d9 3d 14 39 30 bd 7a 41 95 bd
       0.16683784 0.10607507 -0.043023184 -0.07287879
0000a0 ff a0 ae bd 5f 3a 33 3c 57 b9 95 3c b7 64 5b bd
       -0.08526801 0.01093921 0.018276853 -0.053562846
0000b0 47 7b 71 be 09 8d ae 3d 46 fd 8a be e7 71 2f 3e
       -0.23582183 0.08522994 -0.27146357 0.17133294
0000c0 ba a9 4f be f9 28 50 be 39 c2 8b 3e f2 2b 5f be
       -0.2027959 -0.2032813 0.27296618 -0.21794108
0000d0 95 5b 54 3e 2b f9 c2 3d 3f c7 15 be b1 9b 41 be
       0.20738061 0.09520181 -0.14626788 -0.18907048
0000e0 c9 8b 37 be e8 a8 3b 3d d1 b4 92 3d 6a 9f 15 be
       -0.17924418 0.04581538 0.07163394 -0.14611593
0000f0 26 59 37 be c0 c4 88 3c 80 7b 90 3e f9 86 a4 3d
       -0.17905101 0.01669538 0.28219223 0.080335565
000100 8c b4 16 be df 8b 36 be 49 ea 4c 3e 3a bb 2f 3e
       -0.1471731 -0.17826794 0.20011248 0.17161265
000110 1c df d4 3e 29 0a 0c 3d ec ae 47 3c 6b 08 63 3e
       0.4157647 0.034189377 0.012187701 0.2217118
000120 68 f8 e1 bd 72 cc 2a 3e aa 9b 3b 3e da b2 42 3e
       -0.11033708 0.16679552 0.183211 0.19013539
000130 d9 4d 0c 3e 1b 39 d3 3e e8 75 e0 b9 f0 bd fd bd
       0.13701572 0.41254506 -0.00042812456 -0.12389743
000140 76 8f 15 be e0 08 84 be b5 59 c2 bd bb 32 85 3e
       -0.14605507 -0.2578802 -0.094897665 0.26015267
000150 0d 3f d9 be bf 3f 2b bd 34 07 00 be 3b 13 86 be
       -0.42430916 -0.04180884 -0.12502748 -0.26186547
000160 c4 e3 48 3e c9 12 0d 3e b1 ad 36 3e c4 6a 3b bd
       0.19618136 0.13776697 0.17839696 -0.045756117
000170 5f 89 b4 bd e2 f4 f1 3d a8 73 12 3e a4 da a8 be
       -0.08815264 0.11814286 0.14301932 -0.3297931
000180 49 82 6d be 08 30 34 3e 4e 07 ad 3d 21 7c 33 3e
       -0.23194231 0.17596447 0.08448659 0.1752782
000190 f5 10 ef 3d 93 a4 43 3e a7 3d 63 bb a9 a9 22 3e
       0.11673156 0.19105749 -0.0034674199 0.15885033
0001a0 43 0a 14 be fc 68 ed 3e ad 11 2b be b9 10 a8 be
       -0.1445704 0.4636916 -0.16705962 -0.32825258
0001b0 c5 ce 25 bd ec 64 54 3c 15 03 69 3e 29 6f 4c 3e
       -0.040480394 0.012963515 0.22755082 0.19964279
0001c0 58 90 67 bd e1 2f 96 bd 16 ab 18 be bf 61 70 be
       -0.05653414 -0.07333351 -0.14909014 -0.23474787
0001d0 d0 b3 40 3e fb 65 97 bc e4 4d 8c 3d 3f 8f 03 3e
       0.18818593 -0.018481245 0.06850794 0.12847613
0001e0 33 2e b5 3e 13 7a 9f bd 6f 11 b9 3e a1 a8 77 3e
       0.3538681 -0.07786956 0.36146113 0.2418542
0001f0 ec 43 ef 3e 59 36 b9 3e 99 69 45 3c 01 4a 9d 3d
       0.46731508 0.36174276 0.012049102 0.07680131
000200 1b da 2f be c7 b0 db bd 84 63 8e 3e 98 2a ea 3e
       -0.17173044 -0.10727077 0.278103 0.4573562
000210 69 12 0e 3c d1 50 a5 be 6a a3 7c bd 95 b0 91 bc
       0.0086713815 -0.3228822 -0.06167928 -0.017784396
000220 35 8c ba be b7 1c 91 3e 64 06 50 3e ba 33 9c bd
       -0.36435094 0.2834222 0.20314938 -0.076270536
000230 c1 7e 7c 3d b1 63 eb bd 45 e9 3b 3c a7 ef 09 3e
       0.06164432 -0.11493624 0.01146919 0.13470326
000240 1d 2d 3c 3e 32 a2 e8 3e fd bd cb 3c 50 2d 21 bd
       0.18376584 0.45436245 0.024870867 -0.039349854
000250 40 f8 1f 3e d4 b2 a9 bd 68 46 bb 3d 56 40 76 be
       0.15622044 -0.08286062 0.09144288 -0.2404798
000260 06 b9 ce bd e2 84 0c be 08 ea 68 3e 24 c9 b9 3e
       -0.10093884 -0.13722566 0.22745526 0.3628627
000270 f4 34 c9 be b5 d7 38 bd bf 90 6b 3d a6 5c c9 bd
       -0.39298213 -0.04512759 0.057511088 -0.098321244
000280 3f 69 b8 bc a0 de f4 be e1 58 9f 3e 17 48 1a 3e
       -0.022511123 -0.478261 0.31122497 0.15066563
000290 c3 55 89 3e 8c 67 01 3e dc 6c 74 3e 7d 6e 55 bd
       0.26823243 0.12637156 0.23869652 -0.052107323
0002a0 53 ad 1c 3b 91 4b 0e 3f 6c 61 8c 3e 93 7d 80 be
       0.002390702 0.55584055 0.27418077 -0.25095806
0002b0 c6 d3 4d 3e 2f 94 3c bb 43 8b 17 3e a6 54 4b bd
       0.20100316 -0.0028774848 0.14799218 -0.049641274
0002c0 93 c4 89 be 07 e5 d2 3e 72 bc e1 3d 5e ca 69 3e
       -0.26907787 0.4119036 0.11022271 0.22831103
0002d0 4c 54 e9 3d 9e 6b 8d bd f9 f0 0d bf 44 a5 7b 3c
       0.113930315 -0.06905292 -0.5544582 0.015359227
0002e0 8c da 72 3d fe cb e4 3d d2 ea a9 3c 09 14 75 be
       0.059290454 0.11171721 0.020741854 -0.23933424
0002f0 9a 02 20 bd ab 61 bc 3d a1 dd 35 bd f0 15 c5 be
       -0.03906498 0.09198316 -0.044400815 -0.384933
000300 0e 1f 25 bd a5 39 f7 bd dc 71 ff bd cc 65 e3 be
       -0.04031282 -0.12071542 -0.12472889 -0.44413602
000310 10 f9 9f bd a4 67 f7 3c 87 de d4 be de c3 1c 3e
       -0.07811177 0.030200787 -0.41576025 0.15309092
000320 ab a3 b9 3e 95 43 c5 3e 89 29 3d 3e 0e 95 6d bd
       0.3625768 0.38528123 0.18472876 -0.058003478
000330 9d 10 aa 3d fa 62 0a 3e b9 61 30 be 0e c4 c9 bd
       0.0830395 0.13514319 -0.17224778 -0.098518476
000340 0f 96 2c 3d a7 3b 02 be 6f 06 47 bd a7 b7 25 3e
       0.042135295 -0.12718068 -0.04859012 0.16183339
000350 41 33 a1 be 77 4a 13 3e 6f 61 06 bd 13 b3 1a be
       -0.31484416 0.14383875 -0.032807764 -0.15107374
000360 66 06 a6 bd af e8 94 3d c0 b5 62 bd 7f f8 84 bd
       -0.08106689 0.072709434 -0.05534911 -0.06492709
000370 54 23 c3 3d bd d7 e1 bd 6e 4b dd 3d af 7b 7a 3d
       0.09528223 -0.11027477 0.10805403 0.06115311
000380 d6 ad 06 be 64 b5 de bd 0e 69 69 3c 6c 5c 0c be
       -0.1315225 -0.10874441 0.014246238 -0.13707131
000390 79 58 b5 be 7b 2f 15 3e b4 67 c6 bd 98 67 f7 3d
       -0.35419062 0.14568894 -0.096877486 0.12080306
0003a0 26 f3 95 3e 75 c4 63 be 20 6d 33 3b c2 1d 0d 3e
       0.2928707 -0.22242911 0.0027378276 0.13780883
0003b0 e2 92 cf bd f2 50 bf bd 70 7a 00 3e e7 1c d1 bc
       -0.101354375 -0.09341611 0.12546706 -0.025526477
0003c0 f3 0c 98 3d 0b af 86 bd aa 20 e4 be 4b 61 8c bd
       0.07424345 -0.065763555 -0.4455617 -0.06854495
0003d0 5f 7d ec 3d 06 be 75 be 1f 55 1b bd f5 3f 3c be
       0.1154735 -0.2399827 -0.037922975 -0.18383773
0003e0 a8 fc d3 3e 1f c1 ee be 93 67 3d be 71 91 a9 3d
       0.414037 -0.46631715 -0.18496542 0.08279694
0003f0 33 84 81 bd 65 45 79 be d8 73 41 be 65 8b 77 3e
       -0.06324043 -0.24342878 -0.18891847 0.24174269

block1.layer.1.bn2.weight f4 [16]
000000 90 7d 7f 3f 61 e2 7f 3f fb e5 7f 3f 66 49 7f 3f
       0.9980097 0.999548 0.999603 0.9972137
000010 20 df 7f 3f 44 3e 7f 3f 98 e4 7f 3f 58 16 80 3f
       0.99949837 0.99704385 0.9995818 1.0006819
000020 af 7e 80 3f 50 03 80 3f f1 47 80 3f 9e 9b 80 3f
       1.0038661 1.0001011 1.0021955 1.0047491
000030 02 81 80 3f 5f 9b 80 3f ad 0d 7f 3f d5 2d 80 3f
       1.003937 1.0047415 0.9963024 1.0013987

block1.layer.1.bn2.bias f4 [16]
000000 c0 2c 7f ba 5c cd 54 3b c7 d5 6a bb a8 96 ee ba
       -0.00097341463 0.0032471037 -0.0035832988 -0.0018202858
000010 10 7d 02 bb ee fc ab ba d3 7d 46 3b be cf cd 3b
       -0.001991097 -0.0013121644 0.00302874 0.0062808683
000020 f7 b6 8f 3b b4 b1 d9 3a 42 78 87 bb a4 e1 ce 39
       0.004385825 0.0016608746 -0.004134209 0.00039459497
000030 68 f4 b4 ba 06 38 3f 3b f0 6d b6 ba 46 19 8a bb
       -0.0013805749 0.002917768 -0.0013918262 -0.0042144386

block1.layer.1.bn2.running_mean f4 [16]
000000 86 ab f9 3d bb ac c8 3d af 47 2f 3f 44 60 ae 3e
       0.121909186 0.09798571 0.68468755 0.3405782
000010 82 01 4f be 09 21 97 be 65 45 55 3f b4 9f 70 be
       -0.20215419 -0.2951739 0.8330901 -0.23498422
000020 0f eb 81 3e c2 db 09 bf 47 10 35 bd ee 3f 4c bc
       0.25374648 -0.5385095 -0.044204976 -0.012466414
000030 40 7a 3f bf e3 6d 31 bf 72 fc 4c 3e 2a d5 1a bf
       -0.74795914 -0.693083 0.20018175 -0.6048151

block1.layer.1.bn2.running_var f4 [16]
000000 88 47 14 3f 73 a2 20 3f fe d5 50 3f cf c8 5f 3f
       0.5792165 0.6274788 0.81576526 0.87415785
000010 20 12 29 3f c0 af 2e 3f 42 2e 84 3f 0e 22 23 3f
       0.6604328 0.68236923 1.0326617 0.6372384
000020 53 39 1a 3f b0 a1 3f 3f fd 64 37 3f 86 87 91 3f
       0.6024372 0.7485609 0.7163847 1.1369483
000030 a8 af 4c 3f 24 08 3b 3f 4e 43 22 3f ac 48 37 3f
       0.7995553 0.73059297 0.6338395 0.71595263

block1.layer.1.conv2.weight f4 [16, 16, 3]
000000 12 47 9a 3e c7 4e 3c 3d d9 3a 86 be df 4f 00 be
       0.30132347 0.045973565 -0.26216772 -0.12530468
000010 af cd 8f be d5 00 46 be 25 28 6c 3d a9 ee 32 be
       -0.28086612 -0.19336255 0.057655472 -0.17473854
000020 f3 67 26 3d 4c 2b 8a be b8 91 0e be 2a 8f 38 be
       0.040626477 -0.26986158 -0.13922775 -0.18023363
000030 55 00 18 3e 9b 54 59 3d 6a 60 16 3e 37 94 79 be
       0.14843877 0.0530592 0.14685217 -0.24372946
000040 9e 6b 61 3e 6e dd a0 bd 61 ba 25 3e f2 b0 01 3e
       0.22013709 -0.07854734 0.16184379 0.12665156
000050 15 b1 12 be 7c 67 1f bd a1 ad 50 3e 4b 20 4d be
       -0.14325364 -0.03891705 0.20378734 -0.2003185
000060 b4 e1 d9 bd e6 51 80 3d 63 00 3b be 0f 34 3b 3d
       -0.106387526 0.06265621 -0.18261866 0.045703944
000070 bf d0 63 3e 82 ea 44 3d ca df bf bd e2 f6 25 3e
       0.22247599 0.048075207 -0.09368856 0.1620746
000080 c3 b7 04 be f4 cd da be a8 d4 bb be 71 85 d6 3e
       -0.12960725 -0.42735255 -0.3668568 0.41898683
000090 1a 7a d0 3e 46 88 7b be 7f 6c f7 bd ab f5 3f 3e
       0.40718156 -0.24563703 -0.12081241 0.18746059
0000a0 89 52 3d be f5 9d 8e 3c 00 f1 2f 3e c5 6a 92 be
       -0.18488516 0.017409304 0.17181778 -0.28597084
0000b0 6d ad 89 be eb a9 e4 bd 8d 85 24 3e 4a ce b3 3d
       -0.26890126 -0.11165222 0.1606657 0.08779581
0000c0 1e 62 8c be a2 7f b1 bd 51 98 88 3e 34 73 d3 be
       -0.27418607 -0.08666922 0.26678708 -0.4129883
0000d0 63 49 20 be 4e 1d 9e 3e e2 bf c7 bd 69 2d 64 3e
       -0.15652995 0.30881733 -0.097533956 0.22282948
0000e0 ae f0 3e be 85 ac 77 be a5 7c 48 3e 1a f9 d8 3d
       -0.186465 -0.24186905 0.19578798 0.10594387
0000f0 15 9e f2 bd 88 aa 65 3e 99 5f 42 be 3c 21 ab be
       -0.11846558 0.22428334 -0.1898178 -0.33423793
000100 a2 4d 07 bf b2 01 a0 3e 3f f9 f9 bd 28 f1 17 3e
       -0.52852833 0.31251293 -0.12205743 0.14838088
000110 12 d7 dc 3d c1 64 16 be 19 8c af bd 5d 44 0a 3e
       0.10783209 -0.14686872 -0.085716434 0.13502641
000120 0f 93 45 3e 32 76 40 be 87 a1 74 bd b6 a8 f2 3d
       0.1929438 -0.18795088 -0.059724357 0.11848585
000130 aa 07 f7 3d 46 a8 be 3e f0 f7 20 3e 2a d1 5c 3e
       0.12062009 0.37237757 0.1571958 0.21564165
000140 9d 13 61 be e7 84 61 bd 76 26 a5 be 74 38 c3 bd
       -0.21980138 -0.055058386 -0.32255906 -0.09532252
000150 fc 40 52 bd 32 23 dc 3e fc 4d d1 3d b8 41 aa 3e
       -0.051331505 0.42995602 0.102199525 0.33253264
000160 9b fc 07 be 61 43 91 3b 86 f1 83 bd 9d 48 bf be
       -0.13279955 0.004433081 -0.06442551 -0.37360087
000170 d1 28 f2 3e bc d9 85 3e ad 2e 4c 3e bb fb 53 3e
       0.47296765 0.2614268 0.1993968 0.20701496
000180 ee 08 2f be d4 c2 cc be 86 66 23 3d ef 9c b6 bd
       -0.1709325 -0.39992392 0.039892696 -0.089166515
000190 f4 7e 21 be ea 90 fa 3d da 52 fc 3d 43 0d 51 bd
       -0.15771085 0.122346714 0.1232049 -0.051038038
0001a0 55 9f 8e 3d fc e0 b5 3e 65 1d d4 3d da e7 93 be
       0.06963984 0.35523212 0.10357169 -0.28887826
0001b0 50 30 ff 3d 27 7a 95 be df 2f a7 bc dc 57 a5 3d
       0.12460387 -0.29194757 -0.020408569 0.080733985
0001c0 a9 c5 a0 be 16 8f 8c 3e d1 b1 2d 3d e7 39 83 be
       -0.31400803 0.27452916 0.042405907 -0.25630113
0001d0 f5 b8 75 3d 74 a2 64 3e 82 3e 2d 3d 72 e9 86 3e
       0.059990842 0.22327596 0.04229594 0.2634998
0001e0 a6 00 45 3e cb b5 a8 bd bd 09 17 be 4c 07 93 be
       0.19238529 -0.08237799 -0.14749809 -0.28716505
0001f0 94 5c d9 bd 24 8e 94 3c 16 19 e2 3d 58 e1 1d be
       -0.10613361 0.018134184 0.11039941 -0.15417993
000200 0e c9 7f bc d3 91 b6 be 9f d7 8f be c3 0a 2e 3e
       -0.0156119 -0.3565813 -0.28094193 0.16996293
000210 ba a0 df be bf 69 a9 3d ec 04 30 3d 0b e5 33 3e
       -0.43677312 0.082721226 0.042973444 0.17567842
000220 bc 62 60 3e 8a bf c0 3d 95 97 23 be f1 52 04 be
       0.21912664 0.09411533 -0.15975793 -0.12922265
000230 1e 17 b3 bd 10 ee 9a 3e 7c 84 3e 3c a7 32 ed be
       -0.08744644 0.30259752 0.011628266 -0.46327707
000240 f4 a0 03 3d 1b 26 c1 bd 77 cc 5e 3e ba 25 b6 3d
       0.03213592 -0.09431096 0.21757685 0.088939145
000250 c1 30 3e 3c f4 02 ba 3d 92 88 ce 3e fd 0d 4a 3d
       0.0116083035 0.090825945 0.4033857 0.049329747
000260 9e c8 39 3d ef 3f 68 be 56 9b 86 3d e8 ec c7 3e
       0.04535734 -0.22680639 0.06572597 0.39047933
000270 51 75 c1 bd 2c 0e d9 3d ce 4f 64 be ad ce 3d bd
       -0.094462045 0.10598406 -0.22296068 -0.04633968
000280 4e d6 20 3e b7 ba a4 3e 61 b9 d5 bd a0 06 a5 3e
       0.15706751 0.32173702 -0.10435749 0.32231617
000290 00 37 88 3e 3c ae ef bd 6a 85 90 3d ab 6d 25 3e
       0.26604462 -0.117031544 0.07056697 0.16155116
0002a0 60 de 19 be 90 99 6b 3d 6a 2e 59 3e 78 62 ee 3d
       -0.15026236 0.057519495 0.21209112 0.11639875
0002b0 2a 34 38 3e b8 6a 7f be 84 b9 d7 3e 01 e1 98 be
       0.17988649 -0.24943054 0.42133725 -0.29859164
0002c0 3a c4 20 bd f7 b8 e4 3c dc 49 f7 bc a8 29 06 3d
       -0.039249636 0.02792023 -0.030186586 0.03275457
0002d0 49 92 ec bd 8e b6 57 be 45 db a5 be fc 68 17 3e
       -0.11551339 -0.21065733 -0.32393852 0.14786142
0002e0 f5 03 6f be 20 59 7c be 3e dd 28 be e0 89 8b be
       -0.23341353 -0.24643373 -0.16490647 -0.27253628
0002f0 5b db 5d be 92 b4 f1 3c 42 f1 0d 3e e2 d3 bd 3e
       -0.21665709 0.029505048 0.13861564 0.37075716
000300 fd c2 9d bc 02 61 0e 3e 56 78 e2 3d e6 5e 76 3e
       -0.019258017 0.13904193 0.110581085 0.24059638
000310 07 c5 c3 bd ad 06 2f 3e 14 e8 0d 3d 24 00 e8 bd
       -0.09559064 0.1709239 0.034645155 -0.11328152
000320 1c b8 ce 3c 5c 1c 91 bd 80 cb 8f be 03 f8 38 be
       0.025234275 -0.07085487 -0.28084946 -0.18063359
000330 50 2d c5 be f8 9c 64 3e c7 cf 8e be 25 f5 2d 3e
       -0.38511133 0.22325504 -0.27892897 0.16988046
000340 12 49 80 3e ad 96 14 be e9 99 87 3e 3b f9 8a bc
       0.25055748 -0.14510603 0.26484612 -0.016964545
000350 88 b9 6c 3e 12 9c 87 3e 60 0e 36 3d e8 2b d4 bc
       0.2311765 0.2648626 0.044447303 -0.025899842
000360 0a 6c 0c be e0 bf ad 3c c4 f4 55 3e 72 a8 d4 3e
       -0.13713089 0.021209657 0.20894152 0.41534764
000370 2e 3c 8b be 89 6f c5 3d 8a ac 0c 3d bf a2 9f bd
       -0.2719435 0.09640414 0.034344234 -0.07794713
000380 a3 de ab bd 73 16 a0 3e 4e 71 47 be 43 80 29 be
       -0.08392074 0.31267127 -0.19476816 -0.16552834
000390 94 3b 9e 3d 41 cb b7 bc 7a ea 85 be fc 6e ee 39
       0.077262074 -0.022435786 -0.26155454 0.00045477587
0003a0 ef 7a be bd 07 17 73 3e 94 24 f5 3d d0 bd 1d 3b
       -0.093007915 0.23739253 0.11969867 0.0024069436
0003b0 f2 1b f3 be 26 59 e9 bd 44 a6 84 be ab 35 32 be
       -0.47482258 -0.11393957 -0.259081 -0.17403285
0003c0 d5 cd e8 bc f6 68 27 be 84 1f 16 3e 79 13 5b 3e
       -0.02841846 -0.16348633 0.1466046 0.21394147
0003d0 0d de e6 3d 05 f9 92 3d d7 f4 42 bd 08 c5 15 3e
       0.112728216 0.07176403 -0.04759678 0.14625943
0003e0 aa 9a 44 3e a3 15 e6 bd 10 34 28 3e 04 34 1e 3d
       0.19199625 -0.112345956 0.1642611 0.038623825
0003f0 3d 83 44 bd 85 66 32 bd 60 11 04 be 19 bf 7d bd
       -0.04797672 -0.0435548 -0.12897253 -0.061949823

block2.layer.0.bn1.weight f4 [16]
000000 c0 b6 80 3f 3f 6d 80 3f 4c ae 80 3f 6d d2 7e 3f
       1.0055771 1.0033339 1.0053191 0.99539834
000010 52 10 80 3f 6e 68 80 3f 10 61 80 3f 92 13 80 3f
       1.000498 1.003187 1.0029621 1.0005972
000020 c2 20 7f 3f e3 77 7e 3f d2 f0 7f 3f 19 04 80 3f
       0.9965936 0.9940168 0.9997684 1.000125
000030 6d 41 7f 3f 5d 2a 7f 3f 2a 4d 80 3f 13 5a 80 3f
       0.99709207 0.99674016 1.0023549 1.0027488

block2.layer.0.bn1.bias f4 [16]
000000 98 4f 8e 3b 83 03 0b bb 42 e5 60 bb 30 9c e8 ba
       0.0043429844 -0.002121181 -0.0034316336 -0.0017746743
000010 f5 96 7d 3a 00 82 e9 3a 62 98 93 3b 63 5c 29 3b
       0.00096736784 0.0017815232 0.0045042494 0.002584242
000020 d1 f3 0f 3b 55 c3 8b bb 40 7f 95 3b 7b 51 89 3a
       0.0021965394 -0.0042652288 0.0045622885 0.0010476554
000030 68 46 07 b8 d3 46 fa b9 70 de 2d 39 26 53 79 bb
       -3.225208e-05 -0.00047736484 0.0001658143 -0.0038043945

block2.layer.0.bn1.running_mean f4 [16]
000000 4b 0b 50 bf 08 cc 1e 3d 65 48 07 bf ee 05 79 3f
       -0.8126723 0.038768798 -0.5284484 0.97274673
000010 45 18 79 3e 75 4f 11 3f d8 4f a5 3d 9a 26 02 3f
       0.24325664 0.56761867 0.080718696 0.5084015
000020 6c a8 36 be 3e f7 6c 3e 44 3d 27 bf 3c 85 31 bf
       -0.17837685 0.2314119 -0.6532786 -0.69343925
000030 e5 5d 0d bf 53 a6 1f bf b6 27 30 bf ec bc 01 bf
       -0.55221397 -0.62363166 -0.68810594 -0.50678897

block2.layer.0.bn1.running_var f4 [16]
000000 5c db a7 40 01 74 d7 40 06 8b b9 40 4a 4a bd 40
       5.2455273 6.7329106 5.7982206 5.9153185
000010 ff ad 95 40 3d 11 b3 40 f0 33 57 40 d2 a7 46 40
       4.6774898 5.5958543 3.362545 3.103993
000020 46 a3 98 40 39 b9 97 40 66 68 9f 40 96 51 a4 40
       4.769931 4.74136 4.981494 5.134959
000030 c1 f8 9a 40 10 a5 fb 40 51 7b c4 40 a9 2d 14 40
       4.8428655 7.863899 6.1400533 2.3152869
