checkpoint/transfer_cnn_features_1d_spinel5v_to_lirich_1116/retry_target_focus/best_model.pth (torch, 110818 bytes, 10 tensors)

model_cnn.conv1.weight f4 [32, 21, 3]
000000 a0 18 6b bd 4b f6 21 bd 6d b7 8e bd 4a 9f a7 3d
       -0.05739653 -0.039541524 -0.069685794 0.08184679
000010 ad 05 5f 3d 8b 0d e9 3c 61 c9 fa bd f3 59 a5 3d
       0.054448772 0.02844884 -0.12245441 0.08073797
000020 1d 7f b3 3c fb 27 86 3d 60 21 82 bd ce c7 58 3c
       0.021911198 0.065505944 -0.06354022 0.013231231
000030 5e ae cc 3d d4 61 8c 3d 90 a9 ae 3d 0b 04 f9 bc
       0.099941954 0.06854597 0.08528435 -0.030397436
000040 61 76 ba 3d d0 96 d4 bd 54 5a e7 3b 00 06 91 bd
       0.0910461 -0.10380328 0.0070603285 -0.070812225
000050 f6 e9 e9 bc 2a e7 0c bd 10 e7 f8 3b a5 7a e7 3d
       -0.028553944 -0.034400143 0.007595904 0.113026895
000060 05 c4 77 3d 5a 1e 0e bb 65 cb b4 3d b6 32 74 bd
       0.060489673 -0.0021685571 0.08827857 -0.059618674
000070 ce c2 8c 3d 39 99 bf bb 76 4a 88 bc d0 32 9a 3c
       0.068730935 -0.005847123 -0.016637068 0.018823057
000080 c5 f3 b8 bd c4 c5 e4 3c f6 cf 59 3d 94 c0 e8 3d
       -0.0903087 0.027926333 0.053176843 0.11364856
000090 7c 96 7f bd eb f5 d3 3c 84 91 e0 3d 45 17 7d bd
       -0.062399372 0.025874099 0.10965255 -0.06178977
0000a0 f3 68 f6 3d d0 1e 71 bd 34 0b 07 3d 48 07 07 3d
       0.12031736 -0.058867276 0.03296967 0.03296593
0000b0 49 fe ac 3c 7a 73 bb 3d d8 e4 4c bd 70 24 19 3d
       0.021117346 0.09152885 -0.05002293 0.037388265
0000c0 f6 b2 e7 bb 6f ba ce bd 9c b0 0f bd 81 3f 93 bd
       -0.0070708944 -0.10094153 -0.035080537 -0.07189847
0000d0 6b 74 87 3d 01 3a a9 3c 0a 4f 8f 3c 57 83 07 bd
       0.06614002 0.020657541 0.017493743 -0.03308424
0000e0 8d 71 aa 3b 0c 72 0d bd da 5e 28 3d 20 b8 01 3e
       0.0052015246 -0.03453259 0.041106082 0.12667894
0000f0 2d 25 88 3c ac f5 60 bd 71 c6 9b bd c5 d4 98 3c
       0.01661929 -0.05492179 -0.07606209 0.018656144
000100 ac 02 ae bd 7b 11 b1 bd 07 5d 9b bd c7 31 3a bd
       -0.08496603 -0.08645912 -0.07586103 -0.045457628
000110 b2 58 b8 3b f8 29 c0 3d 51 c6 43 3d 88 b9 c3 3d
       0.0056258077 0.09383005 0.04779655 0.09556872
000120 18 40 96 bd 41 f9 03 3c ac 2b f2 bd c7 a5 a1 3d
       -0.07336444 0.008055032 -0.11824736 0.07892948
000130 f3 20 d0 3c 1c 71 ef 3d ec 04 9c bd f9 02 e9 3d
       0.025406336 0.11691496 -0.07618126 0.1137752
000140 9b b4 f6 3d e6 1c ea 3d 2b b1 f7 3c be 3b 02 3e
       0.120461665 0.11431293 0.030235847 0.12718102
000150 f6 a5 b8 3d 4b e9 b3 3d 2c a3 81 bc da e0 ba bd
       0.090160295 0.087847315 -0.015824877 -0.09124918
000160 c6 72 0e bc 9a 56 82 3c 1d f5 b7 bd 4d f7 a9 bd
       -0.008694356 0.015910435 -0.089822985 -0.08299122
000170 a4 cd f6 bd f3 e6 46 bd 2a 75 ca 3d 77 ae a6 3c
       -0.120509416 -0.048560094 0.098856285 0.020346863
000180 30 83 e4 bb 2f b7 14 3c 6e 4b b9 3d 55 dd d6 bd
       -0.0069736466 0.0090768775 0.0904759 -0.104914345
000190 68 d5 bb bd 8c e1 15 bd 2d f0 a3 bd 06 26 72 3d
       -0.091715634 -0.03659205 -0.08004794 0.059118293
0001a0 0d 7a ad 3d 23 26 ef bd c1 e1 cf bd c1 b3 f3 bd
       0.08470545 -0.11677196 -0.10150481 -0.1189952
0001b0 53 b2 20 3d aa 68 c2 3d c4 9b d1 bd b1 44 26 bd
       0.039232563 0.09492619 -0.10234788 -0.040592853
0001c0 ec 20 6d 3d 19 23 8c bd bb c8 c8 3d 9f 45 a2 3c
       0.057892725 -0.06842632 0.09803911 0.019808589
0001d0 d5 89 0d bd 0b 1c eb 3c 03 48 78 3d df fc 1b bd
       -0.034555275 0.028699895 0.06061555 -0.038082954
0001e0 2c c3 9c bd 87 83 b7 3c 39 53 0d 3c 9f 12 5b 3c
       -0.076544136 0.022401584 0.008625799 0.013371139
0001f0 82 52 d6 bb 01 3d c4 3d 6e 1e 12 bd ba c1 49 bc
       -0.0065405974 0.09581948 -0.03567355 -0.012314254
000200 0f 83 51 3d da 01 ba bd 84 d2 09 3d 45 93 cc bc
       0.051150378 -0.090823844 0.03364803 -0.024972567
000210 cb ea 55 3d 53 d8 84 bd f4 be 53 3c dd fa ba 39
       0.05222587 -0.06486573 0.012923945 0.00035663592
000220 27 af d2 bd ab c2 b7 bd 73 2c 26 3d a4 de 0c bd
       -0.10287314 -0.08972677 0.040569734 -0.034392014
000230 09 f1 a8 3d a7 91 ea bd 01 ee 4f bd bc 07 bb bd
       0.08249099 -0.11453562 -0.050764088 -0.091323346
000240 9e ed 7a 3d 46 73 f2 3b 84 a4 6d bc 49 08 0b bd
       0.061261766 0.0073989956 -0.014504556 -0.03394345
000250 d9 31 dc bd f8 10 e1 3c 19 80 20 bc 51 ab c5 bd
       -0.10751695 0.027473912 -0.009796166 -0.09651817
000260 76 91 23 3d cf 07 40 bc ca 57 e6 bd ca 3a 92 3d
       0.039933644 -0.011720612 -0.11247213 0.071401194
000270 d8 33 6c 3d 6f 37 68 bc 82 a8 ab bd 42 ba 18 3c
       0.05766663 -0.014173373 -0.0838175 0.009321751
000280 06 07 d7 3d f1 4e f0 3d 69 88 c2 bd ea d3 5b bd
       0.104993865 0.11733807 -0.094986744 -0.053668894
000290 2e 9b dc 3d 34 3f 62 3d 8c 93 9f 3d d3 56 7b bd
       0.10771786 0.055236056 0.07791814 -0.0613621
0002a0 22 7b d6 3d 5e e2 d5 bd 27 6d f9 bb d9 a7 75 bb
       0.104727045 -0.10443567 -0.007611889 -0.0037484078
0002b0 8a 23 ae 3c 30 80 c1 bd 72 6d 02 3e d3 14 0b 3e
       0.02125718 -0.09448278 0.12737063 0.13582163
0002c0 53 92 9d bd f3 87 1d bc b0 bb 7d bd 99 9c fe 3d
       -0.07693925 -0.009614932 -0.06194657 0.124322124
0002d0 15 1b 98 3d 28 a4 bf 3d 6e bd 66 3d 28 fa 04 bc
       0.074270405 0.09357482 0.056332998 -0.0081162825
0002e0 f8 54 ba 3d fb 3f 95 3c b1 aa 14 bd 55 c6 97 3d
       0.09098238 0.018218985 -0.036295597 0.07410876
0002f0 e8 62 46 3d 89 9e 17 bd 41 2e 21 bd f2 78 ee bd
       0.048434168 -0.037016425 -0.03935075 -0.11644162
000300 e0 18 4c bd 84 b6 66 bd 04 4f 93 bd 9d 55 07 be
       -0.04982841 -0.056326404 -0.071928054 -0.13216253
000310 c4 47 bb 3d 97 f4 f1 bd 56 31 e5 3d 8f 45 90 bd
       0.091445476 -0.1181423 0.11191051 -0.07044517
000320 08 36 5a bc ad 99 af 3d 91 e3 11 3d 90 96 28 bd
       -0.013318546 0.08574233 0.035617415 -0.041159213
000330 e0 ad ca bd 1b 7e 44 bd 3d 2f d9 3d 77 50 18 bd
       -0.09896445 -0.047971826 0.10604713 -0.037186112
000340 6a 2e eb 3d ec e9 34 bc 01 87 92 bc 38 8e 4d 3d
       0.11483462 -0.011042099 -0.01788664 0.05018446
000350 7c df 94 bc 7b 05 2e bb 55 df b2 3d c1 0b 2f 3d
       -0.018172972 -0.002655356 0.087340035 0.04273582
000360 27 fb 05 ba 9f da 71 3d 07 4c e3 3d 04 2e 13 3d
       -0.0005110972 0.059046384 0.110984854 0.035932556
000370 48 f8 d1 bc e0 56 2d 3d 84 62 80 bb 69 46 dc bd
       -0.025631085 0.04231918 -0.003917994 -0.10755617
000380 ab 24 55 bd fb 95 25 3d 7d 02 68 bc 2e f6 11 3d
       -0.052036922 0.040426236 -0.0141607495 0.035635166
000390 a5 14 9d bd 84 a7 fb 3d f0 7e 5e bd 18 22 12 3c
       -0.07669953 0.122878104 -0.054320276 0.008919261
0003a0 16 66 9f bd e6 02 8e bd df 69 5a 3d 7a cd 00 bd
       -0.07783143 -0.069341466 0.053323623 -0.031445958
0003b0 21 22 a7 bd ca 6d 25 bd 97 e9 d1 3d 48 97 b1 3d
       -0.081608064 -0.040387906 0.10249632 0.08671433
0003c0 a9 e5 9a 3d e6 7c f0 bd 7e 1b 61 3d 7e a4 8f 3c
       0.075633354 -0.117425725 0.05495786 0.01753449
0003d0 a9 9e b3 bd 96 59 80 3a cf 42 33 3c 68 1b 90 bd
       -0.087704964 0.0009792324 0.010941221 -0.07036477
0003e0 ec c5 62 bd 73 eb e8 3d 3d e9 83 3a f6 1f 2a 3c
       -0.055364534 0.113730334 0.0010064017 0.010383597
0003f0 f6 30 97 bd 2e 7b 98 bd b5 d3 e8 3d 90 b8 29 3d
       -0.073823854 -0.0744537 0.11368505 0.04143578

model_cnn.conv1.bias f4 [32]
000000 9e 90 3a 3d 22 a6 b7 3a 6f 84 f6 bd 9a b4 7f 3d
       0.045548074 0.0014011303 -0.120369785 0.062428094
000010 b9 37 f2 bc 34 4d 3c 3c 85 4d a3 bd 21 4d cc 3c
       -0.029567586 0.011493016 -0.0797377 0.024939122
000020 69 08 c1 3c b7 f6 de bc 8f 69 2b bd fa 1a 1f 3d
       0.02356358 -0.027217252 -0.041848715 0.038844086
000030 8e cb d4 3c ab f5 b2 3d a4 ec cf bd a1 6c fd 3d
       0.025975969 0.08738264 -0.101525575 0.12374235
000040 5a 3f ef bd 9d ee c4 bd 03 f0 99 bc 07 15 d2 bd
       -0.11682005 -0.09615824 -0.018791204 -0.10257917
000050 45 b3 ad 3d 29 47 dd bc fd 29 a5 3c 18 ca 33 3d
       0.084814586 -0.02701147 0.020161623 0.043893903
000060 f3 d1 66 3c 15 79 da 3d 66 e7 b3 3d ad 9f 2a 3d
       0.014088142 0.10667626 0.0878437 0.041656185
000070 ac 3b ec bd 4a 30 40 3d 8b 7b 6f bc bd b7 eb 3c
       -0.11534819 0.046921052 -0.014616857 0.028774137

model_cnn.conv2.weight f4 [64, 32, 3]
000000 82 32 9a 3d 81 5a 51 bd 2a 99 1b bc 75 9e 9d bd
       0.07529165 -0.051111702 -0.009496966 -0.07696239
000010 14 bc 35 3d 26 78 80 bc 1c 81 f0 bc 28 2f 64 3c
       0.04436882 -0.015682291 -0.02935844 0.013927259
000020 fc 72 63 3c 5a 95 df 3c c9 77 d3 3d b1 c1 ad 3d
       0.013882395 0.027292896 0.103255816 0.08484209
000030 a5 87 a7 3d 92 be 79 bd d1 a5 cb bd 56 57 97 3d
       0.08180169 -0.060972758 -0.09943736 0.07389705
000040 dc bd b2 3d cd 19 78 3d 99 d6 9b bd dd bb 1b bd
       0.08727619 0.06057148 -0.07609291 -0.038020957
000050 42 56 c3 3d 1e c9 37 bd 09 1e 81 bd 80 4e cb 3c
       0.09537937 -0.044869535 -0.06304557 0.024817705
000060 d6 d6 b8 3d d9 db fe bc a1 8b c0 bc a1 f3 db bc
       0.09025352 -0.03111069 -0.02350408 -0.02684957
000070 ea d2 37 bd 8f 2e 1e 3c 20 f5 07 bb ec 65 56 3d
       -0.044878878 0.009654655 -0.002074547 0.052343294
000080 0e 7c 89 bd 57 3b 98 bc e4 99 aa bd cc 67 ba bd
       -0.06713115 -0.018582983 -0.083301336 -0.09101829
000090 06 5d 15 3d 93 13 a2 bb 9e b9 aa bd b0 ff 84 bb
       0.036465667 -0.004946181 -0.08336185 -0.0040588006
0000a0 f6 9b f6 3c 35 dd 94 3d f9 f3 90 3d da b0 b3 bd
       0.030103665 0.072687544 0.07077784 -0.08773966
0000b0 7e b1 13 3d 28 b3 c6 bd e5 b8 98 3d 50 ca 85 3d
       0.03605794 -0.0970214 0.07457141 0.06532729
0000c0 7f 63 b9 bd f0 c1 7b 3b bb 07 0f 3d a6 0f 60 3c
       -0.090521805 0.0038415156 0.03491948 0.013675606
0000d0 00 55 a9 bd ec 9c d6 3d 10 6b 4b bd f3 67 04 3d
       -0.082681656 0.10479149 -0.04966265 0.032325696
0000e0 51 83 84 3d 56 27 c7 bd 2b f7 0c bd d7 6e 52 bd
       0.06470359 -0.097242996 -0.034415405 -0.051375236
0000f0 1d eb ce 3d 49 1e 25 bd 51 5d af bd d8 74 ae bd
       0.10103438 -0.040312085 -0.085627206 -0.0851838
000100 83 1f 58 bb 6f b3 c5 3d 73 44 92 bd b7 17 55 bd
       -0.0032977767 0.09653365 -0.07141962 -0.05202457
000110 47 79 a8 bd b0 87 c4 3d 31 31 58 3d 6e 4c 23 3d
       -0.08226257 0.09596193 0.052781288 0.03986781
000120 a1 97 b7 3d 79 c0 23 3d eb 58 9e 3d 30 67 81 bc
       0.08964468 0.039978478 0.077318035 -0.015796274
000130 f4 e5 bd 3c 9a 35 46 bd af c5 6f bc bc 92 a1 3c
       0.02318094 -0.048390962 -0.014634534 0.019723289
000140 51 0e 16 bd bb 3c 61 bd 6b 5e 1e bd 79 b0 7c 3d
       -0.036634747 -0.054989558 -0.038664263 0.061691735
000150 db 07 5a 3d b5 7d 05 bd 86 ca 1d 3c 19 3c 04 bd
       0.053230148 -0.032590587 0.009630805 -0.032283876
000160 fa 95 a8 3d 53 50 36 bd d2 e2 59 bd a8 80 91 3d
       0.08231731 -0.044510197 -0.05319483 0.07104617
000170 bb e3 96 bd ff ba be bc c0 89 66 3d 82 b0 8a bc
       -0.07367655 -0.023282526 0.056283712 -0.016929869
000180 96 8d 47 bd 52 0b 8f 3d 9c f6 d7 bc c5 6e c4 3d
       -0.04871901 0.06984581 -0.02636271 0.0959144
000190 a4 fa e0 bc 53 f7 61 bd c6 f1 9d 3d 93 4d 9b bd
       -0.027463265 -0.055167507 0.0771213 -0.075831555
0001a0 ba 50 9e bd e1 46 80 3d 7c 77 74 bd eb 58 2e 3d
       -0.07730241 0.06263519 -0.05968426 0.042565268
0001b0 64 26 a8 bd 49 25 b3 3d a4 7c 05 3c f1 76 96 3d
       -0.082104474 0.08747346 0.008147392 0.07346905
0001c0 d1 12 e1 bd 09 8c 82 3c 21 86 90 bc 1b 6b 1b 3d
       -0.10989917 0.015935915 -0.017642083 0.03794394
0001d0 ec 91 2c bd 71 57 eb 3d 5f d2 e2 3d 4c c8 80 3d
       -0.04213135 0.114912875 0.11075281 0.062882036
0001e0 4b 44 69 bd 4c d7 a2 3d 86 cc c4 bd 1b 79 8a 3d
       -0.056949895 0.07951221 -0.09609322 0.0676138
0001f0 8d 4e 82 3d f8 08 86 3d 55 b1 d4 3c bb 4f a5 3d
       0.063626386 0.065446794 0.025963465 0.08071848
000200 1e 53 7b bd 11 f5 9f 3d 96 0b 31 3d 10 0c c1 3b
       -0.061358564 0.078104146 0.04322394 0.0058913305
000210 0c df 53 3d 47 62 12 3b b4 23 c1 3d 90 a7 2b bc
       0.051726386 0.002233641 0.09430638 -0.010476962
000220 30 bb 36 3d f5 6e a0 3d 7a a1 24 3d c9 45 2d 3c
       0.04461211 0.078336634 0.04019306 0.01057572
000230 f7 08 8a 3b 03 c8 bb bd 82 10 b5 bd 05 e2 cc 3c
       0.0042124945 -0.091690086 -0.08841039 0.025010118
000240 07 a0 bc 3c 76 59 23 3d 9d 46 a1 bd d6 cf 80 3d
       0.023025526 0.03988024 -0.078747965 0.062896416
000250 08 30 9d bb 62 f2 45 3d d0 fa 89 bd 42 a1 27 3c
       -0.0047969855 0.048326857 -0.06737292 0.010231318
000260 2a 42 2b 3d 91 c8 99 bd 4d 15 2b 3c db 27 0b bd
       0.041811146 -0.07508958 0.01044209 -0.033973556
000270 41 20 93 3d 78 4a 08 bd 71 a7 92 bd ca c6 90 bd
       0.07183886 -0.033274144 -0.07160843 -0.07069166
000280 0a 66 6f bc 41 15 26 3d 88 1f 49 3d df af db 3d
       -0.01461173 0.040547613 0.049102336 0.10726904
000290 58 8e bf 3d f2 2a 28 3c fa 6e b1 3c 11 d7 50 bd
       0.09353322 0.010264145 0.021659363 -0.050986353
0002a0 f6 cf 37 3d b1 f1 b2 3d d5 d1 e3 3b 92 75 c8 3c
       0.04487606 0.08737505 0.006952504 0.024470124
0002b0 22 2d a3 bd 4b 93 7c 3d fe 68 b8 3d 0c 81 c7 3d
       -0.07967593 0.061663907 0.09004401 0.097414106
0002c0 a6 0c 42 3d 8e ad 4b bd 97 ba c0 bb 23 36 5c bd
       0.047375344 -0.04972606 -0.0058816182 -0.053762566
0002d0 e3 2f 78 bd 90 b8 a8 3d 26 5c ee bb f5 c8 8e bd
       -0.060592543 0.082383275 -0.0072741685 -0.06971923
0002e0 03 8c 55 bc 95 c1 62 3d 45 3f 29 bb 3f f7 a5 3d
       -0.01303387 0.055360395 -0.0025825065 0.08103799
0002f0 9a ad 87 3d e6 61 ad bd fb 6d b2 bc 1c 4f 08 3d
       0.06624909 -0.08465938 -0.021780958 0.03327857
000300 7d 7c a6 bc 68 a6 94 3d 10 9d 4b 3d 03 7f 9c bd
       -0.020323033 0.07258302 0.049710333 -0.07641413
000310 40 83 01 3c e3 20 8b bd ea 20 be bd 4d 67 d0 bd
       0.007904828 -0.06793382 -0.092836216 -0.10175953
000320 4b 14 f3 bb 3d 56 81 3c 6a 78 32 bd 13 b0 00 bd
       -0.0074181906 0.015788192 -0.043571867 -0.031417917
000330 7b a0 bd 3d 63 3c d1 3d 34 cd 54 bc 30 cd b4 bc
       0.09259125 0.10216596 -0.012988377 -0.022070497
000340 00 14 d8 3d ad e7 07 ba af 70 d0 3d 11 71 8b 3d
       0.1055069 -0.00051843637 0.10177743 0.06808675
000350 26 fc 54 3d bd 0e 41 bc ed 2f 03 3d 55 07 6f bc
       0.05199828 -0.011783299 0.032028127 -0.01458915
000360 bb 10 99 3d 67 e7 1d 3c 4c f8 8b 3d 17 2f b3 bd
       0.07473894 0.00963769 0.06834468 -0.08749216
000370 b8 87 6b 3d 46 ac 10 3d 5b 33 9d bd 1e 8f 28 3d
       0.05750248 0.035320543 -0.07675811 0.041152112
000380 ff 94 a6 3c b6 1d 67 bd 10 db c1 bd 01 de 3d 3b
       0.020334719 -0.05642482 -0.09465611 0.0028971436
000390 31 c7 71 bb a2 6b 83 bd 92 8c b8 bd 81 2e 0b bd
       -0.003689241 -0.06417014 -0.09011187 -0.033979896
0003a0 c8 01 da 3c 31 50 a7 3d d6 dd 81 3d 57 c2 68 bd
       0.026612177 0.08169592 0.0634114 -0.056825962
0003b0 f8 47 ae 3d 7e 6b 70 bd 21 dd c3 bd 37 0c b3 bd
       0.08509821 -0.058696263 -0.09563661 -0.08742564
0003c0 40 de 9b 3c c6 bc 91 bd d1 e4 2c 3d 88 ab a0 bd
       0.019026875 -0.07116084 0.042210404 -0.07845217
0003d0 fc 30 c7 bc 1d 31 d9 bd c5 92 6a 3d 61 23 dd ba
       -0.02431535 -0.10605071 0.057268877 -0.0016871506
0003e0 32 65 88 3d 13 44 c0 bd a3 a7 fd ba 6d e8 99 3d
       0.066599265 -0.09387984 -0.0019352328 0.07515035
0003f0 70 0a b4 3c 9c aa 3f bd 69 a5 36 bd 4e f0 bf bd
       0.021977633 -0.046793565 -0.04459134 -0.09372006

model_cnn.conv2.bias f4 [64]
000000 bf 2e 0e bd f0 21 b7 3d 2c 7a b5 3d f2 51 ab bd
       -0.03471255 0.0894202 0.08861193 -0.08365239
000010 b9 38 e1 3d 06 59 89 3d 77 b2 b4 bc b9 59 c1 bd
       0.10997147 0.06706433 -0.022057755 -0.09440941
000020 07 9e 1e 3d f9 71 d6 bc d6 ce 4d bd 86 b7 5a bd
       0.038724925 -0.026177393 -0.050246082 -0.053397678
000030 c4 1f b2 3d 25 16 67 3d a0 7a f5 3b ff de 65 bd
       0.08697465 0.056417603 0.0074914247 -0.05612087
000040 e9 b7 c5 3d 10 7c a2 3b 42 d4 56 3a 32 43 51 3d
       0.09654219 0.004958637 0.0008195081 0.051089473
000050 71 db 8b 3c aa e6 73 3d fc c2 a7 bd b7 c5 65 3c
       0.017072411 0.05954615 -0.08191487 0.01402419
000060 40 4e bf 3d 39 d0 ae bb 65 ec 6f 3d 25 f2 8d bb
       0.09341097 -0.0053348807 0.058575053 -0.0043318444
000070 ad 51 bc bd ef d2 c5 bd bd 46 86 bd 1c 85 70 bd
       -0.09195266 -0.09659373 -0.06556461 -0.058720693
000080 81 2d 4e 3d 28 ba 7a bd 1b 33 b6 bd f2 46 23 bd
       0.050336365 -0.06121269 -0.08896466 -0.03986258
000090 a8 d1 7f 3d 0b 83 7c bd 5e 12 83 3c 56 4f 81 bb
       0.062455803 -0.06164841 0.01599997 -0.003946225
0000a0 e0 df f4 3c 54 01 a3 bd 4c a4 a3 bd c4 56 c5 bd
       0.029891908 -0.07959238 -0.079903215 -0.0963569
0000b0 af 8a 88 3c 8f e1 08 bd 32 fb 22 bc 3c 77 7f 3d
       0.016667692 -0.033418234 -0.009947585 0.06236957
0000c0 ed 6f 34 3b 1e 12 3c bd 94 b1 14 3d 82 ce 9a 3d
       0.0027532533 -0.045915715 0.036302164 0.075589195
0000d0 01 c6 de bc 62 f0 9f 3b 35 3b 53 bc f9 92 bb 3d
       -0.027194025 0.004880951 -0.012892534 0.09158892
0000e0 72 c6 99 bb 3b 7c b1 3d 0a bd b3 bd d9 67 52 3d
       -0.004692846 0.08666273 -0.08776291 0.051368568
0000f0 bb 1a b6 bd f3 9a 00 3d 54 87 41 3c 77 1c cc bd
       -0.08891817 0.03139777 0.01181205 -0.09966367

model_cnn.fc1.weight f4 [256, 64]
000000 42 01 96 3d f6 4f a0 3d 35 54 ab bc 8a 4a 77 bd
       0.07324459 0.07827751 -0.020914176 -0.06037382
000010 7b e6 b9 bc 67 de 1d 3b 75 9c fb bd 78 a8 cd 3c
       -0.02269291 0.002408886 -0.12285701 0.025104746
000020 1c bc aa bc 07 52 5b 3d c2 04 eb 3d af 8f e2 3d
       -0.02084165 0.053545024 0.11475517 0.11062562
000030 1d 9e 8a 3c dd 7a b8 3d e0 60 bb 3d f5 1e b9 3d
       0.016921097 0.09007809 0.09149337 0.09039108
000040 8e d7 b7 bc 57 b5 9c 3d 6c e5 71 3d b4 dc 44 bc
       -0.022441652 0.07651775 0.059056684 -0.01201551
000050 bb db 70 3d 6c cc 77 3d 45 f4 8d 3d 14 ac e7 3d
       0.0588033 0.060497686 0.06931356 0.11312118
000060 16 78 b7 bc f0 88 f7 bd 3a 6a e1 3d 84 2f eb bc
       -0.022396129 -0.12086666 0.11006589 -0.02870918
000070 cb a8 b4 bd 9b c4 b8 bd a3 c2 dd 3d 1f fa 89 3b
       -0.08821257 -0.090218745 0.1082814 0.004210725
000080 86 4d 7b bd cd 46 60 3d 42 69 b0 bd 0a 60 6f bd
       -0.06135323 0.05475502 -0.08613826 -0.0584412
000090 1c 28 f9 bb ac b4 a9 bb 4b 63 29 bd 38 04 9d bd
       -0.0076036584 -0.0051790085 -0.04135446 -0.0766682
0000a0 40 94 e9 3d 7a b0 53 bc d4 05 b0 bd 5e 02 f3 3d
       0.114052296 -0.012920493 -0.085948616 0.11865686
0000b0 c1 fa 4d 3c f4 56 d7 bd a6 03 ce 3d 76 39 4a 3d
       0.012571991 -0.10514632 0.1005929 0.049371205
0000c0 45 af ab 3d bc 6e 26 3d 0d bc bb 3d 44 77 ab 3d
       0.083830394 0.04063295 0.09166727 0.083723575
0000d0 00 86 22 bd e3 e4 9b 3d 7f 1e f2 bd c7 ea 22 3d
       -0.039678574 0.07612016 -0.11822223 0.039774682
0000e0 96 20 a7 3d bc a9 bf 3d 87 42 80 3d 0f eb c7 3d
       0.08160512 0.09358546 0.06262689 0.09761631
0000f0 29 74 04 3e 25 fc a7 bd 43 11 ce 3d 5f 03 3a bd
       0.12934937 -0.0820239 0.10061886 -0.04541337
000100 b8 81 7c bd 42 bd b9 ba 75 b9 ef ba 0b 06 ae 39
       -0.061647147 -0.0014170783 -0.0018289523 0.0003319237
000110 13 b2 36 ba d4 0f 64 3d 93 4d d2 3b 35 74 49 bc
       -0.0006969284 0.055679157 0.006417939 -0.012295772
000120 41 40 8f bd 67 a8 7f bc e4 c9 e3 ba 7a 1e 96 b8
       -0.06994677 -0.015604115 -0.0017378894 -7.158234e-05
000130 cc 41 36 bc d1 c9 76 3d ae 5e 9c 3c 04 eb 45 3b
       -0.011124086 0.06025106 0.019088116 0.0030199895
000140 a9 c7 23 ba d6 bc 8f 3d dd ad 44 ba ff 89 95 3d
       -0.0006247708 0.070184395 -0.0007502714 0.07301711
000150 91 58 d2 39 77 7f f7 3a 75 7a 79 bd 50 d2 e3 ba
       0.00040120308 0.0018882592 -0.0609078 -0.0017381404
000160 df 12 b7 ba 5e 47 85 bd 44 a2 ff 3b fb 53 a6 3c
       -0.0013967416 -0.06507753 0.007801326 0.020303717
000170 4f 35 5e 3d bb e6 e7 bc a4 9e 0c 3d 2a fe 83 bd
       0.054250058 -0.028308263 0.03433098 -0.06444962
000180 f7 78 03 b9 3c 9e 35 3d 13 52 58 bc 19 ab c9 ba
       -0.00012538196 0.044340357 -0.013203162 -0.0015386074
000190 73 6a de ba f2 b5 14 bd 61 a6 0c bc dd 92 b1 3c
       -0.001696898 -0.03630633 -0.00858459 0.021676475
0001a0 5c d7 64 39 4e fc 76 3d 78 37 42 3a 97 36 8c bd
       0.00021824002 0.06029921 0.0007408778 -0.0684635
0001b0 90 e8 6e 3d de 4c 98 ba ed a1 06 bd 39 f9 30 3d
       0.058327258 -0.0011619588 -0.03286927 0.043206427
0001c0 a7 6f 4f 3d 69 db 92 bd 09 ef 3c ba 4d 7f 85 bc
       0.05064359 -0.071707554 -0.000720725 -0.016296053
0001d0 ee 45 6f 39 f3 80 26 3c af 66 2e 3d 9c 74 83 3d
       0.00022818867 0.01016258 0.042578395 0.06418726
0001e0 08 3a 3e bd e5 5c 0a 3c 43 ac 4c ba 45 7c 02 3b
       -0.04644206 0.008444999 -0.00078076514 0.0019910496
0001f0 e5 c3 b4 ba c5 b1 e3 b9 6b 03 33 3a e8 35 21 3d
       -0.0013791291 -0.00043429263 0.00068288174 0.03935805
000200 84 7a d5 bd 90 9d 09 bd 07 93 51 bd 86 46 ef 3d
       -0.104237586 -0.03359753 -0.051165607 0.11683373
000210 c7 a0 45 bd 22 4b 18 bc 4a 4b 1d bd d8 de 0f be
       -0.048249032 -0.009295257 -0.03840188 -0.14049852
000220 27 9b 04 bc d9 97 ec 3d 04 64 65 bc aa 09 89 3d
       -0.008093632 0.115524 -0.014000896 0.066912964
000230 5c 71 e3 bc 2b 76 5a 3d 0a 50 bf bd d9 35 03 3e
       -0.027764015 0.05333535 -0.09341438 0.1281351
000240 cb 15 d8 3d 0b 38 8f bd ec 22 ee bd b9 6d cd bd
       0.10551032 -0.06993111 -0.116277546 -0.100306936
000250 10 8a df bd 52 a2 e1 3d 54 20 9a bc 79 c1 78 3d
       -0.10915005 0.11017288 -0.018814243 0.060731385
000260 cf 0f a9 3d 5c a9 b3 3d 48 f6 a7 3d 68 72 05 3e
       0.082549684 0.08772537 0.08201271 0.13031924
000270 c6 97 41 bd d5 f8 e8 3d fc a8 3b 3d 41 b4 e8 3d
       -0.047263883 0.11375586 0.045815453 0.11362506
000280 17 b6 6b 3c 5c 51 a1 bb a0 7f f5 bd f8 a3 0e be
       0.014386675 -0.004923029 -0.11987233 -0.13929737
000290 68 17 ca bd 58 24 68 3d 6f 8e 82 bb 66 7f 85 3d
       -0.09867746 0.056675285 -0.0039842646 0.0651844
0002a0 ec c0 8f 3d 84 ea 65 3d 35 2e 68 3d fa 83 0f bd
       0.07019219 0.056131855 0.05668469 -0.035037972
0002b0 e2 7b 88 bd dd 5f f6 3d 13 36 6f 3c aa 37 9e bd
       -0.06664254 0.12030003 0.014600295 -0.07725461
0002c0 17 1e 3a 3c 49 93 49 3c 99 31 9c 3c da c8 c0 3d
       0.011359713 0.012303182 0.019066619 0.094133094
0002d0 7c 4c 53 3d ee a9 b0 3d 70 b9 9d 3d 72 36 a8 3d
       0.051586613 0.086261615 0.07701385 0.082135096
0002e0 4d 9f 8b bc 1c 3a f5 3d 68 21 ac 3d 54 4c e6 bd
       -0.017043734 0.11973974 0.08404809 -0.11245027
0002f0 fc 4f 81 bb 68 b5 c0 bd a4 8e 53 bd 80 ad 63 3d
       -0.0039463025 -0.094096005 -0.051649705 0.055585384
000300 af 8b d3 bd 95 35 06 be 29 8e ac 3d a4 2d 34 bd
       -0.10329377 -0.13106377 0.084255524 -0.04398884
000310 a4 14 d7 bd 28 1c 54 3d 27 05 dd bd 65 eb e1 3d
       -0.10501984 0.051784664 -0.10791998 0.11031226
000320 67 6e f3 3d 8a b5 94 bd 82 42 80 bd ea 29 42 bc
       0.11886292 -0.07261188 -0.06262685 -0.011850813
000330 89 60 a3 3d 6c 85 85 bd 56 bd 4e bd fd f6 55 3d
       0.07977397 -0.06519589 -0.050473534 0.0522375
000340 eb fb fe 3d d7 4c 97 bd 77 3e e3 bd ae d7 c2 bd
       0.12450393 -0.07387703 -0.110958986 -0.09513794
000350 31 19 cb 3d 34 07 95 bd 3c 4d 8b bd 9d 73 7e 3d
       0.09916914 -0.072767645 -0.06801841 0.062121976
000360 15 d2 1b bd 4a 40 b9 3d 26 aa d8 bd f7 a8 af bd
       -0.038042147 0.09045465 -0.10579328 -0.08577149
000370 d2 d1 ca 3d 41 52 2c bd 42 25 04 3e 49 47 90 3d
       0.09903301 -0.04207063 0.12904838 0.070448466
000380 a2 5d cb 3c 01 ba b0 bd 55 45 e3 3d 0d 54 49 bd
       0.024824921 -0.086292274 0.110972084 -0.049152423
000390 58 76 a9 bd 2a f1 15 bb a2 41 c6 bd 54 6e 96 bc
       -0.082745254 -0.002287934 -0.09680487 -0.018363155
0003a0 ad cc 87 bd 09 33 38 bd fb 7f 30 bd 85 34 bc 3d
       -0.06630836 -0.044970546 -0.0430908 0.09189705
0003b0 1c fe 9c 3d 97 f7 62 bd b4 d8 8a 3d 69 3e df 3d
       0.07665655 -0.0554119 0.06779614 0.10900576
0003c0 bd b3 da bd 24 9f c0 3c 4c d4 78 bd fc 84 32 3d
       -0.106788136 0.023513384 -0.060749337 0.043583855
0003d0 91 b2 9b 3d 39 7b c0 3c 9a ea d5 3d 0f da 60 bc
       0.07602418 0.023496257 0.10445137 -0.013723864
0003e0 12 80 95 bc 14 a3 e1 3d 7c 3b d9 bc 1e 24 b2 3d
       -0.018249545 0.11017433 -0.026517622 0.08698295
0003f0 11 87 9a 3d da f1 d7 bd 16 9e d6 3d 59 6b 3d 3c
       0.07545293 -0.105441764 0.10479371 0.011561238

model_cnn.fc1.bias f4 [256]
000000 b1 9c f5 3d 2c 7c 68 bd f5 94 e5 bd cc 0b 68 bb
       0.11992777 -0.056759045 -0.11210052 -0.0035407422
000010 f8 c7 e9 3d 76 d2 f6 3d ab 38 6e bd 3f a9 de bd
       0.11415094 0.12051861 -0.05815951 -0.10872125
000020 e8 d6 4f bc 2a e8 2b bd 08 02 6b bd 2a 4c 5b bd
       -0.012685515 -0.041969456 -0.057374984 -0.053539433
000030 c9 2f ae 3d 0b eb f3 3c 49 c5 f6 3d 63 99 dd bb
       0.08505208 0.029775163 0.12049348 -0.00676267
000040 fd 95 16 3d 68 31 f5 bd f1 6a dd 3d f2 48 54 3d
       0.036764134 -0.11972314 0.10811413 0.05182738
000050 6c cc 0f 3c 92 38 88 bc 82 33 13 bd 5a aa 1b 3c
       0.008776765 -0.016628537 -0.035937794 0.009501064
000060 15 e2 4f bc ef 65 8d 3d 20 97 92 bc 29 6a c2 3d
       -0.0126881795 0.06904208 -0.017894328 0.09492905
000070 c2 26 dd 3d 47 39 fb bd c3 f0 fb bc bf 3d 41 bd
       0.10798408 -0.12266784 -0.030754453 -0.047178026
000080 66 6b 54 bd f8 38 80 bb 7e e1 a8 3d f8 4f f7 3c
       -0.051860236 -0.003913041 0.08246134 0.0301895
000090 fe 90 bd 3d 38 3e db 3d ab 71 9e bd 13 6c 99 3d
       0.09256171 0.10705227 -0.07736524 0.07491317
0000a0 7b 53 a1 3d 5b b3 95 3d b1 9a f5 3c 34 77 56 3b
       0.07877251 0.073096 0.02998099 0.003272486
0000b0 04 88 8e 3d 2c 59 79 bd b5 ca 17 bd d2 b3 7d 3d
       0.06959537 -0.060876057 -0.03705855 0.06193907
0000c0 37 dc d6 bd 12 04 08 3c fc 06 67 bd 22 20 1f 3d
       -0.104912214 0.008301752 -0.056403145 0.038849004
0000d0 0d 75 31 bd 15 8c 60 bc fa 9f eb 3b c6 71 b4 3d
       -0.04332452 -0.013705273 0.0071907016 0.08810763
0000e0 ed 7f 0c b9 72 86 b4 3c 16 db a0 bc 58 76 24 3b
       -0.00013399096 0.022036765 -0.019635718 0.0025094952
0000f0 4b b6 5b 3b e7 05 87 bb 56 56 b6 bc 10 ea f1 bd
       0.0033525403 -0.0041205767 -0.022257965 -0.11812222
000100 d8 33 08 bd 28 4d f4 bc 2e c6 46 3d de ba 30 3d
       -0.033252567 -0.029821947 0.048528843 0.04314696
000110 a7 29 83 bd 49 23 90 3d c6 37 a2 3a 58 ef 94 bd
       -0.06404429 0.0703798 0.0012376241 -0.07272214
000120 4c 70 be 3b 69 32 b4 3d 56 1c 6b bc de 40 e4 3d
       0.0058117267 0.087986775 -0.0143500175 0.11145185
000130 11 2a 23 bb 96 83 a2 bb 01 1f f4 bd d2 30 c9 ba
       -0.00248969 -0.004959534 -0.11919976 -0.0015349633
000140 6b b0 dc 3d c2 b9 5e 3d d3 d4 9b 3c 7b be 94 bd
       0.107758366 0.05437637 0.019022381 -0.07262894
000150 fe bb 61 3d 18 86 14 3d a5 cc e5 3c c0 e3 b4 3d
       0.055110924 0.036260694 0.028051684 0.08832502
000160 b8 81 83 bd 08 85 af 3d 76 3f 36 3d 4a f8 1d bd
       -0.06421226 0.085702956 0.044494115 -0.038566865
000170 9d 6e e5 bc 8e 6d ec 3d 85 92 a6 3d d2 ee 2a 3d
       -0.028006846 0.115443334 0.08133415 0.041731663
000180 18 60 9f bd a5 bb bf 3d 4b b7 8b bc f5 71 df 3c
       -0.07782 0.09361962 -0.017055174 0.027276019
000190 53 80 02 be 7a 64 82 bb e1 0e d3 bc f4 31 01 3d
       -0.12744264 -0.003979263 -0.02576393 0.03154178
0001a0 73 b3 cf 3d f1 22 cb 3d f6 a5 95 3d 63 2c 86 3d
       0.10141649 0.09918774 0.07307045 0.06551435
0001b0 51 64 b1 3c a9 d0 b0 bd 57 91 58 3a 28 98 95 3d
       0.02165428 -0.08633549 0.00082614034 0.07304412
0001c0 58 09 aa bd 28 fb 8e 3d 53 60 af 3c 5e 29 bc bd
       -0.083025634 0.06981498 0.021408236 -0.09187578
0001d0 5c d6 d0 39 5d 18 c9 3d ba a6 91 bc f5 d2 36 bd
       0.00039832562 0.098191 -0.017779697 -0.044634778
0001e0 fc bc f8 3d bb a7 b9 bd 2f 6e 2e 3b 53 bd 71 bd
       0.12145421 -0.09065195 0.0026615968 -0.059018444
0001f0 68 66 17 bd 05 c0 19 3d e7 5a 59 3d ea 82 31 bd
       -0.036962897 0.03753664 0.053065207 -0.04333774
000200 04 5f bb bd 48 b7 e8 bc ba 08 69 bc f7 e6 ee 3d
       -0.09148982 -0.028407708 -0.014223272 0.11665147
000210 4b 8c ae bd 61 4b 48 bd b5 f3 b8 bd b2 65 d4 3d
       -0.085228525 -0.048900012 -0.090308584 0.10370959
000220 cc cf 7f bd 40 35 e2 3d 7d 66 6b 3c 57 10 76 3d
       -0.06245403 0.11045313 0.014367697 0.060074177
000230 44 16 cd bd 69 6f e3 3d c0 b7 34 bd cc d9 92 bd
       -0.100140125 0.11105234 -0.04412055 -0.07170448
000240 ce 66 94 bc 60 ee cf 3d 8f 81 4e bd a1 f0 cf 3d
       -0.018115427 0.10152888 -0.050416525 0.10153318
000250 ba ae fe 3d 98 04 ca 3d bf 82 13 bd 05 a3 96 bd
       0.1243567 0.098641574 -0.03601336 -0.07355312
000260 4e cb 00 39 03 a9 b9 bd a6 be 2d 3c 3e e2 72 bd
       0.00012282768 -0.090654396 0.010604536 -0.059297793
000270 a6 52 7e bc e5 23 c8 bc e5 2f 4d 3d ee c1 53 bc
       -0.015522635 -0.024431178 0.050094504 -0.012924654
000280 30 0b 64 bd fb c1 b0 3d 31 e0 47 ba 6d d8 c3 3d
       -0.05567473 0.08630749 -0.00076246547 0.09562764
000290 1e b1 aa 3d 12 b8 f1 bd ce fc ea bc 3a 8c c4 3c
       0.08334564 -0.11802687 -0.028685 0.023992646
0002a0 df cf dd 3c 93 ea fc 3d 2b 96 27 bd ef ec 61 bd
       0.02707666 0.12349429 -0.040914696 -0.055157598
0002b0 52 65 6e bd 4f 0e 9b bc 72 08 17 bd 62 0a 29 bd
       -0.058202095 -0.018927721 -0.03687329 -0.041269667
0002c0 f2 41 ec 3d 2a 48 a0 3c 67 e4 d1 3c 17 dc 38 bd
       0.115360156 0.01956566 0.025621606 -0.04513177
0002d0 a7 de 96 3d c9 c6 5b bd 66 48 fa bd 51 b2 02 3c
       0.07366686 -0.053656373 -0.1222084 0.007977084
0002e0 f9 0d 35 3d 4e 1f 79 3d 95 5d c8 3d 69 9e 86 39
       0.04420278 0.06082087 0.09783474 0.00025676496
0002f0 65 f8 c9 bc bc 74 1b 3d 77 33 8d bd e0 0b f6 bd
       -0.024654577 0.037953123 -0.06894582 -0.12013984
000300 79 bf 91 bd 2a d8 ad 3d a2 5d de 3d 26 46 88 bd
       -0.07116599 0.08488496 0.10857703 -0.06654005
000310 c0 81 c9 3c 90 1f af bd aa 71 d6 3c ed c1 e3 3d
       0.024598002 -0.08550942 0.026177246 0.11120973
000320 aa 10 97 bd 98 71 ba 3d bb f9 6e bd 37 8c ce 3d
       -0.07376225 0.091036975 -0.05834363 0.100853376
000330 dc 9f 3a bd 61 91 da 3d 29 b2 5c bd de 97 1a bd
       -0.04556261 0.1067226 -0.053880844 -0.037742488
000340 ef 7a d3 3d ea 86 ea 3c d0 ac 46 bd f7 dd d2 bc
       0.10326182 0.028628785 -0.04850465 -0.025740607
000350 b5 e6 91 bc a1 ae 8a 3d f0 41 9f 3d 70 39 93 3b
       -0.017810205 0.06771589 0.077762485 0.004492931
000360 e1 d7 dc 3d 40 f8 b5 3a 42 f6 e4 3d e3 7e 82 3d
       0.10783363 0.0013883188 0.111797825 0.06371858
000370 99 47 ab 3a a3 06 c4 bd 2c 5a 91 3b dd da e2 bc
       0.0013067602 -0.09571578 0.004435798 -0.027692253
000380 ee 61 cc bd 97 fa 95 3d 47 23 94 3d ff 2e d0 bb
       -0.09979616 0.07323187 0.07233291 -0.0063532586
000390 2d 5c d7 bd b4 b6 e4 3d 81 53 3c 3d 03 c3 1b bc
       -0.10515628 0.1116766 0.045978073 -0.009506944
0003a0 83 b2 b8 bd 46 e7 21 bc 7c 49 b3 bc a6 4b b1 3d
       -0.090184234 -0.0098818 -0.021885626 0.08657007
0003b0 1d 04 29 b9 b8 9f e4 3d 73 e6 25 bd 1d 1f 9d 3d
       -0.00016118628 0.111632764 -0.040502977 0.0767195
0003c0 d2 c0 f7 bb 95 64 00 bd ac 9c 20 3d d9 a0 0c 3d
       -0.007560828 -0.031345922 0.039211914 0.034333084
0003d0 34 f3 f7 bd e4 e1 88 bc 31 78 4e 3d 4f 8d f1 3d
       -0.12106934 -0.016709276 0.050407592 0.117945306
0003e0 d5 3b 6b bc 74 7d 2f bd d7 64 91 3d 0a 6a c4 bd
       -0.014357527 -0.04284425 0.07099312 -0.09590538
0003f0 13 53 8d bd 42 96 75 3d 71 80 4d 3d a0 06 7e 3d
       -0.06900611 0.05995775 0.05017132 0.062018037

model_cnn.classifier.weight f4 [5, 256]
000000 ab 35 31 bb ce 3c 2e 3d d1 3c 5b bb 1e 66 20 3d
       -0.0027040045 0.042538457 -0.0033452997 0.039159887
000010 eb bd 17 bc 1c 30 09 3d 01 b9 6f bd 8c 99 05 bd
       -0.009261589 0.033493146 -0.058526043 -0.032617137
000020 aa d4 25 3d 26 44 6b 3b c9 0c 61 bc 18 b7 00 bc
       0.040486015 0.0035898774 -0.013735958 -0.007856153
000030 2c c0 79 3d 76 0b 08 3d ce 86 7e bc 2c e7 56 bd
       0.060974285 0.033214055 -0.01553507 -0.052466556
000040 84 c5 64 3d c6 52 85 3b ba 47 30 bd 34 8a fa bb
       0.055852428 0.0040687053 -0.043037154 -0.0076458696
000050 11 57 4b 3d 99 f2 8a bc 5f 86 fc bc 32 86 b2 bc
       0.04964358 -0.016961383 -0.030825792 -0.021792505
000060 da a8 8b 3c 95 af 06 3d 48 4b 60 bd 98 f4 c8 3c
       0.017048288 0.03288229 -0.054759294 0.024530694
000070 5d f0 91 bc 5a 7a 38 3c ce 5d 40 bd 5a a5 2d 3d
       -0.01781481 0.01125964 -0.04696446 0.04239402
000080 38 56 03 bc 5f 6b 35 3d a4 2d bb 3c f3 b4 9c 3c
       -0.008016162 0.04429185 0.022848912 0.019129252
000090 4c 48 e6 3c 7d f1 46 3d d6 ef 4d 3c ee ec 73 3d
       0.028110646 0.048570145 0.012569388 0.059552126
0000a0 ed e9 53 bd 25 14 61 3d 94 28 19 3d 91 91 8b bc
       -0.05173676 0.054950852 0.037392214 -0.017037185
0000b0 da 13 d8 3c b8 e4 03 bd 98 f8 c4 bc 70 30 39 bd
       0.026376653 -0.032200545 -0.02404432 -0.04521221
0000c0 45 ac 81 bb bf dd 92 3c 0b 5d 5e 3d 11 43 c5 bc
       -0.0039573037 0.017928002 0.05428795 -0.024079831
0000d0 9f a0 60 bd b8 f6 a7 3b 53 fd 16 3d 37 03 bd 3c
       -0.05484068 0.0051258467 0.036862683 0.023072822
0000e0 1d 2b 35 bd 89 65 97 bc 97 d0 c7 bc e4 b8 07 bd
       -0.04423057 -0.018481033 -0.024391456 -0.03313531
0000f0 a4 0b 0a 3b 40 f2 73 3d 7e 4d 39 bd e7 28 34 bc
       0.0021064067 0.0595572 -0.045239918 -0.01099608
000100 37 40 09 bb a5 59 49 3d 2e 19 c0 bc 3b 1a 92 3c
       -0.0020942816 0.049157757 -0.023449507 0.017834773
000110 05 2f 83 bc 8a d7 2a 3d 1f 13 5f bd 5e f1 fc 3c
       -0.016013632 0.04170946 -0.054461595 0.030876812
000120 8b e3 6b bd 3b 61 4c bd 6f b9 29 3d 30 ec e5 3b
       -0.05759005 -0.049897414 0.04143661 0.007016681
000130 8a a1 17 bd d2 a0 7c bb f9 de 2c bd 7a ea 24 bb
       -0.03701929 -0.0038548005 -0.04220483 -0.0025164173
000140 e4 73 0c 3d b7 a4 93 bc bc 9c 13 3d 09 68 41 bb
       0.03429021 -0.018022878 0.036038145 -0.0029511473
000150 ec 87 6f 3d a8 91 1e 3d 8d 33 ca bc 9b e9 1f bd
       0.058479235 0.038713127 -0.024682784 -0.039041143
000160 00 be 47 bd 83 d6 8c bc 1f 84 3a bd 2c 26 77 bd
       -0.048765182 -0.01719213 -0.045536157 -0.060339138
000170 46 22 11 3d 7c 28 5a 3d 5e f4 4b 3d c2 75 74 bd
       0.035433076 0.053261265 0.049793594 -0.059682615
000180 20 17 55 bd e7 04 93 3c f9 72 06 bd 75 22 88 bc
       -0.052024007 0.017946674 -0.03282449 -0.016617993
000190 ce 85 a6 3c 48 3c f6 bb 14 b0 f5 bc 8e 9e e1 bb
       0.020327475 -0.0075145103 -0.029991187 -0.0068853563
0001a0 59 cc 63 bb 88 a1 a1 bc 55 20 49 3d 89 8e 78 ba
       -0.0034759252 -0.019730344 0.0491031 -0.00094816886
0001b0 81 da 20 bd ec b3 bc bc 3e a8 2d 3b 12 20 2a 3d
       -0.03927088 -0.023035012 0.0026497985 0.04153449
0001c0 e1 eb 65 bd 50 48 bf 3c 5b 03 71 bd 8a ab 13 bd
       -0.056133155 0.023349911 -0.05884109 -0.036052264
0001d0 17 4b 19 bd 67 78 78 bb 1d 69 28 3c ad 81 61 3d
       -0.037425127 -0.0037913562 0.010278967 0.05505531
0001e0 87 53 0b 3d 9b b7 76 bc 91 d7 8e bc 52 dd 89 3b
       0.034015205 -0.015058423 -0.017436774 0.0042072916
0001f0 bc 77 25 3d 5a c5 3c 3d 81 95 e1 3c d4 e9 f0 ba
       0.04039739 0.046086647 0.02753711 -0.0018380233
000200 c9 3f 27 3d 5b 6a c8 3c 06 c3 f2 3c 4d 64 77 3d
       0.040832315 0.024464777 0.02963401 0.06039839
000210 41 c9 bb 3b dc f4 78 bd 04 4a 12 3d 7b e1 58 3d
       0.0057307784 -0.06078039 0.035715118 0.05294941
000220 67 bf 0c 3d f9 25 11 3d 26 dc 1d 3c 45 a0 3f 3d
       0.034362223 0.035436604 0.009635007 0.046783704
000230 d1 52 4b bd 20 32 e4 bb cf 79 3f 3c e8 c7 11 bd
       -0.049639527 -0.006963983 0.011686756 -0.035591036
000240 d8 29 18 3d de 65 26 bd 67 9c a4 bb 2f 9e 89 bc
       0.03714928 -0.040624492 -0.0050235274 -0.01679906
000250 62 a3 7c bd 4d 6e 69 3d 36 4e 4f 3d 26 71 d9 3b
       -0.06167925 0.056989957 0.050611697 0.006635803
000260 b5 bb eb bc bb e2 8c bc 0e 10 bf 3c e2 8b 62 bd
       -0.02877603 -0.017197957 0.023323085 -0.055309184
000270 e4 3d 58 3d 50 41 01 bd bb c5 c0 bc 7d d3 6b bd
       0.0527934 -0.031556427 -0.023531785 -0.057574738
000280 dc 4e 2b 3c 4c 95 35 bd 59 9b 4b bd dd ec cf 3c
       0.010455813 -0.044331834 -0.049708698 0.0253815
000290 65 4e d8 3b f0 1d 25 bc aa 03 73 3d 03 e4 42 bd
       0.006601142 -0.010077938 0.059329666 -0.04758073
0002a0 7f 58 36 3d c5 a8 a7 3c b2 44 1b bc 9d 57 83 3c
       0.04451799 0.020466218 -0.009476827 0.016032988
0002b0 e3 e6 b8 3c c1 ca 2b bc 33 d6 7a 3d 0d 5e 26 bc
       0.022571033 -0.010485352 0.061239433 -0.010154259
0002c0 89 00 a4 3a 3a 27 ac bc 79 34 17 3d 4a f5 42 3d
       0.0012512367 -0.021014798 0.036915276 0.047597207
0002d0 d6 3c 1f bd b3 a7 00 bd 45 25 e4 3c c6 a3 30 bd
       -0.038876377 -0.03140993 0.027849803 -0.043124937
0002e0 41 36 0e 3d b0 4e 86 3b 10 5e 8b 3c c3 06 7b 3d
       0.03471971 0.0040987357 0.017012626 0.061285745
0002f0 80 08 57 3d b4 35 4f bc f6 51 bf bc 13 7a af ba
       0.05249834 -0.012647081 -0.023354512 -0.0013387821
000300 2e dd fd 3b ae a1 35 bd 0c a8 87 3c fa 32 26 3d
       0.007747314 -0.044343643 0.016559623 0.04057596
000310 41 72 9f 3c 51 0b 37 bd 4c 7f e5 bb 6f 36 04 3c
       0.01946366 -0.044688527 -0.0070037004 0.008069619
000320 2f a9 0c bc a0 3d 19 3d bb 9f 08 3c e8 79 6b bd
       -0.008585258 0.037412286 0.008338864 -0.057489306
000330 c3 fd ae 3c 77 68 a7 bc 1c 4e 62 bd f3 07 42 3d
       0.021361237 -0.020435555 -0.055250272 0.047370862
000340 53 86 a8 bc 34 03 45 bd 33 5d 28 3d 23 3d 78 3d
       -0.020571863 -0.048098758 0.041104507 0.06060518
000350 4a 15 77 bc 15 f1 4b 3d 36 20 ae 3c 44 15 d6 bc
       -0.015080759 0.04979046 0.021255594 -0.026133187
000360 a2 6e 76 3c b8 ef 14 3b 0b e4 64 bc 6d a8 60 3c
       0.015041025 0.0022725891 -0.013970385 0.013712031
000370 4d d2 1b bc c2 6d 73 bd 50 17 3d bc 44 99 b8 3c
       -0.009510589 -0.059430845 -0.011541203 0.02253402
000380 95 c7 5f bd 70 4f 60 3d b6 29 46 bd 19 bb ac 3b
       -0.054633696 0.054763258 -0.048379622 0.005271327
000390 3c a1 f8 bc 22 18 28 3d 96 d7 79 3d 0a f0 8f 3c
       -0.03035032 0.04103864 0.060996614 0.017570514
0003a0 18 3e 35 bc 56 53 60 bc e6 46 da 3c c6 a2 83 bb
       -0.011062168 -0.013691744 0.026645135 -0.004017207
0003b0 eb f5 b6 3c fb 68 01 bd 33 e6 3c bb 74 f4 87 bc
       0.02233406 -0.031594258 -0.0028823733 -0.016596057
0003c0 33 7b 5f bd 30 17 5b bd 5d e6 d6 3b 4e a3 2f bd
       -0.05456085 -0.05348891 0.006558223 -0.04288035
0003d0 0d c1 6f bd b9 7e b3 3c 25 be 45 bc 69 ab ea 3c
       -0.058533717 0.021911012 -0.01206926 0.028646188
0003e0 fb 81 84 bb d2 c8 7c bb 26 12 b8 bb c0 22 c4 bc
       -0.004043815 -0.0038571847 -0.005617398 -0.023942351
0003f0 b8 d0 b2 bb 8c 95 47 bd 80 34 49 bd d7 32 10 3d
       -0.00545701 -0.048726603 -0.049122334 0.035204735

model_cnn.classifier.bias f4 [5]
000000 93 8e 79 3d 4c f9 8e 3b d7 e0 59 bb 54 d2 3e 3d
       0.060926985 0.0043632146 -0.0033245587 0.046587303
000010 fa ff 64 bd
       -0.05590818

model_cnn.domain_classifier.weight f4 [2, 256]
000000 e7 86 46 bd 04 78 31 3d ad ef 6a bc a5 17 1d 3d
       -0.048468497 0.043327346 -0.01433937 0.038352627
000010 65 68 bb bc 5b b4 4e b8 67 4d 0d 3c bb d5 36 3d
       -0.022876928 -4.9282196e-05 0.008624411 0.044637423
000020 43 65 e9 39 21 ef 81 bc f2 87 2a bd 8f 5d 99 3c
       0.0004451667 -0.015861096 -0.041633554 0.01872137
000030 a1 20 04 3c d1 b4 ae bc a4 13 6e bb 3d 03 71 bd
       0.00806442 -0.021326454 -0.0036327625 -0.05884098
000040 ef 54 31 3d dd ac 01 bd ee 7c 66 3d 7d ba 65 3d
       0.04329389 -0.031658996 0.056271486 0.056086052
000050 c6 55 79 3d 6a 65 4c bd 97 56 37 3d 49 38 09 bd
       0.060872816 -0.049901403 0.044760313 -0.033500943
000060 57 ec 67 bd 58 81 4e bc ec 80 22 bd 25 32 44 bd
       -0.056621876 -0.01260408 -0.03967373 -0.047899384
000070 69 81 33 3d e4 dd 7a 3d 25 53 9b bc b8 3b 11 bd
       0.043824587 0.061246768 -0.018960545 -0.035457343
000080 ff 06 11 3d 09 2e cf 3c 19 26 9c bc fa 02 e1 bc
       0.035407063 0.025290506 -0.019061135 -0.02746724
000090 f4 8d af bc f5 74 4a 3d 39 64 b5 bc f3 e2 39 3d
       -0.021429993 0.049427945 -0.022142516 0.04538245
0000a0 6d 7c 42 bd b3 50 49 bd c6 05 92 3c ba ac dd 3c
       -0.047481943 -0.049149226 0.017825019 0.027059902
0000b0 1e 8e 1a 3c 7a 39 3f 3d 93 db 8f 3c 72 43 61 3d
       0.009433297 0.046685673 0.017560756 0.05499596
0000c0 01 19 74 bd e8 f6 89 bc b2 bf 72 3d 25 e6 b8 3c
       -0.059594158 -0.016841367 0.059264846 0.022570679
0000d0 4b 8c 65 bd 8d 11 dd bc 9a 00 33 bd 15 d5 a0 3b
       -0.056041997 -0.026985908 -0.043701746 0.004908214
0000e0 de 2b 10 3a 58 fe ad bc 09 b5 7a bd 54 93 3d 3c
       0.0005499701 -0.021239445 -0.061207805 0.01157077
0000f0 c3 f7 85 bc 7b 63 25 3d ba c4 0a 3d 8d 4e 32 3d
       -0.016353494 0.040378075 0.03387902 0.043531943
000100 40 08 50 bd 6f 9d 7d bd da 4b 67 3c 56 46 ee 3c
       -0.050789118 -0.06191772 0.0141172055 0.029086273
000110 9c 3a 54 39 7a 1f ff 3c e7 28 50 bd c5 cc 2c 3c
       0.00020239729 0.031142939 -0.050820258 0.010546868
000120 eb 35 54 3d bd d6 5f 3d f2 54 60 bd 56 f9 54 bc
       0.051809233 0.05464815 -0.05476851 -0.012998899
000130 10 43 ac 3c f7 1e 00 bd 62 52 00 3c 59 9b 6b bd
       0.021028072 -0.03127953 0.007832142 -0.057521198
000140 4c 93 58 bd 92 cd 81 bc ab d8 27 bd 37 11 23 bb
       -0.05287485 -0.015845094 -0.040978115 -0.0024882087
000150 00 6f 49 3d e3 d4 7d 3d 93 b1 77 bb 7a f8 8e 3c
       0.049178123 0.061970603 -0.0037795051 0.017452467
000160 96 11 16 3b cb 06 32 3d dc d6 41 3d 0f 29 4d 3d
       0.0022898666 0.04346351 0.047324046 0.050087985
000170 24 1e 60 3d ca 39 18 3c 8a a7 c7 3c 3b 89 65 bd
       0.054716244 0.009291122 0.024371881 -0.056039076
000180 f0 15 01 3d b0 bf c8 3c 8a 0e 44 bd 60 65 32 bd
       0.03151506 0.024505466 -0.047865428 -0.04355371
000190 e7 99 8e 3a 68 ac f9 39 8d 1e 6e 3d 85 1d b7 bc
       0.0010879607 0.00047621434 0.058134604 -0.022352943
0001a0 8f 7a 91 3c 14 3d 81 bc df 28 8d bc af 5a 7f 3b
       0.017758636 -0.015776195 -0.017231403 0.0038963964
0001b0 3c 6b 7b bd 9e 05 c7 39 86 1a 3e 3c 6c bc 79 bd
       -0.061381564 0.00037960423 0.011603003 -0.06097071
0001c0 c2 87 96 bb 47 86 32 bd 38 09 b4 bb e5 3b e7 bc
       -0.0045938203 -0.043585088 -0.005494263 -0.028226802
0001d0 03 14 22 3d 2c 81 e3 bc cb d3 76 bd 1f b2 03 3d
       0.039569866 -0.027771555 -0.060260575 0.03215229
0001e0 aa ee 3d bb 93 d5 59 3d 6c 96 67 bd dd df 4d bd
       -0.0028981366 0.053182196 -0.056539938 -0.05026232
0001f0 34 b8 6c bd 6f b3 dd 3c 13 74 4f 3d fd ac 15 bd
       -0.057792857 0.0270631 0.050647806 -0.036541928
000200 1a d4 3a 3c 8f 74 58 bd e3 f0 4a bc 52 c4 0a 3d
       0.011403108 -0.052845534 -0.012386533 0.033878632
000210 67 0a 47 3b d5 ea 1f 3d 61 c8 cb 3c 79 56 ca bb
       0.003037119 0.039042313 0.024875822 -0.006174859
000220 25 95 29 3a ff 8f 67 bd 24 45 00 bd e6 5d b2 bc
       0.00064690626 -0.05653381 -0.031315938 -0.02177329
000230 67 1e 19 3d 35 93 fa 3c 94 83 83 bc 61 c1 88 3a
       0.03738251 0.030587772 -0.016053952 0.0010433608
000240 37 e9 47 3d f6 da 3d bd ed b3 73 3d f2 e9 32 bc
       0.048806395 -0.046351396 0.059497762 -0.010920035
000250 1a 94 50 3d 6c e0 f1 3c 04 6b 63 bd 68 6c f3 3c
       0.05092249 0.029525958 -0.05552198 0.029714778
000260 af ad 3a bc ca ab 41 3d 20 b7 18 3c 1e f0 b8 bc
       -0.011393948 0.04728297 0.009321004 -0.022575434
000270 dd 61 eb 3c 0e ad 7c 3d 09 08 6a bd 4c 3d 4b bd
       0.028733188 0.061688475 -0.05713657 -0.049619004
000280 f4 6f db bc 64 79 82 3c 56 83 96 3c c9 79 6c 3d
       -0.026786782 0.015927024 0.018373173 0.05773333
000290 b7 47 2a 3d a8 e9 73 3d 98 13 76 bd 42 27 94 bc
       0.0415723 0.059549004 -0.06007728 -0.018085126
0002a0 36 7c df bc c2 01 01 3c 98 45 4c 3d b3 9a bb 3c
       -0.027280908 0.007873954 0.049871057 0.022900915
0002b0 91 25 9e 3c 5b 64 a0 bc 88 a8 94 3b cc 68 5c 3d
       0.019305022 -0.019579103 0.004536692 0.05381088
0002c0 13 df c8 3b 59 d3 34 bc a2 22 b2 3b 6b 58 1d 3d
       0.006130108 -0.011036717 0.0054362575 0.0384144
0002d0 2f 6f eb 3c df ed 1a bd cb 3f b4 bb c8 5e 9e 3c
       0.02873954 -0.037824508 -0.005500769 0.019332305
0002e0 98 16 d5 bc ad 26 82 3b 29 a9 73 bb 22 7a e2 bc
       -0.02601175 0.0039718957 -0.0037179685 -0.027646128
0002f0 81 76 24 bd ee 4b 58 bc 27 c4 3f 3d 20 57 42 3d
       -0.040152077 -0.013201697 0.046817925 0.04744637
000300 cb f4 64 3c 17 1f 34 bd d3 ca 21 bb 66 17 c6 3c
       0.013974379 -0.043974962 -0.0024687543 0.02418108
000310 ee a8 25 3d e5 6b d0 bc 39 3c b9 bc 6c c1 02 3c
       0.040444307 -0.025442073 -0.022611724 0.007980686
000320 a3 8a 07 3d 89 68 35 bc bc c2 2c bd f8 9d 4c 3d
       0.0330912 -0.011072286 -0.0421779 0.04995534
000330 50 76 48 3d 14 15 55 3d 81 8e e3 bc 16 9b 38 b9
       0.048940957 0.052022055 -0.027777912 -0.00017605381
000340 39 01 67 3d 18 50 d6 ba 7d 06 41 3d 67 53 68 3d
       0.05639765 -0.0016350774 0.04712533 0.056720164
000350 bb 63 04 3d 15 e7 0a bc 95 a7 6d bd 1b d0 eb 3c
       0.032321673 -0.008477946 -0.058021147 0.028785756
000360 bb 15 74 bd bf 76 5f bd 71 3c 75 bc 92 0c e0 3a
       -0.059591036 -0.054556604 -0.014968024 0.001709359
000370 6d 80 de 3c cf 2c 31 3d b0 e7 39 3d 20 cc 1d 3d
       0.027160848 0.043255623 0.04538697 0.038524747
000380 1e d2 5d 3b ce 42 27 bd 51 ab 06 bd be 8d 28 3d
       0.0033847163 -0.040835194 -0.032878224 0.0411508
000390 27 1d 9f 3b 7a 94 08 bd 50 c8 4d bd be c9 3b bd
       0.00485577 -0.033344723 -0.05023986 -0.045846693
0003a0 08 2c 59 3d 7a 18 f5 bb 61 be ef bc 05 c4 27 3d
       0.053020507 -0.0074797245 -0.029265584 0.040958423
0003b0 ac 18 80 3c ae c8 e9 3c dc 43 5a bc 67 43 02 bd
       0.015636764 0.028538074 -0.013321843 -0.03180256
0003c0 c5 3e 58 3d 8c 5a 56 bd cc 33 3d bd 80 e3 db bc
       0.052794237 -0.052332446 -0.046191975 -0.026841879
0003d0 96 73 81 bc 5c 75 66 3d ce f4 64 bd 99 44 f1 3c
       -0.015802186 0.056264266 -0.055897526 0.029451655
0003e0 85 8e 68 3d 8a 9e b6 3b 94 6d e9 bc e0 82 2c bd
       0.056776542 0.0055730985 -0.028494634 -0.042117
0003f0 4c 7a 42 bd 8d 62 22 3d 02 5c 14 3d 92 97 f0 bc
       -0.047479913 0.039644767 0.036220558 -0.02936915

model_cnn.domain_classifier.bias f4 [2]
000000 79 78 79 3c 22 94 45 bd
       0.015226477 -0.048236974
