checkpoint/pretrain_cnn_features_1d_sa_lirich_1116/best_model.pth (torch, 906722 bytes, 37 tensors)

model_cnn.conv_layers.0.0.weight f4 [16, 21, 15]
-0.049698617 0.03961148 -0.042643566 -0.046486292 -0.03729357 0.023826815 -0.022509312 0.019393696
-0.049511235 -0.035875775 -0.022378812 -0.012763429 -0.04467324 0.035196763 -0.014972936 0.017611794
0.041537996 0.012157504 0.016393594 0.052595142 -0.024316663 0.015952954 -0.027018994 0.039470777
0.043247383 -0.053936705 0.05000266 0.028281003 0.022609124 0.023738697 0.046519324 -0.005918118
-0.046159852 -0.015297732 -0.041524373 0.004731887 -0.0124277705 -0.032173 -0.005958808 0.05162807
-0.006422763 0.003702574 -0.010774764 0.006906002 0.05081162 0.03578562 0.0210436 0.01313665
0.013636932 0.019822601 -0.0068139755 -0.051465873 -0.033509333 0.046525035 0.005351356 -0.04522102
0.008259248 0.0445696 -0.055187292 -0.03716896 -0.021063678 0.0033215126 -0.01220514 -0.005796465
-0.056869082 0.026854383 0.050473277 0.03587337 -0.04147806 -0.043419193 0.024215396 0.00065202656
0.021149902 -0.056981377 -0.0026074105 0.03917962 0.02561701 0.0036479456 0.011994618 -0.00481855
-0.032910727 -0.020672834 -0.03231496 0.048795238 0.03294839 0.021700451 -0.04122306 0.045468953
0.019652363 0.040966082 -0.02158746 0.013117208 0.05319902 0.03591835 0.04421483 -0.010293036
0.044836786 -0.04213475 0.0041925977 -0.029892495 -0.011390692 -0.0124281 0.0023254738 0.049324602
0.029514456 0.0010394044 0.040927544 -0.028025296 0.029372849 -0.007151095 -0.009383418 0.007458672
-0.041938987 0.0048907152 0.020914456 0.0461889 -0.018417457 0.018318735 0.054382313 -0.023581654
0.054793507 -0.027052395 0.025645325 0.02237728 0.013808344 0.044975225 -0.022011356 0.015904821
-0.0012964938 -0.04054115 -0.015681505 -0.03854453 0.022920707 0.0031168305 0.0061211144 -0.01651985
-0.0016449802 -0.01914245 0.014330779 0.052917153 0.0097523 -0.023084098 -0.034952246 0.0027549164
-0.040035605 -0.04434517 -0.037297606 -0.020912495 0.0027204205 0.0404271 0.022362577 0.041279763
-0.03699278 0.0029046307 -0.051864505 0.033575915 0.013603773 0.054048058 -0.04159684 0.046897322
0.04561332 0.044953614 0.0061828485 0.049806576 0.0392838 0.040284216 -0.0017557163 -0.044953413
-0.0014664823 0.0099726375 -0.037195053 -0.032974705 -0.052061647 -0.021480264 0.050331704 0.011279602
-0.0039529405 0.00026523322 0.03399576 -0.048026387 -0.041611727 -0.016767679 -0.030684218 0.030241689
0.04055642 -0.05412499 -0.04731499 -0.054373242 0.019349262 0.04358758 -0.04521035 -0.027069714
0.016448094 -0.038608596 0.045861404 0.013824906 -0.017678875 0.0016775035 0.01573284 -0.01818121
-0.04178526 0.0023783701 0.0030071866 0.0030828554 -0.0063151564 0.03814703 -0.013831166 -0.0037097216
0.024671227 -0.033750575 0.016969435 -0.0105185015 0.02871203 -0.029437196 0.0027926993 0.006033854
-0.044865005 -0.040512282 0.019700617 -0.018243872 0.03155937 -0.05683997 -0.029461754 -0.04830412
0.020506402 -0.00092796434 -0.01250617 -0.011354086 -0.045859855 0.017783677 0.0033287185 -0.03688486
0.02319402 0.0008309057 -0.05256696 0.0322882 0.03202452 -0.008877353 -0.037395682 0.0039859572
0.04416331 0.052497063 -0.04180129 -0.024875237 0.044160243 0.028099626 0.033960976 -0.026066575
0.050423365 -0.044318564 -0.0007214645 0.0031625717 0.011444216 -0.04063851 0.05350749 0.056070775
00000000: c790 4bbd a63f 223d 05ab 2ebd 6968 3ebd
00000010: 24c1 18bd 7430 c33c 7365 b8bc 87df 9e3c
00000020: 4bcc 4abd 7af2 12bd c553 b7bc b41d 51bc
00000030: 4afb 36bd 7b2a 103d 0c51 75bc 9c46 903c
00000040: bf23 2a3d 4530 473c dc4b 863c 016e 573d
00000050: bd33 c7bc c5af 823c f056 ddbc 1cac 213d
00000060: 2b24 313d bcec 5cbd 97cf 4c3d 90ad e73c
00000070: c536 b93c a877 c23c 0c8b 3e3d c6ec c1bb
00000080: 1d12 3dbd 57a3 7abc 7615 2abd f20d 9b3b
00000090: d99d 4bbc d6c7 03bd 1b42 c3bb f577 533d
000000a0: 0b76 d2bb e2a6 723b a388 30bc be4b e23b
000000b0: d81f 503d f193 123d a163 ac3c 1b3b 573c
000000c0: 706d 5f3c 0263 a23c c547 dfbb e1cd 52bd
000000d0: 1541 09bd 0991 3e3d 6e5a af3b ad39 39bd
000000e0: cc51 073c 9d8e 363d 120c 62bd 7b3e 18bd
000000f0: bc8d acbc bcad 593b 11f8 47bc 46f0 bdbb
00000100: 8eef 68bd b9fd db3c 11bd 4e3d f4ef 123d
00000110: e6e4 29bd 53d8 31bd 5e5f c63c c3ec 2a3a
00000120: 8f42 ad3c 4e65 69bd 17e1 2abb cf7a 203d
00000130: c4da d13c 5f12 6f3b 1385 443c ede4 9dbb
00000140: 66cd 06bd 135a a9bc b15c 04bd 84dd 473d
00000150: e4f4 063d 25c5 b13c 83d9 28bd a73d 3a3d
00000160: fefd a03c 0dcc 273d 2fd8 b0bc 8fe9 563c
00000170: 37e7 593d 1f1f 133d 9c1a 353d 1fa4 28bc
00000180: c7a6 373d 7d95 2cbd 0f62 893b 1be1 f4bc
00000190: 06a0 3abc 3b9f 4bbc fa66 183b 9808 4a3d
000001a0: 4dc8 f13c a03c 883a a4a3 273d 4e95 e5bc
000001b0: 549f f03c bc53 eabb e8bc 19bc e067 f43b
000001c0: 37c8 2bbd 4b42 a03b cb54 ab3c 9230 3d3d
000001d0: 35e0 96bc 2c11 963c fdbf 5e3d 502e c1bc
000001e0: 286f 603d fc9c ddbc 2516 d23c 8f50 b73c
000001f0: 643c 623c f137 383d 2951 b4bc d44a 823c
00000200: 1def a9ba 7a0e 26bd 8076 80bc dee0 1dbd
00000210: 35c4 bb3c bd43 4c3b a193 c83b a354 87bc
00000220: 609c d7ba a1d0 9cbc a5cb 6a3c a8bf 583d
00000230: 1cc8 1f3c dd1a bdbc 162a 0fbd d48b 343b
00000240: 60fc 23bd 48a3 35bd 60c5 18bd ae50 abbc
00000250: 1549 323b e396 253d b931 b73c f814 293d
00000260: be85 17bd 9e5b 3e3b e06f 54bd e686 093d
00000270: 5ce2 5e3c 7f61 5d3d 7361 2abd 6817 403d
00000280: 08d5 3a3d 4821 383d 7e99 ca3b fb01 4c3d
00000290: 0de8 203d 1001 253d 1020 e6ba 1221 38bd
000002a0: fb36 c0ba 4664 233c d759 18bd 7c10 07bd
000002b0: 983e 55bd 61f7 afbc 9e28 4e3d 14ce 383c
000002c0: ab87 81bb 000f 8b39 233f 0b3d 51b7 44bd
000002d0: 0f71 2abd 5f5c 89bc 785d fbbc 6bbd f73c
000002e0: 7d1e 263d 2ab2 5dbd 5dcd 41bd 7ab6 5ebd
000002f0: 5882 9e3c e488 323d 7d2e 39bd 4ec1 ddbc
00000300: 27be 863c 0c24 1ebd 2bd9 3b3d dc81 623c
00000310: 4ad3 90bc addf db3a 28e2 803c c3f0 94bc
00000320: 0527 2bbd 6ede 1b3b 3814 453b bb09 4a3b
00000330: 5fef cebb 0f40 1c3d 1d9c 62bc cd1e 73bb
00000340: 501b ca3c 0b3e 0abd 7c03 8b3c cb55 2cbc
00000350: 7e35 eb3c 4626 f1bc b805 373b a3b7 c53b
00000360: 5ec4 37bd 35f0 25bd 3063 a13c 2c74 95bc
00000370: 6644 013d 07d1 68bd c759 f1bc 8ada 45bd
00000380: 0bfd a73c a242 73ba aee6 4cbc 7d06 3abc
00000390: 8bd7 3bbd 13af 913c a126 5a3b 9414 17bd
000003a0: 6301 be3c 23d1 593a 7450 57bd a240 043d
000003b0: 252c 033d 5172 11bc 372c 19bd a29c 823b
000003c0: 96e4 343d 2907 573d d437 2bbd 27c7 cbbc
000003d0: 5fe1 343d 3031 e63c aa1a 0b3d 9289 d5bc
000003e0: bb88 4e3d 6287 35bd aa20 3dba 2643 4f3b
000003f0: 8580 3b3c 9174 26bd ab2a 5b3d 78aa 653d

model_cnn.conv_layers.0.0.bias f4 [16]
-0.004372391 -0.03719691 -0.037726723 0.014765759 -0.045507997 -0.05389071 -0.045783512 0.015158117
-0.01043468 0.024841687 -0.010155122 0.048623923 -0.046633407 -0.04649079 0.045085616 0.00088874873
00000000: 4646 8fbb c95b 18bd 5687 1abd 15ec 713c
00000010: 9866 3abd 81bc 5cbd 7e87 3bbd c059 783c
00000020: 38f6 2abc cb80 cb3c ab61 26bc e129 473d
00000030: ac02 3fbd 206d 3ebd b2ab 383d ebfa 683a

model_cnn.conv_layers.0.1.weight f4 [16]
1.0019844 1.0009595 0.99955577 1.0017673 1.0019122 1.0011061 0.998196 0.99812984
1.0016105 0.9994001 0.9997053 0.999467 0.9981438 0.9980091 1.0014977 0.998042
00000000: 0641 803f 711f 803f e3e2 7f3f e939 803f
00000010: a93e 803f 3f24 803f c689 7f3f 7085 7f3f
00000020: c634 803f afd8 7f3f b0ec 7f3f 12dd 7f3f
00000030: 5a86 7f3f 867d 7f3f 1431 803f ae7f 7f3f

model_cnn.conv_layers.0.1.bias f4 [16]
0.0020000753 0.0009825806 0.001831728 0.0019462437 0.0019752732 0.0005785265 -0.0004274826 -0.0013606967
0.0018545416 -0.0004950863 0.0015975372 -0.0006696922 0.0016074893 -0.0020013526 0.0019350324 -0.001988417
00000000: b213 033b efc9 803a 9816 f03a 1a19 ff3a
00000010: 9673 013b 42a8 173a be1f e0b9 6859 b2ba
00000020: 1714 f33a aec8 01ba 7464 d13a 488e 2fba
00000030: 64b2 d23a 2029 03bb eaa0 fd3a 1a50 02bb

model_cnn.conv_layers.0.1.running_mean f4 [16]
0.0122179985 0.011588546 -0.007178547 0.044633035 -0.0011517562 0.041228972 0.0033971106 0.008564312
0.0018379457 -0.024572054 0.0080872215 -0.0021184527 -0.0054708296 -0.0026389388 0.027010294 -0.02723061
00000000: 002e 483c e3dd 3d3c 043a ebbb 21d1 363d
00000010: 86f6 96ba b6df 283d 0fa2 5e3b 5451 0c3c
00000020: 39e7 f03a 554b c9bc 4480 043c bdd5 0abb
00000030: a544 b3bb 0cf2 2cbb b144 dd3c ba12 dfbc

model_cnn.conv_layers.0.1.running_var f4 [16]
0.85498613 0.8776026 0.89635974 0.85583305 0.88649946 0.9010967 0.8848348 0.87168
0.8578623 0.8702397 0.86468154 0.8511449 0.85834205 0.86747915 0.87688833 0.99071085
00000000: 5fe0 5a3f 90aa 603f d577 653f e017 5b3f
00000010: a1f1 623f 46ae 663f 8984 623f 6c26 5f3f
00000020: dd9c 5b3f 07c8 5e3f c55b 5d3f a2e4 593f
00000030: 4ebc 5b3f 1d13 5e3f c17b 603f 3a9f 7d3f

model_cnn.conv_layers.1.0.weight f4 [32, 16, 3]
0.14538693 0.050764978 -0.061148286 -0.0319517 0.13582873 0.008435914 0.0067163506 0.0655039
0.014742597 0.016137948 -0.13381849 -0.02136579 -0.030517032 0.09932381 0.053062428 -0.14336827
-0.12179924 0.049835075 -0.11241632 0.07967304 -0.079897076 -0.012819209 0.09744284 -0.048764076
-0.115977585 -0.1297772 0.02335463 0.026748745 -0.021436004 0.014285216 -0.11601178 0.13563907
0.090089284 -0.013537293 0.14220235 0.13241011 -0.12413281 0.054748107 0.14017281 0.13901149
0.042623404 0.01368552 0.043943614 0.04628641 0.11152878 -0.08604834 0.13862132 -0.09436458
0.05721077 0.11333592 0.044341348 0.09806175 0.05014245 0.054010652 0.12466866 -0.004413645
-0.0048858207 0.077410616 -0.06907508 0.12813522 0.08656929 0.117260404 -0.08913353 0.05618063
0.10792192 -0.04416847 -0.06658079 0.029158488 -0.08131837 -0.076401554 -0.030069588 0.13209492
-0.04569759 0.053779542 -0.008882627 -0.066719875 0.115766175 -0.11156544 0.009490148 0.044602923
-0.0076564797 0.09638678 -0.06636526 -0.034951825 -0.09950593 0.07676248 0.061416708 -0.05002496
-0.09043406 -0.013472332 0.004746863 0.027155181 -0.109756075 0.09088295 0.1340482 0.09071828
-0.004386702 0.017955048 -0.008708452 0.042927753 0.13282073 -0.09393685 -0.019829407 0.093340136
0.038553476 0.13621324 -0.1381029 0.044509117 0.015882045 -0.02735745 -0.12781106 0.020423044
0.13800807 0.09523967 -0.13023634 0.06572453 -0.10798505 0.10990916 0.012004266 0.012871138
0.14192128 -0.11019292 -0.12977222 -0.06508899 -0.038137645 -0.0914315 -0.008049399 -0.08802287
0.051426306 -0.038833205 0.08084769 0.06612371 0.13686721 -0.093297645 -0.012284741 -0.0057234825
-0.121340685 0.117925145 0.08873338 0.10037257 -0.04821657 -0.07814819 0.07369919 0.021373443
0.019944156 -0.02904849 -0.13616003 0.09439252 -0.08097119 0.099244654 -0.03968703 -0.040434465
0.038664598 0.04399401 0.12554283 -0.054754104 0.061285377 0.06326535 -0.00780612 -0.13458972
-0.021599852 0.11539473 -0.120414585 0.015381114 -0.07556006 -0.07207556 0.11363481 -0.008933228
0.04934403 0.033592958 -0.10055633 -0.14385878 -0.09239772 -0.028931558 -0.06533581 -0.038860977
0.057648268 -0.012088113 0.012328859 -0.06830829 0.099283874 -0.06762893 -0.004783895 0.08135413
0.1277912 -0.0787192 -0.1339689 -0.117827855 0.028963035 0.061224792 -0.06452465 -0.11280853
-0.026323244 -0.03870469 -0.09265547 -0.13907972 -0.101787955 -0.0059546316 0.07649883 -0.10752641
-0.053487457 -0.11174801 0.06856458 -0.012214651 0.09000949 0.016026793 -0.029213635 0.12686828
0.09113207 0.13243783 -0.100316815 0.06528173 -0.093086995 -0.090295225 0.106517285 0.06591896
-0.084365375 -0.09745263 -0.074674204 0.10942797 0.047949735 0.0059587844 -0.097391084 0.046871085
-0.03161259 0.086817324 0.03512747 0.06303169 -0.04710817 -0.0007493197 -0.07823797 0.031238262
-0.013325235 -0.12191564 0.077975444 0.056812253 0.08440465 0.06328622 0.015953925 0.1042055
-0.1271046 0.03796977 0.11637187 -0.02421231 0.10966397 0.057886444 0.122995354 0.12555048
0.065141775 0.014229238 -0.121525675 -0.054700155 -0.12884836 -0.021310488 0.08954659 0.07907531
00000000: 50e0 143e f0ee 4f3d a076 7abd c9df 02bd
00000010: b016 0b3e ca36 0a3c d514 dc3b e926 863d
00000020: ef8a 713c bb33 843c b707 09be 4f07 afbc
00000030: dbfe f9bc 486a cb3d fd57 593d 22cf 12be
00000040: e171 f9bd dd1f 4c3d 873a e6bd 9e2b a33d
00000050: 14a1 a3bd a907 52bc 1d90 c73d d7bc 47bd
00000060: a885 edbd 50e4 04be 3652 bf3c 2f20 db3c
00000070: 8f9a afbc 8a0c 6a3c 9697 edbd f8e4 0a3e
00000080: bb80 b83d 86cb 5dbc 7e9d 113e 8496 073e
00000090: 5839 febd 8d3f 603d 7689 0f3e 0759 0e3e
000000a0: e195 2e3d 3b39 603c 38fe 333d d296 3d3d
000000b0: 3369 e43d 1d3a b0bd bff2 0d3e 3842 c1bd
000000c0: d755 6a3d aa1c e83d 469f 353d 99d4 c83d
000000d0: 2b62 4d3d 463a 5d3d 4852 ff3d 56a0 90bb
000000e0: 3c19 a0bb 7589 9e3d 3c77 8dbd e135 033e
000000f0: 3d4b b13d 3926 f03d a48b b6bd a91d 663d
00000100: 2b06 dd3d ffe9 34bd 825b 88bd c8dd ee3c
00000110: 3f8a a6bd 6b78 9cbd 7f54 f6bc e443 073e
00000120: 652d 3bbd f047 5c3d 7088 11bc 6ea4 88bd
00000130: d116 ed3d 6c7c e4bd 917c 1b3c 8eb1 363d
00000140: 35e3 fabb 6f66 c53d 82ea 87bd a529 0fbd
00000150: c4c9 cbbd a635 9d3d 1690 7b3d f9e6 4cbd
00000160: 7e35 b9bd 0ebb 5cbc 938b 9b3b 8b74 de3c
00000170: cbc7 e0bd d720 ba3d ee43 093e 81ca b93d
00000180: 53be 8fbb 7716 933c e5ad 0ebc 03d5 2f3d
00000190: 2802 083e f761 c0bd 4871 a2bc 1d29 bf3d
000001a0: 40ea 1d3d 7c7b 0b3e d96a 0dbe 314f 363d
000001b0: 101b 823c bb1c e0bc e7e0 02be 3a4e a73c
000001c0: fd51 0d3e 040d c33d ad5c 05be 959a 863d
000001d0: 4427 ddbd 0e18 e13d 8aad 443c 77e1 523c
000001e0: d053 113e d3ac e1bd 02e3 04be 604d 85bd
000001f0: 3836 1cbd 7040 bbbd a0e1 03bc 5645 b4bd
00000200: 64a4 523d 910f 1fbd 7993 a53d de6b 873d
00000210: eb26 0c3e d612 bfbd f045 49bc 0d8c bbbb
00000220: 7781 f8bd bd82 f13d d9b9 b53d 2290 cd3d
00000230: bd7e 45bd 290c a0bd 9aef 963d 5c17 af3c
00000240: ed61 a33c 19f7 edbc 896d 0bbe de50 c13d
00000250: 39d4 a5bd c840 cb3d de8e 22bd 9c9e 25bd
00000260: c55e 1e3d 1033 343d 4d8e 003e d745 60bd
00000270: 6006 7b3d 4491 813d 7bca ffbb e3d1 09be
00000280: 2cf2 b0bc 1254 ec3d ec9b f6bd 1101 7c3c
00000290: 3cbf 9abd 5a9c 93bd 5eb9 e83d ad5c 12bc
000002a0: f71c 4a3d c598 093d 7af0 cdbd b74f 13be
000002b0: 043b bdbd e001 edbc c8ce 85bd b02c 1fbd
000002c0: 9720 6c3d 390d 46bc fcfe 493c 37e5 8bbd
000002d0: 5855 cb3d 0981 8abd 38c2 9cbb fe9c a63d
000002e0: b2db 023e 8837 a1bd 252f 09be bb4f f1bd
000002f0: e343 ed3c d9c6 7a3d 8025 84bd 2908 e7bd
00000300: d8a3 d7bc cf88 1ebd 27c2 bdbd ea6a 0ebe
00000310: 3476 d0bd 121f c3bb 6bab 9c3d ce36 dcbd
00000320: aa15 5bbd 24dc e4bd 966b 8c3d f61f 48bc
00000330: e556 b83d 9f4a 833c 6f51 efbc c2e9 013e
00000340: 73a3 ba3d c89d 073e e772 cdbd 6db2 853d
00000350: 65a4 bebd b4ec b8bd bc25 da3d 8500 873d
00000360: c1c7 acbd 3f95 c7bd caee 98bd c61b e03d
00000370: f166 443d e841 c33b fa74 c7bd e5fb 3f3d
00000380: 347c 01bd 48cd b13d d2e1 0f3d c216 813d
00000390: 7ff4 40bd fe6d 44ba 3b3b a0bd 62e7 ff3c
000003a0: 1652 5abc e8ae f9bd 97b1 9f3d f7b3 683d
000003b0: 58dc ac3d 359c 813d ceb1 823c b169 d53d
000003c0: b527 02be 3186 1b3d 6054 ee3d e558 c6bc
000003d0: 8197 e03d 561a 6d3d fde4 fb3d 4e90 003e
000003e0: 0d69 853d c021 693c 74e2 f8bd 450d 60bd
000003f0: d3f0 03be 5593 aebc 3464 b73d 3cf2 a13d

model_cnn.conv_layers.1.0.bias f4 [32]
-0.039420523 -0.013270261 -0.004712752 0.07770643 0.06100558 -0.13006587 0.06252197 0.13351141
-0.10579211 0.09013569 -0.10998545 -0.009553719 0.071869396 0.12037331 -0.09253717 -0.12918396
-0.0721644 0.13604747 0.041380297 -0.07285374 -0.0746188 -0.065998115 -0.101200245 -0.09142073
-0.062882066 0.11343199 -0.017015083 0.032759406 0.07002814 0.03403024 -0.073687196 -0.08634174
00000000: 6a77 21bd 826b 59bc 6e6d 9abb 8c24 9f3d
00000010: fde0 793d fd2f 05be 850b 803d 37b7 083e
00000020: 89a9 d8bd 1099 b83d 0d40 e1bd 3487 1cbc
00000030: 4330 933d 4886 f63d 2184 bdbd cd48 04be
00000040: eeca 93bd 0750 0b3e 637e 293d 5734 95bd
00000050: bed1 98bd 052a 87bd 1342 cfbd cb3a bbbd
00000060: 50c8 80bd 084f e83d 3763 8bbc ba2e 063d
00000070: ea6a 8f3d 4b63 0b3d 50e9 96bd f0d3 b0bd

model_cnn.conv_layers.1.1.weight f4 [32]
0.9981166 1.0018445 0.9984345 1.0019702 1.0019591 0.99800813 0.9996536 1.0011759
1.0010617 0.9980194 0.9989239 1.001841 0.999523 1.0016809 0.9996165 1.0005459
0.9981836 1.0019761 1.000877 0.9982425 1.0017961 1.0019484 1.0009983 0.9981617
1.0011687 0.9980087 0.9984091 0.9990098 1.0012802 1.0018452 1.0019989 1.0002804
00000000: 9284 7f3f 713c 803f 6799 7f3f 8f40 803f
00000010: 3240 803f 767d 7f3f 4ce9 7f3f 8826 803f
00000020: ca22 803f 337e 7f3f 7ab9 7f3f 533c 803f
00000030: bde0 7f3f 1437 803f dee6 7f3f e311 803f
00000040: f688 7f3f c140 803f bd1c 803f d28c 7f3f
00000050: db3a 803f d83f 803f b620 803f 8687 7f3f
00000060: 4c26 803f 807d 7f3f bd97 7f3f 1bbf 7f3f
00000070: f329 803f 773c 803f 8041 803f 3009 803f

model_cnn.conv_layers.1.1.bias f4 [32]
-0.0019982469 0.0018491722 -0.0012051854 0.0018006555 -0.00064194703 0.0014696094 -0.00040358538 -0.00081023993
0.0009821887 -0.001409299 0.0018256803 0.0020009312 -0.0016697363 -0.0019529539 -0.0009808989 0.0005536472
-0.0017952207 0.0020002436 0.0015319732 -0.0019066844 0.0018742428 0.0017856567 0.001830382 -0.0015357204
0.0019961298 -0.0019848854 -0.0003858182 -0.00065561075 -0.00195347 0.0019249304 -0.0016754193 -0.0018137398
00000000: 05f5 02bb ec5f f23a 50f7 9dba f903 ec3a
00000010: 5648 28ba e99f c03a 5098 d3b9 4866 54ba
00000020: c9bc 803a 3ab8 b8ba aa4b ef3a 0e22 033b
00000030: 0edb daba 42fa ffba 8191 80ba a222 113a
00000040: 9c4d ebba 8516 033b 7ecc c83a b6e9 f9ba
00000050: 27a9 f53a b20c ea3a 6ee9 ef3a 3a4a c9ba
00000060: 80d1 023b da14 02bb a447 cab9 4bdd 2bba
00000070: ca05 00bb f24d fc3a be99 dbba 02bb edba

model_cnn.conv_layers.1.1.running_mean f4 [32]
0.030275198 0.065691784 0.029991135 -0.025743932 0.020144604 -0.025395941 0.028337024 0.030508421
-0.1012789 0.051853463 -0.016289521 0.04490442 0.017932355 -0.021362346 -0.030707235 -0.0037014508
-0.00020652966 0.034067735 0.010159827 -0.088335976 0.019112743 -0.04772356 0.0016973093 -0.010259986
0.0025575398 0.045986738 -0.008377171 -0.007225318 -0.012095749 0.05067849 -0.0119412895 -0.020916538
00000000: b103 f83c 6a89 863d f8af f53c f0e4 d2bc
00000010: 4c06 a53c 260b d0bc 0c23 e83c ccec f93c
00000020: 506b cfbd 4c64 543d 9a71 85bc b2ed 373d
00000030: e0e6 923c 1600 afbc bd8d fbbc 0a94 72bb
00000040: e28f 58b9 9c8a 0b3d 6775 263c 7ee9 b4bd
00000050: 5492 9c3c c879 43bd 4078 de3a 8019 28bc
00000060: 669c 273b 975c 3c3d 6740 09bc 5cc2 ecbb
00000070: 402d 46bc 4094 4f3d 66a5 43bc 2959 abbc

model_cnn.conv_layers.1.1.running_var f4 [32]
0.8386492 0.8256009 0.83488595 0.8303533 0.8278601 0.8240414 0.82340276 0.820439
0.8515909 0.84250677 0.8378258 0.8301236 0.8326125 0.8330333 0.84295416 0.817305
0.8296285 0.8328481 0.8331007 0.8376886 0.8212758 0.82855237 0.8244949 0.84073555
0.832145 0.82816166 0.8352293 0.8295999 0.8329796 0.8364877 0.82959133 0.84152013
00000000: b7b1 563f 955a 533f 16bb 553f 0992 543f
00000010: a4ee 533f 61f4 523f 86ca 523f 4a08 523f
00000020: dc01 5a3f 86ae 573f c07b 563f fb82 543f
00000030: 1826 553f ac41 553f d8cb 573f e73a 513f
00000040: 8962 543f 8835 553f 1646 553f c372 563f
00000050: 213f 523f 021c 543f 1912 533f 723a 573f
00000060: 7407 553f 6702 543f 96d1 553f a960 543f
00000070: 273e 553f 0f24 563f 1960 543f dd6d 573f

model_cnn.conv_layers.3.0.weight f4 [64, 32, 3]
-0.06344392 -0.023260342 -0.017722642 0.049988564 0.034673586 0.05290012 -0.054745242 -0.09789169
0.028473701 -0.09575431 0.08379083 -0.03476302 0.023817286 0.03360461 -0.053844783 -0.07006134
0.06685751 0.0820946 0.010073528 0.08251632 0.045911245 -0.0061006392 -0.042357903 -0.06633368
0.027585618 0.052893717 0.07933742 -0.009391747 0.07590575 0.05694213 0.05445848 0.049124215
0.054525405 0.028234921 0.05809773 0.08167299 0.06860927 0.07613466 -0.055598408 -0.018898476
0.1018536 0.05431822 0.0734723 0.039435312 -0.0618651 0.04385304 -0.065103814 0.04859313
-0.026044644 0.07969968 -0.06239856 -0.04853989 0.022082802 0.083623126 -0.06231832 0.009046638
-0.0012173064 0.05837563 -0.06171213 -0.09765444 0.016891975 -0.05533848 -0.040357307 0.06022055
-0.00395154 -0.025633562 0.06817775 -0.08627692 -0.07582579 0.07191283 -0.01817946 0.096545294
0.04562301 -0.028215786 -0.069091745 0.075133346 -0.06973398 0.08223736 0.02482357 -0.05104773
0.075109065 0.040406656 -0.052455932 0.0756145 -0.09306644 0.024460891 0.06410596 0.007006852
-0.07030729 0.042404972 -0.089677446 0.022944283 0.090598196 0.096579835 -0.0018881472 0.07136273
0.100401804 -0.038329184 0.004101272 -0.045741245 -0.068497255 0.08010004 -0.051406167 -0.0003777768
0.043353092 -0.0818015 -0.07948389 0.05775626 0.010271575 -0.044377137 -0.01897962 -0.04429693
-0.015606046 -0.062424287 -0.014080968 0.056721207 -0.0910779 -0.059815403 -0.0860756 0.01632742
-0.035414353 0.010076509 0.035739716 0.040310115 -0.053924177 -0.003985636 -0.10237092 -0.07646018
-0.043192547 -0.043616418 -0.06125462 0.042140193 0.003892853 0.03947338 -0.0153850475 0.06744351
-0.061576683 0.03384569 -0.059883352 -0.03902099 0.09604308 -0.0219341 0.010882553 0.032647453
0.07105873 0.039120678 -0.07424138 -0.08077964 -0.0022070017 -0.0074111614 0.062806845 -0.028267885
0.09826711 0.08641588 0.100452155 0.006198395 -0.0090273945 0.061045464 -0.01732242 -0.06902668
-0.09990248 -0.023197275 0.009804253 0.09276043 0.07676881 -0.06883801 -0.09260282 -0.0041682515
-0.042112745 -0.010705411 -0.09388425 -0.09418979 0.0009647352 -0.03142358 -0.054696742 0.027525792
-0.02914616 -0.051312953 0.068818145 -0.08013919 -0.10254873 -0.00522977 0.02363888 -0.0050143274
-0.05478777 -0.01721041 -0.014013884 0.036013335 -0.066805474 0.039567996 0.029908642 0.08702995
0.04873237 0.03046561 0.03779809 -0.09004807 0.05840382 0.099093735 -0.017864667 -0.06894016
0.03030358 0.08713518 0.08341181 -0.007999091 0.072125815 0.008835657 0.0040176916 -0.0968626
-0.049873628 0.03130436 0.08083807 -0.0960419 -0.02601118 0.09009719 0.020901008 -0.007854733
-0.08505453 0.08586778 0.037431594 0.01248443 0.088488914 -0.02244393 0.004617226 -0.039330866
-0.0840144 0.09491478 -0.09762696 0.07274861 -0.036612242 0.08860326 0.040519454 -0.06513886
-0.00872285 0.07359752 -0.063219294 -0.058332495 0.09755451 -0.06233605 0.008810747 0.0153252045
-0.06598034 -0.0957878 0.014573595 -0.07033673 -0.018396953 0.08483236 0.014834336 -0.036725033
-0.07147026 0.009696014 0.06860973 -0.03866746 0.07193106 -0.030993033 -0.024104185 0.077048674
00000000: e3ee 81bd 798c bebc 132f 91bc cfc0 4c3d
00000010: e405 0e3d ccad 583d 8c3c 60bd 707b c8bd
00000020: ae41 e93c d61a c4bd 879a ab3d ab63 0ebd
00000030: 781c c33c fda4 093d 598c 5cbd 527c 8fbd
00000040: 97ec 883d 3721 a83d 700b 253c 51fe a83d
00000050: 6e0d 3c3d dfe7 c7bb 7b7f 2dbd f4d9 87bd
00000060: 3cfb e13c 15a7 583d a87b a23d d8df 19bc
00000070: 7974 9b3d 273c 693d db0f 5f3d 7936 493d
00000080: 0856 5f3d ec4c e73c e3f7 6d3d 2b44 a73d
00000090: 0483 8c3d 7dec 9b3d 28bb 63bd fad0 9abc
000000a0: 9f98 d03d c87c 5e3d a578 963d ec86 213d
000000b0: 4266 7dbd 3f9f 333d 2655 85bd 9709 473d
000000c0: 945b d5bc 9639 a33d a295 7fbd c4d1 46bd
000000d0: fee6 b43c 9a42 ab3d 7f41 7fbd 5a38 143c
000000e0: 068e 9fba 491b 6f3d dcc5 7cbd 0dff c7bd
000000f0: 0a61 8a3c 9aaa 62bd b44d 25bd d3a9 763d
00000100: ec7b 81bb 7afd d1bc c7a0 8b3d f4b1 b0bd
00000110: 8d4a 9bbd 0947 933d 17ed 94bc 8ab9 c53d
00000120: 31df 3a3d cb24 e7bc f97f 8dbd 83df 993d
00000130: b0d0 8ebd 106c a83d cd5a cb3c 6d17 51bd
00000140: c8d2 993d 7381 253d 08dc 56bd c6db 9a3d
00000150: 9e99 bebd 3562 c83c fc49 833d bc99 e53b
00000160: 45fd 8fbd d6b0 2d3d cfa8 b7bd a6f5 bb3c
00000170: 8c8b b93d a6cb c53d b57b f7ba 9f26 923d
00000180: 769f cd3d 10ff 1cbd f763 863b 2c5b 3bbd
00000190: 4a48 8cbd 7d0b a43d 468f 52bd 5810 c6b9
000001a0: 0393 313d 8b87 a7bd 73c8 a2bd d491 6c3d
000001b0: 1c4a 283c cdc4 35bd 267b 9bbc b370 35bd
000001c0: 80b0 7fbc 9cb0 7fbd dcb3 66bc 7f54 683d
000001d0: 0d87 babd ff00 75bd 6748 b0bd 15c1 853c
000001e0: a40e 11bd f117 253c cf63 123d 381c 253d
000001f0: 99df 5cbd f099 82bb d8a7 d1bd 2897 9cbd
00000200: abea 30bd 21a7 32bd 20e6 7abd 329b 2c3d
00000210: 3c1f 7f3b d7ae 213d 9111 7cbc d31f 8a3d
00000220: d537 7cbd c7a1 0a3d 3f48 75bd 79d4 1fbd
00000230: 3cb2 c43d 24af b3bc bc4c 323c 56b9 053d
00000240: 3d87 913d 013d 203d dd0b 98bd cc6f a5bd
00000250: 58a3 10bb 54d9 f2bb e0a0 803d 0d92 e7bc
00000260: 4440 c93d cffa b03d dcb9 cd3d e81b cb3b
00000270: a3e7 13bc cf0a 7a3d bfe7 8dbc dc5d 8dbd
00000280: ac99 ccbd 3608 bebc 04a2 203c 2ef9 bd3d
00000290: f738 9d3d f1fa 8cbd 8ca6 bdbd d495 88bb
000002a0: 6a7e 2cbd c065 2fbc 6346 c0bd 94e6 c0bd
000002b0: 49e6 7c3a 03b6 00bd b109 60bd c57d e13c
000002c0: eec3 eebc 882d 52bd 87f0 8c3d 0420 a4bd
000002d0: 1205 d2bd 7e5e abbb 53a6 c13c 3a4f a4bb
000002e0: 2469 60bd d9fc 8cbc 7d9a 65bc b882 133d
000002f0: 4fd1 88bd 0d12 223d f802 f53c c23c b23d
00000300: 989b 473d 0493 f93c 2cd2 1a3d 1f6b b8bd
00000310: d838 6f3d a8f1 ca3d ec58 92bc 8030 8dbd
00000320: 373f f83c ee73 b23d d0d3 aa3d 9f0e 03bc
00000330: b3b6 933d 6ec3 103c d7a6 833b e65f c6bd
00000340: 4a48 4cbd 0039 003d 6e8e a53d 9eb1 c4bd
00000350: 6615 d5bc e084 b83d 9738 ab3c 23b1 00bc
00000360: 1231 aebd 72db af3d df51 193d 7f8b 4c3c
00000370: ad39 b53d 55dc b7bc 194c 973b 6719 21bd
00000380: be0f acbd ae62 c23d a5f0 c7bd 39fd 943d
00000390: b8f6 15bd a075 b53d baf7 253d 8667 85bd
000003a0: 49ea 0ebc 4cba 963d 1e79 81bd 0eee 6ebd
000003b0: a9ca c73d 1654 7fbd f45a 103c 9116 7b3c
000003c0: b320 87bd 652c c4bd 16c6 6e3c b40c 90bd
000003d0: 35b5 96bc 97bc ad3d b70b 733c fd6c 16bd
000003e0: 005f 92bd 08dc 1e3c 4283 8c3d c561 1ebd
000003f0: 9750 933d 1ae5 fdbc 2476 c5bc b2cb 9d3d

model_cnn.conv_layers.3.0.bias f4 [64]
-0.021850886 -0.06737847 0.017232228 0.09055582 0.022538451 -0.09359795 0.03967842 -0.0041531413
0.022464594 -8.851095e-05 0.020328725 -0.07316341 -0.06914363 -0.09960117 0.05872307 -0.042255867
-0.013630923 0.042610023 0.03491166 0.07320487 0.037498634 -0.04447357 -0.0136837615 0.052927073
-0.03671483 0.09808322 -0.052329108 0.0313479 -0.0511122 -0.07801221 0.010963421 -0.038010813
0.046729006 -0.02361253 0.09531494 0.022181433 0.09774434 -0.022961037 -0.06676235 -0.022364667
-0.04454002 0.059696138 -0.051477697 -0.06867205 -0.06289417 0.07860747 -0.0697396 0.012925665
0.06496122 -0.06389925 -0.012781176 -0.04863228 0.09321581 -0.031409703 0.02115965 0.016887218
-0.09292222 0.043739483 -0.04675065 0.08377907 0.07299606 0.031873617 -0.021238714 -0.0557376
00000000: a100 b3bc b9fd 89bd 9a2a 8d3c 5475 b93d
00000010: 8fa2 b83c 48b0 bfbd d785 223d 1317 88bb
00000020: ab07 b83c f49e b9b8 6d88 a63c b3d6 95bd
00000030: 2d9b 8dbd b3fb cbbd 9a87 703d 7d14 2dbd
00000040: 3c54 5fbc d987 2e3d 87ff 0e3d 6fec 953d
00000050: 2b98 193d eb29 36bd db31 60bc 0fca 583d
00000060: 4a62 16bd dbdf c83d 0c57 56bd a866 003d
00000070: 075b 51bd dec4 9fbd ec9f 333c 3ab1 1bbd
00000080: ea66 3f3d 116f c1bc 7b34 c33d d6b5 b53c
00000090: 2f2e c83d c918 bcbc b3ba 88bd 1b36 b7bc
000000a0: 996f 36bd f083 743d 47da 52bd efa3 8cbd
000000b0: a9ce 80bd f4fc a03d a3d3 8ebd 2bc6 533c
000000c0: 630a 853d 9cdd 82bd 2368 51bc a432 47bd
000000d0: eee7 be3d 76a7 00bd 0157 ad3c 1057 8a3c
000000e0: 014e bebd 2c28 333d 9c7d 3fbd 5c94 ab3d
000000f0: f57e 953d e98d 023d d0fc adbc 1c4d 64bd

model_cnn.conv_layers.3.1.weight f4 [64]
1.0017776 0.9980009 1.0010502 1.0018259 1.0006932 0.9984189 0.99816227 1.0019833
1.0017762 1.0019833 1.00186 1.0014365 0.9980083 0.9980043 1.0019537 1.0010772
1.001618 1.0019891 0.998011 0.9985686 1.0019419 0.99800134 0.9980594 1.0016162
0.9985073 1.0004144 0.99955076 1.0003734 1.0016787 1.0004363 1.0019764 1.0017482
0.99800026 0.9980422 1.0019716 0.9994161 1.0019305 1.0009491 0.9980064 0.99822176
0.9981572 1.0015568 0.998113 0.9994273 1.0017844 0.9981865 0.9982185 0.99896586
0.99805284 0.99953866 0.9983389 1.0017813 0.99939156 0.9980254 1.0019642 0.9992092
0.99802786 0.99806225 1.0007178 0.99799883 1.0019708 1.0019712 0.9980673 1.0011407
00000000: 403a 803f fd7c 7f3f 6a22 803f d53b 803f
00000010: b716 803f 6298 7f3f 9087 7f3f fd40 803f
00000020: 343a 803f fd40 803f f33c 803f 122f 803f
00000030: 797d 7f3f 367d 7f3f 0540 803f 4c23 803f
00000040: 0535 803f 2e41 803f a67d 7f3f 31a2 7f3f
00000050: a23f 803f 047d 7f3f d280 7f3f f634 803f
00000060: 2d9e 7f3f 940d 803f 8fe2 7f3f 3c0c 803f
00000070: 0237 803f 4c0e 803f c340 803f 4939 803f
00000080: f27c 7f3f b27f 7f3f 9b40 803f bcd9 7f3f
00000090: 423f 803f 1a1f 803f 597d 7f3f 768b 7f3f
000000a0: 3b87 7f3f 0333 803f 5584 7f3f 78da 7f3f
000000b0: 793a 803f 2789 7f3f 3f8b 7f3f 3abc 7f3f
000000c0: 6480 7f3f c4e1 7f3f 2393 7f3f 5f3a 803f
000000d0: 20d8 7f3f 987e 7f3f 5d40 803f 2dcc 7f3f
000000e0: c17e 7f3f 0281 7f3f 8517 803f da7c 7f3f
000000f0: 9440 803f 9840 803f 5781 7f3f 6125 803f

model_cnn.conv_layers.3.1.bias f4 [64]
0.0019988404 -0.0017821356 -0.001990377 -0.0005540801 0.00028300774 -0.0012414292 -0.001969083 -0.0019474395
0.0011064397 0.0019999456 0.0019708215 0.0017583087 -0.0018899553 0.0006074643 0.0010146699 -0.0018296319
0.0017903196 0.001985929 -0.0014598016 -0.0012510509 -0.0019994304 -0.0018845338 0.0003259568 0.0016303704
-0.0018221217 0.0005903082 0.0018399211 -0.0019205767 0.0018695794 0.0017408347 0.0019199341 0.0018785351
0.0020013028 -0.0019803527 0.0018553243 -0.0013404232 0.0019724343 0.0015978045 0.00046437525 -0.0019692637
0.0005129394 -0.0012771732 0.0002688145 0.001750048 0.00026857434 0.0006882896 -0.0019555204 -0.0009880043
-0.0019902098 -0.0017842113 -0.0015718977 -0.0006068514 0.0017972713 -0.0012985524 0.0019503527 -0.0019856363
-0.0019950746 0.0015652026 0.00086536875 -0.0019753068 -0.00033728336 0.0012475607 0.0019817292 0.00065056863
00000000: fafe 023b 8c96 e9ba fc70 02bb b03f 11ba
00000010: a860 9439 74b7 a2ba bb0b 01bb 3a41 ffba
00000020: f505 913a 8511 033b e628 013b 0d77 e63a
00000030: 60b8 f7ba 3d3e 1f3a acfe 843a 42d0 efba
00000040: 28a9 ea3a 5c26 023b d056 bfba 4dfa a3ba
00000050: e008 03bb 7602 f7ba 2ee5 aa39 27b2 d53a
00000060: 42d4 eeba eabe 1a3a 8229 f13a dcbb fbba
00000070: ad0c f53a b82c e43a 4ca6 fb3a 2e39 f63a
00000080: 4a28 033b cec8 01bb 5a2e f33a 24b1 afba
00000090: f543 013b 6c6d d13a 6477 f339 c30e 01bb
000000a0: c876 063a d266 a7ba acef 8c39 de61 e53a
000000b0: 70cf 8c39 556e 343a 3028 00bb ec7f 81ba
000000c0: 2e6e 02bb 32dc e9ba 2208 ceba 1c15 1fba
000000d0: 6b92 eb3a 3034 aaba faa2 ff3a 7321 02bb
000000e0: ccbf 02bb 7c27 cd3a ead9 623a 2674 01bb
000000f0: 68d5 b0b9 3185 a33a e6df 013b ec8a 2a3a

model_cnn.conv_layers.3.1.running_mean f4 [64]
0.119068176 -0.15121168 0.01017747 0.033029675 -0.010877693 -0.18008336 -0.03736243 -0.06781524
0.04304602 -0.05103801 0.13406064 0.056562528 -0.016278248 0.020451333 0.048783623 0.060904287
0.085938215 -0.029456902 0.12973589 0.091613844 0.020685634 0.10622308 -0.016321475 -0.13011532
-0.032553826 0.06771365 -0.113420576 -0.015893947 -0.017547186 -0.005214528 0.103349134 -0.048705406
-0.017902933 0.024059046 -0.090188995 0.011322109 -0.026846763 0.035967685 -0.056634527 -0.030839456
0.03179594 0.026159715 -0.022339724 -0.08924645 0.1301908 0.11153725 0.07823029 0.0965424
-0.05432639 0.07958953 -0.11269802 -0.017251851 0.008064574 0.007871194 -0.055932436 0.08492218
0.032179434 0.051836878 -0.0549905 0.014665499 0.15685219 0.0013761446 0.060304403 -0.057446294
00000000: 04da f33d 3cd7 1abe 67bf 263c 204a 073d
00000010: 5a38 32bc c667 38be 5909 19bd b7e2 8abd
00000020: 0651 303d 3b0d 51bd 3147 093e 1cae 673d
00000030: f659 85bc 8e89 a73c 56d1 473d c676 793d
00000040: 6000 b03d 9a4f f1bc 7cd9 043e 0aa0 bb3d
00000050: eb74 a93c 7c8b d93d 9db4 85bc f33c 05be
00000060: 2957 05bd 74ad 8a3d 0c49 e8bd 0634 82bc
00000070: 1ebf 8fbc a2de aabb b6a8 d33d 527f 47bd
00000080: 2ca9 92bc 7a17 c53c 02b5 b8bd 5e80 393c
00000090: beed dbbc da52 133d 9bf9 67bd 07a3 fcbc
000000a0: 763c 023d e64c d63c cc01 b7bc d8c6 b6bd
000000b0: bd50 053e a46d e43d 3437 a03d 06b8 c53d
000000c0: 5985 5ebd d6ff a23d 38ce e6bd c153 8dbc
000000d0: 4621 043c 2ef6 003c 6919 65bd aeeb ad3d
000000e0: 95ce 033d e852 543d b83d 61bd 9047 703c
000000f0: dc9d 203e c05f b43a c001 773d ce4c 6bbd

model_cnn.conv_layers.3.1.running_var f4 [64]
0.8369739 0.8333184 0.8353104 0.83340806 0.8360876 0.87655497 0.879572 0.8396504
0.8494391 0.831296 0.8205359 0.83397585 0.83562 0.8334767 0.8402655 0.8295556
0.8546663 0.85605603 0.85843384 0.830134 0.8736917 0.85872257 0.82686156 0.83719265
0.8228113 0.84015423 0.8362251 0.83905375 0.83703643 0.83110356 0.8632194 0.8467429
0.8385532 0.84489024 0.85374975 0.82362896 0.85185564 0.8254309 0.8431079 0.8257635
0.8325289 0.8258897 0.82284296 0.83998746 0.8513313 0.8302021 0.83779943 0.8585972
0.84859896 0.8307959 0.85065633 0.83046865 0.84282017 0.8401845 0.86243474 0.8424034
0.8218021 0.83681506 0.8573125 0.82986593 0.856917 0.8529556 0.85015476 0.83231014
00000000: ec43 563f 5b54 553f e7d6 553f 3b5a 553f
00000010: d609 563f e865 603f a12b 613f 54f3 563f
00000020: d774 593f d1cf 543f a40e 523f 717f 553f
00000030: 31eb 553f bb5e 553f a41b 573f c15d 543f
00000040: 69cb 5a3f 7d26 5b3f 52c2 5b3f a983 543f
00000050: 42aa 5f3f 3ed5 5b3f 33ad 533f 4252 563f
00000060: c3a3 523f 5914 573f d912 563f 3acc 563f
00000070: 0548 563f 34c3 543f f2fb 5c3f 25c4 583f
00000080: 6cab 563f ba4a 583f 588f 5a3f 59d9 523f
00000090: 3613 5a3f 714f 533f ebd5 573f 3d65 533f
000000a0: 9d20 553f 826d 533f d6a5 523f 6b09 573f
000000b0: d9f0 593f 2088 543f 067a 563f 07cd 5b3f
000000c0: c83d 593f 0aaf 543f 9dc4 593f 9899 543f
000000d0: 10c3 573f 5516 573f 86c8 5c3f c0a7 573f
000000e0: 9f61 523f 8339 563f d578 5b3f 1872 543f
000000f0: ea5e 5b3f 4c5b 5a3f bea3 593f 4712 553f

model_cnn.conv_layers.4.0.weight f4 [128, 64, 3]
0.061295956 0.013922359 0.07277024 -0.011992175 -0.056848537 0.06397173 0.031490277 0.06450956
-0.057583638 0.017183792 -0.055738673 0.026746195 0.060624864 0.026224595 -0.02452226 -0.05435505
0.01728635 0.040117957 -0.02008716 -0.05694716 0.031319037 0.031531237 -0.023958063 -0.06913703
-0.070155255 0.0722407 0.0062290225 0.048416678 0.027180824 -0.014131302 -0.04680014 -0.070409104
0.025258439 -0.008963864 0.03242064 -0.0137693565 -0.046631362 -0.051374543 0.04070419 -0.025234472
0.04534228 -0.018268645 -0.019918794 -0.010774475 0.04625407 -0.026184164 -0.053176038 -0.06355698
0.029416325 -0.07046355 -0.01517754 -0.05827444 -0.034536086 -0.068965904 -0.03096709 -0.057895225
-0.041704193 -0.06673996 0.012286956 -0.051197506 -0.020355856 -0.068561725 0.042342316 -0.052081466
-0.041108258 -0.021315964 0.013828071 -0.03186864 -0.06323205 -0.028748654 0.063977025 -0.07316202
0.013730546 -0.0032573263 0.0023166956 -0.06452137 0.011011477 0.059159838 0.035315208 0.00088294863
-0.05158791 0.012393487 0.055562716 0.017398104 0.022511564 0.005203698 -0.061194338 -0.021521907
0.05472551 -0.0568395 -0.004300086 0.0353223 0.06606703 -0.013472207 -0.04336038 -0.019903809
-0.04680536 -0.043625955 0.031770617 -0.0147389965 0.025825478 -0.01703729 -0.07215916 -0.030245047
0.036393024 -0.013118307 -0.030391267 0.061487604 -0.028888531 0.03683941 -0.046169378 0.028860146
0.06041976 -0.025686713 0.022276692 0.051454633 -0.0152243655 0.002062786 -0.025741644 0.045926943
0.0068021333 -0.04000254 0.031542227 0.0026705633 0.03351614 0.020219931 -0.039586704 -0.015657103
-0.0053729024 -0.058094073 -0.07347329 0.051341586 0.040399123 0.046107456 0.07204548 0.047681686
0.044631947 -0.022200909 -0.06458956 -0.025379183 0.026493842 -0.069521666 0.030340424 0.025612956
-0.061527893 -0.032054316 -0.0054729474 -0.021840286 0.032027017 0.010272489 -0.06682459 -0.045730848
0.048128802 0.025312176 -0.066725805 -0.026651913 -0.019208578 -0.057348646 -0.07229678 -0.0658032
-0.04086476 0.0055968626 -0.049165536 -0.04023248 -0.07122673 -0.043134153 -0.05248396 0.06507368
0.0074285176 0.023726659 -0.058378093 -0.07158719 0.042376976 -0.05054909 -0.0032362423 -0.05635439
0.038288925 0.0051761526 0.06544846 0.06699079 -0.0427773 -0.03349878 0.013044446 0.04656677
-0.043959618 0.058045406 0.027490482 -0.069615446 -0.051321805 0.06574968 -0.00048628292 0.034226753
-0.042482704 -0.06197946 0.057318028 0.009684021 0.018587852 -0.004153122 -0.047588717 0.02057067
-0.021849146 0.0092341835 -0.04114543 0.066353776 0.008555802 0.0335035 -0.014886526 -0.014251058
0.06546747 0.0019324865 -0.012627815 0.057834316 0.023362545 -0.06983043 0.033802286 0.020264985
0.00064980454 0.060828418 0.026858695 -0.03886748 -0.072361656 0.05137759 0.00036820502 -0.024947757
0.010237209 0.047008988 -0.027287392 0.022562688 0.0186138 -0.04949634 -0.05723569 0.03827375
-0.011595506 0.013788197 -0.047588285 0.009579606 -0.021947578 0.0156493 0.033449877 -0.055840895
-0.0447867 0.06894633 -0.00045307828 -0.047965426 0.022359611 0.053486027 0.03575089 0.070467144
0.011286055 -0.06166328 -0.073692605 0.06933204 0.051497836 0.01917177 0.060779516 -0.00010990159
00000000: 7811 7b3d 9b1a 643c 9008 953d d47a 44bc
00000010: 03da 68bd 9c03 833d f3fb 003d 971d 843d
00000020: d2dc 6bbd 06c5 8c3c 3c4e 64bd d61a db3c
00000030: c751 783d f6d4 d63c e8e2 c8bc 67a3 5ebd
00000040: 1a9c 8d3c ba52 243d d48d a4bc 6d41 69bd
00000050: 6448 003d e626 013d b343 c4bc b797 8dbd
00000060: 8fad 8fbd eff2 933d d41c cc3b 9150 463d
00000070: 52aa de3c fa86 67bc 81b1 3fbd a632 90bd
00000080: c9ea ce3c 2cdd 12bc 81cb 043d de98 61bc
00000090: 8700 3fbd 1d6e 52bd 70b9 263d 86b8 cebc
000000a0: d4b8 393d 20a8 95bc bd2c a3bc 6c87 30bc
000000b0: e874 3d3d 2c80 d6bc 1ecf 59bd 292a 82bd
000000c0: 81fa f03c 324f 90bd 37ab 78bc 2eb1 6ebd
000000d0: b675 0dbd ff3d 8dbd b2ae fdbc 8b23 6dbd
000000e0: 04d2 2abd f6ae 88bd 3b4f 493c 7ab4 51bd
000000f0: 53c1 a6bc 176a 8cbd 236f 2d3d 6053 55bd
00000100: 2261 28bd d19e aebc 228f 623c b188 02bd
00000110: ce7f 81bd 4c82 ebbc 6306 833d f8d5 95bd
00000120: 16f6 603c de78 55bb b4d3 173b c823 84bd
00000130: 7b69 343c 9651 723d aea6 103d ae75 673a
00000140: d84d 53bd 0d0e 4b3c bb95 633d 7886 8e3c
00000150: 2c6a b83c c883 aa3b eaa6 7abd b64e b0bc
00000160: db27 603d 89d0 68bd bce7 8cbb 1eae 103d
00000170: 274e 873d 88ba 5cbc a79a 31bd 500d a3bc
00000180: fab6 3fbd 21b1 32bd e821 023d d57b 71bc
00000190: f48f d33c c991 8bbc 2fc8 93bd 76c4 f7bc
000001a0: da10 153d 2bee 56bc 1bf7 f8bc 6dda 7b3d
000001b0: a4a7 ecbc ece4 163d 1a1c 3dbd 1d6c ec3c
000001c0: b67a 773d f16c d2bc 9c7d b63c 18c2 523d
000001d0: 9e6f 79bc ce2f 073b 24e0 d2bc e41d 3c3d
000001e0: 6ee4 de3b b4d9 23bd 6c32 013d 9e04 2f3b
000001f0: 3848 093d 45a4 a53c ab25 22bd 5343 80bc
00000200: 2c0f b0bb 0df4 6dbd 2a79 96bd 8e4b 523d
00000210: 8d79 253d 2cdb 3c3d 958c 933d df4d 433d
00000220: fdcf 363d aede b5bc 8847 84bd 01e8 cfbc
00000230: 9d09 d93c 6061 8ebd 7b8c f83c 43d2 d13c
00000240: ac04 7cbd 634b 03bd 6956 b3bb 66ea b2bc
00000250: c32e 033d f14d 283c 55db 88bd 4550 3bbd
00000260: b522 453d 7b5b cf3c 8aa7 88bd 1d55 dabc
00000270: 4f5b 9dbc 6ae6 6abd 5610 94bd d4c3 86bd
00000280: ce61 27bd e365 b73b cd61 49bd d0ca 24bd
00000290: 52df 91bd 70ad 30bd 6cf9 56bd 5945 853d
000002a0: ec6a f33b 695e c23c de1d 6fbd 4e9c 92bd
000002b0: 7b93 2d3d 900c 4fbd 2317 54bb dcd3 66bd
000002c0: d9d4 1c3d b79c a93b d809 863d 7832 893d
000002d0: 4037 2fbd 0436 09bd 5fb8 553c ccbc 3e3d
000002e0: 000f 34bd 05c1 6d3d b833 e13c 8b92 8ebd
000002f0: d036 52bd c5a7 863d caf3 feb9 5a31 0c3d
00000300: 5802 2ebd 2dde 7dbd 4fc6 6a3d baa9 1e3c
00000310: 8d45 983c ea16 88bb 63ec 42bd d283 a83c
00000320: fbfc b2bc f94a 173c 1c88 28bd 7de4 873d
00000330: a22d 0c3c f73a 093d 9ee6 73bc 457d 69bc
00000340: cf13 863d 7d4b fd3a e5e4 4ebc ade3 6c3d
00000350: cf62 bf3c 4203 8fbd 4474 0a3d c102 a63c
00000360: a557 2a3a 3827 793d c406 dc3c 8233 1fbd
00000370: 5932 94bd 4f71 523d a40b c139 3d5f ccbc
00000380: f7b9 273c 7f8c 403d cf89 dfbc 63d5 b83c
00000390: f87b 983c adbc 4abd f96f 6abd f0c4 1c3d
000003a0: 14fb 3dbc e4e7 613c efeb 42bd c8f3 1c3c
000003b0: 68cb b3bc f632 803c bd02 093d 6cb9 64bd
000003c0: 4272 37bd bc33 8d3d 238b edb9 6577 44bd
000003d0: 812b b73c 2a14 5b3d 866f 123d 1451 903d
000003e0: 25e9 383c a392 7cbd 26ec 96bd f5fd 8d3d
000003f0: 65ef 523d 1e0e 9d3c f1f3 783d f87a e6b8

model_cnn.conv_layers.4.0.bias f4 [128]
0.052962348 -0.045875642 0.046755504 0.010179474 0.015653156 -0.026415383 0.0341507 -0.054168258
0.062517285 -0.04190287 0.05401301 -0.020979816 -0.00017514231 -0.020090872 0.011138976 -0.055761557
0.032475635 -0.03695866 0.031499367 -5.5873927e-05 -0.0578447 -0.0025301913 0.06357857 -0.020912671
-0.014233075 -0.0392149 -0.0024763823 -0.040450655 -0.04268446 -0.058900665 0.045561202 0.03381669
0.012043653 0.021458106 0.06299223 0.020865677 0.06110144 -0.044098962 -0.0011435476 0.05488907
0.024177128 0.03517293 0.03809465 0.03187494 0.0258095 -0.012564215 -0.025118804 0.07017492
-0.061293766 0.059319224 0.03260002 -0.06815843 0.0015783794 0.006913157 -0.04582821 -0.01644283
0.05543853 0.05947537 0.01255175 0.017468441 -0.029761711 -0.04047167 -0.02546623 0.015325106
0.005874317 0.030617258 0.011468091 -0.06877201 -0.04289073 0.014302871 -0.052777775 0.05838424
-0.046304677 0.009143725 -0.04933293 0.010377172 -0.06960363 0.049179725 0.059163652 0.0596535
-0.0020082681 0.04116227 -0.066836745 -0.046533164 0.00042612705 -0.03664062 0.06578663 -0.004786868
0.01729322 0.04605261 0.06435864 -0.004470414 -0.00079186406 -0.054172635 0.0691338 0.05373431
0.056983657 0.06764528 -0.043783363 -0.0033702797 -0.057917815 0.051087637 0.06803737 0.059843216
0.022396551 -0.024302578 0.037632767 0.040003788 0.026077839 0.007480636 -0.0059919306 -0.020299539
-0.0070347404 -0.057446767 -0.012601204 0.01557444 0.0024095767 -0.013476066 0.04947451 0.01090579
0.013457963 0.05241963 0.05137796 0.029648408 0.012283166 -0.06502153 -0.034789853 0.035253756
00000000: 0cef 583d 19e8 3bbd b382 3f3d cfc7 263c
00000010: 0c3b 803c 1365 d8bc 9be1 0b3d 89df 5dbd
00000020: 1009 803d 58a2 2bbd bf3c 5d3d dddd abbc
00000030: 68a6 37b9 9d95 a4bc 4080 363c 3b66 64bd
00000040: 2c05 053d f761 17bd 7b05 013d 2c5a 6ab8
00000050: 90ee 6cbd 91d1 25bb 7b35 823d 0d51 abbc
00000060: d831 69bc ce9f 20bd cd4a 22bb 96af 25bd
00000070: e6d5 2ebd d341 71bd 629e 3a3d 5f83 0a3d
00000080: be52 453c e9c8 af3c 1202 813d 7fee aa3c
00000090: 8145 7a3d 1da1 34bd 17e3 95ba 5dd3 603d
000000a0: 1d0f c63c 7e11 103d 2309 1c3d 4c8f 023d
000000b0: 726e d33c 23da 4dbc f3c5 cdbc deb7 8f3d
000000c0: 2c0f 7bbd b7f8 723d 9987 053d a696 8bbd
000000d0: a0e1 ce3a c487 e23b 5cb6 3bbd 1db3 86bc
000000e0: 8313 633d 729c 733d dba5 4d3c fa19 8f3c
000000f0: d5ce f3bc 9fc5 25bd 8e9e d0bc 2716 7b3c
00000100: 587d c03b 0bd1 fa3c a9e4 3b3c 57d8 8cbd
00000110: 31ae 2fbd 9756 6a3c 822d 58bd 5024 6f3d
00000120: f9a9 3dbd 90cf 153c 5411 4abd 0405 2a3c
00000130: 598c 8ebd ae70 493d 9655 723d 3a57 743d
00000140: 269d 03bb c599 283d b4e1 88bd 8f99 3ebd
00000150: ce69 df39 7a14 16bd 24bb 863d 29db 9cbb
00000160: 83aa 8d3c a9a1 3c3d 76ce 833d 8d7c 92bb
00000170: 1995 4fba 20e4 5dbd 0696 8d3d 8218 5c3d
00000180: b267 693d 9c89 8a3d 2f56 33bd e9df 5cbb
00000190: 3b3b 6dbd 4541 513d 2d57 8b3d 291e 753d
000001a0: f978 b73c 3316 c7bc d124 1a3d 03db 233d
000001b0: 31a1 d53c 1f20 f53b f557 c4bb 384b a6bc
000001c0: ae83 e6bb 4d4d 6bbd 4875 4ebc f02b 7f3c
000001d0: fde9 1d3b b8ca 5cbc c9a5 4a3d 33ae 323c
000001e0: ca7e 5c3c f7b5 563d b271 523d 38e1 f23c
000001f0: 553f 493c 022a 85bd ce7f 0ebd 3e66 103d

model_cnn.conv_layers.4.1.weight f4 [128]
0.99971485 1.0019593 0.9996178 1.0009034 0.9994295 0.9984806 1.0019295 1.0009445
1.0019809 1.0018694 0.998293 1.0019804 1.001999 1.0004833 1.0019487 1.001833
0.9992452 1.0016159 0.9982348 1.0017499 0.9981863 0.99951404 1.001241 0.9980121
0.9996294 0.9980169 0.9986962 0.9983704 1.0017515 0.99945325 0.9980048 0.9980208
0.9980316 0.99923813 1.0019745 1.0019947 0.99836916 0.99902636 0.9987069 1.0019556
0.999627 1.0019302 1.0015891 1.0018592 0.99848413 1.0018985 1.0016412 1.0019382
1.0019779 1.0018744 0.99919003 0.99954337 1.001967 1.0019966 1.0017965 1.0018789
1.0020009 1.0018113 1.0018381 0.99948686 1.0006704 0.9995558 1.0019071 1.0018245
1.0019431 1.0019996 0.998007 0.9995663 1.0019634 0.99885404 0.99930936 1.0019752
0.9980942 0.9990275 0.9993874 1.0019931 1.0018744 0.9980023 1.0004627 0.99964553
1.0020014 1.0017765 0.9980102 0.9996177 1.001967 1.0019946 0.9995059 1.0019764
1.0019683 0.9990825 0.9996707 1.0018355 1.001982 1.0019629 0.99806404 0.9993223
1.0019417 1.0019169 0.9982514 0.99803805 0.9980082 1.0019162 0.9987646 1.0005771
1.0019658 1.00182 0.99845 1.0017972 1.0018795 0.9988777 1.0019871 0.99881107
1.0019215 0.99947643 0.9983813 0.99913806 1.0019939 1.001996 1.0018874 1.0018219
0.99881005 0.99799895 0.9994102 0.99805564 0.99805915 0.99906045 1.0019916 0.998015
00000000: 50ed 7f3f 3440 803f f4e6 7f3f 9a1d 803f
00000010: 9dda 7f3f 6d9c 7f3f 3a3f 803f f31e 803f
00000020: e940 803f 423d 803f 2190 7f3f e540 803f
00000030: 8141 803f d60f 803f db3f 803f 103c 803f
00000040: 89ce 7f3f f334 803f 518c 7f3f 5739 803f
00000050: 2389 7f3f 27e0 7f3f aa28 803f b97d 7f3f
00000060: b6e7 7f3f 097e 7f3f 8eaa 7f3f 3495 7f3f
00000070: 6539 803f 2bdc 7f3f 3e7d 7f3f 4b7e 7f3f
00000080: 007f 7f3f 12ce 7f3f b340 803f 5d41 803f
00000090: 1f95 7f3f 31c0 7f3f 41ab 7f3f 1540 803f
000000a0: 8ee7 7f3f 403f 803f 1234 803f ec3c 803f
000000b0: a89c 7f3f 363e 803f c735 803f 833f 803f
000000c0: d040 803f 6c3d 803f ebca 7f3f 13e2 7f3f
000000d0: 7440 803f 6d41 803f de3a 803f 913d 803f
000000e0: 9141 803f 5a3b 803f 3b3c 803f 5fde 7f3f
000000f0: f815 803f e4e2 7f3f 7e3e 803f c93b 803f
00000100: ac3f 803f 8641 803f 637d 7f3f 94e3 7f3f
00000110: 5640 803f e6b4 7f3f bdd2 7f3f b940 803f
00000120: 1a83 7f3f 44c0 7f3f dad7 7f3f 4f41 803f
00000130: 6c3d 803f 147d 7f3f 290f 803f c5e8 7f3f
00000140: 9541 803f 363a 803f 997d 7f3f f2e6 7f3f
00000150: 7440 803f 5c41 803f 9edf 7f3f c340 803f
00000160: 7f40 803f dfc3 7f3f 6bea 7f3f 253c 803f
00000170: f240 803f 5240 803f 2081 7f3f 96d3 7f3f
00000180: a03f 803f d03e 803f 678d 7f3f 6c7f 7f3f
00000190: 777d 7f3f ca3e 803f 09af 7f3f e912 803f
000001a0: 6a40 803f a33b 803f 6b9a 7f3f e43a 803f
000001b0: 963d 803f 73b6 7f3f 1d41 803f 15b2 7f3f
000001c0: f73e 803f b0dd 7f3f eb95 7f3f 83c7 7f3f
000001d0: 5641 803f 6841 803f d93d 803f b33b 803f
000001e0: 04b2 7f3f dc7c 7f3f 59d9 7f3f 9380 7f3f
000001f0: ce80 7f3f 6dc2 7f3f 4341 803f e97d 7f3f

model_cnn.conv_layers.4.1.bias f4 [128]
-0.0004737595 0.0019278537 0.0017695071 0.00034379872 -0.00039498688 0.0018479234 0.0019973915 0.0018788469
0.001971832 -0.0019017367 0.0004281649 0.0019524617 0.001995723 0.00032761786 0.0019037733 0.001996839
-0.0006943698 0.001654667 -0.001804329 -0.0004669914 -0.0008856879 -0.0005500263 -0.0017954784 -0.0019568116
-0.0009326769 -0.0017754093 -0.0019713321 -0.001719343 -0.0012286061 -0.00029229664 -0.0019887895 -0.0019707293
-0.0019027004 -0.00047175994 0.0019635698 0.0019769138 -0.001893676 -0.00032133615 -0.0008626868 0.0019134218
0.0019763235 0.0019845422 0.0015750377 -0.00052906637 -0.0015194626 0.0019115512 0.0019864752 -0.0008437713
0.0019798572 0.0019072755 -0.0015280878 -0.0018021257 0.001847621 0.0020008986 0.0019729387 0.001969547
0.0019910645 0.0018701036 0.0004195274 -0.001578794 0.0015328057 -0.000950942 0.0019283516 -0.00030915823
0.0019457325 0.002001218 0.001717683 -0.00040634192 0.0020005072 -0.0012680576 0.0018957688 0.0019456842
-0.0019276029 -0.00043365767 -0.0015014898 0.0019841976 0.0019792966 -0.0017694382 -0.0020004408 -0.00093153387
0.0019833772 0.0018410906 -0.0018005875 0.0019650797 0.0019942932 0.0019720036 0.0017520196 0.0019571115
0.0019602173 -0.001214732 0.0019529002 0.0018374491 0.0019388256 0.0019254121 0.0012787576 -0.0007439758
0.0018204644 0.0019509592 -0.0019125205 -0.0012754626 -0.0011549953 0.0018461439 -0.0002795849 0.00067732285
0.0007603724 -0.00060684525 -0.0017032569 0.0018421278 0.0019806428 -0.0009795899 0.0019245935 -0.0019581784
-0.00036939187 0.0019130604 -0.001532566 -0.0009445529 0.0019802232 0.0019673505 0.0019723405 0.0019237364
-0.0014394135 -0.0020004886 -0.00038327317 -0.0019895032 -0.0018763645 -0.0008847665 0.002000433 -0.001994093
00000000: ec62 f8b9 09b0 fc3a ceee e73a e23f b439
00000010: 3e16 cfb9 0536 f23a abe6 023b a443 f63a
00000020: da39 013b b243 f9ba 527b e039 bee9 ff3a
00000030: adca 023b 20c4 ab39 0888 f93a 66dd 023b
00000040: 5e06 36ba 69e1 d83a 3c7f ecba 86d6 f4b9
00000050: 822d 68ba a42f 10ba 4256 ebba da3d 00bb
00000060: e37e 74ba dab4 e8ba 7731 01bb 945b e1ba
00000070: 2e09 a1ba 643f 99b9 5a56 02bb 5a27 01bb
00000080: 0864 f9ba 8c56 f7b9 3caf 003b 1c8f 013b
00000090: 3935 f8ba 0279 a8b9 ee25 62ba c8cb fa3a
000000a0: 3585 013b 180f 023b 7f71 ce3a 0bb1 0aba
000000b0: b428 c7ba 048d fa3a 862f 023b 8930 5dba
000000c0: 7ec0 013b 8cfd f93a 1e4a c8ba 4e35 ecba
000000d0: e02b f23a 8221 033b 6b4c 013b 8413 013b
000000e0: 857c 023b 441e f53a 04f4 db39 89ef ceba
000000f0: 6de8 c83a a348 79ba bec0 fc3a 8416 a2b9
00000100: f307 ff3a de26 033b e123 e13a 4a0a d5b9
00000110: f11a 033b f434 a6ba 727b f83a 5406 ff3a
00000120: 9fa7 fcba 8c5c e3b9 a3cd c4ba 5009 023b
00000130: 16b7 013b 7eec e7ba d419 03bb 2e32 74ba
00000140: 8cfb 013b c050 f13a b101 ecba 91c8 003b
00000150: b0b2 023b bb3c 013b 06a4 e53a e242 003b
00000160: fd76 003b a437 9fba 75f8 ff3a 90d6 f03a
00000170: 3120 fe3a 1c5e fc3a fc9b a73a 5f07 43ba
00000180: a69c ee3a 54b7 ff3a 8aad faba 6c2d a7ba
00000190: 3663 97ba 4ffa f13a 4095 92b9 5e8e 313a
000001a0: ba53 473a b214 1fba d13f dfba 8d73 f13a
000001b0: accd 013b 9565 80ba a442 fc3a c854 00bb
000001c0: f0aa c1b9 a8bf fa3a 62e0 c8ba df9b 77ba
000001d0: a2c6 013b aaee 003b 6242 013b e225 fc3a
000001e0: b4aa bcba a11a 03bb 0ef2 c8b9 5362 02bb
000001f0: 58f0 f5ba adef 67ba b219 033b 54af 02bb
