checkpoint/pretrain_cnn_features_1d_sa_fcg_1210/best_model.pth (torch, 906722 bytes, 37 tensors)

model_cnn.conv_layers.0.0.weight f4 [16, 21, 15]
0	0xbd3e0b1e	-0.04639732
1	0x3d2fb45f	0.042896625
2	0xbd214e60	-0.039381385
3	0xbd312f65	-0.04325809
4	0xbd0bd87e	-0.03414201
5	0x3cc83918	0.024441287
6	0xbcb96d15	-0.022635022
7	0x3c9cb88d	0.01913097
8	0xbd4a41f6	-0.04937931
9	0xbd10c92e	-0.03534811
10	0xbcb1596d	-0.021649087
11	0xbc46caf2	-0.012133347
12	0xbd35cbf5	-0.04438396
13	0x3d13e55b	0.036107402
14	0xbc1f75e6	-0.009732699
15	0x3c8c4e9c	0.017127328
16	0x3d1d107b	0.038345795
17	0x3c132735	0.008981516
18	0x3c68c408	0.014206894
19	0x3d5a8d3c	0.053357348
20	0xbcddb44e	-0.027063515
21	0x3c9f22e5	0.019425819
22	0xbcba84d9	-0.022768425
23	0x3d2c23f2	0.042026468
24	0x3d3bcdee	0.045850687
25	0xbd51265e	-0.05106198
26	0x3d4b9d86	0.049710773
27	0x3cdfff51	0.027343424
28	0x3cbbe119	0.022934483
29	0x3cb0a537	0.021563156
30	0x3d3bd769	0.045859728
31	0xbc126d31	-0.008937166
32	0xbd49677b	-0.049170952
33	0xbc8e0022	-0.017334048
34	0xbd26a9af	-0.040689167
35	0x3b072830	0.002062332
36	0xbc126034	-0.008934069
37	0xbce4181d	-0.02784353
38	0xbb5d2ef6	-0.0033749915
39	0x3d5e1fec	0.05422966
40	0xbb696fcc	-0.0035619615
41	0x3b61a183	0.0034428544
42	0xbc0322e7	-0.008003927
43	0x3bed6353	0.0072445064
44	0x3d470125	0.048585076
45	0x3d092711	0.033484522
46	0x3c968851	0.018375548
47	0x3c34ebca	0.011042545
48	0x3c492236	0.012276223
49	0x3ca6af53	0.020347273
50	0xbbbba4d3	-0.0057264357
51	0xbd4da76d	-0.050208498
52	0xbd065c80	-0.03280306
53	0x3d48c2c3	0.049013864
54	0x3b91208f	0.00442893
55	0xbd3311df	-0.043718215
56	0x3c31377e	0.010816453
57	0x3d3fc621	0.04681981
58	0xbd5da205	-0.054109592
59	0xbd1eb991	-0.03875119
60	0xbcbf8365	-0.023378083
61	0x3a2846b5	0.00064192276
62	0xbc6b4975	-0.014360775
63	0xbbeb6766	-0.007183957
64	0xbd66c9bb	-0.05634473
65	0x3ce3ae6d	0.027793134
66	0x3d5282ff	0.05139446
67	0x3d1557dd	0.036460746
68	0xbd1fd10b	-0.03901772
69	0xbd361bf7	-0.044460263
70	0x3cce66af	0.025195448
71	0x3b2cefde	0.002638809
72	0x3cb27850	0.021785885
73	0xbd66db26	-0.05636134
74	0xbb97ae20	-0.0046289116
75	0x3d1d7642	0.038442858
76	0x3ccc347f	0.024927376
77	0x3a73ded6	0.00093029195
78	0x3c2181d4	0.009857614
79	0xbbd78a60	-0.006577775
80	0xbd03c14b	-0.03216676
81	0xbcba4256	-0.02273671
82	0xbd131add	-0.03591429
83	0x3d3a6152	0.045502968
84	0x3cf53b7e	0.029935595
85	0x3c99cbb1	0.018773885
86	0xbd351a0e	-0.0442143
87	0x3d2ceeea	0.042220034
88	0x3c88cc08	0.016698852
89	0x3d1b34cd	0.03789215
90	0xbcac1947	-0.021008147
91	0x3c5fd5c6	0.013661807
92	0x3d65d462	0.056110747
93	0x3d2134b3	0.0393569
94	0x3d401a7d	0.04690026
95	0xbc32fecd	-0.010925007
96	0x3d343f2b	0.044005554
97	0xbd2e1cc2	-0.042507894
98	0x3bb74e1a	0.005594027
99	0xbcfd312c	-0.030907236
100	0xbc3edaa8	-0.011648811
101	0xbc5c5e23	-0.013450178
102	0x3b9f1b00	0.0048555136
103	0x3d4bfe86	0.04980328
104	0x3cd8cc2a	0.02646454
105	0xba99ccd6	-0.001173402
106	0x3d1cc159	0.03827033
107	0xbcf6b88d	-0.030117298
108	0x3ce60c64	0.02808208
109	0xbbdcacc4	-0.0067344625
110	0xbc092172	-0.00836979
111	0x3c0b9aa8	0.00852076
112	0xbd296f6d	-0.04136603
113	0x3befc1ff	0.0073168273
114	0x3ca2159a	0.019785691
115	0x3d4b3ec0	0.04962039
116	0xbc85e1e4	-0.016343065
117	0x3cb5274b	0.022113463
118	0x3d6e9733	0.058249664
119	0xbcb57c82	-0.022154097
120	0x3d57683e	0.052589647
121	0xbcf33acb	-0.02969112
122	0x3cc16302	0.02360678
123	0x3cac903c	0.02106487
124	0x3c691faa	0.014228741
125	0x3d3cfcfa	0.046139695
126	0xbca8d0dd	-0.020607406
127	0x3c889129	0.01667078
128	0x3a98fdea	0.0011672352
129	0xbd29b47d	-0.041431893
130	0xbc45b985	-0.012068157
131	0xbd13ed79	-0.036115143
132	0x3cdf6641	0.027270438
133	0x3bf5073e	0.00747767
134	0x3c029437	0.0079699075
135	0xbc7a7b9f	-0.015288263
136	0x3a82f7b3	0.0009992033
137	0xbc7900a3	-0.015197906
138	0x3c77185e	0.015081493
139	0x3d60d86f	0.054893907
140	0x3c23927c	0.009983655
141	0xbcd1820b	-0.025574705
142	0xbd06c9b2	-0.032907195
143	0x3ac6b8a1	0.0015161225
144	0xbd2d95e9	-0.042379294
145	0xbd2e4e99	-0.042555425
146	0xbd1d74ce	-0.03844147
147	0xbca2ffec	-0.019897424
148	0x3b385a57	0.0028130019
149	0x3d1838af	0.037163433
150	0x3cc192e7	0.023629619
151	0x3d33bac8	0.0438793
152	0xbd07520d	-0.033037234
153	0x3b6f384c	0.0036502061
154	0xbd4cf52b	-0.050038498
155	0x3d0b1ef7	0.033965077
156	0x3c36d7d0	0.011159852
157	0x3d645b0f	0.055750903
158	0xbd2f5c31	-0.04281253
159	0x3d36f6ac	0.04466884
160	0x3d41ead6	0.047343098
161	0x3d332750	0.043738663
162	0x3bf1e88f	0.0073824595
163	0x3d4c62e1	0.049898986
164	0x3d136410	0.0359841
165	0x3d339dc3	0.043851625
166	0xbb0b42f0	-0.0021249615
167	0xbd2feb85	-0.04294922
168	0xbabe3eab	-0.0014514526
169	0x3c49f76d	0.012327057
170	0xbd26f0d3	-0.04075701
171	0xbd073f59	-0.033019397
172	0xbd5e6c76	-0.054302655
173	0xbcb3b6e4	-0.021937795
174	0x3d4617d1	0.048362557
175	0x3c1890c5	0.0093118595
176	0xbba9941e	-0.0051751276
177	0x3aaa0fcb	0.0012974677
178	0x3d0ce3b1	0.03439683
179	0xbd3e9c16	-0.046535574
180	0xbd374352	-0.044741936
181	0xbca175ef	-0.019709555
182	0xbd08ce1f	-0.033399697
183	0x3ce2326c	0.027611934
184	0x3d1efd2d	0.038815666
185	0xbd651693	-0.05592973
186	0xbd3cf706	-0.046134017
187	0xbd58779f	-0.052848455
188	0x3cba3b90	0.02273348
189	0x3d3e4037	0.04644796
190	0xbd2e4627	-0.04254737
191	0xbcc8c09a	-0.024505902
192	0x3ca1fbf7	0.019773467
193	0xbd1c19f1	-0.038110677
194	0x3d3f1ba2	0.046657212
195	0x3c7517f8	0.014959328
196	0xbc72361b	-0.014783408
197	0x3b930b5c	0.004487438
198	0x3c9c4458	0.019075558
199	0xbc9d8f30	-0.019233316
200	0xbd386dce	-0.045026593
201	0x39501ee8	0.00019847939
202	0x395ce9a8	0.00021067879
203	0x3a3c2470	0.00071770605
204	0xbbeb11e7	-0.007173765
205	0x3d179796	0.037009798
206	0xbc61e3ea	-0.013787249
207	0xbbbe2d3c	-0.005803732
208	0x3cb6ede2	0.022330228
209	0xbd14d083	-0.036331665
210	0x3c624225	0.013809715
211	0xbc5c7558	-0.013455711
212	0x3cd53d24	0.02603013
213	0xbd03172c	-0.03200452
214	0x3a8ab547	0.0010582589
215	0x3b8b04f9	0.004242536
216	0xbd328e4f	-0.043592747
217	0xbd1f1d54	-0.03884633
218	0x3cbd9b8b	0.023145458
219	0xbc79a753	-0.015237647
220	0x3d0e1fa7	0.034698155
221	0xbd5cf1ea	-0.053941645
222	0xbcd09953	-0.025463736
223	0xbd42a224	-0.04751791
224	0x3cb0e410	0.021593124
225	0x3947509e	0.00019008151
226	0xbc1d5582	-0.009602906
227	0xbc0c0aee	-0.008547528
228	0xbd2e3ae0	-0.042536616
229	0x3c88aa5e	0.0166828
230	0xb89af83f	-7.389532e-05
231	0xbd216fde	-0.039413325
232	0x3ca5a4b7	0.020220144
233	0xbaadb3cc	-0.0013252436
234	0xbd5b55c3	-0.053548586
235	0x3cfbbe45	0.030730376
236	0x3d036e8f	0.03208786
237	0xbc5f658a	-0.013635049
238	0xbd269b75	-0.0406756
239	0x39e33dc7	0.00043342842
240	0x3d29cd20	0.041455388
241	0x3d503d9d	0.05084001
242	0xbd3360d1	-0.043793503
243	0xbcc7bc74	-0.024381854
244	0x3d3a391b	0.045464616
245	0x3cecf48f	0.028925208
246	0x3d141410	0.036151946
247	0xbcda5fb7	-0.026656969
248	0x3d4beb70	0.049785078
249	0xbd39ed60	-0.045392394
250	0xbaddb441	-0.0016914682
251	0x3b21d1c3	0.0024691678
252	0x3c2db587	0.0106023615
253	0xbd29b7ae	-0.041434936
254	0x3d4e4cd7	0.05036625
255	0x3d68f103	0.05687047

model_cnn.conv_layers.0.0.bias f4 [16]
0	0xbb3be005	-0.0028667462
1	0xbd106c47	-0.03525951
2	0xbd129700	-0.035788536
3	0x3c538d32	0.012912082
4	0xbd326795	-0.043555815
5	0xbd54b8c1	-0.051934008
6	0xbd338008	-0.043823272
7	0x3c59ceaa	0.013293901
8	0xbc0f3563	-0.008740756
9	0x3cbb73d3	0.022882378
10	0xbc0a5880	-0.008443952
11	0x3d3f3197	0.046678152
12	0xbd3700c5	-0.04467847
13	0xbd3672b3	-0.04454298
14	0x3d30a636	0.04312726
15	0x3a111b83	0.00055354106

model_cnn.conv_layers.0.1.weight f4 [16]
0	0x3f806414	1.0030541
1	0x3f8010f9	1.000518
2	0x3f800de9	1.0004245
3	0x3f7f0be3	0.9962751
4	0x3f7f407f	0.9970779
5	0x3f80825a	1.003978
6	0x3f7f7f65	0.99803764
7	0x3f7f068d	0.9961937
8	0x3f803c3d	1.0018383
9	0x3f8034db	1.001613
10	0x3f804fb4	1.0024323
11	0x3f7f4b03	0.99723834
12	0x3f801a95	1.0008112
13	0x3f8037fa	1.0017083
14	0x3f7f908f	0.99829954
15	0x3f7f358e	0.9969109

model_cnn.conv_layers.0.1.bias f4 [16]
0	0xba6d638a	-0.0009055665
1	0xb983d42f	-0.00025144356
2	0x39570cc5	0.00020508755
3	0xbb312442	-0.0027029668
4	0xb93cc741	-0.00018003305
5	0x3b3cbfbe	0.002880081
6	0x3b354050	0.0027656741
7	0x3b334fdc	0.0027360832
8	0xb8d7efb4	-0.00010296647
9	0xba712305	-0.0009198639
10	0x38b997c8	8.849759e-05
11	0xbb31db61	-0.0027138817
12	0x3b0ad525	0.0021184173
13	0x3b5e1d5c	0.0033892011
14	0x3b205de4	0.0024470026
15	0xbb5ca324	-0.0033666575

model_cnn.conv_layers.0.1.running_mean f4 [16]
0	0xbdeba5b1	-0.115062125
1	0x3cee53a0	0.02909261
2	0x3d80d1ab	0.06289991
3	0x3e33df1a	0.17565575
4	0x3e1a1751	0.15047957
5	0xbdca9f04	-0.09893611
6	0xbdf94406	-0.121711776
7	0xbcedf697	-0.029048247
8	0x3daf9687	0.08573633
9	0x3cd00fe8	0.02539821
10	0x3cdaf508	0.026728168
11	0x3d6da400	0.05801773
12	0xbe78d5e3	-0.24300341
13	0xbd43817e	-0.047730915
14	0x3e267b58	0.1625799
15	0x3d2ded51	0.04246265

model_cnn.conv_layers.0.1.running_var f4 [16]
0	0x3f2d1bc0	0.6762047
1	0x3f28f001	0.65991217
2	0x3f31674f	0.6929826
3	0x3f2c7a3e	0.67374027
4	0x3f31f635	0.6951631
5	0x3f2b8cf1	0.67011935
6	0x3f297f97	0.6621031
7	0x3f397ffe	0.72460926
8	0x3f2a5649	0.6653791
9	0x3f294613	0.6612255
10	0x3f2cb150	0.6745806
11	0x3f2ac783	0.6671068
12	0x3f3932d9	0.7234321
13	0x3f29ed51	0.6637774
14	0x3f293595	0.66097385
15	0x3f34d900	0.70643616

model_cnn.conv_layers.1.0.weight f4 [32, 16, 3]
0	0x3e0f17bb	0.13973896
1	0x3d3a1021	0.045425538
2	0xbd80e674	-0.062939554
3	0xbcec85f5	-0.02887247
4	0x3e0f0a04	0.13968664
5	0x3bc95bd0	0.006144978
6	0x3b2ae355	0.0026075442
7	0x3d81d504	0.06339458
8	0x3c50067e	0.01269686
9	0x3c87b11c	0.016563945
10	0xbe08a7f0	-0.13345313
11	0xbcc90d76	-0.024542551
12	0xbd0905c9	-0.033452783
13	0x3dc4e48d	0.09613905
14	0x3d50c1a1	0.05096591
15	0xbe16b27e	-0.14716527
16	0xbe026071	-0.12732102
17	0x3d444087	0.0479131
18	0xbde7da61	-0.11320949
19	0x3d9ab516	0.07554071
20	0xbda8103a	-0.0820622
21	0xbc840e41	-0.016120078
22	0x3dc1f57d	0.09470651
23	0xbd54427f	-0.051821228
24	0xbdef44c0	-0.11683035
25	0xbe08d9a1	-0.13364269
26	0x3c9afe2e	0.01892003
27	0x3cd47bad	0.02593788
28	0xbc952af5	-0.01820896
29	0x3c428eeb	0.011874895
30	0xbdf61f53	-0.12017693
31	0x3e0866a8	0.1332041
32	0x3dbaf1fb	0.09128185
33	0xbc883a3a	-0.016629327
34	0x3e0d0de8	0.13774836
35	0x3e0255a0	0.12727976
36	0xbdfbd455	-0.122963585
37	0x3d51b977	0.051202264
38	0x3e0d8e0f	0.13823722
39	0x3e0dd15d	0.13849397
40	0x3d3c25e9	0.04593459
41	0x3c958387	0.018251194
42	0x3d234dd4	0.039869145
43	0x3d3304bf	0.043705698
44	0x3ddd8d8d	0.10818014
45	0xbdb503ae	-0.088385925
46	0x3e10a885	0.14126785
47	0xbdc49749	-0.09599168
48	0x3d71ed3d	0.05906414
49	0x3ddc4e54	0.107571274
50	0x3d47c789	0.048774276
51	0x3dc14ad5	0.09438101
52	0x3d57d27d	0.05269097
53	0x3d6f4861	0.058418635
54	0x3dfbbbfb	0.12291714
55	0xbc25f277	-0.010128609
56	0xbc2cde73	-0.010551083
57	0x3d92872a	0.07154687
58	0xbd9453f5	-0.07242576
59	0x3e02df8f	0.12780593
60	0x3da6c17d	0.08142374
61	0x3dec2ff7	0.11532586
62	0xbdba405f	-0.09094309
63	0x3d7c2b90	0.061564982
64	0x3dd7d490	0.1053859
65	0xbd3bb75a	-0.045829155
66	0xbd8f16f0	-0.06986797
67	0x3ce156d0	0.027507216
68	0xbdb1d985	-0.08684067
69	0xbd9920d1	-0.07476962
70	0xbd0324c5	-0.032017488
71	0x3e069e70	0.13146377
72	0xbd51d3bb	-0.051227313
73	0x3d44f0fd	0.048081387
74	0xbc3e4704	-0.011613611
75	0xbd8a6426	-0.06757383
76	0x3df1fc9f	0.11815762
77	0xbde09fd2	-0.10967983
78	0x3bf20101	0.0073853736
79	0x3d26deeb	0.040739935
80	0xbc538a71	-0.012911425
81	0x3dbf255f	0.093333
82	0xbd93776e	-0.07200514
83	0xbd15c981	-0.036569122
84	0xbdd762ba	-0.105168775
85	0x3da6409d	0.08117793
86	0x3d861306	0.06546597
87	0xbd62efe0	-0.055404544
88	0xbdbd1763	-0.09232976
89	0xbc73bfaf	-0.014877244
90	0x3bf7ac34	0.00755837
91	0x3caf6ec1	0.021415116
92	0xbdec2c79	-0.1153192
93	0x3db638d7	0.0889756
94	0x3e0aab7f	0.13541983
95	0x3dae66f5	0.08515731
96	0xb94cd590	-0.00019534514
97	0x3ca7733f	0.020440696
98	0xbbc6e978	-0.006070312
99	0x3d264ab1	0.040598575
100	0x3e078d5c	0.13237518
101	0xbdbd751a	-0.09250851
102	0xbc93bd23	-0.018034523
103	0x3dbbb1bd	0.0916476
104	0x3d1ab89e	0.03777372
105	0x3e0be5b5	0.13661845
106	0xbe0bc9cb	-0.13651197
107	0x3d3628b5	0.044472415
108	0x3c951b2d	0.018201435
109	0xbcc850c3	-0.024452573
110	0xbe00ce45	-0.12578686
111	0x3cbfcb4f	0.023412375
112	0x3e0efdac	0.13963956
113	0x3dc1cceb	0.09462913
114	0xbe04c8b0	-0.12967181
115	0x3d8515c1	0.0649829
116	0xbde243f9	-0.11048121
117	0x3de903dc	0.11377689
118	0x3c7202b1	0.0147711495
119	0x3c71a990	0.0147498995
120	0x3e10b315	0.14130814
121	0xbde28c24	-0.11061886
122	0xbe0545da	-0.13014928
123	0xbd84dc47	-0.06487327
124	0xbd1859fb	-0.037195187
125	0xbdb55343	-0.088537715
126	0xbbed1d70	-0.0072361752
127	0xbdb3604c	-0.087586015
128	0x3d45998d	0.04824214
129	0xbd239f13	-0.039946627
130	0x3da8283f	0.08210801
131	0x3d8557e3	0.06510904
132	0x3e0e15c8	0.13875496
133	0xbdb85a5d	-0.090016104
134	0xbc15f8a0	-0.009153515
135	0xbc2223cb	-0.009896229
136	0xbe0029ef	-0.12515996
137	0x3de5f6b7	0.11228698
138	0x3dc0118f	0.09378349
139	0x3dcae1d0	0.099063516
140	0xbd4ec62c	-0.05048196
141	0xbda038d9	-0.07823343
142	0x3d8f65eb	0.07001861
143	0x3cad5098	0.021156594
144	0x3c99881f	0.018741665
145	0xbd009e50	-0.03140098
146	0xbe08b6fa	-0.1335105
147	0x3dc64d62	0.09682728
148	0xbd9ae623	-0.07563426
149	0x3dcf9821	0.10136438
150	0xbd2b48e9	-0.04181758
151	0xbd29d4e8	-0.04146281
152	0x3d1b0533	0.037846755
153	0x3d24ae9b	0.04020558
154	0x3e013afe	0.1262016
155	0xbd527215	-0.05137833
156	0x3d767612	0.060171194
157	0x3d83fb26	0.06444387
158	0xbc0f42e1	-0.0087439725
159	0xbe076e23	-0.13225608
160	0xbcab0091	-0.020874294
161	0x3ded1c10	0.11577618
162	0xbdf7a848	-0.12092644
163	0x3c67e392	0.014153378
164	0xbd981781	-0.07426358
165	0xbd930c6d	-0.071801044
166	0x3de4c00e	0.11169444
167	0xbc22c98c	-0.009935748
168	0x3d4fc68a	0.05072645
169	0x3cfbcf73	0.030738568
170	0xbdd84f1b	-0.10561963
171	0xbe1447c8	-0.14480507
172	0xbdb1b650	-0.086773515
173	0xbcfa2707	-0.030536188
174	0xbd892834	-0.06697121
175	0xbd2490e5	-0.040177245
176	0x3d69b14c	0.05705385
177	0xbc8e9e2e	-0.01740941
178	0x3c1f03c7	0.00970549
179	0xbd96bcaf	-0.07360207
180	0x3dc52798	0.096266925
181	0xbd87f148	-0.066378176
182	0xbc0b5269	-0.008503535
183	0x3da6680d	0.08125315
184	0x3e03107c	0.12799257
185	0xbd998cc5	-0.07497553
186	0xbe08152d	-0.13289328
187	0xbdf773f0	-0.1208266
188	0x3cd7d710	0.026347667
189	0x3d717609	0.058950458
190	0xbd858542	-0.065195575
191	0xbdeef006	-0.116668746
192	0xbcf9ebc2	-0.030507926
193	0xbd22169f	-0.039572354
194	0xbdc18406	-0.094490096
195	0xbe0d5e30	-0.13805461
196	0xbdd1f52f	-0.10251843
197	0xbbee5af2	-0.007274025
198	0x3da3960c	0.079876035
199	0xbddad36e	-0.10684858
200	0xbd5580c0	-0.05212474
201	0xbde4381f	-0.11143517
202	0x3d8e30a4	0.06942871
203	0xbc097ea5	-0.008392011
204	0x3db64e77	0.08901685
205	0x3c9e190d	0.019299055
206	0xbcdbe5df	-0.02684301
207	0x3dfb350c	0.12265977
208	0x3db801b5	0.089847006
209	0x3e063b97	0.13108669
210	0xbdd06d19	-0.10177059
211	0x3d8ce189	0.06878955
212	0xbdb76175	-0.08954135
213	0xbdbd0b2d	-0.09230647
214	0x3dd56beb	0.10420974
215	0x3d7d504d	0.06184416
216	0xbdafb95c	-0.08580276
217	0xbdc00f7d	-0.09377954
218	0xbd9718ac	-0.07377753
219	0x3de72c7b	0.11287781
220	0x3d4993de	0.049213283
221	0x3c209656	0.009801468
222	0xbdc7834d	-0.097418405
223	0x3d44be32	0.048032947
224	0xbcf5e744	-0.030017503
225	0x3db3b480	0.08774662
226	0x3d122116	0.035676084
227	0x3d88a52f	0.06672131
228	0xbd55da0f	-0.05220991
229	0xbbc04898	-0.005868029
230	0xbdab08fe	-0.083513245
231	0x3d0ccebd	0.03437685
232	0xbc24e068	-0.010063268
233	0xbdf93779	-0.12168784
234	0x3d9c9389	0.076453276
235	0x3d5d8ac0	0.0540874
236	0x3da5ac4b	0.08089503
237	0x3d832557	0.064036064
238	0x3c853800	0.016262054
239	0x3dd7fb35	0.10545961
240	0xbe02572d	-0.12728567
241	0x3d17dffa	0.037078835
242	0x3de97174	0.113985926
243	0xbcc1f2dc	-0.023675375
244	0x3ddd8bc3	0.10817673
245	0x3d734115	0.05938824
246	0x3df6919e	0.12039493
247	0x3dfd15ea	0.123576954
248	0x3d8d10a3	0.06887939
249	0x3c4976b0	0.012296364
250	0xbdf43bc6	-0.119254634
251	0xbd5ac70c	-0.053412482
252	0xbe065db5	-0.13121684
253	0xbcc027ae	-0.02345642
254	0x3db1b669	0.0867737
255	0x3d9ecdc1	0.07754088

model_cnn.conv_layers.1.0.bias f4 [32]
0	0xbd1982ce	-0.03747826
1	0xbc3b2235	-0.01142173
2	0xbb48f295	-0.0030662168
3	0x3d9b1a18	0.07573336
4	0x3d71d43f	0.059040304
5	0xbe0327fa	-0.12808219
6	0x3d7808da	0.060555317
7	0x3e06af39	0.1315278
8	0xbdd49bea	-0.10381301
9	0x3db48cfd	0.08815954
10	0xbddd3227	-0.108005814
11	0xbbfd8892	-0.0077372277
12	0x3d8f26c6	0.06989817
13	0x3df27723	0.1183913
14	0xbdb97782	-0.090559974
15	0xbe02411b	-0.12720148
16	0xbd8fc306	-0.0701962
17	0x3e09485f	0.13406514
18	0x3d21833a	0.039431788
19	0xbd912b34	-0.070883185
20	0xbd94c8f0	-0.07264888
21	0xbd8322b3	-0.06403103
22	0xbdcb342f	-0.099220626
23	0xbdb73075	-0.08944789
24	0xbd79852a	-0.06091801
25	0x3de44098	0.11145133
26	0xbc77ead3	-0.01513167
27	0x3cfc80e0	0.030823171
28	0x3d8b640e	0.06806193
29	0x3d037266	0.03209152
30	0xbd92df22	-0.071714655
31	0xbdacc8c4	-0.084367305

model_cnn.conv_layers.1.1.weight f4 [32]
0	0x3f80785a	1.0036728
1	0x3f7f5a6d	0.99747354
2	0x3f8071f2	1.0034773
3	0x3f7f87e7	0.99816746
4	0x3f7f86db	0.9981515
5	0x3f7fdde8	0.9994798
6	0x3f7f3079	0.9968334
7	0x3f8066cd	1.0031372
8	0x3f7f4444	0.9971354
9	0x3f7f859f	0.99813265
10	0x3f7fecc6	0.9997066
11	0x3f807d69	1.0038272
12	0x3f7f0f2b	0.9963252
13	0x3f80568f	1.0026416
14	0x3f801c0d	1.000856
15	0x3f805012	1.0024436
16	0x3f80330f	1.0015582
17	0x3f7f0152	0.9961139
18	0x3f7f3682	0.9969255
19	0x3f8003f3	1.0001205
20	0x3f806cf8	1.0033255
21	0x3f7fad04	0.99873376
22	0x3f803f4c	1.0019317
23	0x3f7f2a93	0.9967434
24	0x3f7f4b4b	0.9972426
25	0x3f804efb	1.0024103
26	0x3f7f89ac	0.99819446
27	0x3f802b79	1.0013267
28	0x3f8048fa	1.0022271
29	0x3f80597c	1.0027308
30	0x3f8047cf	1.0021914
31	0x3f8012dd	1.0005757

model_cnn.conv_layers.1.1.bias f4 [32]
0	0xb8a44640	-7.8332145e-05
1	0x3ac4d695	0.0015017564
2	0x3aefb93f	0.001828946
3	0xbb2f9d79	-0.0026796742
4	0x3b3b8532	0.0028613326
5	0x3a8ae5ae	0.0010597014
6	0xbaeb0c93	-0.0017932825
7	0xba70d9ba	-0.0009187717
8	0xbb6dbfe2	-0.00362777
9	0xbb259ff2	-0.0025272337
10	0x3985d46a	0.00025525998
11	0xbb0b00b3	-0.0021210134
12	0xbb6aff80	-0.0035857856
13	0x3b4caf60	0.0031232461
14	0x3b434924	0.0029798234
15	0x3b46fa93	0.0030361756
16	0xba8ec8d5	-0.0010893593
17	0x39cfad25	0.0003961112
18	0xba974e2d	-0.0011543684
19	0x3a761c78	0.00093883974
20	0x3b3358c4	0.002736614
21	0x39807f0b	0.00024508717
22	0x3a22682b	0.0006195332
23	0x3b313ae1	0.0027043151
24	0xba463e5b	-0.0007562392
25	0x3b2c4959	0.0026288836
26	0x3b6114c5	0.0034344655
27	0xbb5790fb	-0.0032892812
28	0xb9b7c41c	-0.00035050593
29	0xba499276	-0.0007689366
30	0x3b6fd8e6	0.0036597787
31	0x3ad7538a	0.0016428095

model_cnn.conv_layers.1.1.running_mean f4 [32]
0	0x3ccd0ca9	0.02503045
1	0x3dc06402	0.09394075
2	0x3d909c8c	0.07061109
3	0xbd6c7503	-0.05772878
4	0xbb00699d	-0.00195942
5	0xbd0b7ff4	-0.034057572
6	0x3da27bb8	0.07933754
7	0x3d850b22	0.06496264
8	0xbe2ed7b2	-0.17074469
9	0x3ddc2510	0.107492566
10	0x3bdd51e8	0.0067541488
11	0x3dd7eba6	0.10542993
12	0x3d1fc8f3	0.03901
13	0xbaf2d080	-0.0018525273
14	0xbcfcbdf8	-0.030852303
15	0xbc22ea0a	-0.009943495
16	0x3be1ace4	0.0068870652
17	0x3d411722	0.0471412
18	0x3d0c02fa	0.034182526
19	0xbe198e07	-0.14995585
20	0x3c737a9c	0.014860775
21	0xbd883289	-0.06650264
22	0x3c83d95a	0.016094852
23	0xbc39acd8	-0.011332713
24	0x3d06128c	0.03273253
25	0x3e09cc26	0.13456783
26	0xbb70c0da	-0.0036736042
27	0xbc5c2bdf	-0.013438194
28	0xbc94578d	-0.018108154
29	0x3d8275ac	0.063701004
30	0xbd423e64	-0.04742278
31	0xbd136310	-0.035983145

model_cnn.conv_layers.1.1.running_var f4 [32]
0	0x3f2929ac	0.6607921
1	0x3f324817	0.6964125
2	0x3f497852	0.7869922
3	0x3f2b4113	0.6689617
4	0x3f3124ec	0.69196963
5	0x3f2be052	0.6713916
6	0x3f2f80bc	0.6855581
7	0x3f2d93be	0.6780356
8	0x3f380a6b	0.71890897
9	0x3f33eb0b	0.7028052
10	0x3f3a17d5	0.72692615
11	0x3f2be5e8	0.67147684
12	0x3f305082	0.68872845
13	0x3f2b2d54	0.6686604
14	0x3f2e4ce9	0.68086106
15	0x3f2f1ff7	0.6840815
16	0x3f29b61d	0.6629351
17	0x3f2e34c1	0.68049246
18	0x3f37ab05	0.7174533
19	0x3f3547e7	0.7081284
20	0x3f2b68b3	0.66956633
21	0x3f3275c5	0.6971095
22	0x3f2a09f4	0.6642144
23	0x3f2b2ea5	0.6686805
24	0x3f2a6eb7	0.6657519
25	0x3f2d814e	0.6777543
26	0x3f3e2c1a	0.74286044
27	0x3f2c3680	0.6727066
28	0x3f2a1029	0.6643091
29	0x3f2db304	0.6785128
30	0x3f2a18d7	0.6644415
31	0x3f2ec76f	0.6827306

model_cnn.conv_layers.3.0.weight f4 [64, 32, 3]
0	0xbd72e56f	-0.059300836
1	0xbcbdc17e	-0.023163553
2	0xbc937dc7	-0.018004311
3	0x3d37f3b2	0.04491014
4	0x3d06dded	0.03292649
5	0x3d574038	0.05255148
6	0xbd680df4	-0.05665393
7	0xbdcaef04	-0.0990887
8	0x3ce5fb0c	0.02807381
9	0xbdbf5476	-0.093422815
10	0x3db2684e	0.08711301
11	0xbd11f0b8	-0.035629958
12	0x3c975f89	0.018478172
13	0x3cebb93a	0.028774846
14	0xbd4a1ef0	-0.04934591
15	0xbd85be4d	-0.065304376
16	0x3d8f6d0b	0.0700322
17	0x3daa1428	0.08304626
18	0x3c59fed1	0.013305382
19	0x3dae6adb	0.08516475
20	0x3d4df965	0.05028667
21	0xbc24857c	-0.010041591
22	0xbd336df2	-0.043806024
23	0xbd7ef567	-0.062245753
24	0x3cdc1430	0.026865095
25	0x3d4eaeb3	0.050459575
26	0x3da45a7c	0.08025071
27	0xbc2ed469	-0.01067076
28	0x3d990b0f	0.074728124
29	0x3d660771	0.05615944
30	0x3d6ffd8c	0.05859141
31	0x3d5dbf30	0.05413741
32	0x3d657376	0.056018315
33	0x3cdc878b	0.0269201
34	0x3d6b0ad6	0.05738338
35	0x3da2c5ba	0.079478696
36	0x3d8a6ce9	0.06759054
37	0x3da76c05	0.081749
38	0xbd636ce8	-0.055523783
39	0xbca362b0	-0.019944519
40	0x3dd271be	0.10275601
41	0x3d6432b0	0.055712402
42	0x3d9c82e9	0.07642157
43	0x3d29c503	0.04144765
44	0xbd81ea63	-0.06343534
45	0x3d1eb0b5	0.03874274
46	0xbd874a66	-0.06605987
47	0x3d5aa510	0.053380072
48	0xbcc8f359	-0.0245301
49	0x3da68439	0.08130688
50	0xbd80a51d	-0.06281493
51	0xbd4d5dbb	-0.050138216
52	0x3cb054b1	0.021524759
53	0x3daa46ec	0.083143085
54	0xbd86190c	-0.06547746
55	0x3bd22e36	0.0064142
56	0xbbd8569f	-0.006602123
57	0x3d5c4fc6	0.053787015
58	0xbd8729e5	-0.065997876
59	0xbdbda6f4	-0.092603594
60	0x3c946b7d	0.01811766
61	0xbd6ce947	-0.057839658
62	0xbd1ecf46	-0.03877189
63	0x3d6ae553	0.057347607
64	0xbbb88f2b	-0.0056323013
65	0xbcdfe32b	-0.027330002
66	0x3d941611	0.07230771
67	0xbda97295	-0.08273808
68	0xbd9effdc	-0.07763645
69	0x3d92f636	0.07175867
70	0xbcc0c0d8	-0.023529455
71	0x3dbd12b2	0.092320815
72	0x3d2cf877	0.042229142
73	0xbd085659	-0.033285473
74	0xbd8ed628	-0.06974441
75	0x3da2ea21	0.07954813
76	0xbd94212b	-0.07232889
77	0x3d9df48e	0.07712661
78	0x3ca2dcc4	0.01988066
79	0xbd5a1d24	-0.053250447
80	0x3d9a53ae	0.07535492
81	0x3d1f2738	0.03885576
82	0xbd66fbfa	-0.056392647
83	0x3d91bc63	0.0711601
84	0xbdb8959a	-0.09012909
85	0x3ccfb8b5	0.02535663
86	0x3d8311a9	0.06399853
87	0x3b4247e6	0.0029644906
88	0xbd9b7dee	-0.075923786
89	0x3d2d5fc7	0.04232767
90	0xbdb7f579	-0.08982367
91	0x3c93d4f3	0.018045878
92	0x3db59584	0.088664085
93	0x3dbdd789	0.09269626
94	0xbb4de743	-0.003141836
95	0x3d8eff33	0.06982269
96	0x3dd3804a	0.103272036
97	0xbd25d208	-0.040483505
98	0xb9d39149	-0.00040353302
99	0xbd37ce89	-0.0448747
100	0xbd8ec70c	-0.06971559
101	0x3da70dce	0.0815693
102	0xbd4f228c	-0.050570056
103	0x3a26ff91	0.000637048
104	0x3d2db1ec	0.042406008
105	0xbdb018b8	-0.08598465
106	0xbd9cc7d7	-0.07655304
107	0x3d64ab7f	0.055827614
108	0x3bfc1312	0.007692703
109	0xbd26f101	-0.040757183
110	0xbc6c005b	-0.014404382
111	0xbd1d4e47	-0.03840473
112	0xbc80bf75	-0.015716294
113	0xbd88a67f	-0.066723816
114	0xbc80c0d9	-0.015716957
115	0x3d68c378	0.05682704
116	0xbdc47023	-0.09591701
117	0xbd793d4c	-0.060849473
118	0xbdb6649d	-0.08905909
119	0x3c721ffa	0.014778132
120	0xbd190002	-0.037353523
121	0x3c2ca9d1	0.010538534
122	0x3d0dbcc8	0.034603864
123	0x3d1f5212	0.038896628
124	0xbd599211	-0.053117815
125	0xbb322e0b	-0.0027188088
126	0xbdd13359	-0.10214872
127	0xbda047eb	-0.07826217
128	0xbd3cf981	-0.046136383
129	0xbd3943c6	-0.04523065
130	0xbd750551	-0.059819523
131	0x3d2a3ec8	0.04156378
132	0x3b5803ab	0.003296117
133	0x3d28b2d4	0.04118617
134	0xbc8d0616	-0.017214816
135	0x3d86b2fa	0.06577106
136	0xbd81d4c6	-0.063394114
137	0x3d083537	0.033253875
138	0xbd6b7bbb	-0.057491045
139	0xbd1a45bf	-0.03766417
140	0x3dbf8f8b	0.093535505
141	0xbc8f4b4c	-0.017491959
142	0x3c0904ae	0.008362932
143	0x3d1860cb	0.037201684
144	0x3d90f6ee	0.07078348
145	0x3d0b180a	0.033958472
146	0xbda20981	-0.07911969
147	0xbd9cca48	-0.076557696
148	0xb92d83ba	-0.00016547638
149	0xbbdc6e24	-0.006726997
150	0x3d88b32f	0.066748016
151	0xbcdf6701	-0.027270796
152	0x3dcba038	0.09942669
153	0x3da70b61	0.08156467
154	0x3dc9cf8c	0.098540395
155	0x3b3275f8	0.002723096
156	0xbbcaa572	-0.0061842734
157	0x3d7fdafb	0.062464695
158	0xbc7fd231	-0.015614078
159	0xbd8b3288	-0.067967474
160	0xbdc9e854	-0.09858766
161	0xbcb84bf0	-0.022497147
162	0x3c066dee	0.00820492
163	0x3db9a5fe	0.090648636
164	0x3d9ae1c2	0.07562591
165	0xbd8c0e25	-0.06838635
166	0xbdbf765c	-0.09348747
167	0xbc0c6e9f	-0.008571296
168	0xbd287756	-0.041129433
169	0xbc0a7ff8	-0.008453362
170	0xbdc3b1ce	-0.09555398
171	0xbdbc8838	-0.09205669
172	0x3ad0bc8c	0.0015925332
173	0xbcdbd383	-0.026834255
174	0xbd53cd45	-0.051709432
175	0x3cd628dc	0.02614253
176	0xbccfa306	-0.02534629
177	0xbd5068cf	-0.050881203
178	0x3d8f1e2a	0.06988175
179	0xbda965b7	-0.08271354
180	0xbdc874d9	-0.09787912
181	0xbbd98ed6	-0.006639342
182	0x3ce283d2	0.027650747
183	0xbacdeab3	-0.0015710205
184	0xbd6c0d4f	-0.05762988
185	0xbc8ce416	-0.017198604
186	0xbc24a048	-0.01004798
187	0x3d18193d	0.037133444
188	0xbd86ca49	-0.065815516
189	0x3d194319	0.037417505
190	0x3cd6d7aa	0.026225884
191	0x3db88dcd	0.09011421
192	0x3d509ec5	0.050932664
193	0x3cdb2c2a	0.026754458
194	0x3d169116	0.03675946
195	0xbdbc4372	-0.09192552
196	0x3d586d11	0.05283839
197	0x3dc9574f	0.09831106
198	0xbcab4b51	-0.020909937
199	0xbd98d9a2	-0.07463385
200	0x3ccdf235	0.025139907
201	0x3da86bfe	0.08223723
202	0x3db064e5	0.08612994
203	0xbc57c08a	-0.0131684635
204	0x3d8ce800	0.06880188
205	0x3baff739	0.0053700474
206	0x3b948d75	0.0045334646
207	0xbdc37cbf	-0.09545278
208	0xbd5bdf8d	-0.05367999
209	0x3d022790	0.03177601
210	0x3d9f8d82	0.07790662
211	0xbdbd8f48	-0.09255844
212	0xbcef2a67	-0.029195024
213	0x3db9c73a	0.090712026
214	0x3cb7b902	0.022427086
215	0xbb377d91	-0.0027998427
216	0xbdb9ab0e	-0.09065829
217	0x3db33818	0.087509334
218	0x3d1a56cb	0.03768043
219	0x3c2e2b9c	0.0106305145
220	0x3da96b9b	0.08272477
221	0xbcaf1d55	-0.021376291
222	0x3ab3a2db	0.0013705151
223	0xbd243d66	-0.040097617
224	0xbda97f0d	-0.08276186
225	0x3db655ec	0.08903107
226	0xbdce186c	-0.10063252
227	0x3d900210	0.070316434
228	0xbd2cd11e	-0.042191617
229	0x3dbd5d9f	0.092463724
230	0x3d0f2dbf	0.034955736
231	0xbd8ba6c8	-0.068189204
232	0xbb75ac99	-0.003748691
233	0x3d91bba4	0.07115868
234	0xbd7341e4	-0.05938901
235	0xbd7ffbf5	-0.062496144
236	0x3dbfca15	0.09364716
237	0xbd7afde3	-0.06127728
238	0x3bb33354	0.0054687653
239	0x3ca90dc7	0.020636452
240	0xbd8f0910	-0.069841504
241	0xbdc16955	-0.094439186
242	0x3c8b5bd5	0.017011562
243	0xbd97a06f	-0.07403647
244	0xbc5f53ea	-0.0136308465
245	0x3daefd2b	0.08544382
246	0x3c48c88e	0.012254847
247	0xbd1eca0b	-0.038766902
248	0xbd996956	-0.07490794
249	0x3c4b17f0	0.012395844
250	0x3d904e24	0.07046154
251	0xbd1190ab	-0.035538357
252	0x3d9acb81	0.075583465
253	0xbcfde691	-0.030993732
254	0xbcbc4d93	-0.022986209
255	0x3d9a52c5	0.07535318

model_cnn.conv_layers.3.0.bias f4 [64]
0	0xbca3651c	-0.019945674
1	0xbd85f605	-0.06541065
2	0x3c7b84ea	0.015351513
3	0x3db56955	0.08857981
4	0x3ca902c6	0.020631205
5	0xbdbba3df	-0.09162115
6	0x3d1a8cc8	0.037731916
7	0xbb254957	-0.0025220716
8	0x3ca86621	0.020556511
9	0xb9ef3052	-0.00045621634
10	0x3c96f97e	0.018429514
11	0xbd91cda1	-0.07119299
12	0xbd899305	-0.06717495
13	0xbdc7ee79	-0.09762282
14	0x3d687d1e	0.056759946
15	0xbd251888	-0.040306598
16	0xbc40fc5c	-0.011778917
17	0x3d268ad1	0.04065973
18	0x3d070e10	0.032972395
19	0x3d91e319	0.071233936
20	0x3d11a3b3	0.035556506
21	0xbd2e2acf	-0.042521294
22	0xbc41d25b	-0.011829938
23	0x3d50c2b8	0.05096695
24	0xbd0e6d0b	-0.03477196
25	0x3dc4d2d9	0.096105285
26	0xbd4e5122	-0.050370343
27	0x3cf0f84e	0.029415276
28	0xbd4955a6	-0.049153946
29	0xbd9bbad6	-0.076039955
30	0x3c15cc89	0.009143003
31	0xbd13ba85	-0.03606655
32	0x3d3766cb	0.044775765
33	0xbcb1c4eb	-0.021700343
34	0x3dbf27ff	0.093338005
35	0x3ca61883	0.02027536
36	0x3dc4213b	0.09576651
37	0xbcac7298	-0.021050736
38	0xbd84b362	-0.06479527
39	0xbca78dc7	-0.020453347
40	0xbd2e7086	-0.04258778
41	0x3d6c7a16	0.057733618
42	0xbd4ad475	-0.04951902
43	0xbd889baf	-0.06670319
44	0xbd799010	-0.060928404
45	0x3d9cf2cd	0.07663498
46	0xbd8acb6f	-0.06777083
47	0x3c358764	0.011079643
48	0x3d810341	0.06299449
49	0xbd7dadb3	-0.06193323
50	0xbc333615	-0.010938187
51	0xbd3f2f89	-0.046676192
52	0x3dbadb8f	0.09123909
53	0xbcf177aa	-0.029476006
54	0x3c9dc760	0.019260108
55	0x3c75dd16	0.015006324
56	0xbdba41a1	-0.09094549
57	0x3d2b29cb	0.041787904
58	0xbd377c08	-0.04479602
59	0x3da7894e	0.08180486
60	0x3d91764f	0.07102644
61	0x3cf54606	0.029940616
62	0xbc9e6702	-0.019336227
63	0xbd5c44ae	-0.053776436

model_cnn.conv_layers.3.1.weight f4 [64]
0	0x3f801bab	1.0008444
1	0x3f7f77c0	0.997921
2	0x3f8015af	1.0006617
3	0x3f805f2f	1.0029048
4	0x3f7f64e5	0.9976333
5	0x3f8055b3	1.0026153
6	0x3f801935	1.0007693
7	0x3f7f188b	0.99646825
8	0x3f7f16a5	0.9964393
9	0x3f7ff62c	0.99985003
10	0x3f7f140e	0.99639976
11	0x3f7f7c3a	0.9979893
12	0x3f7f5ba5	0.99749213
13	0x3f7f26ac	0.99668384
14	0x3f804f29	1.0024158
15	0x3f7ff9e9	0.9999071
16	0x3f7f0303	0.9961397
17	0x3f7f88bd	0.9981802
18	0x3f806626	1.0031173
19	0x3f7f1c1b	0.9965226
20	0x3f7f24bc	0.9966543
21	0x3f7fe757	0.9996237
22	0x3f806633	1.0031189
23	0x3f7f16e0	0.9964428
24	0x3f807745	1.0036398
25	0x3f8070cd	1.0034424
26	0x3f803f3b	1.0019296
27	0x3f7f0186	0.996117
28	0x3f8031d1	1.0015203
29	0x3f8062d1	1.0030156
30	0x3f7fee03	0.9997255
31	0x3f806acc	1.0032592
32	0x3f8009c1	1.0002977
33	0x3f805fe0	1.0029259
34	0x3f7f1a38	0.9964938
35	0x3f803a77	1.0017842
36	0x3f7fd3ae	0.9993237
37	0x3f7f9398	0.99834585
38	0x3f806d8e	1.0033433
39	0x3f7f7a23	0.9979574
40	0x3f7fcc84	0.9992144
41	0x3f802d7c	1.0013881
42	0x3f7f239d	0.99663717
43	0x3f800510	1.0001545
44	0x3f7f411a	0.9970871
45	0x3f80613c	1.0029674
46	0x3f7f0317	0.9961409
47	0x3f80320d	1.0015274
48	0x3f7f8e0f	0.9982614
49	0x3f8022d4	1.0010629
50	0x3f806ba5	1.003285
51	0x3f803376	1.0015705
52	0x3f7efe93	0.996072
53	0x3f80283c	1.0012279
54	0x3f7ff90d	0.99989396
55	0x3f7fd219	0.9992996
56	0x3f8079d1	1.0037175
57	0x3f7f554c	0.9973953
58	0x3f80562d	1.0026299
59	0x3f7f65d2	0.9976474
60	0x3f807a79	1.0037376
61	0x3f80631b	1.0030245
62	0x3f7fcd0d	0.9992226
63	0x3f807843	1.0036701

model_cnn.conv_layers.3.1.bias f4 [64]
0	0x3b5b1547	0.003342943
1	0xbb0f9f7a	-0.0021915124
2	0xbb2c4b0c	-0.0026289849
3	0xbb1f8924	-0.0024343217
4	0xbafdbd69	-0.0019358817
5	0x3b0a238c	0.0021078316
6	0x3b7c9f54	0.0038547115
7	0xbb6d2d0c	-0.003619018
8	0xbae0bc99	-0.001714605
9	0x3b3490b0	0.002755206
10	0xb976bf39	-0.00023531624
11	0xbae10037	-0.0017166202
12	0xba973972	-0.0011537506
13	0xbb591736	-0.0033125407
14	0x3b6dad3e	0.003626659
15	0xbad901bb	-0.0016556302
16	0xbb3c4184	-0.0028725574
17	0xbb14e06d	-0.0022716776
18	0x3b1de1e0	0.002409093
19	0xbb591db5	-0.003312928
20	0x3a4728cc	0.0007597327
21	0x3b096d37	0.0020969638
22	0x3b6acea9	0.0035828745
23	0xbb6a2a1a	-0.003573066
24	0x3a394df9	0.0007068809
25	0x3b83168f	0.004000492
26	0x3b74373d	0.003726437
27	0xbb52bc3a	-0.0032155649
28	0x3ac93922	0.001535211
29	0x3b4bfa3e	0.0031124498
30	0x3b014e98	0.0019730683
31	0x3a70e798	0.00091897836
32	0xba9e2b7f	-0.0012067406
33	0x3a9a92dc	0.0011793035
34	0xbb3444f0	-0.002750691
35	0x3b3e3fc5	0.0029029709
36	0xbb116f80	-0.0022191703
37	0x3aedec8f	0.0018152165
38	0x3b7e4cec	0.0038803173
39	0xbb6a2836	-0.0035729534
40	0xbb419ab0	-0.0029541664
41	0xbabcf36e	-0.001441581
42	0xbb7c83fb	-0.0038530815
43	0x3b11283f	0.0022149233
44	0xbb0dffda	-0.0021667392
45	0x3b7d1852	0.0038619232
46	0xbb66c6a4	-0.0035213614
47	0x3b4e931d	0.0031520792
48	0xba84a1c2	-0.0010119008
49	0x3b02cacd	0.0019957304
50	0x3b34198f	0.0027481054
51	0x3b761486	0.0037548854
52	0xbb732cf8	-0.003710566
53	0x3ab38fdf	0.0013699493
54	0x3a546819	0.000810267
55	0xbb1e3ba9	-0.0024144447
56	0x3b77d420	0.0037815645
57	0xba77d11d	-0.00094534626
58	0xba9c7ee5	-0.0011939673
59	0xbacf8ae5	-0.001583424
60	0x3b7e0a1f	0.0038763357
61	0x3b7756ea	0.0037741014
62	0x3a82e8f7	0.0009987642
63	0x3b6d0c85	0.0036170792

model_cnn.conv_layers.3.1.running_mean f4 [64]
0	0x3e0c78e3	0.1371799
1	0xbe54b843	-0.20773415
2	0xbc3a6708	-0.011377104
3	0x3d4b319c	0.049607858
4	0xbd5cf418	-0.053943723
5	0xbe3f3bf4	-0.18675214
6	0x3cd0816a	0.025452334
7	0xbd1e38d2	-0.038628407
8	0x3daa4518	0.0831396
9	0xbd23c5c6	-0.039983533
10	0x3e4a2494	0.19740516
11	0x3e3e68ea	0.18594709
12	0x3c97b5df	0.01851934
13	0xbb8713e6	-0.004122245
14	0x3d9074b6	0.07053511
15	0x3dd364b0	0.10321939
16	0x3decf21e	0.11569618
17	0xbcb3792e	-0.021908369
18	0x3e197875	0.14987357
19	0x3d923926	0.071398064
20	0xbbe63660	-0.007025525
21	0x3dc92f64	0.09823492
22	0xbd2c6139	-0.042084906
23	0xbe717a9c	-0.23581928
24	0xbd4c536c	-0.049884245
25	0x3d6d01ad	0.057862926
26	0xbe287320	-0.16450167
27	0xbcbc7e7b	-0.02300953
28	0xbd8ad059	-0.067780204
29	0xbb777fe9	-0.003776545
30	0x3e025fe1	0.12731887
31	0xbdb272e6	-0.087133214
32	0xbc2aba74	-0.01042043
33	0x3dbddf2b	0.092710815
34	0xbe22cbce	-0.15898058
35	0x3c9f89cd	0.019474888
36	0xbd6c6064	-0.057709113
37	0x3ca87e03	0.0205679
38	0xbda81921	-0.08207918
39	0xbd9f5ea6	-0.07781725
40	0xbd25f948	-0.040520936
41	0x3d471985	0.04860832
42	0xbd667535	-0.05626412
43	0xbdd7e620	-0.1054194
44	0x3dd4c420	0.103889704
45	0x3e33d3b1	0.17561223
46	0x3e2d28a5	0.16910036
47	0x3d2ccebf	0.042189356
48	0xbd7a905a	-0.06117282
49	0x3e2d9eb2	0.16955069
50	0xbda380dd	-0.07983563
51	0xbd1b2516	-0.037877165
52	0x3cdc05d6	0.026858252
53	0x3d91a1cc	0.071109384
54	0xbd58b4af	-0.05290669
55	0x3d9f1345	0.07767347
56	0x3daa6560	0.08320117
57	0x3e07a9ef	0.13248418
58	0xbca50587	-0.020144237
59	0xbcaaad46	-0.020834576
60	0x3e3ffc6a	0.18748632
61	0xbd8cd92a	-0.06877358
62	0x3d692f7d	0.056930054
63	0xbdb013e0	-0.08597541

model_cnn.conv_layers.3.1.running_var f4 [64]
0	0x3f3594ef	0.7093038
1	0x3f3388db	0.701307
2	0x3f293b15	0.6610578
3	0x3f2ea01f	0.68213075
4	0x3f2b8901	0.67005926
5	0x3f2d89b0	0.6778822
6	0x3f2c550f	0.6731729
7	0x3f2915cb	0.6604888
8	0x3f3473ce	0.70489204
9	0x3f3cb855	0.7371877
10	0x3f36d298	0.7141509
11	0x3f464bf6	0.7745966
12	0x3f3083a3	0.6895086
13	0x3f2c25ee	0.67245376
14	0x3f366cfb	0.7126004
15	0x3f366b13	0.7125713
16	0x3f2e3ac6	0.6805843
17	0x3f311a65	0.691809
18	0x3f351c7f	0.70746607
19	0x3f2d45c6	0.6768459
20	0x3f2a22aa	0.66459143
21	0x3f2d2589	0.676354
22	0x3f2fe3f8	0.6870723
23	0x3f2ac576	0.6670755
24	0x3f2c01e0	0.6719036
25	0x3f331a71	0.6996222
26	0x3f2f79f1	0.6854544
27	0x3f38ab5e	0.72136486
28	0x3f3e9161	0.7444058
29	0x3f2cbabc	0.67472434
30	0x3f332223	0.69973963
31	0x3f2b06ec	0.66807437
32	0x3f2a7e8e	0.6659936
33	0x3f40cdbb	0.7531392
34	0x3f375a15	0.7162183
35	0x3f2ab02f	0.66675085
36	0x3f2d355b	0.6765954
37	0x3f2dc6bb	0.67881364
38	0x3f294a35	0.66128856
39	0x3f2b62b2	0.6694747
40	0x3f2e0dd3	0.67989844
41	0x3f2ad2b6	0.6672777
42	0x3f292557	0.660726
43	0x3f2f8062	0.6855527
44	0x3f2f1e34	0.6840546
45	0x3f39915f	0.72487444
46	0x3f2f6856	0.6851858
47	0x3f5d4d35	0.86445934
48	0x3f2e932d	0.6819332
49	0x3f35febd	0.71091825
50	0x3f3166aa	0.6929728
51	0x3f2f964d	0.68588716
52	0x3f33574e	0.7005509
53	0x3f2ba258	0.6704459
54	0x3f2a0029	0.66406494
55	0x3f2b226f	0.66849416
56	0x3f2a70dd	0.66578466
57	0x3f2abc3d	0.6669348
58	0x3f356b9e	0.70867336
59	0x3f2c394c	0.6727493
60	0x3f2ac58b	0.66707677
61	0x3f2c518b	0.67311925
62	0x3f2db0ba	0.6784779
63	0x3f2c96b6	0.67417467

model_cnn.conv_layers.4.0.weight f4 [128, 64, 3]
0	0x3d8176be	0.063214764
1	0x3c0e4e51	0.008685664
2	0x3d8e4b63	0.069479726
3	0xbc5f0fd5	-0.0136146145
4	0xbd623254	-0.055223778
5	0x3d882be2	0.06648995
6	0x3d0ba590	0.03409344
7	0x3d79787d	0.060905922
8	0xbd556aea	-0.052103914
9	0x3c6aa9d9	0.014322721
10	0xbd7468b6	-0.059670173
11	0x3ce40943	0.027836448
12	0x3d668198	0.056275934
13	0x3cc91db2	0.024550293
14	0xbc9c5158	-0.019081756
15	0xbd71b3fd	-0.05900954
16	0x3c9baabf	0.019002317
17	0x3d2e4d39	0.042554114
18	0xbcb64a35	-0.022252182
19	0xbd6f8368	-0.05847493
20	0x3cf5a6ad	0.029986704
21	0x3cf4a5ee	0.029864278
22	0xbccd843d	-0.02508747
23	0xbd822ea1	-0.0635655
24	0xbd95a6d4	-0.073072106
25	0x3d8dde1e	0.06927131
26	0x3ae1e4e0	0.0017234348
27	0x3d4fea83	0.050760757
28	0x3caf52d0	0.021401793
29	0xbc47343c	-0.01215845
30	0xbd3247a9	-0.04352537
31	0xbd93c28a	-0.0721484
32	0x3cb811a4	0.02246935
33	0xbc07f104	-0.008297209
34	0x3cdfc2bf	0.027314542
35	0xbc79e011	-0.0152511755
36	0xbd384259	-0.04498515
37	0xbd67db38	-0.056605548
38	0x3d2832fd	0.04106425
39	0xbcc533f4	-0.024072625
40	0x3d25fdea	0.040525354
41	0xbcbaee9f	-0.022818862
42	0xbcd01a78	-0.025403246
43	0xbc3cce28	-0.011523761
44	0x3d28df6d	0.0412287
45	0xbcccb2be	-0.024987575
46	0xbd66127e	-0.05616998
47	0xbd8d1828	-0.06889373
48	0x3cdab82a	0.026699144
49	0xbd9ad626	-0.07560377
50	0xbc4cbca0	-0.012496144
51	0xbd6c95dc	-0.057760105
52	0xbd2464b9	-0.04013512
53	0xbd989330	-0.07449949
54	0xbcf70dd0	-0.030157954
55	0xbd81f8c5	-0.06346277
56	0xbd410244	-0.0471213
57	0xbd8c698a	-0.068560675
58	0x3c2b9784	0.010473136
59	0xbd50ca16	-0.050973974
60	0xbca39c2a	-0.019971926
61	0xbd8de905	-0.069292106
62	0x3d38b99c	0.045098886
63	0xbd6bc6b3	-0.05756254
64	0xbd3db542	-0.04631544
65	0xbc9ec072	-0.019378874
66	0x3c810c3c	0.015752904
67	0xbce03ce1	-0.02737278
68	0xbd7f41bd	-0.062318552
69	0xbd003aa5	-0.031305928
70	0x3d85ebc1	0.06539107
71	0xbd99abe3	-0.07503488
72	0x3c32cd83	0.010913256
73	0xbbf90a72	-0.007600122
74	0xbaefe212	-0.0018301627
75	0xbd86112d	-0.06546245
76	0x3c0c180f	0.008550658
77	0x3d7ecb86	0.062205814
78	0x3d09fd58	0.033688873
79	0xba2a0116	-0.0006485147
80	0xbd55eb89	-0.052226577
81	0x3c2dbae5	0.010603641
82	0x3d6e5f2d	0.058196235
83	0x3c985de1	0.018599452
84	0x3c8b7734	0.017024614
85	0x3b3e37a9	0.0029024875
86	0xbd63b36e	-0.05559104
87	0xbc85f695	-0.016352931
88	0x3d6c8501	0.05774403
89	0xbd6b1d40	-0.05740094
90	0xbb2b2bc8	-0.0026118625
91	0x3d1528e8	0.036415964
92	0x3d79c47b	0.060978394
93	0xbc9b923d	-0.01899063
94	0xbd29ce7f	-0.041456696
95	0xbc93de78	-0.018050417
96	0xbd37f717	-0.044913378
97	0xbd355834	-0.04427357
98	0x3cff0e2b	0.031134686
99	0xbc9225bc	-0.017840259
100	0x3cdc7f96	0.026916306
101	0xbc75c7e3	-0.01500127
102	0xbd9099ba	-0.07060571
103	0xbd09bb48	-0.03362587
104	0x3d2d08e4	0.042244807
105	0xbc5443f9	-0.012955659
106	0xbcedba58	-0.02901952
107	0x3d6ab267	0.057299044
108	0xbcfb32c2	-0.030663852
109	0x3d00f6ed	0.031485487
110	0xbd3b34bb	-0.045704585
111	0x3cf904c2	0.030397777
112	0x3d63efad	0.055648495
113	0xbcfea38a	-0.03108384
114	0x3cc9872e	0.024600592
115	0x3d4ce24e	0.05002051
116	0xbc1a51f9	-0.009418958
117	0x3a911e59	0.0011071666
118	0xbcdb80ca	-0.02679481
119	0x3d3b9d9a	0.045804597
120	0x3a991434	0.0011678995
121	0xbd378f2a	-0.044814266
122	0x3ce136fd	0.02749204
123	0x3a8ea1ee	0.0010881999
124	0x3d112e8e	0.03544479
125	0x3c9730a5	0.018455813
126	0xbd1c6f33	-0.038191985
127	0xbc9b7147	-0.018974913
128	0xbbebf485	-0.00720078
129	0xbd657269	-0.056017313
130	0xbd996212	-0.074894086
131	0x3d5523b4	0.052036002
132	0x3d1932fe	0.037402146
133	0x3d296163	0.04135264
134	0x3d93d358	0.07218045
135	0x3d424c74	0.047436193
136	0x3d2e228a	0.042513408
137	0xbc86b34b	-0.016442915
138	0xbd813727	-0.063093476
139	0xbcf5db27	-0.030011727
140	0x3cde75ea	0.027155835
141	0xbd998d1e	-0.07497619
142	0x3ce12382	0.027482752
143	0x3ca36e84	0.019950159
144	0xbd893734	-0.06699982
145	0xbd084485	-0.03326847
146	0xbb8ac4e6	-0.004234898
147	0xbcaa00f7	-0.020752413
148	0x3cf79049	0.030220168
149	0x3c354639	0.011064106
150	0xbd9140c1	-0.07092429
151	0xbd370c38	-0.044689387
152	0x3d59074e	0.052985482
153	0x3cc160a9	0.023605661
154	0xbd912abb	-0.07088228
155	0xbcdd79b0	-0.027035564
156	0xbca33b24	-0.019925661
157	0xbd7c757f	-0.06163549
158	0xbd97d114	-0.07412925
159	0xbd8288fe	-0.063737854
160	0xbd3a55ec	-0.045492098
161	0x3c296832	0.0103397835
162	0xbd4e1909	-0.050316844
163	0xbd242376	-0.04007288
164	0xbd958cc9	-0.07302243
165	0xbd322762	-0.04349459
166	0xbd6d4d05	-0.05793478
167	0x3d834175	0.06408969
168	0x3bdedd44	0.0068012793
169	0x3cb3af06	0.021934044
170	0xbd6d5cfb	-0.05795
171	0xbd975ac6	-0.073903605
172	0x3d34e68e	0.044165187
173	0xbd604f77	-0.054763284
174	0xbad0d50d	-0.0015932635
175	0xbd78163d	-0.060568083
176	0x3d171fe8	0.036895663
177	0x38b06ac8	8.4122235e-05
178	0x3d88867e	0.06666277
179	0x3d87f2f0	0.066381335
180	0xbd3f1370	-0.046649396
181	0xbd1a61d9	-0.03769097
182	0x3c81480e	0.015781429
183	0x3d417142	0.04722715
184	0xbd4103fa	-0.047122933
185	0x3d6461ff	0.05575752
186	0x3ccae5e8	0.024767831
187	0xbd96667e	-0.073437676
188	0xbd623394	-0.05522497
189	0x3d7c5dd1	0.061612908
190	0xbb8c9d81	-0.004291237
191	0x3d0e16dc	0.03468977
192	0xbd270206	-0.040773414
193	0xbd770491	-0.06030709
194	0x3d7b06d6	0.061285816
195	0x3c0191e2	0.007908316
196	0x3c8b040c	0.016969703
197	0xbbbc0531	-0.0057379236
198	0xbd388f25	-0.04505839
199	0x3c773a9a	0.015089655
200	0xbcc56224	-0.024094649
201	0x3c3cef0b	0.011531602
202	0xbd260985	-0.040536422
203	0x3d851981	0.06499005
204	0x3befedb7	0.007322039
205	0x3cefde2a	0.02928074
206	0xbc20c772	-0.0098131765
207	0xbc1a1126	-0.009403503
208	0x3d8fdce6	0.07024555
209	0x3bd19e2c	0.0063970294
210	0xbc33a685	-0.010964994
211	0x3d6efb08	0.05834487
212	0x3cd4da42	0.02598298
213	0xbd8c83e1	-0.068610914
214	0x3d0308ee	0.031990938
215	0x3cc74a21	0.02432734
216	0x3b48d730	0.003064584
217	0x3d7a396c	0.061089918
218	0x3cd659ce	0.02616587
219	0xbd187c3b	-0.03722785
220	0xbd97527f	-0.07388782
221	0x3d5dda36	0.05416318
222	0x3bbd83b2	0.0057835216
223	0xbcb251c7	-0.02176751
224	0x3c2a9eb5	0.010413815
225	0x3d56bdb9	0.052427027
226	0xbcd26f25	-0.025687763
227	0x3cd9fffb	0.026611319
228	0x3ca4e172	0.020127032
229	0xbd4773c2	-0.04869438
230	0xbd627be5	-0.055293936
231	0x3d282758	0.041053146
232	0xbc4966c1	-0.012292565
233	0x3c22dade	0.009939877
234	0xbd418426	-0.047245167
235	0x3c1132e3	0.00886223
236	0xbcdf7536	-0.02727757
237	0x3c942114	0.01808218
238	0x3d0ec8f6	0.03485962
239	0xbd6db664	-0.05803527
240	0xbd336762	-0.043799765
241	0x3d907a38	0.070545614
242	0x3a9e30b6	0.001206896
243	0xbd3d9efa	-0.04629419
244	0x3cc27f87	0.02374245
245	0x3d660c8e	0.056164317
246	0x3d1b75d6	0.037954174
247	0x3d92c65f	0.071667425
248	0x3c2619a5	0.01013795
249	0xbd8204e9	-0.06348593
250	0xbd9a36aa	-0.075299576
251	0x3d8d76fb	0.06907459
252	0x3d48164c	0.04884939
253	0x3c903b47	0.01760639
254	0x3d7e9e3a	0.062162615
255	0xbaf103ff	-0.0018388032

model_cnn.conv_layers.4.0.bias f4 [128]
0	0x3d50e7c2	0.05100227
1	0xbd33e75a	-0.043921806
2	0x3d37816a	0.044801153
3	0x3c0920b3	0.0083696125
4	0x3c61d54d	0.013783765
5	0xbcc8aaf5	-0.024495581
6	0x3d03f11f	0.032212373
7	0xbd55d7de	-0.05220782
8	0x3d78047a	0.060551144
9	0xbd23a6a6	-0.03995385
10	0x3d55353e	0.05205273
11	0xbc9c4889	-0.019077556
12	0x39b5e12c	0.00034690776
13	0xbc950be4	-0.018194146
14	0x3c18a25a	0.009316051
15	0xbd5c5cf1	-0.053799573
16	0x3cfa304d	0.03054061
17	0xbd0f6d1b	-0.03501616
18	0x3cf2351d	0.029566342
19	0xb9a6a67f	-0.00031786037
20	0xbd64e44b	-0.05588178
21	0xba8d0012	-0.0010757467
22	0x3d7c5d28	0.06161228
23	0xbc9bbecf	-0.019011883
24	0xbc4ab85a	-0.012373054
25	0xbd18a760	-0.037268996
26	0xba87be08	-0.0010356316
27	0xbd1db549	-0.038502965
28	0xbd26d937	-0.040734496
29	0xbd693705	-0.056937236
30	0x3d329f04	0.04360868
31	0x3d0294b7	0.031880107
32	0x3c27516c	0.010212284
33	0x3ca03043	0.019554263
34	0x3d79f6dc	0.06102644
35	0x3c9b5e0e	0.018965747
36	0x3d7238eb	0.059136312
37	0xbd2ca2c1	-0.0421474
38	0x38576170	5.135074e-05
39	0x3d58caf0	0.05292791
40	0x3cb66152	0.022263203
41	0x3d081ff0	0.033233583
42	0x3d1412f5	0.03615089
43	0x3cf54815	0.029941598
44	0x3cc3b4db	0.02388995
45	0xbc2facf6	-0.010722389
46	0xbcbe1188	-0.023201719
47	0x3d8baf84	0.06820586
48	0xbd7302b1	-0.05932874
49	0x3d6aedbc	0.057355627
50	0x3cfb33d4	0.030664362
51	0xbd878eb5	-0.06619016
52	0x399a6d18	0.0002945445
53	0x3ba9a1e6	0.0051767705
54	0xbd33b619	-0.043874834
55	0xbc6ea553	-0.014565784
56	0x3d5b0af1	0.05347723
57	0x3d6b91e6	0.057512186
58	0x3c2f72c4	0.010708515
59	0x3c7f5efa	0.015586609
60	0xbce400f5	-0.027832488
61	0xbd1dcbb4	-0.038524345
62	0xbcc0e64f	-0.02354732
63	0x3c5c7958	0.013456665
64	0x3b88c558	0.004173916
65	0x3ceafca4	0.028684922
66	0x3c1de6a5	0.0096375095
67	0xbd88d006	-0.06680302
68	0xbd27b114	-0.04094036
69	0x3c4bda0b	0.012442122
70	0xbd5026f1	-0.050818387
71	0x3d671a00	0.05642128
72	0xbd35a8df	-0.0443505
73	0x3bf0d988	0.0073501505
74	0xbd420d79	-0.04737613
75	0x3c0c520c	0.008564483
76	0xbd8a83a1	-0.067633875
77	0x3d416d5e	0.04722344
78	0x3d6a4c01	0.05720139
79	0x3d6c4c1e	0.05768978
80	0xba284da6	-0.0006420262
81	0x3d209f14	0.03921421
82	0xbd84da13	-0.06486907
83	0xbd369838	-0.04457876
84	0xb9c6576c	-0.00037830637
85	0xbd0e1fd3	-0.03469832
86	0x3d82b3dd	0.063819624
87	0xbb4df41a	-0.0031426013
88	0x3c7c7b93	0.015410322
89	0x3d34a124	0.04409899
90	0x3d7f8f0e	0.062392287
91	0xbb3a5c41	-0.0028436335
92	0x396d24e4	0.00022615824
93	0xbd55dd5f	-0.05221307
94	0x3d898dc8	0.06716496
95	0x3d5410e6	0.051773928
96	0x3d615dcd	0.055021096
97	0x3d8681ae	0.06567703
98	0xbd2b57c4	-0.041831747
99	0xbaef2fd4	-0.0018248507
100	0xbd65313b	-0.055955153
101	0x3d493bbe	0.04912924
102	0x3d874f1e	0.06606887
103	0x3d6d128e	0.057879023
104	0x3ca7d832	0.020488832
105	0xbcb76758	-0.022388145
106	0x3d122ee3	0.035689246
107	0x3d1be154	0.038056687
108	0x3cc5e76f	0.024158208
109	0x3bbb9f54	0.0057257805
110	0xbb8c5e22	-0.0042836824
111	0xbc96bc22	-0.018400256
112	0xbbad7ef0	-0.005294673
113	0xbd63431d	-0.055483926
114	0xbc304825	-0.010759388
115	0x3c608894	0.013704438
116	0x3a80a149	0.0009813692
117	0xbc3e74d0	-0.01162453
118	0x3d42a184	0.047517315
119	0x3c14d911	0.009084956
120	0x3c3e2048	0.011604376
121	0x3d4eafa6	0.05046048
122	0x3d4a6c0a	0.04941944
123	0x3ce31270	0.027718753
124	0x3c2b194d	0.010443044
125	0xbd8122b6	-0.06305449
126	0xbd068e77	-0.03285071
127	0x3d0873c3	0.033313524

model_cnn.conv_layers.4.1.weight f4 [128]
0	0x3f7fe4d8	0.9995856
1	0x3f802fae	1.0014551
2	0x3f807bbf	1.0037764
3	0x3f807b35	1.00376
4	0x3f802bb7	1.0013341
5	0x3f807e05	1.0038458
6	0x3f7f8153	0.9980671
7	0x3f8034da	1.0016129
8	0x3f80135b	1.0005907
9	0x3f7f783b	0.9979283
10	0x3f8072f4	1.0035081
11	0x3f8081eb	1.0039648
12	0x3f7f935b	0.9983422
13	0x3f805ab6	1.0027683
14	0x3f7fa63a	0.99863017
15	0x3f806fb0	1.0034084
16	0x3f7fb27b	0.99881715
17	0x3f7f4a79	0.9972301
18	0x3f80766b	1.0036138
19	0x3f8008cf	1.0002688
20	0x3f807f20	1.0038795
21	0x3f806fbf	1.0034102
22	0x3f800ffb	1.0004877
23	0x3f807af2	1.003752
24	0x3f7f3890	0.9969568
25	0x3f807fd9	1.0039016
26	0x3f8081a4	1.0039563
27	0x3f7fcf77	0.9992594
28	0x3f804cbd	1.0023419
29	0x3f80063c	1.0001903
30	0x3f8019a4	1.0007825
31	0x3f800c1c	1.0003695
32	0x3f807410	1.003542
33	0x3f7f277b	0.9966962
34	0x3f80319d	1.0015141
35	0x3f807d80	1.00383
36	0x3f804d06	1.0023506
37	0x3f8020ea	1.0010045
38	0x3f8071b7	1.0034703
39	0x3f7f2f07	0.99681133
40	0x3f7ffdc4	0.9999659
41	0x3f807736	1.003638
42	0x3f808138	1.0039434
43	0x3f8057b0	1.002676
44	0x3f807c79	1.0037986
45	0x3f7fe091	0.99952036
46	0x3f801f5f	1.0009574
47	0x3f7f2af9	0.99674946
48	0x3f807bc7	1.0037774
49	0x3f802540	1.0011368
50	0x3f807b32	1.0037596
51	0x3f7f0544	0.9961741
52	0x3f808133	1.0039428
53	0x3f807fbd	1.0038983
54	0x3f80300d	1.0014664
55	0x3f807f8d	1.0038925
56	0x3f807d9e	1.0038335
57	0x3f7f45fc	0.9971616
58	0x3f801e2f	1.0009211
59	0x3f804a79	1.0022727
60	0x3f7fa3c4	0.9985926
61	0x3f7f3fbd	0.9970663
62	0x3f7ffff4	0.9999993
63	0x3f7fc381	0.9990769
64	0x3f807285	1.0034949
65	0x3f807283	1.0034946
66	0x3f808255	1.0039774
67	0x3f7efce2	0.9960462
68	0x3f7fc027	0.99902576
69	0x3f7f847e	0.9981154
70	0x3f80768f	1.0036181
71	0x3f8080bc	1.0039287
72	0x3f7f5115	0.99733096
73	0x3f8082c3	1.0039905
74	0x3f80199b	1.0007814
75	0x3f808265	1.0039793
76	0x3f7fe9a2	0.9996587
77	0x3f802a52	1.0012915
78	0x3f808313	1.0040001
79	0x3f807c8f	1.0038012
80	0x3f7f7fe8	0.99804544
81	0x3f808031	1.0039121
82	0x3f8080be	1.0039289
83	0x3f807a94	1.0037408
84	0x3f807f4b	1.0038847
85	0x3f7fc0c0	0.9990349
86	0x3f807b40	1.0037613
87	0x3f7f37f4	0.9969475
88	0x3f807fed	1.003904
89	0x3f7fe760	0.99962425
90	0x3f80324d	1.001535
91	0x3f807ed4	1.0038705
92	0x3f7fd4da	0.9993416
93	0x3f806aef	1.0032634
94	0x3f8079d8	1.0037184
95	0x3f80740a	1.0035412
96	0x3f7fe8c9	0.99964577
97	0x3f807b5d	1.0037647
98	0x3f8029f2	1.0012801
99	0x3f7f6094	0.9975674
100	0x3f807f03	1.0038761
101	0x3f808227	1.0039719
102	0x3f808187	1.0039529
103	0x3f807187	1.0034646
104	0x3f7f7061	0.9978085
105	0x3f7f25e3	0.99667186
106	0x3f7feca6	0.9997047
107	0x3f802233	1.0010437
108	0x3f7fd91e	0.9994067
109	0x3f808260	1.0039787
110	0x3f807f82	1.0038912
111	0x3f7f4b30	0.997241
112	0x3f807e7b	1.0038599
113	0x3f807fff	1.0039061
114	0x3f7fb4c7	0.9988522
115	0x3f7feb23	0.99968165
116	0x3f80822c	1.0039725
117	0x3f7fe850	0.99963856
118	0x3f801d05	1.0008856
119	0x3f8082ba	1.0039895
120	0x3f80822a	1.0039723
121	0x3f806f1e	1.003391
122	0x3f8027e5	1.0012175
123	0x3f8082a9	1.0039874
124	0x3f7f931a	0.99833834
125	0x3f7ff97c	0.9999006
126	0x3f8081af	1.0039576
127	0x3f7ff7bf	0.99987406
